WARNING: Logging before InitGoogleLogging() is written to STDERR
I0110 20:21:31.451174   776 net.cpp:46] Initializing net from parameters: 
name: "BN-Inception"
input: "data"
input_dim: 1
input_dim: 3
input_dim: 224
input_dim: 224
state {
  phase: TEST
}
layer {
  name: "conv1/7x7_s2"
  type: "Convolution"
  bottom: "data"
  top: "conv1/7x7_s2"
  param {
    lr_mult: 1
    decay_mult: 1
  }
  param {
    lr_mult: 2
    decay_mult: 0
  }
  convolution_param {
    num_output: 64
    pad: 3
    kernel_size: 7
    stride: 2
    weight_filler {
      type: "xavier"
    }
    bias_filler {
      type: "constant"
      value: 0.2
    }
  }
}
layer {
  name: "conv1/7x7_s2_bn"
  type: "BN"
  bottom: "conv1/7x7_s2"
  top: "conv1/7x7_s2_bn"
  param {
    lr_mult: 1
    decay_mult: 0
  }
  param {
    lr_mult: 1
    decay_mult: 0
  }
  bn_param {
    slope_filler {
      type: "constant"
      value: 1
    }
    bias_filler {
      type: "constant"
      value: 0
    }
    frozen: true
  }
}
layer {
  name: "conv1/relu_7x7"
  type: "ReLU"
  bottom: "conv1/7x7_s2_bn"
  top: "conv1/7x7_s2_bn"
}
layer {
  name: "pool1/3x3_s2"
  type: "Pooling"
  bottom: "conv1/7x7_s2_bn"
  top: "pool1/3x3_s2"
  pooling_param {
    pool: MAX
    kernel_size: 3
    stride: 2
  }
}
layer {
  name: "conv2/3x3_reduce"
  type: "Convolution"
  bottom: "pool1/3x3_s2"
  top: "conv2/3x3_reduce"
  param {
    lr_mult: 1
    decay_mult: 1
  }
  param {
    lr_mult: 2
    decay_mult: 0
  }
  convolution_param {
    num_output: 64
    kernel_size: 1
    weight_filler {
      type: "xavier"
    }
    bias_filler {
      type: "constant"
      value: 0.2
    }
  }
}
layer {
  name: "conv2/3x3_reduce_bn"
  type: "BN"
  bottom: "conv2/3x3_reduce"
  top: "conv2/3x3_reduce_bn"
  param {
    lr_mult: 1
    decay_mult: 0
  }
  param {
    lr_mult: 1
    decay_mult: 0
  }
  bn_param {
    slope_filler {
      type: "constant"
      value: 1
    }
    bias_filler {
      type: "constant"
      value: 0
    }
    frozen: true
  }
}
layer {
  name: "conv2/relu_3x3_reduce"
  type: "ReLU"
  bottom: "conv2/3x3_reduce_bn"
  top: "conv2/3x3_reduce_bn"
}
layer {
  name: "conv2/3x3"
  type: "Convolution"
  bottom: "conv2/3x3_reduce_bn"
  top: "conv2/3x3"
  param {
    lr_mult: 1
    decay_mult: 1
  }
  param {
    lr_mult: 2
    decay_mult: 0
  }
  convolution_param {
    num_output: 192
    pad: 1
    kernel_size: 3
    weight_filler {
      type: "xavier"
    }
    bias_filler {
      type: "constant"
      value: 0.2
    }
  }
}
layer {
  name: "conv2/3x3_bn"
  type: "BN"
  bottom: "conv2/3x3"
  top: "conv2/3x3_bn"
  param {
    lr_mult: 1
    decay_mult: 0
  }
  param {
    lr_mult: 1
    decay_mult: 0
  }
  bn_param {
    slope_filler {
      type: "constant"
      value: 1
    }
    bias_filler {
      type: "constant"
      value: 0
    }
    frozen: true
  }
}
layer {
  name: "conv2/relu_3x3"
  type: "ReLU"
  bottom: "conv2/3x3_bn"
  top: "conv2/3x3_bn"
}
layer {
  name: "pool2/3x3_s2"
  type: "Pooling"
  bottom: "conv2/3x3_bn"
  top: "pool2/3x3_s2"
  pooling_param {
    pool: MAX
    kernel_size: 3
    stride: 2
  }
}
layer {
  name: "inception_3a/1x1"
  type: "Convolution"
  bottom: "pool2/3x3_s2"
  top: "inception_3a/1x1"
  param {
    lr_mult: 1
    decay_mult: 1
  }
  param {
    lr_mult: 2
    decay_mult: 0
  }
  convolution_param {
    num_output: 64
    kernel_size: 1
    weight_filler {
      type: "xavier"
    }
    bias_filler {
      type: "constant"
      value: 0.2
    }
  }
}
layer {
  name: "inception_3a/1x1_bn"
  type: "BN"
  bottom: "inception_3a/1x1"
  top: "inception_3a/1x1_bn"
  param {
    lr_mult: 1
    decay_mult: 0
  }
  param {
    lr_mult: 1
    decay_mult: 0
  }
  bn_param {
    slope_filler {
      type: "constant"
      value: 1
    }
    bias_filler {
      type: "constant"
      value: 0
    }
    frozen: true
  }
}
layer {
  name: "inception_3a/relu_1x1"
  type: "ReLU"
  bottom: "inception_3a/1x1_bn"
  top: "inception_3a/1x1_bn"
}
layer {
  name: "inception_3a/3x3_reduce"
  type: "Convolution"
  bottom: "pool2/3x3_s2"
  top: "inception_3a/3x3_reduce"
  param {
    lr_mult: 1
    decay_mult: 1
  }
  param {
    lr_mult: 2
    decay_mult: 0
  }
  convolution_param {
    num_output: 64
    kernel_size: 1
    weight_filler {
      type: "xavier"
    }
    bias_filler {
      type: "constant"
      value: 0.2
    }
  }
}
layer {
  name: "inception_3a/3x3_reduce_bn"
  type: "BN"
  bottom: "inception_3a/3x3_reduce"
  top: "inception_3a/3x3_reduce_bn"
  param {
    lr_mult: 1
    decay_mult: 0
  }
  param {
    lr_mult: 1
    decay_mult: 0
  }
  bn_param {
    slope_filler {
      type: "constant"
      value: 1
    }
    bias_filler {
      type: "constant"
      value: 0
    }
    frozen: true
  }
}
layer {
  name: "inception_3a/relu_3x3_reduce"
  type: "ReLU"
  bottom: "inception_3a/3x3_reduce_bn"
  top: "inception_3a/3x3_reduce_bn"
}
layer {
  name: "inception_3a/3x3"
  type: "Convolution"
  bottom: "inception_3a/3x3_reduce_bn"
  top: "inception_3a/3x3"
  param {
    lr_mult: 1
    decay_mult: 1
  }
  param {
    lr_mult: 2
    decay_mult: 0
  }
  convolution_param {
    num_output: 64
    pad: 1
    kernel_size: 3
    weight_filler {
      type: "xavier"
    }
    bias_filler {
      type: "constant"
      value: 0.2
    }
  }
}
layer {
  name: "inception_3a/3x3_bn"
  type: "BN"
  bottom: "inception_3a/3x3"
  top: "inception_3a/3x3_bn"
  param {
    lr_mult: 1
    decay_mult: 0
  }
  param {
    lr_mult: 1
    decay_mult: 0
  }
  bn_param {
    slope_filler {
      type: "constant"
      value: 1
    }
    bias_filler {
      type: "constant"
      value: 0
    }
    frozen: true
  }
}
layer {
  name: "inception_3a/relu_3x3"
  type: "ReLU"
  bottom: "inception_3a/3x3_bn"
  top: "inception_3a/3x3_bn"
}
layer {
  name: "inception_3a/double_3x3_reduce"
  type: "Convolution"
  bottom: "pool2/3x3_s2"
  top: "inception_3a/double_3x3_reduce"
  param {
    lr_mult: 1
    decay_mult: 1
  }
  param {
    lr_mult: 2
    decay_mult: 0
  }
  convolution_param {
    num_output: 64
    kernel_size: 1
    weight_filler {
      type: "xavier"
    }
    bias_filler {
      type: "constant"
      value: 0.2
    }
  }
}
layer {
  name: "inception_3a/double_3x3_reduce_bn"
  type: "BN"
  bottom: "inception_3a/double_3x3_reduce"
  top: "inception_3a/double_3x3_reduce_bn"
  param {
    lr_mult: 1
    decay_mult: 0
  }
  param {
    lr_mult: 1
    decay_mult: 0
  }
  bn_param {
    slope_filler {
      type: "constant"
      value: 1
    }
    bias_filler {
      type: "constant"
      value: 0
    }
    frozen: true
  }
}
layer {
  name: "inception_3a/relu_double_3x3_reduce"
  type: "ReLU"
  bottom: "inception_3a/double_3x3_reduce_bn"
  top: "inception_3a/double_3x3_reduce_bn"
}
layer {
  name: "inception_3a/double_3x3_1"
  type: "Convolution"
  bottom: "inception_3a/double_3x3_reduce_bn"
  top: "inception_3a/double_3x3_1"
  param {
    lr_mult: 1
    decay_mult: 1
  }
  param {
    lr_mult: 2
    decay_mult: 0
  }
  convolution_param {
    num_output: 96
    pad: 1
    kernel_size: 3
    weight_filler {
      type: "xavier"
    }
    bias_filler {
      type: "constant"
      value: 0.2
    }
  }
}
layer {
  name: "inception_3a/double_3x3_1_bn"
  type: "BN"
  bottom: "inception_3a/double_3x3_1"
  top: "inception_3a/double_3x3_1_bn"
  param {
    lr_mult: 1
    decay_mult: 0
  }
  param {
    lr_mult: 1
    decay_mult: 0
  }
  bn_param {
    slope_filler {
      type: "constant"
      value: 1
    }
    bias_filler {
      type: "constant"
      value: 0
    }
    frozen: true
  }
}
layer {
  name: "inception_3a/relu_double_3x3_1"
  type: "ReLU"
  bottom: "inception_3a/double_3x3_1_bn"
  top: "inception_3a/double_3x3_1_bn"
}
layer {
  name: "inception_3a/double_3x3_2"
  type: "Convolution"
  bottom: "inception_3a/double_3x3_1_bn"
  top: "inception_3a/double_3x3_2"
  param {
    lr_mult: 1
    decay_mult: 1
  }
  param {
    lr_mult: 2
    decay_mult: 0
  }
  convolution_param {
    num_output: 96
    pad: 1
    kernel_size: 3
    weight_filler {
      type: "xavier"
    }
    bias_filler {
      type: "constant"
      value: 0.2
    }
  }
}
layer {
  name: "inception_3a/double_3x3_2_bn"
  type: "BN"
  bottom: "inception_3a/double_3x3_2"
  top: "inception_3a/double_3x3_2_bn"
  param {
    lr_mult: 1
    decay_mult: 0
  }
  param {
    lr_mult: 1
    decay_mult: 0
  }
  bn_param {
    slope_filler {
      type: "constant"
      value: 1
    }
    bias_filler {
      type: "constant"
      value: 0
    }
    frozen: true
  }
}
layer {
  name: "inception_3a/relu_double_3x3_2"
  type: "ReLU"
  bottom: "inception_3a/double_3x3_2_bn"
  top: "inception_3a/double_3x3_2_bn"
}
layer {
  name: "inception_3a/pool"
  type: "Pooling"
  bottom: "pool2/3x3_s2"
  top: "inception_3a/pool"
  pooling_param {
    pool: AVE
    kernel_size: 3
    stride: 1
    pad: 1
  }
}
layer {
  name: "inception_3a/pool_proj"
  type: "Convolution"
  bottom: "inception_3a/pool"
  top: "inception_3a/pool_proj"
  param {
    lr_mult: 1
    decay_mult: 1
  }
  param {
    lr_mult: 2
    decay_mult: 0
  }
  convolution_param {
    num_output: 32
    kernel_size: 1
    weight_filler {
      type: "xavier"
    }
    bias_filler {
      type: "constant"
      value: 0.2
    }
  }
}
layer {
  name: "inception_3a/pool_proj_bn"
  type: "BN"
  bottom: "inception_3a/pool_proj"
  top: "inception_3a/pool_proj_bn"
  param {
    lr_mult: 1
    decay_mult: 0
  }
  param {
    lr_mult: 1
    decay_mult: 0
  }
  bn_param {
    slope_filler {
      type: "constant"
      value: 1
    }
    bias_filler {
      type: "constant"
      value: 0
    }
    frozen: true
  }
}
layer {
  name: "inception_3a/relu_pool_proj"
  type: "ReLU"
  bottom: "inception_3a/pool_proj_bn"
  top: "inception_3a/pool_proj_bn"
}
layer {
  name: "inception_3a/output"
  type: "Concat"
  bottom: "inception_3a/1x1_bn"
  bottom: "inception_3a/3x3_bn"
  bottom: "inception_3a/double_3x3_2_bn"
  bottom: "inception_3a/pool_proj_bn"
  top: "inception_3a/output"
}
layer {
  name: "inception_3b/1x1"
  type: "Convolution"
  bottom: "inception_3a/output"
  top: "inception_3b/1x1"
  param {
    lr_mult: 1
    decay_mult: 1
  }
  param {
    lr_mult: 2
    decay_mult: 0
  }
  convolution_param {
    num_output: 64
    kernel_size: 1
    weight_filler {
      type: "xavier"
    }
    bias_filler {
      type: "constant"
      value: 0.2
    }
  }
}
layer {
  name: "inception_3b/1x1_bn"
  type: "BN"
  bottom: "inception_3b/1x1"
  top: "inception_3b/1x1_bn"
  param {
    lr_mult: 1
    decay_mult: 0
  }
  param {
    lr_mult: 1
    decay_mult: 0
  }
  bn_param {
    slope_filler {
      type: "constant"
      value: 1
    }
    bias_filler {
      type: "constant"
      value: 0
    }
    frozen: true
  }
}
layer {
  name: "inception_3b/relu_1x1"
  type: "ReLU"
  bottom: "inception_3b/1x1_bn"
  top: "inception_3b/1x1_bn"
}
layer {
  name: "inception_3b/3x3_reduce"
  type: "Convolution"
  bottom: "inception_3a/output"
  top: "inception_3b/3x3_reduce"
  param {
    lr_mult: 1
    decay_mult: 1
  }
  param {
    lr_mult: 2
    decay_mult: 0
  }
  convolution_param {
    num_output: 64
    kernel_size: 1
    weight_filler {
      type: "xavier"
    }
    bias_filler {
      type: "constant"
      value: 0.2
    }
  }
}
layer {
  name: "inception_3b/3x3_reduce_bn"
  type: "BN"
  bottom: "inception_3b/3x3_reduce"
  top: "inception_3b/3x3_reduce_bn"
  param {
    lr_mult: 1
    decay_mult: 0
  }
  param {
    lr_mult: 1
    decay_mult: 0
  }
  bn_param {
    slope_filler {
      type: "constant"
      value: 1
    }
    bias_filler {
      type: "constant"
      value: 0
    }
    frozen: true
  }
}
layer {
  name: "inception_3b/relu_3x3_reduce"
  type: "ReLU"
  bottom: "inception_3b/3x3_reduce_bn"
  top: "inception_3b/3x3_reduce_bn"
}
layer {
  name: "inception_3b/3x3"
  type: "Convolution"
  bottom: "inception_3b/3x3_reduce_bn"
  top: "inception_3b/3x3"
  param {
    lr_mult: 1
    decay_mult: 1
  }
  param {
    lr_mult: 2
    decay_mult: 0
  }
  convolution_param {
    num_output: 96
    pad: 1
    kernel_size: 3
    weight_filler {
      type: "xavier"
    }
    bias_filler {
      type: "constant"
      value: 0.2
    }
  }
}
layer {
  name: "inception_3b/3x3_bn"
  type: "BN"
  bottom: "inception_3b/3x3"
  top: "inception_3b/3x3_bn"
  param {
    lr_mult: 1
    decay_mult: 0
  }
  param {
    lr_mult: 1
    decay_mult: 0
  }
  bn_param {
    slope_filler {
      type: "constant"
      value: 1
    }
    bias_filler {
      type: "constant"
      value: 0
    }
    frozen: true
  }
}
layer {
  name: "inception_3b/relu_3x3"
  type: "ReLU"
  bottom: "inception_3b/3x3_bn"
  top: "inception_3b/3x3_bn"
}
layer {
  name: "inception_3b/double_3x3_reduce"
  type: "Convolution"
  bottom: "inception_3a/output"
  top: "inception_3b/double_3x3_reduce"
  param {
    lr_mult: 1
    decay_mult: 1
  }
  param {
    lr_mult: 2
    decay_mult: 0
  }
  convolution_param {
    num_output: 64
    kernel_size: 1
    weight_filler {
      type: "xavier"
    }
    bias_filler {
      type: "constant"
      value: 0.2
    }
  }
}
layer {
  name: "inception_3b/double_3x3_reduce_bn"
  type: "BN"
  bottom: "inception_3b/double_3x3_reduce"
  top: "inception_3b/double_3x3_reduce_bn"
  param {
    lr_mult: 1
    decay_mult: 0
  }
  param {
    lr_mult: 1
    decay_mult: 0
  }
  bn_param {
    slope_filler {
      type: "constant"
      value: 1
    }
    bias_filler {
      type: "constant"
      value: 0
    }
    frozen: true
  }
}
layer {
  name: "inception_3b/relu_double_3x3_reduce"
  type: "ReLU"
  bottom: "inception_3b/double_3x3_reduce_bn"
  top: "inception_3b/double_3x3_reduce_bn"
}
layer {
  name: "inception_3b/double_3x3_1"
  type: "Convolution"
  bottom: "inception_3b/double_3x3_reduce_bn"
  top: "inception_3b/double_3x3_1"
  param {
    lr_mult: 1
    decay_mult: 1
  }
  param {
    lr_mult: 2
    decay_mult: 0
  }
  convolution_param {
    num_output: 96
    pad: 1
    kernel_size: 3
    weight_filler {
      type: "xavier"
    }
    bias_filler {
      type: "constant"
      value: 0.2
    }
  }
}
layer {
  name: "inception_3b/double_3x3_1_bn"
  type: "BN"
  bottom: "inception_3b/double_3x3_1"
  top: "inception_3b/double_3x3_1_bn"
  param {
    lr_mult: 1
    decay_mult: 0
  }
  param {
    lr_mult: 1
    decay_mult: 0
  }
  bn_param {
    slope_filler {
      type: "constant"
      value: 1
    }
    bias_filler {
      type: "constant"
      value: 0
    }
    frozen: true
  }
}
layer {
  name: "inception_3b/relu_double_3x3_1"
  type: "ReLU"
  bottom: "inception_3b/double_3x3_1_bn"
  top: "inception_3b/double_3x3_1_bn"
}
layer {
  name: "inception_3b/double_3x3_2"
  type: "Convolution"
  bottom: "inception_3b/double_3x3_1_bn"
  top: "inception_3b/double_3x3_2"
  param {
    lr_mult: 1
    decay_mult: 1
  }
  param {
    lr_mult: 2
    decay_mult: 0
  }
  convolution_param {
    num_output: 96
    pad: 1
    kernel_size: 3
    weight_filler {
      type: "xavier"
    }
    bias_filler {
      type: "constant"
      value: 0.2
    }
  }
}
layer {
  name: "inception_3b/double_3x3_2_bn"
  type: "BN"
  bottom: "inception_3b/double_3x3_2"
  top: "inception_3b/double_3x3_2_bn"
  param {
    lr_mult: 1
    decay_mult: 0
  }
  param {
    lr_mult: 1
    decay_mult: 0
  }
  bn_param {
    slope_filler {
      type: "constant"
      value: 1
    }
    bias_filler {
      type: "constant"
      value: 0
    }
    frozen: true
  }
}
layer {
  name: "inception_3b/relu_double_3x3_2"
  type: "ReLU"
  bottom: "inception_3b/double_3x3_2_bn"
  top: "inception_3b/double_3x3_2_bn"
}
layer {
  name: "inception_3b/pool"
  type: "Pooling"
  bottom: "inception_3a/output"
  top: "inception_3b/pool"
  pooling_param {
    pool: AVE
    kernel_size: 3
    stride: 1
    pad: 1
  }
}
layer {
  name: "inception_3b/pool_proj"
  type: "Convolution"
  bottom: "inception_3b/pool"
  top: "inception_3b/pool_proj"
  param {
    lr_mult: 1
    decay_mult: 1
  }
  param {
    lr_mult: 2
    decay_mult: 0
  }
  convolution_param {
    num_output: 64
    kernel_size: 1
    weight_filler {
      type: "xavier"
    }
    bias_filler {
      type: "constant"
      value: 0.2
    }
  }
}
layer {
  name: "inception_3b/pool_proj_bn"
  type: "BN"
  bottom: "inception_3b/pool_proj"
  top: "inception_3b/pool_proj_bn"
  param {
    lr_mult: 1
    decay_mult: 0
  }
  param {
    lr_mult: 1
    decay_mult: 0
  }
  bn_param {
    slope_filler {
      type: "constant"
      value: 1
    }
    bias_filler {
      type: "constant"
      value: 0
    }
    frozen: true
  }
}
layer {
  name: "inception_3b/relu_pool_proj"
  type: "ReLU"
  bottom: "inception_3b/pool_proj_bn"
  top: "inception_3b/pool_proj_bn"
}
layer {
  name: "inception_3b/output"
  type: "Concat"
  bottom: "inception_3b/1x1_bn"
  bottom: "inception_3b/3x3_bn"
  bottom: "inception_3b/double_3x3_2_bn"
  bottom: "inception_3b/pool_proj_bn"
  top: "inception_3b/output"
}
layer {
  name: "inception_3c/3x3_reduce"
  type: "Convolution"
  bottom: "inception_3b/output"
  top: "inception_3c/3x3_reduce"
  param {
    lr_mult: 1
    decay_mult: 1
  }
  param {
    lr_mult: 2
    decay_mult: 0
  }
  convolution_param {
    num_output: 128
    kernel_size: 1
    weight_filler {
      type: "xavier"
    }
    bias_filler {
      type: "constant"
      value: 0.2
    }
  }
}
layer {
  name: "inception_3c/3x3_reduce_bn"
  type: "BN"
  bottom: "inception_3c/3x3_reduce"
  top: "inception_3c/3x3_reduce_bn"
  param {
    lr_mult: 1
    decay_mult: 0
  }
  param {
    lr_mult: 1
    decay_mult: 0
  }
  bn_param {
    slope_filler {
      type: "constant"
      value: 1
    }
    bias_filler {
      type: "constant"
      value: 0
    }
    frozen: true
  }
}
layer {
  name: "inception_3c/relu_3x3_reduce"
  type: "ReLU"
  bottom: "inception_3c/3x3_reduce_bn"
  top: "inception_3c/3x3_reduce_bn"
}
layer {
  name: "inception_3c/3x3"
  type: "Convolution"
  bottom: "inception_3c/3x3_reduce_bn"
  top: "inception_3c/3x3"
  param {
    lr_mult: 1
    decay_mult: 1
  }
  param {
    lr_mult: 2
    decay_mult: 0
  }
  convolution_param {
    num_output: 160
    pad: 1
    kernel_size: 3
    stride: 2
    weight_filler {
      type: "xavier"
    }
    bias_filler {
      type: "constant"
      value: 0.2
    }
  }
}
layer {
  name: "inception_3c/3x3_bn"
  type: "BN"
  bottom: "inception_3c/3x3"
  top: "inception_3c/3x3_bn"
  param {
    lr_mult: 1
    decay_mult: 0
  }
  param {
    lr_mult: 1
    decay_mult: 0
  }
  bn_param {
    slope_filler {
      type: "constant"
      value: 1
    }
    bias_filler {
      type: "constant"
      value: 0
    }
    frozen: true
  }
}
layer {
  name: "inception_3c/relu_3x3"
  type: "ReLU"
  bottom: "inception_3c/3x3_bn"
  top: "inception_3c/3x3_bn"
}
layer {
  name: "inception_3c/double_3x3_reduce"
  type: "Convolution"
  bottom: "inception_3b/output"
  top: "inception_3c/double_3x3_reduce"
  param {
    lr_mult: 1
    decay_mult: 1
  }
  param {
    lr_mult: 2
    decay_mult: 0
  }
  convolution_param {
    num_output: 64
    kernel_size: 1
    weight_filler {
      type: "xavier"
    }
    bias_filler {
      type: "constant"
      value: 0.2
    }
  }
}
layer {
  name: "inception_3c/double_3x3_reduce_bn"
  type: "BN"
  bottom: "inception_3c/double_3x3_reduce"
  top: "inception_3c/double_3x3_reduce_bn"
  param {
    lr_mult: 1
    decay_mult: 0
  }
  param {
    lr_mult: 1
    decay_mult: 0
  }
  bn_param {
    slope_filler {
      type: "constant"
      value: 1
    }
    bias_filler {
      type: "constant"
      value: 0
    }
    frozen: true
  }
}
layer {
  name: "inception_3c/relu_double_3x3_reduce"
  type: "ReLU"
  bottom: "inception_3c/double_3x3_reduce_bn"
  top: "inception_3c/double_3x3_reduce_bn"
}
layer {
  name: "inception_3c/double_3x3_1"
  type: "Convolution"
  bottom: "inception_3c/double_3x3_reduce_bn"
  top: "inception_3c/double_3x3_1"
  param {
    lr_mult: 1
    decay_mult: 1
  }
  param {
    lr_mult: 2
    decay_mult: 0
  }
  convolution_param {
    num_output: 96
    pad: 1
    kernel_size: 3
    weight_filler {
      type: "xavier"
    }
    bias_filler {
      type: "constant"
      value: 0.2
    }
  }
}
layer {
  name: "inception_3c/double_3x3_1_bn"
  type: "BN"
  bottom: "inception_3c/double_3x3_1"
  top: "inception_3c/double_3x3_1_bn"
  param {
    lr_mult: 1
    decay_mult: 0
  }
  param {
    lr_mult: 1
    decay_mult: 0
  }
  bn_param {
    slope_filler {
      type: "constant"
      value: 1
    }
    bias_filler {
      type: "constant"
      value: 0
    }
    frozen: true
  }
}
layer {
  name: "inception_3c/relu_double_3x3_1"
  type: "ReLU"
  bottom: "inception_3c/double_3x3_1_bn"
  top: "inception_3c/double_3x3_1_bn"
}
layer {
  name: "inception_3c/double_3x3_2"
  type: "Convolution"
  bottom: "inception_3c/double_3x3_1_bn"
  top: "inception_3c/double_3x3_2"
  param {
    lr_mult: 1
    decay_mult: 1
  }
  param {
    lr_mult: 2
    decay_mult: 0
  }
  convolution_param {
    num_output: 96
    pad: 1
    kernel_size: 3
    stride: 2
    weight_filler {
      type: "xavier"
    }
    bias_filler {
      type: "constant"
      value: 0.2
    }
  }
}
layer {
  name: "inception_3c/double_3x3_2_bn"
  type: "BN"
  bottom: "inception_3c/double_3x3_2"
  top: "inception_3c/double_3x3_2_bn"
  param {
    lr_mult: 1
    decay_mult: 0
  }
  param {
    lr_mult: 1
    decay_mult: 0
  }
  bn_param {
    slope_filler {
      type: "constant"
      value: 1
    }
    bias_filler {
      type: "constant"
      value: 0
    }
    frozen: true
  }
}
layer {
  name: "inception_3c/relu_double_3x3_2"
  type: "ReLU"
  bottom: "inception_3c/double_3x3_2_bn"
  top: "inception_3c/double_3x3_2_bn"
}
layer {
  name: "inception_3c/pool"
  type: "Pooling"
  bottom: "inception_3b/output"
  top: "inception_3c/pool"
  pooling_param {
    pool: MAX
    kernel_size: 3
    stride: 2
  }
}
layer {
  name: "inception_3c/output"
  type: "Concat"
  bottom: "inception_3c/3x3_bn"
  bottom: "inception_3c/double_3x3_2_bn"
  bottom: "inception_3c/pool"
  top: "inception_3c/output"
}
layer {
  name: "inception_4a/1x1"
  type: "Convolution"
  bottom: "inception_3c/output"
  top: "inception_4a/1x1"
  param {
    lr_mult: 1
    decay_mult: 1
  }
  param {
    lr_mult: 2
    decay_mult: 0
  }
  convolution_param {
    num_output: 224
    kernel_size: 1
    weight_filler {
      type: "xavier"
    }
    bias_filler {
      type: "constant"
      value: 0.2
    }
  }
}
layer {
  name: "inception_4a/1x1_bn"
  type: "BN"
  bottom: "inception_4a/1x1"
  top: "inception_4a/1x1_bn"
  param {
    lr_mult: 1
    decay_mult: 0
  }
  param {
    lr_mult: 1
    decay_mult: 0
  }
  bn_param {
    slope_filler {
      type: "constant"
      value: 1
    }
    bias_filler {
      type: "constant"
      value: 0
    }
    frozen: true
  }
}
layer {
  name: "inception_4a/relu_1x1"
  type: "ReLU"
  bottom: "inception_4a/1x1_bn"
  top: "inception_4a/1x1_bn"
}
layer {
  name: "inception_4a/3x3_reduce"
  type: "Convolution"
  bottom: "inception_3c/output"
  top: "inception_4a/3x3_reduce"
  param {
    lr_mult: 1
    decay_mult: 1
  }
  param {
    lr_mult: 2
    decay_mult: 0
  }
  convolution_param {
    num_output: 64
    kernel_size: 1
    weight_filler {
      type: "xavier"
    }
    bias_filler {
      type: "constant"
      value: 0.2
    }
  }
}
layer {
  name: "inception_4a/3x3_reduce_bn"
  type: "BN"
  bottom: "inception_4a/3x3_reduce"
  top: "inception_4a/3x3_reduce_bn"
  param {
    lr_mult: 1
    decay_mult: 0
  }
  param {
    lr_mult: 1
    decay_mult: 0
  }
  bn_param {
    slope_filler {
      type: "constant"
      value: 1
    }
    bias_filler {
      type: "constant"
      value: 0
    }
    frozen: true
  }
}
layer {
  name: "inception_4a/relu_3x3_reduce"
  type: "ReLU"
  bottom: "inception_4a/3x3_reduce_bn"
  top: "inception_4a/3x3_reduce_bn"
}
layer {
  name: "inception_4a/3x3"
  type: "Convolution"
  bottom: "inception_4a/3x3_reduce_bn"
  top: "inception_4a/3x3"
  param {
    lr_mult: 1
    decay_mult: 1
  }
  param {
    lr_mult: 2
    decay_mult: 0
  }
  convolution_param {
    num_output: 96
    pad: 1
    kernel_size: 3
    weight_filler {
      type: "xavier"
    }
    bias_filler {
      type: "constant"
      value: 0.2
    }
  }
}
layer {
  name: "inception_4a/3x3_bn"
  type: "BN"
  bottom: "inception_4a/3x3"
  top: "inception_4a/3x3_bn"
  param {
    lr_mult: 1
    decay_mult: 0
  }
  param {
    lr_mult: 1
    decay_mult: 0
  }
  bn_param {
    slope_filler {
      type: "constant"
      value: 1
    }
    bias_filler {
      type: "constant"
      value: 0
    }
    frozen: true
  }
}
layer {
  name: "inception_4a/relu_3x3"
  type: "ReLU"
  bottom: "inception_4a/3x3_bn"
  top: "inception_4a/3x3_bn"
}
layer {
  name: "inception_4a/double_3x3_reduce"
  type: "Convolution"
  bottom: "inception_3c/output"
  top: "inception_4a/double_3x3_reduce"
  param {
    lr_mult: 1
    decay_mult: 1
  }
  param {
    lr_mult: 2
    decay_mult: 0
  }
  convolution_param {
    num_output: 96
    kernel_size: 1
    weight_filler {
      type: "xavier"
    }
    bias_filler {
      type: "constant"
      value: 0.2
    }
  }
}
layer {
  name: "inception_4a/double_3x3_reduce_bn"
  type: "BN"
  bottom: "inception_4a/double_3x3_reduce"
  top: "inception_4a/double_3x3_reduce_bn"
  param {
    lr_mult: 1
    decay_mult: 0
  }
  param {
    lr_mult: 1
    decay_mult: 0
  }
  bn_param {
    slope_filler {
      type: "constant"
      value: 1
    }
    bias_filler {
      type: "constant"
      value: 0
    }
    frozen: true
  }
}
layer {
  name: "inception_4a/relu_double_3x3_reduce"
  type: "ReLU"
  bottom: "inception_4a/double_3x3_reduce_bn"
  top: "inception_4a/double_3x3_reduce_bn"
}
layer {
  name: "inception_4a/double_3x3_1"
  type: "Convolution"
  bottom: "inception_4a/double_3x3_reduce_bn"
  top: "inception_4a/double_3x3_1"
  param {
    lr_mult: 1
    decay_mult: 1
  }
  param {
    lr_mult: 2
    decay_mult: 0
  }
  convolution_param {
    num_output: 128
    pad: 1
    kernel_size: 3
    weight_filler {
      type: "xavier"
    }
    bias_filler {
      type: "constant"
      value: 0.2
    }
  }
}
layer {
  name: "inception_4a/double_3x3_1_bn"
  type: "BN"
  bottom: "inception_4a/double_3x3_1"
  top: "inception_4a/double_3x3_1_bn"
  param {
    lr_mult: 1
    decay_mult: 0
  }
  param {
    lr_mult: 1
    decay_mult: 0
  }
  bn_param {
    slope_filler {
      type: "constant"
      value: 1
    }
    bias_filler {
      type: "constant"
      value: 0
    }
    frozen: true
  }
}
layer {
  name: "inception_4a/relu_double_3x3_1"
  type: "ReLU"
  bottom: "inception_4a/double_3x3_1_bn"
  top: "inception_4a/double_3x3_1_bn"
}
layer {
  name: "inception_4a/double_3x3_2"
  type: "Convolution"
  bottom: "inception_4a/double_3x3_1_bn"
  top: "inception_4a/double_3x3_2"
  param {
    lr_mult: 1
    decay_mult: 1
  }
  param {
    lr_mult: 2
    decay_mult: 0
  }
  convolution_param {
    num_output: 128
    pad: 1
    kernel_size: 3
    weight_filler {
      type: "xavier"
    }
    bias_filler {
      type: "constant"
      value: 0.2
    }
  }
}
layer {
  name: "inception_4a/double_3x3_2_bn"
  type: "BN"
  bottom: "inception_4a/double_3x3_2"
  top: "inception_4a/double_3x3_2_bn"
  param {
    lr_mult: 1
    decay_mult: 0
  }
  param {
    lr_mult: 1
    decay_mult: 0
  }
  bn_param {
    slope_filler {
      type: "constant"
      value: 1
    }
    bias_filler {
      type: "constant"
      value: 0
    }
    frozen: true
  }
}
layer {
  name: "inception_4a/relu_double_3x3_2"
  type: "ReLU"
  bottom: "inception_4a/double_3x3_2_bn"
  top: "inception_4a/double_3x3_2_bn"
}
layer {
  name: "inception_4a/pool"
  type: "Pooling"
  bottom: "inception_3c/output"
  top: "inception_4a/pool"
  pooling_param {
    pool: AVE
    kernel_size: 3
    stride: 1
    pad: 1
  }
}
layer {
  name: "inception_4a/pool_proj"
  type: "Convolution"
  bottom: "inception_4a/pool"
  top: "inception_4a/pool_proj"
  param {
    lr_mult: 1
    decay_mult: 1
  }
  param {
    lr_mult: 2
    decay_mult: 0
  }
  convolution_param {
    num_output: 128
    kernel_size: 1
    weight_filler {
      type: "xavier"
    }
    bias_filler {
      type: "constant"
      value: 0.2
    }
  }
}
layer {
  name: "inception_4a/pool_proj_bn"
  type: "BN"
  bottom: "inception_4a/pool_proj"
  top: "inception_4a/pool_proj_bn"
  param {
    lr_mult: 1
    decay_mult: 0
  }
  param {
    lr_mult: 1
    decay_mult: 0
  }
  bn_param {
    slope_filler {
      type: "constant"
      value: 1
    }
    bias_filler {
      type: "constant"
      value: 0
    }
    frozen: true
  }
}
layer {
  name: "inception_4a/relu_pool_proj"
  type: "ReLU"
  bottom: "inception_4a/pool_proj_bn"
  top: "inception_4a/pool_proj_bn"
}
layer {
  name: "inception_4a/output"
  type: "Concat"
  bottom: "inception_4a/1x1_bn"
  bottom: "inception_4a/3x3_bn"
  bottom: "inception_4a/double_3x3_2_bn"
  bottom: "inception_4a/pool_proj_bn"
  top: "inception_4a/output"
}
layer {
  name: "inception_4b/1x1"
  type: "Convolution"
  bottom: "inception_4a/output"
  top: "inception_4b/1x1"
  param {
    lr_mult: 1
    decay_mult: 1
  }
  param {
    lr_mult: 2
    decay_mult: 0
  }
  convolution_param {
    num_output: 192
    kernel_size: 1
    weight_filler {
      type: "xavier"
    }
    bias_filler {
      type: "constant"
      value: 0.2
    }
  }
}
layer {
  name: "inception_4b/1x1_bn"
  type: "BN"
  bottom: "inception_4b/1x1"
  top: "inception_4b/1x1_bn"
  param {
    lr_mult: 1
    decay_mult: 0
  }
  param {
    lr_mult: 1
    decay_mult: 0
  }
  bn_param {
    slope_filler {
      type: "constant"
      value: 1
    }
    bias_filler {
      type: "constant"
      value: 0
    }
    frozen: true
  }
}
layer {
  name: "inception_4b/relu_1x1"
  type: "ReLU"
  bottom: "inception_4b/1x1_bn"
  top: "inception_4b/1x1_bn"
}
layer {
  name: "inception_4b/3x3_reduce"
  type: "Convolution"
  bottom: "inception_4a/output"
  top: "inception_4b/3x3_reduce"
  param {
    lr_mult: 1
    decay_mult: 1
  }
  param {
    lr_mult: 2
    decay_mult: 
I0110 20:21:31.451984   776 net.cpp:417] Input 0 -> data
I0110 20:21:31.452021   776 layer_factory.hpp:74] Creating layer conv1/7x7_s2
I0110 20:21:31.452030   776 net.cpp:96] Creating Layer conv1/7x7_s2
I0110 20:21:31.452034   776 net.cpp:459] conv1/7x7_s2 <- data
I0110 20:21:31.452040   776 net.cpp:415] conv1/7x7_s2 -> conv1/7x7_s2
I0110 20:21:31.452049   776 net.cpp:160] Setting up conv1/7x7_s2
I0110 20:21:31.853274   776 net.cpp:167] Top shape: 1 64 112 112 (802816)
I0110 20:21:31.853314   776 layer_factory.hpp:74] Creating layer conv1/7x7_s2_bn
I0110 20:21:31.853323   776 layer_factory.cpp:177] Layer conv1/7x7_s2_bn is using CAFFE engine.
I0110 20:21:31.853338   776 net.cpp:96] Creating Layer conv1/7x7_s2_bn
I0110 20:21:31.853344   776 net.cpp:459] conv1/7x7_s2_bn <- conv1/7x7_s2
I0110 20:21:31.853353   776 net.cpp:415] conv1/7x7_s2_bn -> conv1/7x7_s2_bn
I0110 20:21:31.853368   776 net.cpp:160] Setting up conv1/7x7_s2_bn
I0110 20:21:31.853415   776 net.cpp:167] Top shape: 1 64 112 112 (802816)
I0110 20:21:31.853430   776 layer_factory.hpp:74] Creating layer conv1/relu_7x7
I0110 20:21:31.853441   776 net.cpp:96] Creating Layer conv1/relu_7x7
I0110 20:21:31.853447   776 net.cpp:459] conv1/relu_7x7 <- conv1/7x7_s2_bn
I0110 20:21:31.853454   776 net.cpp:404] conv1/relu_7x7 -> conv1/7x7_s2_bn (in-place)
I0110 20:21:31.853462   776 net.cpp:160] Setting up conv1/relu_7x7
I0110 20:21:31.853471   776 net.cpp:167] Top shape: 1 64 112 112 (802816)
I0110 20:21:31.853476   776 layer_factory.hpp:74] Creating layer pool1/3x3_s2
I0110 20:21:31.853485   776 net.cpp:96] Creating Layer pool1/3x3_s2
I0110 20:21:31.853492   776 net.cpp:459] pool1/3x3_s2 <- conv1/7x7_s2_bn
I0110 20:21:31.853498   776 net.cpp:415] pool1/3x3_s2 -> pool1/3x3_s2
I0110 20:21:31.853507   776 net.cpp:160] Setting up pool1/3x3_s2
I0110 20:21:31.853518   776 net.cpp:167] Top shape: 1 64 56 56 (200704)
I0110 20:21:31.853524   776 layer_factory.hpp:74] Creating layer conv2/3x3_reduce
I0110 20:21:31.853538   776 net.cpp:96] Creating Layer conv2/3x3_reduce
I0110 20:21:31.853543   776 net.cpp:459] conv2/3x3_reduce <- pool1/3x3_s2
I0110 20:21:31.853550   776 net.cpp:415] conv2/3x3_reduce -> conv2/3x3_reduce
I0110 20:21:31.853559   776 net.cpp:160] Setting up conv2/3x3_reduce
I0110 20:21:31.853619   776 net.cpp:167] Top shape: 1 64 56 56 (200704)
I0110 20:21:31.853628   776 layer_factory.hpp:74] Creating layer conv2/3x3_reduce_bn
I0110 20:21:31.853634   776 layer_factory.cpp:177] Layer conv2/3x3_reduce_bn is using CAFFE engine.
I0110 20:21:31.853642   776 net.cpp:96] Creating Layer conv2/3x3_reduce_bn
I0110 20:21:31.853647   776 net.cpp:459] conv2/3x3_reduce_bn <- conv2/3x3_reduce
I0110 20:21:31.853655   776 net.cpp:415] conv2/3x3_reduce_bn -> conv2/3x3_reduce_bn
I0110 20:21:31.853670   776 net.cpp:160] Setting up conv2/3x3_reduce_bn
I0110 20:21:31.853698   776 net.cpp:167] Top shape: 1 64 56 56 (200704)
I0110 20:21:31.853711   776 layer_factory.hpp:74] Creating layer conv2/relu_3x3_reduce
I0110 20:21:31.853718   776 net.cpp:96] Creating Layer conv2/relu_3x3_reduce
I0110 20:21:31.853724   776 net.cpp:459] conv2/relu_3x3_reduce <- conv2/3x3_reduce_bn
I0110 20:21:31.853729   776 net.cpp:404] conv2/relu_3x3_reduce -> conv2/3x3_reduce_bn (in-place)
I0110 20:21:31.853737   776 net.cpp:160] Setting up conv2/relu_3x3_reduce
I0110 20:21:31.853744   776 net.cpp:167] Top shape: 1 64 56 56 (200704)
I0110 20:21:31.853749   776 layer_factory.hpp:74] Creating layer conv2/3x3
I0110 20:21:31.853759   776 net.cpp:96] Creating Layer conv2/3x3
I0110 20:21:31.853763   776 net.cpp:459] conv2/3x3 <- conv2/3x3_reduce_bn
I0110 20:21:31.853771   776 net.cpp:415] conv2/3x3 -> conv2/3x3
I0110 20:21:31.853780   776 net.cpp:160] Setting up conv2/3x3
I0110 20:21:31.854889   776 net.cpp:167] Top shape: 1 192 56 56 (602112)
I0110 20:21:31.854900   776 layer_factory.hpp:74] Creating layer conv2/3x3_bn
I0110 20:21:31.854905   776 layer_factory.cpp:177] Layer conv2/3x3_bn is using CAFFE engine.
I0110 20:21:31.854917   776 net.cpp:96] Creating Layer conv2/3x3_bn
I0110 20:21:31.854921   776 net.cpp:459] conv2/3x3_bn <- conv2/3x3
I0110 20:21:31.854930   776 net.cpp:415] conv2/3x3_bn -> conv2/3x3_bn
I0110 20:21:31.854938   776 net.cpp:160] Setting up conv2/3x3_bn
I0110 20:21:31.854964   776 net.cpp:167] Top shape: 1 192 56 56 (602112)
I0110 20:21:31.854980   776 layer_factory.hpp:74] Creating layer conv2/relu_3x3
I0110 20:21:31.854987   776 net.cpp:96] Creating Layer conv2/relu_3x3
I0110 20:21:31.854992   776 net.cpp:459] conv2/relu_3x3 <- conv2/3x3_bn
I0110 20:21:31.855000   776 net.cpp:404] conv2/relu_3x3 -> conv2/3x3_bn (in-place)
I0110 20:21:31.855007   776 net.cpp:160] Setting up conv2/relu_3x3
I0110 20:21:31.855013   776 net.cpp:167] Top shape: 1 192 56 56 (602112)
I0110 20:21:31.855020   776 layer_factory.hpp:74] Creating layer pool2/3x3_s2
I0110 20:21:31.855026   776 net.cpp:96] Creating Layer pool2/3x3_s2
I0110 20:21:31.855031   776 net.cpp:459] pool2/3x3_s2 <- conv2/3x3_bn
I0110 20:21:31.855037   776 net.cpp:415] pool2/3x3_s2 -> pool2/3x3_s2
I0110 20:21:31.855046   776 net.cpp:160] Setting up pool2/3x3_s2
I0110 20:21:31.855056   776 net.cpp:167] Top shape: 1 192 28 28 (150528)
I0110 20:21:31.855060   776 layer_factory.hpp:74] Creating layer pool2/3x3_s2_pool2/3x3_s2_0_split
I0110 20:21:31.855069   776 net.cpp:96] Creating Layer pool2/3x3_s2_pool2/3x3_s2_0_split
I0110 20:21:31.855075   776 net.cpp:459] pool2/3x3_s2_pool2/3x3_s2_0_split <- pool2/3x3_s2
I0110 20:21:31.855082   776 net.cpp:415] pool2/3x3_s2_pool2/3x3_s2_0_split -> pool2/3x3_s2_pool2/3x3_s2_0_split_0
I0110 20:21:31.855090   776 net.cpp:415] pool2/3x3_s2_pool2/3x3_s2_0_split -> pool2/3x3_s2_pool2/3x3_s2_0_split_1
I0110 20:21:31.855099   776 net.cpp:415] pool2/3x3_s2_pool2/3x3_s2_0_split -> pool2/3x3_s2_pool2/3x3_s2_0_split_2
I0110 20:21:31.855108   776 net.cpp:415] pool2/3x3_s2_pool2/3x3_s2_0_split -> pool2/3x3_s2_pool2/3x3_s2_0_split_3
I0110 20:21:31.855115   776 net.cpp:160] Setting up pool2/3x3_s2_pool2/3x3_s2_0_split
I0110 20:21:31.855125   776 net.cpp:167] Top shape: 1 192 28 28 (150528)
I0110 20:21:31.855132   776 net.cpp:167] Top shape: 1 192 28 28 (150528)
I0110 20:21:31.855139   776 net.cpp:167] Top shape: 1 192 28 28 (150528)
I0110 20:21:31.855145   776 net.cpp:167] Top shape: 1 192 28 28 (150528)
I0110 20:21:31.855150   776 layer_factory.hpp:74] Creating layer inception_3a/1x1
I0110 20:21:31.855159   776 net.cpp:96] Creating Layer inception_3a/1x1
I0110 20:21:31.855165   776 net.cpp:459] inception_3a/1x1 <- pool2/3x3_s2_pool2/3x3_s2_0_split_0
I0110 20:21:31.855175   776 net.cpp:415] inception_3a/1x1 -> inception_3a/1x1
I0110 20:21:31.855183   776 net.cpp:160] Setting up inception_3a/1x1
I0110 20:21:31.855319   776 net.cpp:167] Top shape: 1 64 28 28 (50176)
I0110 20:21:31.855329   776 layer_factory.hpp:74] Creating layer inception_3a/1x1_bn
I0110 20:21:31.855340   776 layer_factory.cpp:177] Layer inception_3a/1x1_bn is using CAFFE engine.
I0110 20:21:31.855348   776 net.cpp:96] Creating Layer inception_3a/1x1_bn
I0110 20:21:31.855355   776 net.cpp:459] inception_3a/1x1_bn <- inception_3a/1x1
I0110 20:21:31.855361   776 net.cpp:415] inception_3a/1x1_bn -> inception_3a/1x1_bn
I0110 20:21:31.855370   776 net.cpp:160] Setting up inception_3a/1x1_bn
I0110 20:21:31.855391   776 net.cpp:167] Top shape: 1 64 28 28 (50176)
I0110 20:21:31.855401   776 layer_factory.hpp:74] Creating layer inception_3a/relu_1x1
I0110 20:21:31.855407   776 net.cpp:96] Creating Layer inception_3a/relu_1x1
I0110 20:21:31.855412   776 net.cpp:459] inception_3a/relu_1x1 <- inception_3a/1x1_bn
I0110 20:21:31.855418   776 net.cpp:404] inception_3a/relu_1x1 -> inception_3a/1x1_bn (in-place)
I0110 20:21:31.855425   776 net.cpp:160] Setting up inception_3a/relu_1x1
I0110 20:21:31.855432   776 net.cpp:167] Top shape: 1 64 28 28 (50176)
I0110 20:21:31.855437   776 layer_factory.hpp:74] Creating layer inception_3a/3x3_reduce
I0110 20:21:31.855445   776 net.cpp:96] Creating Layer inception_3a/3x3_reduce
I0110 20:21:31.855451   776 net.cpp:459] inception_3a/3x3_reduce <- pool2/3x3_s2_pool2/3x3_s2_0_split_1
I0110 20:21:31.855459   776 net.cpp:415] inception_3a/3x3_reduce -> inception_3a/3x3_reduce
I0110 20:21:31.855468   776 net.cpp:160] Setting up inception_3a/3x3_reduce
I0110 20:21:31.855603   776 net.cpp:167] Top shape: 1 64 28 28 (50176)
I0110 20:21:31.855613   776 layer_factory.hpp:74] Creating layer inception_3a/3x3_reduce_bn
I0110 20:21:31.855618   776 layer_factory.cpp:177] Layer inception_3a/3x3_reduce_bn is using CAFFE engine.
I0110 20:21:31.855631   776 net.cpp:96] Creating Layer inception_3a/3x3_reduce_bn
I0110 20:21:31.855636   776 net.cpp:459] inception_3a/3x3_reduce_bn <- inception_3a/3x3_reduce
I0110 20:21:31.855644   776 net.cpp:415] inception_3a/3x3_reduce_bn -> inception_3a/3x3_reduce_bn
I0110 20:21:31.855655   776 net.cpp:160] Setting up inception_3a/3x3_reduce_bn
I0110 20:21:31.855675   776 net.cpp:167] Top shape: 1 64 28 28 (50176)
I0110 20:21:31.855686   776 layer_factory.hpp:74] Creating layer inception_3a/relu_3x3_reduce
I0110 20:21:31.855693   776 net.cpp:96] Creating Layer inception_3a/relu_3x3_reduce
I0110 20:21:31.855700   776 net.cpp:459] inception_3a/relu_3x3_reduce <- inception_3a/3x3_reduce_bn
I0110 20:21:31.855708   776 net.cpp:404] inception_3a/relu_3x3_reduce -> inception_3a/3x3_reduce_bn (in-place)
I0110 20:21:31.855716   776 net.cpp:160] Setting up inception_3a/relu_3x3_reduce
I0110 20:21:31.855723   776 net.cpp:167] Top shape: 1 64 28 28 (50176)
I0110 20:21:31.855729   776 layer_factory.hpp:74] Creating layer inception_3a/3x3
I0110 20:21:31.855738   776 net.cpp:96] Creating Layer inception_3a/3x3
I0110 20:21:31.855743   776 net.cpp:459] inception_3a/3x3 <- inception_3a/3x3_reduce_bn
I0110 20:21:31.855753   776 net.cpp:415] inception_3a/3x3 -> inception_3a/3x3
I0110 20:21:31.855762   776 net.cpp:160] Setting up inception_3a/3x3
I0110 20:21:31.856149   776 net.cpp:167] Top shape: 1 64 28 28 (50176)
I0110 20:21:31.856161   776 layer_factory.hpp:74] Creating layer inception_3a/3x3_bn
I0110 20:21:31.856168   776 layer_factory.cpp:177] Layer inception_3a/3x3_bn is using CAFFE engine.
I0110 20:21:31.856176   776 net.cpp:96] Creating Layer inception_3a/3x3_bn
I0110 20:21:31.856182   776 net.cpp:459] inception_3a/3x3_bn <- inception_3a/3x3
I0110 20:21:31.856190   776 net.cpp:415] inception_3a/3x3_bn -> inception_3a/3x3_bn
I0110 20:21:31.856199   776 net.cpp:160] Setting up inception_3a/3x3_bn
I0110 20:21:31.856220   776 net.cpp:167] Top shape: 1 64 28 28 (50176)
I0110 20:21:31.856232   776 layer_factory.hpp:74] Creating layer inception_3a/relu_3x3
I0110 20:21:31.856240   776 net.cpp:96] Creating Layer inception_3a/relu_3x3
I0110 20:21:31.856245   776 net.cpp:459] inception_3a/relu_3x3 <- inception_3a/3x3_bn
I0110 20:21:31.856254   776 net.cpp:404] inception_3a/relu_3x3 -> inception_3a/3x3_bn (in-place)
I0110 20:21:31.856261   776 net.cpp:160] Setting up inception_3a/relu_3x3
I0110 20:21:31.856272   776 net.cpp:167] Top shape: 1 64 28 28 (50176)
I0110 20:21:31.856277   776 layer_factory.hpp:74] Creating layer inception_3a/double_3x3_reduce
I0110 20:21:31.856286   776 net.cpp:96] Creating Layer inception_3a/double_3x3_reduce
I0110 20:21:31.856292   776 net.cpp:459] inception_3a/double_3x3_reduce <- pool2/3x3_s2_pool2/3x3_s2_0_split_2
I0110 20:21:31.856300   776 net.cpp:415] inception_3a/double_3x3_reduce -> inception_3a/double_3x3_reduce
I0110 20:21:31.856309   776 net.cpp:160] Setting up inception_3a/double_3x3_reduce
I0110 20:21:31.856446   776 net.cpp:167] Top shape: 1 64 28 28 (50176)
I0110 20:21:31.856456   776 layer_factory.hpp:74] Creating layer inception_3a/double_3x3_reduce_bn
I0110 20:21:31.856462   776 layer_factory.cpp:177] Layer inception_3a/double_3x3_reduce_bn is using CAFFE engine.
I0110 20:21:31.856470   776 net.cpp:96] Creating Layer inception_3a/double_3x3_reduce_bn
I0110 20:21:31.856477   776 net.cpp:459] inception_3a/double_3x3_reduce_bn <- inception_3a/double_3x3_reduce
I0110 20:21:31.856484   776 net.cpp:415] inception_3a/double_3x3_reduce_bn -> inception_3a/double_3x3_reduce_bn
I0110 20:21:31.856495   776 net.cpp:160] Setting up inception_3a/double_3x3_reduce_bn
I0110 20:21:31.856518   776 net.cpp:167] Top shape: 1 64 28 28 (50176)
I0110 20:21:31.856531   776 layer_factory.hpp:74] Creating layer inception_3a/relu_double_3x3_reduce
I0110 20:21:31.856539   776 net.cpp:96] Creating Layer inception_3a/relu_double_3x3_reduce
I0110 20:21:31.856544   776 net.cpp:459] inception_3a/relu_double_3x3_reduce <- inception_3a/double_3x3_reduce_bn
I0110 20:21:31.856552   776 net.cpp:404] inception_3a/relu_double_3x3_reduce -> inception_3a/double_3x3_reduce_bn (in-place)
I0110 20:21:31.856560   776 net.cpp:160] Setting up inception_3a/relu_double_3x3_reduce
I0110 20:21:31.856567   776 net.cpp:167] Top shape: 1 64 28 28 (50176)
I0110 20:21:31.856572   776 layer_factory.hpp:74] Creating layer inception_3a/double_3x3_1
I0110 20:21:31.856580   776 net.cpp:96] Creating Layer inception_3a/double_3x3_1
I0110 20:21:31.856585   776 net.cpp:459] inception_3a/double_3x3_1 <- inception_3a/double_3x3_reduce_bn
I0110 20:21:31.856592   776 net.cpp:415] inception_3a/double_3x3_1 -> inception_3a/double_3x3_1
I0110 20:21:31.856600   776 net.cpp:160] Setting up inception_3a/double_3x3_1
I0110 20:21:31.857158   776 net.cpp:167] Top shape: 1 96 28 28 (75264)
I0110 20:21:31.857168   776 layer_factory.hpp:74] Creating layer inception_3a/double_3x3_1_bn
I0110 20:21:31.857173   776 layer_factory.cpp:177] Layer inception_3a/double_3x3_1_bn is using CAFFE engine.
I0110 20:21:31.857183   776 net.cpp:96] Creating Layer inception_3a/double_3x3_1_bn
I0110 20:21:31.857190   776 net.cpp:459] inception_3a/double_3x3_1_bn <- inception_3a/double_3x3_1
I0110 20:21:31.857198   776 net.cpp:415] inception_3a/double_3x3_1_bn -> inception_3a/double_3x3_1_bn
I0110 20:21:31.857208   776 net.cpp:160] Setting up inception_3a/double_3x3_1_bn
I0110 20:21:31.857228   776 net.cpp:167] Top shape: 1 96 28 28 (75264)
I0110 20:21:31.857240   776 layer_factory.hpp:74] Creating layer inception_3a/relu_double_3x3_1
I0110 20:21:31.857246   776 net.cpp:96] Creating Layer inception_3a/relu_double_3x3_1
I0110 20:21:31.857250   776 net.cpp:459] inception_3a/relu_double_3x3_1 <- inception_3a/double_3x3_1_bn
I0110 20:21:31.857254   776 net.cpp:404] inception_3a/relu_double_3x3_1 -> inception_3a/double_3x3_1_bn (in-place)
I0110 20:21:31.857259   776 net.cpp:160] Setting up inception_3a/relu_double_3x3_1
I0110 20:21:31.857264   776 net.cpp:167] Top shape: 1 96 28 28 (75264)
I0110 20:21:31.857267   776 layer_factory.hpp:74] Creating layer inception_3a/double_3x3_2
I0110 20:21:31.857275   776 net.cpp:96] Creating Layer inception_3a/double_3x3_2
I0110 20:21:31.857278   776 net.cpp:459] inception_3a/double_3x3_2 <- inception_3a/double_3x3_1_bn
I0110 20:21:31.857283   776 net.cpp:415] inception_3a/double_3x3_2 -> inception_3a/double_3x3_2
I0110 20:21:31.857290   776 net.cpp:160] Setting up inception_3a/double_3x3_2
I0110 20:21:31.857760   776 net.cpp:167] Top shape: 1 96 28 28 (75264)
I0110 20:21:31.857769   776 layer_factory.hpp:74] Creating layer inception_3a/double_3x3_2_bn
I0110 20:21:31.857771   776 layer_factory.cpp:177] Layer inception_3a/double_3x3_2_bn is using CAFFE engine.
I0110 20:21:31.857777   776 net.cpp:96] Creating Layer inception_3a/double_3x3_2_bn
I0110 20:21:31.857780   776 net.cpp:459] inception_3a/double_3x3_2_bn <- inception_3a/double_3x3_2
I0110 20:21:31.857787   776 net.cpp:415] inception_3a/double_3x3_2_bn -> inception_3a/double_3x3_2_bn
I0110 20:21:31.857792   776 net.cpp:160] Setting up inception_3a/double_3x3_2_bn
I0110 20:21:31.857806   776 net.cpp:167] Top shape: 1 96 28 28 (75264)
I0110 20:21:31.857813   776 layer_factory.hpp:74] Creating layer inception_3a/relu_double_3x3_2
I0110 20:21:31.857820   776 net.cpp:96] Creating Layer inception_3a/relu_double_3x3_2
I0110 20:21:31.857822   776 net.cpp:459] inception_3a/relu_double_3x3_2 <- inception_3a/double_3x3_2_bn
I0110 20:21:31.857827   776 net.cpp:404] inception_3a/relu_double_3x3_2 -> inception_3a/double_3x3_2_bn (in-place)
I0110 20:21:31.857831   776 net.cpp:160] Setting up inception_3a/relu_double_3x3_2
I0110 20:21:31.857836   776 net.cpp:167] Top shape: 1 96 28 28 (75264)
I0110 20:21:31.857839   776 layer_factory.hpp:74] Creating layer inception_3a/pool
I0110 20:21:31.857846   776 net.cpp:96] Creating Layer inception_3a/pool
I0110 20:21:31.857848   776 net.cpp:459] inception_3a/pool <- pool2/3x3_s2_pool2/3x3_s2_0_split_3
I0110 20:21:31.857853   776 net.cpp:415] inception_3a/pool -> inception_3a/pool
I0110 20:21:31.857858   776 net.cpp:160] Setting up inception_3a/pool
I0110 20:21:31.857864   776 net.cpp:167] Top shape: 1 192 28 28 (150528)
I0110 20:21:31.857867   776 layer_factory.hpp:74] Creating layer inception_3a/pool_proj
I0110 20:21:31.857873   776 net.cpp:96] Creating Layer inception_3a/pool_proj
I0110 20:21:31.857877   776 net.cpp:459] inception_3a/pool_proj <- inception_3a/pool
I0110 20:21:31.857882   776 net.cpp:415] inception_3a/pool_proj -> inception_3a/pool_proj
I0110 20:21:31.857888   776 net.cpp:160] Setting up inception_3a/pool_proj
I0110 20:21:31.857933   776 net.cpp:167] Top shape: 1 32 28 28 (25088)
I0110 20:21:31.857939   776 layer_factory.hpp:74] Creating layer inception_3a/pool_proj_bn
I0110 20:21:31.857944   776 layer_factory.cpp:177] Layer inception_3a/pool_proj_bn is using CAFFE engine.
I0110 20:21:31.857950   776 net.cpp:96] Creating Layer inception_3a/pool_proj_bn
I0110 20:21:31.857954   776 net.cpp:459] inception_3a/pool_proj_bn <- inception_3a/pool_proj
I0110 20:21:31.857960   776 net.cpp:415] inception_3a/pool_proj_bn -> inception_3a/pool_proj_bn
I0110 20:21:31.857965   776 net.cpp:160] Setting up inception_3a/pool_proj_bn
I0110 20:21:31.857980   776 net.cpp:167] Top shape: 1 32 28 28 (25088)
I0110 20:21:31.857985   776 layer_factory.hpp:74] Creating layer inception_3a/relu_pool_proj
I0110 20:21:31.857990   776 net.cpp:96] Creating Layer inception_3a/relu_pool_proj
I0110 20:21:31.857993   776 net.cpp:459] inception_3a/relu_pool_proj <- inception_3a/pool_proj_bn
I0110 20:21:31.857998   776 net.cpp:404] inception_3a/relu_pool_proj -> inception_3a/pool_proj_bn (in-place)
I0110 20:21:31.858003   776 net.cpp:160] Setting up inception_3a/relu_pool_proj
I0110 20:21:31.858007   776 net.cpp:167] Top shape: 1 32 28 28 (25088)
I0110 20:21:31.858011   776 layer_factory.hpp:74] Creating layer inception_3a/output
I0110 20:21:31.858016   776 net.cpp:96] Creating Layer inception_3a/output
I0110 20:21:31.858019   776 net.cpp:459] inception_3a/output <- inception_3a/1x1_bn
I0110 20:21:31.858023   776 net.cpp:459] inception_3a/output <- inception_3a/3x3_bn
I0110 20:21:31.858027   776 net.cpp:459] inception_3a/output <- inception_3a/double_3x3_2_bn
I0110 20:21:31.858031   776 net.cpp:459] inception_3a/output <- inception_3a/pool_proj_bn
I0110 20:21:31.858036   776 net.cpp:415] inception_3a/output -> inception_3a/output
I0110 20:21:31.858041   776 net.cpp:160] Setting up inception_3a/output
I0110 20:21:31.858047   776 net.cpp:167] Top shape: 1 256 28 28 (200704)
I0110 20:21:31.858053   776 layer_factory.hpp:74] Creating layer inception_3a/output_inception_3a/output_0_split
I0110 20:21:31.858059   776 net.cpp:96] Creating Layer inception_3a/output_inception_3a/output_0_split
I0110 20:21:31.858063   776 net.cpp:459] inception_3a/output_inception_3a/output_0_split <- inception_3a/output
I0110 20:21:31.858067   776 net.cpp:415] inception_3a/output_inception_3a/output_0_split -> inception_3a/output_inception_3a/output_0_split_0
I0110 20:21:31.858073   776 net.cpp:415] inception_3a/output_inception_3a/output_0_split -> inception_3a/output_inception_3a/output_0_split_1
I0110 20:21:31.858078   776 net.cpp:415] inception_3a/output_inception_3a/output_0_split -> inception_3a/output_inception_3a/output_0_split_2
I0110 20:21:31.858084   776 net.cpp:415] inception_3a/output_inception_3a/output_0_split -> inception_3a/output_inception_3a/output_0_split_3
I0110 20:21:31.858091   776 net.cpp:160] Setting up inception_3a/output_inception_3a/output_0_split
I0110 20:21:31.858098   776 net.cpp:167] Top shape: 1 256 28 28 (200704)
I0110 20:21:31.858101   776 net.cpp:167] Top shape: 1 256 28 28 (200704)
I0110 20:21:31.858105   776 net.cpp:167] Top shape: 1 256 28 28 (200704)
I0110 20:21:31.858110   776 net.cpp:167] Top shape: 1 256 28 28 (200704)
I0110 20:21:31.858114   776 layer_factory.hpp:74] Creating layer inception_3b/1x1
I0110 20:21:31.858120   776 net.cpp:96] Creating Layer inception_3b/1x1
I0110 20:21:31.858124   776 net.cpp:459] inception_3b/1x1 <- inception_3a/output_inception_3a/output_0_split_0
I0110 20:21:31.858129   776 net.cpp:415] inception_3b/1x1 -> inception_3b/1x1
I0110 20:21:31.858134   776 net.cpp:160] Setting up inception_3b/1x1
I0110 20:21:31.858232   776 net.cpp:167] Top shape: 1 64 28 28 (50176)
I0110 20:21:31.858238   776 layer_factory.hpp:74] Creating layer inception_3b/1x1_bn
I0110 20:21:31.858242   776 layer_factory.cpp:177] Layer inception_3b/1x1_bn is using CAFFE engine.
I0110 20:21:31.858248   776 net.cpp:96] Creating Layer inception_3b/1x1_bn
I0110 20:21:31.858253   776 net.cpp:459] inception_3b/1x1_bn <- inception_3b/1x1
I0110 20:21:31.858258   776 net.cpp:415] inception_3b/1x1_bn -> inception_3b/1x1_bn
I0110 20:21:31.858263   776 net.cpp:160] Setting up inception_3b/1x1_bn
I0110 20:21:31.858276   776 net.cpp:167] Top shape: 1 64 28 28 (50176)
I0110 20:21:31.858291   776 layer_factory.hpp:74] Creating layer inception_3b/relu_1x1
I0110 20:21:31.858297   776 net.cpp:96] Creating Layer inception_3b/relu_1x1
I0110 20:21:31.858300   776 net.cpp:459] inception_3b/relu_1x1 <- inception_3b/1x1_bn
I0110 20:21:31.858306   776 net.cpp:404] inception_3b/relu_1x1 -> inception_3b/1x1_bn (in-place)
I0110 20:21:31.858311   776 net.cpp:160] Setting up inception_3b/relu_1x1
I0110 20:21:31.858315   776 net.cpp:167] Top shape: 1 64 28 28 (50176)
I0110 20:21:31.858319   776 layer_factory.hpp:74] Creating layer inception_3b/3x3_reduce
I0110 20:21:31.858325   776 net.cpp:96] Creating Layer inception_3b/3x3_reduce
I0110 20:21:31.858328   776 net.cpp:459] inception_3b/3x3_reduce <- inception_3a/output_inception_3a/output_0_split_1
I0110 20:21:31.858333   776 net.cpp:415] inception_3b/3x3_reduce -> inception_3b/3x3_reduce
I0110 20:21:31.858340   776 net.cpp:160] Setting up inception_3b/3x3_reduce
I0110 20:21:31.858436   776 net.cpp:167] Top shape: 1 64 28 28 (50176)
I0110 20:21:31.858443   776 layer_factory.hpp:74] Creating layer inception_3b/3x3_reduce_bn
I0110 20:21:31.858446   776 layer_factory.cpp:177] Layer inception_3b/3x3_reduce_bn is using CAFFE engine.
I0110 20:21:31.858453   776 net.cpp:96] Creating Layer inception_3b/3x3_reduce_bn
I0110 20:21:31.858456   776 net.cpp:459] inception_3b/3x3_reduce_bn <- inception_3b/3x3_reduce
I0110 20:21:31.858463   776 net.cpp:415] inception_3b/3x3_reduce_bn -> inception_3b/3x3_reduce_bn
I0110 20:21:31.858467   776 net.cpp:160] Setting up inception_3b/3x3_reduce_bn
I0110 20:21:31.858480   776 net.cpp:167] Top shape: 1 64 28 28 (50176)
I0110 20:21:31.858486   776 layer_factory.hpp:74] Creating layer inception_3b/relu_3x3_reduce
I0110 20:21:31.858494   776 net.cpp:96] Creating Layer inception_3b/relu_3x3_reduce
I0110 20:21:31.858497   776 net.cpp:459] inception_3b/relu_3x3_reduce <- inception_3b/3x3_reduce_bn
I0110 20:21:31.858503   776 net.cpp:404] inception_3b/relu_3x3_reduce -> inception_3b/3x3_reduce_bn (in-place)
I0110 20:21:31.858507   776 net.cpp:160] Setting up inception_3b/relu_3x3_reduce
I0110 20:21:31.858512   776 net.cpp:167] Top shape: 1 64 28 28 (50176)
I0110 20:21:31.858515   776 layer_factory.hpp:74] Creating layer inception_3b/3x3
I0110 20:21:31.858521   776 net.cpp:96] Creating Layer inception_3b/3x3
I0110 20:21:31.858525   776 net.cpp:459] inception_3b/3x3 <- inception_3b/3x3_reduce_bn
I0110 20:21:31.858530   776 net.cpp:415] inception_3b/3x3 -> inception_3b/3x3
I0110 20:21:31.858536   776 net.cpp:160] Setting up inception_3b/3x3
I0110 20:21:31.858852   776 net.cpp:167] Top shape: 1 96 28 28 (75264)
I0110 20:21:31.858858   776 layer_factory.hpp:74] Creating layer inception_3b/3x3_bn
I0110 20:21:31.858862   776 layer_factory.cpp:177] Layer inception_3b/3x3_bn is using CAFFE engine.
I0110 20:21:31.858868   776 net.cpp:96] Creating Layer inception_3b/3x3_bn
I0110 20:21:31.858872   776 net.cpp:459] inception_3b/3x3_bn <- inception_3b/3x3
I0110 20:21:31.858877   776 net.cpp:415] inception_3b/3x3_bn -> inception_3b/3x3_bn
I0110 20:21:31.858882   776 net.cpp:160] Setting up inception_3b/3x3_bn
I0110 20:21:31.858896   776 net.cpp:167] Top shape: 1 96 28 28 (75264)
I0110 20:21:31.858903   776 layer_factory.hpp:74] Creating layer inception_3b/relu_3x3
I0110 20:21:31.858907   776 net.cpp:96] Creating Layer inception_3b/relu_3x3
I0110 20:21:31.858911   776 net.cpp:459] inception_3b/relu_3x3 <- inception_3b/3x3_bn
I0110 20:21:31.858916   776 net.cpp:404] inception_3b/relu_3x3 -> inception_3b/3x3_bn (in-place)
I0110 20:21:31.858922   776 net.cpp:160] Setting up inception_3b/relu_3x3
I0110 20:21:31.858925   776 net.cpp:167] Top shape: 1 96 28 28 (75264)
I0110 20:21:31.858928   776 layer_factory.hpp:74] Creating layer inception_3b/double_3x3_reduce
I0110 20:21:31.858934   776 net.cpp:96] Creating Layer inception_3b/double_3x3_reduce
I0110 20:21:31.858937   776 net.cpp:459] inception_3b/double_3x3_reduce <- inception_3a/output_inception_3a/output_0_split_2
I0110 20:21:31.858943   776 net.cpp:415] inception_3b/double_3x3_reduce -> inception_3b/double_3x3_reduce
I0110 20:21:31.858948   776 net.cpp:160] Setting up inception_3b/double_3x3_reduce
I0110 20:21:31.859048   776 net.cpp:167] Top shape: 1 64 28 28 (50176)
I0110 20:21:31.859055   776 layer_factory.hpp:74] Creating layer inception_3b/double_3x3_reduce_bn
I0110 20:21:31.859057   776 layer_factory.cpp:177] Layer inception_3b/double_3x3_reduce_bn is using CAFFE engine.
I0110 20:21:31.859063   776 net.cpp:96] Creating Layer inception_3b/double_3x3_reduce_bn
I0110 20:21:31.859066   776 net.cpp:459] inception_3b/double_3x3_reduce_bn <- inception_3b/double_3x3_reduce
I0110 20:21:31.859073   776 net.cpp:415] inception_3b/double_3x3_reduce_bn -> inception_3b/double_3x3_reduce_bn
I0110 20:21:31.859078   776 net.cpp:160] Setting up inception_3b/double_3x3_reduce_bn
I0110 20:21:31.859091   776 net.cpp:167] Top shape: 1 64 28 28 (50176)
I0110 20:21:31.859098   776 layer_factory.hpp:74] Creating layer inception_3b/relu_double_3x3_reduce
I0110 20:21:31.859104   776 net.cpp:96] Creating Layer inception_3b/relu_double_3x3_reduce
I0110 20:21:31.859107   776 net.cpp:459] inception_3b/relu_double_3x3_reduce <- inception_3b/double_3x3_reduce_bn
I0110 20:21:31.859112   776 net.cpp:404] inception_3b/relu_double_3x3_reduce -> inception_3b/double_3x3_reduce_bn (in-place)
I0110 20:21:31.859117   776 net.cpp:160] Setting up inception_3b/relu_double_3x3_reduce
I0110 20:21:31.859120   776 net.cpp:167] Top shape: 1 64 28 28 (50176)
I0110 20:21:31.859123   776 layer_factory.hpp:74] Creating layer inception_3b/double_3x3_1
I0110 20:21:31.859130   776 net.cpp:96] Creating Layer inception_3b/double_3x3_1
I0110 20:21:31.859133   776 net.cpp:459] inception_3b/double_3x3_1 <- inception_3b/double_3x3_reduce_bn
I0110 20:21:31.859140   776 net.cpp:415] inception_3b/double_3x3_1 -> inception_3b/double_3x3_1
I0110 20:21:31.859146   776 net.cpp:160] Setting up inception_3b/double_3x3_1
I0110 20:21:31.859460   776 net.cpp:167] Top shape: 1 96 28 28 (75264)
I0110 20:21:31.859467   776 layer_factory.hpp:74] Creating layer inception_3b/double_3x3_1_bn
I0110 20:21:31.859470   776 layer_factory.cpp:177] Layer inception_3b/double_3x3_1_bn is using CAFFE engine.
I0110 20:21:31.859477   776 net.cpp:96] Creating Layer inception_3b/double_3x3_1_bn
I0110 20:21:31.859480   776 net.cpp:459] inception_3b/double_3x3_1_bn <- inception_3b/double_3x3_1
I0110 20:21:31.859486   776 net.cpp:415] inception_3b/double_3x3_1_bn -> inception_3b/double_3x3_1_bn
I0110 20:21:31.859491   776 net.cpp:160] Setting up inception_3b/double_3x3_1_bn
I0110 20:21:31.859504   776 net.cpp:167] Top shape: 1 96 28 28 (75264)
I0110 20:21:31.859511   776 layer_factory.hpp:74] Creating layer inception_3b/relu_double_3x3_1
I0110 20:21:31.859516   776 net.cpp:96] Creating Layer inception_3b/relu_double_3x3_1
I0110 20:21:31.859519   776 net.cpp:459] inception_3b/relu_double_3x3_1 <- inception_3b/double_3x3_1_bn
I0110 20:21:31.859524   776 net.cpp:404] inception_3b/relu_double_3x3_1 -> inception_3b/double_3x3_1_bn (in-place)
I0110 20:21:31.859529   776 net.cpp:160] Setting up inception_3b/relu_double_3x3_1
I0110 20:21:31.859532   776 net.cpp:167] Top shape: 1 96 28 28 (75264)
I0110 20:21:31.859535   776 layer_factory.hpp:74] Creating layer inception_3b/double_3x3_2
I0110 20:21:31.859542   776 net.cpp:96] Creating Layer inception_3b/double_3x3_2
I0110 20:21:31.859545   776 net.cpp:459] inception_3b/double_3x3_2 <- inception_3b/double_3x3_1_bn
I0110 20:21:31.859550   776 net.cpp:415] inception_3b/double_3x3_2 -> inception_3b/double_3x3_2
I0110 20:21:31.859555   776 net.cpp:160] Setting up inception_3b/double_3x3_2
I0110 20:21:31.860020   776 net.cpp:167] Top shape: 1 96 28 28 (75264)
I0110 20:21:31.860026   776 layer_factory.hpp:74] Creating layer inception_3b/double_3x3_2_bn
I0110 20:21:31.860030   776 layer_factory.cpp:177] Layer inception_3b/double_3x3_2_bn is using CAFFE engine.
I0110 20:21:31.860035   776 net.cpp:96] Creating Layer inception_3b/double_3x3_2_bn
I0110 20:21:31.860039   776 net.cpp:459] inception_3b/double_3x3_2_bn <- inception_3b/double_3x3_2
I0110 20:21:31.860045   776 net.cpp:415] inception_3b/double_3x3_2_bn -> inception_3b/double_3x3_2_bn
I0110 20:21:31.860050   776 net.cpp:160] Setting up inception_3b/double_3x3_2_bn
I0110 20:21:31.860064   776 net.cpp:167] Top shape: 1 96 28 28 (75264)
I0110 20:21:31.860070   776 layer_factory.hpp:74] Creating layer inception_3b/relu_double_3x3_2
I0110 20:21:31.860075   776 net.cpp:96] Creating Layer inception_3b/relu_double_3x3_2
I0110 20:21:31.860080   776 net.cpp:459] inception_3b/relu_double_3x3_2 <- inception_3b/double_3x3_2_bn
I0110 20:21:31.860083   776 net.cpp:404] inception_3b/relu_double_3x3_2 -> inception_3b/double_3x3_2_bn (in-place)
I0110 20:21:31.860087   776 net.cpp:160] Setting up inception_3b/relu_double_3x3_2
I0110 20:21:31.860091   776 net.cpp:167] Top shape: 1 96 28 28 (75264)
I0110 20:21:31.860095   776 layer_factory.hpp:74] Creating layer inception_3b/pool
I0110 20:21:31.860100   776 net.cpp:96] Creating Layer inception_3b/pool
I0110 20:21:31.860106   776 net.cpp:459] inception_3b/pool <- inception_3a/output_inception_3a/output_0_split_3
I0110 20:21:31.860117   776 net.cpp:415] inception_3b/pool -> inception_3b/pool
I0110 20:21:31.860122   776 net.cpp:160] Setting up inception_3b/pool
I0110 20:21:31.860128   776 net.cpp:167] Top shape: 1 256 28 28 (200704)
I0110 20:21:31.860131   776 layer_factory.hpp:74] Creating layer inception_3b/pool_proj
I0110 20:21:31.860137   776 net.cpp:96] Creating Layer inception_3b/pool_proj
I0110 20:21:31.860141   776 net.cpp:459] inception_3b/pool_proj <- inception_3b/pool
I0110 20:21:31.860147   776 net.cpp:415] inception_3b/pool_proj -> inception_3b/pool_proj
I0110 20:21:31.860152   776 net.cpp:160] Setting up inception_3b/pool_proj
I0110 20:21:31.860249   776 net.cpp:167] Top shape: 1 64 28 28 (50176)
I0110 20:21:31.860257   776 layer_factory.hpp:74] Creating layer inception_3b/pool_proj_bn
I0110 20:21:31.860261   776 layer_factory.cpp:177] Layer inception_3b/pool_proj_bn is using CAFFE engine.
I0110 20:21:31.860267   776 net.cpp:96] Creating Layer inception_3b/pool_proj_bn
I0110 20:21:31.860270   776 net.cpp:459] inception_3b/pool_proj_bn <- inception_3b/pool_proj
I0110 20:21:31.860275   776 net.cpp:415] inception_3b/pool_proj_bn -> inception_3b/pool_proj_bn
I0110 20:21:31.860280   776 net.cpp:160] Setting up inception_3b/pool_proj_bn
I0110 20:21:31.860296   776 net.cpp:167] Top shape: 1 64 28 28 (50176)
I0110 20:21:31.860302   776 layer_factory.hpp:74] Creating layer inception_3b/relu_pool_proj
I0110 20:21:31.860306   776 net.cpp:96] Creating Layer inception_3b/relu_pool_proj
I0110 20:21:31.860311   776 net.cpp:459] inception_3b/relu_pool_proj <- inception_3b/pool_proj_bn
I0110 20:21:31.860314   776 net.cpp:404] inception_3b/relu_pool_proj -> inception_3b/pool_proj_bn (in-place)
I0110 20:21:31.860318   776 net.cpp:160] Setting up inception_3b/relu_pool_proj
I0110 20:21:31.860322   776 net.cpp:167] Top shape: 1 64 28 28 (50176)
I0110 20:21:31.860327   776 layer_factory.hpp:74] Creating layer inception_3b/output
I0110 20:21:31.860333   776 net.cpp:96] Creating Layer inception_3b/output
I0110 20:21:31.860337   776 net.cpp:459] inception_3b/output <- inception_3b/1x1_bn
I0110 20:21:31.860342   776 net.cpp:459] inception_3b/output <- inception_3b/3x3_bn
I0110 20:21:31.860345   776 net.cpp:459] inception_3b/output <- inception_3b/double_3x3_2_bn
I0110 20:21:31.860349   776 net.cpp:459] inception_3b/output <- inception_3b/pool_proj_bn
I0110 20:21:31.860353   776 net.cpp:415] inception_3b/output -> inception_3b/output
I0110 20:21:31.860358   776 net.cpp:160] Setting up inception_3b/output
I0110 20:21:31.860364   776 net.cpp:167] Top shape: 1 320 28 28 (250880)
I0110 20:21:31.860368   776 layer_factory.hpp:74] Creating layer inception_3b/output_inception_3b/output_0_split
I0110 20:21:31.860373   776 net.cpp:96] Creating Layer inception_3b/output_inception_3b/output_0_split
I0110 20:21:31.860378   776 net.cpp:459] inception_3b/output_inception_3b/output_0_split <- inception_3b/output
I0110 20:21:31.860381   776 net.cpp:415] inception_3b/output_inception_3b/output_0_split -> inception_3b/output_inception_3b/output_0_split_0
I0110 20:21:31.860386   776 net.cpp:415] inception_3b/output_inception_3b/output_0_split -> inception_3b/output_inception_3b/output_0_split_1
I0110 20:21:31.860393   776 net.cpp:415] inception_3b/output_inception_3b/output_0_split -> inception_3b/output_inception_3b/output_0_split_2
I0110 20:21:31.860396   776 net.cpp:160] Setting up inception_3b/output_inception_3b/output_0_split
I0110 20:21:31.860402   776 net.cpp:167] Top shape: 1 320 28 28 (250880)
I0110 20:21:31.860405   776 net.cpp:167] Top shape: 1 320 28 28 (250880)
I0110 20:21:31.860409   776 net.cpp:167] Top shape: 1 320 28 28 (250880)
I0110 20:21:31.860414   776 layer_factory.hpp:74] Creating layer inception_3c/3x3_reduce
I0110 20:21:31.860419   776 net.cpp:96] Creating Layer inception_3c/3x3_reduce
I0110 20:21:31.860424   776 net.cpp:459] inception_3c/3x3_reduce <- inception_3b/output_inception_3b/output_0_split_0
I0110 20:21:31.860430   776 net.cpp:415] inception_3c/3x3_reduce -> inception_3c/3x3_reduce
I0110 20:21:31.860435   776 net.cpp:160] Setting up inception_3c/3x3_reduce
I0110 20:21:31.860673   776 net.cpp:167] Top shape: 1 128 28 28 (100352)
I0110 20:21:31.860679   776 layer_factory.hpp:74] Creating layer inception_3c/3x3_reduce_bn
I0110 20:21:31.860683   776 layer_factory.cpp:177] Layer inception_3c/3x3_reduce_bn is using CAFFE engine.
I0110 20:21:31.860688   776 net.cpp:96] Creating Layer inception_3c/3x3_reduce_bn
I0110 20:21:31.860692   776 net.cpp:459] inception_3c/3x3_reduce_bn <- inception_3c/3x3_reduce
I0110 20:21:31.860697   776 net.cpp:415] inception_3c/3x3_reduce_bn -> inception_3c/3x3_reduce_bn
I0110 20:21:31.860703   776 net.cpp:160] Setting up inception_3c/3x3_reduce_bn
I0110 20:21:31.860716   776 net.cpp:167] Top shape: 1 128 28 28 (100352)
I0110 20:21:31.860726   776 layer_factory.hpp:74] Creating layer inception_3c/relu_3x3_reduce
I0110 20:21:31.860731   776 net.cpp:96] Creating Layer inception_3c/relu_3x3_reduce
I0110 20:21:31.860734   776 net.cpp:459] inception_3c/relu_3x3_reduce <- inception_3c/3x3_reduce_bn
I0110 20:21:31.860740   776 net.cpp:404] inception_3c/relu_3x3_reduce -> inception_3c/3x3_reduce_bn (in-place)
I0110 20:21:31.860745   776 net.cpp:160] Setting up inception_3c/relu_3x3_reduce
I0110 20:21:31.860749   776 net.cpp:167] Top shape: 1 128 28 28 (100352)
I0110 20:21:31.860752   776 layer_factory.hpp:74] Creating layer inception_3c/3x3
I0110 20:21:31.860759   776 net.cpp:96] Creating Layer inception_3c/3x3
I0110 20:21:31.860761   776 net.cpp:459] inception_3c/3x3 <- inception_3c/3x3_reduce_bn
I0110 20:21:31.860767   776 net.cpp:415] inception_3c/3x3 -> inception_3c/3x3
I0110 20:21:31.860774   776 net.cpp:160] Setting up inception_3c/3x3
I0110 20:21:31.861789   776 net.cpp:167] Top shape: 1 160 14 14 (31360)
I0110 20:21:31.861798   776 layer_factory.hpp:74] Creating layer inception_3c/3x3_bn
I0110 20:21:31.861800   776 layer_factory.cpp:177] Layer inception_3c/3x3_bn is using CAFFE engine.
I0110 20:21:31.861810   776 net.cpp:96] Creating Layer inception_3c/3x3_bn
I0110 20:21:31.861814   776 net.cpp:459] inception_3c/3x3_bn <- inception_3c/3x3
I0110 20:21:31.861820   776 net.cpp:415] inception_3c/3x3_bn -> inception_3c/3x3_bn
I0110 20:21:31.861825   776 net.cpp:160] Setting up inception_3c/3x3_bn
I0110 20:21:31.861838   776 net.cpp:167] Top shape: 1 160 14 14 (31360)
I0110 20:21:31.861845   776 layer_factory.hpp:74] Creating layer inception_3c/relu_3x3
I0110 20:21:31.861850   776 net.cpp:96] Creating Layer inception_3c/relu_3x3
I0110 20:21:31.861853   776 net.cpp:459] inception_3c/relu_3x3 <- inception_3c/3x3_bn
I0110 20:21:31.861858   776 net.cpp:404] inception_3c/relu_3x3 -> inception_3c/3x3_bn (in-place)
I0110 20:21:31.861863   776 net.cpp:160] Setting up inception_3c/relu_3x3
I0110 20:21:31.861867   776 net.cpp:167] Top shape: 1 160 14 14 (31360)
I0110 20:21:31.861871   776 layer_factory.hpp:74] Creating layer inception_3c/double_3x3_reduce
I0110 20:21:31.861876   776 net.cpp:96] Creating Layer inception_3c/double_3x3_reduce
I0110 20:21:31.861881   776 net.cpp:459] inception_3c/double_3x3_reduce <- inception_3b/output_inception_3b/output_0_split_1
I0110 20:21:31.861886   776 net.cpp:415] inception_3c/double_3x3_reduce -> inception_3c/double_3x3_reduce
I0110 20:21:31.861892   776 net.cpp:160] Setting up inception_3c/double_3x3_reduce
I0110 20:21:31.862013   776 net.cpp:167] Top shape: 1 64 28 28 (50176)
I0110 20:21:31.862020   776 layer_factory.hpp:74] Creating layer inception_3c/double_3x3_reduce_bn
I0110 20:21:31.862023   776 layer_factory.cpp:177] Layer inception_3c/double_3x3_reduce_bn is using CAFFE engine.
I0110 20:21:31.862030   776 net.cpp:96] Creating Layer inception_3c/double_3x3_reduce_bn
I0110 20:21:31.862033   776 net.cpp:459] inception_3c/double_3x3_reduce_bn <- inception_3c/double_3x3_reduce
I0110 20:21:31.862037   776 net.cpp:415] inception_3c/double_3x3_reduce_bn -> inception_3c/double_3x3_reduce_bn
I0110 20:21:31.862043   776 net.cpp:160] Setting up inception_3c/double_3x3_reduce_bn
I0110 20:21:31.862056   776 net.cpp:167] Top shape: 1 64 28 28 (50176)
I0110 20:21:31.862063   776 layer_factory.hpp:74] Creating layer inception_3c/relu_double_3x3_reduce
I0110 20:21:31.862068   776 net.cpp:96] Creating Layer inception_3c/relu_double_3x3_reduce
I0110 20:21:31.862072   776 net.cpp:459] inception_3c/relu_double_3x3_reduce <- inception_3c/double_3x3_reduce_bn
I0110 20:21:31.862076   776 net.cpp:404] inception_3c/relu_double_3x3_reduce -> inception_3c/double_3x3_reduce_bn (in-place)
I0110 20:21:31.862081   776 net.cpp:160] Setting up inception_3c/relu_double_3x3_reduce
I0110 20:21:31.862085   776 net.cpp:167] Top shape: 1 64 28 28 (50176)
I0110 20:21:31.862088   776 layer_factory.hpp:74] Creating layer inception_3c/double_3x3_1
I0110 20:21:31.862095   776 net.cpp:96] Creating Layer inception_3c/double_3x3_1
I0110 20:21:31.862103   776 net.cpp:459] inception_3c/double_3x3_1 <- inception_3c/double_3x3_reduce_bn
I0110 20:21:31.862108   776 net.cpp:415] inception_3c/double_3x3_1 -> inception_3c/double_3x3_1
I0110 20:21:31.862114   776 net.cpp:160] Setting up inception_3c/double_3x3_1
I0110 20:21:31.862428   776 net.cpp:167] Top shape: 1 96 28 28 (75264)
I0110 20:21:31.862434   776 layer_factory.hpp:74] Creating layer inception_3c/double_3x3_1_bn
I0110 20:21:31.862438   776 layer_factory.cpp:177] Layer inception_3c/double_3x3_1_bn is using CAFFE engine.
I0110 20:21:31.862443   776 net.cpp:96] Creating Layer inception_3c/double_3x3_1_bn
I0110 20:21:31.862447   776 net.cpp:459] inception_3c/double_3x3_1_bn <- inception_3c/double_3x3_1
I0110 20:21:31.862452   776 net.cpp:415] inception_3c/double_3x3_1_bn -> inception_3c/double_3x3_1_bn
I0110 20:21:31.862458   776 net.cpp:160] Setting up inception_3c/double_3x3_1_bn
I0110 20:21:31.862471   776 net.cpp:167] Top shape: 1 96 28 28 (75264)
I0110 20:21:31.862478   776 layer_factory.hpp:74] Creating layer inception_3c/relu_double_3x3_1
I0110 20:21:31.862484   776 net.cpp:96] Creating Layer inception_3c/relu_double_3x3_1
I0110 20:21:31.862488   776 net.cpp:459] inception_3c/relu_double_3x3_1 <- inception_3c/double_3x3_1_bn
I0110 20:21:31.862491   776 net.cpp:404] inception_3c/relu_double_3x3_1 -> inception_3c/double_3x3_1_bn (in-place)
I0110 20:21:31.862496   776 net.cpp:160] Setting up inception_3c/relu_double_3x3_1
I0110 20:21:31.862500   776 net.cpp:167] Top shape: 1 96 28 28 (75264)
I0110 20:21:31.862504   776 layer_factory.hpp:74] Creating layer inception_3c/double_3x3_2
I0110 20:21:31.862510   776 net.cpp:96] Creating Layer inception_3c/double_3x3_2
I0110 20:21:31.862514   776 net.cpp:459] inception_3c/double_3x3_2 <- inception_3c/double_3x3_1_bn
I0110 20:21:31.862519   776 net.cpp:415] inception_3c/double_3x3_2 -> inception_3c/double_3x3_2
I0110 20:21:31.862524   776 net.cpp:160] Setting up inception_3c/double_3x3_2
I0110 20:21:31.862983   776 net.cpp:167] Top shape: 1 96 14 14 (18816)
I0110 20:21:31.862990   776 layer_factory.hpp:74] Creating layer inception_3c/double_3x3_2_bn
I0110 20:21:31.862994   776 layer_factory.cpp:177] Layer inception_3c/double_3x3_2_bn is using CAFFE engine.
I0110 20:21:31.863000   776 net.cpp:96] Creating Layer inception_3c/double_3x3_2_bn
I0110 20:21:31.863003   776 net.cpp:459] inception_3c/double_3x3_2_bn <- inception_3c/double_3x3_2
I0110 20:21:31.863008   776 net.cpp:415] inception_3c/double_3x3_2_bn -> inception_3c/double_3x3_2_bn
I0110 20:21:31.863013   776 net.cpp:160] Setting up inception_3c/double_3x3_2_bn
I0110 20:21:31.863025   776 net.cpp:167] Top shape: 1 96 14 14 (18816)
I0110 20:21:31.863041   776 layer_factory.hpp:74] Creating layer inception_3c/relu_double_3x3_2
I0110 20:21:31.863046   776 net.cpp:96] Creating Layer inception_3c/relu_double_3x3_2
I0110 20:21:31.863050   776 net.cpp:459] inception_3c/relu_double_3x3_2 <- inception_3c/double_3x3_2_bn
I0110 20:21:31.863054   776 net.cpp:404] inception_3c/relu_double_3x3_2 -> inception_3c/double_3x3_2_bn (in-place)
I0110 20:21:31.863059   776 net.cpp:160] Setting up inception_3c/relu_double_3x3_2
I0110 20:21:31.863064   776 net.cpp:167] Top shape: 1 96 14 14 (18816)
I0110 20:21:31.863066   776 layer_factory.hpp:74] Creating layer inception_3c/pool
I0110 20:21:31.863071   776 net.cpp:96] Creating Layer inception_3c/pool
I0110 20:21:31.863075   776 net.cpp:459] inception_3c/pool <- inception_3b/output_inception_3b/output_0_split_2
I0110 20:21:31.863080   776 net.cpp:415] inception_3c/pool -> inception_3c/pool
I0110 20:21:31.863086   776 net.cpp:160] Setting up inception_3c/pool
I0110 20:21:31.863091   776 net.cpp:167] Top shape: 1 320 14 14 (62720)
I0110 20:21:31.863095   776 layer_factory.hpp:74] Creating layer inception_3c/output
I0110 20:21:31.863101   776 net.cpp:96] Creating Layer inception_3c/output
I0110 20:21:31.863103   776 net.cpp:459] inception_3c/output <- inception_3c/3x3_bn
I0110 20:21:31.863107   776 net.cpp:459] inception_3c/output <- inception_3c/double_3x3_2_bn
I0110 20:21:31.863113   776 net.cpp:459] inception_3c/output <- inception_3c/pool
I0110 20:21:31.863119   776 net.cpp:415] inception_3c/output -> inception_3c/output
I0110 20:21:31.863124   776 net.cpp:160] Setting up inception_3c/output
I0110 20:21:31.863129   776 net.cpp:167] Top shape: 1 576 14 14 (112896)
I0110 20:21:31.863133   776 layer_factory.hpp:74] Creating layer inception_3c/output_inception_3c/output_0_split
I0110 20:21:31.863138   776 net.cpp:96] Creating Layer inception_3c/output_inception_3c/output_0_split
I0110 20:21:31.863142   776 net.cpp:459] inception_3c/output_inception_3c/output_0_split <- inception_3c/output
I0110 20:21:31.863147   776 net.cpp:415] inception_3c/output_inception_3c/output_0_split -> inception_3c/output_inception_3c/output_0_split_0
I0110 20:21:31.863157   776 net.cpp:415] inception_3c/output_inception_3c/output_0_split -> inception_3c/output_inception_3c/output_0_split_1
I0110 20:21:31.863163   776 net.cpp:415] inception_3c/output_inception_3c/output_0_split -> inception_3c/output_inception_3c/output_0_split_2
I0110 20:21:31.863169   776 net.cpp:415] inception_3c/output_inception_3c/output_0_split -> inception_3c/output_inception_3c/output_0_split_3
I0110 20:21:31.863174   776 net.cpp:160] Setting up inception_3c/output_inception_3c/output_0_split
I0110 20:21:31.863180   776 net.cpp:167] Top shape: 1 576 14 14 (112896)
I0110 20:21:31.863183   776 net.cpp:167] Top shape: 1 576 14 14 (112896)
I0110 20:21:31.863188   776 net.cpp:167] Top shape: 1 576 14 14 (112896)
I0110 20:21:31.863191   776 net.cpp:167] Top shape: 1 576 14 14 (112896)
I0110 20:21:31.863194   776 layer_factory.hpp:74] Creating layer inception_4a/1x1
I0110 20:21:31.863200   776 net.cpp:96] Creating Layer inception_4a/1x1
I0110 20:21:31.863204   776 net.cpp:459] inception_4a/1x1 <- inception_3c/output_inception_3c/output_0_split_0
I0110 20:21:31.863210   776 net.cpp:415] inception_4a/1x1 -> inception_4a/1x1
I0110 20:21:31.863215   776 net.cpp:160] Setting up inception_4a/1x1
I0110 20:21:31.863930   776 net.cpp:167] Top shape: 1 224 14 14 (43904)
I0110 20:21:31.863937   776 layer_factory.hpp:74] Creating layer inception_4a/1x1_bn
I0110 20:21:31.863941   776 layer_factory.cpp:177] Layer inception_4a/1x1_bn is using CAFFE engine.
I0110 20:21:31.863947   776 net.cpp:96] Creating Layer inception_4a/1x1_bn
I0110 20:21:31.863951   776 net.cpp:459] inception_4a/1x1_bn <- inception_4a/1x1
I0110 20:21:31.863957   776 net.cpp:415] inception_4a/1x1_bn -> inception_4a/1x1_bn
I0110 20:21:31.863963   776 net.cpp:160] Setting up inception_4a/1x1_bn
I0110 20:21:31.863976   776 net.cpp:167] Top shape: 1 224 14 14 (43904)
I0110 20:21:31.863982   776 layer_factory.hpp:74] Creating layer inception_4a/relu_1x1
I0110 20:21:31.863988   776 net.cpp:96] Creating Layer inception_4a/relu_1x1
I0110 20:21:31.863992   776 net.cpp:459] inception_4a/relu_1x1 <- inception_4a/1x1_bn
I0110 20:21:31.863996   776 net.cpp:404] inception_4a/relu_1x1 -> inception_4a/1x1_bn (in-place)
I0110 20:21:31.864001   776 net.cpp:160] Setting up inception_4a/relu_1x1
I0110 20:21:31.864006   776 net.cpp:167] Top shape: 1 224 14 14 (43904)
I0110 20:21:31.864008   776 layer_factory.hpp:74] Creating layer inception_4a/3x3_reduce
I0110 20:21:31.864013   776 net.cpp:96] Creating Layer inception_4a/3x3_reduce
I0110 20:21:31.864017   776 net.cpp:459] inception_4a/3x3_reduce <- inception_3c/output_inception_3c/output_0_split_1
I0110 20:21:31.864027   776 net.cpp:415] inception_4a/3x3_reduce -> inception_4a/3x3_reduce
I0110 20:21:31.864032   776 net.cpp:160] Setting up inception_4a/3x3_reduce
I0110 20:21:31.864250   776 net.cpp:167] Top shape: 1 64 14 14 (12544)
I0110 20:21:31.864258   776 layer_factory.hpp:74] Creating layer inception_4a/3x3_reduce_bn
I0110 20:21:31.864261   776 layer_factory.cpp:177] Layer inception_4a/3x3_reduce_bn is using CAFFE engine.
I0110 20:21:31.864267   776 net.cpp:96] Creating Layer inception_4a/3x3_reduce_bn
I0110 20:21:31.864271   776 net.cpp:459] inception_4a/3x3_reduce_bn <- inception_4a/3x3_reduce
I0110 20:21:31.864276   776 net.cpp:415] inception_4a/3x3_reduce_bn -> inception_4a/3x3_reduce_bn
I0110 20:21:31.864285   776 net.cpp:160] Setting up inception_4a/3x3_reduce_bn
I0110 20:21:31.864298   776 net.cpp:167] Top shape: 1 64 14 14 (12544)
I0110 20:21:31.864305   776 layer_factory.hpp:74] Creating layer inception_4a/relu_3x3_reduce
I0110 20:21:31.864310   776 net.cpp:96] Creating Layer inception_4a/relu_3x3_reduce
I0110 20:21:31.864315   776 net.cpp:459] inception_4a/relu_3x3_reduce <- inception_4a/3x3_reduce_bn
I0110 20:21:31.864318   776 net.cpp:404] inception_4a/relu_3x3_reduce -> inception_4a/3x3_reduce_bn (in-place)
I0110 20:21:31.864322   776 net.cpp:160] Setting up inception_4a/relu_3x3_reduce
I0110 20:21:31.864327   776 net.cpp:167] Top shape: 1 64 14 14 (12544)
I0110 20:21:31.864331   776 layer_factory.hpp:74] Creating layer inception_4a/3x3
I0110 20:21:31.864337   776 net.cpp:96] Creating Layer inception_4a/3x3
I0110 20:21:31.864341   776 net.cpp:459] inception_4a/3x3 <- inception_4a/3x3_reduce_bn
I0110 20:21:31.864346   776 net.cpp:415] inception_4a/3x3 -> inception_4a/3x3
I0110 20:21:31.864351   776 net.cpp:160] Setting up inception_4a/3x3
I0110 20:21:31.864663   776 net.cpp:167] Top shape: 1 96 14 14 (18816)
I0110 20:21:31.864670   776 layer_factory.hpp:74] Creating layer inception_4a/3x3_bn
I0110 20:21:31.864673   776 layer_factory.cpp:177] Layer inception_4a/3x3_bn is using CAFFE engine.
I0110 20:21:31.864680   776 net.cpp:96] Creating Layer inception_4a/3x3_bn
I0110 20:21:31.864683   776 net.cpp:459] inception_4a/3x3_bn <- inception_4a/3x3
I0110 20:21:31.864689   776 net.cpp:415] inception_4a/3x3_bn -> inception_4a/3x3_bn
I0110 20:21:31.864696   776 net.cpp:160] Setting up inception_4a/3x3_bn
I0110 20:21:31.864707   776 net.cpp:167] Top shape: 1 96 14 14 (18816)
I0110 20:21:31.864713   776 layer_factory.hpp:74] Creating layer inception_4a/relu_3x3
I0110 20:21:31.864718   776 net.cpp:96] Creating Layer inception_4a/relu_3x3
I0110 20:21:31.864722   776 net.cpp:459] inception_4a/relu_3x3 <- inception_4a/3x3_bn
I0110 20:21:31.864727   776 net.cpp:404] inception_4a/relu_3x3 -> inception_4a/3x3_bn (in-place)
I0110 20:21:31.864732   776 net.cpp:160] Setting up inception_4a/relu_3x3
I0110 20:21:31.864735   776 net.cpp:167] Top shape: 1 96 14 14 (18816)
I0110 20:21:31.864739   776 layer_factory.hpp:74] Creating layer inception_4a/double_3x3_reduce
I0110 20:21:31.864745   776 net.cpp:96] Creating Layer inception_4a/double_3x3_reduce
I0110 20:21:31.864748   776 net.cpp:459] inception_4a/double_3x3_reduce <- inception_3c/output_inception_3c/output_0_split_2
I0110 20:21:31.864754   776 net.cpp:415] inception_4a/double_3x3_reduce -> inception_4a/double_3x3_reduce
I0110 20:21:31.864760   776 net.cpp:160] Setting up inception_4a/double_3x3_reduce
I0110 20:21:31.865073   776 net.cpp:167] Top shape: 1 96 14 14 (18816)
I0110 20:21:31.865082   776 layer_factory.hpp:74] Creating layer inception_4a/double_3x3_reduce_bn
I0110 20:21:31.865085   776 layer_factory.cpp:177] Layer inception_4a/double_3x3_reduce_bn is using CAFFE engine.
I0110 20:21:31.865092   776 net.cpp:96] Creating Layer inception_4a/double_3x3_reduce_bn
I0110 20:21:31.865095   776 net.cpp:459] inception_4a/double_3x3_reduce_bn <- inception_4a/double_3x3_reduce
I0110 20:21:31.865100   776 net.cpp:415] inception_4a/double_3x3_reduce_bn -> inception_4a/double_3x3_reduce_bn
I0110 20:21:31.865105   776 net.cpp:160] Setting up inception_4a/double_3x3_reduce_bn
I0110 20:21:31.865119   776 net.cpp:167] Top shape: 1 96 14 14 (18816)
I0110 20:21:31.865128   776 layer_factory.hpp:74] Creating layer inception_4a/relu_double_3x3_reduce
I0110 20:21:31.865133   776 net.cpp:96] Creating Layer inception_4a/relu_double_3x3_reduce
I0110 20:21:31.865135   776 net.cpp:459] inception_4a/relu_double_3x3_reduce <- inception_4a/double_3x3_reduce_bn
I0110 20:21:31.865140   776 net.cpp:404] inception_4a/relu_double_3x3_reduce -> inception_4a/double_3x3_reduce_bn (in-place)
I0110 20:21:31.865145   776 net.cpp:160] Setting up inception_4a/relu_double_3x3_reduce
I0110 20:21:31.865149   776 net.cpp:167] Top shape: 1 96 14 14 (18816)
I0110 20:21:31.865155   776 layer_factory.hpp:74] Creating layer inception_4a/double_3x3_1
I0110 20:21:31.865161   776 net.cpp:96] Creating Layer inception_4a/double_3x3_1
I0110 20:21:31.865165   776 net.cpp:459] inception_4a/double_3x3_1 <- inception_4a/double_3x3_reduce_bn
I0110 20:21:31.865171   776 net.cpp:415] inception_4a/double_3x3_1 -> inception_4a/double_3x3_1
I0110 20:21:31.865177   776 net.cpp:160] Setting up inception_4a/double_3x3_1
I0110 20:21:31.865787   776 net.cpp:167] Top shape: 1 128 14 14 (25088)
I0110 20:21:31.865793   776 layer_factory.hpp:74] Creating layer inception_4a/double_3x3_1_bn
I0110 20:21:31.865797   776 layer_factory.cpp:177] Layer inception_4a/double_3x3_1_bn is using CAFFE engine.
I0110 20:21:31.865803   776 net.cpp:96] Creating Layer inception_4a/double_3x3_1_bn
I0110 20:21:31.865806   776 net.cpp:459] inception_4a/double_3x3_1_bn <- inception_4a/double_3x3_1
I0110 20:21:31.865813   776 net.cpp:415] inception_4a/double_3x3_1_bn -> inception_4a/double_3x3_1_bn
I0110 20:21:31.865818   776 net.cpp:160] Setting up inception_4a/double_3x3_1_bn
I0110 20:21:31.865830   776 net.cpp:167] Top shape: 1 128 14 14 (25088)
I0110 20:21:31.865838   776 layer_factory.hpp:74] Creating layer inception_4a/relu_double_3x3_1
I0110 20:21:31.865842   776 net.cpp:96] Creating Layer inception_4a/relu_double_3x3_1
I0110 20:21:31.865845   776 net.cpp:459] inception_4a/relu_double_3x3_1 <- inception_4a/double_3x3_1_bn
I0110 20:21:31.865849   776 net.cpp:404] inception_4a/relu_double_3x3_1 -> inception_4a/double_3x3_1_bn (in-place)
I0110 20:21:31.865854   776 net.cpp:160] Setting up inception_4a/relu_double_3x3_1
I0110 20:21:31.865859   776 net.cpp:167] Top shape: 1 128 14 14 (25088)
I0110 20:21:31.865861   776 layer_factory.hpp:74] Creating layer inception_4a/double_3x3_2
I0110 20:21:31.865869   776 net.cpp:96] Creating Layer inception_4a/double_3x3_2
I0110 20:21:31.865871   776 net.cpp:459] inception_4a/double_3x3_2 <- inception_4a/double_3x3_1_bn
I0110 20:21:31.865877   776 net.cpp:415] inception_4a/double_3x3_2 -> inception_4a/double_3x3_2
I0110 20:21:31.865882   776 net.cpp:160] Setting up inception_4a/double_3x3_2
I0110 20:21:31.866695   776 net.cpp:167] Top shape: 1 128 14 14 (25088)
I0110 20:21:31.866703   776 layer_factory.hpp:74] Creating layer inception_4a/double_3x3_2_bn
I0110 20:21:31.866706   776 layer_factory.cpp:177] Layer inception_4a/double_3x3_2_bn is using CAFFE engine.
I0110 20:21:31.866713   776 net.cpp:96] Creating Layer inception_4a/double_3x3_2_bn
I0110 20:21:31.866715   776 net.cpp:459] inception_4a/double_3x3_2_bn <- inception_4a/double_3x3_2
I0110 20:21:31.866721   776 net.cpp:415] inception_4a/double_3x3_2_bn -> inception_4a/double_3x3_2_bn
I0110 20:21:31.866727   776 net.cpp:160] Setting up inception_4a/double_3x3_2_bn
I0110 20:21:31.866739   776 net.cpp:167] Top shape: 1 128 14 14 (25088)
I0110 20:21:31.866745   776 layer_factory.hpp:74] Creating layer inception_4a/relu_double_3x3_2
I0110 20:21:31.866751   776 net.cpp:96] Creating Layer inception_4a/relu_double_3x3_2
I0110 20:21:31.866755   776 net.cpp:459] inception_4a/relu_double_3x3_2 <- inception_4a/double_3x3_2_bn
I0110 20:21:31.866760   776 net.cpp:404] inception_4a/relu_double_3x3_2 -> inception_4a/double_3x3_2_bn (in-place)
I0110 20:21:31.866765   776 net.cpp:160] Setting up inception_4a/relu_double_3x3_2
I0110 20:21:31.866768   776 net.cpp:167] Top shape: 1 128 14 14 (25088)
I0110 20:21:31.866772   776 layer_factory.hpp:74] Creating layer inception_4a/pool
I0110 20:21:31.866776   776 net.cpp:96] Creating Layer inception_4a/pool
I0110 20:21:31.866780   776 net.cpp:459] inception_4a/pool <- inception_3c/output_inception_3c/output_0_split_3
I0110 20:21:31.866785   776 net.cpp:415] inception_4a/pool -> inception_4a/pool
I0110 20:21:31.866789   776 net.cpp:160] Setting up inception_4a/pool
I0110 20:21:31.866794   776 net.cpp:167] Top shape: 1 576 14 14 (112896)
I0110 20:21:31.866798   776 layer_factory.hpp:74] Creating layer inception_4a/pool_proj
I0110 20:21:31.866806   776 net.cpp:96] Creating Layer inception_4a/pool_proj
I0110 20:21:31.866811   776 net.cpp:459] inception_4a/pool_proj <- inception_4a/pool
I0110 20:21:31.866816   776 net.cpp:415] inception_4a/pool_proj -> inception_4a/pool_proj
I0110 20:21:31.866822   776 net.cpp:160] Setting up inception_4a/pool_proj
I0110 20:21:31.867231   776 net.cpp:167] Top shape: 1 128 14 14 (25088)
I0110 20:21:31.867238   776 layer_factory.hpp:74] Creating layer inception_4a/pool_proj_bn
I0110 20:21:31.867241   776 layer_factory.cpp:177] Layer inception_4a/pool_proj_bn is using CAFFE engine.
I0110 20:21:31.867247   776 net.cpp:96] Creating Layer inception_4a/pool_proj_bn
I0110 20:21:31.867251   776 net.cpp:459] inception_4a/pool_proj_bn <- inception_4a/pool_proj
I0110 20:21:31.867257   776 net.cpp:415] inception_4a/pool_proj_bn -> inception_4a/pool_proj_bn
I0110 20:21:31.867262   776 net.cpp:160] Setting up inception_4a/pool_proj_bn
I0110 20:21:31.867274   776 net.cpp:167] Top shape: 1 128 14 14 (25088)
I0110 20:21:31.867280   776 layer_factory.hpp:74] Creating layer inception_4a/relu_pool_proj
I0110 20:21:31.867286   776 net.cpp:96] Creating Layer inception_4a/relu_pool_proj
I0110 20:21:31.867290   776 net.cpp:459] inception_4a/relu_pool_proj <- inception_4a/pool_proj_bn
I0110 20:21:31.867295   776 net.cpp:404] inception_4a/relu_pool_proj -> inception_4a/pool_proj_bn (in-place)
I0110 20:21:31.867300   776 net.cpp:160] Setting up inception_4a/relu_pool_proj
I0110 20:21:31.867303   776 net.cpp:167] Top shape: 1 128 14 14 (25088)
I0110 20:21:31.867306   776 layer_factory.hpp:74] Creating layer inception_4a/output
I0110 20:21:31.867311   776 net.cpp:96] Creating Layer inception_4a/output
I0110 20:21:31.867314   776 net.cpp:459] inception_4a/output <- inception_4a/1x1_bn
I0110 20:21:31.867318   776 net.cpp:459] inception_4a/output <- inception_4a/3x3_bn
I0110 20:21:31.867322   776 net.cpp:459] inception_4a/output <- inception_4a/double_3x3_2_bn
I0110 20:21:31.867326   776 net.cpp:459] inception_4a/output <- inception_4a/pool_proj_bn
I0110 20:21:31.867334   776 net.cpp:415] inception_4a/output -> inception_4a/output
I0110 20:21:31.867339   776 net.cpp:160] Setting up inception_4a/output
I0110 20:21:31.867344   776 net.cpp:167] Top shape: 1 576 14 14 (112896)
I0110 20:21:31.867348   776 layer_factory.hpp:74] Creating layer inception_4a/output_inception_4a/output_0_split
I0110 20:21:31.867353   776 net.cpp:96] Creating Layer inception_4a/output_inception_4a/output_0_split
I0110 20:21:31.867357   776 net.cpp:459] inception_4a/output_inception_4a/output_0_split <- inception_4a/output
I0110 20:21:31.867362   776 net.cpp:415] inception_4a/output_inception_4a/output_0_split -> inception_4a/output_inception_4a/output_0_split_0
I0110 20:21:31.867367   776 net.cpp:415] inception_4a/output_inception_4a/output_0_split -> inception_4a/output_inception_4a/output_0_split_1
I0110 20:21:31.867373   776 net.cpp:415] inception_4a/output_inception_4a/output_0_split -> inception_4a/output_inception_4a/output_0_split_2
I0110 20:21:31.867378   776 net.cpp:415] inception_4a/output_inception_4a/output_0_split -> inception_4a/output_inception_4a/output_0_split_3
I0110 20:21:31.867383   776 net.cpp:160] Setting up inception_4a/output_inception_4a/output_0_split
I0110 20:21:31.867389   776 net.cpp:167] Top shape: 1 576 14 14 (112896)
I0110 20:21:31.867393   776 net.cpp:167] Top shape: 1 576 14 14 (112896)
I0110 20:21:31.867396   776 net.cpp:167] Top shape: 1 576 14 14 (112896)
I0110 20:21:31.867400   776 net.cpp:167] Top shape: 1 576 14 14 (112896)
I0110 20:21:31.867403   776 layer_factory.hpp:74] Creating layer inception_4b/1x1
I0110 20:21:31.867410   776 net.cpp:96] Creating Layer inception_4b/1x1
I0110 20:21:31.867414   776 net.cpp:459] inception_4b/1x1 <- inception_4a/output_inception_4a/output_0_split_0
I0110 20:21:31.867419   776 net.cpp:415] inception_4b/1x1 -> inception_4b/1x1
I0110 20:21:31.867424   776 net.cpp:160] Setting up inception_4b/1x1
I0110 20:21:31.868033   776 net.cpp:167] Top shape: 1 192 14 14 (37632)
I0110 20:21:31.868041   776 layer_factory.hpp:74] Creating layer inception_4b/1x1_bn
I0110 20:21:31.868044   776 layer_factory.cpp:177] Layer inception_4b/1x1_bn is using CAFFE engine.
I0110 20:21:31.868052   776 net.cpp:96] Creating Layer inception_4b/1x1_bn
I0110 20:21:31.868055   776 net.cpp:459] inception_4b/1x1_bn <- inception_4b/1x1
I0110 20:21:31.868062   776 net.cpp:415] inception_4b/1x1_bn -> inception_4b/1x1_bn
I0110 20:21:31.868068   776 net.cpp:160] Setting up inception_4b/1x1_bn
I0110 20:21:31.868082   776 net.cpp:167] Top shape: 1 192 14 14 (37632)
I0110 20:21:31.868088   776 layer_factory.hpp:74] Creating layer inception_4b/relu_1x1
I0110 20:21:31.868093   776 net.cpp:96] Creating Layer inception_4b/relu_1x1
I0110 20:21:31.868096   776 net.cpp:459] inception_4b/relu_1x1 <- inception_4b/1x1_bn
I0110 20:21:31.868101   776 net.cpp:404] inception_4b/relu_1x1 -> inception_4b/1x1_bn (in-place)
I0110 20:21:31.868106   776 net.cpp:160] Setting up inception_4b/relu_1x1
I0110 20:21:31.868114   776 net.cpp:167] Top shape: 1 192 14 14 (37632)
I0110 20:21:31.868119   776 layer_factory.hpp:74] Creating layer inception_4b/3x3_reduce
I0110 20:21:31.868124   776 net.cpp:96] Creating Layer inception_4b/3x3_reduce
I0110 20:21:31.868127   776 net.cpp:459] inception_4b/3x3_reduce <- inception_4a/output_inception_4a/output_0_split_1
I0110 20:21:31.868134   776 net.cpp:415] inception_4b/3x3_reduce -> inception_4b/3x3_reduce
I0110 20:21:31.868139   776 net.cpp:160] Setting up inception_4b/3x3_reduce
I0110 20:21:31.868451   776 net.cpp:167] Top shape: 1 96 14 14 (18816)
I0110 20:21:31.868459   776 layer_factory.hpp:74] Creating layer inception_4b/3x3_reduce_bn
I0110 20:21:31.868463   776 layer_factory.cpp:177] Layer inception_4b/3x3_reduce_bn is using CAFFE engine.
I0110 20:21:31.868469   776 net.cpp:96] Creating Layer inception_4b/3x3_reduce_bn
I0110 20:21:31.868474   776 net.cpp:459] inception_4b/3x3_reduce_bn <- inception_4b/3x3_reduce
I0110 20:21:31.868479   776 net.cpp:415] inception_4b/3x3_reduce_bn -> inception_4b/3x3_reduce_bn
I0110 20:21:31.868484   776 net.cpp:160] Setting up inception_4b/3x3_reduce_bn
I0110 20:21:31.868495   776 net.cpp:167] Top shape: 1 96 14 14 (18816)
I0110 20:21:31.868501   776 layer_factory.hpp:74] Creating layer inception_4b/relu_3x3_reduce
I0110 20:21:31.868507   776 net.cpp:96] Creating Layer inception_4b/relu_3x3_reduce
I0110 20:21:31.868511   776 net.cpp:459] inception_4b/relu_3x3_reduce <- inception_4b/3x3_reduce_bn
I0110 20:21:31.868515   776 net.cpp:404] inception_4b/relu_3x3_reduce -> inception_4b/3x3_reduce_bn (in-place)
I0110 20:21:31.868520   776 net.cpp:160] Setting up inception_4b/relu_3x3_reduce
I0110 20:21:31.868523   776 net.cpp:167] Top shape: 1 96 14 14 (18816)
I0110 20:21:31.868527   776 layer_factory.hpp:74] Creating layer inception_4b/3x3
I0110 20:21:31.868533   776 net.cpp:96] Creating Layer inception_4b/3x3
I0110 20:21:31.868537   776 net.cpp:459] inception_4b/3x3 <- inception_4b/3x3_reduce_bn
I0110 20:21:31.868542   776 net.cpp:415] inception_4b/3x3 -> inception_4b/3x3
I0110 20:21:31.868547   776 net.cpp:160] Setting up inception_4b/3x3
I0110 20:21:31.869158   776 net.cpp:167] Top shape: 1 128 14 14 (25088)
I0110 20:21:31.869165   776 layer_factory.hpp:74] Creating layer inception_4b/3x3_bn
I0110 20:21:31.869169   776 layer_factory.cpp:177] Layer inception_4b/3x3_bn is using CAFFE engine.
I0110 20:21:31.869174   776 net.cpp:96] Creating Layer inception_4b/3x3_bn
I0110 20:21:31.869179   776 net.cpp:459] inception_4b/3x3_bn <- inception_4b/3x3
I0110 20:21:31.869184   776 net.cpp:415] inception_4b/3x3_bn -> inception_4b/3x3_bn
I0110 20:21:31.869189   776 net.cpp:160] Setting up inception_4b/3x3_bn
I0110 20:21:31.869202   776 net.cpp:167] Top shape: 1 128 14 14 (25088)
I0110 20:21:31.869209   776 layer_factory.hpp:74] Creating layer inception_4b/relu_3x3
I0110 20:21:31.869213   776 net.cpp:96] Creating Layer inception_4b/relu_3x3
I0110 20:21:31.869217   776 net.cpp:459] inception_4b/relu_3x3 <- inception_4b/3x3_bn
I0110 20:21:31.869221   776 net.cpp:404] inception_4b/relu_3x3 -> inception_4b/3x3_bn (in-place)
I0110 20:21:31.869225   776 net.cpp:160] Setting up inception_4b/relu_3x3
I0110 20:21:31.869232   776 net.cpp:167] Top shape: 1 128 14 14 (25088)
I0110 20:21:31.869236   776 layer_factory.hpp:74] Creating layer inception_4b/double_3x3_reduce
I0110 20:21:31.869242   776 net.cpp:96] Creating Layer inception_4b/double_3x3_reduce
I0110 20:21:31.869246   776 net.cpp:459] inception_4b/double_3x3_reduce <- inception_4a/output_inception_4a/output_0_split_2
I0110 20:21:31.869251   776 net.cpp:415] inception_4b/double_3x3_reduce -> inception_4b/double_3x3_reduce
I0110 20:21:31.869257   776 net.cpp:160] Setting up inception_4b/double_3x3_reduce
I0110 20:21:31.869567   776 net.cpp:167] Top shape: 1 96 14 14 (18816)
I0110 20:21:31.869575   776 layer_factory.hpp:74] Creating layer inception_4b/double_3x3_reduce_bn
I0110 20:21:31.869577   776 layer_factory.cpp:177] Layer inception_4b/double_3x3_reduce_bn is using CAFFE engine.
I0110 20:21:31.869583   776 net.cpp:96] Creating Layer inception_4b/double_3x3_reduce_bn
I0110 20:21:31.869587   776 net.cpp:459] inception_4b/double_3x3_reduce_bn <- inception_4b/double_3x3_reduce
I0110 20:21:31.869593   776 net.cpp:415] inception_4b/double_3x3_reduce_bn -> inception_4b/double_3x3_reduce_bn
I0110 20:21:31.869599   776 net.cpp:160] Setting up inception_4b/double_3x3_reduce_bn
I0110 20:21:31.869613   776 net.cpp:167] Top shape: 1 96 14 14 (18816)
I0110 20:21:31.869619   776 layer_factory.hpp:74] Creating layer inception_4b/relu_double_3x3_reduce
I0110 20:21:31.869624   776 net.cpp:96] Creating Layer inception_4b/relu_double_3x3_reduce
I0110 20:21:31.869627   776 net.cpp:459] inception_4b/relu_double_3x3_reduce <- inception_4b/double_3x3_reduce_bn
I0110 20:21:31.869632   776 net.cpp:404] inception_4b/relu_double_3x3_reduce -> inception_4b/double_3x3_reduce_bn (in-place)
I0110 20:21:31.869637   776 net.cpp:160] Setting up inception_4b/relu_double_3x3_reduce
I0110 20:21:31.869642   776 net.cpp:167] Top shape: 1 96 14 14 (18816)
I0110 20:21:31.869645   776 layer_factory.hpp:74] Creating layer inception_4b/double_3x3_1
I0110 20:21:31.869650   776 net.cpp:96] Creating Layer inception_4b/double_3x3_1
I0110 20:21:31.869653   776 net.cpp:459] inception_4b/double_3x3_1 <- inception_4b/double_3x3_reduce_bn
I0110 20:21:31.869659   776 net.cpp:415] inception_4b/double_3x3_1 -> inception_4b/double_3x3_1
I0110 20:21:31.869665   776 net.cpp:160] Setting up inception_4b/double_3x3_1
I0110 20:21:31.870275   776 net.cpp:167] Top shape: 1 128 14 14 (25088)
I0110 20:21:31.870282   776 layer_factory.hpp:74] Creating layer inception_4b/double_3x3_1_bn
I0110 20:21:31.870285   776 layer_factory.cpp:177] Layer inception_4b/double_3x3_1_bn is using CAFFE engine.
I0110 20:21:31.870291   776 net.cpp:96] Creating Layer inception_4b/double_3x3_1_bn
I0110 20:21:31.870296   776 net.cpp:459] inception_4b/double_3x3_1_bn <- inception_4b/double_3x3_1
I0110 20:21:31.870301   776 net.cpp:415] inception_4b/double_3x3_1_bn -> inception_4b/double_3x3_1_bn
I0110 20:21:31.870306   776 net.cpp:160] Setting up inception_4b/double_3x3_1_bn
I0110 20:21:31.870317   776 net.cpp:167] Top shape: 1 128 14 14 (25088)
I0110 20:21:31.870324   776 layer_factory.hpp:74] Creating layer inception_4b/relu_double_3x3_1
I0110 20:21:31.870329   776 net.cpp:96] Creating Layer inception_4b/relu_double_3x3_1
I0110 20:21:31.870333   776 net.cpp:459] inception_4b/relu_double_3x3_1 <- inception_4b/double_3x3_1_bn
I0110 20:21:31.870337   776 net.cpp:404] inception_4b/relu_double_3x3_1 -> inception_4b/double_3x3_1_bn (in-place)
I0110 20:21:31.870342   776 net.cpp:160] Setting up inception_4b/relu_double_3x3_1
I0110 20:21:31.870347   776 net.cpp:167] Top shape: 1 128 14 14 (25088)
I0110 20:21:31.870349   776 layer_factory.hpp:74] Creating layer inception_4b/double_3x3_2
I0110 20:21:31.870354   776 net.cpp:96] Creating Layer inception_4b/double_3x3_2
I0110 20:21:31.870358   776 net.cpp:459] inception_4b/double_3x3_2 <- inception_4b/double_3x3_1_bn
I0110 20:21:31.870363   776 net.cpp:415] inception_4b/double_3x3_2 -> inception_4b/double_3x3_2
I0110 20:21:31.870369   776 net.cpp:160] Setting up inception_4b/double_3x3_2
I0110 20:21:31.871183   776 net.cpp:167] Top shape: 1 128 14 14 (25088)
I0110 20:21:31.871192   776 layer_factory.hpp:74] Creating layer inception_4b/double_3x3_2_bn
I0110 20:21:31.871196   776 layer_factory.cpp:177] Layer inception_4b/double_3x3_2_bn is using CAFFE engine.
I0110 20:21:31.871203   776 net.cpp:96] Creating Layer inception_4b/double_3x3_2_bn
I0110 20:21:31.871207   776 net.cpp:459] inception_4b/double_3x3_2_bn <- inception_4b/double_3x3_2
I0110 20:21:31.871212   776 net.cpp:415] inception_4b/double_3x3_2_bn -> inception_4b/double_3x3_2_bn
I0110 20:21:31.871217   776 net.cpp:160] Setting up inception_4b/double_3x3_2_bn
I0110 20:21:31.871230   776 net.cpp:167] Top shape: 1 128 14 14 (25088)
I0110 20:21:31.871237   776 layer_factory.hpp:74] Creating layer inception_4b/relu_double_3x3_2
I0110 20:21:31.871242   776 net.cpp:96] Creating Layer inception_4b/relu_double_3x3_2
I0110 20:21:31.871244   776 net.cpp:459] inception_4b/relu_double_3x3_2 <- inception_4b/double_3x3_2_bn
I0110 20:21:31.871249   776 net.cpp:404] inception_4b/relu_double_3x3_2 -> inception_4b/double_3x3_2_bn (in-place)
I0110 20:21:31.871254   776 net.cpp:160] Setting up inception_4b/relu_double_3x3_2
I0110 20:21:31.871258   776 net.cpp:167] Top shape: 1 128 14 14 (25088)
I0110 20:21:31.871261   776 layer_factory.hpp:74] Creating layer inception_4b/pool
I0110 20:21:31.871266   776 net.cpp:96] Creating Layer inception_4b/pool
I0110 20:21:31.871269   776 net.cpp:459] inception_4b/pool <- inception_4a/output_inception_4a/output_0_split_3
I0110 20:21:31.871274   776 net.cpp:415] inception_4b/pool -> inception_4b/pool
I0110 20:21:31.871280   776 net.cpp:160] Setting up inception_4b/pool
I0110 20:21:31.871285   776 net.cpp:167] Top shape: 1 576 14 14 (112896)
I0110 20:21:31.871289   776 layer_factory.hpp:74] Creating layer inception_4b/pool_proj
I0110 20:21:31.871294   776 net.cpp:96] Creating Layer inception_4b/pool_proj
I0110 20:21:31.871299   776 net.cpp:459] inception_4b/pool_proj <- inception_4b/pool
I0110 20:21:31.871304   776 net.cpp:415] inception_4b/pool_proj -> inception_4b/pool_proj
I0110 20:21:31.871309   776 net.cpp:160] Setting up inception_4b/pool_proj
I0110 20:21:31.871719   776 net.cpp:167] Top shape: 1 128 14 14 (25088)
I0110 20:21:31.871726   776 layer_factory.hpp:74] Creating layer inception_4b/pool_proj_bn
I0110 20:21:31.871731   776 layer_factory.cpp:177] Layer inception_4b/pool_proj_bn is using CAFFE engine.
I0110 20:21:31.871736   776 net.cpp:96] Creating Layer inception_4b/pool_proj_bn
I0110 20:21:31.871738   776 net.cpp:459] inception_4b/pool_proj_bn <- inception_4b/pool_proj
I0110 20:21:31.871744   776 net.cpp:415] inception_4b/pool_proj_bn -> inception_4b/pool_proj_bn
I0110 20:21:31.871750   776 net.cpp:160] Setting up inception_4b/pool_proj_bn
I0110 20:21:31.871763   776 net.cpp:167] Top shape: 1 128 14 14 (25088)
I0110 20:21:31.871769   776 layer_factory.hpp:74] Creating layer inception_4b/relu_pool_proj
I0110 20:21:31.871773   776 net.cpp:96] Creating Layer inception_4b/relu_pool_proj
I0110 20:21:31.871778   776 net.cpp:459] inception_4b/relu_pool_proj <- inception_4b/pool_proj_bn
I0110 20:21:31.871781   776 net.cpp:404] inception_4b/relu_pool_proj -> inception_4b/pool_proj_bn (in-place)
I0110 20:21:31.871786   776 net.cpp:160] Setting up inception_4b/relu_pool_proj
I0110 20:21:31.871790   776 net.cpp:167] Top shape: 1 128 14 14 (25088)
I0110 20:21:31.871793   776 layer_factory.hpp:74] Creating layer inception_4b/output
I0110 20:21:31.871806   776 net.cpp:96] Creating Layer inception_4b/output
I0110 20:21:31.871810   776 net.cpp:459] inception_4b/output <- inception_4b/1x1_bn
I0110 20:21:31.871814   776 net.cpp:459] inception_4b/output <- inception_4b/3x3_bn
I0110 20:21:31.871819   776 net.cpp:459] inception_4b/output <- inception_4b/double_3x3_2_bn
I0110 20:21:31.871822   776 net.cpp:459] inception_4b/output <- inception_4b/pool_proj_bn
I0110 20:21:31.871827   776 net.cpp:415] inception_4b/output -> inception_4b/output
I0110 20:21:31.871832   776 net.cpp:160] Setting up inception_4b/output
I0110 20:21:31.871837   776 net.cpp:167] Top shape: 1 576 14 14 (112896)
I0110 20:21:31.871843   776 layer_factory.hpp:74] Creating layer inception_4b/output_inception_4b/output_0_split
I0110 20:21:31.871850   776 net.cpp:96] Creating Layer inception_4b/output_inception_4b/output_0_split
I0110 20:21:31.871852   776 net.cpp:459] inception_4b/output_inception_4b/output_0_split <- inception_4b/output
I0110 20:21:31.871858   776 net.cpp:415] inception_4b/output_inception_4b/output_0_split -> inception_4b/output_inception_4b/output_0_split_0
I0110 20:21:31.871863   776 net.cpp:415] inception_4b/output_inception_4b/output_0_split -> inception_4b/output_inception_4b/output_0_split_1
I0110 20:21:31.871870   776 net.cpp:415] inception_4b/output_inception_4b/output_0_split -> inception_4b/output_inception_4b/output_0_split_2
I0110 20:21:31.871875   776 net.cpp:415] inception_4b/output_inception_4b/output_0_split -> inception_4b/output_inception_4b/output_0_split_3
I0110 20:21:31.871879   776 net.cpp:160] Setting up inception_4b/output_inception_4b/output_0_split
I0110 20:21:31.871884   776 net.cpp:167] Top shape: 1 576 14 14 (112896)
I0110 20:21:31.871888   776 net.cpp:167] Top shape: 1 576 14 14 (112896)
I0110 20:21:31.871892   776 net.cpp:167] Top shape: 1 576 14 14 (112896)
I0110 20:21:31.871896   776 net.cpp:167] Top shape: 1 576 14 14 (112896)
I0110 20:21:31.871899   776 layer_factory.hpp:74] Creating layer inception_4c/1x1
I0110 20:21:31.871907   776 net.cpp:96] Creating Layer inception_4c/1x1
I0110 20:21:31.871912   776 net.cpp:459] inception_4c/1x1 <- inception_4b/output_inception_4b/output_0_split_0
I0110 20:21:31.871917   776 net.cpp:415] inception_4c/1x1 -> inception_4c/1x1
I0110 20:21:31.871922   776 net.cpp:160] Setting up inception_4c/1x1
I0110 20:21:31.872434   776 net.cpp:167] Top shape: 1 160 14 14 (31360)
I0110 20:21:31.872443   776 layer_factory.hpp:74] Creating layer inception_4c/1x1_bn
I0110 20:21:31.872447   776 layer_factory.cpp:177] Layer inception_4c/1x1_bn is using CAFFE engine.
I0110 20:21:31.872453   776 net.cpp:96] Creating Layer inception_4c/1x1_bn
I0110 20:21:31.872457   776 net.cpp:459] inception_4c/1x1_bn <- inception_4c/1x1
I0110 20:21:31.872462   776 net.cpp:415] inception_4c/1x1_bn -> inception_4c/1x1_bn
I0110 20:21:31.872467   776 net.cpp:160] Setting up inception_4c/1x1_bn
I0110 20:21:31.872483   776 net.cpp:167] Top shape: 1 160 14 14 (31360)
I0110 20:21:31.872488   776 layer_factory.hpp:74] Creating layer inception_4c/relu_1x1
I0110 20:21:31.872506   776 net.cpp:96] Creating Layer inception_4c/relu_1x1
I0110 20:21:31.872510   776 net.cpp:459] inception_4c/relu_1x1 <- inception_4c/1x1_bn
I0110 20:21:31.872514   776 net.cpp:404] inception_4c/relu_1x1 -> inception_4c/1x1_bn (in-place)
I0110 20:21:31.872519   776 net.cpp:160] Setting up inception_4c/relu_1x1
I0110 20:21:31.872524   776 net.cpp:167] Top shape: 1 160 14 14 (31360)
I0110 20:21:31.872527   776 layer_factory.hpp:74] Creating layer inception_4c/3x3_reduce
I0110 20:21:31.872534   776 net.cpp:96] Creating Layer inception_4c/3x3_reduce
I0110 20:21:31.872536   776 net.cpp:459] inception_4c/3x3_reduce <- inception_4b/output_inception_4b/output_0_split_1
I0110 20:21:31.872541   776 net.cpp:415] inception_4c/3x3_reduce -> inception_4c/3x3_reduce
I0110 20:21:31.872547   776 net.cpp:160] Setting up inception_4c/3x3_reduce
I0110 20:21:31.872959   776 net.cpp:167] Top shape: 1 128 14 14 (25088)
I0110 20:21:31.872967   776 layer_factory.hpp:74] Creating layer inception_4c/3x3_reduce_bn
I0110 20:21:31.872970   776 layer_factory.cpp:177] Layer inception_4c/3x3_reduce_bn is using CAFFE engine.
I0110 20:21:31.872975   776 net.cpp:96] Creating Layer inception_4c/3x3_reduce_bn
I0110 20:21:31.872978   776 net.cpp:459] inception_4c/3x3_reduce_bn <- inception_4c/3x3_reduce
I0110 20:21:31.872985   776 net.cpp:415] inception_4c/3x3_reduce_bn -> inception_4c/3x3_reduce_bn
I0110 20:21:31.872990   776 net.cpp:160] Setting up inception_4c/3x3_reduce_bn
I0110 20:21:31.873004   776 net.cpp:167] Top shape: 1 128 14 14 (25088)
I0110 20:21:31.873010   776 layer_factory.hpp:74] Creating layer inception_4c/relu_3x3_reduce
I0110 20:21:31.873018   776 net.cpp:96] Creating Layer inception_4c/relu_3x3_reduce
I0110 20:21:31.873023   776 net.cpp:459] inception_4c/relu_3x3_reduce <- inception_4c/3x3_reduce_bn
I0110 20:21:31.873026   776 net.cpp:404] inception_4c/relu_3x3_reduce -> inception_4c/3x3_reduce_bn (in-place)
I0110 20:21:31.873031   776 net.cpp:160] Setting up inception_4c/relu_3x3_reduce
I0110 20:21:31.873035   776 net.cpp:167] Top shape: 1 128 14 14 (25088)
I0110 20:21:31.873039   776 layer_factory.hpp:74] Creating layer inception_4c/3x3
I0110 20:21:31.873045   776 net.cpp:96] Creating Layer inception_4c/3x3
I0110 20:21:31.873049   776 net.cpp:459] inception_4c/3x3 <- inception_4c/3x3_reduce_bn
I0110 20:21:31.873054   776 net.cpp:415] inception_4c/3x3 -> inception_4c/3x3
I0110 20:21:31.873059   776 net.cpp:160] Setting up inception_4c/3x3
I0110 20:21:31.874264   776 net.cpp:167] Top shape: 1 160 14 14 (31360)
I0110 20:21:31.874275   776 layer_factory.hpp:74] Creating layer inception_4c/3x3_bn
I0110 20:21:31.874279   776 layer_factory.cpp:177] Layer inception_4c/3x3_bn is using CAFFE engine.
I0110 20:21:31.874286   776 net.cpp:96] Creating Layer inception_4c/3x3_bn
I0110 20:21:31.874291   776 net.cpp:459] inception_4c/3x3_bn <- inception_4c/3x3
I0110 20:21:31.874297   776 net.cpp:415] inception_4c/3x3_bn -> inception_4c/3x3_bn
I0110 20:21:31.874305   776 net.cpp:160] Setting up inception_4c/3x3_bn
I0110 20:21:31.874318   776 net.cpp:167] Top shape: 1 160 14 14 (31360)
I0110 20:21:31.874326   776 layer_factory.hpp:74] Creating layer inception_4c/relu_3x3
I0110 20:21:31.874331   776 net.cpp:96] Creating Layer inception_4c/relu_3x3
I0110 20:21:31.874336   776 net.cpp:459] inception_4c/relu_3x3 <- inception_4c/3x3_bn
I0110 20:21:31.874341   776 net.cpp:404] inception_4c/relu_3x3 -> inception_4c/3x3_bn (in-place)
I0110 20:21:31.874346   776 net.cpp:160] Setting up inception_4c/relu_3x3
I0110 20:21:31.874349   776 net.cpp:167] Top shape: 1 160 14 14 (31360)
I0110 20:21:31.874353   776 layer_factory.hpp:74] Creating layer inception_4c/double_3x3_reduce
I0110 20:21:31.874358   776 net.cpp:96] Creating Layer inception_4c/double_3x3_reduce
I0110 20:21:31.874362   776 net.cpp:459] inception_4c/double_3x3_reduce <- inception_4b/output_inception_4b/output_0_split_2
I0110 20:21:31.874367   776 net.cpp:415] inception_4c/double_3x3_reduce -> inception_4c/double_3x3_reduce
I0110 20:21:31.874373   776 net.cpp:160] Setting up inception_4c/double_3x3_reduce
I0110 20:21:31.874786   776 net.cpp:167] Top shape: 1 128 14 14 (25088)
I0110 20:21:31.874794   776 layer_factory.hpp:74] Creating layer inception_4c/double_3x3_reduce_bn
I0110 20:21:31.874797   776 layer_factory.cpp:177] Layer inception_4c/double_3x3_reduce_bn is using CAFFE engine.
I0110 20:21:31.874802   776 net.cpp:96] Creating Layer inception_4c/double_3x3_reduce_bn
I0110 20:21:31.874806   776 net.cpp:459] inception_4c/double_3x3_reduce_bn <- inception_4c/double_3x3_reduce
I0110 20:21:31.874812   776 net.cpp:415] inception_4c/double_3x3_reduce_bn -> inception_4c/double_3x3_reduce_bn
I0110 20:21:31.874819   776 net.cpp:160] Setting up inception_4c/double_3x3_reduce_bn
I0110 20:21:31.874833   776 net.cpp:167] Top shape: 1 128 14 14 (25088)
I0110 20:21:31.874840   776 layer_factory.hpp:74] Creating layer inception_4c/relu_double_3x3_reduce
I0110 20:21:31.874845   776 net.cpp:96] Creating Layer inception_4c/relu_double_3x3_reduce
I0110 20:21:31.874848   776 net.cpp:459] inception_4c/relu_double_3x3_reduce <- inception_4c/double_3x3_reduce_bn
I0110 20:21:31.874853   776 net.cpp:404] inception_4c/relu_double_3x3_reduce -> inception_4c/double_3x3_reduce_bn (in-place)
I0110 20:21:31.874857   776 net.cpp:160] Setting up inception_4c/relu_double_3x3_reduce
I0110 20:21:31.874862   776 net.cpp:167] Top shape: 1 128 14 14 (25088)
I0110 20:21:31.874866   776 layer_factory.hpp:74] Creating layer inception_4c/double_3x3_1
I0110 20:21:31.874872   776 net.cpp:96] Creating Layer inception_4c/double_3x3_1
I0110 20:21:31.874876   776 net.cpp:459] inception_4c/double_3x3_1 <- inception_4c/double_3x3_reduce_bn
I0110 20:21:31.874886   776 net.cpp:415] inception_4c/double_3x3_1 -> inception_4c/double_3x3_1
I0110 20:21:31.874891   776 net.cpp:160] Setting up inception_4c/double_3x3_1
I0110 20:21:31.875902   776 net.cpp:167] Top shape: 1 160 14 14 (31360)
I0110 20:21:31.875910   776 layer_factory.hpp:74] Creating layer inception_4c/double_3x3_1_bn
I0110 20:21:31.875913   776 layer_factory.cpp:177] Layer inception_4c/double_3x3_1_bn is using CAFFE engine.
I0110 20:21:31.875919   776 net.cpp:96] Creating Layer inception_4c/double_3x3_1_bn
I0110 20:21:31.875923   776 net.cpp:459] inception_4c/double_3x3_1_bn <- inception_4c/double_3x3_1
I0110 20:21:31.875929   776 net.cpp:415] inception_4c/double_3x3_1_bn -> inception_4c/double_3x3_1_bn
I0110 20:21:31.875936   776 net.cpp:160] Setting up inception_4c/double_3x3_1_bn
I0110 20:21:31.875948   776 net.cpp:167] Top shape: 1 160 14 14 (31360)
I0110 20:21:31.875954   776 layer_factory.hpp:74] Creating layer inception_4c/relu_double_3x3_1
I0110 20:21:31.875959   776 net.cpp:96] Creating Layer inception_4c/relu_double_3x3_1
I0110 20:21:31.875962   776 net.cpp:459] inception_4c/relu_double_3x3_1 <- inception_4c/double_3x3_1_bn
I0110 20:21:31.875970   776 net.cpp:404] inception_4c/relu_double_3x3_1 -> inception_4c/double_3x3_1_bn (in-place)
I0110 20:21:31.875975   776 net.cpp:160] Setting up inception_4c/relu_double_3x3_1
I0110 20:21:31.875979   776 net.cpp:167] Top shape: 1 160 14 14 (31360)
I0110 20:21:31.875982   776 layer_factory.hpp:74] Creating layer inception_4c/double_3x3_2
I0110 20:21:31.875988   776 net.cpp:96] Creating Layer inception_4c/double_3x3_2
I0110 20:21:31.875991   776 net.cpp:459] inception_4c/double_3x3_2 <- inception_4c/double_3x3_1_bn
I0110 20:21:31.875998   776 net.cpp:415] inception_4c/double_3x3_2 -> inception_4c/double_3x3_2
I0110 20:21:31.876003   776 net.cpp:160] Setting up inception_4c/double_3x3_2
I0110 20:21:31.877271   776 net.cpp:167] Top shape: 1 160 14 14 (31360)
I0110 20:21:31.877279   776 layer_factory.hpp:74] Creating layer inception_4c/double_3x3_2_bn
I0110 20:21:31.877284   776 layer_factory.cpp:177] Layer inception_4c/double_3x3_2_bn is using CAFFE engine.
I0110 20:21:31.877288   776 net.cpp:96] Creating Layer inception_4c/double_3x3_2_bn
I0110 20:21:31.877292   776 net.cpp:459] inception_4c/double_3x3_2_bn <- inception_4c/double_3x3_2
I0110 20:21:31.877298   776 net.cpp:415] inception_4c/double_3x3_2_bn -> inception_4c/double_3x3_2_bn
I0110 20:21:31.877305   776 net.cpp:160] Setting up inception_4c/double_3x3_2_bn
I0110 20:21:31.877318   776 net.cpp:167] Top shape: 1 160 14 14 (31360)
I0110 20:21:31.877324   776 layer_factory.hpp:74] Creating layer inception_4c/relu_double_3x3_2
I0110 20:21:31.877329   776 net.cpp:96] Creating Layer inception_4c/relu_double_3x3_2
I0110 20:21:31.877332   776 net.cpp:459] inception_4c/relu_double_3x3_2 <- inception_4c/double_3x3_2_bn
I0110 20:21:31.877337   776 net.cpp:404] inception_4c/relu_double_3x3_2 -> inception_4c/double_3x3_2_bn (in-place)
I0110 20:21:31.877342   776 net.cpp:160] Setting up inception_4c/relu_double_3x3_2
I0110 20:21:31.877346   776 net.cpp:167] Top shape: 1 160 14 14 (31360)
I0110 20:21:31.877351   776 layer_factory.hpp:74] Creating layer inception_4c/pool
I0110 20:21:31.877355   776 net.cpp:96] Creating Layer inception_4c/pool
I0110 20:21:31.877358   776 net.cpp:459] inception_4c/pool <- inception_4b/output_inception_4b/output_0_split_3
I0110 20:21:31.877364   776 net.cpp:415] inception_4c/pool -> inception_4c/pool
I0110 20:21:31.877369   776 net.cpp:160] Setting up inception_4c/pool
I0110 20:21:31.877375   776 net.cpp:167] Top shape: 1 576 14 14 (112896)
I0110 20:21:31.877378   776 layer_factory.hpp:74] Creating layer inception_4c/pool_proj
I0110 20:21:31.877384   776 net.cpp:96] Creating Layer inception_4c/pool_proj
I0110 20:21:31.877388   776 net.cpp:459] inception_4c/pool_proj <- inception_4c/pool
I0110 20:21:31.877393   776 net.cpp:415] inception_4c/pool_proj -> inception_4c/pool_proj
I0110 20:21:31.877399   776 net.cpp:160] Setting up inception_4c/pool_proj
I0110 20:21:31.877811   776 net.cpp:167] Top shape: 1 128 14 14 (25088)
I0110 20:21:31.877820   776 layer_factory.hpp:74] Creating layer inception_4c/pool_proj_bn
I0110 20:21:31.877825   776 layer_factory.cpp:177] Layer inception_4c/pool_proj_bn is using CAFFE engine.
I0110 20:21:31.877830   776 net.cpp:96] Creating Layer inception_4c/pool_proj_bn
I0110 20:21:31.877833   776 net.cpp:459] inception_4c/pool_proj_bn <- inception_4c/pool_proj
I0110 20:21:31.877840   776 net.cpp:415] inception_4c/pool_proj_bn -> inception_4c/pool_proj_bn
I0110 20:21:31.877846   776 net.cpp:160] Setting up inception_4c/pool_proj_bn
I0110 20:21:31.877859   776 net.cpp:167] Top shape: 1 128 14 14 (25088)
I0110 20:21:31.877890   776 layer_factory.hpp:74] Creating layer inception_4c/relu_pool_proj
I0110 20:21:31.877897   776 net.cpp:96] Creating Layer inception_4c/relu_pool_proj
I0110 20:21:31.877900   776 net.cpp:459] inception_4c/relu_pool_proj <- inception_4c/pool_proj_bn
I0110 20:21:31.877904   776 net.cpp:404] inception_4c/relu_pool_proj -> inception_4c/pool_proj_bn (in-place)
I0110 20:21:31.877909   776 net.cpp:160] Setting up inception_4c/relu_pool_proj
I0110 20:21:31.877913   776 net.cpp:167] Top shape: 1 128 14 14 (25088)
I0110 20:21:31.877918   776 layer_factory.hpp:74] Creating layer inception_4c/output
I0110 20:21:31.877923   776 net.cpp:96] Creating Layer inception_4c/output
I0110 20:21:31.877926   776 net.cpp:459] inception_4c/output <- inception_4c/1x1_bn
I0110 20:21:31.877930   776 net.cpp:459] inception_4c/output <- inception_4c/3x3_bn
I0110 20:21:31.877934   776 net.cpp:459] inception_4c/output <- inception_4c/double_3x3_2_bn
I0110 20:21:31.877938   776 net.cpp:459] inception_4c/output <- inception_4c/pool_proj_bn
I0110 20:21:31.877943   776 net.cpp:415] inception_4c/output -> inception_4c/output
I0110 20:21:31.877948   776 net.cpp:160] Setting up inception_4c/output
I0110 20:21:31.877954   776 net.cpp:167] Top shape: 1 608 14 14 (119168)
I0110 20:21:31.877956   776 layer_factory.hpp:74] Creating layer inception_4c/output_inception_4c/output_0_split
I0110 20:21:31.877962   776 net.cpp:96] Creating Layer inception_4c/output_inception_4c/output_0_split
I0110 20:21:31.877965   776 net.cpp:459] inception_4c/output_inception_4c/output_0_split <- inception_4c/output
I0110 20:21:31.877970   776 net.cpp:415] inception_4c/output_inception_4c/output_0_split -> inception_4c/output_inception_4c/output_0_split_0
I0110 20:21:31.877975   776 net.cpp:415] inception_4c/output_inception_4c/output_0_split -> inception_4c/output_inception_4c/output_0_split_1
I0110 20:21:31.877982   776 net.cpp:415] inception_4c/output_inception_4c/output_0_split -> inception_4c/output_inception_4c/output_0_split_2
I0110 20:21:31.877988   776 net.cpp:415] inception_4c/output_inception_4c/output_0_split -> inception_4c/output_inception_4c/output_0_split_3
I0110 20:21:31.877993   776 net.cpp:160] Setting up inception_4c/output_inception_4c/output_0_split
I0110 20:21:31.877998   776 net.cpp:167] Top shape: 1 608 14 14 (119168)
I0110 20:21:31.878002   776 net.cpp:167] Top shape: 1 608 14 14 (119168)
I0110 20:21:31.878006   776 net.cpp:167] Top shape: 1 608 14 14 (119168)
I0110 20:21:31.878010   776 net.cpp:167] Top shape: 1 608 14 14 (119168)
I0110 20:21:31.878013   776 layer_factory.hpp:74] Creating layer inception_4d/1x1
I0110 20:21:31.878021   776 net.cpp:96] Creating Layer inception_4d/1x1
I0110 20:21:31.878023   776 net.cpp:459] inception_4d/1x1 <- inception_4c/output_inception_4c/output_0_split_0
I0110 20:21:31.878028   776 net.cpp:415] inception_4d/1x1 -> inception_4d/1x1
I0110 20:21:31.878046   776 net.cpp:160] Setting up inception_4d/1x1
I0110 20:21:31.878371   776 net.cpp:167] Top shape: 1 96 14 14 (18816)
I0110 20:21:31.878378   776 layer_factory.hpp:74] Creating layer inception_4d/1x1_bn
I0110 20:21:31.878382   776 layer_factory.cpp:177] Layer inception_4d/1x1_bn is using CAFFE engine.
I0110 20:21:31.878387   776 net.cpp:96] Creating Layer inception_4d/1x1_bn
I0110 20:21:31.878391   776 net.cpp:459] inception_4d/1x1_bn <- inception_4d/1x1
I0110 20:21:31.878397   776 net.cpp:415] inception_4d/1x1_bn -> inception_4d/1x1_bn
I0110 20:21:31.878407   776 net.cpp:160] Setting up inception_4d/1x1_bn
I0110 20:21:31.878422   776 net.cpp:167] Top shape: 1 96 14 14 (18816)
I0110 20:21:31.878428   776 layer_factory.hpp:74] Creating layer inception_4d/relu_1x1
I0110 20:21:31.878434   776 net.cpp:96] Creating Layer inception_4d/relu_1x1
I0110 20:21:31.878438   776 net.cpp:459] inception_4d/relu_1x1 <- inception_4d/1x1_bn
I0110 20:21:31.878443   776 net.cpp:404] inception_4d/relu_1x1 -> inception_4d/1x1_bn (in-place)
I0110 20:21:31.878446   776 net.cpp:160] Setting up inception_4d/relu_1x1
I0110 20:21:31.878451   776 net.cpp:167] Top shape: 1 96 14 14 (18816)
I0110 20:21:31.878454   776 layer_factory.hpp:74] Creating layer inception_4d/3x3_reduce
I0110 20:21:31.878459   776 net.cpp:96] Creating Layer inception_4d/3x3_reduce
I0110 20:21:31.878463   776 net.cpp:459] inception_4d/3x3_reduce <- inception_4c/output_inception_4c/output_0_split_1
I0110 20:21:31.878469   776 net.cpp:415] inception_4d/3x3_reduce -> inception_4d/3x3_reduce
I0110 20:21:31.878475   776 net.cpp:160] Setting up inception_4d/3x3_reduce
I0110 20:21:31.878916   776 net.cpp:167] Top shape: 1 128 14 14 (25088)
I0110 20:21:31.878922   776 layer_factory.hpp:74] Creating layer inception_4d/3x3_reduce_bn
I0110 20:21:31.878926   776 layer_factory.cpp:177] Layer inception_4d/3x3_reduce_bn is using CAFFE engine.
I0110 20:21:31.878932   776 net.cpp:96] Creating Layer inception_4d/3x3_reduce_bn
I0110 20:21:31.878937   776 net.cpp:459] inception_4d/3x3_reduce_bn <- inception_4d/3x3_reduce
I0110 20:21:31.878942   776 net.cpp:415] inception_4d/3x3_reduce_bn -> inception_4d/3x3_reduce_bn
I0110 20:21:31.878948   776 net.cpp:160] Setting up inception_4d/3x3_reduce_bn
I0110 20:21:31.878960   776 net.cpp:167] Top shape: 1 128 14 14 (25088)
I0110 20:21:31.878968   776 layer_factory.hpp:74] Creating layer inception_4d/relu_3x3_reduce
I0110 20:21:31.878973   776 net.cpp:96] Creating Layer inception_4d/relu_3x3_reduce
I0110 20:21:31.878976   776 net.cpp:459] inception_4d/relu_3x3_reduce <- inception_4d/3x3_reduce_bn
I0110 20:21:31.878980   776 net.cpp:404] inception_4d/relu_3x3_reduce -> inception_4d/3x3_reduce_bn (in-place)
I0110 20:21:31.878985   776 net.cpp:160] Setting up inception_4d/relu_3x3_reduce
I0110 20:21:31.878989   776 net.cpp:167] Top shape: 1 128 14 14 (25088)
I0110 20:21:31.878993   776 layer_factory.hpp:74] Creating layer inception_4d/3x3
I0110 20:21:31.878999   776 net.cpp:96] Creating Layer inception_4d/3x3
I0110 20:21:31.879003   776 net.cpp:459] inception_4d/3x3 <- inception_4d/3x3_reduce_bn
I0110 20:21:31.879007   776 net.cpp:415] inception_4d/3x3 -> inception_4d/3x3
I0110 20:21:31.879014   776 net.cpp:160] Setting up inception_4d/3x3
I0110 20:21:31.880230   776 net.cpp:167] Top shape: 1 192 14 14 (37632)
I0110 20:21:31.880240   776 layer_factory.hpp:74] Creating layer inception_4d/3x3_bn
I0110 20:21:31.880244   776 layer_factory.cpp:177] Layer inception_4d/3x3_bn is using CAFFE engine.
I0110 20:21:31.880249   776 net.cpp:96] Creating Layer inception_4d/3x3_bn
I0110 20:21:31.880252   776 net.cpp:459] inception_4d/3x3_bn <- inception_4d/3x3
I0110 20:21:31.880260   776 net.cpp:415] inception_4d/3x3_bn -> inception_4d/3x3_bn
I0110 20:21:31.880266   776 net.cpp:160] Setting up inception_4d/3x3_bn
I0110 20:21:31.880280   776 net.cpp:167] Top shape: 1 192 14 14 (37632)
I0110 20:21:31.880286   776 layer_factory.hpp:74] Creating layer inception_4d/relu_3x3
I0110 20:21:31.880291   776 net.cpp:96] Creating Layer inception_4d/relu_3x3
I0110 20:21:31.880295   776 net.cpp:459] inception_4d/relu_3x3 <- inception_4d/3x3_bn
I0110 20:21:31.880300   776 net.cpp:404] inception_4d/relu_3x3 -> inception_4d/3x3_bn (in-place)
I0110 20:21:31.880305   776 net.cpp:160] Setting up inception_4d/relu_3x3
I0110 20:21:31.880309   776 net.cpp:167] Top shape: 1 192 14 14 (37632)
I0110 20:21:31.880312   776 layer_factory.hpp:74] Creating layer inception_4d/double_3x3_reduce
I0110 20:21:31.880317   776 net.cpp:96] Creating Layer inception_4d/double_3x3_reduce
I0110 20:21:31.880321   776 net.cpp:459] inception_4d/double_3x3_reduce <- inception_4c/output_inception_4c/output_0_split_2
I0110 20:21:31.880331   776 net.cpp:415] inception_4d/double_3x3_reduce -> inception_4d/double_3x3_reduce
I0110 20:21:31.880336   776 net.cpp:160] Setting up inception_4d/double_3x3_reduce
I0110 20:21:31.880877   776 net.cpp:167] Top shape: 1 160 14 14 (31360)
I0110 20:21:31.880884   776 layer_factory.hpp:74] Creating layer inception_4d/double_3x3_reduce_bn
I0110 20:21:31.880888   776 layer_factory.cpp:177] Layer inception_4d/double_3x3_reduce_bn is using CAFFE engine.
I0110 20:21:31.880894   776 net.cpp:96] Creating Layer inception_4d/double_3x3_reduce_bn
I0110 20:21:31.880898   776 net.cpp:459] inception_4d/double_3x3_reduce_bn <- inception_4d/double_3x3_reduce
I0110 20:21:31.880903   776 net.cpp:415] inception_4d/double_3x3_reduce_bn -> inception_4d/double_3x3_reduce_bn
I0110 20:21:31.880908   776 net.cpp:160] Setting up inception_4d/double_3x3_reduce_bn
I0110 20:21:31.880923   776 net.cpp:167] Top shape: 1 160 14 14 (31360)
I0110 20:21:31.880929   776 layer_factory.hpp:74] Creating layer inception_4d/relu_double_3x3_reduce
I0110 20:21:31.880934   776 net.cpp:96] Creating Layer inception_4d/relu_double_3x3_reduce
I0110 20:21:31.880939   776 net.cpp:459] inception_4d/relu_double_3x3_reduce <- inception_4d/double_3x3_reduce_bn
I0110 20:21:31.880942   776 net.cpp:404] inception_4d/relu_double_3x3_reduce -> inception_4d/double_3x3_reduce_bn (in-place)
I0110 20:21:31.880947   776 net.cpp:160] Setting up inception_4d/relu_double_3x3_reduce
I0110 20:21:31.880951   776 net.cpp:167] Top shape: 1 160 14 14 (31360)
I0110 20:21:31.880954   776 layer_factory.hpp:74] Creating layer inception_4d/double_3x3_1
I0110 20:21:31.880960   776 net.cpp:96] Creating Layer inception_4d/double_3x3_1
I0110 20:21:31.880964   776 net.cpp:459] inception_4d/double_3x3_1 <- inception_4d/double_3x3_reduce_bn
I0110 20:21:31.880970   776 net.cpp:415] inception_4d/double_3x3_1 -> inception_4d/double_3x3_1
I0110 20:21:31.880975   776 net.cpp:160] Setting up inception_4d/double_3x3_1
I0110 20:21:31.883627   776 net.cpp:167] Top shape: 1 192 14 14 (37632)
I0110 20:21:31.883644   776 layer_factory.hpp:74] Creating layer inception_4d/double_3x3_1_bn
I0110 20:21:31.883651   776 layer_factory.cpp:177] Layer inception_4d/double_3x3_1_bn is using CAFFE engine.
I0110 20:21:31.883661   776 net.cpp:96] Creating Layer inception_4d/double_3x3_1_bn
I0110 20:21:31.883668   776 net.cpp:459] inception_4d/double_3x3_1_bn <- inception_4d/double_3x3_1
I0110 20:21:31.883679   776 net.cpp:415] inception_4d/double_3x3_1_bn -> inception_4d/double_3x3_1_bn
I0110 20:21:31.883690   776 net.cpp:160] Setting up inception_4d/double_3x3_1_bn
I0110 20:21:31.883711   776 net.cpp:167] Top shape: 1 192 14 14 (37632)
I0110 20:21:31.883723   776 layer_factory.hpp:74] Creating layer inception_4d/relu_double_3x3_1
I0110 20:21:31.883733   776 net.cpp:96] Creating Layer inception_4d/relu_double_3x3_1
I0110 20:21:31.883738   776 net.cpp:459] inception_4d/relu_double_3x3_1 <- inception_4d/double_3x3_1_bn
I0110 20:21:31.883745   776 net.cpp:404] inception_4d/relu_double_3x3_1 -> inception_4d/double_3x3_1_bn (in-place)
I0110 20:21:31.883755   776 net.cpp:160] Setting up inception_4d/relu_double_3x3_1
I0110 20:21:31.883764   776 net.cpp:167] Top shape: 1 192 14 14 (37632)
I0110 20:21:31.883769   776 layer_factory.hpp:74] Creating layer inception_4d/double_3x3_2
I0110 20:21:31.883780   776 net.cpp:96] Creating Layer inception_4d/double_3x3_2
I0110 20:21:31.883786   776 net.cpp:459] inception_4d/double_3x3_2 <- inception_4d/double_3x3_1_bn
I0110 20:21:31.883796   776 net.cpp:415] inception_4d/double_3x3_2 -> inception_4d/double_3x3_2
I0110 20:21:31.883806   776 net.cpp:160] Setting up inception_4d/double_3x3_2
I0110 20:21:31.887107   776 net.cpp:167] Top shape: 1 192 14 14 (37632)
I0110 20:21:31.887125   776 layer_factory.hpp:74] Creating layer inception_4d/double_3x3_2_bn
I0110 20:21:31.887133   776 layer_factory.cpp:177] Layer inception_4d/double_3x3_2_bn is using CAFFE engine.
I0110 20:21:31.887142   776 net.cpp:96] Creating Layer inception_4d/double_3x3_2_bn
I0110 20:21:31.887154   776 net.cpp:459] inception_4d/double_3x3_2_bn <- inception_4d/double_3x3_2
I0110 20:21:31.887166   776 net.cpp:415] inception_4d/double_3x3_2_bn -> inception_4d/double_3x3_2_bn
I0110 20:21:31.887176   776 net.cpp:160] Setting up inception_4d/double_3x3_2_bn
I0110 20:21:31.887200   776 net.cpp:167] Top shape: 1 192 14 14 (37632)
I0110 20:21:31.887212   776 layer_factory.hpp:74] Creating layer inception_4d/relu_double_3x3_2
I0110 20:21:31.887222   776 net.cpp:96] Creating Layer inception_4d/relu_double_3x3_2
I0110 20:21:31.887228   776 net.cpp:459] inception_4d/relu_double_3x3_2 <- inception_4d/double_3x3_2_bn
I0110 20:21:31.887235   776 net.cpp:404] inception_4d/relu_double_3x3_2 -> inception_4d/double_3x3_2_bn (in-place)
I0110 20:21:31.887243   776 net.cpp:160] Setting up inception_4d/relu_double_3x3_2
I0110 20:21:31.887250   776 net.cpp:167] Top shape: 1 192 14 14 (37632)
I0110 20:21:31.887256   776 layer_factory.hpp:74] Creating layer inception_4d/pool
I0110 20:21:31.887264   776 net.cpp:96] Creating Layer inception_4d/pool
I0110 20:21:31.887270   776 net.cpp:459] inception_4d/pool <- inception_4c/output_inception_4c/output_0_split_3
I0110 20:21:31.887280   776 net.cpp:415] inception_4d/pool -> inception_4d/pool
I0110 20:21:31.887290   776 net.cpp:160] Setting up inception_4d/pool
I0110 20:21:31.887298   776 net.cpp:167] Top shape: 1 608 14 14 (119168)
I0110 20:21:31.887305   776 layer_factory.hpp:74] Creating layer inception_4d/pool_proj
I0110 20:21:31.887313   776 net.cpp:96] Creating Layer inception_4d/pool_proj
I0110 20:21:31.887320   776 net.cpp:459] inception_4d/pool_proj <- inception_4d/pool
I0110 20:21:31.887329   776 net.cpp:415] inception_4d/pool_proj -> inception_4d/pool_proj
I0110 20:21:31.887338   776 net.cpp:160] Setting up inception_4d/pool_proj
I0110 20:21:31.888140   776 net.cpp:167] Top shape: 1 128 14 14 (25088)
I0110 20:21:31.888155   776 layer_factory.hpp:74] Creating layer inception_4d/pool_proj_bn
I0110 20:21:31.888162   776 layer_factory.cpp:177] Layer inception_4d/pool_proj_bn is using CAFFE engine.
I0110 20:21:31.888172   776 net.cpp:96] Creating Layer inception_4d/pool_proj_bn
I0110 20:21:31.888178   776 net.cpp:459] inception_4d/pool_proj_bn <- inception_4d/pool_proj
I0110 20:21:31.888187   776 net.cpp:415] inception_4d/pool_proj_bn -> inception_4d/pool_proj_bn
I0110 20:21:31.888196   776 net.cpp:160] Setting up inception_4d/pool_proj_bn
I0110 20:21:31.888217   776 net.cpp:167] Top shape: 1 128 14 14 (25088)
I0110 20:21:31.888227   776 layer_factory.hpp:74] Creating layer inception_4d/relu_pool_proj
I0110 20:21:31.888234   776 net.cpp:96] Creating Layer inception_4d/relu_pool_proj
I0110 20:21:31.888239   776 net.cpp:459] inception_4d/relu_pool_proj <- inception_4d/pool_proj_bn
I0110 20:21:31.888247   776 net.cpp:404] inception_4d/relu_pool_proj -> inception_4d/pool_proj_bn (in-place)
I0110 20:21:31.888255   776 net.cpp:160] Setting up inception_4d/relu_pool_proj
I0110 20:21:31.888262   776 net.cpp:167] Top shape: 1 128 14 14 (25088)
I0110 20:21:31.888267   776 layer_factory.hpp:74] Creating layer inception_4d/output
I0110 20:21:31.888274   776 net.cpp:96] Creating Layer inception_4d/output
I0110 20:21:31.888279   776 net.cpp:459] inception_4d/output <- inception_4d/1x1_bn
I0110 20:21:31.888285   776 net.cpp:459] inception_4d/output <- inception_4d/3x3_bn
I0110 20:21:31.888293   776 net.cpp:459] inception_4d/output <- inception_4d/double_3x3_2_bn
I0110 20:21:31.888298   776 net.cpp:459] inception_4d/output <- inception_4d/pool_proj_bn
I0110 20:21:31.888304   776 net.cpp:415] inception_4d/output -> inception_4d/output
I0110 20:21:31.888312   776 net.cpp:160] Setting up inception_4d/output
I0110 20:21:31.888320   776 net.cpp:167] Top shape: 1 608 14 14 (119168)
I0110 20:21:31.888326   776 layer_factory.hpp:74] Creating layer inception_4d/output_inception_4d/output_0_split
I0110 20:21:31.888335   776 net.cpp:96] Creating Layer inception_4d/output_inception_4d/output_0_split
I0110 20:21:31.888340   776 net.cpp:459] inception_4d/output_inception_4d/output_0_split <- inception_4d/output
I0110 20:21:31.888351   776 net.cpp:415] inception_4d/output_inception_4d/output_0_split -> inception_4d/output_inception_4d/output_0_split_0
I0110 20:21:31.888360   776 net.cpp:415] inception_4d/output_inception_4d/output_0_split -> inception_4d/output_inception_4d/output_0_split_1
I0110 20:21:31.888368   776 net.cpp:415] inception_4d/output_inception_4d/output_0_split -> inception_4d/output_inception_4d/output_0_split_2
I0110 20:21:31.888375   776 net.cpp:160] Setting up inception_4d/output_inception_4d/output_0_split
I0110 20:21:31.888383   776 net.cpp:167] Top shape: 1 608 14 14 (119168)
I0110 20:21:31.888389   776 net.cpp:167] Top shape: 1 608 14 14 (119168)
I0110 20:21:31.888396   776 net.cpp:167] Top shape: 1 608 14 14 (119168)
I0110 20:21:31.888401   776 layer_factory.hpp:74] Creating layer inception_4e/3x3_reduce
I0110 20:21:31.888411   776 net.cpp:96] Creating Layer inception_4e/3x3_reduce
I0110 20:21:31.888417   776 net.cpp:459] inception_4e/3x3_reduce <- inception_4d/output_inception_4d/output_0_split_0
I0110 20:21:31.888427   776 net.cpp:415] inception_4e/3x3_reduce -> inception_4e/3x3_reduce
I0110 20:21:31.888437   776 net.cpp:160] Setting up inception_4e/3x3_reduce
I0110 20:21:31.889219   776 net.cpp:167] Top shape: 1 128 14 14 (25088)
I0110 20:21:31.889232   776 layer_factory.hpp:74] Creating layer inception_4e/3x3_reduce_bn
I0110 20:21:31.889240   776 layer_factory.cpp:177] Layer inception_4e/3x3_reduce_bn is using CAFFE engine.
I0110 20:21:31.889248   776 net.cpp:96] Creating Layer inception_4e/3x3_reduce_bn
I0110 20:21:31.889256   776 net.cpp:459] inception_4e/3x3_reduce_bn <- inception_4e/3x3_reduce
I0110 20:21:31.889264   776 net.cpp:415] inception_4e/3x3_reduce_bn -> inception_4e/3x3_reduce_bn
I0110 20:21:31.889272   776 net.cpp:160] Setting up inception_4e/3x3_reduce_bn
I0110 20:21:31.889292   776 net.cpp:167] Top shape: 1 128 14 14 (25088)
I0110 20:21:31.889303   776 layer_factory.hpp:74] Creating layer inception_4e/relu_3x3_reduce
I0110 20:21:31.889310   776 net.cpp:96] Creating Layer inception_4e/relu_3x3_reduce
I0110 20:21:31.889317   776 net.cpp:459] inception_4e/relu_3x3_reduce <- inception_4e/3x3_reduce_bn
I0110 20:21:31.889324   776 net.cpp:404] inception_4e/relu_3x3_reduce -> inception_4e/3x3_reduce_bn (in-place)
I0110 20:21:31.889331   776 net.cpp:160] Setting up inception_4e/relu_3x3_reduce
I0110 20:21:31.889338   776 net.cpp:167] Top shape: 1 128 14 14 (25088)
I0110 20:21:31.889343   776 layer_factory.hpp:74] Creating layer inception_4e/3x3
I0110 20:21:31.889353   776 net.cpp:96] Creating Layer inception_4e/3x3
I0110 20:21:31.889358   776 net.cpp:459] inception_4e/3x3 <- inception_4e/3x3_reduce_bn
I0110 20:21:31.889364   776 net.cpp:415] inception_4e/3x3 -> inception_4e/3x3
I0110 20:21:31.889374   776 net.cpp:160] Setting up inception_4e/3x3
I0110 20:21:31.891578   776 net.cpp:167] Top shape: 1 192 7 7 (9408)
I0110 20:21:31.891593   776 layer_factory.hpp:74] Creating layer inception_4e/3x3_bn
I0110 20:21:31.891600   776 layer_factory.cpp:177] Layer inception_4e/3x3_bn is using CAFFE engine.
I0110 20:21:31.891609   776 net.cpp:96] Creating Layer inception_4e/3x3_bn
I0110 20:21:31.891615   776 net.cpp:459] inception_4e/3x3_bn <- inception_4e/3x3
I0110 20:21:31.891626   776 net.cpp:415] inception_4e/3x3_bn -> inception_4e/3x3_bn
I0110 20:21:31.891636   776 net.cpp:160] Setting up inception_4e/3x3_bn
I0110 20:21:31.891660   776 net.cpp:167] Top shape: 1 192 7 7 (9408)
I0110 20:21:31.891671   776 layer_factory.hpp:74] Creating layer inception_4e/relu_3x3
I0110 20:21:31.891680   776 net.cpp:96] Creating Layer inception_4e/relu_3x3
I0110 20:21:31.891685   776 net.cpp:459] inception_4e/relu_3x3 <- inception_4e/3x3_bn
I0110 20:21:31.891692   776 net.cpp:404] inception_4e/relu_3x3 -> inception_4e/3x3_bn (in-place)
I0110 20:21:31.891700   776 net.cpp:160] Setting up inception_4e/relu_3x3
I0110 20:21:31.891707   776 net.cpp:167] Top shape: 1 192 7 7 (9408)
I0110 20:21:31.891713   776 layer_factory.hpp:74] Creating layer inception_4e/double_3x3_reduce
I0110 20:21:31.891728   776 net.cpp:96] Creating Layer inception_4e/double_3x3_reduce
I0110 20:21:31.891734   776 net.cpp:459] inception_4e/double_3x3_reduce <- inception_4d/output_inception_4d/output_0_split_1
I0110 20:21:31.891743   776 net.cpp:415] inception_4e/double_3x3_reduce -> inception_4e/double_3x3_reduce
I0110 20:21:31.891752   776 net.cpp:160] Setting up inception_4e/double_3x3_reduce
I0110 20:21:31.892928   776 net.cpp:167] Top shape: 1 192 14 14 (37632)
I0110 20:21:31.892946   776 layer_factory.hpp:74] Creating layer inception_4e/double_3x3_reduce_bn
I0110 20:21:31.892952   776 layer_factory.cpp:177] Layer inception_4e/double_3x3_reduce_bn is using CAFFE engine.
I0110 20:21:31.892962   776 net.cpp:96] Creating Layer inception_4e/double_3x3_reduce_bn
I0110 20:21:31.892969   776 net.cpp:459] inception_4e/double_3x3_reduce_bn <- inception_4e/double_3x3_reduce
I0110 20:21:31.892977   776 net.cpp:415] inception_4e/double_3x3_reduce_bn -> inception_4e/double_3x3_reduce_bn
I0110 20:21:31.892987   776 net.cpp:160] Setting up inception_4e/double_3x3_reduce_bn
I0110 20:21:31.893013   776 net.cpp:167] Top shape: 1 192 14 14 (37632)
I0110 20:21:31.893023   776 layer_factory.hpp:74] Creating layer inception_4e/relu_double_3x3_reduce
I0110 20:21:31.893033   776 net.cpp:96] Creating Layer inception_4e/relu_double_3x3_reduce
I0110 20:21:31.893038   776 net.cpp:459] inception_4e/relu_double_3x3_reduce <- inception_4e/double_3x3_reduce_bn
I0110 20:21:31.893046   776 net.cpp:404] inception_4e/relu_double_3x3_reduce -> inception_4e/double_3x3_reduce_bn (in-place)
I0110 20:21:31.893054   776 net.cpp:160] Setting up inception_4e/relu_double_3x3_reduce
I0110 20:21:31.893060   776 net.cpp:167] Top shape: 1 192 14 14 (37632)
I0110 20:21:31.893065   776 layer_factory.hpp:74] Creating layer inception_4e/double_3x3_1
I0110 20:21:31.893074   776 net.cpp:96] Creating Layer inception_4e/double_3x3_1
I0110 20:21:31.893079   776 net.cpp:459] inception_4e/double_3x3_1 <- inception_4e/double_3x3_reduce_bn
I0110 20:21:31.893087   776 net.cpp:415] inception_4e/double_3x3_1 -> inception_4e/double_3x3_1
I0110 20:21:31.893096   776 net.cpp:160] Setting up inception_4e/double_3x3_1
I0110 20:21:31.897138   776 net.cpp:167] Top shape: 1 256 14 14 (50176)
I0110 20:21:31.897156   776 layer_factory.hpp:74] Creating layer inception_4e/double_3x3_1_bn
I0110 20:21:31.897163   776 layer_factory.cpp:177] Layer inception_4e/double_3x3_1_bn is using CAFFE engine.
I0110 20:21:31.897173   776 net.cpp:96] Creating Layer inception_4e/double_3x3_1_bn
I0110 20:21:31.897181   776 net.cpp:459] inception_4e/double_3x3_1_bn <- inception_4e/double_3x3_1
I0110 20:21:31.897192   776 net.cpp:415] inception_4e/double_3x3_1_bn -> inception_4e/double_3x3_1_bn
I0110 20:21:31.897203   776 net.cpp:160] Setting up inception_4e/double_3x3_1_bn
I0110 20:21:31.897228   776 net.cpp:167] Top shape: 1 256 14 14 (50176)
I0110 20:21:31.897239   776 layer_factory.hpp:74] Creating layer inception_4e/relu_double_3x3_1
I0110 20:21:31.897248   776 net.cpp:96] Creating Layer inception_4e/relu_double_3x3_1
I0110 20:21:31.897253   776 net.cpp:459] inception_4e/relu_double_3x3_1 <- inception_4e/double_3x3_1_bn
I0110 20:21:31.897260   776 net.cpp:404] inception_4e/relu_double_3x3_1 -> inception_4e/double_3x3_1_bn (in-place)
I0110 20:21:31.897269   776 net.cpp:160] Setting up inception_4e/relu_double_3x3_1
I0110 20:21:31.897276   776 net.cpp:167] Top shape: 1 256 14 14 (50176)
I0110 20:21:31.897282   776 layer_factory.hpp:74] Creating layer inception_4e/double_3x3_2
I0110 20:21:31.897292   776 net.cpp:96] Creating Layer inception_4e/double_3x3_2
I0110 20:21:31.897299   776 net.cpp:459] inception_4e/double_3x3_2 <- inception_4e/double_3x3_1_bn
I0110 20:21:31.897306   776 net.cpp:415] inception_4e/double_3x3_2 -> inception_4e/double_3x3_2
I0110 20:21:31.897315   776 net.cpp:160] Setting up inception_4e/double_3x3_2
I0110 20:21:31.903059   776 net.cpp:167] Top shape: 1 256 7 7 (12544)
I0110 20:21:31.903084   776 layer_factory.hpp:74] Creating layer inception_4e/double_3x3_2_bn
I0110 20:21:31.903098   776 layer_factory.cpp:177] Layer inception_4e/double_3x3_2_bn is using CAFFE engine.
I0110 20:21:31.903115   776 net.cpp:96] Creating Layer inception_4e/double_3x3_2_bn
I0110 20:21:31.903122   776 net.cpp:459] inception_4e/double_3x3_2_bn <- inception_4e/double_3x3_2
I0110 20:21:31.903133   776 net.cpp:415] inception_4e/double_3x3_2_bn -> inception_4e/double_3x3_2_bn
I0110 20:21:31.903146   776 net.cpp:160] Setting up inception_4e/double_3x3_2_bn
I0110 20:21:31.903169   776 net.cpp:167] Top shape: 1 256 7 7 (12544)
I0110 20:21:31.903180   776 layer_factory.hpp:74] Creating layer inception_4e/relu_double_3x3_2
I0110 20:21:31.903190   776 net.cpp:96] Creating Layer inception_4e/relu_double_3x3_2
I0110 20:21:31.903197   776 net.cpp:459] inception_4e/relu_double_3x3_2 <- inception_4e/double_3x3_2_bn
I0110 20:21:31.903204   776 net.cpp:404] inception_4e/relu_double_3x3_2 -> inception_4e/double_3x3_2_bn (in-place)
I0110 20:21:31.903213   776 net.cpp:160] Setting up inception_4e/relu_double_3x3_2
I0110 20:21:31.903219   776 net.cpp:167] Top shape: 1 256 7 7 (12544)
I0110 20:21:31.903225   776 layer_factory.hpp:74] Creating layer inception_4e/pool
I0110 20:21:31.903234   776 net.cpp:96] Creating Layer inception_4e/pool
I0110 20:21:31.903239   776 net.cpp:459] inception_4e/pool <- inception_4d/output_inception_4d/output_0_split_2
I0110 20:21:31.903247   776 net.cpp:415] inception_4e/pool -> inception_4e/pool
I0110 20:21:31.903255   776 net.cpp:160] Setting up inception_4e/pool
I0110 20:21:31.903266   776 net.cpp:167] Top shape: 1 608 7 7 (29792)
I0110 20:21:31.903272   776 layer_factory.hpp:74] Creating layer inception_4e/output
I0110 20:21:31.903282   776 net.cpp:96] Creating Layer inception_4e/output
I0110 20:21:31.903288   776 net.cpp:459] inception_4e/output <- inception_4e/3x3_bn
I0110 20:21:31.903295   776 net.cpp:459] inception_4e/output <- inception_4e/double_3x3_2_bn
I0110 20:21:31.903301   776 net.cpp:459] inception_4e/output <- inception_4e/pool
I0110 20:21:31.903309   776 net.cpp:415] inception_4e/output -> inception_4e/output
I0110 20:21:31.903317   776 net.cpp:160] Setting up inception_4e/output
I0110 20:21:31.903326   776 net.cpp:167] Top shape: 1 1056 7 7 (51744)
I0110 20:21:31.903332   776 layer_factory.hpp:74] Creating layer inception_4e/output_inception_4e/output_0_split
I0110 20:21:31.903342   776 net.cpp:96] Creating Layer inception_4e/output_inception_4e/output_0_split
I0110 20:21:31.903348   776 net.cpp:459] inception_4e/output_inception_4e/output_0_split <- inception_4e/output
I0110 20:21:31.903357   776 net.cpp:415] inception_4e/output_inception_4e/output_0_split -> inception_4e/output_inception_4e/output_0_split_0
I0110 20:21:31.903365   776 net.cpp:415] inception_4e/output_inception_4e/output_0_split -> inception_4e/output_inception_4e/output_0_split_1
I0110 20:21:31.903374   776 net.cpp:415] inception_4e/output_inception_4e/output_0_split -> inception_4e/output_inception_4e/output_0_split_2
I0110 20:21:31.903383   776 net.cpp:415] inception_4e/output_inception_4e/output_0_split -> inception_4e/output_inception_4e/output_0_split_3
I0110 20:21:31.903391   776 net.cpp:160] Setting up inception_4e/output_inception_4e/output_0_split
I0110 20:21:31.903400   776 net.cpp:167] Top shape: 1 1056 7 7 (51744)
I0110 20:21:31.903408   776 net.cpp:167] Top shape: 1 1056 7 7 (51744)
I0110 20:21:31.903414   776 net.cpp:167] Top shape: 1 1056 7 7 (51744)
I0110 20:21:31.903420   776 net.cpp:167] Top shape: 1 1056 7 7 (51744)
I0110 20:21:31.903425   776 layer_factory.hpp:74] Creating layer inception_5a/1x1
I0110 20:21:31.903436   776 net.cpp:96] Creating Layer inception_5a/1x1
I0110 20:21:31.903442   776 net.cpp:459] inception_5a/1x1 <- inception_4e/output_inception_4e/output_0_split_0
I0110 20:21:31.903452   776 net.cpp:415] inception_5a/1x1 -> inception_5a/1x1
I0110 20:21:31.903461   776 net.cpp:160] Setting up inception_5a/1x1
I0110 20:21:31.907194   776 net.cpp:167] Top shape: 1 352 7 7 (17248)
I0110 20:21:31.907208   776 layer_factory.hpp:74] Creating layer inception_5a/1x1_bn
I0110 20:21:31.907215   776 layer_factory.cpp:177] Layer inception_5a/1x1_bn is using CAFFE engine.
I0110 20:21:31.907232   776 net.cpp:96] Creating Layer inception_5a/1x1_bn
I0110 20:21:31.907239   776 net.cpp:459] inception_5a/1x1_bn <- inception_5a/1x1
I0110 20:21:31.907248   776 net.cpp:415] inception_5a/1x1_bn -> inception_5a/1x1_bn
I0110 20:21:31.907258   776 net.cpp:160] Setting up inception_5a/1x1_bn
I0110 20:21:31.907280   776 net.cpp:167] Top shape: 1 352 7 7 (17248)
I0110 20:21:31.907291   776 layer_factory.hpp:74] Creating layer inception_5a/relu_1x1
I0110 20:21:31.907301   776 net.cpp:96] Creating Layer inception_5a/relu_1x1
I0110 20:21:31.907307   776 net.cpp:459] inception_5a/relu_1x1 <- inception_5a/1x1_bn
I0110 20:21:31.907315   776 net.cpp:404] inception_5a/relu_1x1 -> inception_5a/1x1_bn (in-place)
I0110 20:21:31.907325   776 net.cpp:160] Setting up inception_5a/relu_1x1
I0110 20:21:31.907331   776 net.cpp:167] Top shape: 1 352 7 7 (17248)
I0110 20:21:31.907336   776 layer_factory.hpp:74] Creating layer inception_5a/3x3_reduce
I0110 20:21:31.907346   776 net.cpp:96] Creating Layer inception_5a/3x3_reduce
I0110 20:21:31.907351   776 net.cpp:459] inception_5a/3x3_reduce <- inception_4e/output_inception_4e/output_0_split_1
I0110 20:21:31.907359   776 net.cpp:415] inception_5a/3x3_reduce -> inception_5a/3x3_reduce
I0110 20:21:31.907368   776 net.cpp:160] Setting up inception_5a/3x3_reduce
I0110 20:21:31.909389   776 net.cpp:167] Top shape: 1 192 7 7 (9408)
I0110 20:21:31.909405   776 layer_factory.hpp:74] Creating layer inception_5a/3x3_reduce_bn
I0110 20:21:31.909412   776 layer_factory.cpp:177] Layer inception_5a/3x3_reduce_bn is using CAFFE engine.
I0110 20:21:31.909421   776 net.cpp:96] Creating Layer inception_5a/3x3_reduce_bn
I0110 20:21:31.909428   776 net.cpp:459] inception_5a/3x3_reduce_bn <- inception_5a/3x3_reduce
I0110 20:21:31.909438   776 net.cpp:415] inception_5a/3x3_reduce_bn -> inception_5a/3x3_reduce_bn
I0110 20:21:31.909449   776 net.cpp:160] Setting up inception_5a/3x3_reduce_bn
I0110 20:21:31.909476   776 net.cpp:167] Top shape: 1 192 7 7 (9408)
I0110 20:21:31.909490   776 layer_factory.hpp:74] Creating layer inception_5a/relu_3x3_reduce
I0110 20:21:31.909498   776 net.cpp:96] Creating Layer inception_5a/relu_3x3_reduce
I0110 20:21:31.909505   776 net.cpp:459] inception_5a/relu_3x3_reduce <- inception_5a/3x3_reduce_bn
I0110 20:21:31.909512   776 net.cpp:404] inception_5a/relu_3x3_reduce -> inception_5a/3x3_reduce_bn (in-place)
I0110 20:21:31.909520   776 net.cpp:160] Setting up inception_5a/relu_3x3_reduce
I0110 20:21:31.909528   776 net.cpp:167] Top shape: 1 192 7 7 (9408)
I0110 20:21:31.909534   776 layer_factory.hpp:74] Creating layer inception_5a/3x3
I0110 20:21:31.909544   776 net.cpp:96] Creating Layer inception_5a/3x3
I0110 20:21:31.909551   776 net.cpp:459] inception_5a/3x3 <- inception_5a/3x3_reduce_bn
I0110 20:21:31.909560   776 net.cpp:415] inception_5a/3x3 -> inception_5a/3x3
I0110 20:21:31.909570   776 net.cpp:160] Setting up inception_5a/3x3
I0110 20:21:31.914446   776 net.cpp:167] Top shape: 1 320 7 7 (15680)
I0110 20:21:31.914458   776 layer_factory.hpp:74] Creating layer inception_5a/3x3_bn
I0110 20:21:31.914463   776 layer_factory.cpp:177] Layer inception_5a/3x3_bn is using CAFFE engine.
I0110 20:21:31.914469   776 net.cpp:96] Creating Layer inception_5a/3x3_bn
I0110 20:21:31.914474   776 net.cpp:459] inception_5a/3x3_bn <- inception_5a/3x3
I0110 20:21:31.914479   776 net.cpp:415] inception_5a/3x3_bn -> inception_5a/3x3_bn
I0110 20:21:31.914485   776 net.cpp:160] Setting up inception_5a/3x3_bn
I0110 20:21:31.914502   776 net.cpp:167] Top shape: 1 320 7 7 (15680)
I0110 20:21:31.914510   776 layer_factory.hpp:74] Creating layer inception_5a/relu_3x3
I0110 20:21:31.914515   776 net.cpp:96] Creating Layer inception_5a/relu_3x3
I0110 20:21:31.914520   776 net.cpp:459] inception_5a/relu_3x3 <- inception_5a/3x3_bn
I0110 20:21:31.914523   776 net.cpp:404] inception_5a/relu_3x3 -> inception_5a/3x3_bn (in-place)
I0110 20:21:31.914528   776 net.cpp:160] Setting up inception_5a/relu_3x3
I0110 20:21:31.914538   776 net.cpp:167] Top shape: 1 320 7 7 (15680)
I0110 20:21:31.914542   776 layer_factory.hpp:74] Creating layer inception_5a/double_3x3_reduce
I0110 20:21:31.914549   776 net.cpp:96] Creating Layer inception_5a/double_3x3_reduce
I0110 20:21:31.914554   776 net.cpp:459] inception_5a/double_3x3_reduce <- inception_4e/output_inception_4e/output_0_split_2
I0110 20:21:31.914559   776 net.cpp:415] inception_5a/double_3x3_reduce -> inception_5a/double_3x3_reduce
I0110 20:21:31.914566   776 net.cpp:160] Setting up inception_5a/double_3x3_reduce
I0110 20:21:31.915496   776 net.cpp:167] Top shape: 1 160 7 7 (7840)
I0110 20:21:31.915504   776 layer_factory.hpp:74] Creating layer inception_5a/double_3x3_reduce_bn
I0110 20:21:31.915508   776 layer_factory.cpp:177] Layer inception_5a/double_3x3_reduce_bn is using CAFFE engine.
I0110 20:21:31.915514   776 net.cpp:96] Creating Layer inception_5a/double_3x3_reduce_bn
I0110 20:21:31.915518   776 net.cpp:459] inception_5a/double_3x3_reduce_bn <- inception_5a/double_3x3_reduce
I0110 20:21:31.915525   776 net.cpp:415] inception_5a/double_3x3_reduce_bn -> inception_5a/double_3x3_reduce_bn
I0110 20:21:31.915531   776 net.cpp:160] Setting up inception_5a/double_3x3_reduce_bn
I0110 20:21:31.915544   776 net.cpp:167] Top shape: 1 160 7 7 (7840)
I0110 20:21:31.915551   776 layer_factory.hpp:74] Creating layer inception_5a/relu_double_3x3_reduce
I0110 20:21:31.915556   776 net.cpp:96] Creating Layer inception_5a/relu_double_3x3_reduce
I0110 20:21:31.915560   776 net.cpp:459] inception_5a/relu_double_3x3_reduce <- inception_5a/double_3x3_reduce_bn
I0110 20:21:31.915565   776 net.cpp:404] inception_5a/relu_double_3x3_reduce -> inception_5a/double_3x3_reduce_bn (in-place)
I0110 20:21:31.915570   776 net.cpp:160] Setting up inception_5a/relu_double_3x3_reduce
I0110 20:21:31.915573   776 net.cpp:167] Top shape: 1 160 7 7 (7840)
I0110 20:21:31.915577   776 layer_factory.hpp:74] Creating layer inception_5a/double_3x3_1
I0110 20:21:31.915585   776 net.cpp:96] Creating Layer inception_5a/double_3x3_1
I0110 20:21:31.915587   776 net.cpp:459] inception_5a/double_3x3_1 <- inception_5a/double_3x3_reduce_bn
I0110 20:21:31.915592   776 net.cpp:415] inception_5a/double_3x3_1 -> inception_5a/double_3x3_1
I0110 20:21:31.915597   776 net.cpp:160] Setting up inception_5a/double_3x3_1
I0110 20:21:31.917373   776 net.cpp:167] Top shape: 1 224 7 7 (10976)
I0110 20:21:31.917382   776 layer_factory.hpp:74] Creating layer inception_5a/double_3x3_1_bn
I0110 20:21:31.917387   776 layer_factory.cpp:177] Layer inception_5a/double_3x3_1_bn is using CAFFE engine.
I0110 20:21:31.917393   776 net.cpp:96] Creating Layer inception_5a/double_3x3_1_bn
I0110 20:21:31.917397   776 net.cpp:459] inception_5a/double_3x3_1_bn <- inception_5a/double_3x3_1
I0110 20:21:31.917403   776 net.cpp:415] inception_5a/double_3x3_1_bn -> inception_5a/double_3x3_1_bn
I0110 20:21:31.917409   776 net.cpp:160] Setting up inception_5a/double_3x3_1_bn
I0110 20:21:31.917423   776 net.cpp:167] Top shape: 1 224 7 7 (10976)
I0110 20:21:31.917429   776 layer_factory.hpp:74] Creating layer inception_5a/relu_double_3x3_1
I0110 20:21:31.917433   776 net.cpp:96] Creating Layer inception_5a/relu_double_3x3_1
I0110 20:21:31.917438   776 net.cpp:459] inception_5a/relu_double_3x3_1 <- inception_5a/double_3x3_1_bn
I0110 20:21:31.917441   776 net.cpp:404] inception_5a/relu_double_3x3_1 -> inception_5a/double_3x3_1_bn (in-place)
I0110 20:21:31.917446   776 net.cpp:160] Setting up inception_5a/relu_double_3x3_1
I0110 20:21:31.917450   776 net.cpp:167] Top shape: 1 224 7 7 (10976)
I0110 20:21:31.917454   776 layer_factory.hpp:74] Creating layer inception_5a/double_3x3_2
I0110 20:21:31.917461   776 net.cpp:96] Creating Layer inception_5a/double_3x3_2
I0110 20:21:31.917464   776 net.cpp:459] inception_5a/double_3x3_2 <- inception_5a/double_3x3_1_bn
I0110 20:21:31.917470   776 net.cpp:415] inception_5a/double_3x3_2 -> inception_5a/double_3x3_2
I0110 20:21:31.917476   776 net.cpp:160] Setting up inception_5a/double_3x3_2
I0110 20:21:31.919946   776 net.cpp:167] Top shape: 1 224 7 7 (10976)
I0110 20:21:31.919958   776 layer_factory.hpp:74] Creating layer inception_5a/double_3x3_2_bn
I0110 20:21:31.919962   776 layer_factory.cpp:177] Layer inception_5a/double_3x3_2_bn is using CAFFE engine.
I0110 20:21:31.919970   776 net.cpp:96] Creating Layer inception_5a/double_3x3_2_bn
I0110 20:21:31.919973   776 net.cpp:459] inception_5a/double_3x3_2_bn <- inception_5a/double_3x3_2
I0110 20:21:31.919981   776 net.cpp:415] inception_5a/double_3x3_2_bn -> inception_5a/double_3x3_2_bn
I0110 20:21:31.919986   776 net.cpp:160] Setting up inception_5a/double_3x3_2_bn
I0110 20:21:31.919999   776 net.cpp:167] Top shape: 1 224 7 7 (10976)
I0110 20:21:31.920006   776 layer_factory.hpp:74] Creating layer inception_5a/relu_double_3x3_2
I0110 20:21:31.920011   776 net.cpp:96] Creating Layer inception_5a/relu_double_3x3_2
I0110 20:21:31.920016   776 net.cpp:459] inception_5a/relu_double_3x3_2 <- inception_5a/double_3x3_2_bn
I0110 20:21:31.920019   776 net.cpp:404] inception_5a/relu_double_3x3_2 -> inception_5a/double_3x3_2_bn (in-place)
I0110 20:21:31.920023   776 net.cpp:160] Setting up inception_5a/relu_double_3x3_2
I0110 20:21:31.920028   776 net.cpp:167] Top shape: 1 224 7 7 (10976)
I0110 20:21:31.920032   776 layer_factory.hpp:74] Creating layer inception_5a/pool
I0110 20:21:31.920037   776 net.cpp:96] Creating Layer inception_5a/pool
I0110 20:21:31.920042   776 net.cpp:459] inception_5a/pool <- inception_4e/output_inception_4e/output_0_split_3
I0110 20:21:31.920045   776 net.cpp:415] inception_5a/pool -> inception_5a/pool
I0110 20:21:31.920050   776 net.cpp:160] Setting up inception_5a/pool
I0110 20:21:31.920056   776 net.cpp:167] Top shape: 1 1056 7 7 (51744)
I0110 20:21:31.920060   776 layer_factory.hpp:74] Creating layer inception_5a/pool_proj
I0110 20:21:31.920066   776 net.cpp:96] Creating Layer inception_5a/pool_proj
I0110 20:21:31.920070   776 net.cpp:459] inception_5a/pool_proj <- inception_5a/pool
I0110 20:21:31.920076   776 net.cpp:415] inception_5a/pool_proj -> inception_5a/pool_proj
I0110 20:21:31.920083   776 net.cpp:160] Setting up inception_5a/pool_proj
I0110 20:21:31.920833   776 net.cpp:167] Top shape: 1 128 7 7 (6272)
I0110 20:21:31.920841   776 layer_factory.hpp:74] Creating layer inception_5a/pool_proj_bn
I0110 20:21:31.920845   776 layer_factory.cpp:177] Layer inception_5a/pool_proj_bn is using CAFFE engine.
I0110 20:21:31.920851   776 net.cpp:96] Creating Layer inception_5a/pool_proj_bn
I0110 20:21:31.920855   776 net.cpp:459] inception_5a/pool_proj_bn <- inception_5a/pool_proj
I0110 20:21:31.920861   776 net.cpp:415] inception_5a/pool_proj_bn -> inception_5a/pool_proj_bn
I0110 20:21:31.920867   776 net.cpp:160] Setting up inception_5a/pool_proj_bn
I0110 20:21:31.920881   776 net.cpp:167] Top shape: 1 128 7 7 (6272)
I0110 20:21:31.920886   776 layer_factory.hpp:74] Creating layer inception_5a/relu_pool_proj
I0110 20:21:31.920892   776 net.cpp:96] Creating Layer inception_5a/relu_pool_proj
I0110 20:21:31.920897   776 net.cpp:459] inception_5a/relu_pool_proj <- inception_5a/pool_proj_bn
I0110 20:21:31.920900   776 net.cpp:404] inception_5a/relu_pool_proj -> inception_5a/pool_proj_bn (in-place)
I0110 20:21:31.920905   776 net.cpp:160] Setting up inception_5a/relu_pool_proj
I0110 20:21:31.920909   776 net.cpp:167] Top shape: 1 128 7 7 (6272)
I0110 20:21:31.920912   776 layer_factory.hpp:74] Creating layer inception_5a/output
I0110 20:21:31.920917   776 net.cpp:96] Creating Layer inception_5a/output
I0110 20:21:31.920922   776 net.cpp:459] inception_5a/output <- inception_5a/1x1_bn
I0110 20:21:31.920925   776 net.cpp:459] inception_5a/output <- inception_5a/3x3_bn
I0110 20:21:31.920929   776 net.cpp:459] inception_5a/output <- inception_5a/double_3x3_2_bn
I0110 20:21:31.920933   776 net.cpp:459] inception_5a/output <- inception_5a/pool_proj_bn
I0110 20:21:31.920939   776 net.cpp:415] inception_5a/output -> inception_5a/output
I0110 20:21:31.920944   776 net.cpp:160] Setting up inception_5a/output
I0110 20:21:31.920950   776 net.cpp:167] Top shape: 1 1024 7 7 (50176)
I0110 20:21:31.920954   776 layer_factory.hpp:74] Creating layer inception_5a/output_inception_5a/output_0_split
I0110 20:21:31.920964   776 net.cpp:96] Creating Layer inception_5a/output_inception_5a/output_0_split
I0110 20:21:31.920967   776 net.cpp:459] inception_5a/output_inception_5a/output_0_split <- inception_5a/output
I0110 20:21:31.920972   776 net.cpp:415] inception_5a/output_inception_5a/output_0_split -> inception_5a/output_inception_5a/output_0_split_0
I0110 20:21:31.920977   776 net.cpp:415] inception_5a/output_inception_5a/output_0_split -> inception_5a/output_inception_5a/output_0_split_1
I0110 20:21:31.920984   776 net.cpp:415] inception_5a/output_inception_5a/output_0_split -> inception_5a/output_inception_5a/output_0_split_2
I0110 20:21:31.920990   776 net.cpp:415] inception_5a/output_inception_5a/output_0_split -> inception_5a/output_inception_5a/output_0_split_3
I0110 20:21:31.920995   776 net.cpp:160] Setting up inception_5a/output_inception_5a/output_0_split
I0110 20:21:31.921001   776 net.cpp:167] Top shape: 1 1024 7 7 (50176)
I0110 20:21:31.921005   776 net.cpp:167] Top shape: 1 1024 7 7 (50176)
I0110 20:21:31.921010   776 net.cpp:167] Top shape: 1 1024 7 7 (50176)
I0110 20:21:31.921012   776 net.cpp:167] Top shape: 1 1024 7 7 (50176)
I0110 20:21:31.921016   776 layer_factory.hpp:74] Creating layer inception_5b/1x1
I0110 20:21:31.921023   776 net.cpp:96] Creating Layer inception_5b/1x1
I0110 20:21:31.921026   776 net.cpp:459] inception_5b/1x1 <- inception_5a/output_inception_5a/output_0_split_0
I0110 20:21:31.921031   776 net.cpp:415] inception_5b/1x1 -> inception_5b/1x1
I0110 20:21:31.921037   776 net.cpp:160] Setting up inception_5b/1x1
I0110 20:21:31.923204   776 net.cpp:167] Top shape: 1 352 7 7 (17248)
I0110 20:21:31.923216   776 layer_factory.hpp:74] Creating layer inception_5b/1x1_bn
I0110 20:21:31.923220   776 layer_factory.cpp:177] Layer inception_5b/1x1_bn is using CAFFE engine.
I0110 20:21:31.923226   776 net.cpp:96] Creating Layer inception_5b/1x1_bn
I0110 20:21:31.923230   776 net.cpp:459] inception_5b/1x1_bn <- inception_5b/1x1
I0110 20:21:31.923238   776 net.cpp:415] inception_5b/1x1_bn -> inception_5b/1x1_bn
I0110 20:21:31.923244   776 net.cpp:160] Setting up inception_5b/1x1_bn
I0110 20:21:31.923259   776 net.cpp:167] Top shape: 1 352 7 7 (17248)
I0110 20:21:31.923266   776 layer_factory.hpp:74] Creating layer inception_5b/relu_1x1
I0110 20:21:31.923271   776 net.cpp:96] Creating Layer inception_5b/relu_1x1
I0110 20:21:31.923275   776 net.cpp:459] inception_5b/relu_1x1 <- inception_5b/1x1_bn
I0110 20:21:31.923281   776 net.cpp:404] inception_5b/relu_1x1 -> inception_5b/1x1_bn (in-place)
I0110 20:21:31.923286   776 net.cpp:160] Setting up inception_5b/relu_1x1
I0110 20:21:31.923290   776 net.cpp:167] Top shape: 1 352 7 7 (17248)
I0110 20:21:31.923293   776 layer_factory.hpp:74] Creating layer inception_5b/3x3_reduce
I0110 20:21:31.923300   776 net.cpp:96] Creating Layer inception_5b/3x3_reduce
I0110 20:21:31.923303   776 net.cpp:459] inception_5b/3x3_reduce <- inception_5a/output_inception_5a/output_0_split_1
I0110 20:21:31.923310   776 net.cpp:415] inception_5b/3x3_reduce -> inception_5b/3x3_reduce
I0110 20:21:31.923316   776 net.cpp:160] Setting up inception_5b/3x3_reduce
I0110 20:21:31.924404   776 net.cpp:167] Top shape: 1 192 7 7 (9408)
I0110 20:21:31.924412   776 layer_factory.hpp:74] Creating layer inception_5b/3x3_reduce_bn
I0110 20:21:31.924417   776 layer_factory.cpp:177] Layer inception_5b/3x3_reduce_bn is using CAFFE engine.
I0110 20:21:31.924422   776 net.cpp:96] Creating Layer inception_5b/3x3_reduce_bn
I0110 20:21:31.924425   776 net.cpp:459] inception_5b/3x3_reduce_bn <- inception_5b/3x3_reduce
I0110 20:21:31.924432   776 net.cpp:415] inception_5b/3x3_reduce_bn -> inception_5b/3x3_reduce_bn
I0110 20:21:31.924438   776 net.cpp:160] Setting up inception_5b/3x3_reduce_bn
I0110 20:21:31.924453   776 net.cpp:167] Top shape: 1 192 7 7 (9408)
I0110 20:21:31.924458   776 layer_factory.hpp:74] Creating layer inception_5b/relu_3x3_reduce
I0110 20:21:31.924463   776 net.cpp:96] Creating Layer inception_5b/relu_3x3_reduce
I0110 20:21:31.924470   776 net.cpp:459] inception_5b/relu_3x3_reduce <- inception_5b/3x3_reduce_bn
I0110 20:21:31.924476   776 net.cpp:404] inception_5b/relu_3x3_reduce -> inception_5b/3x3_reduce_bn (in-place)
I0110 20:21:31.924481   776 net.cpp:160] Setting up inception_5b/relu_3x3_reduce
I0110 20:21:31.924485   776 net.cpp:167] Top shape: 1 192 7 7 (9408)
I0110 20:21:31.924489   776 layer_factory.hpp:74] Creating layer inception_5b/3x3
I0110 20:21:31.924495   776 net.cpp:96] Creating Layer inception_5b/3x3
I0110 20:21:31.924499   776 net.cpp:459] inception_5b/3x3 <- inception_5b/3x3_reduce_bn
I0110 20:21:31.924504   776 net.cpp:415] inception_5b/3x3 -> inception_5b/3x3
I0110 20:21:31.924510   776 net.cpp:160] Setting up inception_5b/3x3
I0110 20:21:31.927527   776 net.cpp:167] Top shape: 1 320 7 7 (15680)
I0110 20:21:31.927537   776 layer_factory.hpp:74] Creating layer inception_5b/3x3_bn
I0110 20:21:31.927541   776 layer_factory.cpp:177] Layer inception_5b/3x3_bn is using CAFFE engine.
I0110 20:21:31.927547   776 net.cpp:96] Creating Layer inception_5b/3x3_bn
I0110 20:21:31.927551   776 net.cpp:459] inception_5b/3x3_bn <- inception_5b/3x3
I0110 20:21:31.927556   776 net.cpp:415] inception_5b/3x3_bn -> inception_5b/3x3_bn
I0110 20:21:31.927562   776 net.cpp:160] Setting up inception_5b/3x3_bn
I0110 20:21:31.927577   776 net.cpp:167] Top shape: 1 320 7 7 (15680)
I0110 20:21:31.927582   776 layer_factory.hpp:74] Creating layer inception_5b/relu_3x3
I0110 20:21:31.927587   776 net.cpp:96] Creating Layer inception_5b/relu_3x3
I0110 20:21:31.927592   776 net.cpp:459] inception_5b/relu_3x3 <- inception_5b/3x3_bn
I0110 20:21:31.927597   776 net.cpp:404] inception_5b/relu_3x3 -> inception_5b/3x3_bn (in-place)
I0110 20:21:31.927601   776 net.cpp:160] Setting up inception_5b/relu_3x3
I0110 20:21:31.927605   776 net.cpp:167] Top shape: 1 320 7 7 (15680)
I0110 20:21:31.927609   776 layer_factory.hpp:74] Creating layer inception_5b/double_3x3_reduce
I0110 20:21:31.927614   776 net.cpp:96] Creating Layer inception_5b/double_3x3_reduce
I0110 20:21:31.927618   776 net.cpp:459] inception_5b/double_3x3_reduce <- inception_5a/output_inception_5a/output_0_split_2
I0110 20:21:31.927625   776 net.cpp:415] inception_5b/double_3x3_reduce -> inception_5b/double_3x3_reduce
I0110 20:21:31.927631   776 net.cpp:160] Setting up inception_5b/double_3x3_reduce
I0110 20:21:31.928716   776 net.cpp:167] Top shape: 1 192 7 7 (9408)
I0110 20:21:31.928726   776 layer_factory.hpp:74] Creating layer inception_5b/double_3x3_reduce_bn
I0110 20:21:31.928730   776 layer_factory.cpp:177] Layer inception_5b/double_3x3_reduce_bn is using CAFFE engine.
I0110 20:21:31.928736   776 net.cpp:96] Creating Layer inception_5b/double_3x3_reduce_bn
I0110 20:21:31.928740   776 net.cpp:459] inception_5b/double_3x3_reduce_bn <- inception_5b/double_3x3_reduce
I0110 20:21:31.928746   776 net.cpp:415] inception_5b/double_3x3_reduce_bn -> inception_5b/double_3x3_reduce_bn
I0110 20:21:31.928751   776 net.cpp:160] Setting up inception_5b/double_3x3_reduce_bn
I0110 20:21:31.928764   776 net.cpp:167] Top shape: 1 192 7 7 (9408)
I0110 20:21:31.928771   776 layer_factory.hpp:74] Creating layer inception_5b/relu_double_3x3_reduce
I0110 20:21:31.928777   776 net.cpp:96] Creating Layer inception_5b/relu_double_3x3_reduce
I0110 20:21:31.928781   776 net.cpp:459] inception_5b/relu_double_3x3_reduce <- inception_5b/double_3x3_reduce_bn
I0110 20:21:31.928786   776 net.cpp:404] inception_5b/relu_double_3x3_reduce -> inception_5b/double_3x3_reduce_bn (in-place)
I0110 20:21:31.928789   776 net.cpp:160] Setting up inception_5b/relu_double_3x3_reduce
I0110 20:21:31.928794   776 net.cpp:167] Top shape: 1 192 7 7 (9408)
I0110 20:21:31.928797   776 layer_factory.hpp:74] Creating layer inception_5b/double_3x3_1
I0110 20:21:31.928803   776 net.cpp:96] Creating Layer inception_5b/double_3x3_1
I0110 20:21:31.928807   776 net.cpp:459] inception_5b/double_3x3_1 <- inception_5b/double_3x3_reduce_bn
I0110 20:21:31.928812   776 net.cpp:415] inception_5b/double_3x3_1 -> inception_5b/double_3x3_1
I0110 20:21:31.928822   776 net.cpp:160] Setting up inception_5b/double_3x3_1
I0110 20:21:31.932565   776 net.cpp:167] Top shape: 1 224 7 7 (10976)
I0110 20:21:31.932582   776 layer_factory.hpp:74] Creating layer inception_5b/double_3x3_1_bn
I0110 20:21:31.932590   776 layer_factory.cpp:177] Layer inception_5b/double_3x3_1_bn is using CAFFE engine.
I0110 20:21:31.932598   776 net.cpp:96] Creating Layer inception_5b/double_3x3_1_bn
I0110 20:21:31.932605   776 net.cpp:459] inception_5b/double_3x3_1_bn <- inception_5b/double_3x3_1
I0110 20:21:31.932618   776 net.cpp:415] inception_5b/double_3x3_1_bn -> inception_5b/double_3x3_1_bn
I0110 20:21:31.932628   776 net.cpp:160] Setting up inception_5b/double_3x3_1_bn
I0110 20:21:31.932649   776 net.cpp:167] Top shape: 1 224 7 7 (10976)
I0110 20:21:31.932659   776 layer_factory.hpp:74] Creating layer inception_5b/relu_double_3x3_1
I0110 20:21:31.932669   776 net.cpp:96] Creating Layer inception_5b/relu_double_3x3_1
I0110 20:21:31.932677   776 net.cpp:459] inception_5b/relu_double_3x3_1 <- inception_5b/double_3x3_1_bn
I0110 20:21:31.932685   776 net.cpp:404] inception_5b/relu_double_3x3_1 -> inception_5b/double_3x3_1_bn (in-place)
I0110 20:21:31.932694   776 net.cpp:160] Setting up inception_5b/relu_double_3x3_1
I0110 20:21:31.932703   776 net.cpp:167] Top shape: 1 224 7 7 (10976)
I0110 20:21:31.932709   776 layer_factory.hpp:74] Creating layer inception_5b/double_3x3_2
I0110 20:21:31.932721   776 net.cpp:96] Creating Layer inception_5b/double_3x3_2
I0110 20:21:31.932727   776 net.cpp:459] inception_5b/double_3x3_2 <- inception_5b/double_3x3_1_bn
I0110 20:21:31.932736   776 net.cpp:415] inception_5b/double_3x3_2 -> inception_5b/double_3x3_2
I0110 20:21:31.932745   776 net.cpp:160] Setting up inception_5b/double_3x3_2
I0110 20:21:31.936466   776 net.cpp:167] Top shape: 1 224 7 7 (10976)
I0110 20:21:31.936480   776 layer_factory.hpp:74] Creating layer inception_5b/double_3x3_2_bn
I0110 20:21:31.936484   776 layer_factory.cpp:177] Layer inception_5b/double_3x3_2_bn is using CAFFE engine.
I0110 20:21:31.936491   776 net.cpp:96] Creating Layer inception_5b/double_3x3_2_bn
I0110 20:21:31.936496   776 net.cpp:459] inception_5b/double_3x3_2_bn <- inception_5b/double_3x3_2
I0110 20:21:31.936501   776 net.cpp:415] inception_5b/double_3x3_2_bn -> inception_5b/double_3x3_2_bn
I0110 20:21:31.936508   776 net.cpp:160] Setting up inception_5b/double_3x3_2_bn
I0110 20:21:31.936523   776 net.cpp:167] Top shape: 1 224 7 7 (10976)
I0110 20:21:31.936529   776 layer_factory.hpp:74] Creating layer inception_5b/relu_double_3x3_2
I0110 20:21:31.936534   776 net.cpp:96] Creating Layer inception_5b/relu_double_3x3_2
I0110 20:21:31.936538   776 net.cpp:459] inception_5b/relu_double_3x3_2 <- inception_5b/double_3x3_2_bn
I0110 20:21:31.936543   776 net.cpp:404] inception_5b/relu_double_3x3_2 -> inception_5b/double_3x3_2_bn (in-place)
I0110 20:21:31.936548   776 net.cpp:160] Setting up inception_5b/relu_double_3x3_2
I0110 20:21:31.936553   776 net.cpp:167] Top shape: 1 224 7 7 (10976)
I0110 20:21:31.936555   776 layer_factory.hpp:74] Creating layer inception_5b/pool
I0110 20:21:31.936561   776 net.cpp:96] Creating Layer inception_5b/pool
I0110 20:21:31.936566   776 net.cpp:459] inception_5b/pool <- inception_5a/output_inception_5a/output_0_split_3
I0110 20:21:31.936573   776 net.cpp:415] inception_5b/pool -> inception_5b/pool
I0110 20:21:31.936578   776 net.cpp:160] Setting up inception_5b/pool
I0110 20:21:31.936584   776 net.cpp:167] Top shape: 1 1024 7 7 (50176)
I0110 20:21:31.936589   776 layer_factory.hpp:74] Creating layer inception_5b/pool_proj
I0110 20:21:31.936595   776 net.cpp:96] Creating Layer inception_5b/pool_proj
I0110 20:21:31.936599   776 net.cpp:459] inception_5b/pool_proj <- inception_5b/pool
I0110 20:21:31.936604   776 net.cpp:415] inception_5b/pool_proj -> inception_5b/pool_proj
I0110 20:21:31.936610   776 net.cpp:160] Setting up inception_5b/pool_proj
I0110 20:21:31.937340   776 net.cpp:167] Top shape: 1 128 7 7 (6272)
I0110 20:21:31.937347   776 layer_factory.hpp:74] Creating layer inception_5b/pool_proj_bn
I0110 20:21:31.937356   776 layer_factory.cpp:177] Layer inception_5b/pool_proj_bn is using CAFFE engine.
I0110 20:21:31.937362   776 net.cpp:96] Creating Layer inception_5b/pool_proj_bn
I0110 20:21:31.937366   776 net.cpp:459] inception_5b/pool_proj_bn <- inception_5b/pool_proj
I0110 20:21:31.937371   776 net.cpp:415] inception_5b/pool_proj_bn -> inception_5b/pool_proj_bn
I0110 20:21:31.937377   776 net.cpp:160] Setting up inception_5b/pool_proj_bn
I0110 20:21:31.937391   776 net.cpp:167] Top shape: 1 128 7 7 (6272)
I0110 20:21:31.937397   776 layer_factory.hpp:74] Creating layer inception_5b/relu_pool_proj
I0110 20:21:31.937402   776 net.cpp:96] Creating Layer inception_5b/relu_pool_proj
I0110 20:21:31.937405   776 net.cpp:459] inception_5b/relu_pool_proj <- inception_5b/pool_proj_bn
I0110 20:21:31.937412   776 net.cpp:404] inception_5b/relu_pool_proj -> inception_5b/pool_proj_bn (in-place)
I0110 20:21:31.937417   776 net.cpp:160] Setting up inception_5b/relu_pool_proj
I0110 20:21:31.937422   776 net.cpp:167] Top shape: 1 128 7 7 (6272)
I0110 20:21:31.937424   776 layer_factory.hpp:74] Creating layer inception_5b/output
I0110 20:21:31.937430   776 net.cpp:96] Creating Layer inception_5b/output
I0110 20:21:31.937433   776 net.cpp:459] inception_5b/output <- inception_5b/1x1_bn
I0110 20:21:31.937438   776 net.cpp:459] inception_5b/output <- inception_5b/3x3_bn
I0110 20:21:31.937443   776 net.cpp:459] inception_5b/output <- inception_5b/double_3x3_2_bn
I0110 20:21:31.937446   776 net.cpp:459] inception_5b/output <- inception_5b/pool_proj_bn
I0110 20:21:31.937450   776 net.cpp:415] inception_5b/output -> inception_5b/output
I0110 20:21:31.937455   776 net.cpp:160] Setting up inception_5b/output
I0110 20:21:31.937461   776 net.cpp:167] Top shape: 1 1024 7 7 (50176)
I0110 20:21:31.937465   776 layer_factory.hpp:74] Creating layer global_pool
I0110 20:21:31.937471   776 net.cpp:96] Creating Layer global_pool
I0110 20:21:31.937475   776 net.cpp:459] global_pool <- inception_5b/output
I0110 20:21:31.937480   776 net.cpp:415] global_pool -> global_pool
I0110 20:21:31.937485   776 net.cpp:160] Setting up global_pool
I0110 20:21:31.937490   776 net.cpp:167] Top shape: 1 1024 1 1 (1024)
I0110 20:21:31.937494   776 layer_factory.hpp:74] Creating layer dropout
I0110 20:21:31.937500   776 net.cpp:96] Creating Layer dropout
I0110 20:21:31.937505   776 net.cpp:459] dropout <- global_pool
I0110 20:21:31.937508   776 net.cpp:404] dropout -> global_pool (in-place)
I0110 20:21:31.937512   776 net.cpp:160] Setting up dropout
I0110 20:21:31.937518   776 net.cpp:167] Top shape: 1 1024 1 1 (1024)
I0110 20:21:31.937522   776 layer_factory.hpp:74] Creating layer fc-action
I0110 20:21:31.937528   776 net.cpp:96] Creating Layer fc-action
I0110 20:21:31.937531   776 net.cpp:459] fc-action <- global_pool
I0110 20:21:31.937537   776 net.cpp:415] fc-action -> fc-action
I0110 20:21:31.937542   776 net.cpp:160] Setting up fc-action
I0110 20:21:31.939820   776 net.cpp:167] Top shape: 1 101 (101)
I0110 20:21:31.939827   776 net.cpp:241] fc-action does not need backward computation.
I0110 20:21:31.939831   776 net.cpp:241] dropout does not need backward computation.
I0110 20:21:31.939834   776 net.cpp:241] global_pool does not need backward computation.
I0110 20:21:31.939837   776 net.cpp:241] inception_5b/output does not need backward computation.
I0110 20:21:31.939841   776 net.cpp:241] inception_5b/relu_pool_proj does not need backward computation.
…
