…
    mean_value: 123
    mean_value: 104
    mean_value: 117
    mean_value: 123
    mean_value: 104
    mean_value: 117
    mean_value: 123
    fix_crop: true
    multi_scale: true
    scale_ratios: 1
    scale_ratios: 0.875
    scale_ratios: 0.75
    scale_ratios: 0.66
    max_distort: 1
    is_flow: false
    more_fix_crop: true
  }
  video_data_param {
    source: "/home/hadoop/whx/dataset/ucf101/train_rgb_split1.txt"
    batch_size: 24
    shuffle: true
    new_length: 1
    num_segments: 3
    modality: RGB
    name_pattern: "frame%06d.jpg"
  }
}
layer {
  name: "reshape_data"
  type: "Reshape"
  bottom: "data"
  top: "reshape_data"
  reshape_param {
    shape {
      dim: -1
      dim: 3
      dim: 224
      dim: 224
    }
  }
}
layer {
  name: "conv1/7x7_s2"
  type: "Convolution"
  bottom: "reshape_data"
  top: "conv1/7x7_s2"
  param {
    lr_mult: 1
    decay_mult: 1
  }
  param {
    lr_mult: 2
    decay_mult: 0
  }
  convolution_param {
    num_output: 64
    pad: 3
    kernel_size: 7
    stride: 2
    weight_filler {
      type: "xavier"
    }
    bias_filler {
      type: "constant"
      value: 0.2
    }
  }
}
layer {
  name: "conv1/7x7_s2_bn"
  type: "BN"
  bottom: "conv1/7x7_s2"
  top: "conv1/7x7_s2_bn"
  param {
    lr_mult: 1
    decay_mult: 0
  }
  param {
    lr_mult: 1
    decay_mult: 0
  }
  bn_param {
    slope_filler {
      type: "constant"
      value: 1
    }
    bias_filler {
      type: "constant"
      value: 0
    }
    frozen: false
  }
}
layer {
  name: "conv1/relu_7x7"
  type: "ReLU"
  bottom: "conv1/7x7_s2_bn"
  top: "conv1/7x7_s2_bn"
}
layer {
  name: "pool1/3x3_s2"
  type: "Pooling"
  bottom: "conv1/7x7_s2_bn"
  top: "pool1/3x3_s2"
  pooling_param {
    pool: MAX
    kernel_size: 3
    stride: 2
  }
}
layer {
  name: "conv2/3x3_reduce"
  type: "Convolution"
  bottom: "pool1/3x3_s2"
  top: "conv2/3x3_reduce"
  param {
    lr_mult: 1
    decay_mult: 1
  }
  param {
    lr_mult: 2
    decay_mult: 0
  }
  convolution_param {
    num_output: 64
    kernel_size: 1
    weight_filler {
      type: "xavier"
    }
    bias_filler {
      type: "constant"
      value: 0.2
    }
  }
}
layer {
  name: "conv2/3x3_reduce_bn"
  type: "BN"
  bottom: "conv2/3x3_reduce"
  top: "conv2/3x3_reduce_bn"
  param {
    lr_mult: 1
    decay_mult: 0
  }
  param {
    lr_mult: 1
    decay_mult: 0
  }
  bn_param {
    slope_filler {
      type: "constant"
      value: 1
    }
    bias_filler {
      type: "constant"
      value: 0
    }
    frozen: true
  }
}
layer {
  name: "conv2/relu_3x3_reduce"
  type: "ReLU"
  bottom: "conv2/3x3_reduce_bn"
  top: "conv2/3x3_reduce_bn"
}
layer {
  name: "conv2/3x3"
  type: "Convolution"
  bottom: "conv2/3x3_reduce_bn"
  top: "conv2/3x3"
  param {
    lr_mult: 1
    decay_mult: 1
  }
  param {
    lr_mult: 2
    decay_mult: 0
  }
  convolution_param {
    num_output: 192
    pad: 1
    kernel_size: 3
    weight_filler {
      type: "xavier"
    }
    bias_filler {
      type: "constant"
      value: 0.2
    }
  }
}
layer {
  name: "conv2/3x3_bn"
  type: "BN"
  bottom: "conv2/3x3"
  top: "conv2/3x3_bn"
  param {
    lr_mult: 1
    decay_mult: 0
  }
  param {
    lr_mult: 1
    decay_mult: 0
  }
  bn_param {
    slope_filler {
      type: "constant"
      value: 1
    }
    bias_filler {
      type: "constant"
      value: 0
    }
    frozen: true
  }
}
layer {
  name: "conv2/relu_3x3"
  type: "ReLU"
  bottom: "conv2/3x3_bn"
  top: "conv2/3x3_bn"
}
layer {
  name: "pool2/3x3_s2"
  type: "Pooling"
  bottom: "conv2/3x3_bn"
  top: "pool2/3x3_s2"
  pooling_param {
    pool: MAX
    kernel_size: 3
    stride: 2
  }
}
layer {
  name: "inception_3a/1x1"
  type: "Convolution"
  bottom: "pool2/3x3_s2"
  top: "inception_3a/1x1"
  param {
    lr_mult: 1
    decay_mult: 1
  }
  param {
    lr_mult: 2
    decay_mult: 0
  }
  convolution_param {
    num_output: 64
    kernel_size: 1
    weight_filler {
      type: "xavier"
    }
    bias_filler {
      type: "constant"
      value: 0.2
    }
  }
}
layer {
  name: "inception_3a/1x1_bn"
  type: "BN"
  bottom: "inception_3a/1x1"
  top: "inception_3a/1x1_bn"
  param {
    lr_mult: 1
    decay_mult: 0
  }
  param {
    lr_mult: 1
    decay_mult: 0
  }
  bn_param {
    slope_filler {
      type: "constant"
      value: 1
    }
    bias_filler {
      type: "constant"
      value: 0
    }
    frozen: true
  }
}
layer {
  name: "inception_3a/relu_1x1"
  type: "ReLU"
  bottom: "inception_3a/1x1_bn"
  top: "inception_3a/1x1_bn"
}
layer {
  name: "inception_3a/3x3_reduce"
  type: "Convolution"
  bottom: "pool2/3x3_s2"
  top: "inception_3a/3x3_reduce"
  param {
    lr_mult: 1
    decay_mult: 1
  }
  param {
    lr_mult: 2
    decay_mult: 0
  }
  convolution_param {
    num_output: 64
    kernel_size: 1
    weight_filler {
      type: "xavier"
    }
    bias_filler {
      type: "constant"
      value: 0.2
    }
  }
}
layer {
  name: "inception_3a/3x3_reduce_bn"
  type: "BN"
  bottom: "inception_3a/3x3_reduce"
  top: "inception_3a/3x3_reduce_bn"
  param {
    lr_mult: 1
    decay_mult: 0
  }
  param {
    lr_mult: 1
    decay_mult: 0
  }
  bn_param {
    slope_filler {
      type: "constant"
      value: 1
    }
    bias_filler {
      type: "constant"
      value: 0
    }
    frozen: true
  }
}
layer {
  name: "inception_3a/relu_3x3_reduce"
  type: "ReLU"
  bottom: "inception_3a/3x3_reduce_bn"
  top: "inception_3a/3x3_reduce_bn"
}
layer {
  name: "inception_3a/3x3"
  type: "Convolution"
  bottom: "inception_3a/3x3_reduce_bn"
  top: "inception_3a/3x3"
  param {
    lr_mult: 1
    decay_mult: 1
  }
  param {
    lr_mult: 2
    decay_mult: 0
  }
  convolution_param {
    num_output: 64
    pad: 1
    kernel_size: 3
    weight_filler {
      type: "xavier"
    }
    bias_filler {
      type: "constant"
      value: 0.2
    }
  }
}
layer {
  name: "inception_3a/3x3_bn"
  type: "BN"
  bottom: "inception_3a/3x3"
  top: "inception_3a/3x3_bn"
  param {
    lr_mult: 1
    decay_mult: 0
  }
  param {
    lr_mult: 1
    decay_mult: 0
  }
  bn_param {
    slope_filler {
      type: "constant"
      value: 1
    }
    bias_filler {
      type: "constant"
      value: 0
    }
    frozen: true
  }
}
layer {
  name: "inception_3a/relu_3x3"
  type: "ReLU"
  bottom: "inception_3a/3x3_bn"
  top: "inception_3a/3x3_bn"
}
layer {
  name: "inception_3a/double_3x3_reduce"
  type: "Convolution"
  bottom: "pool2/3x3_s2"
  top: "inception_3a/double_3x3_reduce"
  param {
    lr_mult: 1
    decay_mult: 1
  }
  param {
    lr_mult: 2
    decay_mult: 0
  }
  convolution_param {
    num_output: 64
    kernel_size: 1
    weight_filler {
      type: "xavier"
    }
    bias_filler {
      type: "constant"
      value: 0.2
    }
  }
}
layer {
  name: "inception_3a/double_3x3_reduce_bn"
  type: "BN"
  bottom: "inception_3a/double_3x3_reduce"
  top: "inception_3a/double_3x3_reduce_bn"
  param {
    lr_mult: 1
    decay_mult: 0
  }
  param {
    lr_mult: 1
    decay_mult: 0
  }
  bn_param {
    slope_filler {
      type: "constant"
      value: 1
    }
    bias_filler {
      type: "constant"
      value: 0
    }
    frozen: true
  }
}
layer {
  name: "inception_3a/relu_double_3x3_reduce"
  type: "ReLU"
  bottom: "inception_3a/double_3x3_reduce_bn"
  top: "inception_3a/double_3x3_reduce_bn"
}
layer {
  name: "inception_3a/double_3x3_1"
  type: "Convolution"
  bottom: "inception_3a/double_3x3_reduce_bn"
  top: "inception_3a/double_3x3_1"
  param {
    lr_mult: 1
    decay_mult: 1
  }
  param {
    lr_mult: 2
    decay_mult: 0
  }
  convolution_param {
    num_output: 96
    pad: 1
    kernel_size: 3
    weight_filler {
      type: "xavier"
    }
    bias_filler {
      type: "constant"
      value: 0.2
    }
  }
}
layer {
  name: "inception_3a/double_3x3_1_bn"
  type: "BN"
  bottom: "inception_3a/double_3x3_1"
  top: "inception_3a/double_3x3_1_bn"
  param {
    lr_mult: 1
    decay_mult: 0
  }
  param {
    lr_mult: 1
    decay_mult: 0
  }
  bn_param {
    slope_filler {
      type: "constant"
      value: 1
    }
    bias_filler {
      type: "constant"
      value: 0
    }
    frozen: true
  }
}
layer {
  name: "inception_3a/relu_double_3x3_1"
  type: "ReLU"
  bottom: "inception_3a/double_3x3_1_bn"
  top: "inception_3a/double_3x3_1_bn"
}
layer {
  name: "inception_3a/double_3x3_2"
  type: "Convolution"
  bottom: "inception_3a/double_3x3_1_bn"
  top: "inception_3a/double_3x3_2"
  param {
    lr_mult: 1
    decay_mult: 1
  }
  param {
    lr_mult: 2
    decay_mult: 0
  }
  convolution_param {
    num_output: 96
    pad: 1
    kernel_size: 3
    weight_filler {
      type: "xavier"
    }
    bias_filler {
      type: "constant"
      value: 0.2
    }
  }
}
layer {
  name: "inception_3a/double_3x3_2_bn"
  type: "BN"
  bottom: "inception_3a/double_3x3_2"
  top: "inception_3a/double_3x3_2_bn"
  param {
    lr_mult: 1
    decay_mult: 0
  }
  param {
    lr_mult: 1
    decay_mult: 0
  }
  bn_param {
    slope_filler {
      type: "constant"
      value: 1
    }
    bias_filler {
      type: "constant"
      value: 0
    }
    frozen: true
  }
}
layer {
  name: "inception_3a/relu_double_3x3_2"
  type: "ReLU"
  bottom: "inception_3a/double_3x3_2_bn"
  top: "inception_3a/double_3x3_2_bn"
}
layer {
  name: "inception_3a/pool"
  type: "Pooling"
  bottom: "pool2/3x3_s2"
  top: "inception_3a/pool"
  pooling_param {
    pool: AVE
    kernel_size: 3
    stride: 1
    pad: 1
  }
}
layer {
  name: "inception_3a/pool_proj"
  type: "Convolution"
  bottom: "inception_3a/pool"
  top: "inception_3a/pool_proj"
  param {
    lr_mult: 1
    decay_mult: 1
  }
  param {
    lr_mult: 2
    decay_mult: 0
  }
  convolution_param {
    num_output: 32
    kernel_size: 1
    weight_filler {
      type: "xavier"
    }
    bias_filler {
      type: "constant"
      value: 0.2
    }
  }
}
layer {
  name: "inception_3a/pool_proj_bn"
  type: "BN"
  bottom: "inception_3a/pool_proj"
  top: "inception_3a/pool_proj_bn"
  param {
    lr_mult: 1
    decay_mult: 0
  }
  param {
    lr_mult: 1
    decay_mult: 0
  }
  bn_param {
    slope_filler {
      type: "constant"
      value: 1
    }
    bias_filler {
      type: "constant"
      value: 0
    }
    frozen: true
  }
}
layer {
  name: "inception_3a/relu_pool_proj"
  type: "ReLU"
  bottom: "inception_3a/pool_proj_bn"
  top: "inception_3a/pool_proj_bn"
}
layer {
  name: "inception_3a/output"
  type: "Concat"
  bottom: "inception_3a/1x1_bn"
  bottom: "inception_3a/3x3_bn"
  bottom: "inception_3a/double_3x3_2_bn"
  bottom: "inception_3a/pool_proj_bn"
  top: "inception_3a/output"
}
layer {
  name: "inception_3b/1x1"
  type: "Convolution"
  bottom: "inception_3a/output"
  top: "inception_3b/1x1"
  param {
    lr_mult: 1
    decay_mult: 1
  }
  param {
    lr_mult: 2
    decay_mult: 0
  }
  convolution_param {
    num_output: 64
    kernel_size: 1
    weight_filler {
      type: "xavier"
    }
    bias_filler {
      type: "constant"
      value: 0.2
    }
  }
}
layer {
  name: "inception_3b/1x1_bn"
  type: "BN"
  bottom: "inception_3b/1x1"
  top: "inception_3b/1x1_bn"
  param {
    lr_mult: 1
    decay_mult: 0
  }
  param {
    lr_mult: 1
    decay_mult: 0
  }
  bn_param {
    slope_filler {
      type: "constant"
      value: 1
    }
    bias_filler {
      type: "constant"
      value: 0
    }
    frozen: true
  }
}
layer {
  name: "inception_3b/relu_1x1"
  type: "ReLU"
  bottom: "inception_3b/1x1_bn"
  top: "inception_3b/1x1_bn"
}
layer {
  name: "inception_3b/3x3_reduce"
  type: "Convolution"
  bottom: "inception_3a/output"
  top: "inception_3b/3x3_reduce"
  param {
    lr_mult: 1
    decay_mult: 1
  }
  param {
    lr_mult: 2
    decay_mult: 0
  }
  convolution_param {
    num_output: 64
    kernel_size: 1
    weight_filler {
      type: "xavier"
    }
    bias_filler {
      type: "constant"
      value: 0.2
    }
  }
}
layer {
  name: "inception_3b/3x3_reduce_bn"
  type: "BN"
  bottom: "inception_3b/3x3_reduce"
  top: "inception_3b/3x3_reduce_bn"
  param {
    lr_mult: 1
    decay_mult: 0
  }
  param {
    lr_mult: 1
    decay_mult: 0
  }
  bn_param {
    slope_filler {
      type: "constant"
      value: 1
    }
    bias_filler {
      type: "constant"
      value: 0
    }
    frozen: true
  }
}
layer {
  name: "inception_3b/relu_3x3_reduce"
  type: "ReLU"
  bottom: "inception_3b/3x3_reduce_bn"
  top: "inception_3b/3x3_reduce_bn"
}
layer {
  name: "inception_3b/3x3"
  type: "Convolution"
  bottom: "inception_3b/3x3_reduce_bn"
  top: "inception_3b/3x3"
  param {
    lr_mult: 1
    decay_mult: 1
  }
  param {
    lr_mult: 2
    decay_mult: 0
  }
  convolution_param {
    num_output: 96
    pad: 1
    kernel_size: 3
    weight_filler {
      type: "xavier"
    }
    bias_filler {
      type: "constant"
      value: 0.2
    }
  }
}
layer {
  name: "inception_3b/3x3_bn"
  type: "BN"
  bottom: "inception_3b/3x3"
  top: "inception_3b/3x3_bn"
  param {
    lr_mult: 1
    decay_mult: 0
  }
  param {
    lr_mult: 1
    decay_mult: 0
  }
  bn_param {
    slope_filler {
      type: "constant"
      value: 1
    }
    bias_filler {
      type: "constant"
      value: 0
    }
    frozen: true
  }
}
layer {
  name: "inception_3b/relu_3x3"
  type: "ReLU"
  bottom: "inception_3b/3x3_bn"
  top: "inception_3b/3x3_bn"
}
layer {
  name: "inception_3b/double_3x3_reduce"
  type: "Convolution"
  bottom: "inception_3a/output"
  top: "inception_3b/double_3x3_reduce"
  param {
    lr_mult: 1
    decay_mult: 1
  }
  param {
    lr_mult: 2
    decay_mult: 0
  }
  convolution_param {
    num_output: 64
    kernel_size: 1
    weight_filler {
      type: "xavier"
    }
    bias_filler {
      type: "constant"
      value: 0.2
    }
  }
}
layer {
  name: "inception_3b/double_3x3_reduce_bn"
  type: "BN"
  bottom: "inception_3b/double_3x3_reduce"
  top: "inception_3b/double_3x3_reduce_bn"
  param {
    lr_mult: 1
    decay_mult: 0
  }
  param {
    lr_mult: 1
    decay_mult: 0
  }
  bn_param {
    slope_filler {
      type: "constant"
      value: 1
    }
    bias_filler {
      type: "constant"
      value: 0
    }
    frozen: true
  }
}
layer {
  name: "inception_3b/relu_double_3x3_reduce"
  type: "ReLU"
  bottom: "inception_3b/double_3x3_reduce_bn"
  top: "inception_3b/double_3x3_reduce_bn"
}
layer {
  name: "inception_3b/double_3x3_1"
  type: "Convolution"
  bottom: "inception_3b/double_3x3_reduce_bn"
  top: "inception_3b/double_3x3_1"
  param {
    lr_mult: 1
    decay_mult: 1
  }
  param {
    lr_mult: 2
    decay_mult: 0
  }
  convolution_param {
    num_output: 96
    pad: 1
    kernel_size: 3
    weight_filler {
      type: "xavier"
    }
    bias_filler {
      type: "constant"
      value: 0.2
    }
  }
}
layer {
  name: "inception_3b/double_3x3_1_bn"
  type: "BN"
  bottom: "inception_3b/double_3x3_1"
  top: "inception_3b/double_3x3_1_bn"
  param {
    lr_mult: 1
    decay_mult: 0
  }
  param {
    lr_mult: 1
    decay_mult: 0
  }
  bn_param {
    slope_filler {
      type: "constant"
      value: 1
    }
    bias_filler {
      type: "constant"
      value: 0
    }
    frozen: true
  }
}
layer {
  name: "inception_3b/relu_double_3x3_1"
  type: "ReLU"
  bottom: "inception_3b/double_3x3_1_bn"
  top: "inception_3b/double_3x3_1_bn"
}
layer {
  name: "inception_3b/double_3x3_2"
  type: "Convolution"
  bottom: "inception_3b/double_3x3_1_bn"
  top: "inception_3b/double_3x3_2"
  param {
    lr_mult: 1
    decay_mult: 1
  }
  param {
    lr_mult: 2
    decay_mult: 0
  }
  convolution_param {
    num_output: 96
    pad: 1
    kernel_size: 3
    weight_filler {
      type: "xavier"
    }
    bias_filler {
      type: "constant"
      value: 0.2
    }
  }
}
layer {
  name: "inception_3b/double_3x3_2_bn"
  type: "BN"
  bottom: "inception_3b/double_3x3_2"
  top: "inception_3b/double_3x3_2_bn"
  param {
    lr_mult: 1
    decay_mult: 0
  }
  param {
    lr_mult: 1
    decay_mult: 0
  }
  bn_param {
    slope_filler {
      type: "constant"
      value: 1
    }
    bias_filler {
      type: "constant"
      value: 0
    }
    frozen: true
  }
}
layer {
  name: "inception_3b/relu_double_3x3_2"
  type: "ReLU"
  bottom: "inception_3b/double_3x3_2_bn"
  top: "inception_3b/double_3x3_2_bn"
}
layer {
  name: "inception_3b/pool"
  type: "Pooling"
  bottom: "inception_3a/output"
  top: "inception_3b/pool"
  pooling_param {
    pool: AVE
    kernel_size: 3
    stride: 1
    pad: 1
  }
}
layer {
  name: "inception_3b/pool_proj"
  type: "Convolution"
  bottom: "inception_3b/pool"
  top: "inception_3b/pool_proj"
  param {
    lr_mult: 1
    decay_mult: 1
  }
  param {
    lr_mult: 2
    decay_mult: 0
  }
  convolution_param {
    num_output: 64
    kernel_size: 1
    weight_filler {
      type: "xavier"
    }
    bias_filler {
      type: "constant"
      value: 0.2
    }
  }
}
layer {
  name: "inception_3b/pool_proj_bn"
  type: "BN"
  bottom: "inception_3b/pool_proj"
  top: "inception_3b/pool_proj_bn"
  param {
    lr_mult: 1
    decay_mult: 0
  }
  param {
    lr_mult: 1
    decay_mult: 0
  }
  bn_param {
    slope_filler {
      type: "constant"
      value: 1
    }
    bias_filler {
      type: "constant"
      value: 0
    }
    frozen: true
  }
}
layer {
  name: "inception_3b/relu_pool_proj"
  type: "ReLU"
  bottom: "inception_3b/pool_proj_bn"
  top: "inception_3b/pool_proj_bn"
}
layer {
  name: "inception_3b/output"
  type: "Concat"
  bottom: "inception_3b/1x1_bn"
  bottom: "inception_3b/3x3_bn"
  bottom: "inception_3b/double_3x3_2_bn"
  bottom: "inception_3b/pool_proj_bn"
  top: "inception_3b/output"
}
layer {
  name: "inception_3c/3x3_reduce"
  type: "Convolution"
  bottom: "inception_3b/output"
  top: "inception_3c/3x3_reduce"
  param {
    lr_mult: 1
    decay_mult: 1
  }
  param {
    lr_mult: 2
    decay_mult: 0
  }
  convolution_param {
    num_output: 128
    kernel_size: 1
    weight_filler {
      type: "xavier"
    }
    bias_filler {
      type: "constant"
      value: 0.2
    }
  }
}
layer {
  name: "inception_3c/3x3_reduce_bn"
  type: "BN"
  bottom: "inception_3c/3x3_reduce"
  top: "inception_3c/3x3_reduce_bn"
  param {
    lr_mult: 1
    decay_mult: 0
  }
  param {
    lr_mult: 1
    decay_mult: 0
  }
  bn_param {
    slope_filler {
      type: "constant"
      value: 1
    }
    bias_filler {
      type: "constant"
      value: 0
    }
    frozen: true
  }
}
layer {
  name: "inception_3c/relu_3x3_reduce"
  type: "ReLU"
  bottom: "inception_3c/3x3_reduce_bn"
  top: "inception_3c/3x3_reduce_bn"
}
layer {
  name: "inception_3c/3x3"
  type: "Convolution"
  bottom: "inception_3c/3x3_reduce_bn"
  top: "inception_3c/3x3"
  param {
    lr_mult: 1
    decay_mult: 1
  }
  param {
    lr_mult: 2
    decay_mult: 0
  }
  convolution_param {
    num_output: 160
    pad: 1
    kernel_size: 3
    stride: 2
    weight_filler {
      type: "xavier"
    }
    bias_filler {
      type: "constant"
      value: 0.2
    }
  }
}
layer {
  name: "inception_3c/3x3_bn"
  type: "BN"
  bottom: "inception_3c/3x3"
  top: "inception_3c/3x3_bn"
  param {
    lr_mult: 1
    decay_mult: 0
  }
  param {
    lr_mult: 1
    decay_mult: 0
  }
  bn_param {
    slope_filler {
      type: "constant"
      value: 1
    }
    bias_filler {
      type: "constant"
      value: 0
    }
    frozen: true
  }
}
layer {
  name: "inception_3c/relu_3x3"
  type: "ReLU"
  bottom: "inception_3c/3x3_bn"
  top: "inception_3c/3x3_bn"
}
layer {
  name: "inception_3c/double_3x3_reduce"
  type: "Convolution"
  bottom: "inception_3b/output"
  top: "inception_3c/double_3x3_reduce"
  param {
    lr_mult: 1
    decay_mult: 1
  }
  param {
    lr_mult: 2
    decay_mult: 0
  }
  convolution_param {
    num_output: 64
    kernel_size: 1
    weight_filler {
      type: "xavier"
    }
    bias_filler {
      type: "constant"
      value: 0.2
    }
  }
}
layer {
  name: "inception_3c/double_3x3_reduce_bn"
  type: "BN"
  bottom: "inception_3c/double_3x3_reduce"
  top: "inception_3c/double_3x3_reduce_bn"
  param {
    lr_mult: 1
    decay_mult: 0
  }
  param {
    lr_mult: 1
    decay_mult: 0
  }
  bn_param {
    slope_filler {
      type: "constant"
      value: 1
    }
    bias_filler {
      type: "constant"
      value: 0
    }
    frozen: true
  }
}
layer {
  name: "inception_3c/relu_double_3x3_reduce"
  type: "ReLU"
  bottom: "inception_3c/double_3x3_reduce_bn"
  top: "inception_3c/double_3x3_reduce_bn"
}
layer {
  name: "inception_3c/double_3x3_1"
  type: "Convolution"
  bottom: "inception_3c/double_3x3_reduce_bn"
  top: "inception_3c/double_3x3_1"
  param {
    lr_mult: 1
    decay_mult: 1
  }
  param {
    lr_mult: 2
    decay_mult: 0
  }
  convolution_param {
    num_output: 96
    pad: 1
    kernel_size: 3
    weight_filler {
      type: "xavier"
    }
    bias_filler {
      type: "constant"
      value: 0.2
    }
  }
}
layer {
  name: "inception_3c/double_3x3_1_bn"
  type: "BN"
  bottom: "inception_3c/double_3x3_1"
  top: "inception_3c/double_3x3_1_bn"
  param {
    lr_mult: 1
    decay_mult: 0
  }
  param {
    lr_mult: 1
    decay_mult: 0
  }
  bn_param {
    slope_filler {
      type: "constant"
      value: 1
    }
    bias_filler {
      type: "constant"
      value: 0
    }
    frozen: true
  }
}
layer {
  name: "inception_3c/relu_double_3x3_1"
  type: "ReLU"
  bottom: "inception_3c/double_3x3_1_bn"
  top: "inception_3c/double_3x3_1_bn"
}
layer {
  name: "inception_3c/double_3x3_2"
  type: "Convolution"
  bottom: "inception_3c/double_3x3_1_bn"
  top: "inception_3c/double_3x3_2"
  param {
    lr_mult: 1
    decay_mult: 1
  }
  param {
    lr_mult: 2
    decay_mult: 0
  }
  convolution_param {
    num_output: 96
    pad: 1
    kernel_size: 3
    stride: 2
    weight_filler {
      type: "xavier"
    }
    bias_filler {
      type: "constant"
      value: 0.2
    }
  }
}
layer {
  name: "inception_3c/double_3x3_2_bn"
  type: "BN"
  bottom: "inception_3c/double_3x3_2"
  top: "inception_3c/double_3x3_2_bn"
  param {
    lr_mult: 1
    decay_mult: 0
  }
  param {
    lr_mult: 1
    decay_mult: 0
  }
  bn_param {
    slope_filler {
      type: "constant"
      value: 1
    }
    bias_filler {
      type: "constant"
      value: 0
    }
    frozen: true
  }
}
layer {
  name: "inception_3c/relu_double_3x3_2"
  type: "ReLU"
  bottom: "inception_3c/double_3x3_2_bn"
  top: "inception_3c/double_3x3_2_bn"
}
layer {
  name: "inception_3c/pool"
  type: "Pooling"
  bottom: "inception_3b/output"
  top: "inception_3c/pool"
  pooling_param {
    pool: MAX
    kernel_size: 3
    stride: 2
  }
}
layer {
  name: "inception_3c/output"
  type: "Concat"
  bottom: "inception_3c/3x3_bn"
  bottom: "inception_3c/double_3x3_2_bn"
  bottom: "inception_3c/pool"
  top: "inception_3c/output"
}
layer {
  name: "inception_4a/1x1"
  type: "Convolution"
  bottom: "inception_3c/output"
  top: "inception_4a/1x1"
  param {
    lr_mult: 1
    decay_mult: 1
  }
  param {
    lr_mult: 2
    decay_mult: 0
  }
  convolution_param {
    num_output: 224
    kernel_size: 1
    weight_filler {
      type: "xavier"
    }
    bias_filler {
      type: "constant"
      value: 0.2
    }
  }
}
layer {
  name: "inception_4a/1x1_bn"
  type: "BN"
  bottom: "inception_4a/1x1"
  top: "inception_4a/1x1_bn"
  param {
    lr_mult: 1
    decay_mult: 0
  }
  param {
    lr_mult: 1
    decay_mult: 0
  }
  bn_param {
    slope_filler {
      type: "constant"
      value: 1
    }
    bias_filler {
      type: "constant"
      value: 0
    }
    frozen: true
  }
}
layer {
  name: "inception_4a/relu_1x1"
  type: "ReLU"
  bottom: "inception_4a/1x1_bn"
  top: "inception_4a/1x1_bn"
}
layer {
  name: "inception_4a/3x3_reduce"
  type: "Convolution"
  bottom: "inception_3c/output"
  top: "inception_4a/3x3_reduce"
  param {
    lr_mult: 1
    decay_mult: 1
  }
  param {
    lr_mult: 2
    decay_mult: 0
  }
  convolution_param {
    num_output: 64
    kernel_size: 1
    weight_filler {
      type: "xavier"
    }
    bias_filler {
      type: "constant"
      value: 0.2
    }
  }
}
layer {
  name: "inception_4a/3x3_reduce_bn"
  type: "BN"
  bottom: "inception_4a/3x3_reduce"
  top: "inception_4a/3x3_reduce_bn"
  param {
    lr_mult: 1
    decay_mult: 0
  }
  param {
    lr_mult: 1
    decay_mult: 0
  }
  bn_param {
    slope_filler {
      type: "constant"
      value: 1
    }
    bias_filler {
      type: "constant"
      value: 0
    }
    frozen: true
  }
}
layer {
  name: "inception_4a/relu_3x3_reduce"
  type: "ReLU"
  bottom: "inception_4a/3x3_reduce_bn"
  top: "inception_4a/3x3_reduce_bn"
}
layer {
  name: "inception_4a/3x3"
  type: "Convolution"
  bottom: "inception_4a/3x3_reduce_bn"
  top: "inception_4a/3x3"
  param {
    lr_mult: 1
    decay_mult: 1
  }
  param {
    lr_mult: 2
    decay_mult: 0
  }
  convolution_param {
    num_output: 96
    pad: 1
    kernel_size: 3
    weight_filler {
      type: "xavier"
    }
    bias_filler {
      type: "constant"
      value: 0.2
    }
  }
}
layer {
  name: "inception_4a/3x3_bn"
  type: "BN"
  bottom: "inception_4a/3x3"
  top: "inception_4a/3x3_bn"
  param {
    lr_mult: 1
    decay_mult: 0
  }
  param {
    lr_mult: 1
    decay_mult: 0
  }
  bn_param {
    slope_filler {
      type: "constant"
      value: 1
    }
    bias_filler {
      type: "constant"
      value: 0
    }
    frozen: true
  }
}
layer {
  name: "inception_4a/relu_3x3"
  type: "ReLU"
  bottom: "inception_4a/3x3_bn"
  top: "inception_4a/3x3_bn"
}
layer {
  name: "inception_4a/double_3x3_reduce"
  type: "Convolution"
  bottom: "inception_3c/output"
  top: "inception_4a/double_3x3_reduce"
  param {
    lr_mult: 1
    decay_mult: 1
  }
  param {
    lr_mult: 2
    decay_mult: 0
  }
  convolution_param {
    num_output: 96
    kernel_size: 1
    weight_filler {
      type: "xavier"
    }
    bias_filler {
      type: "constant"
      value: 0.2
    }
  }
}
layer {
  name: "inception_4a/double_3x3_reduce_bn"
  type: "BN"
  bottom: "inception_4a/double_3x3_reduce"
  top: "inception_4a/double_3x3_reduce_bn"
  param {
    lr_mult: 1
    decay_mult: 0
  }
  param {
    lr_mult: 1
    decay_mult: 0
  }
  bn_param {
    slope_filler {
      type: "constant"
      value: 1
    }
    bias_filler {
      type: "constant"
      value: 0
    }
    frozen: true
  }
}
layer {
  name: "inception_4a/relu_double_3x3_reduce"
  type: "ReLU"
  bottom: "inception_4a/double_3x3_reduce_bn"
  top: "inception_4a/double_3x3_reduce_bn"
}
layer {
  name: "inception_4a/double_3x3_1"
  type: "Convolution"
  bottom: "inception_4a/double_3x3_reduce_bn"
  top: "inception_4a/double_3x3_1"
  param {
    lr_mult: 1
    decay_mult: 1
  }
  param {
    lr_mult: 2
    decay_mult: 0
  }
  convolution_param {
    num_output: 128
    pad: 1
    kernel_size: 3
    weight_filler {
      type: "xavier"
    }
    bias_filler {
      type: "constant"
      value: 0.2
    }
  }
}
layer {
  name: "inception_4a/double_3x3_1_bn"
  type: "BN"
  bottom: "inception_4a/double_3x3_1"
  top: "inception_4a/double_3x3_1_bn"
  param {
    lr_mult: 1
    decay_mult: 0
  }
  param {
    lr_mult: 1
    decay_mult: 0
  }
  bn_param {
    slope_filler {
      type: "constant"
      value: 1
    }
    bias_filler {
      type: "constant"
      value: 0
    }
    frozen: true
  }
}
layer {
  name: "inception_4a/relu_double_3x3_1"
  type: "ReLU"
  bottom: "inception_4a/double_3x3_1_bn"
  top: "inception_4a/double_3x3_1_bn"
}
layer {
  name: "inception_4a/double_3x3_2"
  type: "Convolution"
  bottom: "inception_4a/double_3x3_1_bn"
  top: "inception_4a/double_3x3_2"
  param {
    lr_mult: 1
    decay_mult: 1
  }
  param {
    lr_mult: 2
    decay_mult: 0
  }
  convolution_param {
    num_output: 128
    pad: 1
    kernel_size: 3
    weight_filler {
      type: "xavier"
    }
    bias_filler {
      type: "constant"
      value: 0.2
    }
  }
}
layer {
  name: "inception_4a/double_3x3_2_bn"
  type: "BN"
  bottom: "inception_4a/double_3x3_2"
  top: "inception_4a/double_3x3_2_bn"
  param {
    lr_mult: 1
    decay_mult: 0
  }
  param {
    lr_mult: 1
    decay_mult: 0
  }
  bn_param {
    slope_filler {
      type: "constant"
      value: 1
    }
    bias_filler {
      type: "constant"
      value: 0
    }
    frozen: true
  }
}
layer {
  name: "inception_4a/relu_double_3x3_2"
  type: "ReLU"
  bottom: "inception_4a/double_3x3_2_bn"
  top: "inception_4a/double_3x3_2_bn"
}
layer {
  name: "inception_4a/pool"
  type: "Pooling"
  bottom: "inception_3c/output"
  top: "inception_4a/pool"
  pooling_param {
    pool: AVE
    kernel_size: 3
    stride: 1
    pad: 1
  }
}
layer {
  name: "inception_4a/pool_proj"
  type: "Convolution"
  bottom: "inception_4a/pool"
  top: "inception_4a/pool_proj"
  param {
    lr_mult: 1
    decay_mult: 1
  }
  param {
    lr_mult: 2
    decay_mult: 0
  }
  convolution_param {
    num_output: 128
    kernel_size: 1
    weight_filler {
      type: "xavier"
    }
    bias_filler {
      type: "constant"
      value: 0.2
    }
  }
}
layer {
  name: "inception_4a/pool_proj_bn"
  type: "BN"
  bottom: "inception_4a/pool_proj"
  top: "inception_4a/pool_proj_bn"
  param {
    lr_mult: 1
    decay_mult: 0
  }
  param {
    lr_mult: 1
    decay_mult: 0
  }
  bn_param {
    slope_filler {
      type: "constant"
      value: 1
    }
    bias_filler {
      type: "constant"
      value: 0
    }
    frozen: true
  }
}
layer {
  name: "inception_4a/relu_pool_proj"
  type: "ReLU"
  bottom: "inception_4a/pool_proj_bn"
  top: "inception_4a/pool_proj_bn"
}
layer {
  name: "inception_4a/output"
  type: "Concat"
  bottom: "inception_4a/1x1_bn"
  bottom: "inception_4a/3x3_bn"
  bottom: "inception_4a/double_3x3_2_bn"
  bottom: "inception_4a/pool_proj_bn"
  top: "inception_4a/output"
}
layer {
  name: "inception_4b/1x1"
  type: "Convolution"
  bottom: "inception_4a/output"
  top: "inception_4b/1x1"
  param {
    lr_mult: 1
    decay_mult: 1
  }
  param {
    lr_mult: 2
    decay_mul
I0221 17:16:36.496757  1835 layer_factory.hpp:74] Creating layer data
I0221 17:16:36.496774  1835 net.cpp:96] Creating Layer data
I0221 17:16:36.496781  1835 net.cpp:415] data -> data
I0221 17:16:36.496804  1835 net.cpp:415] data -> label
I0221 17:16:36.496811  1835 net.cpp:160] Setting up data
I0221 17:16:36.497104  1835 video_data_layer.cpp:34] Opening file: /home/hadoop/whx/dataset/ucf101/train_rgb_split1.txt
I0221 17:16:36.501076  1835 video_data_layer.cpp:50] A total of 9537 videos.
I0221 17:16:36.523121  1835 video_data_layer.cpp:89] output data size: 24,9,224,224
I0221 17:16:36.527134  1835 net.cpp:167] Top shape: 24 9 224 224 (10838016)
I0221 17:16:36.527163  1835 net.cpp:167] Top shape: 24 1 1 1 (24)
I0221 17:16:36.527168  1835 layer_factory.hpp:74] Creating layer reshape_data
I0221 17:16:36.527182  1835 net.cpp:96] Creating Layer reshape_data
I0221 17:16:36.527187  1835 net.cpp:459] reshape_data <- data
I0221 17:16:36.527197  1835 net.cpp:415] reshape_data -> reshape_data
I0221 17:16:36.527207  1835 net.cpp:160] Setting up reshape_data
I0221 17:16:36.527221  1835 net.cpp:167] Top shape: 72 3 224 224 (10838016)
I0221 17:16:36.527225  1835 layer_factory.hpp:74] Creating layer conv1/7x7_s2
I0221 17:16:36.527235  1835 net.cpp:96] Creating Layer conv1/7x7_s2
I0221 17:16:36.527238  1835 net.cpp:459] conv1/7x7_s2 <- reshape_data
I0221 17:16:36.527242  1835 net.cpp:415] conv1/7x7_s2 -> conv1/7x7_s2
I0221 17:16:36.527251  1835 net.cpp:160] Setting up conv1/7x7_s2
I0221 17:16:36.527330  1835 net.cpp:167] Top shape: 72 64 112 112 (57802752)
I0221 17:16:36.527338  1835 layer_factory.hpp:74] Creating layer conv1/7x7_s2_bn
I0221 17:16:36.527343  1835 layer_factory.cpp:177] Layer conv1/7x7_s2_bn is using CAFFE engine.
I0221 17:16:36.527359  1835 net.cpp:96] Creating Layer conv1/7x7_s2_bn
I0221 17:16:36.527361  1835 net.cpp:459] conv1/7x7_s2_bn <- conv1/7x7_s2
I0221 17:16:36.527366  1835 net.cpp:415] conv1/7x7_s2_bn -> conv1/7x7_s2_bn
I0221 17:16:36.527372  1835 net.cpp:160] Setting up conv1/7x7_s2_bn
I0221 17:16:36.527392  1835 net.cpp:167] Top shape: 72 64 112 112 (57802752)
I0221 17:16:36.527400  1835 layer_factory.hpp:74] Creating layer conv1/relu_7x7
I0221 17:16:36.527406  1835 net.cpp:96] Creating Layer conv1/relu_7x7
I0221 17:16:36.527410  1835 net.cpp:459] conv1/relu_7x7 <- conv1/7x7_s2_bn
I0221 17:16:36.527412  1835 net.cpp:404] conv1/relu_7x7 -> conv1/7x7_s2_bn (in-place)
I0221 17:16:36.527416  1835 net.cpp:160] Setting up conv1/relu_7x7
I0221 17:16:36.527421  1835 net.cpp:167] Top shape: 72 64 112 112 (57802752)
I0221 17:16:36.527426  1835 layer_factory.hpp:74] Creating layer pool1/3x3_s2
I0221 17:16:36.527431  1835 net.cpp:96] Creating Layer pool1/3x3_s2
I0221 17:16:36.527433  1835 net.cpp:459] pool1/3x3_s2 <- conv1/7x7_s2_bn
I0221 17:16:36.527436  1835 net.cpp:415] pool1/3x3_s2 -> pool1/3x3_s2
I0221 17:16:36.527441  1835 net.cpp:160] Setting up pool1/3x3_s2
I0221 17:16:36.527454  1835 net.cpp:167] Top shape: 72 64 56 56 (14450688)
I0221 17:16:36.527457  1835 layer_factory.hpp:74] Creating layer conv2/3x3_reduce
I0221 17:16:36.527463  1835 net.cpp:96] Creating Layer conv2/3x3_reduce
I0221 17:16:36.527465  1835 net.cpp:459] conv2/3x3_reduce <- pool1/3x3_s2
I0221 17:16:36.527470  1835 net.cpp:415] conv2/3x3_reduce -> conv2/3x3_reduce
I0221 17:16:36.527474  1835 net.cpp:160] Setting up conv2/3x3_reduce
I0221 17:16:36.527503  1835 net.cpp:167] Top shape: 72 64 56 56 (14450688)
I0221 17:16:36.527508  1835 layer_factory.hpp:74] Creating layer conv2/3x3_reduce_bn
I0221 17:16:36.527511  1835 layer_factory.cpp:177] Layer conv2/3x3_reduce_bn is using CAFFE engine.
I0221 17:16:36.527515  1835 net.cpp:96] Creating Layer conv2/3x3_reduce_bn
I0221 17:16:36.527518  1835 net.cpp:459] conv2/3x3_reduce_bn <- conv2/3x3_reduce
I0221 17:16:36.527523  1835 net.cpp:415] conv2/3x3_reduce_bn -> conv2/3x3_reduce_bn
I0221 17:16:36.527526  1835 net.cpp:160] Setting up conv2/3x3_reduce_bn
I0221 17:16:36.527537  1835 net.cpp:167] Top shape: 72 64 56 56 (14450688)
I0221 17:16:36.527544  1835 layer_factory.hpp:74] Creating layer conv2/relu_3x3_reduce
I0221 17:16:36.527549  1835 net.cpp:96] Creating Layer conv2/relu_3x3_reduce
I0221 17:16:36.527551  1835 net.cpp:459] conv2/relu_3x3_reduce <- conv2/3x3_reduce_bn
I0221 17:16:36.527555  1835 net.cpp:404] conv2/relu_3x3_reduce -> conv2/3x3_reduce_bn (in-place)
I0221 17:16:36.527559  1835 net.cpp:160] Setting up conv2/relu_3x3_reduce
I0221 17:16:36.527562  1835 net.cpp:167] Top shape: 72 64 56 56 (14450688)
I0221 17:16:36.527565  1835 layer_factory.hpp:74] Creating layer conv2/3x3
I0221 17:16:36.527570  1835 net.cpp:96] Creating Layer conv2/3x3
I0221 17:16:36.527572  1835 net.cpp:459] conv2/3x3 <- conv2/3x3_reduce_bn
I0221 17:16:36.527576  1835 net.cpp:415] conv2/3x3 -> conv2/3x3
I0221 17:16:36.527580  1835 net.cpp:160] Setting up conv2/3x3
I0221 17:16:36.528090  1835 net.cpp:167] Top shape: 72 192 56 56 (43352064)
I0221 17:16:36.528095  1835 layer_factory.hpp:74] Creating layer conv2/3x3_bn
I0221 17:16:36.528097  1835 layer_factory.cpp:177] Layer conv2/3x3_bn is using CAFFE engine.
I0221 17:16:36.528101  1835 net.cpp:96] Creating Layer conv2/3x3_bn
I0221 17:16:36.528105  1835 net.cpp:459] conv2/3x3_bn <- conv2/3x3
I0221 17:16:36.528108  1835 net.cpp:415] conv2/3x3_bn -> conv2/3x3_bn
I0221 17:16:36.528112  1835 net.cpp:160] Setting up conv2/3x3_bn
I0221 17:16:36.528123  1835 net.cpp:167] Top shape: 72 192 56 56 (43352064)
I0221 17:16:36.528129  1835 layer_factory.hpp:74] Creating layer conv2/relu_3x3
I0221 17:16:36.528133  1835 net.cpp:96] Creating Layer conv2/relu_3x3
I0221 17:16:36.528136  1835 net.cpp:459] conv2/relu_3x3 <- conv2/3x3_bn
I0221 17:16:36.528139  1835 net.cpp:404] conv2/relu_3x3 -> conv2/3x3_bn (in-place)
I0221 17:16:36.528143  1835 net.cpp:160] Setting up conv2/relu_3x3
I0221 17:16:36.528149  1835 net.cpp:167] Top shape: 72 192 56 56 (43352064)
I0221 17:16:36.528156  1835 layer_factory.hpp:74] Creating layer pool2/3x3_s2
I0221 17:16:36.528159  1835 net.cpp:96] Creating Layer pool2/3x3_s2
I0221 17:16:36.528162  1835 net.cpp:459] pool2/3x3_s2 <- conv2/3x3_bn
I0221 17:16:36.528165  1835 net.cpp:415] pool2/3x3_s2 -> pool2/3x3_s2
I0221 17:16:36.528170  1835 net.cpp:160] Setting up pool2/3x3_s2
I0221 17:16:36.528174  1835 net.cpp:167] Top shape: 72 192 28 28 (10838016)
I0221 17:16:36.528177  1835 layer_factory.hpp:74] Creating layer pool2/3x3_s2_pool2/3x3_s2_0_split
I0221 17:16:36.528183  1835 net.cpp:96] Creating Layer pool2/3x3_s2_pool2/3x3_s2_0_split
I0221 17:16:36.528187  1835 net.cpp:459] pool2/3x3_s2_pool2/3x3_s2_0_split <- pool2/3x3_s2
I0221 17:16:36.528189  1835 net.cpp:415] pool2/3x3_s2_pool2/3x3_s2_0_split -> pool2/3x3_s2_pool2/3x3_s2_0_split_0
I0221 17:16:36.528194  1835 net.cpp:415] pool2/3x3_s2_pool2/3x3_s2_0_split -> pool2/3x3_s2_pool2/3x3_s2_0_split_1
I0221 17:16:36.528199  1835 net.cpp:415] pool2/3x3_s2_pool2/3x3_s2_0_split -> pool2/3x3_s2_pool2/3x3_s2_0_split_2
I0221 17:16:36.528203  1835 net.cpp:415] pool2/3x3_s2_pool2/3x3_s2_0_split -> pool2/3x3_s2_pool2/3x3_s2_0_split_3
I0221 17:16:36.528208  1835 net.cpp:160] Setting up pool2/3x3_s2_pool2/3x3_s2_0_split
I0221 17:16:36.528213  1835 net.cpp:167] Top shape: 72 192 28 28 (10838016)
I0221 17:16:36.528215  1835 net.cpp:167] Top shape: 72 192 28 28 (10838016)
I0221 17:16:36.528218  1835 net.cpp:167] Top shape: 72 192 28 28 (10838016)
I0221 17:16:36.528221  1835 net.cpp:167] Top shape: 72 192 28 28 (10838016)
I0221 17:16:36.528224  1835 layer_factory.hpp:74] Creating layer inception_3a/1x1
I0221 17:16:36.528229  1835 net.cpp:96] Creating Layer inception_3a/1x1
I0221 17:16:36.528233  1835 net.cpp:459] inception_3a/1x1 <- pool2/3x3_s2_pool2/3x3_s2_0_split_0
I0221 17:16:36.528236  1835 net.cpp:415] inception_3a/1x1 -> inception_3a/1x1
I0221 17:16:36.528241  1835 net.cpp:160] Setting up inception_3a/1x1
I0221 17:16:36.528304  1835 net.cpp:167] Top shape: 72 64 28 28 (3612672)
I0221 17:16:36.528309  1835 layer_factory.hpp:74] Creating layer inception_3a/1x1_bn
I0221 17:16:36.528312  1835 layer_factory.cpp:177] Layer inception_3a/1x1_bn is using CAFFE engine.
I0221 17:16:36.528317  1835 net.cpp:96] Creating Layer inception_3a/1x1_bn
I0221 17:16:36.528321  1835 net.cpp:459] inception_3a/1x1_bn <- inception_3a/1x1
I0221 17:16:36.528324  1835 net.cpp:415] inception_3a/1x1_bn -> inception_3a/1x1_bn
I0221 17:16:36.528329  1835 net.cpp:160] Setting up inception_3a/1x1_bn
I0221 17:16:36.528338  1835 net.cpp:167] Top shape: 72 64 28 28 (3612672)
I0221 17:16:36.528344  1835 layer_factory.hpp:74] Creating layer inception_3a/relu_1x1
I0221 17:16:36.528348  1835 net.cpp:96] Creating Layer inception_3a/relu_1x1
I0221 17:16:36.528352  1835 net.cpp:459] inception_3a/relu_1x1 <- inception_3a/1x1_bn
I0221 17:16:36.528355  1835 net.cpp:404] inception_3a/relu_1x1 -> inception_3a/1x1_bn (in-place)
I0221 17:16:36.528359  1835 net.cpp:160] Setting up inception_3a/relu_1x1
I0221 17:16:36.528362  1835 net.cpp:167] Top shape: 72 64 28 28 (3612672)
I0221 17:16:36.528365  1835 layer_factory.hpp:74] Creating layer inception_3a/3x3_reduce
I0221 17:16:36.528370  1835 net.cpp:96] Creating Layer inception_3a/3x3_reduce
I0221 17:16:36.528373  1835 net.cpp:459] inception_3a/3x3_reduce <- pool2/3x3_s2_pool2/3x3_s2_0_split_1
I0221 17:16:36.528378  1835 net.cpp:415] inception_3a/3x3_reduce -> inception_3a/3x3_reduce
I0221 17:16:36.528381  1835 net.cpp:160] Setting up inception_3a/3x3_reduce
I0221 17:16:36.528445  1835 net.cpp:167] Top shape: 72 64 28 28 (3612672)
I0221 17:16:36.528450  1835 layer_factory.hpp:74] Creating layer inception_3a/3x3_reduce_bn
I0221 17:16:36.528452  1835 layer_factory.cpp:177] Layer inception_3a/3x3_reduce_bn is using CAFFE engine.
I0221 17:16:36.528457  1835 net.cpp:96] Creating Layer inception_3a/3x3_reduce_bn
I0221 17:16:36.528460  1835 net.cpp:459] inception_3a/3x3_reduce_bn <- inception_3a/3x3_reduce
I0221 17:16:36.528465  1835 net.cpp:415] inception_3a/3x3_reduce_bn -> inception_3a/3x3_reduce_bn
I0221 17:16:36.528475  1835 net.cpp:160] Setting up inception_3a/3x3_reduce_bn
I0221 17:16:36.528484  1835 net.cpp:167] Top shape: 72 64 28 28 (3612672)
I0221 17:16:36.528489  1835 layer_factory.hpp:74] Creating layer inception_3a/relu_3x3_reduce
I0221 17:16:36.528493  1835 net.cpp:96] Creating Layer inception_3a/relu_3x3_reduce
I0221 17:16:36.528496  1835 net.cpp:459] inception_3a/relu_3x3_reduce <- inception_3a/3x3_reduce_bn
I0221 17:16:36.528501  1835 net.cpp:404] inception_3a/relu_3x3_reduce -> inception_3a/3x3_reduce_bn (in-place)
I0221 17:16:36.528504  1835 net.cpp:160] Setting up inception_3a/relu_3x3_reduce
I0221 17:16:36.528507  1835 net.cpp:167] Top shape: 72 64 28 28 (3612672)
I0221 17:16:36.528511  1835 layer_factory.hpp:74] Creating layer inception_3a/3x3
I0221 17:16:36.528515  1835 net.cpp:96] Creating Layer inception_3a/3x3
I0221 17:16:36.528518  1835 net.cpp:459] inception_3a/3x3 <- inception_3a/3x3_reduce_bn
I0221 17:16:36.528522  1835 net.cpp:415] inception_3a/3x3 -> inception_3a/3x3
I0221 17:16:36.528527  1835 net.cpp:160] Setting up inception_3a/3x3
I0221 17:16:36.528700  1835 net.cpp:167] Top shape: 72 64 28 28 (3612672)
I0221 17:16:36.528705  1835 layer_factory.hpp:74] Creating layer inception_3a/3x3_bn
I0221 17:16:36.528708  1835 layer_factory.cpp:177] Layer inception_3a/3x3_bn is using CAFFE engine.
I0221 17:16:36.528713  1835 net.cpp:96] Creating Layer inception_3a/3x3_bn
I0221 17:16:36.528717  1835 net.cpp:459] inception_3a/3x3_bn <- inception_3a/3x3
I0221 17:16:36.528720  1835 net.cpp:415] inception_3a/3x3_bn -> inception_3a/3x3_bn
I0221 17:16:36.528724  1835 net.cpp:160] Setting up inception_3a/3x3_bn
I0221 17:16:36.528733  1835 net.cpp:167] Top shape: 72 64 28 28 (3612672)
I0221 17:16:36.528740  1835 layer_factory.hpp:74] Creating layer inception_3a/relu_3x3
I0221 17:16:36.528744  1835 net.cpp:96] Creating Layer inception_3a/relu_3x3
I0221 17:16:36.528748  1835 net.cpp:459] inception_3a/relu_3x3 <- inception_3a/3x3_bn
I0221 17:16:36.528750  1835 net.cpp:404] inception_3a/relu_3x3 -> inception_3a/3x3_bn (in-place)
I0221 17:16:36.528754  1835 net.cpp:160] Setting up inception_3a/relu_3x3
I0221 17:16:36.528759  1835 net.cpp:167] Top shape: 72 64 28 28 (3612672)
I0221 17:16:36.528760  1835 layer_factory.hpp:74] Creating layer inception_3a/double_3x3_reduce
I0221 17:16:36.528765  1835 net.cpp:96] Creating Layer inception_3a/double_3x3_reduce
I0221 17:16:36.528769  1835 net.cpp:459] inception_3a/double_3x3_reduce <- pool2/3x3_s2_pool2/3x3_s2_0_split_2
I0221 17:16:36.528772  1835 net.cpp:415] inception_3a/double_3x3_reduce -> inception_3a/double_3x3_reduce
I0221 17:16:36.528777  1835 net.cpp:160] Setting up inception_3a/double_3x3_reduce
I0221 17:16:36.528841  1835 net.cpp:167] Top shape: 72 64 28 28 (3612672)
I0221 17:16:36.528846  1835 layer_factory.hpp:74] Creating layer inception_3a/double_3x3_reduce_bn
I0221 17:16:36.528848  1835 layer_factory.cpp:177] Layer inception_3a/double_3x3_reduce_bn is using CAFFE engine.
I0221 17:16:36.528852  1835 net.cpp:96] Creating Layer inception_3a/double_3x3_reduce_bn
I0221 17:16:36.528856  1835 net.cpp:459] inception_3a/double_3x3_reduce_bn <- inception_3a/double_3x3_reduce
I0221 17:16:36.528859  1835 net.cpp:415] inception_3a/double_3x3_reduce_bn -> inception_3a/double_3x3_reduce_bn
I0221 17:16:36.528863  1835 net.cpp:160] Setting up inception_3a/double_3x3_reduce_bn
I0221 17:16:36.528872  1835 net.cpp:167] Top shape: 72 64 28 28 (3612672)
I0221 17:16:36.528877  1835 layer_factory.hpp:74] Creating layer inception_3a/relu_double_3x3_reduce
I0221 17:16:36.528882  1835 net.cpp:96] Creating Layer inception_3a/relu_double_3x3_reduce
I0221 17:16:36.528884  1835 net.cpp:459] inception_3a/relu_double_3x3_reduce <- inception_3a/double_3x3_reduce_bn
I0221 17:16:36.528887  1835 net.cpp:404] inception_3a/relu_double_3x3_reduce -> inception_3a/double_3x3_reduce_bn (in-place)
I0221 17:16:36.528892  1835 net.cpp:160] Setting up inception_3a/relu_double_3x3_reduce
I0221 17:16:36.528894  1835 net.cpp:167] Top shape: 72 64 28 28 (3612672)
I0221 17:16:36.528903  1835 layer_factory.hpp:74] Creating layer inception_3a/double_3x3_1
I0221 17:16:36.528908  1835 net.cpp:96] Creating Layer inception_3a/double_3x3_1
I0221 17:16:36.528910  1835 net.cpp:459] inception_3a/double_3x3_1 <- inception_3a/double_3x3_reduce_bn
I0221 17:16:36.528914  1835 net.cpp:415] inception_3a/double_3x3_1 -> inception_3a/double_3x3_1
I0221 17:16:36.528918  1835 net.cpp:160] Setting up inception_3a/double_3x3_1
I0221 17:16:36.529176  1835 net.cpp:167] Top shape: 72 96 28 28 (5419008)
I0221 17:16:36.529181  1835 layer_factory.hpp:74] Creating layer inception_3a/double_3x3_1_bn
I0221 17:16:36.529184  1835 layer_factory.cpp:177] Layer inception_3a/double_3x3_1_bn is using CAFFE engine.
I0221 17:16:36.529188  1835 net.cpp:96] Creating Layer inception_3a/double_3x3_1_bn
I0221 17:16:36.529191  1835 net.cpp:459] inception_3a/double_3x3_1_bn <- inception_3a/double_3x3_1
I0221 17:16:36.529196  1835 net.cpp:415] inception_3a/double_3x3_1_bn -> inception_3a/double_3x3_1_bn
I0221 17:16:36.529201  1835 net.cpp:160] Setting up inception_3a/double_3x3_1_bn
I0221 17:16:36.529208  1835 net.cpp:167] Top shape: 72 96 28 28 (5419008)
I0221 17:16:36.529214  1835 layer_factory.hpp:74] Creating layer inception_3a/relu_double_3x3_1
I0221 17:16:36.529218  1835 net.cpp:96] Creating Layer inception_3a/relu_double_3x3_1
I0221 17:16:36.529220  1835 net.cpp:459] inception_3a/relu_double_3x3_1 <- inception_3a/double_3x3_1_bn
I0221 17:16:36.529224  1835 net.cpp:404] inception_3a/relu_double_3x3_1 -> inception_3a/double_3x3_1_bn (in-place)
I0221 17:16:36.529227  1835 net.cpp:160] Setting up inception_3a/relu_double_3x3_1
I0221 17:16:36.529232  1835 net.cpp:167] Top shape: 72 96 28 28 (5419008)
I0221 17:16:36.529233  1835 layer_factory.hpp:74] Creating layer inception_3a/double_3x3_2
I0221 17:16:36.529238  1835 net.cpp:96] Creating Layer inception_3a/double_3x3_2
I0221 17:16:36.529242  1835 net.cpp:459] inception_3a/double_3x3_2 <- inception_3a/double_3x3_1_bn
I0221 17:16:36.529245  1835 net.cpp:415] inception_3a/double_3x3_2 -> inception_3a/double_3x3_2
I0221 17:16:36.529249  1835 net.cpp:160] Setting up inception_3a/double_3x3_2
I0221 17:16:36.529631  1835 net.cpp:167] Top shape: 72 96 28 28 (5419008)
I0221 17:16:36.529636  1835 layer_factory.hpp:74] Creating layer inception_3a/double_3x3_2_bn
I0221 17:16:36.529639  1835 layer_factory.cpp:177] Layer inception_3a/double_3x3_2_bn is using CAFFE engine.
I0221 17:16:36.529644  1835 net.cpp:96] Creating Layer inception_3a/double_3x3_2_bn
I0221 17:16:36.529646  1835 net.cpp:459] inception_3a/double_3x3_2_bn <- inception_3a/double_3x3_2
I0221 17:16:36.529650  1835 net.cpp:415] inception_3a/double_3x3_2_bn -> inception_3a/double_3x3_2_bn
I0221 17:16:36.529654  1835 net.cpp:160] Setting up inception_3a/double_3x3_2_bn
I0221 17:16:36.529664  1835 net.cpp:167] Top shape: 72 96 28 28 (5419008)
I0221 17:16:36.529669  1835 layer_factory.hpp:74] Creating layer inception_3a/relu_double_3x3_2
I0221 17:16:36.529672  1835 net.cpp:96] Creating Layer inception_3a/relu_double_3x3_2
I0221 17:16:36.529675  1835 net.cpp:459] inception_3a/relu_double_3x3_2 <- inception_3a/double_3x3_2_bn
I0221 17:16:36.529678  1835 net.cpp:404] inception_3a/relu_double_3x3_2 -> inception_3a/double_3x3_2_bn (in-place)
I0221 17:16:36.529681  1835 net.cpp:160] Setting up inception_3a/relu_double_3x3_2
I0221 17:16:36.529685  1835 net.cpp:167] Top shape: 72 96 28 28 (5419008)
I0221 17:16:36.529687  1835 layer_factory.hpp:74] Creating layer inception_3a/pool
I0221 17:16:36.529693  1835 net.cpp:96] Creating Layer inception_3a/pool
I0221 17:16:36.529696  1835 net.cpp:459] inception_3a/pool <- pool2/3x3_s2_pool2/3x3_s2_0_split_3
I0221 17:16:36.529700  1835 net.cpp:415] inception_3a/pool -> inception_3a/pool
I0221 17:16:36.529705  1835 net.cpp:160] Setting up inception_3a/pool
I0221 17:16:36.529708  1835 net.cpp:167] Top shape: 72 192 28 28 (10838016)
I0221 17:16:36.529711  1835 layer_factory.hpp:74] Creating layer inception_3a/pool_proj
I0221 17:16:36.529716  1835 net.cpp:96] Creating Layer inception_3a/pool_proj
I0221 17:16:36.529723  1835 net.cpp:459] inception_3a/pool_proj <- inception_3a/pool
I0221 17:16:36.529727  1835 net.cpp:415] inception_3a/pool_proj -> inception_3a/pool_proj
I0221 17:16:36.529732  1835 net.cpp:160] Setting up inception_3a/pool_proj
I0221 17:16:36.529767  1835 net.cpp:167] Top shape: 72 32 28 28 (1806336)
I0221 17:16:36.529772  1835 layer_factory.hpp:74] Creating layer inception_3a/pool_proj_bn
I0221 17:16:36.529775  1835 layer_factory.cpp:177] Layer inception_3a/pool_proj_bn is using CAFFE engine.
I0221 17:16:36.529779  1835 net.cpp:96] Creating Layer inception_3a/pool_proj_bn
I0221 17:16:36.529783  1835 net.cpp:459] inception_3a/pool_proj_bn <- inception_3a/pool_proj
I0221 17:16:36.529786  1835 net.cpp:415] inception_3a/pool_proj_bn -> inception_3a/pool_proj_bn
I0221 17:16:36.529791  1835 net.cpp:160] Setting up inception_3a/pool_proj_bn
I0221 17:16:36.529799  1835 net.cpp:167] Top shape: 72 32 28 28 (1806336)
I0221 17:16:36.529804  1835 layer_factory.hpp:74] Creating layer inception_3a/relu_pool_proj
I0221 17:16:36.529808  1835 net.cpp:96] Creating Layer inception_3a/relu_pool_proj
I0221 17:16:36.529811  1835 net.cpp:459] inception_3a/relu_pool_proj <- inception_3a/pool_proj_bn
I0221 17:16:36.529814  1835 net.cpp:404] inception_3a/relu_pool_proj -> inception_3a/pool_proj_bn (in-place)
I0221 17:16:36.529819  1835 net.cpp:160] Setting up inception_3a/relu_pool_proj
I0221 17:16:36.529821  1835 net.cpp:167] Top shape: 72 32 28 28 (1806336)
I0221 17:16:36.529824  1835 layer_factory.hpp:74] Creating layer inception_3a/output
I0221 17:16:36.529831  1835 net.cpp:96] Creating Layer inception_3a/output
I0221 17:16:36.529834  1835 net.cpp:459] inception_3a/output <- inception_3a/1x1_bn
I0221 17:16:36.529837  1835 net.cpp:459] inception_3a/output <- inception_3a/3x3_bn
I0221 17:16:36.529840  1835 net.cpp:459] inception_3a/output <- inception_3a/double_3x3_2_bn
I0221 17:16:36.529844  1835 net.cpp:459] inception_3a/output <- inception_3a/pool_proj_bn
I0221 17:16:36.529847  1835 net.cpp:415] inception_3a/output -> inception_3a/output
I0221 17:16:36.529851  1835 net.cpp:160] Setting up inception_3a/output
I0221 17:16:36.529857  1835 net.cpp:167] Top shape: 72 256 28 28 (14450688)
I0221 17:16:36.529860  1835 layer_factory.hpp:74] Creating layer inception_3a/output_inception_3a/output_0_split
I0221 17:16:36.529865  1835 net.cpp:96] Creating Layer inception_3a/output_inception_3a/output_0_split
I0221 17:16:36.529867  1835 net.cpp:459] inception_3a/output_inception_3a/output_0_split <- inception_3a/output
I0221 17:16:36.529871  1835 net.cpp:415] inception_3a/output_inception_3a/output_0_split -> inception_3a/output_inception_3a/output_0_split_0
I0221 17:16:36.529876  1835 net.cpp:415] inception_3a/output_inception_3a/output_0_split -> inception_3a/output_inception_3a/output_0_split_1
I0221 17:16:36.529882  1835 net.cpp:415] inception_3a/output_inception_3a/output_0_split -> inception_3a/output_inception_3a/output_0_split_2
I0221 17:16:36.529886  1835 net.cpp:415] inception_3a/output_inception_3a/output_0_split -> inception_3a/output_inception_3a/output_0_split_3
I0221 17:16:36.529891  1835 net.cpp:160] Setting up inception_3a/output_inception_3a/output_0_split
I0221 17:16:36.529896  1835 net.cpp:167] Top shape: 72 256 28 28 (14450688)
I0221 17:16:36.529898  1835 net.cpp:167] Top shape: 72 256 28 28 (14450688)
I0221 17:16:36.529901  1835 net.cpp:167] Top shape: 72 256 28 28 (14450688)
I0221 17:16:36.529904  1835 net.cpp:167] Top shape: 72 256 28 28 (14450688)
I0221 17:16:36.529907  1835 layer_factory.hpp:74] Creating layer inception_3b/1x1
I0221 17:16:36.529912  1835 net.cpp:96] Creating Layer inception_3b/1x1
I0221 17:16:36.529916  1835 net.cpp:459] inception_3b/1x1 <- inception_3a/output_inception_3a/output_0_split_0
I0221 17:16:36.529919  1835 net.cpp:415] inception_3b/1x1 -> inception_3b/1x1
I0221 17:16:36.529923  1835 net.cpp:160] Setting up inception_3b/1x1
I0221 17:16:36.530005  1835 net.cpp:167] Top shape: 72 64 28 28 (3612672)
I0221 17:16:36.530010  1835 layer_factory.hpp:74] Creating layer inception_3b/1x1_bn
I0221 17:16:36.530019  1835 layer_factory.cpp:177] Layer inception_3b/1x1_bn is using CAFFE engine.
I0221 17:16:36.530024  1835 net.cpp:96] Creating Layer inception_3b/1x1_bn
I0221 17:16:36.530026  1835 net.cpp:459] inception_3b/1x1_bn <- inception_3b/1x1
I0221 17:16:36.530030  1835 net.cpp:415] inception_3b/1x1_bn -> inception_3b/1x1_bn
I0221 17:16:36.530035  1835 net.cpp:160] Setting up inception_3b/1x1_bn
I0221 17:16:36.530043  1835 net.cpp:167] Top shape: 72 64 28 28 (3612672)
I0221 17:16:36.530051  1835 layer_factory.hpp:74] Creating layer inception_3b/relu_1x1
I0221 17:16:36.530056  1835 net.cpp:96] Creating Layer inception_3b/relu_1x1
I0221 17:16:36.530059  1835 net.cpp:459] inception_3b/relu_1x1 <- inception_3b/1x1_bn
I0221 17:16:36.530062  1835 net.cpp:404] inception_3b/relu_1x1 -> inception_3b/1x1_bn (in-place)
I0221 17:16:36.530066  1835 net.cpp:160] Setting up inception_3b/relu_1x1
I0221 17:16:36.530069  1835 net.cpp:167] Top shape: 72 64 28 28 (3612672)
I0221 17:16:36.530072  1835 layer_factory.hpp:74] Creating layer inception_3b/3x3_reduce
I0221 17:16:36.530077  1835 net.cpp:96] Creating Layer inception_3b/3x3_reduce
I0221 17:16:36.530081  1835 net.cpp:459] inception_3b/3x3_reduce <- inception_3a/output_inception_3a/output_0_split_1
I0221 17:16:36.530084  1835 net.cpp:415] inception_3b/3x3_reduce -> inception_3b/3x3_reduce
I0221 17:16:36.530089  1835 net.cpp:160] Setting up inception_3b/3x3_reduce
I0221 17:16:36.530184  1835 net.cpp:167] Top shape: 72 64 28 28 (3612672)
I0221 17:16:36.530191  1835 layer_factory.hpp:74] Creating layer inception_3b/3x3_reduce_bn
I0221 17:16:36.530194  1835 layer_factory.cpp:177] Layer inception_3b/3x3_reduce_bn is using CAFFE engine.
I0221 17:16:36.530200  1835 net.cpp:96] Creating Layer inception_3b/3x3_reduce_bn
I0221 17:16:36.530202  1835 net.cpp:459] inception_3b/3x3_reduce_bn <- inception_3b/3x3_reduce
I0221 17:16:36.530206  1835 net.cpp:415] inception_3b/3x3_reduce_bn -> inception_3b/3x3_reduce_bn
I0221 17:16:36.530211  1835 net.cpp:160] Setting up inception_3b/3x3_reduce_bn
I0221 17:16:36.530220  1835 net.cpp:167] Top shape: 72 64 28 28 (3612672)
I0221 17:16:36.530225  1835 layer_factory.hpp:74] Creating layer inception_3b/relu_3x3_reduce
I0221 17:16:36.530230  1835 net.cpp:96] Creating Layer inception_3b/relu_3x3_reduce
I0221 17:16:36.530232  1835 net.cpp:459] inception_3b/relu_3x3_reduce <- inception_3b/3x3_reduce_bn
I0221 17:16:36.530236  1835 net.cpp:404] inception_3b/relu_3x3_reduce -> inception_3b/3x3_reduce_bn (in-place)
I0221 17:16:36.530239  1835 net.cpp:160] Setting up inception_3b/relu_3x3_reduce
I0221 17:16:36.530242  1835 net.cpp:167] Top shape: 72 64 28 28 (3612672)
I0221 17:16:36.530246  1835 layer_factory.hpp:74] Creating layer inception_3b/3x3
I0221 17:16:36.530251  1835 net.cpp:96] Creating Layer inception_3b/3x3
I0221 17:16:36.530253  1835 net.cpp:459] inception_3b/3x3 <- inception_3b/3x3_reduce_bn
I0221 17:16:36.530257  1835 net.cpp:415] inception_3b/3x3 -> inception_3b/3x3
I0221 17:16:36.530261  1835 net.cpp:160] Setting up inception_3b/3x3
I0221 17:16:36.530521  1835 net.cpp:167] Top shape: 72 96 28 28 (5419008)
I0221 17:16:36.530526  1835 layer_factory.hpp:74] Creating layer inception_3b/3x3_bn
I0221 17:16:36.530529  1835 layer_factory.cpp:177] Layer inception_3b/3x3_bn is using CAFFE engine.
I0221 17:16:36.530534  1835 net.cpp:96] Creating Layer inception_3b/3x3_bn
I0221 17:16:36.530537  1835 net.cpp:459] inception_3b/3x3_bn <- inception_3b/3x3
I0221 17:16:36.530542  1835 net.cpp:415] inception_3b/3x3_bn -> inception_3b/3x3_bn
I0221 17:16:36.530546  1835 net.cpp:160] Setting up inception_3b/3x3_bn
I0221 17:16:36.530556  1835 net.cpp:167] Top shape: 72 96 28 28 (5419008)
I0221 17:16:36.530561  1835 layer_factory.hpp:74] Creating layer inception_3b/relu_3x3
I0221 17:16:36.530565  1835 net.cpp:96] Creating Layer inception_3b/relu_3x3
I0221 17:16:36.530568  1835 net.cpp:459] inception_3b/relu_3x3 <- inception_3b/3x3_bn
I0221 17:16:36.530572  1835 net.cpp:404] inception_3b/relu_3x3 -> inception_3b/3x3_bn (in-place)
I0221 17:16:36.530578  1835 net.cpp:160] Setting up inception_3b/relu_3x3
I0221 17:16:36.530586  1835 net.cpp:167] Top shape: 72 96 28 28 (5419008)
I0221 17:16:36.530588  1835 layer_factory.hpp:74] Creating layer inception_3b/double_3x3_reduce
I0221 17:16:36.530592  1835 net.cpp:96] Creating Layer inception_3b/double_3x3_reduce
I0221 17:16:36.530596  1835 net.cpp:459] inception_3b/double_3x3_reduce <- inception_3a/output_inception_3a/output_0_split_2
I0221 17:16:36.530599  1835 net.cpp:415] inception_3b/double_3x3_reduce -> inception_3b/double_3x3_reduce
I0221 17:16:36.530604  1835 net.cpp:160] Setting up inception_3b/double_3x3_reduce
I0221 17:16:36.530691  1835 net.cpp:167] Top shape: 72 64 28 28 (3612672)
I0221 17:16:36.530696  1835 layer_factory.hpp:74] Creating layer inception_3b/double_3x3_reduce_bn
I0221 17:16:36.530699  1835 layer_factory.cpp:177] Layer inception_3b/double_3x3_reduce_bn is using CAFFE engine.
I0221 17:16:36.530704  1835 net.cpp:96] Creating Layer inception_3b/double_3x3_reduce_bn
I0221 17:16:36.530709  1835 net.cpp:459] inception_3b/double_3x3_reduce_bn <- inception_3b/double_3x3_reduce
I0221 17:16:36.530712  1835 net.cpp:415] inception_3b/double_3x3_reduce_bn -> inception_3b/double_3x3_reduce_bn
I0221 17:16:36.530717  1835 net.cpp:160] Setting up inception_3b/double_3x3_reduce_bn
I0221 17:16:36.530726  1835 net.cpp:167] Top shape: 72 64 28 28 (3612672)
I0221 17:16:36.530732  1835 layer_factory.hpp:74] Creating layer inception_3b/relu_double_3x3_reduce
I0221 17:16:36.530736  1835 net.cpp:96] Creating Layer inception_3b/relu_double_3x3_reduce
I0221 17:16:36.530740  1835 net.cpp:459] inception_3b/relu_double_3x3_reduce <- inception_3b/double_3x3_reduce_bn
I0221 17:16:36.530743  1835 net.cpp:404] inception_3b/relu_double_3x3_reduce -> inception_3b/double_3x3_reduce_bn (in-place)
I0221 17:16:36.530746  1835 net.cpp:160] Setting up inception_3b/relu_double_3x3_reduce
I0221 17:16:36.530750  1835 net.cpp:167] Top shape: 72 64 28 28 (3612672)
I0221 17:16:36.530752  1835 layer_factory.hpp:74] Creating layer inception_3b/double_3x3_1
I0221 17:16:36.530758  1835 net.cpp:96] Creating Layer inception_3b/double_3x3_1
I0221 17:16:36.530761  1835 net.cpp:459] inception_3b/double_3x3_1 <- inception_3b/double_3x3_reduce_bn
I0221 17:16:36.530766  1835 net.cpp:415] inception_3b/double_3x3_1 -> inception_3b/double_3x3_1
I0221 17:16:36.530769  1835 net.cpp:160] Setting up inception_3b/double_3x3_1
I0221 17:16:36.531044  1835 net.cpp:167] Top shape: 72 96 28 28 (5419008)
I0221 17:16:36.531049  1835 layer_factory.hpp:74] Creating layer inception_3b/double_3x3_1_bn
I0221 17:16:36.531054  1835 layer_factory.cpp:177] Layer inception_3b/double_3x3_1_bn is using CAFFE engine.
I0221 17:16:36.531057  1835 net.cpp:96] Creating Layer inception_3b/double_3x3_1_bn
I0221 17:16:36.531060  1835 net.cpp:459] inception_3b/double_3x3_1_bn <- inception_3b/double_3x3_1
I0221 17:16:36.531066  1835 net.cpp:415] inception_3b/double_3x3_1_bn -> inception_3b/double_3x3_1_bn
I0221 17:16:36.531070  1835 net.cpp:160] Setting up inception_3b/double_3x3_1_bn
I0221 17:16:36.531080  1835 net.cpp:167] Top shape: 72 96 28 28 (5419008)
I0221 17:16:36.531085  1835 layer_factory.hpp:74] Creating layer inception_3b/relu_double_3x3_1
I0221 17:16:36.531090  1835 net.cpp:96] Creating Layer inception_3b/relu_double_3x3_1
I0221 17:16:36.531093  1835 net.cpp:459] inception_3b/relu_double_3x3_1 <- inception_3b/double_3x3_1_bn
I0221 17:16:36.531097  1835 net.cpp:404] inception_3b/relu_double_3x3_1 -> inception_3b/double_3x3_1_bn (in-place)
I0221 17:16:36.531100  1835 net.cpp:160] Setting up inception_3b/relu_double_3x3_1
I0221 17:16:36.531105  1835 net.cpp:167] Top shape: 72 96 28 28 (5419008)
I0221 17:16:36.531106  1835 layer_factory.hpp:74] Creating layer inception_3b/double_3x3_2
I0221 17:16:36.531112  1835 net.cpp:96] Creating Layer inception_3b/double_3x3_2
I0221 17:16:36.531114  1835 net.cpp:459] inception_3b/double_3x3_2 <- inception_3b/double_3x3_1_bn
I0221 17:16:36.531119  1835 net.cpp:415] inception_3b/double_3x3_2 -> inception_3b/double_3x3_2
I0221 17:16:36.531126  1835 net.cpp:160] Setting up inception_3b/double_3x3_2
I0221 17:16:36.531543  1835 net.cpp:167] Top shape: 72 96 28 28 (5419008)
I0221 17:16:36.531548  1835 layer_factory.hpp:74] Creating layer inception_3b/double_3x3_2_bn
I0221 17:16:36.531551  1835 layer_factory.cpp:177] Layer inception_3b/double_3x3_2_bn is using CAFFE engine.
I0221 17:16:36.531556  1835 net.cpp:96] Creating Layer inception_3b/double_3x3_2_bn
I0221 17:16:36.531559  1835 net.cpp:459] inception_3b/double_3x3_2_bn <- inception_3b/double_3x3_2
I0221 17:16:36.531564  1835 net.cpp:415] inception_3b/double_3x3_2_bn -> inception_3b/double_3x3_2_bn
I0221 17:16:36.531569  1835 net.cpp:160] Setting up inception_3b/double_3x3_2_bn
I0221 17:16:36.531579  1835 net.cpp:167] Top shape: 72 96 28 28 (5419008)
I0221 17:16:36.531584  1835 layer_factory.hpp:74] Creating layer inception_3b/relu_double_3x3_2
I0221 17:16:36.531589  1835 net.cpp:96] Creating Layer inception_3b/relu_double_3x3_2
I0221 17:16:36.531591  1835 net.cpp:459] inception_3b/relu_double_3x3_2 <- inception_3b/double_3x3_2_bn
I0221 17:16:36.531594  1835 net.cpp:404] inception_3b/relu_double_3x3_2 -> inception_3b/double_3x3_2_bn (in-place)
I0221 17:16:36.531599  1835 net.cpp:160] Setting up inception_3b/relu_double_3x3_2
I0221 17:16:36.531601  1835 net.cpp:167] Top shape: 72 96 28 28 (5419008)
I0221 17:16:36.531605  1835 layer_factory.hpp:74] Creating layer inception_3b/pool
I0221 17:16:36.531610  1835 net.cpp:96] Creating Layer inception_3b/pool
I0221 17:16:36.531613  1835 net.cpp:459] inception_3b/pool <- inception_3a/output_inception_3a/output_0_split_3
I0221 17:16:36.531617  1835 net.cpp:415] inception_3b/pool -> inception_3b/pool
I0221 17:16:36.531621  1835 net.cpp:160] Setting up inception_3b/pool
I0221 17:16:36.531626  1835 net.cpp:167] Top shape: 72 256 28 28 (14450688)
I0221 17:16:36.531628  1835 layer_factory.hpp:74] Creating layer inception_3b/pool_proj
I0221 17:16:36.531635  1835 net.cpp:96] Creating Layer inception_3b/pool_proj
I0221 17:16:36.531637  1835 net.cpp:459] inception_3b/pool_proj <- inception_3b/pool
I0221 17:16:36.531641  1835 net.cpp:415] inception_3b/pool_proj -> inception_3b/pool_proj
I0221 17:16:36.531646  1835 net.cpp:160] Setting up inception_3b/pool_proj
I0221 17:16:36.531731  1835 net.cpp:167] Top shape: 72 64 28 28 (3612672)
I0221 17:16:36.531736  1835 layer_factory.hpp:74] Creating layer inception_3b/pool_proj_bn
I0221 17:16:36.531739  1835 layer_factory.cpp:177] Layer inception_3b/pool_proj_bn is using CAFFE engine.
I0221 17:16:36.531744  1835 net.cpp:96] Creating Layer inception_3b/pool_proj_bn
I0221 17:16:36.531747  1835 net.cpp:459] inception_3b/pool_proj_bn <- inception_3b/pool_proj
I0221 17:16:36.531752  1835 net.cpp:415] inception_3b/pool_proj_bn -> inception_3b/pool_proj_bn
I0221 17:16:36.531756  1835 net.cpp:160] Setting up inception_3b/pool_proj_bn
I0221 17:16:36.531766  1835 net.cpp:167] Top shape: 72 64 28 28 (3612672)
I0221 17:16:36.531771  1835 layer_factory.hpp:74] Creating layer inception_3b/relu_pool_proj
I0221 17:16:36.531776  1835 net.cpp:96] Creating Layer inception_3b/relu_pool_proj
I0221 17:16:36.531780  1835 net.cpp:459] inception_3b/relu_pool_proj <- inception_3b/pool_proj_bn
I0221 17:16:36.531782  1835 net.cpp:404] inception_3b/relu_pool_proj -> inception_3b/pool_proj_bn (in-place)
I0221 17:16:36.531786  1835 net.cpp:160] Setting up inception_3b/relu_pool_proj
I0221 17:16:36.531790  1835 net.cpp:167] Top shape: 72 64 28 28 (3612672)
I0221 17:16:36.531792  1835 layer_factory.hpp:74] Creating layer inception_3b/output
I0221 17:16:36.531796  1835 net.cpp:96] Creating Layer inception_3b/output
I0221 17:16:36.531800  1835 net.cpp:459] inception_3b/output <- inception_3b/1x1_bn
I0221 17:16:36.531803  1835 net.cpp:459] inception_3b/output <- inception_3b/3x3_bn
I0221 17:16:36.531806  1835 net.cpp:459] inception_3b/output <- inception_3b/double_3x3_2_bn
I0221 17:16:36.531810  1835 net.cpp:459] inception_3b/output <- inception_3b/pool_proj_bn
I0221 17:16:36.531813  1835 net.cpp:415] inception_3b/output -> inception_3b/output
I0221 17:16:36.531817  1835 net.cpp:160] Setting up inception_3b/output
I0221 17:16:36.531826  1835 net.cpp:167] Top shape: 72 320 28 28 (18063360)
I0221 17:16:36.531828  1835 layer_factory.hpp:74] Creating layer inception_3b/output_inception_3b/output_0_split
I0221 17:16:36.531834  1835 net.cpp:96] Creating Layer inception_3b/output_inception_3b/output_0_split
I0221 17:16:36.531837  1835 net.cpp:459] inception_3b/output_inception_3b/output_0_split <- inception_3b/output
I0221 17:16:36.531841  1835 net.cpp:415] inception_3b/output_inception_3b/output_0_split -> inception_3b/output_inception_3b/output_0_split_0
I0221 17:16:36.531846  1835 net.cpp:415] inception_3b/output_inception_3b/output_0_split -> inception_3b/output_inception_3b/output_0_split_1
I0221 17:16:36.531849  1835 net.cpp:415] inception_3b/output_inception_3b/output_0_split -> inception_3b/output_inception_3b/output_0_split_2
I0221 17:16:36.531854  1835 net.cpp:160] Setting up inception_3b/output_inception_3b/output_0_split
I0221 17:16:36.531858  1835 net.cpp:167] Top shape: 72 320 28 28 (18063360)
I0221 17:16:36.531862  1835 net.cpp:167] Top shape: 72 320 28 28 (18063360)
I0221 17:16:36.531865  1835 net.cpp:167] Top shape: 72 320 28 28 (18063360)
I0221 17:16:36.531867  1835 layer_factory.hpp:74] Creating layer inception_3c/3x3_reduce
I0221 17:16:36.531872  1835 net.cpp:96] Creating Layer inception_3c/3x3_reduce
I0221 17:16:36.531875  1835 net.cpp:459] inception_3c/3x3_reduce <- inception_3b/output_inception_3b/output_0_split_0
I0221 17:16:36.531880  1835 net.cpp:415] inception_3c/3x3_reduce -> inception_3c/3x3_reduce
I0221 17:16:36.531884  1835 net.cpp:160] Setting up inception_3c/3x3_reduce
I0221 17:16:36.532093  1835 net.cpp:167] Top shape: 72 128 28 28 (7225344)
I0221 17:16:36.532097  1835 layer_factory.hpp:74] Creating layer inception_3c/3x3_reduce_bn
I0221 17:16:36.532100  1835 layer_factory.cpp:177] Layer inception_3c/3x3_reduce_bn is using CAFFE engine.
I0221 17:16:36.532105  1835 net.cpp:96] Creating Layer inception_3c/3x3_reduce_bn
I0221 17:16:36.532109  1835 net.cpp:459] inception_3c/3x3_reduce_bn <- inception_3c/3x3_reduce
I0221 17:16:36.532114  1835 net.cpp:415] inception_3c/3x3_reduce_bn -> inception_3c/3x3_reduce_bn
I0221 17:16:36.532117  1835 net.cpp:160] Setting up inception_3c/3x3_reduce_bn
I0221 17:16:36.532129  1835 net.cpp:167] Top shape: 72 128 28 28 (7225344)
I0221 17:16:36.532133  1835 layer_factory.hpp:74] Creating layer inception_3c/relu_3x3_reduce
I0221 17:16:36.532140  1835 net.cpp:96] Creating Layer inception_3c/relu_3x3_reduce
I0221 17:16:36.532145  1835 net.cpp:459] inception_3c/relu_3x3_reduce <- inception_3c/3x3_reduce_bn
I0221 17:16:36.532147  1835 net.cpp:404] inception_3c/relu_3x3_reduce -> inception_3c/3x3_reduce_bn (in-place)
I0221 17:16:36.532151  1835 net.cpp:160] Setting up inception_3c/relu_3x3_reduce
I0221 17:16:36.532155  1835 net.cpp:167] Top shape: 72 128 28 28 (7225344)
I0221 17:16:36.532158  1835 layer_factory.hpp:74] Creating layer inception_3c/3x3
I0221 17:16:36.532162  1835 net.cpp:96] Creating Layer inception_3c/3x3
I0221 17:16:36.532166  1835 net.cpp:459] inception_3c/3x3 <- inception_3c/3x3_reduce_bn
I0221 17:16:36.532171  1835 net.cpp:415] inception_3c/3x3 -> inception_3c/3x3
I0221 17:16:36.532174  1835 net.cpp:160] Setting up inception_3c/3x3
I0221 17:16:36.533077  1835 net.cpp:167] Top shape: 72 160 14 14 (2257920)
I0221 17:16:36.533082  1835 layer_factory.hpp:74] Creating layer inception_3c/3x3_bn
I0221 17:16:36.533085  1835 layer_factory.cpp:177] Layer inception_3c/3x3_bn is using CAFFE engine.
I0221 17:16:36.533092  1835 net.cpp:96] Creating Layer inception_3c/3x3_bn
I0221 17:16:36.533094  1835 net.cpp:459] inception_3c/3x3_bn <- inception_3c/3x3
I0221 17:16:36.533098  1835 net.cpp:415] inception_3c/3x3_bn -> inception_3c/3x3_bn
I0221 17:16:36.533104  1835 net.cpp:160] Setting up inception_3c/3x3_bn
I0221 17:16:36.533113  1835 net.cpp:167] Top shape: 72 160 14 14 (2257920)
I0221 17:16:36.533118  1835 layer_factory.hpp:74] Creating layer inception_3c/relu_3x3
I0221 17:16:36.533123  1835 net.cpp:96] Creating Layer inception_3c/relu_3x3
I0221 17:16:36.533129  1835 net.cpp:459] inception_3c/relu_3x3 <- inception_3c/3x3_bn
I0221 17:16:36.533135  1835 net.cpp:404] inception_3c/relu_3x3 -> inception_3c/3x3_bn (in-place)
I0221 17:16:36.533139  1835 net.cpp:160] Setting up inception_3c/relu_3x3
I0221 17:16:36.533143  1835 net.cpp:167] Top shape: 72 160 14 14 (2257920)
I0221 17:16:36.533145  1835 layer_factory.hpp:74] Creating layer inception_3c/double_3x3_reduce
I0221 17:16:36.533151  1835 net.cpp:96] Creating Layer inception_3c/double_3x3_reduce
I0221 17:16:36.533154  1835 net.cpp:459] inception_3c/double_3x3_reduce <- inception_3b/output_inception_3b/output_0_split_1
I0221 17:16:36.533159  1835 net.cpp:415] inception_3c/double_3x3_reduce -> inception_3c/double_3x3_reduce
I0221 17:16:36.533162  1835 net.cpp:160] Setting up inception_3c/double_3x3_reduce
I0221 17:16:36.533268  1835 net.cpp:167] Top shape: 72 64 28 28 (3612672)
I0221 17:16:36.533273  1835 layer_factory.hpp:74] Creating layer inception_3c/double_3x3_reduce_bn
I0221 17:16:36.533277  1835 layer_factory.cpp:177] Layer inception_3c/double_3x3_reduce_bn is using CAFFE engine.
I0221 17:16:36.533282  1835 net.cpp:96] Creating Layer inception_3c/double_3x3_reduce_bn
I0221 17:16:36.533285  1835 net.cpp:459] inception_3c/double_3x3_reduce_bn <- inception_3c/double_3x3_reduce
I0221 17:16:36.533290  1835 net.cpp:415] inception_3c/double_3x3_reduce_bn -> inception_3c/double_3x3_reduce_bn
I0221 17:16:36.533295  1835 net.cpp:160] Setting up inception_3c/double_3x3_reduce_bn
I0221 17:16:36.533305  1835 net.cpp:167] Top shape: 72 64 28 28 (3612672)
I0221 17:16:36.533313  1835 layer_factory.hpp:74] Creating layer inception_3c/relu_double_3x3_reduce
I0221 17:16:36.533316  1835 net.cpp:96] Creating Layer inception_3c/relu_double_3x3_reduce
I0221 17:16:36.533319  1835 net.cpp:459] inception_3c/relu_double_3x3_reduce <- inception_3c/double_3x3_reduce_bn
I0221 17:16:36.533323  1835 net.cpp:404] inception_3c/relu_double_3x3_reduce -> inception_3c/double_3x3_reduce_bn (in-place)
I0221 17:16:36.533326  1835 net.cpp:160] Setting up inception_3c/relu_double_3x3_reduce
I0221 17:16:36.533329  1835 net.cpp:167] Top shape: 72 64 28 28 (3612672)
I0221 17:16:36.533332  1835 layer_factory.hpp:74] Creating layer inception_3c/double_3x3_1
I0221 17:16:36.533336  1835 net.cpp:96] Creating Layer inception_3c/double_3x3_1
I0221 17:16:36.533339  1835 net.cpp:459] inception_3c/double_3x3_1 <- inception_3c/double_3x3_reduce_bn
I0221 17:16:36.533344  1835 net.cpp:415] inception_3c/double_3x3_1 -> inception_3c/double_3x3_1
I0221 17:16:36.533349  1835 net.cpp:160] Setting up inception_3c/double_3x3_1
I0221 17:16:36.533624  1835 net.cpp:167] Top shape: 72 96 28 28 (5419008)
I0221 17:16:36.533629  1835 layer_factory.hpp:74] Creating layer inception_3c/double_3x3_1_bn
I0221 17:16:36.533632  1835 layer_factory.cpp:177] Layer inception_3c/double_3x3_1_bn is using CAFFE engine.
I0221 17:16:36.533638  1835 net.cpp:96] Creating Layer inception_3c/double_3x3_1_bn
I0221 17:16:36.533640  1835 net.cpp:459] inception_3c/double_3x3_1_bn <- inception_3c/double_3x3_1
I0221 17:16:36.533644  1835 net.cpp:415] inception_3c/double_3x3_1_bn -> inception_3c/double_3x3_1_bn
I0221 17:16:36.533648  1835 net.cpp:160] Setting up inception_3c/double_3x3_1_bn
I0221 17:16:36.533658  1835 net.cpp:167] Top shape: 72 96 28 28 (5419008)
I0221 17:16:36.533664  1835 layer_factory.hpp:74] Creating layer inception_3c/relu_double_3x3_1
I0221 17:16:36.533668  1835 net.cpp:96] Creating Layer inception_3c/relu_double_3x3_1
I0221 17:16:36.533670  1835 net.cpp:459] inception_3c/relu_double_3x3_1 <- inception_3c/double_3x3_1_bn
I0221 17:16:36.533674  1835 net.cpp:404] inception_3c/relu_double_3x3_1 -> inception_3c/double_3x3_1_bn (in-place)
I0221 17:16:36.533679  1835 net.cpp:160] Setting up inception_3c/relu_double_3x3_1
I0221 17:16:36.533681  1835 net.cpp:167] Top shape: 72 96 28 28 (5419008)
I0221 17:16:36.533684  1835 layer_factory.hpp:74] Creating layer inception_3c/double_3x3_2
I0221 17:16:36.533690  1835 net.cpp:96] Creating Layer inception_3c/double_3x3_2
I0221 17:16:36.533695  1835 net.cpp:459] inception_3c/double_3x3_2 <- inception_3c/double_3x3_1_bn
I0221 17:16:36.533704  1835 net.cpp:415] inception_3c/double_3x3_2 -> inception_3c/double_3x3_2
I0221 17:16:36.533709  1835 net.cpp:160] Setting up inception_3c/double_3x3_2
I0221 17:16:36.534118  1835 net.cpp:167] Top shape: 72 96 14 14 (1354752)
I0221 17:16:36.534124  1835 layer_factory.hpp:74] Creating layer inception_3c/double_3x3_2_bn
I0221 17:16:36.534127  1835 layer_factory.cpp:177] Layer inception_3c/double_3x3_2_bn is using CAFFE engine.
I0221 17:16:36.534132  1835 net.cpp:96] Creating Layer inception_3c/double_3x3_2_bn
I0221 17:16:36.534135  1835 net.cpp:459] inception_3c/double_3x3_2_bn <- inception_3c/double_3x3_2
I0221 17:16:36.534139  1835 net.cpp:415] inception_3c/double_3x3_2_bn -> inception_3c/double_3x3_2_bn
I0221 17:16:36.534143  1835 net.cpp:160] Setting up inception_3c/double_3x3_2_bn
I0221 17:16:36.534153  1835 net.cpp:167] Top shape: 72 96 14 14 (1354752)
I0221 17:16:36.534169  1835 layer_factory.hpp:74] Creating layer inception_3c/relu_double_3x3_2
I0221 17:16:36.534174  1835 net.cpp:96] Creating Layer inception_3c/relu_double_3x3_2
I0221 17:16:36.534178  1835 net.cpp:459] inception_3c/relu_double_3x3_2 <- inception_3c/double_3x3_2_bn
I0221 17:16:36.534181  1835 net.cpp:404] inception_3c/relu_double_3x3_2 -> inception_3c/double_3x3_2_bn (in-place)
I0221 17:16:36.534185  1835 net.cpp:160] Setting up inception_3c/relu_double_3x3_2
I0221 17:16:36.534188  1835 net.cpp:167] Top shape: 72 96 14 14 (1354752)
I0221 17:16:36.534191  1835 layer_factory.hpp:74] Creating layer inception_3c/pool
I0221 17:16:36.534195  1835 net.cpp:96] Creating Layer inception_3c/pool
I0221 17:16:36.534198  1835 net.cpp:459] inception_3c/pool <- inception_3b/output_inception_3b/output_0_split_2
I0221 17:16:36.534204  1835 net.cpp:415] inception_3c/pool -> inception_3c/pool
I0221 17:16:36.534210  1835 net.cpp:160] Setting up inception_3c/pool
I0221 17:16:36.534215  1835 net.cpp:167] Top shape: 72 320 14 14 (4515840)
I0221 17:16:36.534219  1835 layer_factory.hpp:74] Creating layer inception_3c/output
I0221 17:16:36.534222  1835 net.cpp:96] Creating Layer inception_3c/output
I0221 17:16:36.534225  1835 net.cpp:459] inception_3c/output <- inception_3c/3x3_bn
I0221 17:16:36.534229  1835 net.cpp:459] inception_3c/output <- inception_3c/double_3x3_2_bn
I0221 17:16:36.534232  1835 net.cpp:459] inception_3c/output <- inception_3c/pool
I0221 17:16:36.534236  1835 net.cpp:415] inception_3c/output -> inception_3c/output
I0221 17:16:36.534240  1835 net.cpp:160] Setting up inception_3c/output
I0221 17:16:36.534245  1835 net.cpp:167] Top shape: 72 576 14 14 (8128512)
I0221 17:16:36.534246  1835 layer_factory.hpp:74] Creating layer inception_3c/output_inception_3c/output_0_split
I0221 17:16:36.534251  1835 net.cpp:96] Creating Layer inception_3c/output_inception_3c/output_0_split
I0221 17:16:36.534255  1835 net.cpp:459] inception_3c/output_inception_3c/output_0_split <- inception_3c/output
I0221 17:16:36.534258  1835 net.cpp:415] inception_3c/output_inception_3c/output_0_split -> inception_3c/output_inception_3c/output_0_split_0
I0221 17:16:36.534263  1835 net.cpp:415] inception_3c/output_inception_3c/output_0_split -> inception_3c/output_inception_3c/output_0_split_1
I0221 17:16:36.534268  1835 net.cpp:415] inception_3c/output_inception_3c/output_0_split -> inception_3c/output_inception_3c/output_0_split_2
I0221 17:16:36.534272  1835 net.cpp:415] inception_3c/output_inception_3c/output_0_split -> inception_3c/output_inception_3c/output_0_split_3
I0221 17:16:36.534276  1835 net.cpp:160] Setting up inception_3c/output_inception_3c/output_0_split
I0221 17:16:36.534281  1835 net.cpp:167] Top shape: 72 576 14 14 (8128512)
I0221 17:16:36.534283  1835 net.cpp:167] Top shape: 72 576 14 14 (8128512)
I0221 17:16:36.534286  1835 net.cpp:167] Top shape: 72 576 14 14 (8128512)
I0221 17:16:36.534289  1835 net.cpp:167] Top shape: 72 576 14 14 (8128512)
I0221 17:16:36.534292  1835 layer_factory.hpp:74] Creating layer inception_4a/1x1
I0221 17:16:36.534297  1835 net.cpp:96] Creating Layer inception_4a/1x1
I0221 17:16:36.534306  1835 net.cpp:459] inception_4a/1x1 <- inception_3c/output_inception_3c/output_0_split_0
I0221 17:16:36.534312  1835 net.cpp:415] inception_4a/1x1 -> inception_4a/1x1
I0221 17:16:36.534317  1835 net.cpp:160] Setting up inception_4a/1x1
I0221 17:16:36.534948  1835 net.cpp:167] Top shape: 72 224 14 14 (3161088)
I0221 17:16:36.534955  1835 layer_factory.hpp:74] Creating layer inception_4a/1x1_bn
I0221 17:16:36.534957  1835 layer_factory.cpp:177] Layer inception_4a/1x1_bn is using CAFFE engine.
I0221 17:16:36.534965  1835 net.cpp:96] Creating Layer inception_4a/1x1_bn
I0221 17:16:36.534967  1835 net.cpp:459] inception_4a/1x1_bn <- inception_4a/1x1
I0221 17:16:36.534972  1835 net.cpp:415] inception_4a/1x1_bn -> inception_4a/1x1_bn
I0221 17:16:36.534976  1835 net.cpp:160] Setting up inception_4a/1x1_bn
I0221 17:16:36.534987  1835 net.cpp:167] Top shape: 72 224 14 14 (3161088)
I0221 17:16:36.534992  1835 layer_factory.hpp:74] Creating layer inception_4a/relu_1x1
I0221 17:16:36.534996  1835 net.cpp:96] Creating Layer inception_4a/relu_1x1
I0221 17:16:36.534999  1835 net.cpp:459] inception_4a/relu_1x1 <- inception_4a/1x1_bn
I0221 17:16:36.535002  1835 net.cpp:404] inception_4a/relu_1x1 -> inception_4a/1x1_bn (in-place)
I0221 17:16:36.535006  1835 net.cpp:160] Setting up inception_4a/relu_1x1
I0221 17:16:36.535009  1835 net.cpp:167] Top shape: 72 224 14 14 (3161088)
I0221 17:16:36.535012  1835 layer_factory.hpp:74] Creating layer inception_4a/3x3_reduce
I0221 17:16:36.535017  1835 net.cpp:96] Creating Layer inception_4a/3x3_reduce
I0221 17:16:36.535020  1835 net.cpp:459] inception_4a/3x3_reduce <- inception_3c/output_inception_3c/output_0_split_1
I0221 17:16:36.535025  1835 net.cpp:415] inception_4a/3x3_reduce -> inception_4a/3x3_reduce
I0221 17:16:36.535030  1835 net.cpp:160] Setting up inception_4a/3x3_reduce
I0221 17:16:36.535215  1835 net.cpp:167] Top shape: 72 64 14 14 (903168)
I0221 17:16:36.535221  1835 layer_factory.hpp:74] Creating layer inception_4a/3x3_reduce_bn
I0221 17:16:36.535224  1835 layer_factory.cpp:177] Layer inception_4a/3x3_reduce_bn is using CAFFE engine.
I0221 17:16:36.535229  1835 net.cpp:96] Creating Layer inception_4a/3x3_reduce_bn
I0221 17:16:36.535233  1835 net.cpp:459] inception_4a/3x3_reduce_bn <- inception_4a/3x3_reduce
I0221 17:16:36.535238  1835 net.cpp:415] inception_4a/3x3_reduce_bn -> inception_4a/3x3_reduce_bn
I0221 17:16:36.535241  1835 net.cpp:160] Setting up inception_4a/3x3_reduce_bn
I0221 17:16:36.535251  1835 net.cpp:167] Top shape: 72 64 14 14 (903168)
I0221 17:16:36.535256  1835 layer_factory.hpp:74] Creating layer inception_4a/relu_3x3_reduce
I0221 17:16:36.535260  1835 net.cpp:96] Creating Layer inception_4a/relu_3x3_reduce
I0221 17:16:36.535264  1835 net.cpp:459] inception_4a/relu_3x3_reduce <- inception_4a/3x3_reduce_bn
I0221 17:16:36.535267  1835 net.cpp:404] inception_4a/relu_3x3_reduce -> inception_4a/3x3_reduce_bn (in-place)
I0221 17:16:36.535271  1835 net.cpp:160] Setting up inception_4a/relu_3x3_reduce
I0221 17:16:36.535274  1835 net.cpp:167] Top shape: 72 64 14 14 (903168)
I0221 17:16:36.535277  1835 layer_factory.hpp:74] Creating layer inception_4a/3x3
I0221 17:16:36.535282  1835 net.cpp:96] Creating Layer inception_4a/3x3
I0221 17:16:36.535285  1835 net.cpp:459] inception_4a/3x3 <- inception_4a/3x3_reduce_bn
I0221 17:16:36.535290  1835 net.cpp:415] inception_4a/3x3 -> inception_4a/3x3
I0221 17:16:36.535295  1835 net.cpp:160] Setting up inception_4a/3x3
I0221 17:16:36.535571  1835 net.cpp:167] Top shape: 72 96 14 14 (1354752)
I0221 17:16:36.535578  1835 layer_factory.hpp:74] Creating layer inception_4a/3x3_bn
I0221 17:16:36.535580  1835 layer_factory.cpp:177] Layer inception_4a/3x3_bn is using CAFFE engine.
I0221 17:16:36.535585  1835 net.cpp:96] Creating Layer inception_4a/3x3_bn
I0221 17:16:36.535588  1835 net.cpp:459] inception_4a/3x3_bn <- inception_4a/3x3
I0221 17:16:36.535593  1835 net.cpp:415] inception_4a/3x3_bn -> inception_4a/3x3_bn
I0221 17:16:36.535598  1835 net.cpp:160] Setting up inception_4a/3x3_bn
I0221 17:16:36.535609  1835 net.cpp:167] Top shape: 72 96 14 14 (1354752)
I0221 17:16:36.535617  1835 layer_factory.hpp:74] Creating layer inception_4a/relu_3x3
I0221 17:16:36.535622  1835 net.cpp:96] Creating Layer inception_4a/relu_3x3
I0221 17:16:36.535625  1835 net.cpp:459] inception_4a/relu_3x3 <- inception_4a/3x3_bn
I0221 17:16:36.535629  1835 net.cpp:404] inception_4a/relu_3x3 -> inception_4a/3x3_bn (in-place)
I0221 17:16:36.535634  1835 net.cpp:160] Setting up inception_4a/relu_3x3
I0221 17:16:36.535636  1835 net.cpp:167] Top shape: 72 96 14 14 (1354752)
I0221 17:16:36.535640  1835 layer_factory.hpp:74] Creating layer inception_4a/double_3x3_reduce
I0221 17:16:36.535645  1835 net.cpp:96] Creating Layer inception_4a/double_3x3_reduce
I0221 17:16:36.535647  1835 net.cpp:459] inception_4a/double_3x3_reduce <- inception_3c/output_inception_3c/output_0_split_2
I0221 17:16:36.535651  1835 net.cpp:415] inception_4a/double_3x3_reduce -> inception_4a/double_3x3_reduce
I0221 17:16:36.535655  1835 net.cpp:160] Setting up inception_4a/double_3x3_reduce
I0221 17:16:36.535931  1835 net.cpp:167] Top shape: 72 96 14 14 (1354752)
I0221 17:16:36.535938  1835 layer_factory.hpp:74] Creating layer inception_4a/double_3x3_reduce_bn
I0221 17:16:36.535940  1835 layer_factory.cpp:177] Layer inception_4a/double_3x3_reduce_bn is using CAFFE engine.
I0221 17:16:36.535945  1835 net.cpp:96] Creating Layer inception_4a/double_3x3_reduce_bn
I0221 17:16:36.535948  1835 net.cpp:459] inception_4a/double_3x3_reduce_bn <- inception_4a/double_3x3_reduce
I0221 17:16:36.535953  1835 net.cpp:415] inception_4a/double_3x3_reduce_bn -> inception_4a/double_3x3_reduce_bn
I0221 17:16:36.535958  1835 net.cpp:160] Setting up inception_4a/double_3x3_reduce_bn
I0221 17:16:36.535967  1835 net.cpp:167] Top shape: 72 96 14 14 (1354752)
I0221 17:16:36.535972  1835 layer_factory.hpp:74] Creating layer inception_4a/relu_double_3x3_reduce
I0221 17:16:36.535977  1835 net.cpp:96] Creating Layer inception_4a/relu_double_3x3_reduce
I0221 17:16:36.535980  1835 net.cpp:459] inception_4a/relu_double_3x3_reduce <- inception_4a/double_3x3_reduce_bn
I0221 17:16:36.535984  1835 net.cpp:404] inception_4a/relu_double_3x3_reduce -> inception_4a/double_3x3_reduce_bn (in-place)
I0221 17:16:36.535987  1835 net.cpp:160] Setting up inception_4a/relu_double_3x3_reduce
I0221 17:16:36.535990  1835 net.cpp:167] Top shape: 72 96 14 14 (1354752)
I0221 17:16:36.535993  1835 layer_factory.hpp:74] Creating layer inception_4a/double_3x3_1
I0221 17:16:36.535998  1835 net.cpp:96] Creating Layer inception_4a/double_3x3_1
I0221 17:16:36.536000  1835 net.cpp:459] inception_4a/double_3x3_1 <- inception_4a/double_3x3_reduce_bn
I0221 17:16:36.536005  1835 net.cpp:415] inception_4a/double_3x3_1 -> inception_4a/double_3x3_1
I0221 17:16:36.536010  1835 net.cpp:160] Setting up inception_4a/double_3x3_1
I0221 17:16:36.536600  1835 net.cpp:167] Top shape: 72 128 14 14 (1806336)
I0221 17:16:36.536614  1835 layer_factory.hpp:74] Creating layer inception_4a/double_3x3_1_bn
I0221 17:16:36.536619  1835 layer_factory.cpp:177] Layer inception_4a/double_3x3_1_bn is using CAFFE engine.
I0221 17:16:36.536628  1835 net.cpp:96] Creating Layer inception_4a/double_3x3_1_bn
I0221 17:16:36.536634  1835 net.cpp:459] inception_4a/double_3x3_1_bn <- inception_4a/double_3x3_1
I0221 17:16:36.536643  1835 net.cpp:415] inception_4a/double_3x3_1_bn -> inception_4a/double_3x3_1_bn
I0221 17:16:36.536651  1835 net.cpp:160] Setting up inception_4a/double_3x3_1_bn
I0221 17:16:36.536669  1835 net.cpp:167] Top shape: 72 128 14 14 (1806336)
I0221 17:16:36.536677  1835 layer_factory.hpp:74] Creating layer inception_4a/relu_double_3x3_1
I0221 17:16:36.536685  1835 net.cpp:96] Creating Layer inception_4a/relu_double_3x3_1
I0221 17:16:36.536690  1835 net.cpp:459] inception_4a/relu_double_3x3_1 <- inception_4a/double_3x3_1_bn
I0221 17:16:36.536696  1835 net.cpp:404] inception_4a/relu_double_3x3_1 -> inception_4a/double_3x3_1_bn (in-place)
I0221 17:16:36.536702  1835 net.cpp:160] Setting up inception_4a/relu_double_3x3_1
I0221 17:16:36.536708  1835 net.cpp:167] Top shape: 72 128 14 14 (1806336)
I0221 17:16:36.536720  1835 layer_factory.hpp:74] Creating layer inception_4a/double_3x3_2
I0221 17:16:36.536730  1835 net.cpp:96] Creating Layer inception_4a/double_3x3_2
I0221 17:16:36.536734  1835 net.cpp:459] inception_4a/double_3x3_2 <- inception_4a/double_3x3_1_bn
I0221 17:16:36.536741  1835 net.cpp:415] inception_4a/double_3x3_2 -> inception_4a/double_3x3_2
I0221 17:16:36.536748  1835 net.cpp:160] Setting up inception_4a/double_3x3_2
I0221 17:16:36.537719  1835 net.cpp:167] Top shape: 72 128 14 14 (1806336)
I0221 17:16:36.537729  1835 layer_factory.hpp:74] Creating layer inception_4a/double_3x3_2_bn
I0221 17:16:36.537734  1835 layer_factory.cpp:177] Layer inception_4a/double_3x3_2_bn is using CAFFE engine.
I0221 17:16:36.537742  1835 net.cpp:96] Creating Layer inception_4a/double_3x3_2_bn
I0221 17:16:36.537747  1835 net.cpp:459] inception_4a/double_3x3_2_bn <- inception_4a/double_3x3_2
I0221 17:16:36.537756  1835 net.cpp:415] inception_4a/double_3x3_2_bn -> inception_4a/double_3x3_2_bn
I0221 17:16:36.537763  1835 net.cpp:160] Setting up inception_4a/double_3x3_2_bn
I0221 17:16:36.537781  1835 net.cpp:167] Top shape: 72 128 14 14 (1806336)
I0221 17:16:36.537788  1835 layer_factory.hpp:74] Creating layer inception_4a/relu_double_3x3_2
I0221 17:16:36.537794  1835 net.cpp:96] Creating Layer inception_4a/relu_double_3x3_2
I0221 17:16:36.537799  1835 net.cpp:459] inception_4a/relu_double_3x3_2 <- inception_4a/double_3x3_2_bn
I0221 17:16:36.537806  1835 net.cpp:404] inception_4a/relu_double_3x3_2 -> inception_4a/double_3x3_2_bn (in-place)
I0221 17:16:36.537811  1835 net.cpp:160] Setting up inception_4a/relu_double_3x3_2
I0221 17:16:36.537817  1835 net.cpp:167] Top shape: 72 128 14 14 (1806336)
I0221 17:16:36.537820  1835 layer_factory.hpp:74] Creating layer inception_4a/pool
I0221 17:16:36.537827  1835 net.cpp:96] Creating Layer inception_4a/pool
I0221 17:16:36.537832  1835 net.cpp:459] inception_4a/pool <- inception_3c/output_inception_3c/output_0_split_3
I0221 17:16:36.537839  1835 net.cpp:415] inception_4a/pool -> inception_4a/pool
I0221 17:16:36.537847  1835 net.cpp:160] Setting up inception_4a/pool
I0221 17:16:36.537853  1835 net.cpp:167] Top shape: 72 576 14 14 (8128512)
I0221 17:16:36.537858  1835 layer_factory.hpp:74] Creating layer inception_4a/pool_proj
I0221 17:16:36.537865  1835 net.cpp:96] Creating Layer inception_4a/pool_proj
I0221 17:16:36.537869  1835 net.cpp:459] inception_4a/pool_proj <- inception_4a/pool
I0221 17:16:36.537876  1835 net.cpp:415] inception_4a/pool_proj -> inception_4a/pool_proj
I0221 17:16:36.537883  1835 net.cpp:160] Setting up inception_4a/pool_proj
I0221 17:16:36.538388  1835 net.cpp:167] Top shape: 72 128 14 14 (1806336)
I0221 17:16:36.538400  1835 layer_factory.hpp:74] Creating layer inception_4a/pool_proj_bn
I0221 17:16:36.538406  1835 layer_factory.cpp:177] Layer inception_4a/pool_proj_bn is using CAFFE engine.
I0221 17:16:36.538415  1835 net.cpp:96] Creating Layer inception_4a/pool_proj_bn
I0221 17:16:36.538420  1835 net.cpp:459] inception_4a/pool_proj_bn <- inception_4a/pool_proj
I0221 17:16:36.538427  1835 net.cpp:415] inception_4a/pool_proj_bn -> inception_4a/pool_proj_bn
I0221 17:16:36.538435  1835 net.cpp:160] Setting up inception_4a/pool_proj_bn
I0221 17:16:36.538452  1835 net.cpp:167] Top shape: 72 128 14 14 (1806336)
I0221 17:16:36.538462  1835 layer_factory.hpp:74] Creating layer inception_4a/relu_pool_proj
I0221 17:16:36.538470  1835 net.cpp:96] Creating Layer inception_4a/relu_pool_proj
I0221 17:16:36.538475  1835 net.cpp:459] inception_4a/relu_pool_proj <- inception_4a/pool_proj_bn
I0221 17:16:36.538480  1835 net.cpp:404] inception_4a/relu_pool_proj -> inception_4a/pool_proj_bn (in-place)
I0221 17:16:36.538486  1835 net.cpp:160] Setting up inception_4a/relu_pool_proj
I0221 17:16:36.538491  1835 net.cpp:167] Top shape: 72 128 14 14 (1806336)
I0221 17:16:36.538496  1835 layer_factory.hpp:74] Creating layer inception_4a/output
I0221 17:16:36.538502  1835 net.cpp:96] Creating Layer inception_4a/output
I0221 17:16:36.538507  1835 net.cpp:459] inception_4a/output <- inception_4a/1x1_bn
I0221 17:16:36.538518  1835 net.cpp:459] inception_4a/output <- inception_4a/3x3_bn
I0221 17:16:36.538522  1835 net.cpp:459] inception_4a/output <- inception_4a/double_3x3_2_bn
I0221 17:16:36.538525  1835 net.cpp:459] inception_4a/output <- inception_4a/pool_proj_bn
I0221 17:16:36.538530  1835 net.cpp:415] inception_4a/output -> inception_4a/output
I0221 17:16:36.538534  1835 net.cpp:160] Setting up inception_4a/output
I0221 17:16:36.538540  1835 net.cpp:167] Top shape: 72 576 14 14 (8128512)
I0221 17:16:36.538542  1835 layer_factory.hpp:74] Creating layer inception_4a/output_inception_4a/output_0_split
I0221 17:16:36.538547  1835 net.cpp:96] Creating Layer inception_4a/output_inception_4a/output_0_split
I0221 17:16:36.538550  1835 net.cpp:459] inception_4a/output_inception_4a/output_0_split <- inception_4a/output
I0221 17:16:36.538553  1835 net.cpp:415] inception_4a/output_inception_4a/output_0_split -> inception_4a/output_inception_4a/output_0_split_0
I0221 17:16:36.538559  1835 net.cpp:415] inception_4a/output_inception_4a/output_0_split -> inception_4a/output_inception_4a/output_0_split_1
I0221 17:16:36.538563  1835 net.cpp:415] inception_4a/output_inception_4a/output_0_split -> inception_4a/output_inception_4a/output_0_split_2
I0221 17:16:36.538568  1835 net.cpp:415] inception_4a/output_inception_4a/output_0_split -> inception_4a/output_inception_4a/output_0_split_3
I0221 17:16:36.538573  1835 net.cpp:160] Setting up inception_4a/output_inception_4a/output_0_split
I0221 17:16:36.538576  1835 net.cpp:167] Top shape: 72 576 14 14 (8128512)
I0221 17:16:36.538579  1835 net.cpp:167] Top shape: 72 576 14 14 (8128512)
I0221 17:16:36.538583  1835 net.cpp:167] Top shape: 72 576 14 14 (8128512)
I0221 17:16:36.538585  1835 net.cpp:167] Top shape: 72 576 14 14 (8128512)
I0221 17:16:36.538589  1835 layer_factory.hpp:74] Creating layer inception_4b/1x1
I0221 17:16:36.538594  1835 net.cpp:96] Creating Layer inception_4b/1x1
I0221 17:16:36.538596  1835 net.cpp:459] inception_4b/1x1 <- inception_4a/output_inception_4a/output_0_split_0
I0221 17:16:36.538601  1835 net.cpp:415] inception_4b/1x1 -> inception_4b/1x1
I0221 17:16:36.538605  1835 net.cpp:160] Setting up inception_4b/1x1
I0221 17:16:36.539153  1835 net.cpp:167] Top shape: 72 192 14 14 (2709504)
I0221 17:16:36.539160  1835 layer_factory.hpp:74] Creating layer inception_4b/1x1_bn
I0221 17:16:36.539162  1835 layer_factory.cpp:177] Layer inception_4b/1x1_bn is using CAFFE engine.
I0221 17:16:36.539168  1835 net.cpp:96] Creating Layer inception_4b/1x1_bn
I0221 17:16:36.539171  1835 net.cpp:459] inception_4b/1x1_bn <- inception_4b/1x1
I0221 17:16:36.539176  1835 net.cpp:415] inception_4b/1x1_bn -> inception_4b/1x1_bn
I0221 17:16:36.539180  1835 net.cpp:160] Setting up inception_4b/1x1_bn
I0221 17:16:36.539191  1835 net.cpp:167] Top shape: 72 192 14 14 (2709504)
I0221 17:16:36.539196  1835 layer_factory.hpp:74] Creating layer inception_4b/relu_1x1
I0221 17:16:36.539201  1835 net.cpp:96] Creating Layer inception_4b/relu_1x1
I0221 17:16:36.539204  1835 net.cpp:459] inception_4b/relu_1x1 <- inception_4b/1x1_bn
I0221 17:16:36.539207  1835 net.cpp:404] inception_4b/relu_1x1 -> inception_4b/1x1_bn (in-place)
I0221 17:16:36.539211  1835 net.cpp:160] Setting up inception_4b/relu_1x1
I0221 17:16:36.539214  1835 net.cpp:167] Top shape: 72 192 14 14 (2709504)
I0221 17:16:36.539217  1835 layer_factory.hpp:74] Creating layer inception_4b/3x3_reduce
I0221 17:16:36.539222  1835 net.cpp:96] Creating Layer inception_4b/3x3_reduce
I0221 17:16:36.539225  1835 net.cpp:459] inception_4b/3x3_reduce <- inception_4a/output_inception_4a/output_0_split_1
I0221 17:16:36.539229  1835 net.cpp:415] inception_4b/3x3_reduce -> inception_4b/3x3_reduce
I0221 17:16:36.539234  1835 net.cpp:160] Setting up inception_4b/3x3_reduce
I0221 17:16:36.539511  1835 net.cpp:167] Top shape: 72 96 14 14 (1354752)
I0221 17:16:36.539517  1835 layer_factory.hpp:74] Creating layer inception_4b/3x3_reduce_bn
I0221 17:16:36.539520  1835 layer_factory.cpp:177] Layer inception_4b/3x3_reduce_bn is using CAFFE engine.
I0221 17:16:36.539531  1835 net.cpp:96] Creating Layer inception_4b/3x3_reduce_bn
I0221 17:16:36.539535  1835 net.cpp:459] inception_4b/3x3_reduce_bn <- inception_4b/3x3_reduce
I0221 17:16:36.539539  1835 net.cpp:415] inception_4b/3x3_reduce_bn -> inception_4b/3x3_reduce_bn
I0221 17:16:36.539544  1835 net.cpp:160] Setting up inception_4b/3x3_reduce_bn
I0221 17:16:36.539556  1835 net.cpp:167] Top shape: 72 96 14 14 (1354752)
I0221 17:16:36.539561  1835 layer_factory.hpp:74] Creating layer inception_4b/relu_3x3_reduce
I0221 17:16:36.539564  1835 net.cpp:96] Creating Layer inception_4b/relu_3x3_reduce
I0221 17:16:36.539567  1835 net.cpp:459] inception_4b/relu_3x3_reduce <- inception_4b/3x3_reduce_bn
I0221 17:16:36.539572  1835 net.cpp:404] inception_4b/relu_3x3_reduce -> inception_4b/3x3_reduce_bn (in-place)
I0221 17:16:36.539577  1835 net.cpp:160] Setting up inception_4b/relu_3x3_reduce
I0221 17:16:36.539579  1835 net.cpp:167] Top shape: 72 96 14 14 (1354752)
I0221 17:16:36.539582  1835 layer_factory.hpp:74] Creating layer inception_4b/3x3
I0221 17:16:36.539587  1835 net.cpp:96] Creating Layer inception_4b/3x3
I0221 17:16:36.539589  1835 net.cpp:459] inception_4b/3x3 <- inception_4b/3x3_reduce_bn
I0221 17:16:36.539594  1835 net.cpp:415] inception_4b/3x3 -> inception_4b/3x3
I0221 17:16:36.539599  1835 net.cpp:160] Setting up inception_4b/3x3
I0221 17:16:36.540249  1835 net.cpp:167] Top shape: 72 128 14 14 (1806336)
I0221 17:16:36.540261  1835 layer_factory.hpp:74] Creating layer inception_4b/3x3_bn
I0221 17:16:36.540266  1835 layer_factory.cpp:177] Layer inception_4b/3x3_bn is using CAFFE engine.
I0221 17:16:36.540273  1835 net.cpp:96] Creating Layer inception_4b/3x3_bn
I0221 17:16:36.540279  1835 net.cpp:459] inception_4b/3x3_bn <- inception_4b/3x3
I0221 17:16:36.540287  1835 net.cpp:415] inception_4b/3x3_bn -> inception_4b/3x3_bn
I0221 17:16:36.540295  1835 net.cpp:160] Setting up inception_4b/3x3_bn
I0221 17:16:36.540312  1835 net.cpp:167] Top shape: 72 128 14 14 (1806336)
I0221 17:16:36.540320  1835 layer_factory.hpp:74] Creating layer inception_4b/relu_3x3
I0221 17:16:36.540326  1835 net.cpp:96] Creating Layer inception_4b/relu_3x3
I0221 17:16:36.540331  1835 net.cpp:459] inception_4b/relu_3x3 <- inception_4b/3x3_bn
I0221 17:16:36.540338  1835 net.cpp:404] inception_4b/relu_3x3 -> inception_4b/3x3_bn (in-place)
I0221 17:16:36.540345  1835 net.cpp:160] Setting up inception_4b/relu_3x3
I0221 17:16:36.540350  1835 net.cpp:167] Top shape: 72 128 14 14 (1806336)
I0221 17:16:36.540354  1835 layer_factory.hpp:74] Creating layer inception_4b/double_3x3_reduce
I0221 17:16:36.540362  1835 net.cpp:96] Creating Layer inception_4b/double_3x3_reduce
I0221 17:16:36.540366  1835 net.cpp:459] inception_4b/double_3x3_reduce <- inception_4a/output_inception_4a/output_0_split_2
I0221 17:16:36.540374  1835 net.cpp:415] inception_4b/double_3x3_reduce -> inception_4b/double_3x3_reduce
I0221 17:16:36.540381  1835 net.cpp:160] Setting up inception_4b/double_3x3_reduce
I0221 17:16:36.540756  1835 net.cpp:167] Top shape: 72 96 14 14 (1354752)
I0221 17:16:36.540766  1835 layer_factory.hpp:74] Creating layer inception_4b/double_3x3_reduce_bn
I0221 17:16:36.540771  1835 layer_factory.cpp:177] Layer inception_4b/double_3x3_reduce_bn is using CAFFE engine.
I0221 17:16:36.540777  1835 net.cpp:96] Creating Layer inception_4b/double_3x3_reduce_bn
I0221 17:16:36.540781  1835 net.cpp:459] inception_4b/double_3x3_reduce_bn <- inception_4b/double_3x3_reduce
I0221 17:16:36.540789  1835 net.cpp:415] inception_4b/double_3x3_reduce_bn -> inception_4b/double_3x3_reduce_bn
I0221 17:16:36.540796  1835 net.cpp:160] Setting up inception_4b/double_3x3_reduce_bn
I0221 17:16:36.540813  1835 net.cpp:167] Top shape: 72 96 14 14 (1354752)
I0221 17:16:36.540822  1835 layer_factory.hpp:74] Creating layer inception_4b/relu_double_3x3_reduce
I0221 17:16:36.540828  1835 net.cpp:96] Creating Layer inception_4b/relu_double_3x3_reduce
I0221 17:16:36.540833  1835 net.cpp:459] inception_4b/relu_double_3x3_reduce <- inception_4b/double_3x3_reduce_bn
I0221 17:16:36.540843  1835 net.cpp:404] inception_4b/relu_double_3x3_reduce -> inception_4b/double_3x3_reduce_bn (in-place)
I0221 17:16:36.540853  1835 net.cpp:160] Setting up inception_4b/relu_double_3x3_reduce
I0221 17:16:36.540858  1835 net.cpp:167] Top shape: 72 96 14 14 (1354752)
I0221 17:16:36.540863  1835 layer_factory.hpp:74] Creating layer inception_4b/double_3x3_1
I0221 17:16:36.540870  1835 net.cpp:96] Creating Layer inception_4b/double_3x3_1
I0221 17:16:36.540875  1835 net.cpp:459] inception_4b/double_3x3_1 <- inception_4b/double_3x3_reduce_bn
I0221 17:16:36.540884  1835 net.cpp:415] inception_4b/double_3x3_1 -> inception_4b/double_3x3_1
I0221 17:16:36.540890  1835 net.cpp:160] Setting up inception_4b/double_3x3_1
I0221 17:16:36.541613  1835 net.cpp:167] Top shape: 72 128 14 14 (1806336)
I0221 17:16:36.541623  1835 layer_factory.hpp:74] Creating layer inception_4b/double_3x3_1_bn
I0221 17:16:36.541627  1835 layer_factory.cpp:177] Layer inception_4b/double_3x3_1_bn is using CAFFE engine.
I0221 17:16:36.541633  1835 net.cpp:96] Creating Layer inception_4b/double_3x3_1_bn
I0221 17:16:36.541637  1835 net.cpp:459] inception_4b/double_3x3_1_bn <- inception_4b/double_3x3_1
I0221 17:16:36.541642  1835 net.cpp:415] inception_4b/double_3x3_1_bn -> inception_4b/double_3x3_1_bn
I0221 17:16:36.541648  1835 net.cpp:160] Setting up inception_4b/double_3x3_1_bn
I0221 17:16:36.541658  1835 net.cpp:167] Top shape: 72 128 14 14 (1806336)
I0221 17:16:36.541664  1835 layer_factory.hpp:74] Creating layer inception_4b/relu_double_3x3_1
I0221 17:16:36.541669  1835 net.cpp:96] Creating Layer inception_4b/relu_double_3x3_1
I0221 17:16:36.541672  1835 net.cpp:459] inception_4b/relu_double_3x3_1 <- inception_4b/double_3x3_1_bn
I0221 17:16:36.541676  1835 net.cpp:404] inception_4b/relu_double_3x3_1 -> inception_4b/double_3x3_1_bn (in-place)
I0221 17:16:36.541681  1835 net.cpp:160] Setting up inception_4b/relu_double_3x3_1
I0221 17:16:36.541684  1835 net.cpp:167] Top shape: 72 128 14 14 (1806336)
I0221 17:16:36.541687  1835 layer_factory.hpp:74] Creating layer inception_4b/double_3x3_2
I0221 17:16:36.541692  1835 net.cpp:96] Creating Layer inception_4b/double_3x3_2
I0221 17:16:36.541694  1835 net.cpp:459] inception_4b/double_3x3_2 <- inception_4b/double_3x3_1_bn
I0221 17:16:36.541698  1835 net.cpp:415] inception_4b/double_3x3_2 -> inception_4b/double_3x3_2
I0221 17:16:36.541703  1835 net.cpp:160] Setting up inception_4b/double_3x3_2
I0221 17:16:36.542441  1835 net.cpp:167] Top shape: 72 128 14 14 (1806336)
I0221 17:16:36.542449  1835 layer_factory.hpp:74] Creating layer inception_4b/double_3x3_2_bn
I0221 17:16:36.542453  1835 layer_factory.cpp:177] Layer inception_4b/double_3x3_2_bn is using CAFFE engine.
I0221 17:16:36.542457  1835 net.cpp:96] Creating Layer inception_4b/double_3x3_2_bn
I0221 17:16:36.542460  1835 net.cpp:459] inception_4b/double_3x3_2_bn <- inception_4b/double_3x3_2
I0221 17:16:36.542465  1835 net.cpp:415] inception_4b/double_3x3_2_bn -> inception_4b/double_3x3_2_bn
I0221 17:16:36.542470  1835 net.cpp:160] Setting up inception_4b/double_3x3_2_bn
I0221 17:16:36.542481  1835 net.cpp:167] Top shape: 72 128 14 14 (1806336)
I0221 17:16:36.542486  1835 layer_factory.hpp:74] Creating layer inception_4b/relu_double_3x3_2
I0221 17:16:36.542490  1835 net.cpp:96] Creating Layer inception_4b/relu_double_3x3_2
I0221 17:16:36.542493  1835 net.cpp:459] inception_4b/relu_double_3x3_2 <- inception_4b/double_3x3_2_bn
I0221 17:16:36.542497  1835 net.cpp:404] inception_4b/relu_double_3x3_2 -> inception_4b/double_3x3_2_bn (in-place)
I0221 17:16:36.542500  1835 net.cpp:160] Setting up inception_4b/relu_double_3x3_2
I0221 17:16:36.542505  1835 net.cpp:167] Top shape: 72 128 14 14 (1806336)
I0221 17:16:36.542506  1835 layer_factory.hpp:74] Creating layer inception_4b/pool
I0221 17:16:36.542511  1835 net.cpp:96] Creating Layer inception_4b/pool
I0221 17:16:36.542515  1835 net.cpp:459] inception_4b/pool <- inception_4a/output_inception_4a/output_0_split_3
I0221 17:16:36.542518  1835 net.cpp:415] inception_4b/pool -> inception_4b/pool
I0221 17:16:36.542526  1835 net.cpp:160] Setting up inception_4b/pool
I0221 17:16:36.542534  1835 net.cpp:167] Top shape: 72 576 14 14 (8128512)
I0221 17:16:36.542537  1835 layer_factory.hpp:74] Creating layer inception_4b/pool_proj
I0221 17:16:36.542543  1835 net.cpp:96] Creating Layer inception_4b/pool_proj
I0221 17:16:36.542546  1835 net.cpp:459] inception_4b/pool_proj <- inception_4b/pool
I0221 17:16:36.542551  1835 net.cpp:415] inception_4b/pool_proj -> inception_4b/pool_proj
I0221 17:16:36.542556  1835 net.cpp:160] Setting up inception_4b/pool_proj
I0221 17:16:36.542922  1835 net.cpp:167] Top shape: 72 128 14 14 (1806336)
I0221 17:16:36.542928  1835 layer_factory.hpp:74] Creating layer inception_4b/pool_proj_bn
I0221 17:16:36.542932  1835 layer_factory.cpp:177] Layer inception_4b/pool_proj_bn is using CAFFE engine.
I0221 17:16:36.542937  1835 net.cpp:96] Creating Layer inception_4b/pool_proj_bn
I0221 17:16:36.542939  1835 net.cpp:459] inception_4b/pool_proj_bn <- inception_4b/pool_proj
I0221 17:16:36.542944  1835 net.cpp:415] inception_4b/pool_proj_bn -> inception_4b/pool_proj_bn
I0221 17:16:36.542948  1835 net.cpp:160] Setting up inception_4b/pool_proj_bn
I0221 17:16:36.542958  1835 net.cpp:167] Top shape: 72 128 14 14 (1806336)
I0221 17:16:36.542964  1835 layer_factory.hpp:74] Creating layer inception_4b/relu_pool_proj
I0221 17:16:36.542968  1835 net.cpp:96] Creating Layer inception_4b/relu_pool_proj
I0221 17:16:36.542971  1835 net.cpp:459] inception_4b/relu_pool_proj <- inception_4b/pool_proj_bn
I0221 17:16:36.542974  1835 net.cpp:404] inception_4b/relu_pool_proj -> inception_4b/pool_proj_bn (in-place)
I0221 17:16:36.542979  1835 net.cpp:160] Setting up inception_4b/relu_pool_proj
I0221 17:16:36.542981  1835 net.cpp:167] Top shape: 72 128 14 14 (1806336)
I0221 17:16:36.542984  1835 layer_factory.hpp:74] Creating layer inception_4b/output
I0221 17:16:36.542989  1835 net.cpp:96] Creating Layer inception_4b/output
I0221 17:16:36.542991  1835 net.cpp:459] inception_4b/output <- inception_4b/1x1_bn
I0221 17:16:36.542995  1835 net.cpp:459] inception_4b/output <- inception_4b/3x3_bn
I0221 17:16:36.542999  1835 net.cpp:459] inception_4b/output <- inception_4b/double_3x3_2_bn
I0221 17:16:36.543001  1835 net.cpp:459] inception_4b/output <- inception_4b/pool_proj_bn
I0221 17:16:36.543005  1835 net.cpp:415] inception_4b/output -> inception_4b/output
I0221 17:16:36.543010  1835 net.cpp:160] Setting up inception_4b/output
I0221 17:16:36.543015  1835 net.cpp:167] Top shape: 72 576 14 14 (8128512)
I0221 17:16:36.543017  1835 layer_factory.hpp:74] Creating layer inception_4b/output_inception_4b/output_0_split
I0221 17:16:36.543021  1835 net.cpp:96] Creating Layer inception_4b/output_inception_4b/output_0_split
I0221 17:16:36.543025  1835 net.cpp:459] inception_4b/output_inception_4b/output_0_split <- inception_4b/output
I0221 17:16:36.543028  1835 net.cpp:415] inception_4b/output_inception_4b/output_0_split -> inception_4b/output_inception_4b/output_0_split_0
I0221 17:16:36.543033  1835 net.cpp:415] inception_4b/output_inception_4b/output_0_split -> inception_4b/output_inception_4b/output_0_split_1
I0221 17:16:36.543037  1835 net.cpp:415] inception_4b/output_inception_4b/output_0_split -> inception_4b/output_inception_4b/output_0_split_2
I0221 17:16:36.543042  1835 net.cpp:415] inception_4b/output_inception_4b/output_0_split -> inception_4b/output_inception_4b/output_0_split_3
I0221 17:16:36.543045  1835 net.cpp:160] Setting up inception_4b/output_inception_4b/output_0_split
I0221 17:16:36.543051  1835 net.cpp:167] Top shape: 72 576 14 14 (8128512)
I0221 17:16:36.543053  1835 net.cpp:167] Top shape: 72 576 14 14 (8128512)
I0221 17:16:36.543056  1835 net.cpp:167] Top shape: 72 576 14 14 (8128512)
I0221 17:16:36.543059  1835 net.cpp:167] Top shape: 72 576 14 14 (8128512)
I0221 17:16:36.543062  1835 layer_factory.hpp:74] Creating layer inception_4c/1x1
I0221 17:16:36.543076  1835 net.cpp:96] Creating Layer inception_4c/1x1
I0221 17:16:36.543078  1835 net.cpp:459] inception_4c/1x1 <- inception_4b/output_inception_4b/output_0_split_0
I0221 17:16:36.543085  1835 net.cpp:415] inception_4c/1x1 -> inception_4c/1x1
I0221 17:16:36.543093  1835 net.cpp:160] Setting up inception_4c/1x1
I0221 17:16:36.543548  1835 net.cpp:167] Top shape: 72 160 14 14 (2257920)
I0221 17:16:36.543555  1835 layer_factory.hpp:74] Creating layer inception_4c/1x1_bn
I0221 17:16:36.543557  1835 layer_factory.cpp:177] Layer inception_4c/1x1_bn is using CAFFE engine.
I0221 17:16:36.543562  1835 net.cpp:96] Creating Layer inception_4c/1x1_bn
I0221 17:16:36.543565  1835 net.cpp:459] inception_4c/1x1_bn <- inception_4c/1x1
I0221 17:16:36.543570  1835 net.cpp:415] inception_4c/1x1_bn -> inception_4c/1x1_bn
I0221 17:16:36.543576  1835 net.cpp:160] Setting up inception_4c/1x1_bn
I0221 17:16:36.543586  1835 net.cpp:167] Top shape: 72 160 14 14 (2257920)
I0221 17:16:36.543591  1835 layer_factory.hpp:74] Creating layer inception_4c/relu_1x1
I0221 17:16:36.543596  1835 net.cpp:96] Creating Layer inception_4c/relu_1x1
I0221 17:16:36.543598  1835 net.cpp:459] inception_4c/relu_1x1 <- inception_4c/1x1_bn
I0221 17:16:36.543601  1835 net.cpp:404] inception_4c/relu_1x1 -> inception_4c/1x1_bn (in-place)
I0221 17:16:36.543606  1835 net.cpp:160] Setting up inception_4c/relu_1x1
I0221 17:16:36.543609  1835 net.cpp:167] Top shape: 72 160 14 14 (2257920)
I0221 17:16:36.543612  1835 layer_factory.hpp:74] Creating layer inception_4c/3x3_reduce
I0221 17:16:36.543617  1835 net.cpp:96] Creating Layer inception_4c/3x3_reduce
I0221 17:16:36.543619  1835 net.cpp:459] inception_4c/3x3_reduce <- inception_4b/output_inception_4b/output_0_split_1
I0221 17:16:36.543623  1835 net.cpp:415] inception_4c/3x3_reduce -> inception_4c/3x3_reduce
I0221 17:16:36.543628  1835 net.cpp:160] Setting up inception_4c/3x3_reduce
I0221 17:16:36.543992  1835 net.cpp:167] Top shape: 72 128 14 14 (1806336)
I0221 17:16:36.543998  1835 layer_factory.hpp:74] Creating layer inception_4c/3x3_reduce_bn
I0221 17:16:36.544001  1835 layer_factory.cpp:177] Layer inception_4c/3x3_reduce_bn is using CAFFE engine.
I0221 17:16:36.544006  1835 net.cpp:96] Creating Layer inception_4c/3x3_reduce_bn
I0221 17:16:36.544009  1835 net.cpp:459] inception_4c/3x3_reduce_bn <- inception_4c/3x3_reduce
I0221 17:16:36.544014  1835 net.cpp:415] inception_4c/3x3_reduce_bn -> inception_4c/3x3_reduce_bn
I0221 17:16:36.544018  1835 net.cpp:160] Setting up inception_4c/3x3_reduce_bn
I0221 17:16:36.544029  1835 net.cpp:167] Top shape: 72 128 14 14 (1806336)
I0221 17:16:36.544035  1835 layer_factory.hpp:74] Creating layer inception_4c/relu_3x3_reduce
I0221 17:16:36.544039  1835 net.cpp:96] Creating Layer inception_4c/relu_3x3_reduce
I0221 17:16:36.544042  1835 net.cpp:459] inception_4c/relu_3x3_reduce <- inception_4c/3x3_reduce_bn
I0221 17:16:36.544045  1835 net.cpp:404] inception_4c/relu_3x3_reduce -> inception_4c/3x3_reduce_bn (in-place)
I0221 17:16:36.544049  1835 net.cpp:160] Setting up inception_4c/relu_3x3_reduce
I0221 17:16:36.544052  1835 net.cpp:167] Top shape: 72 128 14 14 (1806336)
I0221 17:16:36.544055  1835 layer_factory.hpp:74] Creating layer inception_4c/3x3
I0221 17:16:36.544060  1835 net.cpp:96] Creating Layer inception_4c/3x3
I0221 17:16:36.544064  1835 net.cpp:459] inception_4c/3x3 <- inception_4c/3x3_reduce_bn
I0221 17:16:36.544069  1835 net.cpp:415] inception_4c/3x3 -> inception_4c/3x3
I0221 17:16:36.544073  1835 net.cpp:160] Setting up inception_4c/3x3
I0221 17:16:36.545120  1835 net.cpp:167] Top shape: 72 160 14 14 (2257920)
I0221 17:16:36.545131  1835 layer_factory.hpp:74] Creating layer inception_4c/3x3_bn
I0221 17:16:36.545136  1835 layer_factory.cpp:177] Layer inception_4c/3x3_bn is using CAFFE engine.
I0221 17:16:36.545145  1835 net.cpp:96] Creating Layer inception_4c/3x3_bn
I0221 17:16:36.545150  1835 net.cpp:459] inception_4c/3x3_bn <- inception_4c/3x3
I0221 17:16:36.545158  1835 net.cpp:415] inception_4c/3x3_bn -> inception_4c/3x3_bn
I0221 17:16:36.545166  1835 net.cpp:160] Setting up inception_4c/3x3_bn
I0221 17:16:36.545182  1835 net.cpp:167] Top shape: 72 160 14 14 (2257920)
I0221 17:16:36.545191  1835 layer_factory.hpp:74] Creating layer inception_4c/relu_3x3
I0221 17:16:36.545202  1835 net.cpp:96] Creating Layer inception_4c/relu_3x3
I0221 17:16:36.545210  1835 net.cpp:459] inception_4c/relu_3x3 <- inception_4c/3x3_bn
I0221 17:16:36.545217  1835 net.cpp:404] inception_4c/relu_3x3 -> inception_4c/3x3_bn (in-place)
I0221 17:16:36.545223  1835 net.cpp:160] Setting up inception_4c/relu_3x3
I0221 17:16:36.545228  1835 net.cpp:167] Top shape: 72 160 14 14 (2257920)
I0221 17:16:36.545233  1835 layer_factory.hpp:74] Creating layer inception_4c/double_3x3_reduce
I0221 17:16:36.545239  1835 net.cpp:96] Creating Layer inception_4c/double_3x3_reduce
I0221 17:16:36.545244  1835 net.cpp:459] inception_4c/double_3x3_reduce <- inception_4b/output_inception_4b/output_0_split_2
I0221 17:16:36.545253  1835 net.cpp:415] inception_4c/double_3x3_reduce -> inception_4c/double_3x3_reduce
I0221 17:16:36.545259  1835 net.cpp:160] Setting up inception_4c/double_3x3_reduce
I0221 17:16:36.545743  1835 net.cpp:167] Top shape: 72 128 14 14 (1806336)
I0221 17:16:36.545753  1835 layer_factory.hpp:74] Creating layer inception_4c/double_3x3_reduce_bn
I0221 17:16:36.545756  1835 layer_factory.cpp:177] Layer inception_4c/double_3x3_reduce_bn is using CAFFE engine.
I0221 17:16:36.545764  1835 net.cpp:96] Creating Layer inception_4c/double_3x3_reduce_bn
I0221 17:16:36.545769  1835 net.cpp:459] inception_4c/double_3x3_reduce_bn <- inception_4c/double_3x3_reduce
I0221 17:16:36.545775  1835 net.cpp:415] inception_4c/double_3x3_reduce_bn -> inception_4c/double_3x3_reduce_bn
I0221 17:16:36.545783  1835 net.cpp:160] Setting up inception_4c/double_3x3_reduce_bn
I0221 17:16:36.545799  1835 net.cpp:167] Top shape: 72 128 14 14 (1806336)
I0221 17:16:36.545806  1835 layer_factory.hpp:74] Creating layer inception_4c/relu_double_3x3_reduce
I0221 17:16:36.545812  1835 net.cpp:96] Creating Layer inception_4c/relu_double_3x3_reduce
I0221 17:16:36.545817  1835 net.cpp:459] inception_4c/relu_double_3x3_reduce <- inception_4c/double_3x3_reduce_bn
I0221 17:16:36.545824  1835 net.cpp:404] inception_4c/relu_double_3x3_reduce -> inception_4c/double_3x3_reduce_bn (in-place)
I0221 17:16:36.545830  1835 net.cpp:160] Setting up inception_4c/relu_double_3x3_reduce
I0221 17:16:36.545835  1835 net.cpp:167] Top shape: 72 128 14 14 (1806336)
I0221 17:16:36.545840  1835 layer_factory.hpp:74] Creating layer inception_4c/double_3x3_1
I0221 17:16:36.545846  1835 net.cpp:96] Creating Layer inception_4c/double_3x3_1
I0221 17:16:36.545850  1835 net.cpp:459] inception_4c/double_3x3_1 <- inception_4c/double_3x3_reduce_bn
I0221 17:16:36.545857  1835 net.cpp:415] inception_4c/double_3x3_1 -> inception_4c/double_3x3_1
I0221 17:16:36.545864  1835 net.cpp:160] Setting up inception_4c/double_3x3_1
I0221 17:16:36.547063  1835 net.cpp:167] Top shape: 72 160 14 14 (2257920)
I0221 17:16:36.547077  1835 layer_factory.hpp:74] Creating layer inception_4c/double_3x3_1_bn
I0221 17:16:36.547083  1835 layer_factory.cpp:177] Layer inception_4c/double_3x3_1_bn is using CAFFE engine.
I0221 17:16:36.547092  1835 net.cpp:96] Creating Layer inception_4c/double_3x3_1_bn
I0221 17:16:36.547097  1835 net.cpp:459] inception_4c/double_3x3_1_bn <- inception_4c/double_3x3_1
I0221 17:16:36.547106  1835 net.cpp:415] inception_4c/double_3x3_1_bn -> inception_4c/double_3x3_1_bn
I0221 17:16:36.547113  1835 net.cpp:160] Setting up inception_4c/double_3x3_1_bn
I0221 17:16:36.547132  1835 net.cpp:167] Top shape: 72 160 14 14 (2257920)
I0221 17:16:36.547142  1835 layer_factory.hpp:74] Creating layer inception_4c/relu_double_3x3_1
I0221 17:16:36.547147  1835 net.cpp:96] Creating Layer inception_4c/relu_double_3x3_1
I0221 17:16:36.547153  1835 net.cpp:459] inception_4c/relu_double_3x3_1 <- inception_4c/double_3x3_1_bn
I0221 17:16:36.547159  1835 net.cpp:404] inception_4c/relu_double_3x3_1 -> inception_4c/double_3x3_1_bn (in-place)
I0221 17:16:36.547165  1835 net.cpp:160] Setting up inception_4c/relu_double_3x3_1
I0221 17:16:36.547171  1835 net.cpp:167] Top shape: 72 160 14 14 (2257920)
I0221 17:16:36.547176  1835 layer_factory.hpp:74] Creating layer inception_4c/double_3x3_2
I0221 17:16:36.547189  1835 net.cpp:96] Creating Layer inception_4c/double_3x3_2
I0221 17:16:36.547199  1835 net.cpp:459] inception_4c/double_3x3_2 <- inception_4c/double_3x3_1_bn
I0221 17:16:36.547206  1835 net.cpp:415] inception_4c/double_3x3_2 -> inception_4c/double_3x3_2
I0221 17:16:36.547214  1835 net.cpp:160] Setting up inception_4c/double_3x3_2
I0221 17:16:36.548702  1835 net.cpp:167] Top shape: 72 160 14 14 (2257920)
I0221 17:16:36.548722  1835 layer_factory.hpp:74] Creating layer inception_4c/double_3x3_2_bn
I0221 17:16:36.548728  1835 layer_factory.cpp:177] Layer inception_4c/double_3x3_2_bn is using CAFFE engine.
I0221 17:16:36.548738  1835 net.cpp:96] Creating Layer inception_4c/double_3x3_2_bn
I0221 17:16:36.548745  1835 net.cpp:459] inception_4c/double_3x3_2_bn <- inception_4c/double_3x3_2
I0221 17:16:36.548756  1835 net.cpp:415] inception_4c/double_3x3_2_bn -> inception_4c/double_3x3_2_bn
I0221 17:16:36.548766  1835 net.cpp:160] Setting up inception_4c/double_3x3_2_bn
I0221 17:16:36.548782  1835 net.cpp:167] Top shape: 72 160 14 14 (2257920)
I0221 17:16:36.548791  1835 layer_factory.hpp:74] Creating layer inception_4c/relu_double_3x3_2
I0221 17:16:36.548799  1835 net.cpp:96] Creating Layer inception_4c/relu_double_3x3_2
I0221 17:16:36.548804  1835 net.cpp:459] inception_4c/relu_double_3x3_2 <- inception_4c/double_3x3_2_bn
I0221 17:16:36.548812  1835 net.cpp:404] inception_4c/relu_double_3x3_2 -> inception_4c/double_3x3_2_bn (in-place)
I0221 17:16:36.548820  1835 net.cpp:160] Setting up inception_4c/relu_double_3x3_2
I0221 17:16:36.548825  1835 net.cpp:167] Top shape: 72 160 14 14 (2257920)
I0221 17:16:36.548830  1835 layer_factory.hpp:74] Creating layer inception_4c/pool
I0221 17:16:36.548837  1835 net.cpp:96] Creating Layer inception_4c/pool
I0221 17:16:36.548842  1835 net.cpp:459] inception_4c/pool <- inception_4b/output_inception_4b/output_0_split_3
I0221 17:16:36.548849  1835 net.cpp:415] inception_4c/pool -> inception_4c/pool
I0221 17:16:36.548857  1835 net.cpp:160] Setting up inception_4c/pool
I0221 17:16:36.548867  1835 net.cpp:167] Top shape: 72 576 14 14 (8128512)
I0221 17:16:36.548874  1835 layer_factory.hpp:74] Creating layer inception_4c/pool_proj
I0221 17:16:36.548898  1835 net.cpp:96] Creating Layer inception_4c/pool_proj
I0221 17:16:36.548909  1835 net.cpp:459] inception_4c/pool_proj <- inception_4c/pool
I0221 17:16:36.548928  1835 net.cpp:415] inception_4c/pool_proj -> inception_4c/pool_proj
I0221 17:16:36.548941  1835 net.cpp:160] Setting up inception_4c/pool_proj
I0221 17:16:36.549932  1835 net.cpp:167] Top shape: 72 128 14 14 (1806336)
I0221 17:16:36.549945  1835 layer_factory.hpp:74] Creating layer inception_4c/pool_proj_bn
I0221 17:16:36.549952  1835 layer_factory.cpp:177] Layer inception_4c/pool_proj_bn is using CAFFE engine.
I0221 17:16:36.549964  1835 net.cpp:96] Creating Layer inception_4c/pool_proj_bn
I0221 17:16:36.549971  1835 net.cpp:459] inception_4c/pool_proj_bn <- inception_4c/pool_proj
I0221 17:16:36.549980  1835 net.cpp:415] inception_4c/pool_proj_bn -> inception_4c/pool_proj_bn
I0221 17:16:36.549990  1835 net.cpp:160] Setting up inception_4c/pool_proj_bn
I0221 17:16:36.550009  1835 net.cpp:167] Top shape: 72 128 14 14 (1806336)
I0221 17:16:36.550050  1835 layer_factory.hpp:74] Creating layer inception_4c/relu_pool_proj
I0221 17:16:36.550060  1835 net.cpp:96] Creating Layer inception_4c/relu_pool_proj
I0221 17:16:36.550065  1835 net.cpp:459] inception_4c/relu_pool_proj <- inception_4c/pool_proj_bn
I0221 17:16:36.550072  1835 net.cpp:404] inception_4c/relu_pool_proj -> inception_4c/pool_proj_bn (in-place)
I0221 17:16:36.550079  1835 net.cpp:160] Setting up inception_4c/relu_pool_proj
I0221 17:16:36.550086  1835 net.cpp:167] Top shape: 72 128 14 14 (1806336)
I0221 17:16:36.550091  1835 layer_factory.hpp:74] Creating layer inception_4c/output
I0221 17:16:36.550098  1835 net.cpp:96] Creating Layer inception_4c/output
I0221 17:16:36.550104  1835 net.cpp:459] inception_4c/output <- inception_4c/1x1_bn
I0221 17:16:36.550110  1835 net.cpp:459] inception_4c/output <- inception_4c/3x3_bn
I0221 17:16:36.550120  1835 net.cpp:459] inception_4c/output <- inception_4c/double_3x3_2_bn
I0221 17:16:36.550132  1835 net.cpp:459] inception_4c/output <- inception_4c/pool_proj_bn
I0221 17:16:36.550137  1835 net.cpp:415] inception_4c/output -> inception_4c/output
I0221 17:16:36.550144  1835 net.cpp:160] Setting up inception_4c/output
I0221 17:16:36.550153  1835 net.cpp:167] Top shape: 72 608 14 14 (8580096)
I0221 17:16:36.550156  1835 layer_factory.hpp:74] Creating layer inception_4c/output_inception_4c/output_0_split
I0221 17:16:36.550180  1835 net.cpp:96] Creating Layer inception_4c/output_inception_4c/output_0_split
I0221 17:16:36.550186  1835 net.cpp:459] inception_4c/output_inception_4c/output_0_split <- inception_4c/output
I0221 17:16:36.550194  1835 net.cpp:415] inception_4c/output_inception_4c/output_0_split -> inception_4c/output_inception_4c/output_0_split_0
I0221 17:16:36.550204  1835 net.cpp:415] inception_4c/output_inception_4c/output_0_split -> inception_4c/output_inception_4c/output_0_split_1
I0221 17:16:36.550211  1835 net.cpp:415] inception_4c/output_inception_4c/output_0_split -> inception_4c/output_inception_4c/output_0_split_2
I0221 17:16:36.550230  1835 net.cpp:415] inception_4c/output_inception_4c/output_0_split -> inception_4c/output_inception_4c/output_0_split_3
I0221 17:16:36.550237  1835 net.cpp:160] Setting up inception_4c/output_inception_4c/output_0_split
I0221 17:16:36.550245  1835 net.cpp:167] Top shape: 72 608 14 14 (8580096)
I0221 17:16:36.550251  1835 net.cpp:167] Top shape: 72 608 14 14 (8580096)
I0221 17:16:36.550256  1835 net.cpp:167] Top shape: 72 608 14 14 (8580096)
I0221 17:16:36.550261  1835 net.cpp:167] Top shape: 72 608 14 14 (8580096)
I0221 17:16:36.550266  1835 layer_factory.hpp:74] Creating layer inception_4d/1x1
I0221 17:16:36.550273  1835 net.cpp:96] Creating Layer inception_4d/1x1
I0221 17:16:36.550278  1835 net.cpp:459] inception_4d/1x1 <- inception_4c/output_inception_4c/output_0_split_0
I0221 17:16:36.550287  1835 net.cpp:415] inception_4d/1x1 -> inception_4d/1x1
I0221 17:16:36.550294  1835 net.cpp:160] Setting up inception_4d/1x1
I0221 17:16:36.550693  1835 net.cpp:167] Top shape: 72 96 14 14 (1354752)
I0221 17:16:36.550703  1835 layer_factory.hpp:74] Creating layer inception_4d/1x1_bn
I0221 17:16:36.550709  1835 layer_factory.cpp:177] Layer inception_4d/1x1_bn is using CAFFE engine.
I0221 17:16:36.550715  1835 net.cpp:96] Creating Layer inception_4d/1x1_bn
I0221 17:16:36.550720  1835 net.cpp:459] inception_4d/1x1_bn <- inception_4d/1x1
I0221 17:16:36.550729  1835 net.cpp:415] inception_4d/1x1_bn -> inception_4d/1x1_bn
I0221 17:16:36.550735  1835 net.cpp:160] Setting up inception_4d/1x1_bn
I0221 17:16:36.550750  1835 net.cpp:167] Top shape: 72 96 14 14 (1354752)
I0221 17:16:36.550760  1835 layer_factory.hpp:74] Creating layer inception_4d/relu_1x1
I0221 17:16:36.550766  1835 net.cpp:96] Creating Layer inception_4d/relu_1x1
I0221 17:16:36.550770  1835 net.cpp:459] inception_4d/relu_1x1 <- inception_4d/1x1_bn
I0221 17:16:36.550776  1835 net.cpp:404] inception_4d/relu_1x1 -> inception_4d/1x1_bn (in-place)
I0221 17:16:36.550782  1835 net.cpp:160] Setting up inception_4d/relu_1x1
I0221 17:16:36.550787  1835 net.cpp:167] Top shape: 72 96 14 14 (1354752)
I0221 17:16:36.550791  1835 layer_factory.hpp:74] Creating layer inception_4d/3x3_reduce
I0221 17:16:36.550799  1835 net.cpp:96] Creating Layer inception_4d/3x3_reduce
I0221 17:16:36.550804  1835 net.cpp:459] inception_4d/3x3_reduce <- inception_4c/output_inception_4c/output_0_split_1
I0221 17:16:36.550812  1835 net.cpp:415] inception_4d/3x3_reduce -> inception_4d/3x3_reduce
I0221 17:16:36.550818  1835 net.cpp:160] Setting up inception_4d/3x3_reduce
I0221 17:16:36.551342  1835 net.cpp:167] Top shape: 72 128 14 14 (1806336)
I0221 17:16:36.551350  1835 layer_factory.hpp:74] Creating layer inception_4d/3x3_reduce_bn
I0221 17:16:36.551355  1835 layer_factory.cpp:177] Layer inception_4d/3x3_reduce_bn is using CAFFE engine.
I0221 17:16:36.551363  1835 net.cpp:96] Creating Layer inception_4d/3x3_reduce_bn
I0221 17:16:36.551372  1835 net.cpp:459] inception_4d/3x3_reduce_bn <- inception_4d/3x3_reduce
I0221 17:16:36.551383  1835 net.cpp:415] inception_4d/3x3_reduce_bn -> inception_4d/3x3_reduce_bn
I0221 17:16:36.551390  1835 net.cpp:160] Setting up inception_4d/3x3_reduce_bn
I0221 17:16:36.551407  1835 net.cpp:167] Top shape: 72 128 14 14 (1806336)
I0221 17:16:36.551417  1835 layer_factory.hpp:74] Creating layer inception_4d/relu_3x3_reduce
I0221 17:16:36.551424  1835 net.cpp:96] Creating Layer inception_4d/relu_3x3_reduce
I0221 17:16:36.551429  1835 net.cpp:459] inception_4d/relu_3x3_reduce <- inception_4d/3x3_reduce_bn
I0221 17:16:36.551434  1835 net.cpp:404] inception_4d/relu_3x3_reduce -> inception_4d/3x3_reduce_bn (in-place)
I0221 17:16:36.551440  1835 net.cpp:160] Setting up inception_4d/relu_3x3_reduce
I0221 17:16:36.551446  1835 net.cpp:167] Top shape: 72 128 14 14 (1806336)
I0221 17:16:36.551450  1835 layer_factory.hpp:74] Creating layer inception_4d/3x3
I0221 17:16:36.551457  1835 net.cpp:96] Creating Layer inception_4d/3x3
I0221 17:16:36.551462  1835 net.cpp:459] inception_4d/3x3 <- inception_4d/3x3_reduce_bn
I0221 17:16:36.551470  1835 net.cpp:415] inception_4d/3x3 -> inception_4d/3x3
I0221 17:16:36.551476  1835 net.cpp:160] Setting up inception_4d/3x3
I0221 17:16:36.552958  1835 net.cpp:167] Top shape: 72 192 14 14 (2709504)
I0221 17:16:36.552966  1835 layer_factory.hpp:74] Creating layer inception_4d/3x3_bn
I0221 17:16:36.552973  1835 layer_factory.cpp:177] Layer inception_4d/3x3_bn is using CAFFE engine.
I0221 17:16:36.552980  1835 net.cpp:96] Creating Layer inception_4d/3x3_bn
I0221 17:16:36.552985  1835 net.cpp:459] inception_4d/3x3_bn <- inception_4d/3x3
I0221 17:16:36.552992  1835 net.cpp:415] inception_4d/3x3_bn -> inception_4d/3x3_bn
I0221 17:16:36.553000  1835 net.cpp:160] Setting up inception_4d/3x3_bn
I0221 17:16:36.553016  1835 net.cpp:167] Top shape: 72 192 14 14 (2709504)
I0221 17:16:36.553025  1835 layer_factory.hpp:74] Creating layer inception_4d/relu_3x3
I0221 17:16:36.553032  1835 net.cpp:96] Creating Layer inception_4d/relu_3x3
I0221 17:16:36.553037  1835 net.cpp:459] inception_4d/relu_3x3 <- inception_4d/3x3_bn
I0221 17:16:36.553043  1835 net.cpp:404] inception_4d/relu_3x3 -> inception_4d/3x3_bn (in-place)
I0221 17:16:36.553050  1835 net.cpp:160] Setting up inception_4d/relu_3x3
I0221 17:16:36.553056  1835 net.cpp:167] Top shape: 72 192 14 14 (2709504)
I0221 17:16:36.553059  1835 layer_factory.hpp:74] Creating layer inception_4d/double_3x3_reduce
I0221 17:16:36.553066  1835 net.cpp:96] Creating Layer inception_4d/double_3x3_reduce
I0221 17:16:36.553071  1835 net.cpp:459] inception_4d/double_3x3_reduce <- inception_4c/output_inception_4c/output_0_split_2
I0221 17:16:36.553079  1835 net.cpp:415] inception_4d/double_3x3_reduce -> inception_4d/double_3x3_reduce
I0221 17:16:36.553086  1835 net.cpp:160] Setting up inception_4d/double_3x3_reduce
I0221 17:16:36.553743  1835 net.cpp:167] Top shape: 72 160 14 14 (2257920)
I0221 17:16:36.553752  1835 layer_factory.hpp:74] Creating layer inception_4d/double_3x3_reduce_bn
I0221 17:16:36.553757  1835 layer_factory.cpp:177] Layer inception_4d/double_3x3_reduce_bn is using CAFFE engine.
I0221 17:16:36.553764  1835 net.cpp:96] Creating Layer inception_4d/double_3x3_reduce_bn
I0221 17:16:36.553769  1835 net.cpp:459] inception_4d/double_3x3_reduce_bn <- inception_4d/double_3x3_reduce
I0221 17:16:36.553776  1835 net.cpp:415] inception_4d/double_3x3_reduce_bn -> inception_4d/double_3x3_reduce_bn
I0221 17:16:36.553782  1835 net.cpp:160] Setting up inception_4d/double_3x3_reduce_bn
I0221 17:16:36.553797  1835 net.cpp:167] Top shape: 72 160 14 14 (2257920)
I0221 17:16:36.553805  1835 layer_factory.hpp:74] Creating layer inception_4d/relu_double_3x3_reduce
I0221 17:16:36.553812  1835 net.cpp:96] Creating Layer inception_4d/relu_double_3x3_reduce
I0221 17:16:36.553817  1835 net.cpp:459] inception_4d/relu_double_3x3_reduce <- inception_4d/double_3x3_reduce_bn
I0221 17:16:36.553822  1835 net.cpp:404] inception_4d/relu_double_3x3_reduce -> inception_4d/double_3x3_reduce_bn (in-place)
I0221 17:16:36.553831  1835 net.cpp:160] Setting up inception_4d/relu_double_3x3_reduce
I0221 17:16:36.553841  1835 net.cpp:167] Top shape: 72 160 14 14 (2257920)
I0221 17:16:36.553845  1835 layer_factory.hpp:74] Creating layer inception_4d/double_3x3_1
I0221 17:16:36.553853  1835 net.cpp:96] Creating Layer inception_4d/double_3x3_1
I0221 17:16:36.553858  1835 net.cpp:459] inception_4d/double_3x3_1 <- inception_4d/double_3x3_reduce_bn
I0221 17:16:36.553864  1835 net.cpp:415] inception_4d/double_3x3_1 -> inception_4d/double_3x3_1
I0221 17:16:36.553870  1835 net.cpp:160] Setting up inception_4d/double_3x3_1
I0221 17:16:36.555521  1835 net.cpp:167] Top shape: 72 192 14 14 (2709504)
I0221 17:16:36.555531  1835 layer_factory.hpp:74] Creating layer inception_4d/double_3x3_1_bn
I0221 17:16:36.555536  1835 layer_factory.cpp:177] Layer inception_4d/double_3x3_1_bn is using CAFFE engine.
I0221 17:16:36.555541  1835 net.cpp:96] Creating Layer inception_4d/double_3x3_1_bn
I0221 17:16:36.555543  1835 net.cpp:459] inception_4d/double_3x3_1_bn <- inception_4d/double_3x3_1
I0221 17:16:36.555549  1835 net.cpp:415] inception_4d/double_3x3_1_bn -> inception_4d/double_3x3_1_bn
I0221 17:16:36.555554  1835 net.cpp:160] Setting up inception_4d/double_3x3_1_bn
I0221 17:16:36.555567  1835 net.cpp:167] Top shape: 72 192 14 14 (2709504)
I0221 17:16:36.555572  1835 layer_factory.hpp:74] Creating layer inception_4d/relu_double_3x3_1
I0221 17:16:36.555575  1835 net.cpp:96] Creating Layer inception_4d/relu_double_3x3_1
I0221 17:16:36.555578  1835 net.cpp:459] inception_4d/relu_double_3x3_1 <- inception_4d/double_3x3_1_bn
I0221 17:16:36.555583  1835 net.cpp:404] inception_4d/relu_double_3x3_1 -> inception_4d/double_3x3_1_bn (in-place)
I0221 17:16:36.555588  1835 net.cpp:160] Setting up inception_4d/relu_double_3x3_1
I0221 17:16:36.555590  1835 net.cpp:167] Top shape: 72 192 14 14 (2709504)
I0221 17:16:36.555593  1835 layer_factory.hpp:74] Creating layer inception_4d/double_3x3_2
I0221 17:16:36.555598  1835 net.cpp:96] Creating Layer inception_4d/double_3x3_2
I0221 17:16:36.555601  1835 net.cpp:459] inception_4d/double_3x3_2 <- inception_4d/double_3x3_1_bn
I0221 17:16:36.555605  1835 net.cpp:415] inception_4d/double_3x3_2 -> inception_4d/double_3x3_2
I0221 17:16:36.555610  1835 net.cpp:160] Setting up inception_4d/double_3x3_2
I0221 17:16:36.557245  1835 net.cpp:167] Top shape: 72 192 14 14 (2709504)
I0221 17:16:36.557252  1835 layer_factory.hpp:74] Creating layer inception_4d/double_3x3_2_bn
I0221 17:16:36.557255  1835 layer_factory.cpp:177] Layer inception_4d/double_3x3_2_bn is using CAFFE engine.
I0221 17:16:36.557260  1835 net.cpp:96] Creating Layer inception_4d/double_3x3_2_bn
I0221 17:16:36.557263  1835 net.cpp:459] inception_4d/double_3x3_2_bn <- inception_4d/double_3x3_2
I0221 17:16:36.557267  1835 net.cpp:415] inception_4d/double_3x3_2_bn -> inception_4d/double_3x3_2_bn
I0221 17:16:36.557272  1835 net.cpp:160] Setting up inception_4d/double_3x3_2_bn
I0221 17:16:36.557283  1835 net.cpp:167] Top shape: 72 192 14 14 (2709504)
I0221 17:16:36.557288  1835 layer_factory.hpp:74] Creating layer inception_4d/relu_double_3x3_2
I0221 17:16:36.557293  1835 net.cpp:96] Creating Layer inception_4d/relu_double_3x3_2
I0221 17:16:36.557296  1835 net.cpp:459] inception_4d/relu_double_3x3_2 <- inception_4d/double_3x3_2_bn
I0221 17:16:36.557299  1835 net.cpp:404] inception_4d/relu_double_3x3_2 -> inception_4d/double_3x3_2_bn (in-place)
I0221 17:16:36.557303  1835 net.cpp:160] Setting up inception_4d/relu_double_3x3_2
I0221 17:16:36.557307  1835 net.cpp:167] Top shape: 72 192 14 14 (2709504)
I0221 17:16:36.557309  1835 layer_factory.hpp:74] Creating layer inception_4d/pool
I0221 17:16:36.557314  1835 net.cpp:96] Creating Layer inception_4d/pool
I0221 17:16:36.557317  1835 net.cpp:459] inception_4d/pool <- inception_4c/output_inception_4c/output_0_split_3
I0221 17:16:36.557322  1835 net.cpp:415] inception_4d/pool -> inception_4d/pool
I0221 17:16:36.557325  1835 net.cpp:160] Setting up inception_4d/pool
I0221 17:16:36.557330  1835 net.cpp:167] Top shape: 72 608 14 14 (8580096)
I0221 17:16:36.557337  1835 layer_factory.hpp:74] Creating layer inception_4d/pool_proj
I0221 17:16:36.557345  1835 net.cpp:96] Creating Layer inception_4d/pool_proj
I0221 17:16:36.557348  1835 net.cpp:459] inception_4d/pool_proj <- inception_4d/pool
I0221 17:16:36.557353  1835 net.cpp:415] inception_4d/pool_proj -> inception_4d/pool_proj
I0221 17:16:36.557358  1835 net.cpp:160] Setting up inception_4d/pool_proj
I0221 17:16:36.557745  1835 net.cpp:167] Top shape: 72 128 14 14 (1806336)
I0221 17:16:36.557751  1835 layer_factory.hpp:74] Creating layer inception_4d/pool_proj_bn
I0221 17:16:36.557754  1835 layer_factory.cpp:177] Layer inception_4d/pool_proj_bn is using CAFFE engine.
I0221 17:16:36.557759  1835 net.cpp:96] Creating Layer inception_4d/pool_proj_bn
I0221 17:16:36.557761  1835 net.cpp:459] inception_4d/pool_proj_bn <- inception_4d/pool_proj
I0221 17:16:36.557768  1835 net.cpp:415] inception_4d/pool_proj_bn -> inception_4d/pool_proj_bn
I0221 17:16:36.557772  1835 net.cpp:160] Setting up inception_4d/pool_proj_bn
I0221 17:16:36.557783  1835 net.cpp:167] Top shape: 72 128 14 14 (1806336)
I0221 17:16:36.557790  1835 layer_factory.hpp:74] Creating layer inception_4d/relu_pool_proj
I0221 17:16:36.557793  1835 net.cpp:96] Creating Layer inception_4d/relu_pool_proj
I0221 17:16:36.557796  1835 net.cpp:459] inception_4d/relu_pool_proj <- inception_4d/pool_proj_bn
I0221 17:16:36.557799  1835 net.cpp:404] inception_4d/relu_pool_proj -> inception_4d/pool_proj_bn (in-place)
I0221 17:16:36.557803  1835 net.cpp:160] Setting up inception_4d/relu_pool_proj
I0221 17:16:36.557806  1835 net.cpp:167] Top shape: 72 128 14 14 (1806336)
I0221 17:16:36.557809  1835 layer_factory.hpp:74] Creating layer inception_4d/output
I0221 17:16:36.557813  1835 net.cpp:96] Creating Layer inception_4d/output
I0221 17:16:36.557816  1835 net.cpp:459] inception_4d/output <- inception_4d/1x1_bn
I0221 17:16:36.557821  1835 net.cpp:459] inception_4d/output <- inception_4d/3x3_bn
I0221 17:16:36.557824  1835 net.cpp:459] inception_4d/output <- inception_4d/double_3x3_2_bn
I0221 17:16:36.557827  1835 net.cpp:459] inception_4d/output <- inception_4d/pool_proj_bn
I0221 17:16:36.557831  1835 net.cpp:415] inception_4d/output -> inception_4d/output
I0221 17:16:36.557834  1835 net.cpp:160] Setting up inception_4d/output
I0221 17:16:36.557839  1835 net.cpp:167] Top shape: 72 608 14 14 (8580096)
I0221 17:16:36.557842  1835 layer_factory.hpp:74] Creating layer inception_4d/output_inception_4d/output_0_split
I0221 17:16:36.557847  1835 net.cpp:96] Creating Layer inception_4d/output_inception_4d/output_0_split
I0221 17:16:36.557849  1835 net.cpp:459] inception_4d/output_inception_4d/output_0_split <- inception_4d/output
I0221 17:16:36.557854  1835 net.cpp:415] inception_4d/output_inception_4d/output_0_split -> inception_4d/output_inception_4d/output_0_split_0
I0221 17:16:36.557858  1835 net.cpp:415] inception_4d/output_inception_4d/output_0_split -> inception_4d/output_inception_4d/output_0_split_1
I0221 17:16:36.557863  1835 net.cpp:415] inception_4d/output_inception_4d/output_0_split -> inception_4d/output_inception_4d/output_0_split_2
I0221 17:16:36.557868  1835 net.cpp:160] Setting up inception_4d/output_inception_4d/output_0_split
I0221 17:16:36.557871  1835 net.cpp:167] Top shape: 72 608 14 14 (8580096)
I0221 17:16:36.557874  1835 net.cpp:167] Top shape: 72 608 14 14 (8580096)
I0221 17:16:36.557878  1835 net.cpp:167] Top shape: 72 608 14 14 (8580096)
I0221 17:16:36.557880  1835 layer_factory.hpp:74] Creating layer inception_4e/3x3_reduce
I0221 17:16:36.557886  1835 net.cpp:96] Creating Layer inception_4e/3x3_reduce
I0221 17:16:36.557889  1835 net.cpp:459] inception_4e/3x3_reduce <- inception_4d/output_inception_4d/output_0_split_0
I0221 17:16:36.557893  1835 net.cpp:415] inception_4e/3x3_reduce -> inception_4e/3x3_reduce
I0221 17:16:36.557899  1835 net.cpp:160] Setting up inception_4e/3x3_reduce
I0221 17:16:36.558296  1835 net.cpp:167] Top shape: 72 128 14 14 (1806336)
I0221 17:16:36.558303  1835 layer_factory.hpp:74] Creating layer inception_4e/3x3_reduce_bn
I0221 17:16:36.558310  1835 layer_factory.cpp:177] Layer inception_4e/3x3_reduce_bn is using CAFFE engine.
I0221 17:16:36.558318  1835 net.cpp:96] Creating Layer inception_4e/3x3_reduce_bn
I0221 17:16:36.558321  1835 net.cpp:459] inception_4e/3x3_reduce_bn <- inception_4e/3x3_reduce
I0221 17:16:36.558326  1835 net.cpp:415] inception_4e/3x3_reduce_bn -> inception_4e/3x3_reduce_bn
I0221 17:16:36.558332  1835 net.cpp:160] Setting up inception_4e/3x3_reduce_bn
I0221 17:16:36.558342  1835 net.cpp:167] Top shape: 72 128 14 14 (1806336)
I0221 17:16:36.558347  1835 layer_factory.hpp:74] Creating layer inception_4e/relu_3x3_reduce
I0221 17:16:36.558352  1835 net.cpp:96] Creating Layer inception_4e/relu_3x3_reduce
I0221 17:16:36.558357  1835 net.cpp:459] inception_4e/relu_3x3_reduce <- inception_4e/3x3_reduce_bn
I0221 17:16:36.558359  1835 net.cpp:404] inception_4e/relu_3x3_reduce -> inception_4e/3x3_reduce_bn (in-place)
I0221 17:16:36.558364  1835 net.cpp:160] Setting up inception_4e/relu_3x3_reduce
I0221 17:16:36.558367  1835 net.cpp:167] Top shape: 72 128 14 14 (1806336)
I0221 17:16:36.558370  1835 layer_factory.hpp:74] Creating layer inception_4e/3x3
I0221 17:16:36.558374  1835 net.cpp:96] Creating Layer inception_4e/3x3
I0221 17:16:36.558377  1835 net.cpp:459] inception_4e/3x3 <- inception_4e/3x3_reduce_bn
I0221 17:16:36.558382  1835 net.cpp:415] inception_4e/3x3 -> inception_4e/3x3
I0221 17:16:36.558387  1835 net.cpp:160] Setting up inception_4e/3x3
I0221 17:16:36.559474  1835 net.cpp:167] Top shape: 72 192 7 7 (677376)
I0221 17:16:36.559480  1835 layer_factory.hpp:74] Creating layer inception_4e/3x3_bn
I0221 17:16:36.559484  1835 layer_factory.cpp:177] Layer inception_4e/3x3_bn is using CAFFE engine.
I0221 17:16:36.559487  1835 net.cpp:96] Creating Layer inception_4e/3x3_bn
I0221 17:16:36.559490  1835 net.cpp:459] inception_4e/3x3_bn <- inception_4e/3x3
I0221 17:16:36.559496  1835 net.cpp:415] inception_4e/3x3_bn -> inception_4e/3x3_bn
I0221 17:16:36.559500  1835 net.cpp:160] Setting up inception_4e/3x3_bn
I0221 17:16:36.559511  1835 net.cpp:167] Top shape: 72 192 7 7 (677376)
I0221 17:16:36.559516  1835 layer_factory.hpp:74] Creating layer inception_4e/relu_3x3
I0221 17:16:36.559520  1835 net.cpp:96] Creating Layer inception_4e/relu_3x3
I0221 17:16:36.559523  1835 net.cpp:459] inception_4e/relu_3x3 <- inception_4e/3x3_bn
I0221 17:16:36.559526  1835 net.cpp:404] inception_4e/relu_3x3 -> inception_4e/3x3_bn (in-place)
I0221 17:16:36.559530  1835 net.cpp:160] Setting up inception_4e/relu_3x3
I0221 17:16:36.559533  1835 net.cpp:167] Top shape: 72 192 7 7 (677376)
I0221 17:16:36.559536  1835 layer_factory.hpp:74] Creating layer inception_4e/double_3x3_reduce
I0221 17:16:36.559541  1835 net.cpp:96] Creating Layer inception_4e/double_3x3_reduce
I0221 17:16:36.559545  1835 net.cpp:459] inception_4e/double_3x3_reduce <- inception_4d/output_inception_4d/output_0_split_1
I0221 17:16:36.559550  1835 net.cpp:415] inception_4e/double_3x3_reduce -> inception_4e/double_3x3_reduce
I0221 17:16:36.559554  1835 net.cpp:160] Setting up inception_4e/double_3x3_reduce
I0221 17:16:36.560132  1835 net.cpp:167] Top shape: 72 192 14 14 (2709504)
I0221 17:16:36.560138  1835 layer_factory.hpp:74] Creating layer inception_4e/double_3x3_reduce_bn
I0221 17:16:36.560142  1835 layer_factory.cpp:177] Layer inception_4e/double_3x3_reduce_bn is using CAFFE engine.
I0221 17:16:36.560148  1835 net.cpp:96] Creating Layer inception_4e/double_3x3_reduce_bn
I0221 17:16:36.560150  1835 net.cpp:459] inception_4e/double_3x3_reduce_bn <- inception_4e/double_3x3_reduce
I0221 17:16:36.560154  1835 net.cpp:415] inception_4e/double_3x3_reduce_bn -> inception_4e/double_3x3_reduce_bn
I0221 17:16:36.560159  1835 net.cpp:160] Setting up inception_4e/double_3x3_reduce_bn
I0221 17:16:36.560169  1835 net.cpp:167] Top shape: 72 192 14 14 (2709504)
I0221 17:16:36.560175  1835 layer_factory.hpp:74] Creating layer inception_4e/relu_double_3x3_reduce
I0221 17:16:36.560178  1835 net.cpp:96] Creating Layer inception_4e/relu_double_3x3_reduce
I0221 17:16:36.560181  1835 net.cpp:459] inception_4e/relu_double_3x3_reduce <- inception_4e/double_3x3_reduce_bn
I0221 17:16:36.560191  1835 net.cpp:404] inception_4e/relu_double_3x3_reduce -> inception_4e/double_3x3_reduce_bn (in-place)
I0221 17:16:36.560195  1835 net.cpp:160] Setting up inception_4e/relu_double_3x3_reduce
I0221 17:16:36.560199  1835 net.cpp:167] Top shape: 72 192 14 14 (2709504)
I0221 17:16:36.560202  1835 layer_factory.hpp:74] Creating layer inception_4e/double_3x3_1
I0221 17:16:36.560206  1835 net.cpp:96] Creating Layer inception_4e/double_3x3_1
I0221 17:16:36.560209  1835 net.cpp:459] inception_4e/double_3x3_1 <- inception_4e/double_3x3_reduce_bn
I0221 17:16:36.560214  1835 net.cpp:415] inception_4e/double_3x3_1 -> inception_4e/double_3x3_1
I0221 17:16:36.560219  1835 net.cpp:160] Setting up inception_4e/double_3x3_1
I0221 17:16:36.562376  1835 net.cpp:167] Top shape: 72 256 14 14 (3612672)
I0221 17:16:36.562383  1835 layer_factory.hpp:74] Creating layer inception_4e/double_3x3_1_bn
I0221 17:16:36.562387  1835 layer_factory.cpp:177] Layer inception_4e/double_3x3_1_bn is using CAFFE engine.
I0221 17:16:36.562392  1835 net.cpp:96] Creating Layer inception_4e/double_3x3_1_bn
I0221 17:16:36.562396  1835 net.cpp:459] inception_4e/double_3x3_1_bn <- inception_4e/double_3x3_1
I0221 17:16:36.562400  1835 net.cpp:415] inception_4e/double_3x3_1_bn -> inception_4e/double_3x3_1_bn
I0221 17:16:36.562405  1835 net.cpp:160] Setting up inception_4e/double_3x3_1_bn
I0221 17:16:36.562417  1835 net.cpp:167] Top shape: 72 256 14 14 (3612672)
I0221 17:16:36.562422  1835 layer_factory.hpp:74] Creating layer inception_4e/relu_double_3x3_1
I0221 17:16:36.562427  1835 net.cpp:96] Creating Layer inception_4e/relu_double_3x3_1
I0221 17:16:36.562429  1835 net.cpp:459] inception_4e/relu_double_3x3_1 <- inception_4e/double_3x3_1_bn
I0221 17:16:36.562433  1835 net.cpp:404] inception_4e/relu_double_3x3_1 -> inception_4e/double_3x3_1_bn (in-place)
I0221 17:16:36.562436  1835 net.cpp:160] Setting up inception_4e/relu_double_3x3_1
I0221 17:16:36.562439  1835 net.cpp:167] Top shape: 72 256 14 14 (3612672)
I0221 17:16:36.562443  1835 layer_factory.hpp:74] Creating layer inception_4e/double_3x3_2
I0221 17:16:36.562448  1835 net.cpp:96] Creating Layer inception_4e/double_3x3_2
I0221 17:16:36.562450  1835 net.cpp:459] inception_4e/double_3x3_2 <- inception_4e/double_3x3_1_bn
I0221 17:16:36.562455  1835 net.cpp:415] inception_4e/double_3x3_2 -> inception_4e/double_3x3_2
I0221 17:16:36.562459  1835 net.cpp:160] Setting up inception_4e/double_3x3_2
I0221 17:16:36.565310  1835 net.cpp:167] Top shape: 72 256 7 7 (903168)
I0221 17:16:36.565317  1835 layer_factory.hpp:74] Creating layer inception_4e/double_3x3_2_bn
I0221 17:16:36.565320  1835 layer_factory.cpp:177] Layer inception_4e/double_3x3_2_bn is using CAFFE engine.
I0221 17:16:36.565325  1835 net.cpp:96] Creating Layer inception_4e/double_3x3_2_bn
I0221 17:16:36.565328  1835 net.cpp:459] inception_4e/double_3x3_2_bn <- inception_4e/double_3x3_2
I0221 17:16:36.565333  1835 net.cpp:415] inception_4e/double_3x3_2_bn -> inception_4e/double_3x3_2_bn
I0221 17:16:36.565337  1835 net.cpp:160] Setting up inception_4e/double_3x3_2_bn
I0221 17:16:36.565348  1835 net.cpp:167] Top shape: 72 256 7 7 (903168)
I0221 17:16:36.565353  1835 layer_factory.hpp:74] Creating layer inception_4e/relu_double_3x3_2
I0221 17:16:36.565357  1835 net.cpp:96] Creating Layer inception_4e/relu_double_3x3_2
I0221 17:16:36.565361  1835 net.cpp:459] inception_4e/relu_double_3x3_2 <- inception_4e/double_3x3_2_bn
I0221 17:16:36.565363  1835 net.cpp:404] inception_4e/relu_double_3x3_2 -> inception_4e/double_3x3_2_bn (in-place)
I0221 17:16:36.565367  1835 net.cpp:160] Setting up inception_4e/relu_double_3x3_2
I0221 17:16:36.565371  1835 net.cpp:167] Top shape: 72 256 7 7 (903168)
I0221 17:16:36.565373  1835 layer_factory.hpp:74] Creating layer inception_4e/pool
I0221 17:16:36.565377  1835 net.cpp:96] Creating Layer inception_4e/pool
I0221 17:16:36.565381  1835 net.cpp:459] inception_4e/pool <- inception_4d/output_inception_4d/output_0_split_2
I0221 17:16:36.565385  1835 net.cpp:415] inception_4e/pool -> inception_4e/pool
I0221 17:16:36.565395  1835 net.cpp:160] Setting up inception_4e/pool
I0221 17:16:36.565402  1835 net.cpp:167] Top shape: 72 608 7 7 (2145024)
I0221 17:16:36.565404  1835 layer_factory.hpp:74] Creating layer inception_4e/output
I0221 17:16:36.565408  1835 net.cpp:96] Creating Layer inception_4e/output
I0221 17:16:36.565412  1835 net.cpp:459] inception_4e/output <- inception_4e/3x3_bn
I0221 17:16:36.565414  1835 net.cpp:459] inception_4e/output <- inception_4e/double_3x3_2_bn
I0221 17:16:36.565418  1835 net.cpp:459] inception_4e/output <- inception_4e/pool
I0221 17:16:36.565423  1835 net.cpp:415] inception_4e/output -> inception_4e/output
I0221 17:16:36.565428  1835 net.cpp:160] Setting up inception_4e/output
I0221 17:16:36.565431  1835 net.cpp:167] Top shape: 72 1056 7 7 (3725568)
I0221 17:16:36.565434  1835 layer_factory.hpp:74] Creating layer inception_4e/output_inception_4e/output_0_split
I0221 17:16:36.565439  1835 net.cpp:96] Creating Layer inception_4e/output_inception_4e/output_0_split
I0221 17:16:36.565441  1835 net.cpp:459] inception_4e/output_inception_4e/output_0_split <- inception_4e/output
I0221 17:16:36.565445  1835 net.cpp:415] inception_4e/output_inception_4e/output_0_split -> inception_4e/output_inception_4e/output_0_split_0
I0221 17:16:36.565450  1835 net.cpp:415] inception_4e/output_inception_4e/output_0_split -> inception_4e/output_inception_4e/output_0_split_1
I0221 17:16:36.565456  1835 net.cpp:415] inception_4e/output_inception_4e/output_0_split -> inception_4e/output_inception_4e/output_0_split_2
I0221 17:16:36.565461  1835 net.cpp:415] inception_4e/output_inception_4e/output_0_split -> inception_4e/output_inception_4e/output_0_split_3
I0221 17:16:36.565465  1835 net.cpp:160] Setting up inception_4e/output_inception_4e/output_0_split
I0221 17:16:36.565470  1835 net.cpp:167] Top shape: 72 1056 7 7 (3725568)
I0221 17:16:36.565474  1835 net.cpp:167] Top shape: 72 1056 7 7 (3725568)
I0221 17:16:36.565476  1835 net.cpp:167] Top shape: 72 1056 7 7 (3725568)
I0221 17:16:36.565479  1835 net.cpp:167] Top shape: 72 1056 7 7 (3725568)
I0221 17:16:36.565481  1835 layer_factory.hpp:74] Creating layer inception_5a/1x1
I0221 17:16:36.565487  1835 net.cpp:96] Creating Layer inception_5a/1x1
I0221 17:16:36.565490  1835 net.cpp:459] inception_5a/1x1 <- inception_4e/output_inception_4e/output_0_split_0
I0221 17:16:36.565493  1835 net.cpp:415] inception_5a/1x1 -> inception_5a/1x1
I0221 17:16:36.565498  1835 net.cpp:160] Setting up inception_5a/1x1
I0221 17:16:36.567306  1835 net.cpp:167] Top shape: 72 352 7 7 (1241856)
I0221 17:16:36.567313  1835 layer_factory.hpp:74] Creating layer inception_5a/1x1_bn
I0221 17:16:36.567317  1835 layer_factory.cpp:177] Layer inception_5a/1x1_bn is using CAFFE engine.
I0221 17:16:36.567320  1835 net.cpp:96] Creating Layer inception_5a/1x1_bn
I0221 17:16:36.567324  1835 net.cpp:459] inception_5a/1x1_bn <- inception_5a/1x1
I0221 17:16:36.567329  1835 net.cpp:415] inception_5a/1x1_bn -> inception_5a/1x1_bn
I0221 17:16:36.567333  1835 net.cpp:160] Setting up inception_5a/1x1_bn
I0221 17:16:36.567344  1835 net.cpp:167] Top shape: 72 352 7 7 (1241856)
I0221 17:16:36.567350  1835 layer_factory.hpp:74] Creating layer inception_5a/relu_1x1
I0221 17:16:36.567354  1835 net.cpp:96] Creating Layer inception_5a/relu_1x1
I0221 17:16:36.567358  1835 net.cpp:459] inception_5a/relu_1x1 <- inception_5a/1x1_bn
I0221 17:16:36.567361  1835 net.cpp:404] inception_5a/relu_1x1 -> inception_5a/1x1_bn (in-place)
I0221 17:16:36.567365  1835 net.cpp:160] Setting up inception_5a/relu_1x1
I0221 17:16:36.567368  1835 net.cpp:167] Top shape: 72 352 7 7 (1241856)
I0221 17:16:36.567371  1835 layer_factory.hpp:74] Creating layer inception_5a/3x3_reduce
I0221 17:16:36.567375  1835 net.cpp:96] Creating Layer inception_5a/3x3_reduce
I0221 17:16:36.567378  1835 net.cpp:459] inception_5a/3x3_reduce <- inception_4e/output_inception_4e/output_0_split_1
I0221 17:16:36.567384  1835 net.cpp:415] inception_5a/3x3_reduce -> inception_5a/3x3_reduce
I0221 17:16:36.567389  1835 net.cpp:160] Setting up inception_5a/3x3_reduce
I0221 17:16:36.568384  1835 net.cpp:167] Top shape: 72 192 7 7 (677376)
I0221 17:16:36.568392  1835 layer_factory.hpp:74] Creating layer inception_5a/3x3_reduce_bn
I0221 17:16:36.568394  1835 layer_factory.cpp:177] Layer inception_5a/3x3_reduce_bn is using CAFFE engine.
I0221 17:16:36.568399  1835 net.cpp:96] Creating Layer inception_5a/3x3_reduce_bn
I0221 17:16:36.568403  1835 net.cpp:459] inception_5a/3x3_reduce_bn <- inception_5a/3x3_reduce
I0221 17:16:36.568408  1835 net.cpp:415] inception_5a/3x3_reduce_bn -> inception_5a/3x3_reduce_bn
I0221 17:16:36.568413  1835 net.cpp:160] Setting up inception_5a/3x3_reduce_bn
I0221 17:16:36.568423  1835 net.cpp:167] Top shape: 72 192 7 7 (677376)
I0221 17:16:36.568428  1835 layer_factory.hpp:74] Creating layer inception_5a/relu_3x3_reduce
I0221 17:16:36.568433  1835 net.cpp:96] Creating Layer inception_5a/relu_3x3_reduce
I0221 17:16:36.568436  1835 net.cpp:459] inception_5a/relu_3x3_reduce <- inception_5a/3x3_reduce_bn
I0221 17:16:36.568439  1835 net.cpp:404] inception_5a/relu_3x3_reduce -> inception_5a/3x3_reduce_bn (in-place)
I0221 17:16:36.568444  1835 net.cpp:160] Setting up inception_5a/relu_3x3_reduce
I0221 17:16:36.568446  1835 net.cpp:167] Top shape: 72 192 7 7 (677376)
I0221 17:16:36.568449  1835 layer_factory.hpp:74] Creating layer inception_5a/3x3
I0221 17:16:36.568454  1835 net.cpp:96] Creating Layer inception_5a/3x3
I0221 17:16:36.568457  1835 net.cpp:459] inception_5a/3x3 <- inception_5a/3x3_reduce_bn
I0221 17:16:36.568462  1835 net.cpp:415] inception_5a/3x3 -> inception_5a/3x3
I0221 17:16:36.568466  1835 net.cpp:160] Setting up inception_5a/3x3
I0221 17:16:36.571586  1835 net.cpp:167] Top shape: 72 320 7 7 (1128960)
I0221 17:16:36.571604  1835 layer_factory.hpp:74] Creating layer inception_5a/3x3_bn
I0221 17:16:36.571609  1835 layer_factory.cpp:177] Layer inception_5a/3x3_bn is using CAFFE engine.
I0221 17:16:36.571617  1835 net.cpp:96] Creating Layer inception_5a/3x3_bn
I0221 17:16:36.571624  1835 net.cpp:459] inception_5a/3x3_bn <- inception_5a/3x3
I0221 17:16:36.571632  1835 net.cpp:415] inception_5a/3x3_bn -> inception_5a/3x3_bn
I0221 17:16:36.571640  1835 net.cpp:160] Setting up inception_5a/3x3_bn
I0221 17:16:36.571658  1835 net.cpp:167] Top shape: 72 320 7 7 (1128960)
I0221 17:16:36.571667  1835 layer_factory.hpp:74] Creating layer inception_5a/relu_3x3
I0221 17:16:36.571676  1835 net.cpp:96] Creating Layer inception_5a/relu_3x3
I0221 17:16:36.571681  1835 net.cpp:459] inception_5a/relu_3x3 <- inception_5a/3x3_bn
I0221 17:16:36.571687  1835 net.cpp:404] inception_5a/relu_3x3 -> inception_5a/3x3_bn (in-place)
I0221 17:16:36.571696  1835 net.cpp:160] Setting up inception_5a/relu_3x3
I0221 17:16:36.571702  1835 net.cpp:167] Top shape: 72 320 7 7 (1128960)
I0221 17:16:36.571707  1835 layer_factory.hpp:74] Creating layer inception_5a/double_3x3_reduce
I0221 17:16:36.571715  1835 net.cpp:96] Creating Layer inception_5a/double_3x3_reduce
I0221 17:16:36.571719  1835 net.cpp:459] inception_5a/double_3x3_reduce <- inception_4e/output_inception_4e/output_0_split_2
I0221 17:16:36.571727  1835 net.cpp:415] inception_5a/double_3x3_reduce -> inception_5a/double_3x3_reduce
I0221 17:16:36.571734  1835 net.cpp:160] Setting up inception_5a/double_3x3_reduce
I0221 17:16:36.572844  1835 net.cpp:167] Top shape: 72 160 7 7 (564480)
I0221 17:16:36.572856  1835 layer_factory.hpp:74] Creating layer inception_5a/double_3x3_reduce_bn
I0221 17:16:36.572862  1835 layer_factory.cpp:177] Layer inception_5a/double_3x3_reduce_bn is using CAFFE engine.
I0221 17:16:36.572870  1835 net.cpp:96] Creating Layer inception_5a/double_3x3_reduce_bn
I0221 17:16:36.572875  1835 net.cpp:459] inception_5a/double_3x3_reduce_bn <- inception_5a/double_3x3_reduce
I0221 17:16:36.572885  1835 net.cpp:415] inception_5a/double_3x3_reduce_bn -> inception_5a/double_3x3_reduce_bn
…
I0221 17:16:36.675976  1835 net.cpp:415] inception_4d/double_3x3_reduce -> inception_4d/double_3x3_reduce
I0221 17:16:36.675981  1835 net.cpp:160] Setting up inception_4d/double_3x3_reduce
I0221 17:16:36.676460  1835 net.cpp:167] Top shape: 3 160 14 14 (94080)
I0221 17:16:36.676465  1835 layer_factory.hpp:74] Creating layer inception_4d/double_3x3_reduce_bn
I0221 17:16:36.676468  1835 layer_factory.cpp:177] Layer inception_4d/double_3x3_reduce_bn is using CAFFE engine.
I0221 17:16:36.676473  1835 net.cpp:96] Creating Layer inception_4d/double_3x3_reduce_bn
I0221 17:16:36.676477  1835 net.cpp:459] inception_4d/double_3x3_reduce_bn <- inception_4d/double_3x3_reduce
I0221 17:16:36.676481  1835 net.cpp:415] inception_4d/double_3x3_reduce_bn -> inception_4d/double_3x3_reduce_bn
I0221 17:16:36.676486  1835 net.cpp:160] Setting up inception_4d/double_3x3_reduce_bn
I0221 17:16:36.676496  1835 net.cpp:167] Top shape: 3 160 14 14 (94080)
I0221 17:16:36.676501  1835 layer_factory.hpp:74] Creating layer inception_4d/relu_double_3x3_reduce
I0221 17:16:36.676506  1835 net.cpp:96] Creating Layer inception_4d/relu_double_3x3_reduce
I0221 17:16:36.676509  1835 net.cpp:459] inception_4d/relu_double_3x3_reduce <- inception_4d/double_3x3_reduce_bn
I0221 17:16:36.676512  1835 net.cpp:404] inception_4d/relu_double_3x3_reduce -> inception_4d/double_3x3_reduce_bn (in-place)
I0221 17:16:36.676517  1835 net.cpp:160] Setting up inception_4d/relu_double_3x3_reduce
I0221 17:16:36.676519  1835 net.cpp:167] Top shape: 3 160 14 14 (94080)
I0221 17:16:36.676522  1835 layer_factory.hpp:74] Creating layer inception_4d/double_3x3_1
I0221 17:16:36.676528  1835 net.cpp:96] Creating Layer inception_4d/double_3x3_1
I0221 17:16:36.676530  1835 net.cpp:459] inception_4d/double_3x3_1 <- inception_4d/double_3x3_reduce_bn
I0221 17:16:36.676535  1835 net.cpp:415] inception_4d/double_3x3_1 -> inception_4d/double_3x3_1
I0221 17:16:36.676539  1835 net.cpp:160] Setting up inception_4d/double_3x3_1
I0221 17:16:36.677881  1835 net.cpp:167] Top shape: 3 192 14 14 (112896)
I0221 17:16:36.677886  1835 layer_factory.hpp:74] Creating layer inception_4d/double_3x3_1_bn
I0221 17:16:36.677889  1835 layer_factory.cpp:177] Layer inception_4d/double_3x3_1_bn is using CAFFE engine.
I0221 17:16:36.677894  1835 net.cpp:96] Creating Layer inception_4d/double_3x3_1_bn
I0221 17:16:36.677898  1835 net.cpp:459] inception_4d/double_3x3_1_bn <- inception_4d/double_3x3_1
I0221 17:16:36.677902  1835 net.cpp:415] inception_4d/double_3x3_1_bn -> inception_4d/double_3x3_1_bn
I0221 17:16:36.677907  1835 net.cpp:160] Setting up inception_4d/double_3x3_1_bn
I0221 17:16:36.677917  1835 net.cpp:167] Top shape: 3 192 14 14 (112896)
I0221 17:16:36.677922  1835 layer_factory.hpp:74] Creating layer inception_4d/relu_double_3x3_1
I0221 17:16:36.677927  1835 net.cpp:96] Creating Layer inception_4d/relu_double_3x3_1
I0221 17:16:36.677929  1835 net.cpp:459] inception_4d/relu_double_3x3_1 <- inception_4d/double_3x3_1_bn
I0221 17:16:36.677933  1835 net.cpp:404] inception_4d/relu_double_3x3_1 -> inception_4d/double_3x3_1_bn (in-place)
I0221 17:16:36.677937  1835 net.cpp:160] Setting up inception_4d/relu_double_3x3_1
I0221 17:16:36.677940  1835 net.cpp:167] Top shape: 3 192 14 14 (112896)
I0221 17:16:36.677942  1835 layer_factory.hpp:74] Creating layer inception_4d/double_3x3_2
I0221 17:16:36.677947  1835 net.cpp:96] Creating Layer inception_4d/double_3x3_2
I0221 17:16:36.677950  1835 net.cpp:459] inception_4d/double_3x3_2 <- inception_4d/double_3x3_1_bn
I0221 17:16:36.677954  1835 net.cpp:415] inception_4d/double_3x3_2 -> inception_4d/double_3x3_2
I0221 17:16:36.677959  1835 net.cpp:160] Setting up inception_4d/double_3x3_2
I0221 17:16:36.679575  1835 net.cpp:167] Top shape: 3 192 14 14 (112896)
I0221 17:16:36.679582  1835 layer_factory.hpp:74] Creating layer inception_4d/double_3x3_2_bn
I0221 17:16:36.679589  1835 layer_factory.cpp:177] Layer inception_4d/double_3x3_2_bn is using CAFFE engine.
I0221 17:16:36.679597  1835 net.cpp:96] Creating Layer inception_4d/double_3x3_2_bn
I0221 17:16:36.679600  1835 net.cpp:459] inception_4d/double_3x3_2_bn <- inception_4d/double_3x3_2
I0221 17:16:36.679605  1835 net.cpp:415] inception_4d/double_3x3_2_bn -> inception_4d/double_3x3_2_bn
I0221 17:16:36.679610  1835 net.cpp:160] Setting up inception_4d/double_3x3_2_bn
I0221 17:16:36.679620  1835 net.cpp:167] Top shape: 3 192 14 14 (112896)
I0221 17:16:36.679625  1835 layer_factory.hpp:74] Creating layer inception_4d/relu_double_3x3_2
I0221 17:16:36.679631  1835 net.cpp:96] Creating Layer inception_4d/relu_double_3x3_2
I0221 17:16:36.679635  1835 net.cpp:459] inception_4d/relu_double_3x3_2 <- inception_4d/double_3x3_2_bn
I0221 17:16:36.679637  1835 net.cpp:404] inception_4d/relu_double_3x3_2 -> inception_4d/double_3x3_2_bn (in-place)
I0221 17:16:36.679642  1835 net.cpp:160] Setting up inception_4d/relu_double_3x3_2
I0221 17:16:36.679646  1835 net.cpp:167] Top shape: 3 192 14 14 (112896)
I0221 17:16:36.679647  1835 layer_factory.hpp:74] Creating layer inception_4d/pool
I0221 17:16:36.679652  1835 net.cpp:96] Creating Layer inception_4d/pool
I0221 17:16:36.679656  1835 net.cpp:459] inception_4d/pool <- inception_4c/output_inception_4c/output_0_split_3
I0221 17:16:36.679659  1835 net.cpp:415] inception_4d/pool -> inception_4d/pool
I0221 17:16:36.679663  1835 net.cpp:160] Setting up inception_4d/pool
I0221 17:16:36.679667  1835 net.cpp:167] Top shape: 3 608 14 14 (357504)
I0221 17:16:36.679671  1835 layer_factory.hpp:74] Creating layer inception_4d/pool_proj
I0221 17:16:36.679677  1835 net.cpp:96] Creating Layer inception_4d/pool_proj
I0221 17:16:36.679679  1835 net.cpp:459] inception_4d/pool_proj <- inception_4d/pool
I0221 17:16:36.679683  1835 net.cpp:415] inception_4d/pool_proj -> inception_4d/pool_proj
I0221 17:16:36.679687  1835 net.cpp:160] Setting up inception_4d/pool_proj
I0221 17:16:36.680071  1835 net.cpp:167] Top shape: 3 128 14 14 (75264)
I0221 17:16:36.680078  1835 layer_factory.hpp:74] Creating layer inception_4d/pool_proj_bn
I0221 17:16:36.680080  1835 layer_factory.cpp:177] Layer inception_4d/pool_proj_bn is using CAFFE engine.
I0221 17:16:36.680085  1835 net.cpp:96] Creating Layer inception_4d/pool_proj_bn
I0221 17:16:36.680089  1835 net.cpp:459] inception_4d/pool_proj_bn <- inception_4d/pool_proj
I0221 17:16:36.680094  1835 net.cpp:415] inception_4d/pool_proj_bn -> inception_4d/pool_proj_bn
I0221 17:16:36.680099  1835 net.cpp:160] Setting up inception_4d/pool_proj_bn
I0221 17:16:36.680107  1835 net.cpp:167] Top shape: 3 128 14 14 (75264)
I0221 17:16:36.680112  1835 layer_factory.hpp:74] Creating layer inception_4d/relu_pool_proj
I0221 17:16:36.680117  1835 net.cpp:96] Creating Layer inception_4d/relu_pool_proj
I0221 17:16:36.680120  1835 net.cpp:459] inception_4d/relu_pool_proj <- inception_4d/pool_proj_bn
I0221 17:16:36.680124  1835 net.cpp:404] inception_4d/relu_pool_proj -> inception_4d/pool_proj_bn (in-place)
I0221 17:16:36.680129  1835 net.cpp:160] Setting up inception_4d/relu_pool_proj
I0221 17:16:36.680131  1835 net.cpp:167] Top shape: 3 128 14 14 (75264)
I0221 17:16:36.680135  1835 layer_factory.hpp:74] Creating layer inception_4d/output
I0221 17:16:36.680138  1835 net.cpp:96] Creating Layer inception_4d/output
I0221 17:16:36.680141  1835 net.cpp:459] inception_4d/output <- inception_4d/1x1_bn
I0221 17:16:36.680145  1835 net.cpp:459] inception_4d/output <- inception_4d/3x3_bn
I0221 17:16:36.680147  1835 net.cpp:459] inception_4d/output <- inception_4d/double_3x3_2_bn
I0221 17:16:36.680151  1835 net.cpp:459] inception_4d/output <- inception_4d/pool_proj_bn
I0221 17:16:36.680155  1835 net.cpp:415] inception_4d/output -> inception_4d/output
I0221 17:16:36.680160  1835 net.cpp:160] Setting up inception_4d/output
I0221 17:16:36.680164  1835 net.cpp:167] Top shape: 3 608 14 14 (357504)
I0221 17:16:36.680167  1835 layer_factory.hpp:74] Creating layer inception_4d/output_inception_4d/output_0_split
I0221 17:16:36.680174  1835 net.cpp:96] Creating Layer inception_4d/output_inception_4d/output_0_split
I0221 17:16:36.680179  1835 net.cpp:459] inception_4d/output_inception_4d/output_0_split <- inception_4d/output
I0221 17:16:36.680183  1835 net.cpp:415] inception_4d/output_inception_4d/output_0_split -> inception_4d/output_inception_4d/output_0_split_0
I0221 17:16:36.680188  1835 net.cpp:415] inception_4d/output_inception_4d/output_0_split -> inception_4d/output_inception_4d/output_0_split_1
I0221 17:16:36.680193  1835 net.cpp:415] inception_4d/output_inception_4d/output_0_split -> inception_4d/output_inception_4d/output_0_split_2
I0221 17:16:36.680197  1835 net.cpp:160] Setting up inception_4d/output_inception_4d/output_0_split
I0221 17:16:36.680202  1835 net.cpp:167] Top shape: 3 608 14 14 (357504)
I0221 17:16:36.680205  1835 net.cpp:167] Top shape: 3 608 14 14 (357504)
I0221 17:16:36.680208  1835 net.cpp:167] Top shape: 3 608 14 14 (357504)
I0221 17:16:36.680212  1835 layer_factory.hpp:74] Creating layer inception_4e/3x3_reduce
I0221 17:16:36.680217  1835 net.cpp:96] Creating Layer inception_4e/3x3_reduce
I0221 17:16:36.680219  1835 net.cpp:459] inception_4e/3x3_reduce <- inception_4d/output_inception_4d/output_0_split_0
I0221 17:16:36.680223  1835 net.cpp:415] inception_4e/3x3_reduce -> inception_4e/3x3_reduce
I0221 17:16:36.680228  1835 net.cpp:160] Setting up inception_4e/3x3_reduce
I0221 17:16:36.680615  1835 net.cpp:167] Top shape: 3 128 14 14 (75264)
I0221 17:16:36.680621  1835 layer_factory.hpp:74] Creating layer inception_4e/3x3_reduce_bn
I0221 17:16:36.680624  1835 layer_factory.cpp:177] Layer inception_4e/3x3_reduce_bn is using CAFFE engine.
I0221 17:16:36.680630  1835 net.cpp:96] Creating Layer inception_4e/3x3_reduce_bn
I0221 17:16:36.680634  1835 net.cpp:459] inception_4e/3x3_reduce_bn <- inception_4e/3x3_reduce
I0221 17:16:36.680637  1835 net.cpp:415] inception_4e/3x3_reduce_bn -> inception_4e/3x3_reduce_bn
I0221 17:16:36.680642  1835 net.cpp:160] Setting up inception_4e/3x3_reduce_bn
I0221 17:16:36.680651  1835 net.cpp:167] Top shape: 3 128 14 14 (75264)
I0221 17:16:36.680656  1835 layer_factory.hpp:74] Creating layer inception_4e/relu_3x3_reduce
I0221 17:16:36.680661  1835 net.cpp:96] Creating Layer inception_4e/relu_3x3_reduce
I0221 17:16:36.680665  1835 net.cpp:459] inception_4e/relu_3x3_reduce <- inception_4e/3x3_reduce_bn
I0221 17:16:36.680668  1835 net.cpp:404] inception_4e/relu_3x3_reduce -> inception_4e/3x3_reduce_bn (in-place)
I0221 17:16:36.680672  1835 net.cpp:160] Setting up inception_4e/relu_3x3_reduce
I0221 17:16:36.680675  1835 net.cpp:167] Top shape: 3 128 14 14 (75264)
I0221 17:16:36.680678  1835 layer_factory.hpp:74] Creating layer inception_4e/3x3
I0221 17:16:36.680682  1835 net.cpp:96] Creating Layer inception_4e/3x3
I0221 17:16:36.680685  1835 net.cpp:459] inception_4e/3x3 <- inception_4e/3x3_reduce_bn
I0221 17:16:36.680691  1835 net.cpp:415] inception_4e/3x3 -> inception_4e/3x3
I0221 17:16:36.680694  1835 net.cpp:160] Setting up inception_4e/3x3
I0221 17:16:36.681787  1835 net.cpp:167] Top shape: 3 192 7 7 (28224)
I0221 17:16:36.681792  1835 layer_factory.hpp:74] Creating layer inception_4e/3x3_bn
I0221 17:16:36.681795  1835 layer_factory.cpp:177] Layer inception_4e/3x3_bn is using CAFFE engine.
I0221 17:16:36.681800  1835 net.cpp:96] Creating Layer inception_4e/3x3_bn
I0221 17:16:36.681803  1835 net.cpp:459] inception_4e/3x3_bn <- inception_4e/3x3
I0221 17:16:36.681808  1835 net.cpp:415] inception_4e/3x3_bn -> inception_4e/3x3_bn
I0221 17:16:36.681813  1835 net.cpp:160] Setting up inception_4e/3x3_bn
I0221 17:16:36.681823  1835 net.cpp:167] Top shape: 3 192 7 7 (28224)
I0221 17:16:36.681828  1835 layer_factory.hpp:74] Creating layer inception_4e/relu_3x3
I0221 17:16:36.681833  1835 net.cpp:96] Creating Layer inception_4e/relu_3x3
I0221 17:16:36.681835  1835 net.cpp:459] inception_4e/relu_3x3 <- inception_4e/3x3_bn
I0221 17:16:36.681839  1835 net.cpp:404] inception_4e/relu_3x3 -> inception_4e/3x3_bn (in-place)
I0221 17:16:36.681843  1835 net.cpp:160] Setting up inception_4e/relu_3x3
I0221 17:16:36.681849  1835 net.cpp:167] Top shape: 3 192 7 7 (28224)
I0221 17:16:36.681854  1835 layer_factory.hpp:74] Creating layer inception_4e/double_3x3_reduce
I0221 17:16:36.681859  1835 net.cpp:96] Creating Layer inception_4e/double_3x3_reduce
I0221 17:16:36.681862  1835 net.cpp:459] inception_4e/double_3x3_reduce <- inception_4d/output_inception_4d/output_0_split_1
I0221 17:16:36.681867  1835 net.cpp:415] inception_4e/double_3x3_reduce -> inception_4e/double_3x3_reduce
I0221 17:16:36.681871  1835 net.cpp:160] Setting up inception_4e/double_3x3_reduce
I0221 17:16:36.682461  1835 net.cpp:167] Top shape: 3 192 14 14 (112896)
I0221 17:16:36.682468  1835 layer_factory.hpp:74] Creating layer inception_4e/double_3x3_reduce_bn
I0221 17:16:36.682472  1835 layer_factory.cpp:177] Layer inception_4e/double_3x3_reduce_bn is using CAFFE engine.
I0221 17:16:36.682477  1835 net.cpp:96] Creating Layer inception_4e/double_3x3_reduce_bn
I0221 17:16:36.682481  1835 net.cpp:459] inception_4e/double_3x3_reduce_bn <- inception_4e/double_3x3_reduce
I0221 17:16:36.682484  1835 net.cpp:415] inception_4e/double_3x3_reduce_bn -> inception_4e/double_3x3_reduce_bn
I0221 17:16:36.682489  1835 net.cpp:160] Setting up inception_4e/double_3x3_reduce_bn
I0221 17:16:36.682502  1835 net.cpp:167] Top shape: 3 192 14 14 (112896)
I0221 17:16:36.682507  1835 layer_factory.hpp:74] Creating layer inception_4e/relu_double_3x3_reduce
I0221 17:16:36.682512  1835 net.cpp:96] Creating Layer inception_4e/relu_double_3x3_reduce
I0221 17:16:36.682513  1835 net.cpp:459] inception_4e/relu_double_3x3_reduce <- inception_4e/double_3x3_reduce_bn
I0221 17:16:36.682518  1835 net.cpp:404] inception_4e/relu_double_3x3_reduce -> inception_4e/double_3x3_reduce_bn (in-place)
I0221 17:16:36.682521  1835 net.cpp:160] Setting up inception_4e/relu_double_3x3_reduce
I0221 17:16:36.682524  1835 net.cpp:167] Top shape: 3 192 14 14 (112896)
I0221 17:16:36.682528  1835 layer_factory.hpp:74] Creating layer inception_4e/double_3x3_1
I0221 17:16:36.682533  1835 net.cpp:96] Creating Layer inception_4e/double_3x3_1
I0221 17:16:36.682535  1835 net.cpp:459] inception_4e/double_3x3_1 <- inception_4e/double_3x3_reduce_bn
I0221 17:16:36.682540  1835 net.cpp:415] inception_4e/double_3x3_1 -> inception_4e/double_3x3_1
I0221 17:16:36.682544  1835 net.cpp:160] Setting up inception_4e/double_3x3_1
I0221 17:16:36.684756  1835 net.cpp:167] Top shape: 3 256 14 14 (150528)
I0221 17:16:36.684774  1835 layer_factory.hpp:74] Creating layer inception_4e/double_3x3_1_bn
I0221 17:16:36.684779  1835 layer_factory.cpp:177] Layer inception_4e/double_3x3_1_bn is using CAFFE engine.
I0221 17:16:36.684785  1835 net.cpp:96] Creating Layer inception_4e/double_3x3_1_bn
I0221 17:16:36.684789  1835 net.cpp:459] inception_4e/double_3x3_1_bn <- inception_4e/double_3x3_1
I0221 17:16:36.684794  1835 net.cpp:415] inception_4e/double_3x3_1_bn -> inception_4e/double_3x3_1_bn
I0221 17:16:36.684800  1835 net.cpp:160] Setting up inception_4e/double_3x3_1_bn
I0221 17:16:36.684813  1835 net.cpp:167] Top shape: 3 256 14 14 (150528)
I0221 17:16:36.684818  1835 layer_factory.hpp:74] Creating layer inception_4e/relu_double_3x3_1
I0221 17:16:36.684823  1835 net.cpp:96] Creating Layer inception_4e/relu_double_3x3_1
I0221 17:16:36.684826  1835 net.cpp:459] inception_4e/relu_double_3x3_1 <- inception_4e/double_3x3_1_bn
I0221 17:16:36.684830  1835 net.cpp:404] inception_4e/relu_double_3x3_1 -> inception_4e/double_3x3_1_bn (in-place)
I0221 17:16:36.684835  1835 net.cpp:160] Setting up inception_4e/relu_double_3x3_1
I0221 17:16:36.684839  1835 net.cpp:167] Top shape: 3 256 14 14 (150528)
I0221 17:16:36.684841  1835 layer_factory.hpp:74] Creating layer inception_4e/double_3x3_2
I0221 17:16:36.684846  1835 net.cpp:96] Creating Layer inception_4e/double_3x3_2
I0221 17:16:36.684849  1835 net.cpp:459] inception_4e/double_3x3_2 <- inception_4e/double_3x3_1_bn
I0221 17:16:36.684854  1835 net.cpp:415] inception_4e/double_3x3_2 -> inception_4e/double_3x3_2
I0221 17:16:36.684859  1835 net.cpp:160] Setting up inception_4e/double_3x3_2
I0221 17:16:36.687747  1835 net.cpp:167] Top shape: 3 256 7 7 (37632)
I0221 17:16:36.687764  1835 layer_factory.hpp:74] Creating layer inception_4e/double_3x3_2_bn
I0221 17:16:36.687768  1835 layer_factory.cpp:177] Layer inception_4e/double_3x3_2_bn is using CAFFE engine.
I0221 17:16:36.687773  1835 net.cpp:96] Creating Layer inception_4e/double_3x3_2_bn
I0221 17:16:36.687778  1835 net.cpp:459] inception_4e/double_3x3_2_bn <- inception_4e/double_3x3_2
I0221 17:16:36.687783  1835 net.cpp:415] inception_4e/double_3x3_2_bn -> inception_4e/double_3x3_2_bn
I0221 17:16:36.687788  1835 net.cpp:160] Setting up inception_4e/double_3x3_2_bn
I0221 17:16:36.687798  1835 net.cpp:167] Top shape: 3 256 7 7 (37632)
I0221 17:16:36.687804  1835 layer_factory.hpp:74] Creating layer inception_4e/relu_double_3x3_2
I0221 17:16:36.687808  1835 net.cpp:96] Creating Layer inception_4e/relu_double_3x3_2
I0221 17:16:36.687811  1835 net.cpp:459] inception_4e/relu_double_3x3_2 <- inception_4e/double_3x3_2_bn
I0221 17:16:36.687815  1835 net.cpp:404] inception_4e/relu_double_3x3_2 -> inception_4e/double_3x3_2_bn (in-place)
I0221 17:16:36.687819  1835 net.cpp:160] Setting up inception_4e/relu_double_3x3_2
I0221 17:16:36.687822  1835 net.cpp:167] Top shape: 3 256 7 7 (37632)
I0221 17:16:36.687825  1835 layer_factory.hpp:74] Creating layer inception_4e/pool
I0221 17:16:36.687830  1835 net.cpp:96] Creating Layer inception_4e/pool
I0221 17:16:36.687834  1835 net.cpp:459] inception_4e/pool <- inception_4d/output_inception_4d/output_0_split_2
I0221 17:16:36.687839  1835 net.cpp:415] inception_4e/pool -> inception_4e/pool
I0221 17:16:36.687844  1835 net.cpp:160] Setting up inception_4e/pool
I0221 17:16:36.687849  1835 net.cpp:167] Top shape: 3 608 7 7 (89376)
I0221 17:16:36.687852  1835 layer_factory.hpp:74] Creating layer inception_4e/output
I0221 17:16:36.687856  1835 net.cpp:96] Creating Layer inception_4e/output
I0221 17:16:36.687860  1835 net.cpp:459] inception_4e/output <- inception_4e/3x3_bn
I0221 17:16:36.687863  1835 net.cpp:459] inception_4e/output <- inception_4e/double_3x3_2_bn
I0221 17:16:36.687867  1835 net.cpp:459] inception_4e/output <- inception_4e/pool
I0221 17:16:36.687872  1835 net.cpp:415] inception_4e/output -> inception_4e/output
I0221 17:16:36.687876  1835 net.cpp:160] Setting up inception_4e/output
I0221 17:16:36.687881  1835 net.cpp:167] Top shape: 3 1056 7 7 (155232)
I0221 17:16:36.687885  1835 layer_factory.hpp:74] Creating layer inception_4e/output_inception_4e/output_0_split
I0221 17:16:36.687889  1835 net.cpp:96] Creating Layer inception_4e/output_inception_4e/output_0_split
I0221 17:16:36.687892  1835 net.cpp:459] inception_4e/output_inception_4e/output_0_split <- inception_4e/output
I0221 17:16:36.687896  1835 net.cpp:415] inception_4e/output_inception_4e/output_0_split -> inception_4e/output_inception_4e/output_0_split_0
I0221 17:16:36.687901  1835 net.cpp:415] inception_4e/output_inception_4e/output_0_split -> inception_4e/output_inception_4e/output_0_split_1
I0221 17:16:36.687906  1835 net.cpp:415] inception_4e/output_inception_4e/output_0_split -> inception_4e/output_inception_4e/output_0_split_2
I0221 17:16:36.687911  1835 net.cpp:415] inception_4e/output_inception_4e/output_0_split -> inception_4e/output_inception_4e/output_0_split_3
I0221 17:16:36.687916  1835 net.cpp:160] Setting up inception_4e/output_inception_4e/output_0_split
I0221 17:16:36.687919  1835 net.cpp:167] Top shape: 3 1056 7 7 (155232)
I0221 17:16:36.687922  1835 net.cpp:167] Top shape: 3 1056 7 7 (155232)
I0221 17:16:36.687925  1835 net.cpp:167] Top shape: 3 1056 7 7 (155232)
I0221 17:16:36.687928  1835 net.cpp:167] Top shape: 3 1056 7 7 (155232)
I0221 17:16:36.687932  1835 layer_factory.hpp:74] Creating layer inception_5a/1x1
I0221 17:16:36.687937  1835 net.cpp:96] Creating Layer inception_5a/1x1
I0221 17:16:36.687940  1835 net.cpp:459] inception_5a/1x1 <- inception_4e/output_inception_4e/output_0_split_0
I0221 17:16:36.687944  1835 net.cpp:415] inception_5a/1x1 -> inception_5a/1x1
I0221 17:16:36.687948  1835 net.cpp:160] Setting up inception_5a/1x1
I0221 17:16:36.689784  1835 net.cpp:167] Top shape: 3 352 7 7 (51744)
I0221 17:16:36.689796  1835 layer_factory.hpp:74] Creating layer inception_5a/1x1_bn
I0221 17:16:36.689800  1835 layer_factory.cpp:177] Layer inception_5a/1x1_bn is using CAFFE engine.
I0221 17:16:36.689805  1835 net.cpp:96] Creating Layer inception_5a/1x1_bn
I0221 17:16:36.689808  1835 net.cpp:459] inception_5a/1x1_bn <- inception_5a/1x1
I0221 17:16:36.689815  1835 net.cpp:415] inception_5a/1x1_bn -> inception_5a/1x1_bn
I0221 17:16:36.689820  1835 net.cpp:160] Setting up inception_5a/1x1_bn
I0221 17:16:36.689831  1835 net.cpp:167] Top shape: 3 352 7 7 (51744)
I0221 17:16:36.689836  1835 layer_factory.hpp:74] Creating layer inception_5a/relu_1x1
I0221 17:16:36.689841  1835 net.cpp:96] Creating Layer inception_5a/relu_1x1
I0221 17:16:36.689844  1835 net.cpp:459] inception_5a/relu_1x1 <- inception_5a/1x1_bn
I0221 17:16:36.689848  1835 net.cpp:404] inception_5a/relu_1x1 -> inception_5a/1x1_bn (in-place)
I0221 17:16:36.689852  1835 net.cpp:160] Setting up inception_5a/relu_1x1
I0221 17:16:36.689855  1835 net.cpp:167] Top shape: 3 352 7 7 (51744)
I0221 17:16:36.689858  1835 layer_factory.hpp:74] Creating layer inception_5a/3x3_reduce
I0221 17:16:36.689863  1835 net.cpp:96] Creating Layer inception_5a/3x3_reduce
I0221 17:16:36.689867  1835 net.cpp:459] inception_5a/3x3_reduce <- inception_4e/output_inception_4e/output_0_split_1
I0221 17:16:36.689872  1835 net.cpp:415] inception_5a/3x3_reduce -> inception_5a/3x3_reduce
I0221 17:16:36.689877  1835 net.cpp:160] Setting up inception_5a/3x3_reduce
I0221 17:16:36.690870  1835 net.cpp:167] Top shape: 3 192 7 7 (28224)
I0221 17:16:36.690876  1835 layer_factory.hpp:74] Creating layer inception_5a/3x3_reduce_bn
I0221 17:16:36.690879  1835 layer_factory.cpp:177] Layer inception_5a/3x3_reduce_bn is using CAFFE engine.
I0221 17:16:36.690883  1835 net.cpp:96] Creating Layer inception_5a/3x3_reduce_bn
I0221 17:16:36.690887  1835 net.cpp:459] inception_5a/3x3_reduce_bn <- inception_5a/3x3_reduce
I0221 17:16:36.690892  1835 net.cpp:415] inception_5a/3x3_reduce_bn -> inception_5a/3x3_reduce_bn
I0221 17:16:36.690897  1835 net.cpp:160] Setting up inception_5a/3x3_reduce_bn
I0221 17:16:36.690908  1835 net.cpp:167] Top shape: 3 192 7 7 (28224)
I0221 17:16:36.690914  1835 layer_factory.hpp:74] Creating layer inception_5a/relu_3x3_reduce
I0221 17:16:36.690918  1835 net.cpp:96] Creating Layer inception_5a/relu_3x3_reduce
I0221 17:16:36.690922  1835 net.cpp:459] inception_5a/relu_3x3_reduce <- inception_5a/3x3_reduce_bn
I0221 17:16:36.690925  1835 net.cpp:404] inception_5a/relu_3x3_reduce -> inception_5a/3x3_reduce_bn (in-place)
I0221 17:16:36.690929  1835 net.cpp:160] Setting up inception_5a/relu_3x3_reduce
I0221 17:16:36.690932  1835 net.cpp:167] Top shape: 3 192 7 7 (28224)
I0221 17:16:36.690935  1835 layer_factory.hpp:74] Creating layer inception_5a/3x3
I0221 17:16:36.690940  1835 net.cpp:96] Creating Layer inception_5a/3x3
I0221 17:16:36.690943  1835 net.cpp:459] inception_5a/3x3 <- inception_5a/3x3_reduce_bn
I0221 17:16:36.690948  1835 net.cpp:415] inception_5a/3x3 -> inception_5a/3x3
I0221 17:16:36.690953  1835 net.cpp:160] Setting up inception_5a/3x3
I0221 17:16:36.693464  1835 net.cpp:167] Top shape: 3 320 7 7 (47040)
I0221 17:16:36.693470  1835 layer_factory.hpp:74] Creating layer inception_5a/3x3_bn
I0221 17:16:36.693473  1835 layer_factory.cpp:177] Layer inception_5a/3x3_bn is using CAFFE engine.
I0221 17:16:36.693478  1835 net.cpp:96] Creating Layer inception_5a/3x3_bn
I0221 17:16:36.693481  1835 net.cpp:459] inception_5a/3x3_bn <- inception_5a/3x3
I0221 17:16:36.693485  1835 net.cpp:415] inception_5a/3x3_bn -> inception_5a/3x3_bn
I0221 17:16:36.693490  1835 net.cpp:160] Setting up inception_5a/3x3_bn
I0221 17:16:36.693500  1835 net.cpp:167] Top shape: 3 320 7 7 (47040)
I0221 17:16:36.693505  1835 layer_factory.hpp:74] Creating layer inception_5a/relu_3x3
I0221 17:16:36.693508  1835 net.cpp:96] Creating Layer inception_5a/relu_3x3
I0221 17:16:36.693511  1835 net.cpp:459] inception_5a/relu_3x3 <- inception_5a/3x3_bn
I0221 17:16:36.693517  1835 net.cpp:404] inception_5a/relu_3x3 -> inception_5a/3x3_bn (in-place)
I0221 17:16:36.693526  1835 net.cpp:160] Setting up inception_5a/relu_3x3
I0221 17:16:36.693529  1835 net.cpp:167] Top shape: 3 320 7 7 (47040)
I0221 17:16:36.693531  1835 layer_factory.hpp:74] Creating layer inception_5a/double_3x3_reduce
I0221 17:16:36.693536  1835 net.cpp:96] Creating Layer inception_5a/double_3x3_reduce
I0221 17:16:36.693539  1835 net.cpp:459] inception_5a/double_3x3_reduce <- inception_4e/output_inception_4e/output_0_split_2
I0221 17:16:36.693544  1835 net.cpp:415] inception_5a/double_3x3_reduce -> inception_5a/double_3x3_reduce
I0221 17:16:36.693548  1835 net.cpp:160] Setting up inception_5a/double_3x3_reduce
I0221 17:16:36.694366  1835 net.cpp:167] Top shape: 3 160 7 7 (23520)
I0221 17:16:36.694373  1835 layer_factory.hpp:74] Creating layer inception_5a/double_3x3_reduce_bn
I0221 17:16:36.694376  1835 layer_factory.cpp:177] Layer inception_5a/double_3x3_reduce_bn is using CAFFE engine.
I0221 17:16:36.694381  1835 net.cpp:96] Creating Layer inception_5a/double_3x3_reduce_bn
I0221 17:16:36.694386  1835 net.cpp:459] inception_5a/double_3x3_reduce_bn <- inception_5a/double_3x3_reduce
I0221 17:16:36.694389  1835 net.cpp:415] inception_5a/double_3x3_reduce_bn -> inception_5a/double_3x3_reduce_bn
I0221 17:16:36.694394  1835 net.cpp:160] Setting up inception_5a/double_3x3_reduce_bn
I0221 17:16:36.694404  1835 net.cpp:167] Top shape: 3 160 7 7 (23520)
I0221 17:16:36.694409  1835 layer_factory.hpp:74] Creating layer inception_5a/relu_double_3x3_reduce
I0221 17:16:36.694413  1835 net.cpp:96] Creating Layer inception_5a/relu_double_3x3_reduce
I0221 17:16:36.694416  1835 net.cpp:459] inception_5a/relu_double_3x3_reduce <- inception_5a/double_3x3_reduce_bn
I0221 17:16:36.694420  1835 net.cpp:404] inception_5a/relu_double_3x3_reduce -> inception_5a/double_3x3_reduce_bn (in-place)
I0221 17:16:36.694424  1835 net.cpp:160] Setting up inception_5a/relu_double_3x3_reduce
I0221 17:16:36.694427  1835 net.cpp:167] Top shape: 3 160 7 7 (23520)
I0221 17:16:36.694430  1835 layer_factory.hpp:74] Creating layer inception_5a/double_3x3_1
I0221 17:16:36.694435  1835 net.cpp:96] Creating Layer inception_5a/double_3x3_1
I0221 17:16:36.694438  1835 net.cpp:459] inception_5a/double_3x3_1 <- inception_5a/double_3x3_reduce_bn
I0221 17:16:36.694443  1835 net.cpp:415] inception_5a/double_3x3_1 -> inception_5a/double_3x3_1
I0221 17:16:36.694448  1835 net.cpp:160] Setting up inception_5a/double_3x3_1
I0221 17:16:36.696012  1835 net.cpp:167] Top shape: 3 224 7 7 (32928)
I0221 17:16:36.696017  1835 layer_factory.hpp:74] Creating layer inception_5a/double_3x3_1_bn
I0221 17:16:36.696022  1835 layer_factory.cpp:177] Layer inception_5a/double_3x3_1_bn is using CAFFE engine.
I0221 17:16:36.696025  1835 net.cpp:96] Creating Layer inception_5a/double_3x3_1_bn
I0221 17:16:36.696028  1835 net.cpp:459] inception_5a/double_3x3_1_bn <- inception_5a/double_3x3_1
I0221 17:16:36.696034  1835 net.cpp:415] inception_5a/double_3x3_1_bn -> inception_5a/double_3x3_1_bn
I0221 17:16:36.696039  1835 net.cpp:160] Setting up inception_5a/double_3x3_1_bn
I0221 17:16:36.696049  1835 net.cpp:167] Top shape: 3 224 7 7 (32928)
I0221 17:16:36.696054  1835 layer_factory.hpp:74] Creating layer inception_5a/relu_double_3x3_1
I0221 17:16:36.696058  1835 net.cpp:96] Creating Layer inception_5a/relu_double_3x3_1
I0221 17:16:36.696061  1835 net.cpp:459] inception_5a/relu_double_3x3_1 <- inception_5a/double_3x3_1_bn
I0221 17:16:36.696065  1835 net.cpp:404] inception_5a/relu_double_3x3_1 -> inception_5a/double_3x3_1_bn (in-place)
I0221 17:16:36.696069  1835 net.cpp:160] Setting up inception_5a/relu_double_3x3_1
I0221 17:16:36.696074  1835 net.cpp:167] Top shape: 3 224 7 7 (32928)
I0221 17:16:36.696075  1835 layer_factory.hpp:74] Creating layer inception_5a/double_3x3_2
I0221 17:16:36.696080  1835 net.cpp:96] Creating Layer inception_5a/double_3x3_2
I0221 17:16:36.696084  1835 net.cpp:459] inception_5a/double_3x3_2 <- inception_5a/double_3x3_1_bn
I0221 17:16:36.696089  1835 net.cpp:415] inception_5a/double_3x3_2 -> inception_5a/double_3x3_2
I0221 17:16:36.696099  1835 net.cpp:160] Setting up inception_5a/double_3x3_2
I0221 17:16:36.698298  1835 net.cpp:167] Top shape: 3 224 7 7 (32928)
I0221 17:16:36.698307  1835 layer_factory.hpp:74] Creating layer inception_5a/double_3x3_2_bn
I0221 17:16:36.698310  1835 layer_factory.cpp:177] Layer inception_5a/double_3x3_2_bn is using CAFFE engine.
I0221 17:16:36.698315  1835 net.cpp:96] Creating Layer inception_5a/double_3x3_2_bn
I0221 17:16:36.698319  1835 net.cpp:459] inception_5a/double_3x3_2_bn <- inception_5a/double_3x3_2
I0221 17:16:36.698323  1835 net.cpp:415] inception_5a/double_3x3_2_bn -> inception_5a/double_3x3_2_bn
I0221 17:16:36.698328  1835 net.cpp:160] Setting up inception_5a/double_3x3_2_bn
I0221 17:16:36.698339  1835 net.cpp:167] Top shape: 3 224 7 7 (32928)
I0221 17:16:36.698344  1835 layer_factory.hpp:74] Creating layer inception_5a/relu_double_3x3_2
I0221 17:16:36.698348  1835 net.cpp:96] Creating Layer inception_5a/relu_double_3x3_2
I0221 17:16:36.698351  1835 net.cpp:459] inception_5a/relu_double_3x3_2 <- inception_5a/double_3x3_2_bn
I0221 17:16:36.698355  1835 net.cpp:404] inception_5a/relu_double_3x3_2 -> inception_5a/double_3x3_2_bn (in-place)
I0221 17:16:36.698359  1835 net.cpp:160] Setting up inception_5a/relu_double_3x3_2
I0221 17:16:36.698362  1835 net.cpp:167] Top shape: 3 224 7 7 (32928)
I0221 17:16:36.698364  1835 layer_factory.hpp:74] Creating layer inception_5a/pool
I0221 17:16:36.698369  1835 net.cpp:96] Creating Layer inception_5a/pool
I0221 17:16:36.698372  1835 net.cpp:459] inception_5a/pool <- inception_4e/output_inception_4e/output_0_split_3
I0221 17:16:36.698377  1835 net.cpp:415] inception_5a/pool -> inception_5a/pool
I0221 17:16:36.698382  1835 net.cpp:160] Setting up inception_5a/pool
I0221 17:16:36.698386  1835 net.cpp:167] Top shape: 3 1056 7 7 (155232)
I0221 17:16:36.698390  1835 layer_factory.hpp:74] Creating layer inception_5a/pool_proj
I0221 17:16:36.698395  1835 net.cpp:96] Creating Layer inception_5a/pool_proj
I0221 17:16:36.698398  1835 net.cpp:459] inception_5a/pool_proj <- inception_5a/pool
I0221 17:16:36.698403  1835 net.cpp:415] inception_5a/pool_proj -> inception_5a/pool_proj
I0221 17:16:36.698407  1835 net.cpp:160] Setting up inception_5a/pool_proj
I0221 17:16:36.699071  1835 net.cpp:167] Top shape: 3 128 7 7 (18816)
I0221 17:16:36.699079  1835 layer_factory.hpp:74] Creating layer inception_5a/pool_proj_bn
I0221 17:16:36.699081  1835 layer_factory.cpp:177] Layer inception_5a/pool_proj_bn is using CAFFE engine.
I0221 17:16:36.699087  1835 net.cpp:96] Creating Layer inception_5a/pool_proj_bn
I0221 17:16:36.699090  1835 net.cpp:459] inception_5a/pool_proj_bn <- inception_5a/pool_proj
I0221 17:16:36.699095  1835 net.cpp:415] inception_5a/pool_proj_bn -> inception_5a/pool_proj_bn
I0221 17:16:36.699100  1835 net.cpp:160] Setting up inception_5a/pool_proj_bn
I0221 17:16:36.699110  1835 net.cpp:167] Top shape: 3 128 7 7 (18816)
I0221 17:16:36.699115  1835 layer_factory.hpp:74] Creating layer inception_5a/relu_pool_proj
I0221 17:16:36.699120  1835 net.cpp:96] Creating Layer inception_5a/relu_pool_proj
I0221 17:16:36.699122  1835 net.cpp:459] inception_5a/relu_pool_proj <- inception_5a/pool_proj_bn
I0221 17:16:36.699126  1835 net.cpp:404] inception_5a/relu_pool_proj -> inception_5a/pool_proj_bn (in-place)
I0221 17:16:36.699131  1835 net.cpp:160] Setting up inception_5a/relu_pool_proj
I0221 17:16:36.699133  1835 net.cpp:167] Top shape: 3 128 7 7 (18816)
I0221 17:16:36.699136  1835 layer_factory.hpp:74] Creating layer inception_5a/output
I0221 17:16:36.699141  1835 net.cpp:96] Creating Layer inception_5a/output
I0221 17:16:36.699143  1835 net.cpp:459] inception_5a/output <- inception_5a/1x1_bn
I0221 17:16:36.699147  1835 net.cpp:459] inception_5a/output <- inception_5a/3x3_bn
I0221 17:16:36.699151  1835 net.cpp:459] inception_5a/output <- inception_5a/double_3x3_2_bn
I0221 17:16:36.699153  1835 net.cpp:459] inception_5a/output <- inception_5a/pool_proj_bn
I0221 17:16:36.699157  1835 net.cpp:415] inception_5a/output -> inception_5a/output
I0221 17:16:36.699164  1835 net.cpp:160] Setting up inception_5a/output
I0221 17:16:36.699172  1835 net.cpp:167] Top shape: 3 1024 7 7 (150528)
I0221 17:16:36.699175  1835 layer_factory.hpp:74] Creating layer inception_5a/output_inception_5a/output_0_split
I0221 17:16:36.699180  1835 net.cpp:96] Creating Layer inception_5a/output_inception_5a/output_0_split
I0221 17:16:36.699183  1835 net.cpp:459] inception_5a/output_inception_5a/output_0_split <- inception_5a/output
I0221 17:16:36.699188  1835 net.cpp:415] inception_5a/output_inception_5a/output_0_split -> inception_5a/output_inception_5a/output_0_split_0
I0221 17:16:36.699193  1835 net.cpp:415] inception_5a/output_inception_5a/output_0_split -> inception_5a/output_inception_5a/output_0_split_1
I0221 17:16:36.699198  1835 net.cpp:415] inception_5a/output_inception_5a/output_0_split -> inception_5a/output_inception_5a/output_0_split_2
I0221 17:16:36.699203  1835 net.cpp:415] inception_5a/output_inception_5a/output_0_split -> inception_5a/output_inception_5a/output_0_split_3
I0221 17:16:36.699206  1835 net.cpp:160] Setting up inception_5a/output_inception_5a/output_0_split
I0221 17:16:36.699210  1835 net.cpp:167] Top shape: 3 1024 7 7 (150528)
I0221 17:16:36.699213  1835 net.cpp:167] Top shape: 3 1024 7 7 (150528)
I0221 17:16:36.699216  1835 net.cpp:167] Top shape: 3 1024 7 7 (150528)
I0221 17:16:36.699219  1835 net.cpp:167] Top shape: 3 1024 7 7 (150528)
I0221 17:16:36.699223  1835 layer_factory.hpp:74] Creating layer inception_5b/1x1
I0221 17:16:36.699229  1835 net.cpp:96] Creating Layer inception_5b/1x1
I0221 17:16:36.699231  1835 net.cpp:459] inception_5b/1x1 <- inception_5a/output_inception_5a/output_0_split_0
I0221 17:16:36.699235  1835 net.cpp:415] inception_5b/1x1 -> inception_5b/1x1
I0221 17:16:36.699240  1835 net.cpp:160] Setting up inception_5b/1x1
I0221 17:16:36.700985  1835 net.cpp:167] Top shape: 3 352 7 7 (51744)
I0221 17:16:36.700991  1835 layer_factory.hpp:74] Creating layer inception_5b/1x1_bn
I0221 17:16:36.700994  1835 layer_factory.cpp:177] Layer inception_5b/1x1_bn is using CAFFE engine.
I0221 17:16:36.700999  1835 net.cpp:96] Creating Layer inception_5b/1x1_bn
I0221 17:16:36.701001  1835 net.cpp:459] inception_5b/1x1_bn <- inception_5b/1x1
I0221 17:16:36.701006  1835 net.cpp:415] inception_5b/1x1_bn -> inception_5b/1x1_bn
I0221 17:16:36.701011  1835 net.cpp:160] Setting up inception_5b/1x1_bn
I0221 17:16:36.701022  1835 net.cpp:167] Top shape: 3 352 7 7 (51744)
I0221 17:16:36.701027  1835 layer_factory.hpp:74] Creating layer inception_5b/relu_1x1
I0221 17:16:36.701032  1835 net.cpp:96] Creating Layer inception_5b/relu_1x1
I0221 17:16:36.701036  1835 net.cpp:459] inception_5b/relu_1x1 <- inception_5b/1x1_bn
I0221 17:16:36.701040  1835 net.cpp:404] inception_5b/relu_1x1 -> inception_5b/1x1_bn (in-place)
I0221 17:16:36.701043  1835 net.cpp:160] Setting up inception_5b/relu_1x1
I0221 17:16:36.701047  1835 net.cpp:167] Top shape: 3 352 7 7 (51744)
I0221 17:16:36.701050  1835 layer_factory.hpp:74] Creating layer inception_5b/3x3_reduce
I0221 17:16:36.701055  1835 net.cpp:96] Creating Layer inception_5b/3x3_reduce
I0221 17:16:36.701057  1835 net.cpp:459] inception_5b/3x3_reduce <- inception_5a/output_inception_5a/output_0_split_1
I0221 17:16:36.701063  1835 net.cpp:415] inception_5b/3x3_reduce -> inception_5b/3x3_reduce
I0221 17:16:36.701068  1835 net.cpp:160] Setting up inception_5b/3x3_reduce
I0221 17:16:36.702026  1835 net.cpp:167] Top shape: 3 192 7 7 (28224)
I0221 17:16:36.702031  1835 layer_factory.hpp:74] Creating layer inception_5b/3x3_reduce_bn
I0221 17:16:36.702035  1835 layer_factory.cpp:177] Layer inception_5b/3x3_reduce_bn is using CAFFE engine.
I0221 17:16:36.702040  1835 net.cpp:96] Creating Layer inception_5b/3x3_reduce_bn
I0221 17:16:36.702044  1835 net.cpp:459] inception_5b/3x3_reduce_bn <- inception_5b/3x3_reduce
I0221 17:16:36.702049  1835 net.cpp:415] inception_5b/3x3_reduce_bn -> inception_5b/3x3_reduce_bn
I0221 17:16:36.702054  1835 net.cpp:160] Setting up inception_5b/3x3_reduce_bn
I0221 17:16:36.702064  1835 net.cpp:167] Top shape: 3 192 7 7 (28224)
I0221 17:16:36.702071  1835 layer_factory.hpp:74] Creating layer inception_5b/relu_3x3_reduce
I0221 17:16:36.702080  1835 net.cpp:96] Creating Layer inception_5b/relu_3x3_reduce
I0221 17:16:36.702082  1835 net.cpp:459] inception_5b/relu_3x3_reduce <- inception_5b/3x3_reduce_bn
I0221 17:16:36.702086  1835 net.cpp:404] inception_5b/relu_3x3_reduce -> inception_5b/3x3_reduce_bn (in-place)
I0221 17:16:36.702090  1835 net.cpp:160] Setting up inception_5b/relu_3x3_reduce
I0221 17:16:36.702093  1835 net.cpp:167] Top shape: 3 192 7 7 (28224)
I0221 17:16:36.702096  1835 layer_factory.hpp:74] Creating layer inception_5b/3x3
I0221 17:16:36.702101  1835 net.cpp:96] Creating Layer inception_5b/3x3
I0221 17:16:36.702105  1835 net.cpp:459] inception_5b/3x3 <- inception_5b/3x3_reduce_bn
I0221 17:16:36.702108  1835 net.cpp:415] inception_5b/3x3 -> inception_5b/3x3
I0221 17:16:36.702113  1835 net.cpp:160] Setting up inception_5b/3x3
I0221 17:16:36.704804  1835 net.cpp:167] Top shape: 3 320 7 7 (47040)
I0221 17:16:36.704813  1835 layer_factory.hpp:74] Creating layer inception_5b/3x3_bn
I0221 17:16:36.704815  1835 layer_factory.cpp:177] Layer inception_5b/3x3_bn is using CAFFE engine.
I0221 17:16:36.704820  1835 net.cpp:96] Creating Layer inception_5b/3x3_bn
I0221 17:16:36.704824  1835 net.cpp:459] inception_5b/3x3_bn <- inception_5b/3x3
I0221 17:16:36.704829  1835 net.cpp:415] inception_5b/3x3_bn -> inception_5b/3x3_bn
I0221 17:16:36.704834  1835 net.cpp:160] Setting up inception_5b/3x3_bn
I0221 17:16:36.704844  1835 net.cpp:167] Top shape: 3 320 7 7 (47040)
I0221 17:16:36.704849  1835 layer_factory.hpp:74] Creating layer inception_5b/relu_3x3
I0221 17:16:36.704854  1835 net.cpp:96] Creating Layer inception_5b/relu_3x3
I0221 17:16:36.704857  1835 net.cpp:459] inception_5b/relu_3x3 <- inception_5b/3x3_bn
I0221 17:16:36.704861  1835 net.cpp:404] inception_5b/relu_3x3 -> inception_5b/3x3_bn (in-place)
I0221 17:16:36.704864  1835 net.cpp:160] Setting up inception_5b/relu_3x3
I0221 17:16:36.704869  1835 net.cpp:167] Top shape: 3 320 7 7 (47040)
I0221 17:16:36.704870  1835 layer_factory.hpp:74] Creating layer inception_5b/double_3x3_reduce
I0221 17:16:36.704875  1835 net.cpp:96] Creating Layer inception_5b/double_3x3_reduce
I0221 17:16:36.704879  1835 net.cpp:459] inception_5b/double_3x3_reduce <- inception_5a/output_inception_5a/output_0_split_2
I0221 17:16:36.704883  1835 net.cpp:415] inception_5b/double_3x3_reduce -> inception_5b/double_3x3_reduce
I0221 17:16:36.704887  1835 net.cpp:160] Setting up inception_5b/double_3x3_reduce
I0221 17:16:36.705850  1835 net.cpp:167] Top shape: 3 192 7 7 (28224)
I0221 17:16:36.705855  1835 layer_factory.hpp:74] Creating layer inception_5b/double_3x3_reduce_bn
I0221 17:16:36.705858  1835 layer_factory.cpp:177] Layer inception_5b/double_3x3_reduce_bn is using CAFFE engine.
I0221 17:16:36.705864  1835 net.cpp:96] Creating Layer inception_5b/double_3x3_reduce_bn
I0221 17:16:36.705868  1835 net.cpp:459] inception_5b/double_3x3_reduce_bn <- inception_5b/double_3x3_reduce
I0221 17:16:36.705871  1835 net.cpp:415] inception_5b/double_3x3_reduce_bn -> inception_5b/double_3x3_reduce_bn
I0221 17:16:36.705875  1835 net.cpp:160] Setting up inception_5b/double_3x3_reduce_bn
I0221 17:16:36.705886  1835 net.cpp:167] Top shape: 3 192 7 7 (28224)
I0221 17:16:36.705891  1835 layer_factory.hpp:74] Creating layer inception_5b/relu_double_3x3_reduce
I0221 17:16:36.705895  1835 net.cpp:96] Creating Layer inception_5b/relu_double_3x3_reduce
I0221 17:16:36.705899  1835 net.cpp:459] inception_5b/relu_double_3x3_reduce <- inception_5b/double_3x3_reduce_bn
I0221 17:16:36.705901  1835 net.cpp:404] inception_5b/relu_double_3x3_reduce -> inception_5b/double_3x3_reduce_bn (in-place)
I0221 17:16:36.705905  1835 net.cpp:160] Setting up inception_5b/relu_double_3x3_reduce
I0221 17:16:36.705909  1835 net.cpp:167] Top shape: 3 192 7 7 (28224)
I0221 17:16:36.705911  1835 layer_factory.hpp:74] Creating layer inception_5b/double_3x3_1
I0221 17:16:36.705917  1835 net.cpp:96] Creating Layer inception_5b/double_3x3_1
I0221 17:16:36.705924  1835 net.cpp:459] inception_5b/double_3x3_1 <- inception_5b/double_3x3_reduce_bn
I0221 17:16:36.705931  1835 net.cpp:415] inception_5b/double_3x3_1 -> inception_5b/double_3x3_1
I0221 17:16:36.705935  1835 net.cpp:160] Setting up inception_5b/double_3x3_1
I0221 17:16:36.707828  1835 net.cpp:167] Top shape: 3 224 7 7 (32928)
I0221 17:16:36.707836  1835 layer_factory.hpp:74] Creating layer inception_5b/double_3x3_1_bn
I0221 17:16:36.707839  1835 layer_factory.cpp:177] Layer inception_5b/double_3x3_1_bn is using CAFFE engine.
I0221 17:16:36.707845  1835 net.cpp:96] Creating Layer inception_5b/double_3x3_1_bn
I0221 17:16:36.707849  1835 net.cpp:459] inception_5b/double_3x3_1_bn <- inception_5b/double_3x3_1
I0221 17:16:36.707854  1835 net.cpp:415] inception_5b/double_3x3_1_bn -> inception_5b/double_3x3_1_bn
I0221 17:16:36.707859  1835 net.cpp:160] Setting up inception_5b/double_3x3_1_bn
I0221 17:16:36.707868  1835 net.cpp:167] Top shape: 3 224 7 7 (32928)
I0221 17:16:36.707875  1835 layer_factory.hpp:74] Creating layer inception_5b/relu_double_3x3_1
I0221 17:16:36.707877  1835 net.cpp:96] Creating Layer inception_5b/relu_double_3x3_1
I0221 17:16:36.707880  1835 net.cpp:459] inception_5b/relu_double_3x3_1 <- inception_5b/double_3x3_1_bn
I0221 17:16:36.707885  1835 net.cpp:404] inception_5b/relu_double_3x3_1 -> inception_5b/double_3x3_1_bn (in-place)
I0221 17:16:36.707888  1835 net.cpp:160] Setting up inception_5b/relu_double_3x3_1
I0221 17:16:36.707892  1835 net.cpp:167] Top shape: 3 224 7 7 (32928)
I0221 17:16:36.707895  1835 layer_factory.hpp:74] Creating layer inception_5b/double_3x3_2
I0221 17:16:36.707900  1835 net.cpp:96] Creating Layer inception_5b/double_3x3_2
I0221 17:16:36.707902  1835 net.cpp:459] inception_5b/double_3x3_2 <- inception_5b/double_3x3_1_bn
I0221 17:16:36.707907  1835 net.cpp:415] inception_5b/double_3x3_2 -> inception_5b/double_3x3_2
I0221 17:16:36.707911  1835 net.cpp:160] Setting up inception_5b/double_3x3_2
I0221 17:16:36.710120  1835 net.cpp:167] Top shape: 3 224 7 7 (32928)
I0221 17:16:36.710129  1835 layer_factory.hpp:74] Creating layer inception_5b/double_3x3_2_bn
I0221 17:16:36.710131  1835 layer_factory.cpp:177] Layer inception_5b/double_3x3_2_bn is using CAFFE engine.
I0221 17:16:36.710136  1835 net.cpp:96] Creating Layer inception_5b/double_3x3_2_bn
I0221 17:16:36.710139  1835 net.cpp:459] inception_5b/double_3x3_2_bn <- inception_5b/double_3x3_2
I0221 17:16:36.710144  1835 net.cpp:415] inception_5b/double_3x3_2_bn -> inception_5b/double_3x3_2_bn
I0221 17:16:36.710150  1835 net.cpp:160] Setting up inception_5b/double_3x3_2_bn
I0221 17:16:36.710163  1835 net.cpp:167] Top shape: 3 224 7 7 (32928)
I0221 17:16:36.710172  1835 layer_factory.hpp:74] Creating layer inception_5b/relu_double_3x3_2
I0221 17:16:36.710176  1835 net.cpp:96] Creating Layer inception_5b/relu_double_3x3_2
I0221 17:16:36.710180  1835 net.cpp:459] inception_5b/relu_double_3x3_2 <- inception_5b/double_3x3_2_bn
I0221 17:16:36.710185  1835 net.cpp:404] inception_5b/relu_double_3x3_2 -> inception_5b/double_3x3_2_bn (in-place)
I0221 17:16:36.710188  1835 net.cpp:160] Setting up inception_5b/relu_double_3x3_2
I0221 17:16:36.710191  1835 net.cpp:167] Top shape: 3 224 7 7 (32928)
I0221 17:16:36.710194  1835 layer_factory.hpp:74] Creating layer inception_5b/pool
I0221 17:16:36.710199  1835 net.cpp:96] Creating Layer inception_5b/pool
I0221 17:16:36.710202  1835 net.cpp:459] inception_5b/pool <- inception_5a/output_inception_5a/output_0_split_3
I0221 17:16:36.710207  1835 net.cpp:415] inception_5b/pool -> inception_5b/pool
I0221 17:16:36.710211  1835 net.cpp:160] Setting up inception_5b/pool
I0221 17:16:36.710217  1835 net.cpp:167] Top shape: 3 1024 7 7 (150528)
I0221 17:16:36.710220  1835 layer_factory.hpp:74] Creating layer inception_5b/pool_proj
I0221 17:16:36.710225  1835 net.cpp:96] Creating Layer inception_5b/pool_proj
I0221 17:16:36.710228  1835 net.cpp:459] inception_5b/pool_proj <- inception_5b/pool
I0221 17:16:36.710233  1835 net.cpp:415] inception_5b/pool_proj -> inception_5b/pool_proj
I0221 17:16:36.710238  1835 net.cpp:160] Setting up inception_5b/pool_proj
I0221 17:16:36.710888  1835 net.cpp:167] Top shape: 3 128 7 7 (18816)
I0221 17:16:36.710894  1835 layer_factory.hpp:74] Creating layer inception_5b/pool_proj_bn
I0221 17:16:36.710898  1835 layer_factory.cpp:177] Layer inception_5b/pool_proj_bn is using CAFFE engine.
I0221 17:16:36.710902  1835 net.cpp:96] Creating Layer inception_5b/pool_proj_bn
I0221 17:16:36.710906  1835 net.cpp:459] inception_5b/pool_proj_bn <- inception_5b/pool_proj
I0221 17:16:36.710911  1835 net.cpp:415] inception_5b/pool_proj_bn -> inception_5b/pool_proj_bn
I0221 17:16:36.710916  1835 net.cpp:160] Setting up inception_5b/pool_proj_bn
I0221 17:16:36.710925  1835 net.cpp:167] Top shape: 3 128 7 7 (18816)
I0221 17:16:36.710930  1835 layer_factory.hpp:74] Creating layer inception_5b/relu_pool_proj
I0221 17:16:36.710935  1835 net.cpp:96] Creating Layer inception_5b/relu_pool_proj
I0221 17:16:36.710938  1835 net.cpp:459] inception_5b/relu_pool_proj <- inception_5b/pool_proj_bn
I0221 17:16:36.710942  1835 net.cpp:404] inception_5b/relu_pool_proj -> inception_5b/pool_proj_bn (in-place)
I0221 17:16:36.710945  1835 net.cpp:160] Setting up inception_5b/relu_pool_proj
I0221 17:16:36.710949  1835 net.cpp:167] Top shape: 3 128 7 7 (18816)
I0221 17:16:36.710952  1835 layer_factory.hpp:74] Creating layer inception_5b/output
I0221 17:16:36.710958  1835 net.cpp:96] Creating Layer inception_5b/output
I0221 17:16:36.710960  1835 net.cpp:459] inception_5b/output <- inception_5b/1x1_bn
I0221 17:16:36.710964  1835 net.cpp:459] inception_5b/output <- inception_5b/3x3_bn
I0221 17:16:36.710968  1835 net.cpp:459] inception_5b/output <- inception_5b/double_3x3_2_bn
I0221 17:16:36.710970  1835 net.cpp:459] inception_5b/output <- inception_5b/pool_proj_bn
I0221 17:16:36.710975  1835 net.cpp:415] inception_5b/output -> inception_5b/output
I0221 17:16:36.710979  1835 net.cpp:160] Setting up inception_5b/output
I0221 17:16:36.710984  1835 net.cpp:167] Top shape: 3 1024 7 7 (150528)
I0221 17:16:36.710988  1835 layer_factory.hpp:74] Creating layer global_pool
I0221 17:16:36.710993  1835 net.cpp:96] Creating Layer global_pool
I0221 17:16:36.710995  1835 net.cpp:459] global_pool <- inception_5b/output
I0221 17:16:36.711000  1835 net.cpp:415] global_pool -> global_pool
I0221 17:16:36.711004  1835 net.cpp:160] Setting up global_pool
I0221 17:16:36.711009  1835 net.cpp:167] Top shape: 3 1024 1 1 (3072)
I0221 17:16:36.711011  1835 layer_factory.hpp:74] Creating layer dropout
I0221 17:16:36.711015  1835 net.cpp:96] Creating Layer dropout
I0221 17:16:36.711019  1835 net.cpp:459] dropout <- global_pool
I0221 17:16:36.711022  1835 net.cpp:404] dropout -> global_pool (in-place)
I0221 17:16:36.711026  1835 net.cpp:160] Setting up dropout
I0221 17:16:36.711030  1835 net.cpp:167] Top shape: 3 1024 1 1 (3072)
I0221 17:16:36.711033  1835 layer_factory.hpp:74] Creating layer fc-action
I0221 17:16:36.711040  1835 net.cpp:96] Creating Layer fc-action
I0221 17:16:36.711042  1835 net.cpp:459] fc-action <- global_pool
I0221 17:16:36.711046  1835 net.cpp:415] fc-action -> fc
I0221 17:16:36.711051  1835 net.cpp:160] Setting up fc-action
I0221 17:16:36.713174  1835 net.cpp:167] Top shape: 3 101 (303)
I0221 17:16:36.713179  1835 layer_factory.hpp:74] Creating layer reshape_fc
I0221 17:16:36.713186  1835 net.cpp:96] Creating Layer reshape_fc
I0221 17:16:36.713189  1835 net.cpp:459] reshape_fc <- fc
I0221 17:16:36.713194  1835 net.cpp:415] reshape_fc -> reshape_fc
I0221 17:16:36.713199  1835 net.cpp:160] Setting up reshape_fc
I0221 17:16:36.713205  1835 net.cpp:167] Top shape: 1 1 3 101 (303)
I0221 17:16:36.713208  1835 layer_factory.hpp:74] Creating layer segment_consensus
I0221 17:16:36.713212  1835 net.cpp:96] Creating Layer segment_consensus
I0221 17:16:36.713215  1835 net.cpp:459] segment_consensus <- reshape_fc
I0221 17:16:36.713219  1835 net.cpp:415] segment_consensus -> pool_fusion
I0221 17:16:36.713223  1835 net.cpp:160] Setting up segment_consensus
I0221 17:16:36.713228  1835 net.cpp:167] Top shape: 1 1 1 101 (101)
I0221 17:16:36.713230  1835 layer_factory.hpp:74] Creating layer pool_fusion_segment_consensus_0_split
I0221 17:16:36.713241  1835 net.cpp:96] Creating Layer pool_fusion_segment_consensus_0_split
I0221 17:16:36.713244  1835 net.cpp:459] pool_fusion_segment_consensus_0_split <- pool_fusion
I0221 17:16:36.713248  1835 net.cpp:415] pool_fusion_segment_consensus_0_split -> pool_fusion_segment_consensus_0_split_0
I0221 17:16:36.713253  1835 net.cpp:415] pool_fusion_segment_consensus_0_split -> pool_fusion_segment_consensus_0_split_1
I0221 17:16:36.713258  1835 net.cpp:160] Setting up pool_fusion_segment_consensus_0_split
I0221 17:16:36.713261  1835 net.cpp:167] Top shape: 1 1 1 101 (101)
I0221 17:16:36.713264  1835 net.cpp:167] Top shape: 1 1 1 101 (101)
I0221 17:16:36.713268  1835 layer_factory.hpp:74] Creating layer loss
I0221 17:16:36.713273  1835 net.cpp:96] Creating Layer loss
I0221 17:16:36.713276  1835 net.cpp:459] loss <- pool_fusion_segment_consensus_0_split_0
I0221 17:16:36.713279  1835 net.cpp:459] loss <- label_data_1_split_0
I0221 17:16:36.713284  1835 net.cpp:415] loss -> loss
I0221 17:16:36.713289  1835 net.cpp:160] Setting up loss
…
