…
  type: "VideoData"
  top: "data"
  top: "label"
  include {
    phase: TRAIN
  }
  transform_param {
    mirror: true
    crop_size: 224
    mean_value: 128
    fix_crop: true
    multi_scale: true
    scale_ratios: 1
    scale_ratios: 0.875
    scale_ratios: 0.75
    max_distort: 1
    is_flow: true
    more_fix_crop: true
  }
  video_data_param {
    source: "/home/hadoop/whx/dataset/ucf101/train_flow_split1.txt"
    batch_size: 24
    shuffle: true
    new_length: 5
    num_segments: 3
    modality: FLOW
    name_pattern: "flow_%c_%04d.jpg"
  }
}
layer {
  name: "data_reshape"
  type: "Reshape"
  bottom: "data"
  top: "data_reshape"
  reshape_param {
    shape {
      dim: -1
      dim: 10
      dim: 224
      dim: 224
    }
  }
}
layer {
  name: "conv1/7x7_s2"
  type: "Convolution"
  bottom: "data_reshape"
  top: "conv1/7x7_s2"
  param {
    lr_mult: 5
    decay_mult: 1
  }
  param {
    lr_mult: 10
    decay_mult: 0
  }
  convolution_param {
    num_output: 64
    pad: 3
    kernel_size: 7
    stride: 2
    weight_filler {
      type: "xavier"
    }
    bias_filler {
      type: "constant"
      value: 0.2
    }
  }
}
layer {
  name: "conv1/7x7_s2_bn"
  type: "BN"
  bottom: "conv1/7x7_s2"
  top: "conv1/7x7_s2_bn"
  param {
    lr_mult: 1
    decay_mult: 0
  }
  param {
    lr_mult: 1
    decay_mult: 0
  }
  bn_param {
    slope_filler {
      type: "constant"
      value: 1
    }
    bias_filler {
      type: "constant"
      value: 0
    }
    frozen: false
    engine: CAFFE
  }
}
layer {
  name: "conv1/relu_7x7"
  type: "ReLU"
  bottom: "conv1/7x7_s2_bn"
  top: "conv1/7x7_s2_bn"
}
layer {
  name: "pool1/3x3_s2"
  type: "Pooling"
  bottom: "conv1/7x7_s2_bn"
  top: "pool1/3x3_s2"
  pooling_param {
    pool: MAX
    kernel_size: 3
    stride: 2
  }
}
layer {
  name: "conv2/3x3_reduce"
  type: "Convolution"
  bottom: "pool1/3x3_s2"
  top: "conv2/3x3_reduce"
  param {
    lr_mult: 1
    decay_mult: 1
  }
  param {
    lr_mult: 2
    decay_mult: 0
  }
  convolution_param {
    num_output: 64
    kernel_size: 1
    weight_filler {
      type: "xavier"
    }
    bias_filler {
      type: "constant"
      value: 0.2
    }
  }
}
layer {
  name: "conv2/3x3_reduce_bn"
  type: "BN"
  bottom: "conv2/3x3_reduce"
  top: "conv2/3x3_reduce_bn"
  param {
    lr_mult: 1
    decay_mult: 0
  }
  param {
    lr_mult: 1
    decay_mult: 0
  }
  bn_param {
    slope_filler {
      type: "constant"
      value: 1
    }
    bias_filler {
      type: "constant"
      value: 0
    }
    frozen: true
    engine: CAFFE
  }
}
layer {
  name: "conv2/relu_3x3_reduce"
  type: "ReLU"
  bottom: "conv2/3x3_reduce_bn"
  top: "conv2/3x3_reduce_bn"
}
layer {
  name: "conv2/3x3"
  type: "Convolution"
  bottom: "conv2/3x3_reduce_bn"
  top: "conv2/3x3"
  param {
    lr_mult: 1
    decay_mult: 1
  }
  param {
    lr_mult: 2
    decay_mult: 0
  }
  convolution_param {
    num_output: 192
    pad: 1
    kernel_size: 3
    weight_filler {
      type: "xavier"
    }
    bias_filler {
      type: "constant"
      value: 0.2
    }
  }
}
layer {
  name: "conv2/3x3_bn"
  type: "BN"
  bottom: "conv2/3x3"
  top: "conv2/3x3_bn"
  param {
    lr_mult: 1
    decay_mult: 0
  }
  param {
    lr_mult: 1
    decay_mult: 0
  }
  bn_param {
    slope_filler {
      type: "constant"
      value: 1
    }
    bias_filler {
      type: "constant"
      value: 0
    }
    frozen: true
    engine: CAFFE
  }
}
layer {
  name: "conv2/relu_3x3"
  type: "ReLU"
  bottom: "conv2/3x3_bn"
  top: "conv2/3x3_bn"
}
layer {
  name: "pool2/3x3_s2"
  type: "Pooling"
  bottom: "conv2/3x3_bn"
  top: "pool2/3x3_s2"
  pooling_param {
    pool: MAX
    kernel_size: 3
    stride: 2
  }
}
layer {
  name: "inception_3a/1x1"
  type: "Convolution"
  bottom: "pool2/3x3_s2"
  top: "inception_3a/1x1"
  param {
    lr_mult: 1
    decay_mult: 1
  }
  param {
    lr_mult: 2
    decay_mult: 0
  }
  convolution_param {
    num_output: 64
    kernel_size: 1
    weight_filler {
      type: "xavier"
    }
    bias_filler {
      type: "constant"
      value: 0.2
    }
  }
}
layer {
  name: "inception_3a/1x1_bn"
  type: "BN"
  bottom: "inception_3a/1x1"
  top: "inception_3a/1x1_bn"
  param {
    lr_mult: 1
    decay_mult: 0
  }
  param {
    lr_mult: 1
    decay_mult: 0
  }
  bn_param {
    slope_filler {
      type: "constant"
      value: 1
    }
    bias_filler {
      type: "constant"
      value: 0
    }
    frozen: true
    engine: CAFFE
  }
}
layer {
  name: "inception_3a/relu_1x1"
  type: "ReLU"
  bottom: "inception_3a/1x1_bn"
  top: "inception_3a/1x1_bn"
}
layer {
  name: "inception_3a/3x3_reduce"
  type: "Convolution"
  bottom: "pool2/3x3_s2"
  top: "inception_3a/3x3_reduce"
  param {
    lr_mult: 1
    decay_mult: 1
  }
  param {
    lr_mult: 2
    decay_mult: 0
  }
  convolution_param {
    num_output: 64
    kernel_size: 1
    weight_filler {
      type: "xavier"
    }
    bias_filler {
      type: "constant"
      value: 0.2
    }
  }
}
layer {
  name: "inception_3a/3x3_reduce_bn"
  type: "BN"
  bottom: "inception_3a/3x3_reduce"
  top: "inception_3a/3x3_reduce_bn"
  param {
    lr_mult: 1
    decay_mult: 0
  }
  param {
    lr_mult: 1
    decay_mult: 0
  }
  bn_param {
    slope_filler {
      type: "constant"
      value: 1
    }
    bias_filler {
      type: "constant"
      value: 0
    }
    frozen: true
    engine: CAFFE
  }
}
layer {
  name: "inception_3a/relu_3x3_reduce"
  type: "ReLU"
  bottom: "inception_3a/3x3_reduce_bn"
  top: "inception_3a/3x3_reduce_bn"
}
layer {
  name: "inception_3a/3x3"
  type: "Convolution"
  bottom: "inception_3a/3x3_reduce_bn"
  top: "inception_3a/3x3"
  param {
    lr_mult: 1
    decay_mult: 1
  }
  param {
    lr_mult: 2
    decay_mult: 0
  }
  convolution_param {
    num_output: 64
    pad: 1
    kernel_size: 3
    weight_filler {
      type: "xavier"
    }
    bias_filler {
      type: "constant"
      value: 0.2
    }
  }
}
layer {
  name: "inception_3a/3x3_bn"
  type: "BN"
  bottom: "inception_3a/3x3"
  top: "inception_3a/3x3_bn"
  param {
    lr_mult: 1
    decay_mult: 0
  }
  param {
    lr_mult: 1
    decay_mult: 0
  }
  bn_param {
    slope_filler {
      type: "constant"
      value: 1
    }
    bias_filler {
      type: "constant"
      value: 0
    }
    frozen: true
    engine: CAFFE
  }
}
layer {
  name: "inception_3a/relu_3x3"
  type: "ReLU"
  bottom: "inception_3a/3x3_bn"
  top: "inception_3a/3x3_bn"
}
layer {
  name: "inception_3a/double_3x3_reduce"
  type: "Convolution"
  bottom: "pool2/3x3_s2"
  top: "inception_3a/double_3x3_reduce"
  param {
    lr_mult: 1
    decay_mult: 1
  }
  param {
    lr_mult: 2
    decay_mult: 0
  }
  convolution_param {
    num_output: 64
    kernel_size: 1
    weight_filler {
      type: "xavier"
    }
    bias_filler {
      type: "constant"
      value: 0.2
    }
  }
}
layer {
  name: "inception_3a/double_3x3_reduce_bn"
  type: "BN"
  bottom: "inception_3a/double_3x3_reduce"
  top: "inception_3a/double_3x3_reduce_bn"
  param {
    lr_mult: 1
    decay_mult: 0
  }
  param {
    lr_mult: 1
    decay_mult: 0
  }
  bn_param {
    slope_filler {
      type: "constant"
      value: 1
    }
    bias_filler {
      type: "constant"
      value: 0
    }
    frozen: true
    engine: CAFFE
  }
}
layer {
  name: "inception_3a/relu_double_3x3_reduce"
  type: "ReLU"
  bottom: "inception_3a/double_3x3_reduce_bn"
  top: "inception_3a/double_3x3_reduce_bn"
}
layer {
  name: "inception_3a/double_3x3_1"
  type: "Convolution"
  bottom: "inception_3a/double_3x3_reduce_bn"
  top: "inception_3a/double_3x3_1"
  param {
    lr_mult: 1
    decay_mult: 1
  }
  param {
    lr_mult: 2
    decay_mult: 0
  }
  convolution_param {
    num_output: 96
    pad: 1
    kernel_size: 3
    weight_filler {
      type: "xavier"
    }
    bias_filler {
      type: "constant"
      value: 0.2
    }
  }
}
layer {
  name: "inception_3a/double_3x3_1_bn"
  type: "BN"
  bottom: "inception_3a/double_3x3_1"
  top: "inception_3a/double_3x3_1_bn"
  param {
    lr_mult: 1
    decay_mult: 0
  }
  param {
    lr_mult: 1
    decay_mult: 0
  }
  bn_param {
    slope_filler {
      type: "constant"
      value: 1
    }
    bias_filler {
      type: "constant"
      value: 0
    }
    frozen: true
    engine: CAFFE
  }
}
layer {
  name: "inception_3a/relu_double_3x3_1"
  type: "ReLU"
  bottom: "inception_3a/double_3x3_1_bn"
  top: "inception_3a/double_3x3_1_bn"
}
layer {
  name: "inception_3a/double_3x3_2"
  type: "Convolution"
  bottom: "inception_3a/double_3x3_1_bn"
  top: "inception_3a/double_3x3_2"
  param {
    lr_mult: 1
    decay_mult: 1
  }
  param {
    lr_mult: 2
    decay_mult: 0
  }
  convolution_param {
    num_output: 96
    pad: 1
    kernel_size: 3
    weight_filler {
      type: "xavier"
    }
    bias_filler {
      type: "constant"
      value: 0.2
    }
  }
}
layer {
  name: "inception_3a/double_3x3_2_bn"
  type: "BN"
  bottom: "inception_3a/double_3x3_2"
  top: "inception_3a/double_3x3_2_bn"
  param {
    lr_mult: 1
    decay_mult: 0
  }
  param {
    lr_mult: 1
    decay_mult: 0
  }
  bn_param {
    slope_filler {
      type: "constant"
      value: 1
    }
    bias_filler {
      type: "constant"
      value: 0
    }
    frozen: true
    engine: CAFFE
  }
}
layer {
  name: "inception_3a/relu_double_3x3_2"
  type: "ReLU"
  bottom: "inception_3a/double_3x3_2_bn"
  top: "inception_3a/double_3x3_2_bn"
}
layer {
  name: "inception_3a/pool"
  type: "Pooling"
  bottom: "pool2/3x3_s2"
  top: "inception_3a/pool"
  pooling_param {
    pool: AVE
    kernel_size: 3
    stride: 1
    pad: 1
  }
}
layer {
  name: "inception_3a/pool_proj"
  type: "Convolution"
  bottom: "inception_3a/pool"
  top: "inception_3a/pool_proj"
  param {
    lr_mult: 1
    decay_mult: 1
  }
  param {
    lr_mult: 2
    decay_mult: 0
  }
  convolution_param {
    num_output: 32
    kernel_size: 1
    weight_filler {
      type: "xavier"
    }
    bias_filler {
      type: "constant"
      value: 0.2
    }
  }
}
layer {
  name: "inception_3a/pool_proj_bn"
  type: "BN"
  bottom: "inception_3a/pool_proj"
  top: "inception_3a/pool_proj_bn"
  param {
    lr_mult: 1
    decay_mult: 0
  }
  param {
    lr_mult: 1
    decay_mult: 0
  }
  bn_param {
    slope_filler {
      type: "constant"
      value: 1
    }
    bias_filler {
      type: "constant"
      value: 0
    }
    frozen: true
    engine: CAFFE
  }
}
layer {
  name: "inception_3a/relu_pool_proj"
  type: "ReLU"
  bottom: "inception_3a/pool_proj_bn"
  top: "inception_3a/pool_proj_bn"
}
layer {
  name: "inception_3a/output"
  type: "Concat"
  bottom: "inception_3a/1x1_bn"
  bottom: "inception_3a/3x3_bn"
  bottom: "inception_3a/double_3x3_2_bn"
  bottom: "inception_3a/pool_proj_bn"
  top: "inception_3a/output"
}
layer {
  name: "inception_3b/1x1"
  type: "Convolution"
  bottom: "inception_3a/output"
  top: "inception_3b/1x1"
  param {
    lr_mult: 1
    decay_mult: 1
  }
  param {
    lr_mult: 2
    decay_mult: 0
  }
  convolution_param {
    num_output: 64
    kernel_size: 1
    weight_filler {
      type: "xavier"
    }
    bias_filler {
      type: "constant"
      value: 0.2
    }
  }
}
layer {
  name: "inception_3b/1x1_bn"
  type: "BN"
  bottom: "inception_3b/1x1"
  top: "inception_3b/1x1_bn"
  param {
    lr_mult: 1
    decay_mult: 0
  }
  param {
    lr_mult: 1
    decay_mult: 0
  }
  bn_param {
    slope_filler {
      type: "constant"
      value: 1
    }
    bias_filler {
      type: "constant"
      value: 0
    }
    frozen: true
    engine: CAFFE
  }
}
layer {
  name: "inception_3b/relu_1x1"
  type: "ReLU"
  bottom: "inception_3b/1x1_bn"
  top: "inception_3b/1x1_bn"
}
layer {
  name: "inception_3b/3x3_reduce"
  type: "Convolution"
  bottom: "inception_3a/output"
  top: "inception_3b/3x3_reduce"
  param {
    lr_mult: 1
    decay_mult: 1
  }
  param {
    lr_mult: 2
    decay_mult: 0
  }
  convolution_param {
    num_output: 64
    kernel_size: 1
    weight_filler {
      type: "xavier"
    }
    bias_filler {
      type: "constant"
      value: 0.2
    }
  }
}
layer {
  name: "inception_3b/3x3_reduce_bn"
  type: "BN"
  bottom: "inception_3b/3x3_reduce"
  top: "inception_3b/3x3_reduce_bn"
  param {
    lr_mult: 1
    decay_mult: 0
  }
  param {
    lr_mult: 1
    decay_mult: 0
  }
  bn_param {
    slope_filler {
      type: "constant"
      value: 1
    }
    bias_filler {
      type: "constant"
      value: 0
    }
    frozen: true
    engine: CAFFE
  }
}
layer {
  name: "inception_3b/relu_3x3_reduce"
  type: "ReLU"
  bottom: "inception_3b/3x3_reduce_bn"
  top: "inception_3b/3x3_reduce_bn"
}
layer {
  name: "inception_3b/3x3"
  type: "Convolution"
  bottom: "inception_3b/3x3_reduce_bn"
  top: "inception_3b/3x3"
  param {
    lr_mult: 1
    decay_mult: 1
  }
  param {
    lr_mult: 2
    decay_mult: 0
  }
  convolution_param {
    num_output: 96
    pad: 1
    kernel_size: 3
    weight_filler {
      type: "xavier"
    }
    bias_filler {
      type: "constant"
      value: 0.2
    }
  }
}
layer {
  name: "inception_3b/3x3_bn"
  type: "BN"
  bottom: "inception_3b/3x3"
  top: "inception_3b/3x3_bn"
  param {
    lr_mult: 1
    decay_mult: 0
  }
  param {
    lr_mult: 1
    decay_mult: 0
  }
  bn_param {
    slope_filler {
      type: "constant"
      value: 1
    }
    bias_filler {
      type: "constant"
      value: 0
    }
    frozen: true
    engine: CAFFE
  }
}
layer {
  name: "inception_3b/relu_3x3"
  type: "ReLU"
  bottom: "inception_3b/3x3_bn"
  top: "inception_3b/3x3_bn"
}
layer {
  name: "inception_3b/double_3x3_reduce"
  type: "Convolution"
  bottom: "inception_3a/output"
  top: "inception_3b/double_3x3_reduce"
  param {
    lr_mult: 1
    decay_mult: 1
  }
  param {
    lr_mult: 2
    decay_mult: 0
  }
  convolution_param {
    num_output: 64
    kernel_size: 1
    weight_filler {
      type: "xavier"
    }
    bias_filler {
      type: "constant"
      value: 0.2
    }
  }
}
layer {
  name: "inception_3b/double_3x3_reduce_bn"
  type: "BN"
  bottom: "inception_3b/double_3x3_reduce"
  top: "inception_3b/double_3x3_reduce_bn"
  param {
    lr_mult: 1
    decay_mult: 0
  }
  param {
    lr_mult: 1
    decay_mult: 0
  }
  bn_param {
    slope_filler {
      type: "constant"
      value: 1
    }
    bias_filler {
      type: "constant"
      value: 0
    }
    frozen: true
    engine: CAFFE
  }
}
layer {
  name: "inception_3b/relu_double_3x3_reduce"
  type: "ReLU"
  bottom: "inception_3b/double_3x3_reduce_bn"
  top: "inception_3b/double_3x3_reduce_bn"
}
layer {
  name: "inception_3b/double_3x3_1"
  type: "Convolution"
  bottom: "inception_3b/double_3x3_reduce_bn"
  top: "inception_3b/double_3x3_1"
  param {
    lr_mult: 1
    decay_mult: 1
  }
  param {
    lr_mult: 2
    decay_mult: 0
  }
  convolution_param {
    num_output: 96
    pad: 1
    kernel_size: 3
    weight_filler {
      type: "xavier"
    }
    bias_filler {
      type: "constant"
      value: 0.2
    }
  }
}
layer {
  name: "inception_3b/double_3x3_1_bn"
  type: "BN"
  bottom: "inception_3b/double_3x3_1"
  top: "inception_3b/double_3x3_1_bn"
  param {
    lr_mult: 1
    decay_mult: 0
  }
  param {
    lr_mult: 1
    decay_mult: 0
  }
  bn_param {
    slope_filler {
      type: "constant"
      value: 1
    }
    bias_filler {
      type: "constant"
      value: 0
    }
    frozen: true
    engine: CAFFE
  }
}
layer {
  name: "inception_3b/relu_double_3x3_1"
  type: "ReLU"
  bottom: "inception_3b/double_3x3_1_bn"
  top: "inception_3b/double_3x3_1_bn"
}
layer {
  name: "inception_3b/double_3x3_2"
  type: "Convolution"
  bottom: "inception_3b/double_3x3_1_bn"
  top: "inception_3b/double_3x3_2"
  param {
    lr_mult: 1
    decay_mult: 1
  }
  param {
    lr_mult: 2
    decay_mult: 0
  }
  convolution_param {
    num_output: 96
    pad: 1
    kernel_size: 3
    weight_filler {
      type: "xavier"
    }
    bias_filler {
      type: "constant"
      value: 0.2
    }
  }
}
layer {
  name: "inception_3b/double_3x3_2_bn"
  type: "BN"
  bottom: "inception_3b/double_3x3_2"
  top: "inception_3b/double_3x3_2_bn"
  param {
    lr_mult: 1
    decay_mult: 0
  }
  param {
    lr_mult: 1
    decay_mult: 0
  }
  bn_param {
    slope_filler {
      type: "constant"
      value: 1
    }
    bias_filler {
      type: "constant"
      value: 0
    }
    frozen: true
    engine: CAFFE
  }
}
layer {
  name: "inception_3b/relu_double_3x3_2"
  type: "ReLU"
  bottom: "inception_3b/double_3x3_2_bn"
  top: "inception_3b/double_3x3_2_bn"
}
layer {
  name: "inception_3b/pool"
  type: "Pooling"
  bottom: "inception_3a/output"
  top: "inception_3b/pool"
  pooling_param {
    pool: AVE
    kernel_size: 3
    stride: 1
    pad: 1
  }
}
layer {
  name: "inception_3b/pool_proj"
  type: "Convolution"
  bottom: "inception_3b/pool"
  top: "inception_3b/pool_proj"
  param {
    lr_mult: 1
    decay_mult: 1
  }
  param {
    lr_mult: 2
    decay_mult: 0
  }
  convolution_param {
    num_output: 64
    kernel_size: 1
    weight_filler {
      type: "xavier"
    }
    bias_filler {
      type: "constant"
      value: 0.2
    }
  }
}
layer {
  name: "inception_3b/pool_proj_bn"
  type: "BN"
  bottom: "inception_3b/pool_proj"
  top: "inception_3b/pool_proj_bn"
  param {
    lr_mult: 1
    decay_mult: 0
  }
  param {
    lr_mult: 1
    decay_mult: 0
  }
  bn_param {
    slope_filler {
      type: "constant"
      value: 1
    }
    bias_filler {
      type: "constant"
      value: 0
    }
    frozen: true
    engine: CAFFE
  }
}
layer {
  name: "inception_3b/relu_pool_proj"
  type: "ReLU"
  bottom: "inception_3b/pool_proj_bn"
  top: "inception_3b/pool_proj_bn"
}
layer {
  name: "inception_3b/output"
  type: "Concat"
  bottom: "inception_3b/1x1_bn"
  bottom: "inception_3b/3x3_bn"
  bottom: "inception_3b/double_3x3_2_bn"
  bottom: "inception_3b/pool_proj_bn"
  top: "inception_3b/output"
}
layer {
  name: "inception_3c/3x3_reduce"
  type: "Convolution"
  bottom: "inception_3b/output"
  top: "inception_3c/3x3_reduce"
  param {
    lr_mult: 1
    decay_mult: 1
  }
  param {
    lr_mult: 2
    decay_mult: 0
  }
  convolution_param {
    num_output: 128
    kernel_size: 1
    weight_filler {
      type: "xavier"
    }
    bias_filler {
      type: "constant"
      value: 0.2
    }
  }
}
layer {
  name: "inception_3c/3x3_reduce_bn"
  type: "BN"
  bottom: "inception_3c/3x3_reduce"
  top: "inception_3c/3x3_reduce_bn"
  param {
    lr_mult: 1
    decay_mult: 0
  }
  param {
    lr_mult: 1
    decay_mult: 0
  }
  bn_param {
    slope_filler {
      type: "constant"
      value: 1
    }
    bias_filler {
      type: "constant"
      value: 0
    }
    frozen: true
    engine: CAFFE
  }
}
layer {
  name: "inception_3c/relu_3x3_reduce"
  type: "ReLU"
  bottom: "inception_3c/3x3_reduce_bn"
  top: "inception_3c/3x3_reduce_bn"
}
layer {
  name: "inception_3c/3x3"
  type: "Convolution"
  bottom: "inception_3c/3x3_reduce_bn"
  top: "inception_3c/3x3"
  param {
    lr_mult: 1
    decay_mult: 1
  }
  param {
    lr_mult: 2
    decay_mult: 0
  }
  convolution_param {
    num_output: 160
    pad: 1
    kernel_size: 3
    stride: 2
    weight_filler {
      type: "xavier"
    }
    bias_filler {
      type: "constant"
      value: 0.2
    }
  }
}
layer {
  name: "inception_3c/3x3_bn"
  type: "BN"
  bottom: "inception_3c/3x3"
  top: "inception_3c/3x3_bn"
  param {
    lr_mult: 1
    decay_mult: 0
  }
  param {
    lr_mult: 1
    decay_mult: 0
  }
  bn_param {
    slope_filler {
      type: "constant"
      value: 1
    }
    bias_filler {
      type: "constant"
      value: 0
    }
    frozen: true
    engine: CAFFE
  }
}
layer {
  name: "inception_3c/relu_3x3"
  type: "ReLU"
  bottom: "inception_3c/3x3_bn"
  top: "inception_3c/3x3_bn"
}
layer {
  name: "inception_3c/double_3x3_reduce"
  type: "Convolution"
  bottom: "inception_3b/output"
  top: "inception_3c/double_3x3_reduce"
  param {
    lr_mult: 1
    decay_mult: 1
  }
  param {
    lr_mult: 2
    decay_mult: 0
  }
  convolution_param {
    num_output: 64
    kernel_size: 1
    weight_filler {
      type: "xavier"
    }
    bias_filler {
      type: "constant"
      value: 0.2
    }
  }
}
layer {
  name: "inception_3c/double_3x3_reduce_bn"
  type: "BN"
  bottom: "inception_3c/double_3x3_reduce"
  top: "inception_3c/double_3x3_reduce_bn"
  param {
    lr_mult: 1
    decay_mult: 0
  }
  param {
    lr_mult: 1
    decay_mult: 0
  }
  bn_param {
    slope_filler {
      type: "constant"
      value: 1
    }
    bias_filler {
      type: "constant"
      value: 0
    }
    frozen: true
    engine: CAFFE
  }
}
layer {
  name: "inception_3c/relu_double_3x3_reduce"
  type: "ReLU"
  bottom: "inception_3c/double_3x3_reduce_bn"
  top: "inception_3c/double_3x3_reduce_bn"
}
layer {
  name: "inception_3c/double_3x3_1"
  type: "Convolution"
  bottom: "inception_3c/double_3x3_reduce_bn"
  top: "inception_3c/double_3x3_1"
  param {
    lr_mult: 1
    decay_mult: 1
  }
  param {
    lr_mult: 2
    decay_mult: 0
  }
  convolution_param {
    num_output: 96
    pad: 1
    kernel_size: 3
    weight_filler {
      type: "xavier"
    }
    bias_filler {
      type: "constant"
      value: 0.2
    }
  }
}
layer {
  name: "inception_3c/double_3x3_1_bn"
  type: "BN"
  bottom: "inception_3c/double_3x3_1"
  top: "inception_3c/double_3x3_1_bn"
  param {
    lr_mult: 1
    decay_mult: 0
  }
  param {
    lr_mult: 1
    decay_mult: 0
  }
  bn_param {
    slope_filler {
      type: "constant"
      value: 1
    }
    bias_filler {
      type: "constant"
      value: 0
    }
    frozen: true
    engine: CAFFE
  }
}
layer {
  name: "inception_3c/relu_double_3x3_1"
  type: "ReLU"
  bottom: "inception_3c/double_3x3_1_bn"
  top: "inception_3c/double_3x3_1_bn"
}
layer {
  name: "inception_3c/double_3x3_2"
  type: "Convolution"
  bottom: "inception_3c/double_3x3_1_bn"
  top: "inception_3c/double_3x3_2"
  param {
    lr_mult: 1
    decay_mult: 1
  }
  param {
    lr_mult: 2
    decay_mult: 0
  }
  convolution_param {
    num_output: 96
    pad: 1
    kernel_size: 3
    stride: 2
    weight_filler {
      type: "xavier"
    }
    bias_filler {
      type: "constant"
      value: 0.2
    }
  }
}
layer {
  name: "inception_3c/double_3x3_2_bn"
  type: "BN"
  bottom: "inception_3c/double_3x3_2"
  top: "inception_3c/double_3x3_2_bn"
  param {
    lr_mult: 1
    decay_mult: 0
  }
  param {
    lr_mult: 1
    decay_mult: 0
  }
  bn_param {
    slope_filler {
      type: "constant"
      value: 1
    }
    bias_filler {
      type: "constant"
      value: 0
    }
    frozen: true
    engine: CAFFE
  }
}
layer {
  name: "inception_3c/relu_double_3x3_2"
  type: "ReLU"
  bottom: "inception_3c/double_3x3_2_bn"
  top: "inception_3c/double_3x3_2_bn"
}
layer {
  name: "inception_3c/pool"
  type: "Pooling"
  bottom: "inception_3b/output"
  top: "inception_3c/pool"
  pooling_param {
    pool: MAX
    kernel_size: 3
    stride: 2
  }
}
layer {
  name: "inception_3c/output"
  type: "Concat"
  bottom: "inception_3c/3x3_bn"
  bottom: "inception_3c/double_3x3_2_bn"
  bottom: "inception_3c/pool"
  top: "inception_3c/output"
}
layer {
  name: "inception_4a/1x1"
  type: "Convolution"
  bottom: "inception_3c/output"
  top: "inception_4a/1x1"
  param {
    lr_mult: 1
    decay_mult: 1
  }
  param {
    lr_mult: 2
    decay_mult: 0
  }
  convolution_param {
    num_output: 224
    kernel_size: 1
    weight_filler {
      type: "xavier"
    }
    bias_filler {
      type: "constant"
      value: 0.2
    }
  }
}
layer {
  name: "inception_4a/1x1_bn"
  type: "BN"
  bottom: "inception_4a/1x1"
  top: "inception_4a/1x1_bn"
  param {
    lr_mult: 1
    decay_mult: 0
  }
  param {
    lr_mult: 1
    decay_mult: 0
  }
  bn_param {
    slope_filler {
      type: "constant"
      value: 1
    }
    bias_filler {
      type: "constant"
      value: 0
    }
    frozen: true
    engine: CAFFE
  }
}
layer {
  name: "inception_4a/relu_1x1"
  type: "ReLU"
  bottom: "inception_4a/1x1_bn"
  top: "inception_4a/1x1_bn"
}
layer {
  name: "inception_4a/3x3_reduce"
  type: "Convolution"
  bottom: "inception_3c/output"
  top: "inception_4a/3x3_reduce"
  param {
    lr_mult: 1
    decay_mult: 1
  }
  param {
    lr_mult: 2
    decay_mult: 0
  }
  convolution_param {
    num_output: 64
    kernel_size: 1
    weight_filler {
      type: "xavier"
    }
    bias_filler {
      type: "constant"
      value: 0.2
    }
  }
}
layer {
  name: "inception_4a/3x3_reduce_bn"
  type: "BN"
  bottom: "inception_4a/3x3_reduce"
  top: "inception_4a/3x3_reduce_bn"
  param {
    lr_mult: 1
    decay_mult: 0
  }
  param {
    lr_mult: 1
    decay_mult: 0
  }
  bn_param {
    slope_filler {
      type: "constant"
      value: 1
    }
    bias_filler {
      type: "constant"
      value: 0
    }
    frozen: true
    engine: CAFFE
  }
}
layer {
  name: "inception_4a/relu_3x3_reduce"
  type: "ReLU"
  bottom: "inception_4a/3x3_reduce_bn"
  top: "inception_4a/3x3_reduce_bn"
}
layer {
  name: "inception_4a/3x3"
  type: "Convolution"
  bottom: "inception_4a/3x3_reduce_bn"
  top: "inception_4a/3x3"
  param {
    lr_mult: 1
    decay_mult: 1
  }
  param {
    lr_mult: 2
    decay_mult: 0
  }
  convolution_param {
    num_output: 96
    pad: 1
    kernel_size: 3
    weight_filler {
      type: "xavier"
    }
    bias_filler {
      type: "constant"
      value: 0.2
    }
  }
}
layer {
  name: "inception_4a/3x3_bn"
  type: "BN"
  bottom: "inception_4a/3x3"
  top: "inception_4a/3x3_bn"
  param {
    lr_mult: 1
    decay_mult: 0
  }
  param {
    lr_mult: 1
    decay_mult: 0
  }
  bn_param {
    slope_filler {
      type: "constant"
      value: 1
    }
    bias_filler {
      type: "constant"
      value: 0
    }
    frozen: true
    engine: CAFFE
  }
}
layer {
  name: "inception_4a/relu_3x3"
  type: "ReLU"
  bottom: "inception_4a/3x3_bn"
  top: "inception_4a/3x3_bn"
}
layer {
  name: "inception_4a/double_3x3_reduce"
  type: "Convolution"
  bottom: "inception_3c/output"
  top: "inception_4a/double_3x3_reduce"
  param {
    lr_mult: 1
    decay_mult: 1
  }
  param {
    lr_mult: 2
    decay_mult: 0
  }
  convolution_param {
    num_output: 96
    kernel_size: 1
    weight_filler {
      type: "xavier"
    }
    bias_filler {
      type: "constant"
      value: 0.2
    }
  }
}
layer {
  name: "inception_4a/double_3x3_reduce_bn"
  type: "BN"
  bottom: "inception_4a/double_3x3_reduce"
  top: "inception_4a/double_3x3_reduce_bn"
  param {
    lr_mult: 1
    decay_mult: 0
  }
  param {
    lr_mult: 1
    decay_mult: 0
  }
  bn_param {
    slope_filler {
      type: "constant"
      value: 1
    }
    bias_filler {
      type: "constant"
      value: 0
    }
    frozen: true
    engine: CAFFE
  }
}
layer {
  name: "inception_4a/relu_double_3x3_reduce"
  type: "ReLU"
  bottom: "inception_4a/double_3x3_reduce_bn"
  top: "inception_4a/double_3x3_reduce_bn"
}
layer {
  name: "inception_4a/double_3x3_1"
  type: "Convolution"
  bottom: "inception_4a/double_3x3_reduce_bn"
  top: "inception_4a/double_3x3_1"
  param {
    lr_mult: 1
    decay_mult: 1
  }
  param {
    lr_mult: 2
    decay_mult: 0
  }
  convolution_param {
    num_output: 128
    pad: 1
    kernel_size: 3
    weight_filler {
      type: "xavier"
    }
    bias_filler {
      type: "constant"
      value: 0.2
    }
  }
}
layer {
  name: "inception_4a/double_3x3_1_bn"
  type: "BN"
  bottom: "inception_4a/double_3x3_1"
  top: "inception_4a/double_3x3_1_bn"
  param {
    lr_mult: 1
    decay_mult: 0
  }
  param {
    lr_mult: 1
    decay_mult: 0
  }
  bn_param {
    slope_filler {
      type: "constant"
      value: 1
    }
    bias_filler {
      type: "constant"
      value: 0
    }
    frozen: true
    engine: CAFFE
  }
}
layer {
  name: "inception_4a/relu_double_3x3_1"
  type: "ReLU"
  bottom: "inception_4a/double_3x3_1_bn"
  top: "inception_4a/double_3x3_1_bn"
}
layer {
  name: "inception_4a/double_3x3_2"
  type: "Convolution"
  bottom: "inception_4a/double_3x3_1_bn"
  top: "inception_4a/double_3x3_2"
  param {
    lr_mult: 1
    decay_mult: 1
  }
  param {
    lr_mult: 2
    decay_mult: 0
  }
  convolution_param {
    num_output: 128
    pad: 1
    kernel_size: 3
    weight_filler {
      type: "xavier"
    }
    bias_filler {
      type: "constant"
      value: 0.2
    }
  }
}
layer {
  name: "inception_4a/double_3x3_2_bn"
  type: "BN"
  bottom: "inception_4a/double_3x3_2"
  top: "inception_4a/double_3x3_2_bn"
  param {
    lr_mult: 1
    decay_mult: 0
  }
  param {
    lr_mult: 1
    decay_mult: 0
  }
  bn_param {
    slope_filler {
      type: "constant"
      value: 1
    }
    bias_filler {
      type: "constant"
      value: 0
    }
    frozen: true
    engine: CAFFE
  }
}
layer {
  name: "inception_4a/relu_double_3x3_2"
  type: "ReLU"
  bottom: "inception_4a/double_3x3_2_bn"
  top: "inception_4a/double_3x3_2_bn"
}
layer {
  name: "inception_4a/pool"
  type: "Pooling"
  bottom: "inception_3c/output"
  top: "inception_4a/pool"
  pooling_param {
    pool: AVE
    kernel_size: 3
    stride: 1
    pad: 1
  }
}
layer {
  name: "inception_4a/pool_proj"
  type: "Convolution"
  bottom: "inception_4a/pool"
  top: "inception_4a/pool_proj"
  param {
    lr_mult: 1
    decay_mult: 1
  }
  param {
    lr_mult: 2
    decay_mult: 0
  }
  convolution_param {
    num_output: 128
    kernel_size: 1
    weight_filler {
      type: "xavier"
    }
    bias_filler {
      type: "constant"
      value: 0.2
    }
  }
}
layer {
  name: "inception_4a/pool_proj_bn"
  type: "BN"
  bottom: "inception_4a/pool_proj"
  top: "inception_4a/pool_proj_bn"
  param {
    lr_mult: 1
    decay_mult: 0
  }
  param {
    lr_mult: 1
    decay_mult: 0
  }
  bn_param {
    slope_filler {
      type: "constant"
      value: 1
    }
    bias_filler {
      type: "constant"
      value: 0
    }
    frozen: true
    engine: CAFFE
  }
}
layer {
  name: "inception_4a/relu_pool_proj"
  type: "ReLU"
  bottom: "inception_4a/pool_proj_bn"
  top: "inception_4a/pool_proj_bn"
}
layer {
  name: "inception_4a/output"
  type: "Concat"
  bottom: "inception_4a/1x1_b
I0109 14:38:02.025002  4932 layer_factory.hpp:74] Creating layer data
I0109 14:38:02.025020  4932 net.cpp:96] Creating Layer data
I0109 14:38:02.025027  4932 net.cpp:415] data -> data
I0109 14:38:02.025048  4932 net.cpp:415] data -> label
I0109 14:38:02.025058  4932 net.cpp:160] Setting up data
I0109 14:38:02.025408  4932 video_data_layer.cpp:34] Opening file: /home/hadoop/whx/dataset/ucf101/train_flow_split1.txt
I0109 14:38:02.030411  4932 video_data_layer.cpp:50] A total of 9537 videos.
I0109 14:38:03.724882  4932 video_data_layer.cpp:89] output data size: 24,30,224,224
I0109 14:38:03.740986  4932 net.cpp:167] Top shape: 24 30 224 224 (36126720)
I0109 14:38:03.741016  4932 net.cpp:167] Top shape: 24 1 1 1 (24)
I0109 14:38:03.741024  4932 layer_factory.hpp:74] Creating layer data_reshape
I0109 14:38:03.741037  4932 net.cpp:96] Creating Layer data_reshape
I0109 14:38:03.741042  4932 net.cpp:459] data_reshape <- data
I0109 14:38:03.741051  4932 net.cpp:415] data_reshape -> data_reshape
I0109 14:38:03.741065  4932 net.cpp:160] Setting up data_reshape
I0109 14:38:03.741080  4932 net.cpp:167] Top shape: 72 10 224 224 (36126720)
I0109 14:38:03.741084  4932 layer_factory.hpp:74] Creating layer conv1/7x7_s2
I0109 14:38:03.741101  4932 net.cpp:96] Creating Layer conv1/7x7_s2
I0109 14:38:03.741106  4932 net.cpp:459] conv1/7x7_s2 <- data_reshape
I0109 14:38:03.741111  4932 net.cpp:415] conv1/7x7_s2 -> conv1/7x7_s2
I0109 14:38:03.741119  4932 net.cpp:160] Setting up conv1/7x7_s2
I0109 14:38:03.741291  4932 net.cpp:167] Top shape: 72 64 112 112 (57802752)
I0109 14:38:03.741307  4932 layer_factory.hpp:74] Creating layer conv1/7x7_s2_bn
I0109 14:38:03.741318  4932 layer_factory.cpp:177] Layer conv1/7x7_s2_bn is using CAFFE engine.
I0109 14:38:03.741325  4932 net.cpp:96] Creating Layer conv1/7x7_s2_bn
I0109 14:38:03.741328  4932 net.cpp:459] conv1/7x7_s2_bn <- conv1/7x7_s2
I0109 14:38:03.741334  4932 net.cpp:415] conv1/7x7_s2_bn -> conv1/7x7_s2_bn
I0109 14:38:03.741341  4932 net.cpp:160] Setting up conv1/7x7_s2_bn
I0109 14:38:03.741363  4932 net.cpp:167] Top shape: 72 64 112 112 (57802752)
I0109 14:38:03.741371  4932 layer_factory.hpp:74] Creating layer conv1/relu_7x7
I0109 14:38:03.741377  4932 net.cpp:96] Creating Layer conv1/relu_7x7
I0109 14:38:03.741381  4932 net.cpp:459] conv1/relu_7x7 <- conv1/7x7_s2_bn
I0109 14:38:03.741386  4932 net.cpp:404] conv1/relu_7x7 -> conv1/7x7_s2_bn (in-place)
I0109 14:38:03.741390  4932 net.cpp:160] Setting up conv1/relu_7x7
I0109 14:38:03.741395  4932 net.cpp:167] Top shape: 72 64 112 112 (57802752)
I0109 14:38:03.741399  4932 layer_factory.hpp:74] Creating layer pool1/3x3_s2
I0109 14:38:03.741405  4932 net.cpp:96] Creating Layer pool1/3x3_s2
I0109 14:38:03.741407  4932 net.cpp:459] pool1/3x3_s2 <- conv1/7x7_s2_bn
I0109 14:38:03.741411  4932 net.cpp:415] pool1/3x3_s2 -> pool1/3x3_s2
I0109 14:38:03.741417  4932 net.cpp:160] Setting up pool1/3x3_s2
I0109 14:38:03.741427  4932 net.cpp:167] Top shape: 72 64 56 56 (14450688)
I0109 14:38:03.741431  4932 layer_factory.hpp:74] Creating layer conv2/3x3_reduce
I0109 14:38:03.741438  4932 net.cpp:96] Creating Layer conv2/3x3_reduce
I0109 14:38:03.741441  4932 net.cpp:459] conv2/3x3_reduce <- pool1/3x3_s2
I0109 14:38:03.741446  4932 net.cpp:415] conv2/3x3_reduce -> conv2/3x3_reduce
I0109 14:38:03.741451  4932 net.cpp:160] Setting up conv2/3x3_reduce
I0109 14:38:03.741480  4932 net.cpp:167] Top shape: 72 64 56 56 (14450688)
I0109 14:38:03.741487  4932 layer_factory.hpp:74] Creating layer conv2/3x3_reduce_bn
I0109 14:38:03.741489  4932 layer_factory.cpp:177] Layer conv2/3x3_reduce_bn is using CAFFE engine.
I0109 14:38:03.741495  4932 net.cpp:96] Creating Layer conv2/3x3_reduce_bn
I0109 14:38:03.741498  4932 net.cpp:459] conv2/3x3_reduce_bn <- conv2/3x3_reduce
I0109 14:38:03.741503  4932 net.cpp:415] conv2/3x3_reduce_bn -> conv2/3x3_reduce_bn
I0109 14:38:03.741508  4932 net.cpp:160] Setting up conv2/3x3_reduce_bn
I0109 14:38:03.741520  4932 net.cpp:167] Top shape: 72 64 56 56 (14450688)
I0109 14:38:03.741528  4932 layer_factory.hpp:74] Creating layer conv2/relu_3x3_reduce
I0109 14:38:03.741533  4932 net.cpp:96] Creating Layer conv2/relu_3x3_reduce
I0109 14:38:03.741536  4932 net.cpp:459] conv2/relu_3x3_reduce <- conv2/3x3_reduce_bn
I0109 14:38:03.741540  4932 net.cpp:404] conv2/relu_3x3_reduce -> conv2/3x3_reduce_bn (in-place)
I0109 14:38:03.741545  4932 net.cpp:160] Setting up conv2/relu_3x3_reduce
I0109 14:38:03.741549  4932 net.cpp:167] Top shape: 72 64 56 56 (14450688)
I0109 14:38:03.741552  4932 layer_factory.hpp:74] Creating layer conv2/3x3
I0109 14:38:03.741559  4932 net.cpp:96] Creating Layer conv2/3x3
I0109 14:38:03.741561  4932 net.cpp:459] conv2/3x3 <- conv2/3x3_reduce_bn
I0109 14:38:03.741566  4932 net.cpp:415] conv2/3x3 -> conv2/3x3
I0109 14:38:03.741572  4932 net.cpp:160] Setting up conv2/3x3
I0109 14:38:03.742053  4932 net.cpp:167] Top shape: 72 192 56 56 (43352064)
I0109 14:38:03.742058  4932 layer_factory.hpp:74] Creating layer conv2/3x3_bn
I0109 14:38:03.742063  4932 layer_factory.cpp:177] Layer conv2/3x3_bn is using CAFFE engine.
I0109 14:38:03.742067  4932 net.cpp:96] Creating Layer conv2/3x3_bn
I0109 14:38:03.742071  4932 net.cpp:459] conv2/3x3_bn <- conv2/3x3
I0109 14:38:03.742076  4932 net.cpp:415] conv2/3x3_bn -> conv2/3x3_bn
I0109 14:38:03.742081  4932 net.cpp:160] Setting up conv2/3x3_bn
I0109 14:38:03.742094  4932 net.cpp:167] Top shape: 72 192 56 56 (43352064)
I0109 14:38:03.742101  4932 layer_factory.hpp:74] Creating layer conv2/relu_3x3
I0109 14:38:03.742106  4932 net.cpp:96] Creating Layer conv2/relu_3x3
I0109 14:38:03.742110  4932 net.cpp:459] conv2/relu_3x3 <- conv2/3x3_bn
I0109 14:38:03.742120  4932 net.cpp:404] conv2/relu_3x3 -> conv2/3x3_bn (in-place)
I0109 14:38:03.742130  4932 net.cpp:160] Setting up conv2/relu_3x3
I0109 14:38:03.742135  4932 net.cpp:167] Top shape: 72 192 56 56 (43352064)
I0109 14:38:03.742137  4932 layer_factory.hpp:74] Creating layer pool2/3x3_s2
I0109 14:38:03.742142  4932 net.cpp:96] Creating Layer pool2/3x3_s2
I0109 14:38:03.742146  4932 net.cpp:459] pool2/3x3_s2 <- conv2/3x3_bn
I0109 14:38:03.742151  4932 net.cpp:415] pool2/3x3_s2 -> pool2/3x3_s2
I0109 14:38:03.742156  4932 net.cpp:160] Setting up pool2/3x3_s2
I0109 14:38:03.742161  4932 net.cpp:167] Top shape: 72 192 28 28 (10838016)
I0109 14:38:03.742164  4932 layer_factory.hpp:74] Creating layer pool2/3x3_s2_pool2/3x3_s2_0_split
I0109 14:38:03.742169  4932 net.cpp:96] Creating Layer pool2/3x3_s2_pool2/3x3_s2_0_split
I0109 14:38:03.742172  4932 net.cpp:459] pool2/3x3_s2_pool2/3x3_s2_0_split <- pool2/3x3_s2
I0109 14:38:03.742177  4932 net.cpp:415] pool2/3x3_s2_pool2/3x3_s2_0_split -> pool2/3x3_s2_pool2/3x3_s2_0_split_0
I0109 14:38:03.742182  4932 net.cpp:415] pool2/3x3_s2_pool2/3x3_s2_0_split -> pool2/3x3_s2_pool2/3x3_s2_0_split_1
I0109 14:38:03.742187  4932 net.cpp:415] pool2/3x3_s2_pool2/3x3_s2_0_split -> pool2/3x3_s2_pool2/3x3_s2_0_split_2
I0109 14:38:03.742192  4932 net.cpp:415] pool2/3x3_s2_pool2/3x3_s2_0_split -> pool2/3x3_s2_pool2/3x3_s2_0_split_3
I0109 14:38:03.742197  4932 net.cpp:160] Setting up pool2/3x3_s2_pool2/3x3_s2_0_split
I0109 14:38:03.742202  4932 net.cpp:167] Top shape: 72 192 28 28 (10838016)
I0109 14:38:03.742205  4932 net.cpp:167] Top shape: 72 192 28 28 (10838016)
I0109 14:38:03.742209  4932 net.cpp:167] Top shape: 72 192 28 28 (10838016)
I0109 14:38:03.742213  4932 net.cpp:167] Top shape: 72 192 28 28 (10838016)
I0109 14:38:03.742216  4932 layer_factory.hpp:74] Creating layer inception_3a/1x1
I0109 14:38:03.742223  4932 net.cpp:96] Creating Layer inception_3a/1x1
I0109 14:38:03.742225  4932 net.cpp:459] inception_3a/1x1 <- pool2/3x3_s2_pool2/3x3_s2_0_split_0
I0109 14:38:03.742230  4932 net.cpp:415] inception_3a/1x1 -> inception_3a/1x1
I0109 14:38:03.742235  4932 net.cpp:160] Setting up inception_3a/1x1
I0109 14:38:03.742297  4932 net.cpp:167] Top shape: 72 64 28 28 (3612672)
I0109 14:38:03.742303  4932 layer_factory.hpp:74] Creating layer inception_3a/1x1_bn
I0109 14:38:03.742307  4932 layer_factory.cpp:177] Layer inception_3a/1x1_bn is using CAFFE engine.
I0109 14:38:03.742312  4932 net.cpp:96] Creating Layer inception_3a/1x1_bn
I0109 14:38:03.742316  4932 net.cpp:459] inception_3a/1x1_bn <- inception_3a/1x1
I0109 14:38:03.742321  4932 net.cpp:415] inception_3a/1x1_bn -> inception_3a/1x1_bn
I0109 14:38:03.742327  4932 net.cpp:160] Setting up inception_3a/1x1_bn
I0109 14:38:03.742338  4932 net.cpp:167] Top shape: 72 64 28 28 (3612672)
I0109 14:38:03.742344  4932 layer_factory.hpp:74] Creating layer inception_3a/relu_1x1
I0109 14:38:03.742350  4932 net.cpp:96] Creating Layer inception_3a/relu_1x1
I0109 14:38:03.742353  4932 net.cpp:459] inception_3a/relu_1x1 <- inception_3a/1x1_bn
I0109 14:38:03.742358  4932 net.cpp:404] inception_3a/relu_1x1 -> inception_3a/1x1_bn (in-place)
I0109 14:38:03.742362  4932 net.cpp:160] Setting up inception_3a/relu_1x1
I0109 14:38:03.742367  4932 net.cpp:167] Top shape: 72 64 28 28 (3612672)
I0109 14:38:03.742369  4932 layer_factory.hpp:74] Creating layer inception_3a/3x3_reduce
I0109 14:38:03.742375  4932 net.cpp:96] Creating Layer inception_3a/3x3_reduce
I0109 14:38:03.742378  4932 net.cpp:459] inception_3a/3x3_reduce <- pool2/3x3_s2_pool2/3x3_s2_0_split_1
I0109 14:38:03.742383  4932 net.cpp:415] inception_3a/3x3_reduce -> inception_3a/3x3_reduce
I0109 14:38:03.742388  4932 net.cpp:160] Setting up inception_3a/3x3_reduce
I0109 14:38:03.742449  4932 net.cpp:167] Top shape: 72 64 28 28 (3612672)
I0109 14:38:03.742455  4932 layer_factory.hpp:74] Creating layer inception_3a/3x3_reduce_bn
I0109 14:38:03.742458  4932 layer_factory.cpp:177] Layer inception_3a/3x3_reduce_bn is using CAFFE engine.
I0109 14:38:03.742463  4932 net.cpp:96] Creating Layer inception_3a/3x3_reduce_bn
I0109 14:38:03.742470  4932 net.cpp:459] inception_3a/3x3_reduce_bn <- inception_3a/3x3_reduce
I0109 14:38:03.742480  4932 net.cpp:415] inception_3a/3x3_reduce_bn -> inception_3a/3x3_reduce_bn
I0109 14:38:03.742485  4932 net.cpp:160] Setting up inception_3a/3x3_reduce_bn
I0109 14:38:03.742496  4932 net.cpp:167] Top shape: 72 64 28 28 (3612672)
I0109 14:38:03.742502  4932 layer_factory.hpp:74] Creating layer inception_3a/relu_3x3_reduce
I0109 14:38:03.742507  4932 net.cpp:96] Creating Layer inception_3a/relu_3x3_reduce
I0109 14:38:03.742511  4932 net.cpp:459] inception_3a/relu_3x3_reduce <- inception_3a/3x3_reduce_bn
I0109 14:38:03.742514  4932 net.cpp:404] inception_3a/relu_3x3_reduce -> inception_3a/3x3_reduce_bn (in-place)
I0109 14:38:03.742519  4932 net.cpp:160] Setting up inception_3a/relu_3x3_reduce
I0109 14:38:03.742523  4932 net.cpp:167] Top shape: 72 64 28 28 (3612672)
I0109 14:38:03.742527  4932 layer_factory.hpp:74] Creating layer inception_3a/3x3
I0109 14:38:03.742532  4932 net.cpp:96] Creating Layer inception_3a/3x3
I0109 14:38:03.742535  4932 net.cpp:459] inception_3a/3x3 <- inception_3a/3x3_reduce_bn
I0109 14:38:03.742540  4932 net.cpp:415] inception_3a/3x3 -> inception_3a/3x3
I0109 14:38:03.742545  4932 net.cpp:160] Setting up inception_3a/3x3
I0109 14:38:03.742712  4932 net.cpp:167] Top shape: 72 64 28 28 (3612672)
I0109 14:38:03.742717  4932 layer_factory.hpp:74] Creating layer inception_3a/3x3_bn
I0109 14:38:03.742720  4932 layer_factory.cpp:177] Layer inception_3a/3x3_bn is using CAFFE engine.
I0109 14:38:03.742727  4932 net.cpp:96] Creating Layer inception_3a/3x3_bn
I0109 14:38:03.742729  4932 net.cpp:459] inception_3a/3x3_bn <- inception_3a/3x3
I0109 14:38:03.742734  4932 net.cpp:415] inception_3a/3x3_bn -> inception_3a/3x3_bn
I0109 14:38:03.742740  4932 net.cpp:160] Setting up inception_3a/3x3_bn
I0109 14:38:03.742750  4932 net.cpp:167] Top shape: 72 64 28 28 (3612672)
I0109 14:38:03.742759  4932 layer_factory.hpp:74] Creating layer inception_3a/relu_3x3
I0109 14:38:03.742764  4932 net.cpp:96] Creating Layer inception_3a/relu_3x3
I0109 14:38:03.742768  4932 net.cpp:459] inception_3a/relu_3x3 <- inception_3a/3x3_bn
I0109 14:38:03.742772  4932 net.cpp:404] inception_3a/relu_3x3 -> inception_3a/3x3_bn (in-place)
I0109 14:38:03.742776  4932 net.cpp:160] Setting up inception_3a/relu_3x3
I0109 14:38:03.742780  4932 net.cpp:167] Top shape: 72 64 28 28 (3612672)
I0109 14:38:03.742784  4932 layer_factory.hpp:74] Creating layer inception_3a/double_3x3_reduce
I0109 14:38:03.742789  4932 net.cpp:96] Creating Layer inception_3a/double_3x3_reduce
I0109 14:38:03.742792  4932 net.cpp:459] inception_3a/double_3x3_reduce <- pool2/3x3_s2_pool2/3x3_s2_0_split_2
I0109 14:38:03.742799  4932 net.cpp:415] inception_3a/double_3x3_reduce -> inception_3a/double_3x3_reduce
I0109 14:38:03.742804  4932 net.cpp:160] Setting up inception_3a/double_3x3_reduce
I0109 14:38:03.742864  4932 net.cpp:167] Top shape: 72 64 28 28 (3612672)
I0109 14:38:03.742871  4932 layer_factory.hpp:74] Creating layer inception_3a/double_3x3_reduce_bn
I0109 14:38:03.742873  4932 layer_factory.cpp:177] Layer inception_3a/double_3x3_reduce_bn is using CAFFE engine.
I0109 14:38:03.742879  4932 net.cpp:96] Creating Layer inception_3a/double_3x3_reduce_bn
I0109 14:38:03.742882  4932 net.cpp:459] inception_3a/double_3x3_reduce_bn <- inception_3a/double_3x3_reduce
I0109 14:38:03.742887  4932 net.cpp:415] inception_3a/double_3x3_reduce_bn -> inception_3a/double_3x3_reduce_bn
I0109 14:38:03.742892  4932 net.cpp:160] Setting up inception_3a/double_3x3_reduce_bn
I0109 14:38:03.742903  4932 net.cpp:167] Top shape: 72 64 28 28 (3612672)
I0109 14:38:03.742909  4932 layer_factory.hpp:74] Creating layer inception_3a/relu_double_3x3_reduce
I0109 14:38:03.742914  4932 net.cpp:96] Creating Layer inception_3a/relu_double_3x3_reduce
I0109 14:38:03.742918  4932 net.cpp:459] inception_3a/relu_double_3x3_reduce <- inception_3a/double_3x3_reduce_bn
I0109 14:38:03.742921  4932 net.cpp:404] inception_3a/relu_double_3x3_reduce -> inception_3a/double_3x3_reduce_bn (in-place)
I0109 14:38:03.742928  4932 net.cpp:160] Setting up inception_3a/relu_double_3x3_reduce
I0109 14:38:03.742936  4932 net.cpp:167] Top shape: 72 64 28 28 (3612672)
I0109 14:38:03.742939  4932 layer_factory.hpp:74] Creating layer inception_3a/double_3x3_1
I0109 14:38:03.742944  4932 net.cpp:96] Creating Layer inception_3a/double_3x3_1
I0109 14:38:03.742949  4932 net.cpp:459] inception_3a/double_3x3_1 <- inception_3a/double_3x3_reduce_bn
I0109 14:38:03.742954  4932 net.cpp:415] inception_3a/double_3x3_1 -> inception_3a/double_3x3_1
I0109 14:38:03.742959  4932 net.cpp:160] Setting up inception_3a/double_3x3_1
I0109 14:38:03.743203  4932 net.cpp:167] Top shape: 72 96 28 28 (5419008)
I0109 14:38:03.743209  4932 layer_factory.hpp:74] Creating layer inception_3a/double_3x3_1_bn
I0109 14:38:03.743212  4932 layer_factory.cpp:177] Layer inception_3a/double_3x3_1_bn is using CAFFE engine.
I0109 14:38:03.743217  4932 net.cpp:96] Creating Layer inception_3a/double_3x3_1_bn
I0109 14:38:03.743221  4932 net.cpp:459] inception_3a/double_3x3_1_bn <- inception_3a/double_3x3_1
I0109 14:38:03.743227  4932 net.cpp:415] inception_3a/double_3x3_1_bn -> inception_3a/double_3x3_1_bn
I0109 14:38:03.743232  4932 net.cpp:160] Setting up inception_3a/double_3x3_1_bn
I0109 14:38:03.743242  4932 net.cpp:167] Top shape: 72 96 28 28 (5419008)
I0109 14:38:03.743248  4932 layer_factory.hpp:74] Creating layer inception_3a/relu_double_3x3_1
I0109 14:38:03.743253  4932 net.cpp:96] Creating Layer inception_3a/relu_double_3x3_1
I0109 14:38:03.743257  4932 net.cpp:459] inception_3a/relu_double_3x3_1 <- inception_3a/double_3x3_1_bn
I0109 14:38:03.743260  4932 net.cpp:404] inception_3a/relu_double_3x3_1 -> inception_3a/double_3x3_1_bn (in-place)
I0109 14:38:03.743265  4932 net.cpp:160] Setting up inception_3a/relu_double_3x3_1
I0109 14:38:03.743269  4932 net.cpp:167] Top shape: 72 96 28 28 (5419008)
I0109 14:38:03.743273  4932 layer_factory.hpp:74] Creating layer inception_3a/double_3x3_2
I0109 14:38:03.743278  4932 net.cpp:96] Creating Layer inception_3a/double_3x3_2
I0109 14:38:03.743280  4932 net.cpp:459] inception_3a/double_3x3_2 <- inception_3a/double_3x3_1_bn
I0109 14:38:03.743285  4932 net.cpp:415] inception_3a/double_3x3_2 -> inception_3a/double_3x3_2
I0109 14:38:03.743290  4932 net.cpp:160] Setting up inception_3a/double_3x3_2
I0109 14:38:03.743652  4932 net.cpp:167] Top shape: 72 96 28 28 (5419008)
I0109 14:38:03.743659  4932 layer_factory.hpp:74] Creating layer inception_3a/double_3x3_2_bn
I0109 14:38:03.743661  4932 layer_factory.cpp:177] Layer inception_3a/double_3x3_2_bn is using CAFFE engine.
I0109 14:38:03.743667  4932 net.cpp:96] Creating Layer inception_3a/double_3x3_2_bn
I0109 14:38:03.743670  4932 net.cpp:459] inception_3a/double_3x3_2_bn <- inception_3a/double_3x3_2
I0109 14:38:03.743675  4932 net.cpp:415] inception_3a/double_3x3_2_bn -> inception_3a/double_3x3_2_bn
I0109 14:38:03.743680  4932 net.cpp:160] Setting up inception_3a/double_3x3_2_bn
I0109 14:38:03.743690  4932 net.cpp:167] Top shape: 72 96 28 28 (5419008)
I0109 14:38:03.743697  4932 layer_factory.hpp:74] Creating layer inception_3a/relu_double_3x3_2
I0109 14:38:03.743701  4932 net.cpp:96] Creating Layer inception_3a/relu_double_3x3_2
I0109 14:38:03.743705  4932 net.cpp:459] inception_3a/relu_double_3x3_2 <- inception_3a/double_3x3_2_bn
I0109 14:38:03.743710  4932 net.cpp:404] inception_3a/relu_double_3x3_2 -> inception_3a/double_3x3_2_bn (in-place)
I0109 14:38:03.743713  4932 net.cpp:160] Setting up inception_3a/relu_double_3x3_2
I0109 14:38:03.743716  4932 net.cpp:167] Top shape: 72 96 28 28 (5419008)
I0109 14:38:03.743721  4932 layer_factory.hpp:74] Creating layer inception_3a/pool
I0109 14:38:03.743726  4932 net.cpp:96] Creating Layer inception_3a/pool
I0109 14:38:03.743731  4932 net.cpp:459] inception_3a/pool <- pool2/3x3_s2_pool2/3x3_s2_0_split_3
I0109 14:38:03.743734  4932 net.cpp:415] inception_3a/pool -> inception_3a/pool
I0109 14:38:03.743739  4932 net.cpp:160] Setting up inception_3a/pool
I0109 14:38:03.743744  4932 net.cpp:167] Top shape: 72 192 28 28 (10838016)
I0109 14:38:03.743751  4932 layer_factory.hpp:74] Creating layer inception_3a/pool_proj
I0109 14:38:03.743759  4932 net.cpp:96] Creating Layer inception_3a/pool_proj
I0109 14:38:03.743763  4932 net.cpp:459] inception_3a/pool_proj <- inception_3a/pool
I0109 14:38:03.743767  4932 net.cpp:415] inception_3a/pool_proj -> inception_3a/pool_proj
I0109 14:38:03.743773  4932 net.cpp:160] Setting up inception_3a/pool_proj
I0109 14:38:03.743808  4932 net.cpp:167] Top shape: 72 32 28 28 (1806336)
I0109 14:38:03.743813  4932 layer_factory.hpp:74] Creating layer inception_3a/pool_proj_bn
I0109 14:38:03.743818  4932 layer_factory.cpp:177] Layer inception_3a/pool_proj_bn is using CAFFE engine.
I0109 14:38:03.743823  4932 net.cpp:96] Creating Layer inception_3a/pool_proj_bn
I0109 14:38:03.743825  4932 net.cpp:459] inception_3a/pool_proj_bn <- inception_3a/pool_proj
I0109 14:38:03.743830  4932 net.cpp:415] inception_3a/pool_proj_bn -> inception_3a/pool_proj_bn
I0109 14:38:03.743835  4932 net.cpp:160] Setting up inception_3a/pool_proj_bn
I0109 14:38:03.743845  4932 net.cpp:167] Top shape: 72 32 28 28 (1806336)
I0109 14:38:03.743852  4932 layer_factory.hpp:74] Creating layer inception_3a/relu_pool_proj
I0109 14:38:03.743857  4932 net.cpp:96] Creating Layer inception_3a/relu_pool_proj
I0109 14:38:03.743860  4932 net.cpp:459] inception_3a/relu_pool_proj <- inception_3a/pool_proj_bn
I0109 14:38:03.743865  4932 net.cpp:404] inception_3a/relu_pool_proj -> inception_3a/pool_proj_bn (in-place)
I0109 14:38:03.743870  4932 net.cpp:160] Setting up inception_3a/relu_pool_proj
I0109 14:38:03.743873  4932 net.cpp:167] Top shape: 72 32 28 28 (1806336)
I0109 14:38:03.743876  4932 layer_factory.hpp:74] Creating layer inception_3a/output
I0109 14:38:03.743882  4932 net.cpp:96] Creating Layer inception_3a/output
I0109 14:38:03.743885  4932 net.cpp:459] inception_3a/output <- inception_3a/1x1_bn
I0109 14:38:03.743890  4932 net.cpp:459] inception_3a/output <- inception_3a/3x3_bn
I0109 14:38:03.743892  4932 net.cpp:459] inception_3a/output <- inception_3a/double_3x3_2_bn
I0109 14:38:03.743896  4932 net.cpp:459] inception_3a/output <- inception_3a/pool_proj_bn
I0109 14:38:03.743901  4932 net.cpp:415] inception_3a/output -> inception_3a/output
I0109 14:38:03.743906  4932 net.cpp:160] Setting up inception_3a/output
I0109 14:38:03.743911  4932 net.cpp:167] Top shape: 72 256 28 28 (14450688)
I0109 14:38:03.743914  4932 layer_factory.hpp:74] Creating layer inception_3a/output_inception_3a/output_0_split
I0109 14:38:03.743919  4932 net.cpp:96] Creating Layer inception_3a/output_inception_3a/output_0_split
I0109 14:38:03.743922  4932 net.cpp:459] inception_3a/output_inception_3a/output_0_split <- inception_3a/output
I0109 14:38:03.743927  4932 net.cpp:415] inception_3a/output_inception_3a/output_0_split -> inception_3a/output_inception_3a/output_0_split_0
I0109 14:38:03.743932  4932 net.cpp:415] inception_3a/output_inception_3a/output_0_split -> inception_3a/output_inception_3a/output_0_split_1
I0109 14:38:03.743939  4932 net.cpp:415] inception_3a/output_inception_3a/output_0_split -> inception_3a/output_inception_3a/output_0_split_2
I0109 14:38:03.743945  4932 net.cpp:415] inception_3a/output_inception_3a/output_0_split -> inception_3a/output_inception_3a/output_0_split_3
I0109 14:38:03.743949  4932 net.cpp:160] Setting up inception_3a/output_inception_3a/output_0_split
I0109 14:38:03.743954  4932 net.cpp:167] Top shape: 72 256 28 28 (14450688)
I0109 14:38:03.743959  4932 net.cpp:167] Top shape: 72 256 28 28 (14450688)
I0109 14:38:03.743963  4932 net.cpp:167] Top shape: 72 256 28 28 (14450688)
I0109 14:38:03.743966  4932 net.cpp:167] Top shape: 72 256 28 28 (14450688)
I0109 14:38:03.743970  4932 layer_factory.hpp:74] Creating layer inception_3b/1x1
I0109 14:38:03.743975  4932 net.cpp:96] Creating Layer inception_3b/1x1
I0109 14:38:03.743978  4932 net.cpp:459] inception_3b/1x1 <- inception_3a/output_inception_3a/output_0_split_0
I0109 14:38:03.743984  4932 net.cpp:415] inception_3b/1x1 -> inception_3b/1x1
I0109 14:38:03.743989  4932 net.cpp:160] Setting up inception_3b/1x1
I0109 14:38:03.744071  4932 net.cpp:167] Top shape: 72 64 28 28 (3612672)
I0109 14:38:03.744081  4932 layer_factory.hpp:74] Creating layer inception_3b/1x1_bn
I0109 14:38:03.744084  4932 layer_factory.cpp:177] Layer inception_3b/1x1_bn is using CAFFE engine.
I0109 14:38:03.744089  4932 net.cpp:96] Creating Layer inception_3b/1x1_bn
I0109 14:38:03.744093  4932 net.cpp:459] inception_3b/1x1_bn <- inception_3b/1x1
I0109 14:38:03.744098  4932 net.cpp:415] inception_3b/1x1_bn -> inception_3b/1x1_bn
I0109 14:38:03.744103  4932 net.cpp:160] Setting up inception_3b/1x1_bn
I0109 14:38:03.744122  4932 net.cpp:167] Top shape: 72 64 28 28 (3612672)
I0109 14:38:03.744133  4932 layer_factory.hpp:74] Creating layer inception_3b/relu_1x1
I0109 14:38:03.744138  4932 net.cpp:96] Creating Layer inception_3b/relu_1x1
I0109 14:38:03.744141  4932 net.cpp:459] inception_3b/relu_1x1 <- inception_3b/1x1_bn
I0109 14:38:03.744146  4932 net.cpp:404] inception_3b/relu_1x1 -> inception_3b/1x1_bn (in-place)
I0109 14:38:03.744150  4932 net.cpp:160] Setting up inception_3b/relu_1x1
I0109 14:38:03.744154  4932 net.cpp:167] Top shape: 72 64 28 28 (3612672)
I0109 14:38:03.744158  4932 layer_factory.hpp:74] Creating layer inception_3b/3x3_reduce
I0109 14:38:03.744163  4932 net.cpp:96] Creating Layer inception_3b/3x3_reduce
I0109 14:38:03.744168  4932 net.cpp:459] inception_3b/3x3_reduce <- inception_3a/output_inception_3a/output_0_split_1
I0109 14:38:03.744173  4932 net.cpp:415] inception_3b/3x3_reduce -> inception_3b/3x3_reduce
I0109 14:38:03.744177  4932 net.cpp:160] Setting up inception_3b/3x3_reduce
I0109 14:38:03.744257  4932 net.cpp:167] Top shape: 72 64 28 28 (3612672)
I0109 14:38:03.744263  4932 layer_factory.hpp:74] Creating layer inception_3b/3x3_reduce_bn
I0109 14:38:03.744266  4932 layer_factory.cpp:177] Layer inception_3b/3x3_reduce_bn is using CAFFE engine.
I0109 14:38:03.744272  4932 net.cpp:96] Creating Layer inception_3b/3x3_reduce_bn
I0109 14:38:03.744277  4932 net.cpp:459] inception_3b/3x3_reduce_bn <- inception_3b/3x3_reduce
I0109 14:38:03.744282  4932 net.cpp:415] inception_3b/3x3_reduce_bn -> inception_3b/3x3_reduce_bn
I0109 14:38:03.744287  4932 net.cpp:160] Setting up inception_3b/3x3_reduce_bn
I0109 14:38:03.744297  4932 net.cpp:167] Top shape: 72 64 28 28 (3612672)
I0109 14:38:03.744303  4932 layer_factory.hpp:74] Creating layer inception_3b/relu_3x3_reduce
I0109 14:38:03.744308  4932 net.cpp:96] Creating Layer inception_3b/relu_3x3_reduce
I0109 14:38:03.744312  4932 net.cpp:459] inception_3b/relu_3x3_reduce <- inception_3b/3x3_reduce_bn
I0109 14:38:03.744316  4932 net.cpp:404] inception_3b/relu_3x3_reduce -> inception_3b/3x3_reduce_bn (in-place)
I0109 14:38:03.744320  4932 net.cpp:160] Setting up inception_3b/relu_3x3_reduce
I0109 14:38:03.744324  4932 net.cpp:167] Top shape: 72 64 28 28 (3612672)
I0109 14:38:03.744328  4932 layer_factory.hpp:74] Creating layer inception_3b/3x3
I0109 14:38:03.744333  4932 net.cpp:96] Creating Layer inception_3b/3x3
I0109 14:38:03.744336  4932 net.cpp:459] inception_3b/3x3 <- inception_3b/3x3_reduce_bn
I0109 14:38:03.744341  4932 net.cpp:415] inception_3b/3x3 -> inception_3b/3x3
I0109 14:38:03.744346  4932 net.cpp:160] Setting up inception_3b/3x3
I0109 14:38:03.744590  4932 net.cpp:167] Top shape: 72 96 28 28 (5419008)
I0109 14:38:03.744596  4932 layer_factory.hpp:74] Creating layer inception_3b/3x3_bn
I0109 14:38:03.744601  4932 layer_factory.cpp:177] Layer inception_3b/3x3_bn is using CAFFE engine.
I0109 14:38:03.744606  4932 net.cpp:96] Creating Layer inception_3b/3x3_bn
I0109 14:38:03.744608  4932 net.cpp:459] inception_3b/3x3_bn <- inception_3b/3x3
I0109 14:38:03.744613  4932 net.cpp:415] inception_3b/3x3_bn -> inception_3b/3x3_bn
I0109 14:38:03.744618  4932 net.cpp:160] Setting up inception_3b/3x3_bn
I0109 14:38:03.744629  4932 net.cpp:167] Top shape: 72 96 28 28 (5419008)
I0109 14:38:03.744637  4932 layer_factory.hpp:74] Creating layer inception_3b/relu_3x3
I0109 14:38:03.744640  4932 net.cpp:96] Creating Layer inception_3b/relu_3x3
I0109 14:38:03.744644  4932 net.cpp:459] inception_3b/relu_3x3 <- inception_3b/3x3_bn
I0109 14:38:03.744650  4932 net.cpp:404] inception_3b/relu_3x3 -> inception_3b/3x3_bn (in-place)
I0109 14:38:03.744659  4932 net.cpp:160] Setting up inception_3b/relu_3x3
I0109 14:38:03.744663  4932 net.cpp:167] Top shape: 72 96 28 28 (5419008)
I0109 14:38:03.744666  4932 layer_factory.hpp:74] Creating layer inception_3b/double_3x3_reduce
I0109 14:38:03.744671  4932 net.cpp:96] Creating Layer inception_3b/double_3x3_reduce
I0109 14:38:03.744675  4932 net.cpp:459] inception_3b/double_3x3_reduce <- inception_3a/output_inception_3a/output_0_split_2
I0109 14:38:03.744680  4932 net.cpp:415] inception_3b/double_3x3_reduce -> inception_3b/double_3x3_reduce
I0109 14:38:03.744685  4932 net.cpp:160] Setting up inception_3b/double_3x3_reduce
I0109 14:38:03.744765  4932 net.cpp:167] Top shape: 72 64 28 28 (3612672)
I0109 14:38:03.744771  4932 layer_factory.hpp:74] Creating layer inception_3b/double_3x3_reduce_bn
I0109 14:38:03.744773  4932 layer_factory.cpp:177] Layer inception_3b/double_3x3_reduce_bn is using CAFFE engine.
I0109 14:38:03.744779  4932 net.cpp:96] Creating Layer inception_3b/double_3x3_reduce_bn
I0109 14:38:03.744782  4932 net.cpp:459] inception_3b/double_3x3_reduce_bn <- inception_3b/double_3x3_reduce
I0109 14:38:03.744787  4932 net.cpp:415] inception_3b/double_3x3_reduce_bn -> inception_3b/double_3x3_reduce_bn
I0109 14:38:03.744792  4932 net.cpp:160] Setting up inception_3b/double_3x3_reduce_bn
I0109 14:38:03.744802  4932 net.cpp:167] Top shape: 72 64 28 28 (3612672)
I0109 14:38:03.744809  4932 layer_factory.hpp:74] Creating layer inception_3b/relu_double_3x3_reduce
I0109 14:38:03.744814  4932 net.cpp:96] Creating Layer inception_3b/relu_double_3x3_reduce
I0109 14:38:03.744817  4932 net.cpp:459] inception_3b/relu_double_3x3_reduce <- inception_3b/double_3x3_reduce_bn
I0109 14:38:03.744822  4932 net.cpp:404] inception_3b/relu_double_3x3_reduce -> inception_3b/double_3x3_reduce_bn (in-place)
I0109 14:38:03.744825  4932 net.cpp:160] Setting up inception_3b/relu_double_3x3_reduce
I0109 14:38:03.744829  4932 net.cpp:167] Top shape: 72 64 28 28 (3612672)
I0109 14:38:03.744832  4932 layer_factory.hpp:74] Creating layer inception_3b/double_3x3_1
I0109 14:38:03.744838  4932 net.cpp:96] Creating Layer inception_3b/double_3x3_1
I0109 14:38:03.744841  4932 net.cpp:459] inception_3b/double_3x3_1 <- inception_3b/double_3x3_reduce_bn
I0109 14:38:03.744846  4932 net.cpp:415] inception_3b/double_3x3_1 -> inception_3b/double_3x3_1
I0109 14:38:03.744850  4932 net.cpp:160] Setting up inception_3b/double_3x3_1
I0109 14:38:03.745095  4932 net.cpp:167] Top shape: 72 96 28 28 (5419008)
I0109 14:38:03.745100  4932 layer_factory.hpp:74] Creating layer inception_3b/double_3x3_1_bn
I0109 14:38:03.745105  4932 layer_factory.cpp:177] Layer inception_3b/double_3x3_1_bn is using CAFFE engine.
I0109 14:38:03.745110  4932 net.cpp:96] Creating Layer inception_3b/double_3x3_1_bn
I0109 14:38:03.745112  4932 net.cpp:459] inception_3b/double_3x3_1_bn <- inception_3b/double_3x3_1
I0109 14:38:03.745118  4932 net.cpp:415] inception_3b/double_3x3_1_bn -> inception_3b/double_3x3_1_bn
I0109 14:38:03.745123  4932 net.cpp:160] Setting up inception_3b/double_3x3_1_bn
I0109 14:38:03.745133  4932 net.cpp:167] Top shape: 72 96 28 28 (5419008)
I0109 14:38:03.745139  4932 layer_factory.hpp:74] Creating layer inception_3b/relu_double_3x3_1
I0109 14:38:03.745144  4932 net.cpp:96] Creating Layer inception_3b/relu_double_3x3_1
I0109 14:38:03.745148  4932 net.cpp:459] inception_3b/relu_double_3x3_1 <- inception_3b/double_3x3_1_bn
I0109 14:38:03.745152  4932 net.cpp:404] inception_3b/relu_double_3x3_1 -> inception_3b/double_3x3_1_bn (in-place)
I0109 14:38:03.745157  4932 net.cpp:160] Setting up inception_3b/relu_double_3x3_1
I0109 14:38:03.745160  4932 net.cpp:167] Top shape: 72 96 28 28 (5419008)
I0109 14:38:03.745163  4932 layer_factory.hpp:74] Creating layer inception_3b/double_3x3_2
I0109 14:38:03.745169  4932 net.cpp:96] Creating Layer inception_3b/double_3x3_2
I0109 14:38:03.745172  4932 net.cpp:459] inception_3b/double_3x3_2 <- inception_3b/double_3x3_1_bn
I0109 14:38:03.745179  4932 net.cpp:415] inception_3b/double_3x3_2 -> inception_3b/double_3x3_2
I0109 14:38:03.745188  4932 net.cpp:160] Setting up inception_3b/double_3x3_2
I0109 14:38:03.745549  4932 net.cpp:167] Top shape: 72 96 28 28 (5419008)
I0109 14:38:03.745556  4932 layer_factory.hpp:74] Creating layer inception_3b/double_3x3_2_bn
I0109 14:38:03.745559  4932 layer_factory.cpp:177] Layer inception_3b/double_3x3_2_bn is using CAFFE engine.
I0109 14:38:03.745565  4932 net.cpp:96] Creating Layer inception_3b/double_3x3_2_bn
I0109 14:38:03.745568  4932 net.cpp:459] inception_3b/double_3x3_2_bn <- inception_3b/double_3x3_2
I0109 14:38:03.745573  4932 net.cpp:415] inception_3b/double_3x3_2_bn -> inception_3b/double_3x3_2_bn
I0109 14:38:03.745579  4932 net.cpp:160] Setting up inception_3b/double_3x3_2_bn
I0109 14:38:03.745589  4932 net.cpp:167] Top shape: 72 96 28 28 (5419008)
I0109 14:38:03.745595  4932 layer_factory.hpp:74] Creating layer inception_3b/relu_double_3x3_2
I0109 14:38:03.745600  4932 net.cpp:96] Creating Layer inception_3b/relu_double_3x3_2
I0109 14:38:03.745604  4932 net.cpp:459] inception_3b/relu_double_3x3_2 <- inception_3b/double_3x3_2_bn
I0109 14:38:03.745609  4932 net.cpp:404] inception_3b/relu_double_3x3_2 -> inception_3b/double_3x3_2_bn (in-place)
I0109 14:38:03.745612  4932 net.cpp:160] Setting up inception_3b/relu_double_3x3_2
I0109 14:38:03.745616  4932 net.cpp:167] Top shape: 72 96 28 28 (5419008)
I0109 14:38:03.745620  4932 layer_factory.hpp:74] Creating layer inception_3b/pool
I0109 14:38:03.745625  4932 net.cpp:96] Creating Layer inception_3b/pool
I0109 14:38:03.745627  4932 net.cpp:459] inception_3b/pool <- inception_3a/output_inception_3a/output_0_split_3
I0109 14:38:03.745632  4932 net.cpp:415] inception_3b/pool -> inception_3b/pool
I0109 14:38:03.745637  4932 net.cpp:160] Setting up inception_3b/pool
I0109 14:38:03.745642  4932 net.cpp:167] Top shape: 72 256 28 28 (14450688)
I0109 14:38:03.745645  4932 layer_factory.hpp:74] Creating layer inception_3b/pool_proj
I0109 14:38:03.745651  4932 net.cpp:96] Creating Layer inception_3b/pool_proj
I0109 14:38:03.745654  4932 net.cpp:459] inception_3b/pool_proj <- inception_3b/pool
I0109 14:38:03.745659  4932 net.cpp:415] inception_3b/pool_proj -> inception_3b/pool_proj
I0109 14:38:03.745664  4932 net.cpp:160] Setting up inception_3b/pool_proj
I0109 14:38:03.745743  4932 net.cpp:167] Top shape: 72 64 28 28 (3612672)
I0109 14:38:03.745748  4932 layer_factory.hpp:74] Creating layer inception_3b/pool_proj_bn
I0109 14:38:03.745753  4932 layer_factory.cpp:177] Layer inception_3b/pool_proj_bn is using CAFFE engine.
I0109 14:38:03.745757  4932 net.cpp:96] Creating Layer inception_3b/pool_proj_bn
I0109 14:38:03.745760  4932 net.cpp:459] inception_3b/pool_proj_bn <- inception_3b/pool_proj
I0109 14:38:03.745765  4932 net.cpp:415] inception_3b/pool_proj_bn -> inception_3b/pool_proj_bn
I0109 14:38:03.745770  4932 net.cpp:160] Setting up inception_3b/pool_proj_bn
I0109 14:38:03.745780  4932 net.cpp:167] Top shape: 72 64 28 28 (3612672)
I0109 14:38:03.745787  4932 layer_factory.hpp:74] Creating layer inception_3b/relu_pool_proj
I0109 14:38:03.745791  4932 net.cpp:96] Creating Layer inception_3b/relu_pool_proj
I0109 14:38:03.745795  4932 net.cpp:459] inception_3b/relu_pool_proj <- inception_3b/pool_proj_bn
I0109 14:38:03.745800  4932 net.cpp:404] inception_3b/relu_pool_proj -> inception_3b/pool_proj_bn (in-place)
I0109 14:38:03.745803  4932 net.cpp:160] Setting up inception_3b/relu_pool_proj
I0109 14:38:03.745807  4932 net.cpp:167] Top shape: 72 64 28 28 (3612672)
I0109 14:38:03.745810  4932 layer_factory.hpp:74] Creating layer inception_3b/output
I0109 14:38:03.745815  4932 net.cpp:96] Creating Layer inception_3b/output
I0109 14:38:03.745818  4932 net.cpp:459] inception_3b/output <- inception_3b/1x1_bn
I0109 14:38:03.745822  4932 net.cpp:459] inception_3b/output <- inception_3b/3x3_bn
I0109 14:38:03.745826  4932 net.cpp:459] inception_3b/output <- inception_3b/double_3x3_2_bn
I0109 14:38:03.745829  4932 net.cpp:459] inception_3b/output <- inception_3b/pool_proj_bn
I0109 14:38:03.745836  4932 net.cpp:415] inception_3b/output -> inception_3b/output
I0109 14:38:03.745844  4932 net.cpp:160] Setting up inception_3b/output
I0109 14:38:03.745849  4932 net.cpp:167] Top shape: 72 320 28 28 (18063360)
I0109 14:38:03.745853  4932 layer_factory.hpp:74] Creating layer inception_3b/output_inception_3b/output_0_split
I0109 14:38:03.745858  4932 net.cpp:96] Creating Layer inception_3b/output_inception_3b/output_0_split
I0109 14:38:03.745862  4932 net.cpp:459] inception_3b/output_inception_3b/output_0_split <- inception_3b/output
I0109 14:38:03.745867  4932 net.cpp:415] inception_3b/output_inception_3b/output_0_split -> inception_3b/output_inception_3b/output_0_split_0
I0109 14:38:03.745870  4932 net.cpp:415] inception_3b/output_inception_3b/output_0_split -> inception_3b/output_inception_3b/output_0_split_1
I0109 14:38:03.745875  4932 net.cpp:415] inception_3b/output_inception_3b/output_0_split -> inception_3b/output_inception_3b/output_0_split_2
I0109 14:38:03.745880  4932 net.cpp:160] Setting up inception_3b/output_inception_3b/output_0_split
I0109 14:38:03.745885  4932 net.cpp:167] Top shape: 72 320 28 28 (18063360)
I0109 14:38:03.745889  4932 net.cpp:167] Top shape: 72 320 28 28 (18063360)
I0109 14:38:03.745893  4932 net.cpp:167] Top shape: 72 320 28 28 (18063360)
I0109 14:38:03.745896  4932 layer_factory.hpp:74] Creating layer inception_3c/3x3_reduce
I0109 14:38:03.745901  4932 net.cpp:96] Creating Layer inception_3c/3x3_reduce
I0109 14:38:03.745904  4932 net.cpp:459] inception_3c/3x3_reduce <- inception_3b/output_inception_3b/output_0_split_0
I0109 14:38:03.745910  4932 net.cpp:415] inception_3c/3x3_reduce -> inception_3c/3x3_reduce
I0109 14:38:03.745915  4932 net.cpp:160] Setting up inception_3c/3x3_reduce
I0109 14:38:03.746111  4932 net.cpp:167] Top shape: 72 128 28 28 (7225344)
I0109 14:38:03.746120  4932 layer_factory.hpp:74] Creating layer inception_3c/3x3_reduce_bn
I0109 14:38:03.746126  4932 layer_factory.cpp:177] Layer inception_3c/3x3_reduce_bn is using CAFFE engine.
I0109 14:38:03.746132  4932 net.cpp:96] Creating Layer inception_3c/3x3_reduce_bn
I0109 14:38:03.746136  4932 net.cpp:459] inception_3c/3x3_reduce_bn <- inception_3c/3x3_reduce
I0109 14:38:03.746141  4932 net.cpp:415] inception_3c/3x3_reduce_bn -> inception_3c/3x3_reduce_bn
I0109 14:38:03.746146  4932 net.cpp:160] Setting up inception_3c/3x3_reduce_bn
I0109 14:38:03.746157  4932 net.cpp:167] Top shape: 72 128 28 28 (7225344)
I0109 14:38:03.746165  4932 layer_factory.hpp:74] Creating layer inception_3c/relu_3x3_reduce
I0109 14:38:03.746172  4932 net.cpp:96] Creating Layer inception_3c/relu_3x3_reduce
I0109 14:38:03.746176  4932 net.cpp:459] inception_3c/relu_3x3_reduce <- inception_3c/3x3_reduce_bn
I0109 14:38:03.746181  4932 net.cpp:404] inception_3c/relu_3x3_reduce -> inception_3c/3x3_reduce_bn (in-place)
I0109 14:38:03.746186  4932 net.cpp:160] Setting up inception_3c/relu_3x3_reduce
I0109 14:38:03.746189  4932 net.cpp:167] Top shape: 72 128 28 28 (7225344)
I0109 14:38:03.746193  4932 layer_factory.hpp:74] Creating layer inception_3c/3x3
I0109 14:38:03.746201  4932 net.cpp:96] Creating Layer inception_3c/3x3
I0109 14:38:03.746207  4932 net.cpp:459] inception_3c/3x3 <- inception_3c/3x3_reduce_bn
I0109 14:38:03.746212  4932 net.cpp:415] inception_3c/3x3 -> inception_3c/3x3
I0109 14:38:03.746217  4932 net.cpp:160] Setting up inception_3c/3x3
I0109 14:38:03.747007  4932 net.cpp:167] Top shape: 72 160 14 14 (2257920)
I0109 14:38:03.747014  4932 layer_factory.hpp:74] Creating layer inception_3c/3x3_bn
I0109 14:38:03.747017  4932 layer_factory.cpp:177] Layer inception_3c/3x3_bn is using CAFFE engine.
I0109 14:38:03.747022  4932 net.cpp:96] Creating Layer inception_3c/3x3_bn
I0109 14:38:03.747026  4932 net.cpp:459] inception_3c/3x3_bn <- inception_3c/3x3
I0109 14:38:03.747031  4932 net.cpp:415] inception_3c/3x3_bn -> inception_3c/3x3_bn
I0109 14:38:03.747036  4932 net.cpp:160] Setting up inception_3c/3x3_bn
I0109 14:38:03.747047  4932 net.cpp:167] Top shape: 72 160 14 14 (2257920)
I0109 14:38:03.747056  4932 layer_factory.hpp:74] Creating layer inception_3c/relu_3x3
I0109 14:38:03.747066  4932 net.cpp:96] Creating Layer inception_3c/relu_3x3
I0109 14:38:03.747068  4932 net.cpp:459] inception_3c/relu_3x3 <- inception_3c/3x3_bn
I0109 14:38:03.747073  4932 net.cpp:404] inception_3c/relu_3x3 -> inception_3c/3x3_bn (in-place)
I0109 14:38:03.747078  4932 net.cpp:160] Setting up inception_3c/relu_3x3
I0109 14:38:03.747082  4932 net.cpp:167] Top shape: 72 160 14 14 (2257920)
I0109 14:38:03.747086  4932 layer_factory.hpp:74] Creating layer inception_3c/double_3x3_reduce
I0109 14:38:03.747090  4932 net.cpp:96] Creating Layer inception_3c/double_3x3_reduce
I0109 14:38:03.747093  4932 net.cpp:459] inception_3c/double_3x3_reduce <- inception_3b/output_inception_3b/output_0_split_1
I0109 14:38:03.747098  4932 net.cpp:415] inception_3c/double_3x3_reduce -> inception_3c/double_3x3_reduce
I0109 14:38:03.747103  4932 net.cpp:160] Setting up inception_3c/double_3x3_reduce
I0109 14:38:03.747200  4932 net.cpp:167] Top shape: 72 64 28 28 (3612672)
I0109 14:38:03.747206  4932 layer_factory.hpp:74] Creating layer inception_3c/double_3x3_reduce_bn
I0109 14:38:03.747210  4932 layer_factory.cpp:177] Layer inception_3c/double_3x3_reduce_bn is using CAFFE engine.
I0109 14:38:03.747215  4932 net.cpp:96] Creating Layer inception_3c/double_3x3_reduce_bn
I0109 14:38:03.747218  4932 net.cpp:459] inception_3c/double_3x3_reduce_bn <- inception_3c/double_3x3_reduce
I0109 14:38:03.747223  4932 net.cpp:415] inception_3c/double_3x3_reduce_bn -> inception_3c/double_3x3_reduce_bn
I0109 14:38:03.747228  4932 net.cpp:160] Setting up inception_3c/double_3x3_reduce_bn
I0109 14:38:03.747239  4932 net.cpp:167] Top shape: 72 64 28 28 (3612672)
I0109 14:38:03.747246  4932 layer_factory.hpp:74] Creating layer inception_3c/relu_double_3x3_reduce
I0109 14:38:03.747251  4932 net.cpp:96] Creating Layer inception_3c/relu_double_3x3_reduce
I0109 14:38:03.747254  4932 net.cpp:459] inception_3c/relu_double_3x3_reduce <- inception_3c/double_3x3_reduce_bn
I0109 14:38:03.747258  4932 net.cpp:404] inception_3c/relu_double_3x3_reduce -> inception_3c/double_3x3_reduce_bn (in-place)
I0109 14:38:03.747262  4932 net.cpp:160] Setting up inception_3c/relu_double_3x3_reduce
I0109 14:38:03.747267  4932 net.cpp:167] Top shape: 72 64 28 28 (3612672)
I0109 14:38:03.747270  4932 layer_factory.hpp:74] Creating layer inception_3c/double_3x3_1
I0109 14:38:03.747275  4932 net.cpp:96] Creating Layer inception_3c/double_3x3_1
I0109 14:38:03.747278  4932 net.cpp:459] inception_3c/double_3x3_1 <- inception_3c/double_3x3_reduce_bn
I0109 14:38:03.747283  4932 net.cpp:415] inception_3c/double_3x3_1 -> inception_3c/double_3x3_1
I0109 14:38:03.747288  4932 net.cpp:160] Setting up inception_3c/double_3x3_1
I0109 14:38:03.747532  4932 net.cpp:167] Top shape: 72 96 28 28 (5419008)
I0109 14:38:03.747539  4932 layer_factory.hpp:74] Creating layer inception_3c/double_3x3_1_bn
I0109 14:38:03.747542  4932 layer_factory.cpp:177] Layer inception_3c/double_3x3_1_bn is using CAFFE engine.
I0109 14:38:03.747547  4932 net.cpp:96] Creating Layer inception_3c/double_3x3_1_bn
I0109 14:38:03.747550  4932 net.cpp:459] inception_3c/double_3x3_1_bn <- inception_3c/double_3x3_1
I0109 14:38:03.747555  4932 net.cpp:415] inception_3c/double_3x3_1_bn -> inception_3c/double_3x3_1_bn
I0109 14:38:03.747560  4932 net.cpp:160] Setting up inception_3c/double_3x3_1_bn
I0109 14:38:03.747570  4932 net.cpp:167] Top shape: 72 96 28 28 (5419008)
I0109 14:38:03.747576  4932 layer_factory.hpp:74] Creating layer inception_3c/relu_double_3x3_1
I0109 14:38:03.747581  4932 net.cpp:96] Creating Layer inception_3c/relu_double_3x3_1
I0109 14:38:03.747584  4932 net.cpp:459] inception_3c/relu_double_3x3_1 <- inception_3c/double_3x3_1_bn
I0109 14:38:03.747589  4932 net.cpp:404] inception_3c/relu_double_3x3_1 -> inception_3c/double_3x3_1_bn (in-place)
I0109 14:38:03.747593  4932 net.cpp:160] Setting up inception_3c/relu_double_3x3_1
I0109 14:38:03.747597  4932 net.cpp:167] Top shape: 72 96 28 28 (5419008)
I0109 14:38:03.747601  4932 layer_factory.hpp:74] Creating layer inception_3c/double_3x3_2
I0109 14:38:03.747611  4932 net.cpp:96] Creating Layer inception_3c/double_3x3_2
I0109 14:38:03.747615  4932 net.cpp:459] inception_3c/double_3x3_2 <- inception_3c/double_3x3_1_bn
I0109 14:38:03.747620  4932 net.cpp:415] inception_3c/double_3x3_2 -> inception_3c/double_3x3_2
I0109 14:38:03.747625  4932 net.cpp:160] Setting up inception_3c/double_3x3_2
I0109 14:38:03.748026  4932 net.cpp:167] Top shape: 72 96 14 14 (1354752)
I0109 14:38:03.748034  4932 layer_factory.hpp:74] Creating layer inception_3c/double_3x3_2_bn
I0109 14:38:03.748036  4932 layer_factory.cpp:177] Layer inception_3c/double_3x3_2_bn is using CAFFE engine.
I0109 14:38:03.748042  4932 net.cpp:96] Creating Layer inception_3c/double_3x3_2_bn
I0109 14:38:03.748046  4932 net.cpp:459] inception_3c/double_3x3_2_bn <- inception_3c/double_3x3_2
I0109 14:38:03.748052  4932 net.cpp:415] inception_3c/double_3x3_2_bn -> inception_3c/double_3x3_2_bn
I0109 14:38:03.748059  4932 net.cpp:160] Setting up inception_3c/double_3x3_2_bn
I0109 14:38:03.748070  4932 net.cpp:167] Top shape: 72 96 14 14 (1354752)
I0109 14:38:03.748083  4932 layer_factory.hpp:74] Creating layer inception_3c/relu_double_3x3_2
I0109 14:38:03.748088  4932 net.cpp:96] Creating Layer inception_3c/relu_double_3x3_2
I0109 14:38:03.748091  4932 net.cpp:459] inception_3c/relu_double_3x3_2 <- inception_3c/double_3x3_2_bn
I0109 14:38:03.748095  4932 net.cpp:404] inception_3c/relu_double_3x3_2 -> inception_3c/double_3x3_2_bn (in-place)
I0109 14:38:03.748100  4932 net.cpp:160] Setting up inception_3c/relu_double_3x3_2
I0109 14:38:03.748105  4932 net.cpp:167] Top shape: 72 96 14 14 (1354752)
I0109 14:38:03.748111  4932 layer_factory.hpp:74] Creating layer inception_3c/pool
I0109 14:38:03.748117  4932 net.cpp:96] Creating Layer inception_3c/pool
I0109 14:38:03.748121  4932 net.cpp:459] inception_3c/pool <- inception_3b/output_inception_3b/output_0_split_2
I0109 14:38:03.748126  4932 net.cpp:415] inception_3c/pool -> inception_3c/pool
I0109 14:38:03.748134  4932 net.cpp:160] Setting up inception_3c/pool
I0109 14:38:03.748142  4932 net.cpp:167] Top shape: 72 320 14 14 (4515840)
I0109 14:38:03.748144  4932 layer_factory.hpp:74] Creating layer inception_3c/output
I0109 14:38:03.748150  4932 net.cpp:96] Creating Layer inception_3c/output
I0109 14:38:03.748153  4932 net.cpp:459] inception_3c/output <- inception_3c/3x3_bn
I0109 14:38:03.748157  4932 net.cpp:459] inception_3c/output <- inception_3c/double_3x3_2_bn
I0109 14:38:03.748162  4932 net.cpp:459] inception_3c/output <- inception_3c/pool
I0109 14:38:03.748165  4932 net.cpp:415] inception_3c/output -> inception_3c/output
I0109 14:38:03.748170  4932 net.cpp:160] Setting up inception_3c/output
I0109 14:38:03.748175  4932 net.cpp:167] Top shape: 72 576 14 14 (8128512)
I0109 14:38:03.748178  4932 layer_factory.hpp:74] Creating layer inception_3c/output_inception_3c/output_0_split
I0109 14:38:03.748183  4932 net.cpp:96] Creating Layer inception_3c/output_inception_3c/output_0_split
I0109 14:38:03.748186  4932 net.cpp:459] inception_3c/output_inception_3c/output_0_split <- inception_3c/output
I0109 14:38:03.748190  4932 net.cpp:415] inception_3c/output_inception_3c/output_0_split -> inception_3c/output_inception_3c/output_0_split_0
I0109 14:38:03.748195  4932 net.cpp:415] inception_3c/output_inception_3c/output_0_split -> inception_3c/output_inception_3c/output_0_split_1
I0109 14:38:03.748201  4932 net.cpp:415] inception_3c/output_inception_3c/output_0_split -> inception_3c/output_inception_3c/output_0_split_2
I0109 14:38:03.748208  4932 net.cpp:415] inception_3c/output_inception_3c/output_0_split -> inception_3c/output_inception_3c/output_0_split_3
I0109 14:38:03.748211  4932 net.cpp:160] Setting up inception_3c/output_inception_3c/output_0_split
I0109 14:38:03.748216  4932 net.cpp:167] Top shape: 72 576 14 14 (8128512)
I0109 14:38:03.748220  4932 net.cpp:167] Top shape: 72 576 14 14 (8128512)
I0109 14:38:03.748224  4932 net.cpp:167] Top shape: 72 576 14 14 (8128512)
I0109 14:38:03.748229  4932 net.cpp:167] Top shape: 72 576 14 14 (8128512)
I0109 14:38:03.748234  4932 layer_factory.hpp:74] Creating layer inception_4a/1x1
I0109 14:38:03.748245  4932 net.cpp:96] Creating Layer inception_4a/1x1
I0109 14:38:03.748248  4932 net.cpp:459] inception_4a/1x1 <- inception_3c/output_inception_3c/output_0_split_0
I0109 14:38:03.748252  4932 net.cpp:415] inception_4a/1x1 -> inception_4a/1x1
I0109 14:38:03.748257  4932 net.cpp:160] Setting up inception_4a/1x1
I0109 14:38:03.748893  4932 net.cpp:167] Top shape: 72 224 14 14 (3161088)
I0109 14:38:03.748901  4932 layer_factory.hpp:74] Creating layer inception_4a/1x1_bn
I0109 14:38:03.748904  4932 layer_factory.cpp:177] Layer inception_4a/1x1_bn is using CAFFE engine.
I0109 14:38:03.748909  4932 net.cpp:96] Creating Layer inception_4a/1x1_bn
I0109 14:38:03.748914  4932 net.cpp:459] inception_4a/1x1_bn <- inception_4a/1x1
I0109 14:38:03.748919  4932 net.cpp:415] inception_4a/1x1_bn -> inception_4a/1x1_bn
I0109 14:38:03.748924  4932 net.cpp:160] Setting up inception_4a/1x1_bn
I0109 14:38:03.748936  4932 net.cpp:167] Top shape: 72 224 14 14 (3161088)
I0109 14:38:03.748944  4932 layer_factory.hpp:74] Creating layer inception_4a/relu_1x1
I0109 14:38:03.748949  4932 net.cpp:96] Creating Layer inception_4a/relu_1x1
I0109 14:38:03.748951  4932 net.cpp:459] inception_4a/relu_1x1 <- inception_4a/1x1_bn
I0109 14:38:03.748955  4932 net.cpp:404] inception_4a/relu_1x1 -> inception_4a/1x1_bn (in-place)
I0109 14:38:03.748960  4932 net.cpp:160] Setting up inception_4a/relu_1x1
I0109 14:38:03.748965  4932 net.cpp:167] Top shape: 72 224 14 14 (3161088)
I0109 14:38:03.748967  4932 layer_factory.hpp:74] Creating layer inception_4a/3x3_reduce
I0109 14:38:03.748973  4932 net.cpp:96] Creating Layer inception_4a/3x3_reduce
I0109 14:38:03.748977  4932 net.cpp:459] inception_4a/3x3_reduce <- inception_3c/output_inception_3c/output_0_split_1
I0109 14:38:03.748981  4932 net.cpp:415] inception_4a/3x3_reduce -> inception_4a/3x3_reduce
I0109 14:38:03.748986  4932 net.cpp:160] Setting up inception_4a/3x3_reduce
I0109 14:38:03.749173  4932 net.cpp:167] Top shape: 72 64 14 14 (903168)
I0109 14:38:03.749181  4932 layer_factory.hpp:74] Creating layer inception_4a/3x3_reduce_bn
I0109 14:38:03.749183  4932 layer_factory.cpp:177] Layer inception_4a/3x3_reduce_bn is using CAFFE engine.
I0109 14:38:03.749189  4932 net.cpp:96] Creating Layer inception_4a/3x3_reduce_bn
I0109 14:38:03.749193  4932 net.cpp:459] inception_4a/3x3_reduce_bn <- inception_4a/3x3_reduce
I0109 14:38:03.749197  4932 net.cpp:415] inception_4a/3x3_reduce_bn -> inception_4a/3x3_reduce_bn
I0109 14:38:03.749202  4932 net.cpp:160] Setting up inception_4a/3x3_reduce_bn
I0109 14:38:03.749213  4932 net.cpp:167] Top shape: 72 64 14 14 (903168)
I0109 14:38:03.749219  4932 layer_factory.hpp:74] Creating layer inception_4a/relu_3x3_reduce
I0109 14:38:03.749224  4932 net.cpp:96] Creating Layer inception_4a/relu_3x3_reduce
I0109 14:38:03.749228  4932 net.cpp:459] inception_4a/relu_3x3_reduce <- inception_4a/3x3_reduce_bn
I0109 14:38:03.749233  4932 net.cpp:404] inception_4a/relu_3x3_reduce -> inception_4a/3x3_reduce_bn (in-place)
I0109 14:38:03.749236  4932 net.cpp:160] Setting up inception_4a/relu_3x3_reduce
I0109 14:38:03.749240  4932 net.cpp:167] Top shape: 72 64 14 14 (903168)
I0109 14:38:03.749243  4932 layer_factory.hpp:74] Creating layer inception_4a/3x3
I0109 14:38:03.749249  4932 net.cpp:96] Creating Layer inception_4a/3x3
I0109 14:38:03.749253  4932 net.cpp:459] inception_4a/3x3 <- inception_4a/3x3_reduce_bn
I0109 14:38:03.749258  4932 net.cpp:415] inception_4a/3x3 -> inception_4a/3x3
I0109 14:38:03.749263  4932 net.cpp:160] Setting up inception_4a/3x3
I0109 14:38:03.749541  4932 net.cpp:167] Top shape: 72 96 14 14 (1354752)
I0109 14:38:03.749547  4932 layer_factory.hpp:74] Creating layer inception_4a/3x3_bn
I0109 14:38:03.749550  4932 layer_factory.cpp:177] Layer inception_4a/3x3_bn is using CAFFE engine.
I0109 14:38:03.749555  4932 net.cpp:96] Creating Layer inception_4a/3x3_bn
I0109 14:38:03.749558  4932 net.cpp:459] inception_4a/3x3_bn <- inception_4a/3x3
I0109 14:38:03.749564  4932 net.cpp:415] inception_4a/3x3_bn -> inception_4a/3x3_bn
I0109 14:38:03.749575  4932 net.cpp:160] Setting up inception_4a/3x3_bn
I0109 14:38:03.749588  4932 net.cpp:167] Top shape: 72 96 14 14 (1354752)
I0109 14:38:03.749593  4932 layer_factory.hpp:74] Creating layer inception_4a/relu_3x3
I0109 14:38:03.749598  4932 net.cpp:96] Creating Layer inception_4a/relu_3x3
I0109 14:38:03.749601  4932 net.cpp:459] inception_4a/relu_3x3 <- inception_4a/3x3_bn
I0109 14:38:03.749605  4932 net.cpp:404] inception_4a/relu_3x3 -> inception_4a/3x3_bn (in-place)
I0109 14:38:03.749610  4932 net.cpp:160] Setting up inception_4a/relu_3x3
I0109 14:38:03.749614  4932 net.cpp:167] Top shape: 72 96 14 14 (1354752)
I0109 14:38:03.749617  4932 layer_factory.hpp:74] Creating layer inception_4a/double_3x3_reduce
I0109 14:38:03.749625  4932 net.cpp:96] Creating Layer inception_4a/double_3x3_reduce
I0109 14:38:03.749631  4932 net.cpp:459] inception_4a/double_3x3_reduce <- inception_3c/output_inception_3c/output_0_split_2
I0109 14:38:03.749639  4932 net.cpp:415] inception_4a/double_3x3_reduce -> inception_4a/double_3x3_reduce
I0109 14:38:03.749644  4932 net.cpp:160] Setting up inception_4a/double_3x3_reduce
I0109 14:38:03.749928  4932 net.cpp:167] Top shape: 72 96 14 14 (1354752)
I0109 14:38:03.749936  4932 layer_factory.hpp:74] Creating layer inception_4a/double_3x3_reduce_bn
I0109 14:38:03.749939  4932 layer_factory.cpp:177] Layer inception_4a/double_3x3_reduce_bn is using CAFFE engine.
I0109 14:38:03.749945  4932 net.cpp:96] Creating Layer inception_4a/double_3x3_reduce_bn
I0109 14:38:03.749949  4932 net.cpp:459] inception_4a/double_3x3_reduce_bn <- inception_4a/double_3x3_reduce
I0109 14:38:03.749954  4932 net.cpp:415] inception_4a/double_3x3_reduce_bn -> inception_4a/double_3x3_reduce_bn
I0109 14:38:03.749960  4932 net.cpp:160] Setting up inception_4a/double_3x3_reduce_bn
I0109 14:38:03.749972  4932 net.cpp:167] Top shape: 72 96 14 14 (1354752)
I0109 14:38:03.749979  4932 layer_factory.hpp:74] Creating layer inception_4a/relu_double_3x3_reduce
I0109 14:38:03.749984  4932 net.cpp:96] Creating Layer inception_4a/relu_double_3x3_reduce
I0109 14:38:03.749987  4932 net.cpp:459] inception_4a/relu_double_3x3_reduce <- inception_4a/double_3x3_reduce_bn
I0109 14:38:03.749991  4932 net.cpp:404] inception_4a/relu_double_3x3_reduce -> inception_4a/double_3x3_reduce_bn (in-place)
I0109 14:38:03.749995  4932 net.cpp:160] Setting up inception_4a/relu_double_3x3_reduce
I0109 14:38:03.750000  4932 net.cpp:167] Top shape: 72 96 14 14 (1354752)
I0109 14:38:03.750002  4932 layer_factory.hpp:74] Creating layer inception_4a/double_3x3_1
I0109 14:38:03.750008  4932 net.cpp:96] Creating Layer inception_4a/double_3x3_1
I0109 14:38:03.750011  4932 net.cpp:459] inception_4a/double_3x3_1 <- inception_4a/double_3x3_reduce_bn
I0109 14:38:03.750016  4932 net.cpp:415] inception_4a/double_3x3_1 -> inception_4a/double_3x3_1
I0109 14:38:03.750021  4932 net.cpp:160] Setting up inception_4a/double_3x3_1
I0109 14:38:03.750567  4932 net.cpp:167] Top shape: 72 128 14 14 (1806336)
I0109 14:38:03.750574  4932 layer_factory.hpp:74] Creating layer inception_4a/double_3x3_1_bn
I0109 14:38:03.750577  4932 layer_factory.cpp:177] Layer inception_4a/double_3x3_1_bn is using CAFFE engine.
I0109 14:38:03.750583  4932 net.cpp:96] Creating Layer inception_4a/double_3x3_1_bn
I0109 14:38:03.750586  4932 net.cpp:459] inception_4a/double_3x3_1_bn <- inception_4a/double_3x3_1
I0109 14:38:03.750591  4932 net.cpp:415] inception_4a/double_3x3_1_bn -> inception_4a/double_3x3_1_bn
I0109 14:38:03.750597  4932 net.cpp:160] Setting up inception_4a/double_3x3_1_bn
I0109 14:38:03.750608  4932 net.cpp:167] Top shape: 72 128 14 14 (1806336)
I0109 14:38:03.750615  4932 layer_factory.hpp:74] Creating layer inception_4a/relu_double_3x3_1
I0109 14:38:03.750619  4932 net.cpp:96] Creating Layer inception_4a/relu_double_3x3_1
I0109 14:38:03.750623  4932 net.cpp:459] inception_4a/relu_double_3x3_1 <- inception_4a/double_3x3_1_bn
I0109 14:38:03.750627  4932 net.cpp:404] inception_4a/relu_double_3x3_1 -> inception_4a/double_3x3_1_bn (in-place)
I0109 14:38:03.750633  4932 net.cpp:160] Setting up inception_4a/relu_double_3x3_1
I0109 14:38:03.750641  4932 net.cpp:167] Top shape: 72 128 14 14 (1806336)
I0109 14:38:03.750644  4932 layer_factory.hpp:74] Creating layer inception_4a/double_3x3_2
I0109 14:38:03.750649  4932 net.cpp:96] Creating Layer inception_4a/double_3x3_2
I0109 14:38:03.750653  4932 net.cpp:459] inception_4a/double_3x3_2 <- inception_4a/double_3x3_1_bn
I0109 14:38:03.750658  4932 net.cpp:415] inception_4a/double_3x3_2 -> inception_4a/double_3x3_2
I0109 14:38:03.750663  4932 net.cpp:160] Setting up inception_4a/double_3x3_2
I0109 14:38:03.751381  4932 net.cpp:167] Top shape: 72 128 14 14 (1806336)
I0109 14:38:03.751387  4932 layer_factory.hpp:74] Creating layer inception_4a/double_3x3_2_bn
I0109 14:38:03.751391  4932 layer_factory.cpp:177] Layer inception_4a/double_3x3_2_bn is using CAFFE engine.
I0109 14:38:03.751396  4932 net.cpp:96] Creating Layer inception_4a/double_3x3_2_bn
I0109 14:38:03.751400  4932 net.cpp:459] inception_4a/double_3x3_2_bn <- inception_4a/double_3x3_2
I0109 14:38:03.751405  4932 net.cpp:415] inception_4a/double_3x3_2_bn -> inception_4a/double_3x3_2_bn
I0109 14:38:03.751410  4932 net.cpp:160] Setting up inception_4a/double_3x3_2_bn
I0109 14:38:03.751421  4932 net.cpp:167] Top shape: 72 128 14 14 (1806336)
I0109 14:38:03.751428  4932 layer_factory.hpp:74] Creating layer inception_4a/relu_double_3x3_2
I0109 14:38:03.751433  4932 net.cpp:96] Creating Layer inception_4a/relu_double_3x3_2
I0109 14:38:03.751436  4932 net.cpp:459] inception_4a/relu_double_3x3_2 <- inception_4a/double_3x3_2_bn
I0109 14:38:03.751441  4932 net.cpp:404] inception_4a/relu_double_3x3_2 -> inception_4a/double_3x3_2_bn (in-place)
I0109 14:38:03.751444  4932 net.cpp:160] Setting up inception_4a/relu_double_3x3_2
I0109 14:38:03.751448  4932 net.cpp:167] Top shape: 72 128 14 14 (1806336)
I0109 14:38:03.751451  4932 layer_factory.hpp:74] Creating layer inception_4a/pool
I0109 14:38:03.751456  4932 net.cpp:96] Creating Layer inception_4a/pool
I0109 14:38:03.751461  4932 net.cpp:459] inception_4a/pool <- inception_3c/output_inception_3c/output_0_split_3
I0109 14:38:03.751466  4932 net.cpp:415] inception_4a/pool -> inception_4a/pool
I0109 14:38:03.751469  4932 net.cpp:160] Setting up inception_4a/pool
I0109 14:38:03.751474  4932 net.cpp:167] Top shape: 72 576 14 14 (8128512)
I0109 14:38:03.751478  4932 layer_factory.hpp:74] Creating layer inception_4a/pool_proj
I0109 14:38:03.751483  4932 net.cpp:96] Creating Layer inception_4a/pool_proj
I0109 14:38:03.751487  4932 net.cpp:459] inception_4a/pool_proj <- inception_4a/pool
I0109 14:38:03.751492  4932 net.cpp:415] inception_4a/pool_proj -> inception_4a/pool_proj
I0109 14:38:03.751497  4932 net.cpp:160] Setting up inception_4a/pool_proj
I0109 14:38:03.751857  4932 net.cpp:167] Top shape: 72 128 14 14 (1806336)
I0109 14:38:03.751863  4932 layer_factory.hpp:74] Creating layer inception_4a/pool_proj_bn
I0109 14:38:03.751866  4932 layer_factory.cpp:177] Layer inception_4a/pool_proj_bn is using CAFFE engine.
I0109 14:38:03.751873  4932 net.cpp:96] Creating Layer inception_4a/pool_proj_bn
I0109 14:38:03.751875  4932 net.cpp:459] inception_4a/pool_proj_bn <- inception_4a/pool_proj
I0109 14:38:03.751881  4932 net.cpp:415] inception_4a/pool_proj_bn -> inception_4a/pool_proj_bn
I0109 14:38:03.751886  4932 net.cpp:160] Setting up inception_4a/pool_proj_bn
I0109 14:38:03.751898  4932 net.cpp:167] Top shape: 72 128 14 14 (1806336)
I0109 14:38:03.751904  4932 layer_factory.hpp:74] Creating layer inception_4a/relu_pool_proj
I0109 14:38:03.751909  4932 net.cpp:96] Creating Layer inception_4a/relu_pool_proj
I0109 14:38:03.751911  4932 net.cpp:459] inception_4a/relu_pool_proj <- inception_4a/pool_proj_bn
I0109 14:38:03.751915  4932 net.cpp:404] inception_4a/relu_pool_proj -> inception_4a/pool_proj_bn (in-place)
I0109 14:38:03.751920  4932 net.cpp:160] Setting up inception_4a/relu_pool_proj
I0109 14:38:03.751924  4932 net.cpp:167] Top shape: 72 128 14 14 (1806336)
I0109 14:38:03.751927  4932 layer_factory.hpp:74] Creating layer inception_4a/output
I0109 14:38:03.751935  4932 net.cpp:96] Creating Layer inception_4a/output
I0109 14:38:03.751940  4932 net.cpp:459] inception_4a/output <- inception_4a/1x1_bn
I0109 14:38:03.751945  4932 net.cpp:459] inception_4a/output <- inception_4a/3x3_bn
I0109 14:38:03.751948  4932 net.cpp:459] inception_4a/output <- inception_4a/double_3x3_2_bn
I0109 14:38:03.751951  4932 net.cpp:459] inception_4a/output <- inception_4a/pool_proj_bn
I0109 14:38:03.751956  4932 net.cpp:415] inception_4a/output -> inception_4a/output
I0109 14:38:03.751961  4932 net.cpp:160] Setting up inception_4a/output
I0109 14:38:03.751966  4932 net.cpp:167] Top shape: 72 576 14 14 (8128512)
I0109 14:38:03.751971  4932 layer_factory.hpp:74] Creating layer inception_4a/output_inception_4a/output_0_split
I0109 14:38:03.751974  4932 net.cpp:96] Creating Layer inception_4a/output_inception_4a/output_0_split
I0109 14:38:03.751977  4932 net.cpp:459] inception_4a/output_inception_4a/output_0_split <- inception_4a/output
I0109 14:38:03.751982  4932 net.cpp:415] inception_4a/output_inception_4a/output_0_split -> inception_4a/output_inception_4a/output_0_split_0
I0109 14:38:03.751987  4932 net.cpp:415] inception_4a/output_inception_4a/output_0_split -> inception_4a/output_inception_4a/output_0_split_1
I0109 14:38:03.751993  4932 net.cpp:415] inception_4a/output_inception_4a/output_0_split -> inception_4a/output_inception_4a/output_0_split_2
I0109 14:38:03.751998  4932 net.cpp:415] inception_4a/output_inception_4a/output_0_split -> inception_4a/output_inception_4a/output_0_split_3
I0109 14:38:03.752002  4932 net.cpp:160] Setting up inception_4a/output_inception_4a/output_0_split
I0109 14:38:03.752007  4932 net.cpp:167] Top shape: 72 576 14 14 (8128512)
I0109 14:38:03.752012  4932 net.cpp:167] Top shape: 72 576 14 14 (8128512)
I0109 14:38:03.752015  4932 net.cpp:167] Top shape: 72 576 14 14 (8128512)
I0109 14:38:03.752018  4932 net.cpp:167] Top shape: 72 576 14 14 (8128512)
I0109 14:38:03.752022  4932 layer_factory.hpp:74] Creating layer inception_4b/1x1
I0109 14:38:03.752028  4932 net.cpp:96] Creating Layer inception_4b/1x1
I0109 14:38:03.752032  4932 net.cpp:459] inception_4b/1x1 <- inception_4a/output_inception_4a/output_0_split_0
I0109 14:38:03.752037  4932 net.cpp:415] inception_4b/1x1 -> inception_4b/1x1
I0109 14:38:03.752041  4932 net.cpp:160] Setting up inception_4b/1x1
I0109 14:38:03.752585  4932 net.cpp:167] Top shape: 72 192 14 14 (2709504)
I0109 14:38:03.752593  4932 layer_factory.hpp:74] Creating layer inception_4b/1x1_bn
I0109 14:38:03.752596  4932 layer_factory.cpp:177] Layer inception_4b/1x1_bn is using CAFFE engine.
I0109 14:38:03.752601  4932 net.cpp:96] Creating Layer inception_4b/1x1_bn
I0109 14:38:03.752605  4932 net.cpp:459] inception_4b/1x1_bn <- inception_4b/1x1
I0109 14:38:03.752610  4932 net.cpp:415] inception_4b/1x1_bn -> inception_4b/1x1_bn
I0109 14:38:03.752616  4932 net.cpp:160] Setting up inception_4b/1x1_bn
I0109 14:38:03.752629  4932 net.cpp:167] Top shape: 72 192 14 14 (2709504)
I0109 14:38:03.752635  4932 layer_factory.hpp:74] Creating layer inception_4b/relu_1x1
I0109 14:38:03.752640  4932 net.cpp:96] Creating Layer inception_4b/relu_1x1
I0109 14:38:03.752642  4932 net.cpp:459] inception_4b/relu_1x1 <- inception_4b/1x1_bn
I0109 14:38:03.752647  4932 net.cpp:404] inception_4b/relu_1x1 -> inception_4b/1x1_bn (in-place)
I0109 14:38:03.752652  4932 net.cpp:160] Setting up inception_4b/relu_1x1
I0109 14:38:03.752656  4932 net.cpp:167] Top shape: 72 192 14 14 (2709504)
I0109 14:38:03.752660  4932 layer_factory.hpp:74] Creating layer inception_4b/3x3_reduce
I0109 14:38:03.752665  4932 net.cpp:96] Creating Layer inception_4b/3x3_reduce
I0109 14:38:03.752667  4932 net.cpp:459] inception_4b/3x3_reduce <- inception_4a/output_inception_4a/output_0_split_1
I0109 14:38:03.752673  4932 net.cpp:415] inception_4b/3x3_reduce -> inception_4b/3x3_reduce
I0109 14:38:03.752678  4932 net.cpp:160] Setting up inception_4b/3x3_reduce
I0109 14:38:03.752954  4932 net.cpp:167] Top shape: 72 96 14 14 (1354752)
I0109 14:38:03.752961  4932 layer_factory.hpp:74] Creating layer inception_4b/3x3_reduce_bn
I0109 14:38:03.752971  4932 layer_factory.cpp:177] Layer inception_4b/3x3_reduce_bn is using CAFFE engine.
I0109 14:38:03.752977  4932 net.cpp:96] Creating Layer inception_4b/3x3_reduce_bn
I0109 14:38:03.752981  4932 net.cpp:459] inception_4b/3x3_reduce_bn <- inception_4b/3x3_reduce
I0109 14:38:03.752985  4932 net.cpp:415] inception_4b/3x3_reduce_bn -> inception_4b/3x3_reduce_bn
I0109 14:38:03.752991  4932 net.cpp:160] Setting up inception_4b/3x3_reduce_bn
I0109 14:38:03.753002  4932 net.cpp:167] Top shape: 72 96 14 14 (1354752)
I0109 14:38:03.753008  4932 layer_factory.hpp:74] Creating layer inception_4b/relu_3x3_reduce
I0109 14:38:03.753013  4932 net.cpp:96] Creating Layer inception_4b/relu_3x3_reduce
I0109 14:38:03.753016  4932 net.cpp:459] inception_4b/relu_3x3_reduce <- inception_4b/3x3_reduce_bn
I0109 14:38:03.753021  4932 net.cpp:404] inception_4b/relu_3x3_reduce -> inception_4b/3x3_reduce_bn (in-place)
I0109 14:38:03.753026  4932 net.cpp:160] Setting up inception_4b/relu_3x3_reduce
I0109 14:38:03.753031  4932 net.cpp:167] Top shape: 72 96 14 14 (1354752)
I0109 14:38:03.753033  4932 layer_factory.hpp:74] Creating layer inception_4b/3x3
I0109 14:38:03.753038  4932 net.cpp:96] Creating Layer inception_4b/3x3
I0109 14:38:03.753042  4932 net.cpp:459] inception_4b/3x3 <- inception_4b/3x3_reduce_bn
I0109 14:38:03.753047  4932 net.cpp:415] inception_4b/3x3 -> inception_4b/3x3
I0109 14:38:03.753053  4932 net.cpp:160] Setting up inception_4b/3x3
I0109 14:38:03.753597  4932 net.cpp:167] Top shape: 72 128 14 14 (1806336)
I0109 14:38:03.753604  4932 layer_factory.hpp:74] Creating layer inception_4b/3x3_bn
I0109 14:38:03.753607  4932 layer_factory.cpp:177] Layer inception_4b/3x3_bn is using CAFFE engine.
I0109 14:38:03.753612  4932 net.cpp:96] Creating Layer inception_4b/3x3_bn
I0109 14:38:03.753615  4932 net.cpp:459] inception_4b/3x3_bn <- inception_4b/3x3
I0109 14:38:03.753621  4932 net.cpp:415] inception_4b/3x3_bn -> inception_4b/3x3_bn
I0109 14:38:03.753626  4932 net.cpp:160] Setting up inception_4b/3x3_bn
I0109 14:38:03.753638  4932 net.cpp:167] Top shape: 72 128 14 14 (1806336)
I0109 14:38:03.753644  4932 layer_factory.hpp:74] Creating layer inception_4b/relu_3x3
I0109 14:38:03.753649  4932 net.cpp:96] Creating Layer inception_4b/relu_3x3
I0109 14:38:03.753653  4932 net.cpp:459] inception_4b/relu_3x3 <- inception_4b/3x3_bn
I0109 14:38:03.753659  4932 net.cpp:404] inception_4b/relu_3x3 -> inception_4b/3x3_bn (in-place)
I0109 14:38:03.753662  4932 net.cpp:160] Setting up inception_4b/relu_3x3
I0109 14:38:03.753666  4932 net.cpp:167] Top shape: 72 128 14 14 (1806336)
I0109 14:38:03.753669  4932 layer_factory.hpp:74] Creating layer inception_4b/double_3x3_reduce
I0109 14:38:03.753674  4932 net.cpp:96] Creating Layer inception_4b/double_3x3_reduce
I0109 14:38:03.753679  4932 net.cpp:459] inception_4b/double_3x3_reduce <- inception_4a/output_inception_4a/output_0_split_2
I0109 14:38:03.753684  4932 net.cpp:415] inception_4b/double_3x3_reduce -> inception_4b/double_3x3_reduce
I0109 14:38:03.753689  4932 net.cpp:160] Setting up inception_4b/double_3x3_reduce
I0109 14:38:03.753962  4932 net.cpp:167] Top shape: 72 96 14 14 (1354752)
I0109 14:38:03.753970  4932 layer_factory.hpp:74] Creating layer inception_4b/double_3x3_reduce_bn
I0109 14:38:03.753974  4932 layer_factory.cpp:177] Layer inception_4b/double_3x3_reduce_bn is using CAFFE engine.
I0109 14:38:03.753978  4932 net.cpp:96] Creating Layer inception_4b/double_3x3_reduce_bn
I0109 14:38:03.753983  4932 net.cpp:459] inception_4b/double_3x3_reduce_bn <- inception_4b/double_3x3_reduce
I0109 14:38:03.753988  4932 net.cpp:415] inception_4b/double_3x3_reduce_bn -> inception_4b/double_3x3_reduce_bn
I0109 14:38:03.753993  4932 net.cpp:160] Setting up inception_4b/double_3x3_reduce_bn
I0109 14:38:03.754004  4932 net.cpp:167] Top shape: 72 96 14 14 (1354752)
I0109 14:38:03.754010  4932 layer_factory.hpp:74] Creating layer inception_4b/relu_double_3x3_reduce
I0109 14:38:03.754016  4932 net.cpp:96] Creating Layer inception_4b/relu_double_3x3_reduce
I0109 14:38:03.754021  4932 net.cpp:459] inception_4b/relu_double_3x3_reduce <- inception_4b/double_3x3_reduce_bn
I0109 14:38:03.754029  4932 net.cpp:404] inception_4b/relu_double_3x3_reduce -> inception_4b/double_3x3_reduce_bn (in-place)
I0109 14:38:03.754034  4932 net.cpp:160] Setting up inception_4b/relu_double_3x3_reduce
I0109 14:38:03.754039  4932 net.cpp:167] Top shape: 72 96 14 14 (1354752)
I0109 14:38:03.754042  4932 layer_factory.hpp:74] Creating layer inception_4b/double_3x3_1
I0109 14:38:03.754047  4932 net.cpp:96] Creating Layer inception_4b/double_3x3_1
I0109 14:38:03.754050  4932 net.cpp:459] inception_4b/double_3x3_1 <- inception_4b/double_3x3_reduce_bn
I0109 14:38:03.754055  4932 net.cpp:415] inception_4b/double_3x3_1 -> inception_4b/double_3x3_1
I0109 14:38:03.754060  4932 net.cpp:160] Setting up inception_4b/double_3x3_1
I0109 14:38:03.754600  4932 net.cpp:167] Top shape: 72 128 14 14 (1806336)
I0109 14:38:03.754606  4932 layer_factory.hpp:74] Creating layer inception_4b/double_3x3_1_bn
I0109 14:38:03.754609  4932 layer_factory.cpp:177] Layer inception_4b/double_3x3_1_bn is using CAFFE engine.
I0109 14:38:03.754616  4932 net.cpp:96] Creating Layer inception_4b/double_3x3_1_bn
I0109 14:38:03.754621  4932 net.cpp:459] inception_4b/double_3x3_1_bn <- inception_4b/double_3x3_1
I0109 14:38:03.754631  4932 net.cpp:415] inception_4b/double_3x3_1_bn -> inception_4b/double_3x3_1_bn
I0109 14:38:03.754637  4932 net.cpp:160] Setting up inception_4b/double_3x3_1_bn
I0109 14:38:03.754650  4932 net.cpp:167] Top shape: 72 128 14 14 (1806336)
I0109 14:38:03.754657  4932 layer_factory.hpp:74] Creating layer inception_4b/relu_double_3x3_1
I0109 14:38:03.754662  4932 net.cpp:96] Creating Layer inception_4b/relu_double_3x3_1
I0109 14:38:03.754664  4932 net.cpp:459] inception_4b/relu_double_3x3_1 <- inception_4b/double_3x3_1_bn
I0109 14:38:03.754668  4932 net.cpp:404] inception_4b/relu_double_3x3_1 -> inception_4b/double_3x3_1_bn (in-place)
I0109 14:38:03.754673  4932 net.cpp:160] Setting up inception_4b/relu_double_3x3_1
I0109 14:38:03.754676  4932 net.cpp:167] Top shape: 72 128 14 14 (1806336)
I0109 14:38:03.754679  4932 layer_factory.hpp:74] Creating layer inception_4b/double_3x3_2
I0109 14:38:03.754686  4932 net.cpp:96] Creating Layer inception_4b/double_3x3_2
I0109 14:38:03.754689  4932 net.cpp:459] inception_4b/double_3x3_2 <- inception_4b/double_3x3_1_bn
I0109 14:38:03.754694  4932 net.cpp:415] inception_4b/double_3x3_2 -> inception_4b/double_3x3_2
I0109 14:38:03.754699  4932 net.cpp:160] Setting up inception_4b/double_3x3_2
I0109 14:38:03.755411  4932 net.cpp:167] Top shape: 72 128 14 14 (1806336)
I0109 14:38:03.755417  4932 layer_factory.hpp:74] Creating layer inception_4b/double_3x3_2_bn
I0109 14:38:03.755421  4932 layer_factory.cpp:177] Layer inception_4b/double_3x3_2_bn is using CAFFE engine.
I0109 14:38:03.755426  4932 net.cpp:96] Creating Layer inception_4b/double_3x3_2_bn
I0109 14:38:03.755430  4932 net.cpp:459] inception_4b/double_3x3_2_bn <- inception_4b/double_3x3_2
I0109 14:38:03.755435  4932 net.cpp:415] inception_4b/double_3x3_2_bn -> inception_4b/double_3x3_2_bn
I0109 14:38:03.755440  4932 net.cpp:160] Setting up inception_4b/double_3x3_2_bn
I0109 14:38:03.755451  4932 net.cpp:167] Top shape: 72 128 14 14 (1806336)
I0109 14:38:03.755460  4932 layer_factory.hpp:74] Creating layer inception_4b/relu_double_3x3_2
I0109 14:38:03.755463  4932 net.cpp:96] Creating Layer inception_4b/relu_double_3x3_2
I0109 14:38:03.755467  4932 net.cpp:459] inception_4b/relu_double_3x3_2 <- inception_4b/double_3x3_2_bn
I0109 14:38:03.755471  4932 net.cpp:404] inception_4b/relu_double_3x3_2 -> inception_4b/double_3x3_2_bn (in-place)
I0109 14:38:03.755476  4932 net.cpp:160] Setting up inception_4b/relu_double_3x3_2
I0109 14:38:03.755480  4932 net.cpp:167] Top shape: 72 128 14 14 (1806336)
I0109 14:38:03.755483  4932 layer_factory.hpp:74] Creating layer inception_4b/pool
I0109 14:38:03.755487  4932 net.cpp:96] Creating Layer inception_4b/pool
I0109 14:38:03.755491  4932 net.cpp:459] inception_4b/pool <- inception_4a/output_inception_4a/output_0_split_3
I0109 14:38:03.755501  4932 net.cpp:415] inception_4b/pool -> inception_4b/pool
I0109 14:38:03.755506  4932 net.cpp:160] Setting up inception_4b/pool
I0109 14:38:03.755511  4932 net.cpp:167] Top shape: 72 576 14 14 (8128512)
I0109 14:38:03.755515  4932 layer_factory.hpp:74] Creating layer inception_4b/pool_proj
I0109 14:38:03.755522  4932 net.cpp:96] Creating Layer inception_4b/pool_proj
I0109 14:38:03.755525  4932 net.cpp:459] inception_4b/pool_proj <- inception_4b/pool
I0109 14:38:03.755530  4932 net.cpp:415] inception_4b/pool_proj -> inception_4b/pool_proj
I0109 14:38:03.755537  4932 net.cpp:160] Setting up inception_4b/pool_proj
I0109 14:38:03.755898  4932 net.cpp:167] Top shape: 72 128 14 14 (1806336)
I0109 14:38:03.755904  4932 layer_factory.hpp:74] Creating layer inception_4b/pool_proj_bn
I0109 14:38:03.755908  4932 layer_factory.cpp:177] Layer inception_4b/pool_proj_bn is using CAFFE engine.
I0109 14:38:03.755914  4932 net.cpp:96] Creating Layer inception_4b/pool_proj_bn
I0109 14:38:03.755918  4932 net.cpp:459] inception_4b/pool_proj_bn <- inception_4b/pool_proj
I0109 14:38:03.755923  4932 net.cpp:415] inception_4b/pool_proj_bn -> inception_4b/pool_proj_bn
I0109 14:38:03.755928  4932 net.cpp:160] Setting up inception_4b/pool_proj_bn
I0109 14:38:03.755939  4932 net.cpp:167] Top shape: 72 128 14 14 (1806336)
I0109 14:38:03.755946  4932 layer_factory.hpp:74] Creating layer inception_4b/relu_pool_proj
I0109 14:38:03.755951  4932 net.cpp:96] Creating Layer inception_4b/relu_pool_proj
I0109 14:38:03.755954  4932 net.cpp:459] inception_4b/relu_pool_proj <- inception_4b/pool_proj_bn
I0109 14:38:03.755959  4932 net.cpp:404] inception_4b/relu_pool_proj -> inception_4b/pool_proj_bn (in-place)
I0109 14:38:03.755964  4932 net.cpp:160] Setting up inception_4b/relu_pool_proj
I0109 14:38:03.755969  4932 net.cpp:167] Top shape: 72 128 14 14 (1806336)
I0109 14:38:03.755971  4932 layer_factory.hpp:74] Creating layer inception_4b/output
I0109 14:38:03.755975  4932 net.cpp:96] Creating Layer inception_4b/output
I0109 14:38:03.755980  4932 net.cpp:459] inception_4b/output <- inception_4b/1x1_bn
I0109 14:38:03.755982  4932 net.cpp:459] inception_4b/output <- inception_4b/3x3_bn
I0109 14:38:03.755986  4932 net.cpp:459] inception_4b/output <- inception_4b/double_3x3_2_bn
I0109 14:38:03.755990  4932 net.cpp:459] inception_4b/output <- inception_4b/pool_proj_bn
I0109 14:38:03.755995  4932 net.cpp:415] inception_4b/output -> inception_4b/output
I0109 14:38:03.755998  4932 net.cpp:160] Setting up inception_4b/output
I0109 14:38:03.756003  4932 net.cpp:167] Top shape: 72 576 14 14 (8128512)
I0109 14:38:03.756006  4932 layer_factory.hpp:74] Creating layer inception_4b/output_inception_4b/output_0_split
I0109 14:38:03.756011  4932 net.cpp:96] Creating Layer inception_4b/output_inception_4b/output_0_split
I0109 14:38:03.756014  4932 net.cpp:459] inception_4b/output_inception_4b/output_0_split <- inception_4b/output
I0109 14:38:03.756019  4932 net.cpp:415] inception_4b/output_inception_4b/output_0_split -> inception_4b/output_inception_4b/output_0_split_0
I0109 14:38:03.756026  4932 net.cpp:415] inception_4b/output_inception_4b/output_0_split -> inception_4b/output_inception_4b/output_0_split_1
I0109 14:38:03.756031  4932 net.cpp:415] inception_4b/output_inception_4b/output_0_split -> inception_4b/output_inception_4b/output_0_split_2
I0109 14:38:03.756036  4932 net.cpp:415] inception_4b/output_inception_4b/output_0_split -> inception_4b/output_inception_4b/output_0_split_3
I0109 14:38:03.756039  4932 net.cpp:160] Setting up inception_4b/output_inception_4b/output_0_split
I0109 14:38:03.756044  4932 net.cpp:167] Top shape: 72 576 14 14 (8128512)
I0109 14:38:03.756048  4932 net.cpp:167] Top shape: 72 576 14 14 (8128512)
I0109 14:38:03.756052  4932 net.cpp:167] Top shape: 72 576 14 14 (8128512)
I0109 14:38:03.756055  4932 net.cpp:167] Top shape: 72 576 14 14 (8128512)
I0109 14:38:03.756059  4932 layer_factory.hpp:74] Creating layer inception_4c/1x1
I0109 14:38:03.756073  4932 net.cpp:96] Creating Layer inception_4c/1x1
I0109 14:38:03.756080  4932 net.cpp:459] inception_4c/1x1 <- inception_4b/output_inception_4b/output_0_split_0
I0109 14:38:03.756089  4932 net.cpp:415] inception_4c/1x1 -> inception_4c/1x1
I0109 14:38:03.756095  4932 net.cpp:160] Setting up inception_4c/1x1
I0109 14:38:03.756546  4932 net.cpp:167] Top shape: 72 160 14 14 (2257920)
I0109 14:38:03.756553  4932 layer_factory.hpp:74] Creating layer inception_4c/1x1_bn
I0109 14:38:03.756558  4932 layer_factory.cpp:177] Layer inception_4c/1x1_bn is using CAFFE engine.
I0109 14:38:03.756564  4932 net.cpp:96] Creating Layer inception_4c/1x1_bn
I0109 14:38:03.756567  4932 net.cpp:459] inception_4c/1x1_bn <- inception_4c/1x1
I0109 14:38:03.756572  4932 net.cpp:415] inception_4c/1x1_bn -> inception_4c/1x1_bn
I0109 14:38:03.756577  4932 net.cpp:160] Setting up inception_4c/1x1_bn
I0109 14:38:03.756590  4932 net.cpp:167] Top shape: 72 160 14 14 (2257920)
I0109 14:38:03.756597  4932 layer_factory.hpp:74] Creating layer inception_4c/relu_1x1
I0109 14:38:03.756602  4932 net.cpp:96] Creating Layer inception_4c/relu_1x1
I0109 14:38:03.756604  4932 net.cpp:459] inception_4c/relu_1x1 <- inception_4c/1x1_bn
I0109 14:38:03.756608  4932 net.cpp:404] inception_4c/relu_1x1 -> inception_4c/1x1_bn (in-place)
I0109 14:38:03.756613  4932 net.cpp:160] Setting up inception_4c/relu_1x1
I0109 14:38:03.756616  4932 net.cpp:167] Top shape: 72 160 14 14 (2257920)
I0109 14:38:03.756619  4932 layer_factory.hpp:74] Creating layer inception_4c/3x3_reduce
I0109 14:38:03.756625  4932 net.cpp:96] Creating Layer inception_4c/3x3_reduce
I0109 14:38:03.756629  4932 net.cpp:459] inception_4c/3x3_reduce <- inception_4b/output_inception_4b/output_0_split_1
I0109 14:38:03.756633  4932 net.cpp:415] inception_4c/3x3_reduce -> inception_4c/3x3_reduce
I0109 14:38:03.756639  4932 net.cpp:160] Setting up inception_4c/3x3_reduce
I0109 14:38:03.757001  4932 net.cpp:167] Top shape: 72 128 14 14 (1806336)
I0109 14:38:03.757009  4932 layer_factory.hpp:74] Creating layer inception_4c/3x3_reduce_bn
I0109 14:38:03.757011  4932 layer_factory.cpp:177] Layer inception_4c/3x3_reduce_bn is using CAFFE engine.
I0109 14:38:03.757017  4932 net.cpp:96] Creating Layer inception_4c/3x3_reduce_bn
I0109 14:38:03.757021  4932 net.cpp:459] inception_4c/3x3_reduce_bn <- inception_4c/3x3_reduce
I0109 14:38:03.757026  4932 net.cpp:415] inception_4c/3x3_reduce_bn -> inception_4c/3x3_reduce_bn
I0109 14:38:03.757031  4932 net.cpp:160] Setting up inception_4c/3x3_reduce_bn
I0109 14:38:03.757042  4932 net.cpp:167] Top shape: 72 128 14 14 (1806336)
I0109 14:38:03.757050  4932 layer_factory.hpp:74] Creating layer inception_4c/relu_3x3_reduce
I0109 14:38:03.757055  4932 net.cpp:96] Creating Layer inception_4c/relu_3x3_reduce
I0109 14:38:03.757060  4932 net.cpp:459] inception_4c/relu_3x3_reduce <- inception_4c/3x3_reduce_bn
I0109 14:38:03.757063  4932 net.cpp:404] inception_4c/relu_3x3_reduce -> inception_4c/3x3_reduce_bn (in-place)
I0109 14:38:03.757068  4932 net.cpp:160] Setting up inception_4c/relu_3x3_reduce
I0109 14:38:03.757072  4932 net.cpp:167] Top shape: 72 128 14 14 (1806336)
I0109 14:38:03.757076  4932 layer_factory.hpp:74] Creating layer inception_4c/3x3
I0109 14:38:03.757081  4932 net.cpp:96] Creating Layer inception_4c/3x3
I0109 14:38:03.757083  4932 net.cpp:459] inception_4c/3x3 <- inception_4c/3x3_reduce_bn
I0109 14:38:03.757088  4932 net.cpp:415] inception_4c/3x3 -> inception_4c/3x3
I0109 14:38:03.757093  4932 net.cpp:160] Setting up inception_4c/3x3
I0109 14:38:03.757978  4932 net.cpp:167] Top shape: 72 160 14 14 (2257920)
I0109 14:38:03.757985  4932 layer_factory.hpp:74] Creating layer inception_4c/3x3_bn
I0109 14:38:03.757988  4932 layer_factory.cpp:177] Layer inception_4c/3x3_bn is using CAFFE engine.
I0109 14:38:03.757993  4932 net.cpp:96] Creating Layer inception_4c/3x3_bn
I0109 14:38:03.757997  4932 net.cpp:459] inception_4c/3x3_bn <- inception_4c/3x3
I0109 14:38:03.758002  4932 net.cpp:415] inception_4c/3x3_bn -> inception_4c/3x3_bn
I0109 14:38:03.758008  4932 net.cpp:160] Setting up inception_4c/3x3_bn
I0109 14:38:03.758023  4932 net.cpp:167] Top shape: 72 160 14 14 (2257920)
I0109 14:38:03.758035  4932 layer_factory.hpp:74] Creating layer inception_4c/relu_3x3
I0109 14:38:03.758039  4932 net.cpp:96] Creating Layer inception_4c/relu_3x3
I0109 14:38:03.758044  4932 net.cpp:459] inception_4c/relu_3x3 <- inception_4c/3x3_bn
I0109 14:38:03.758049  4932 net.cpp:404] inception_4c/relu_3x3 -> inception_4c/3x3_bn (in-place)
I0109 14:38:03.758052  4932 net.cpp:160] Setting up inception_4c/relu_3x3
I0109 14:38:03.758056  4932 net.cpp:167] Top shape: 72 160 14 14 (2257920)
I0109 14:38:03.758059  4932 layer_factory.hpp:74] Creating layer inception_4c/double_3x3_reduce
I0109 14:38:03.758064  4932 net.cpp:96] Creating Layer inception_4c/double_3x3_reduce
I0109 14:38:03.758069  4932 net.cpp:459] inception_4c/double_3x3_reduce <- inception_4b/output_inception_4b/output_0_split_2
I0109 14:38:03.758074  4932 net.cpp:415] inception_4c/double_3x3_reduce -> inception_4c/double_3x3_reduce
I0109 14:38:03.758079  4932 net.cpp:160] Setting up inception_4c/double_3x3_reduce
I0109 14:38:03.758446  4932 net.cpp:167] Top shape: 72 128 14 14 (1806336)
I0109 14:38:03.758455  4932 layer_factory.hpp:74] Creating layer inception_4c/double_3x3_reduce_bn
I0109 14:38:03.758460  4932 layer_factory.cpp:177] Layer inception_4c/double_3x3_reduce_bn is using CAFFE engine.
I0109 14:38:03.758465  4932 net.cpp:96] Creating Layer inception_4c/double_3x3_reduce_bn
I0109 14:38:03.758468  4932 net.cpp:459] inception_4c/double_3x3_reduce_bn <- inception_4c/double_3x3_reduce
I0109 14:38:03.758473  4932 net.cpp:415] inception_4c/double_3x3_reduce_bn -> inception_4c/double_3x3_reduce_bn
I0109 14:38:03.758478  4932 net.cpp:160] Setting up inception_4c/double_3x3_reduce_bn
I0109 14:38:03.758489  4932 net.cpp:167] Top shape: 72 128 14 14 (1806336)
I0109 14:38:03.758496  4932 layer_factory.hpp:74] Creating layer inception_4c/relu_double_3x3_reduce
I0109 14:38:03.758502  4932 net.cpp:96] Creating Layer inception_4c/relu_double_3x3_reduce
I0109 14:38:03.758504  4932 net.cpp:459] inception_4c/relu_double_3x3_reduce <- inception_4c/double_3x3_reduce_bn
I0109 14:38:03.758508  4932 net.cpp:404] inception_4c/relu_double_3x3_reduce -> inception_4c/double_3x3_reduce_bn (in-place)
I0109 14:38:03.758512  4932 net.cpp:160] Setting up inception_4c/relu_double_3x3_reduce
I0109 14:38:03.758517  4932 net.cpp:167] Top shape: 72 128 14 14 (1806336)
I0109 14:38:03.758520  4932 layer_factory.hpp:74] Creating layer inception_4c/double_3x3_1
I0109 14:38:03.758525  4932 net.cpp:96] Creating Layer inception_4c/double_3x3_1
I0109 14:38:03.758528  4932 net.cpp:459] inception_4c/double_3x3_1 <- inception_4c/double_3x3_reduce_bn
I0109 14:38:03.758533  4932 net.cpp:415] inception_4c/double_3x3_1 -> inception_4c/double_3x3_1
I0109 14:38:03.758538  4932 net.cpp:160] Setting up inception_4c/double_3x3_1
I0109 14:38:03.759425  4932 net.cpp:167] Top shape: 72 160 14 14 (2257920)
I0109 14:38:03.759433  4932 layer_factory.hpp:74] Creating layer inception_4c/double_3x3_1_bn
I0109 14:38:03.759435  4932 layer_factory.cpp:177] Layer inception_4c/double_3x3_1_bn is using CAFFE engine.
I0109 14:38:03.759441  4932 net.cpp:96] Creating Layer inception_4c/double_3x3_1_bn
I0109 14:38:03.759445  4932 net.cpp:459] inception_4c/double_3x3_1_bn <- inception_4c/double_3x3_1
I0109 14:38:03.759449  4932 net.cpp:415] inception_4c/double_3x3_1_bn -> inception_4c/double_3x3_1_bn
I0109 14:38:03.759454  4932 net.cpp:160] Setting up inception_4c/double_3x3_1_bn
I0109 14:38:03.759466  4932 net.cpp:167] Top shape: 72 160 14 14 (2257920)
I0109 14:38:03.759472  4932 layer_factory.hpp:74] Creating layer inception_4c/relu_double_3x3_1
I0109 14:38:03.759482  4932 net.cpp:96] Creating Layer inception_4c/relu_double_3x3_1
I0109 14:38:03.759485  4932 net.cpp:459] inception_4c/relu_double_3x3_1 <- inception_4c/double_3x3_1_bn
I0109 14:38:03.759490  4932 net.cpp:404] inception_4c/relu_double_3x3_1 -> inception_4c/double_3x3_1_bn (in-place)
I0109 14:38:03.759495  4932 net.cpp:160] Setting up inception_4c/relu_double_3x3_1
I0109 14:38:03.759498  4932 net.cpp:167] Top shape: 72 160 14 14 (2257920)
I0109 14:38:03.759506  4932 layer_factory.hpp:74] Creating layer inception_4c/double_3x3_2
I0109 14:38:03.759513  4932 net.cpp:96] Creating Layer inception_4c/double_3x3_2
I0109 14:38:03.759517  4932 net.cpp:459] inception_4c/double_3x3_2 <- inception_4c/double_3x3_1_bn
I0109 14:38:03.759521  4932 net.cpp:415] inception_4c/double_3x3_2 -> inception_4c/double_3x3_2
I0109 14:38:03.759526  4932 net.cpp:160] Setting up inception_4c/double_3x3_2
I0109 14:38:03.760634  4932 net.cpp:167] Top shape: 72 160 14 14 (2257920)
I0109 14:38:03.760643  4932 layer_factory.hpp:74] Creating layer inception_4c/double_3x3_2_bn
I0109 14:38:03.760645  4932 layer_factory.cpp:177] Layer inception_4c/double_3x3_2_bn is using CAFFE engine.
I0109 14:38:03.760650  4932 net.cpp:96] Creating Layer inception_4c/double_3x3_2_bn
I0109 14:38:03.760654  4932 net.cpp:459] inception_4c/double_3x3_2_bn <- inception_4c/double_3x3_2
I0109 14:38:03.760659  4932 net.cpp:415] inception_4c/double_3x3_2_bn -> inception_4c/double_3x3_2_bn
I0109 14:38:03.760664  4932 net.cpp:160] Setting up inception_4c/double_3x3_2_bn
I0109 14:38:03.760676  4932 net.cpp:167] Top shape: 72 160 14 14 (2257920)
I0109 14:38:03.760682  4932 layer_factory.hpp:74] Creating layer inception_4c/relu_double_3x3_2
I0109 14:38:03.760686  4932 net.cpp:96] Creating Layer inception_4c/relu_double_3x3_2
I0109 14:38:03.760690  4932 net.cpp:459] inception_4c/relu_double_3x3_2 <- inception_4c/double_3x3_2_bn
I0109 14:38:03.760694  4932 net.cpp:404] inception_4c/relu_double_3x3_2 -> inception_4c/double_3x3_2_bn (in-place)
I0109 14:38:03.760699  4932 net.cpp:160] Setting up inception_4c/relu_double_3x3_2
I0109 14:38:03.760701  4932 net.cpp:167] Top shape: 72 160 14 14 (2257920)
I0109 14:38:03.760705  4932 layer_factory.hpp:74] Creating layer inception_4c/pool
I0109 14:38:03.760710  4932 net.cpp:96] Creating Layer inception_4c/pool
I0109 14:38:03.760715  4932 net.cpp:459] inception_4c/pool <- inception_4b/output_inception_4b/output_0_split_3
I0109 14:38:03.760718  4932 net.cpp:415] inception_4c/pool -> inception_4c/pool
I0109 14:38:03.760722  4932 net.cpp:160] Setting up inception_4c/pool
I0109 14:38:03.760727  4932 net.cpp:167] Top shape: 72 576 14 14 (8128512)
I0109 14:38:03.760731  4932 layer_factory.hpp:74] Creating layer inception_4c/pool_proj
I0109 14:38:03.760738  4932 net.cpp:96] Creating Layer inception_4c/pool_proj
I0109 14:38:03.760742  4932 net.cpp:459] inception_4c/pool_proj <- inception_4c/pool
I0109 14:38:03.760746  4932 net.cpp:415] inception_4c/pool_proj -> inception_4c/pool_proj
I0109 14:38:03.760751  4932 net.cpp:160] Setting up inception_4c/pool_proj
I0109 14:38:03.761112  4932 net.cpp:167] Top shape: 72 128 14 14 (1806336)
I0109 14:38:03.761118  4932 layer_factory.hpp:74] Creating layer inception_4c/pool_proj_bn
I0109 14:38:03.761122  4932 layer_factory.cpp:177] Layer inception_4c/pool_proj_bn is using CAFFE engine.
I0109 14:38:03.761127  4932 net.cpp:96] Creating Layer inception_4c/pool_proj_bn
I0109 14:38:03.761131  4932 net.cpp:459] inception_4c/pool_proj_bn <- inception_4c/pool_proj
I0109 14:38:03.761135  4932 net.cpp:415] inception_4c/pool_proj_bn -> inception_4c/pool_proj_bn
I0109 14:38:03.761142  4932 net.cpp:160] Setting up inception_4c/pool_proj_bn
I0109 14:38:03.761153  4932 net.cpp:167] Top shape: 72 128 14 14 (1806336)
I0109 14:38:03.761180  4932 layer_factory.hpp:74] Creating layer inception_4c/relu_pool_proj
I0109 14:38:03.761186  4932 net.cpp:96] Creating Layer inception_4c/relu_pool_proj
I0109 14:38:03.761189  4932 net.cpp:459] inception_4c/relu_pool_proj <- inception_4c/pool_proj_bn
I0109 14:38:03.761193  4932 net.cpp:404] inception_4c/relu_pool_proj -> inception_4c/pool_proj_bn (in-place)
I0109 14:38:03.761198  4932 net.cpp:160] Setting up inception_4c/relu_pool_proj
I0109 14:38:03.761203  4932 net.cpp:167] Top shape: 72 128 14 14 (1806336)
I0109 14:38:03.761205  4932 layer_factory.hpp:74] Creating layer inception_4c/output
I0109 14:38:03.761210  4932 net.cpp:96] Creating Layer inception_4c/output
I0109 14:38:03.761214  4932 net.cpp:459] inception_4c/output <- inception_4c/1x1_bn
I0109 14:38:03.761224  4932 net.cpp:459] inception_4c/output <- inception_4c/3x3_bn
I0109 14:38:03.761229  4932 net.cpp:459] inception_4c/output <- inception_4c/double_3x3_2_bn
I0109 14:38:03.761232  4932 net.cpp:459] inception_4c/output <- inception_4c/pool_proj_bn
I0109 14:38:03.761236  4932 net.cpp:415] inception_4c/output -> inception_4c/output
I0109 14:38:03.761241  4932 net.cpp:160] Setting up inception_4c/output
I0109 14:38:03.761246  4932 net.cpp:167] Top shape: 72 608 14 14 (8580096)
I0109 14:38:03.761250  4932 layer_factory.hpp:74] Creating layer inception_4c/output_inception_4c/output_0_split
I0109 14:38:03.761255  4932 net.cpp:96] Creating Layer inception_4c/output_inception_4c/output_0_split
I0109 14:38:03.761257  4932 net.cpp:459] inception_4c/output_inception_4c/output_0_split <- inception_4c/output
I0109 14:38:03.761262  4932 net.cpp:415] inception_4c/output_inception_4c/output_0_split -> inception_4c/output_inception_4c/output_0_split_0
I0109 14:38:03.761267  4932 net.cpp:415] inception_4c/output_inception_4c/output_0_split -> inception_4c/output_inception_4c/output_0_split_1
I0109 14:38:03.761272  4932 net.cpp:415] inception_4c/output_inception_4c/output_0_split -> inception_4c/output_inception_4c/output_0_split_2
I0109 14:38:03.761287  4932 net.cpp:415] inception_4c/output_inception_4c/output_0_split -> inception_4c/output_inception_4c/output_0_split_3
I0109 14:38:03.761292  4932 net.cpp:160] Setting up inception_4c/output_inception_4c/output_0_split
I0109 14:38:03.761297  4932 net.cpp:167] Top shape: 72 608 14 14 (8580096)
I0109 14:38:03.761301  4932 net.cpp:167] Top shape: 72 608 14 14 (8580096)
I0109 14:38:03.761307  4932 net.cpp:167] Top shape: 72 608 14 14 (8580096)
I0109 14:38:03.761310  4932 net.cpp:167] Top shape: 72 608 14 14 (8580096)
I0109 14:38:03.761313  4932 layer_factory.hpp:74] Creating layer inception_4d/1x1
I0109 14:38:03.761318  4932 net.cpp:96] Creating Layer inception_4d/1x1
I0109 14:38:03.761322  4932 net.cpp:459] inception_4d/1x1 <- inception_4c/output_inception_4c/output_0_split_0
I0109 14:38:03.761327  4932 net.cpp:415] inception_4d/1x1 -> inception_4d/1x1
I0109 14:38:03.761332  4932 net.cpp:160] Setting up inception_4d/1x1
I0109 14:38:03.761618  4932 net.cpp:167] Top shape: 72 96 14 14 (1354752)
I0109 14:38:03.761626  4932 layer_factory.hpp:74] Creating layer inception_4d/1x1_bn
I0109 14:38:03.761629  4932 layer_factory.cpp:177] Layer inception_4d/1x1_bn is using CAFFE engine.
I0109 14:38:03.761634  4932 net.cpp:96] Creating Layer inception_4d/1x1_bn
I0109 14:38:03.761638  4932 net.cpp:459] inception_4d/1x1_bn <- inception_4d/1x1
I0109 14:38:03.761644  4932 net.cpp:415] inception_4d/1x1_bn -> inception_4d/1x1_bn
I0109 14:38:03.761649  4932 net.cpp:160] Setting up inception_4d/1x1_bn
I0109 14:38:03.761660  4932 net.cpp:167] Top shape: 72 96 14 14 (1354752)
I0109 14:38:03.761667  4932 layer_factory.hpp:74] Creating layer inception_4d/relu_1x1
I0109 14:38:03.761672  4932 net.cpp:96] Creating Layer inception_4d/relu_1x1
I0109 14:38:03.761675  4932 net.cpp:459] inception_4d/relu_1x1 <- inception_4d/1x1_bn
I0109 14:38:03.761679  4932 net.cpp:404] inception_4d/relu_1x1 -> inception_4d/1x1_bn (in-place)
I0109 14:38:03.761683  4932 net.cpp:160] Setting up inception_4d/relu_1x1
I0109 14:38:03.761687  4932 net.cpp:167] Top shape: 72 96 14 14 (1354752)
I0109 14:38:03.761690  4932 layer_factory.hpp:74] Creating layer inception_4d/3x3_reduce
I0109 14:38:03.761695  4932 net.cpp:96] Creating Layer inception_4d/3x3_reduce
I0109 14:38:03.761699  4932 net.cpp:459] inception_4d/3x3_reduce <- inception_4c/output_inception_4c/output_0_split_1
I0109 14:38:03.761704  4932 net.cpp:415] inception_4d/3x3_reduce -> inception_4d/3x3_reduce
I0109 14:38:03.761709  4932 net.cpp:160] Setting up inception_4d/3x3_reduce
I0109 14:38:03.762089  4932 net.cpp:167] Top shape: 72 128 14 14 (1806336)
I0109 14:38:03.762096  4932 layer_factory.hpp:74] Creating layer inception_4d/3x3_reduce_bn
I0109 14:38:03.762099  4932 layer_factory.cpp:177] Layer inception_4d/3x3_reduce_bn is using CAFFE engine.
I0109 14:38:03.762107  4932 net.cpp:96] Creating Layer inception_4d/3x3_reduce_bn
I0109 14:38:03.762115  4932 net.cpp:459] inception_4d/3x3_reduce_bn <- inception_4d/3x3_reduce
I0109 14:38:03.762121  4932 net.cpp:415] inception_4d/3x3_reduce_bn -> inception_4d/3x3_reduce_bn
I0109 14:38:03.762126  4932 net.cpp:160] Setting up inception_4d/3x3_reduce_bn
I0109 14:38:03.762137  4932 net.cpp:167] Top shape: 72 128 14 14 (1806336)
I0109 14:38:03.762145  4932 layer_factory.hpp:74] Creating layer inception_4d/relu_3x3_reduce
I0109 14:38:03.762150  4932 net.cpp:96] Creating Layer inception_4d/relu_3x3_reduce
I0109 14:38:03.762153  4932 net.cpp:459] inception_4d/relu_3x3_reduce <- inception_4d/3x3_reduce_bn
I0109 14:38:03.762157  4932 net.cpp:404] inception_4d/relu_3x3_reduce -> inception_4d/3x3_reduce_bn (in-place)
I0109 14:38:03.762161  4932 net.cpp:160] Setting up inception_4d/relu_3x3_reduce
I0109 14:38:03.762166  4932 net.cpp:167] Top shape: 72 128 14 14 (1806336)
I0109 14:38:03.762168  4932 layer_factory.hpp:74] Creating layer inception_4d/3x3
I0109 14:38:03.762174  4932 net.cpp:96] Creating Layer inception_4d/3x3
I0109 14:38:03.762177  4932 net.cpp:459] inception_4d/3x3 <- inception_4d/3x3_reduce_bn
I0109 14:38:03.762182  4932 net.cpp:415] inception_4d/3x3 -> inception_4d/3x3
I0109 14:38:03.762187  4932 net.cpp:160] Setting up inception_4d/3x3
I0109 14:38:03.763267  4932 net.cpp:167] Top shape: 72 192 14 14 (2709504)
I0109 14:38:03.763276  4932 layer_factory.hpp:74] Creating layer inception_4d/3x3_bn
I0109 14:38:03.763280  4932 layer_factory.cpp:177] Layer inception_4d/3x3_bn is using CAFFE engine.
I0109 14:38:03.763285  4932 net.cpp:96] Creating Layer inception_4d/3x3_bn
I0109 14:38:03.763288  4932 net.cpp:459] inception_4d/3x3_bn <- inception_4d/3x3
I0109 14:38:03.763294  4932 net.cpp:415] inception_4d/3x3_bn -> inception_4d/3x3_bn
I0109 14:38:03.763300  4932 net.cpp:160] Setting up inception_4d/3x3_bn
I0109 14:38:03.763312  4932 net.cpp:167] Top shape: 72 192 14 14 (2709504)
I0109 14:38:03.763319  4932 layer_factory.hpp:74] Creating layer inception_4d/relu_3x3
I0109 14:38:03.763324  4932 net.cpp:96] Creating Layer inception_4d/relu_3x3
I0109 14:38:03.763326  4932 net.cpp:459] inception_4d/relu_3x3 <- inception_4d/3x3_bn
I0109 14:38:03.763331  4932 net.cpp:404] inception_4d/relu_3x3 -> inception_4d/3x3_bn (in-place)
I0109 14:38:03.763335  4932 net.cpp:160] Setting up inception_4d/relu_3x3
I0109 14:38:03.763339  4932 net.cpp:167] Top shape: 72 192 14 14 (2709504)
I0109 14:38:03.763344  4932 layer_factory.hpp:74] Creating layer inception_4d/double_3x3_reduce
I0109 14:38:03.763348  4932 net.cpp:96] Creating Layer inception_4d/double_3x3_reduce
I0109 14:38:03.763351  4932 net.cpp:459] inception_4d/double_3x3_reduce <- inception_4c/output_inception_4c/output_0_split_2
I0109 14:38:03.763356  4932 net.cpp:415] inception_4d/double_3x3_reduce -> inception_4d/double_3x3_reduce
I0109 14:38:03.763362  4932 net.cpp:160] Setting up inception_4d/double_3x3_reduce
I0109 14:38:03.763886  4932 net.cpp:167] Top shape: 72 160 14 14 (2257920)
I0109 14:38:03.763896  4932 layer_factory.hpp:74] Creating layer inception_4d/double_3x3_reduce_bn
I0109 14:38:03.763900  4932 layer_factory.cpp:177] Layer inception_4d/double_3x3_reduce_bn is using CAFFE engine.
I0109 14:38:03.763906  4932 net.cpp:96] Creating Layer inception_4d/double_3x3_reduce_bn
I0109 14:38:03.763909  4932 net.cpp:459] inception_4d/double_3x3_reduce_bn <- inception_4d/double_3x3_reduce
I0109 14:38:03.763914  4932 net.cpp:415] inception_4d/double_3x3_reduce_bn -> inception_4d/double_3x3_reduce_bn
I0109 14:38:03.763921  4932 net.cpp:160] Setting up inception_4d/double_3x3_reduce_bn
I0109 14:38:03.763931  4932 net.cpp:167] Top shape: 72 160 14 14 (2257920)
I0109 14:38:03.763938  4932 layer_factory.hpp:74] Creating layer inception_4d/relu_double_3x3_reduce
I0109 14:38:03.763943  4932 net.cpp:96] Creating Layer inception_4d/relu_double_3x3_reduce
I0109 14:38:03.763947  4932 net.cpp:459] inception_4d/relu_double_3x3_reduce <- inception_4d/double_3x3_reduce_bn
I0109 14:38:03.763954  4932 net.cpp:404] inception_4d/relu_double_3x3_reduce -> inception_4d/double_3x3_reduce_bn (in-place)
I0109 14:38:03.763962  4932 net.cpp:160] Setting up inception_4d/relu_double_3x3_reduce
I0109 14:38:03.763967  4932 net.cpp:167] Top shape: 72 160 14 14 (2257920)
I0109 14:38:03.763969  4932 layer_factory.hpp:74] Creating layer inception_4d/double_3x3_1
I0109 14:38:03.763975  4932 net.cpp:96] Creating Layer inception_4d/double_3x3_1
I0109 14:38:03.763978  4932 net.cpp:459] inception_4d/double_3x3_1 <- inception_4d/double_3x3_reduce_bn
I0109 14:38:03.763985  4932 net.cpp:415] inception_4d/double_3x3_1 -> inception_4d/double_3x3_1
I0109 14:38:03.763990  4932 net.cpp:160] Setting up inception_4d/double_3x3_1
I0109 14:38:03.765323  4932 net.cpp:167] Top shape: 72 192 14 14 (2709504)
I0109 14:38:03.765331  4932 layer_factory.hpp:74] Creating layer inception_4d/double_3x3_1_bn
I0109 14:38:03.765334  4932 layer_factory.cpp:177] Layer inception_4d/double_3x3_1_bn is using CAFFE engine.
I0109 14:38:03.765341  4932 net.cpp:96] Creating Layer inception_4d/double_3x3_1_bn
I0109 14:38:03.765344  4932 net.cpp:459] inception_4d/double_3x3_1_bn <- inception_4d/double_3x3_1
I0109 14:38:03.765350  4932 net.cpp:415] inception_4d/double_3x3_1_bn -> inception_4d/double_3x3_1_bn
I0109 14:38:03.765355  4932 net.cpp:160] Setting up inception_4d/double_3x3_1_bn
I0109 14:38:03.765367  4932 net.cpp:167] Top shape: 72 192 14 14 (2709504)
I0109 14:38:03.765373  4932 layer_factory.hpp:74] Creating layer inception_4d/relu_double_3x3_1
I0109 14:38:03.765378  4932 net.cpp:96] Creating Layer inception_4d/relu_double_3x3_1
I0109 14:38:03.765383  4932 net.cpp:459] inception_4d/relu_double_3x3_1 <- inception_4d/double_3x3_1_bn
I0109 14:38:03.765386  4932 net.cpp:404] inception_4d/relu_double_3x3_1 -> inception_4d/double_3x3_1_bn (in-place)
I0109 14:38:03.765391  4932 net.cpp:160] Setting up inception_4d/relu_double_3x3_1
I0109 14:38:03.765395  4932 net.cpp:167] Top shape: 72 192 14 14 (2709504)
I0109 14:38:03.765398  4932 layer_factory.hpp:74] Creating layer inception_4d/double_3x3_2
I0109 14:38:03.765403  4932 net.cpp:96] Creating Layer inception_4d/double_3x3_2
I0109 14:38:03.765406  4932 net.cpp:459] inception_4d/double_3x3_2 <- inception_4d/double_3x3_1_bn
I0109 14:38:03.765411  4932 net.cpp:415] inception_4d/double_3x3_2 -> inception_4d/double_3x3_2
I0109 14:38:03.765417  4932 net.cpp:160] Setting up inception_4d/double_3x3_2
I0109 14:38:03.767016  4932 net.cpp:167] Top shape: 72 192 14 14 (2709504)
I0109 14:38:03.767024  4932 layer_factory.hpp:74] Creating layer inception_4d/double_3x3_2_bn
I0109 14:38:03.767027  4932 layer_factory.cpp:177] Layer inception_4d/double_3x3_2_bn is using CAFFE engine.
I0109 14:38:03.767033  4932 net.cpp:96] Creating Layer inception_4d/double_3x3_2_bn
I0109 14:38:03.767037  4932 net.cpp:459] inception_4d/double_3x3_2_bn <- inception_4d/double_3x3_2
I0109 14:38:03.767042  4932 net.cpp:415] inception_4d/double_3x3_2_bn -> inception_4d/double_3x3_2_bn
I0109 14:38:03.767047  4932 net.cpp:160] Setting up inception_4d/double_3x3_2_bn
I0109 14:38:03.767060  4932 net.cpp:167] Top shape: 72 192 14 14 (2709504)
I0109 14:38:03.767066  4932 layer_factory.hpp:74] Creating layer inception_4d/relu_double_3x3_2
I0109 14:38:03.767072  4932 net.cpp:96] Creating Layer inception_4d/relu_double_3x3_2
I0109 14:38:03.767076  4932 net.cpp:459] inception_4d/relu_double_3x3_2 <- inception_4d/double_3x3_2_bn
I0109 14:38:03.767081  4932 net.cpp:404] inception_4d/relu_double_3x3_2 -> inception_4d/double_3x3_2_bn (in-place)
I0109 14:38:03.767086  4932 net.cpp:160] Setting up inception_4d/relu_double_3x3_2
I0109 14:38:03.767088  4932 net.cpp:167] Top shape: 72 192 14 14 (2709504)
I0109 14:38:03.767092  4932 layer_factory.hpp:74] Creating layer inception_4d/pool
I0109 14:38:03.767096  4932 net.cpp:96] Creating Layer inception_4d/pool
I0109 14:38:03.767101  4932 net.cpp:459] inception_4d/pool <- inception_4c/output_inception_4c/output_0_split_3
I0109 14:38:03.767104  4932 net.cpp:415] inception_4d/pool -> inception_4d/pool
I0109 14:38:03.767112  4932 net.cpp:160] Setting up inception_4d/pool
I0109 14:38:03.767122  4932 net.cpp:167] Top shape: 72 608 14 14 (8580096)
I0109 14:38:03.767125  4932 layer_factory.hpp:74] Creating layer inception_4d/pool_proj
I0109 14:38:03.767132  4932 net.cpp:96] Creating Layer inception_4d/pool_proj
I0109 14:38:03.767135  4932 net.cpp:459] inception_4d/pool_proj <- inception_4d/pool
I0109 14:38:03.767139  4932 net.cpp:415] inception_4d/pool_proj -> inception_4d/pool_proj
I0109 14:38:03.767144  4932 net.cpp:160] Setting up inception_4d/pool_proj
I0109 14:38:03.767524  4932 net.cpp:167] Top shape: 72 128 14 14 (1806336)
I0109 14:38:03.767530  4932 layer_factory.hpp:74] Creating layer inception_4d/pool_proj_bn
I0109 14:38:03.767534  4932 layer_factory.cpp:177] Layer inception_4d/pool_proj_bn is using CAFFE engine.
I0109 14:38:03.767539  4932 net.cpp:96] Creating Layer inception_4d/pool_proj_bn
I0109 14:38:03.767544  4932 net.cpp:459] inception_4d/pool_proj_bn <- inception_4d/pool_proj
I0109 14:38:03.767549  4932 net.cpp:415] inception_4d/pool_proj_bn -> inception_4d/pool_proj_bn
I0109 14:38:03.767554  4932 net.cpp:160] Setting up inception_4d/pool_proj_bn
I0109 14:38:03.767565  4932 net.cpp:167] Top shape: 72 128 14 14 (1806336)
I0109 14:38:03.767572  4932 layer_factory.hpp:74] Creating layer inception_4d/relu_pool_proj
I0109 14:38:03.767577  4932 net.cpp:96] Creating Layer inception_4d/relu_pool_proj
I0109 14:38:03.767581  4932 net.cpp:459] inception_4d/relu_pool_proj <- inception_4d/pool_proj_bn
I0109 14:38:03.767585  4932 net.cpp:404] inception_4d/relu_pool_proj -> inception_4d/pool_proj_bn (in-place)
I0109 14:38:03.767590  4932 net.cpp:160] Setting up inception_4d/relu_pool_proj
I0109 14:38:03.767593  4932 net.cpp:167] Top shape: 72 128 14 14 (1806336)
I0109 14:38:03.767596  4932 layer_factory.hpp:74] Creating layer inception_4d/output
I0109 14:38:03.767602  4932 net.cpp:96] Creating Layer inception_4d/output
I0109 14:38:03.767606  4932 net.cpp:459] inception_4d/output <- inception_4d/1x1_bn
I0109 14:38:03.767609  4932 net.cpp:459] inception_4d/output <- inception_4d/3x3_bn
I0109 14:38:03.767613  4932 net.cpp:459] inception_4d/output <- inception_4d/double_3x3_2_bn
I0109 14:38:03.767617  4932 net.cpp:459] inception_4d/output <- inception_4d/pool_proj_bn
I0109 14:38:03.767621  4932 net.cpp:415] inception_4d/output -> inception_4d/output
I0109 14:38:03.767626  4932 net.cpp:160] Setting up inception_4d/output
I0109 14:38:03.767630  4932 net.cpp:167] Top shape: 72 608 14 14 (8580096)
I0109 14:38:03.767634  4932 layer_factory.hpp:74] Creating layer inception_4d/output_inception_4d/output_0_split
I0109 14:38:03.767639  4932 net.cpp:96] Creating Layer inception_4d/output_inception_4d/output_0_split
I0109 14:38:03.767642  4932 net.cpp:459] inception_4d/output_inception_4d/output_0_split <- inception_4d/output
I0109 14:38:03.767647  4932 net.cpp:415] inception_4d/output_inception_4d/output_0_split -> inception_4d/output_inception_4d/output_0_split_0
I0109 14:38:03.767652  4932 net.cpp:415] inception_4d/output_inception_4d/output_0_split -> inception_4d/output_inception_4d/output_0_split_1
I0109 14:38:03.767657  4932 net.cpp:415] inception_4d/output_inception_4d/output_0_split -> inception_4d/output_inception_4d/output_0_split_2
I0109 14:38:03.767663  4932 net.cpp:160] Setting up inception_4d/output_inception_4d/output_0_split
I0109 14:38:03.767668  4932 net.cpp:167] Top shape: 72 608 14 14 (8580096)
I0109 14:38:03.767671  4932 net.cpp:167] Top shape: 72 608 14 14 (8580096)
I0109 14:38:03.767675  4932 net.cpp:167] Top shape: 72 608 14 14 (8580096)
I0109 14:38:03.767678  4932 layer_factory.hpp:74] Creating layer inception_4e/3x3_reduce
I0109 14:38:03.767685  4932 net.cpp:96] Creating Layer inception_4e/3x3_reduce
I0109 14:38:03.767689  4932 net.cpp:459] inception_4e/3x3_reduce <- inception_4d/output_inception_4d/output_0_split_0
I0109 14:38:03.767693  4932 net.cpp:415] inception_4e/3x3_reduce -> inception_4e/3x3_reduce
I0109 14:38:03.767699  4932 net.cpp:160] Setting up inception_4e/3x3_reduce
I0109 14:38:03.768076  4932 net.cpp:167] Top shape: 72 128 14 14 (1806336)
I0109 14:38:03.768090  4932 layer_factory.hpp:74] Creating layer inception_4e/3x3_reduce_bn
I0109 14:38:03.768093  4932 layer_factory.cpp:177] Layer inception_4e/3x3_reduce_bn is using CAFFE engine.
I0109 14:38:03.768098  4932 net.cpp:96] Creating Layer inception_4e/3x3_reduce_bn
I0109 14:38:03.768101  4932 net.cpp:459] inception_4e/3x3_reduce_bn <- inception_4e/3x3_reduce
I0109 14:38:03.768110  4932 net.cpp:415] inception_4e/3x3_reduce_bn -> inception_4e/3x3_reduce_bn
I0109 14:38:03.768117  4932 net.cpp:160] Setting up inception_4e/3x3_reduce_bn
I0109 14:38:03.768129  4932 net.cpp:167] Top shape: 72 128 14 14 (1806336)
I0109 14:38:03.768136  4932 layer_factory.hpp:74] Creating layer inception_4e/relu_3x3_reduce
I0109 14:38:03.768141  4932 net.cpp:96] Creating Layer inception_4e/relu_3x3_reduce
I0109 14:38:03.768144  4932 net.cpp:459] inception_4e/relu_3x3_reduce <- inception_4e/3x3_reduce_bn
I0109 14:38:03.768148  4932 net.cpp:404] inception_4e/relu_3x3_reduce -> inception_4e/3x3_reduce_bn (in-place)
I0109 14:38:03.768152  4932 net.cpp:160] Setting up inception_4e/relu_3x3_reduce
I0109 14:38:03.768157  4932 net.cpp:167] Top shape: 72 128 14 14 (1806336)
I0109 14:38:03.768160  4932 layer_factory.hpp:74] Creating layer inception_4e/3x3
I0109 14:38:03.768165  4932 net.cpp:96] Creating Layer inception_4e/3x3
I0109 14:38:03.768169  4932 net.cpp:459] inception_4e/3x3 <- inception_4e/3x3_reduce_bn
I0109 14:38:03.768173  4932 net.cpp:415] inception_4e/3x3 -> inception_4e/3x3
I0109 14:38:03.768178  4932 net.cpp:160] Setting up inception_4e/3x3
I0109 14:38:03.769242  4932 net.cpp:167] Top shape: 72 192 7 7 (677376)
I0109 14:38:03.769248  4932 layer_factory.hpp:74] Creating layer inception_4e/3x3_bn
I0109 14:38:03.769251  4932 layer_factory.cpp:177] Layer inception_4e/3x3_bn is using CAFFE engine.
I0109 14:38:03.769258  4932 net.cpp:96] Creating Layer inception_4e/3x3_bn
I0109 14:38:03.769261  4932 net.cpp:459] inception_4e/3x3_bn <- inception_4e/3x3
I0109 14:38:03.769266  4932 net.cpp:415] inception_4e/3x3_bn -> inception_4e/3x3_bn
I0109 14:38:03.769273  4932 net.cpp:160] Setting up inception_4e/3x3_bn
I0109 14:38:03.769284  4932 net.cpp:167] Top shape: 72 192 7 7 (677376)
I0109 14:38:03.769290  4932 layer_factory.hpp:74] Creating layer inception_4e/relu_3x3
I0109 14:38:03.769295  4932 net.cpp:96] Creating Layer inception_4e/relu_3x3
I0109 14:38:03.769299  4932 net.cpp:459] inception_4e/relu_3x3 <- inception_4e/3x3_bn
I0109 14:38:03.769304  4932 net.cpp:404] inception_4e/relu_3x3 -> inception_4e/3x3_bn (in-place)
I0109 14:38:03.769309  4932 net.cpp:160] Setting up inception_4e/relu_3x3
I0109 14:38:03.769312  4932 net.cpp:167] Top shape: 72 192 7 7 (677376)
I0109 14:38:03.769316  4932 layer_factory.hpp:74] Creating layer inception_4e/double_3x3_reduce
I0109 14:38:03.769321  4932 net.cpp:96] Creating Layer inception_4e/double_3x3_reduce
I0109 14:38:03.769325  4932 net.cpp:459] inception_4e/double_3x3_reduce <- inception_4d/output_inception_4d/output_0_split_1
I0109 14:38:03.769330  4932 net.cpp:415] inception_4e/double_3x3_reduce -> inception_4e/double_3x3_reduce
I0109 14:38:03.769335  4932 net.cpp:160] Setting up inception_4e/double_3x3_reduce
I0109 14:38:03.769898  4932 net.cpp:167] Top shape: 72 192 14 14 (2709504)
I0109 14:38:03.769904  4932 layer_factory.hpp:74] Creating layer inception_4e/double_3x3_reduce_bn
I0109 14:38:03.769908  4932 layer_factory.cpp:177] Layer inception_4e/double_3x3_reduce_bn is using CAFFE engine.
I0109 14:38:03.769913  4932 net.cpp:96] Creating Layer inception_4e/double_3x3_reduce_bn
I0109 14:38:03.769917  4932 net.cpp:459] inception_4e/double_3x3_reduce_bn <- inception_4e/double_3x3_reduce
I0109 14:38:03.769922  4932 net.cpp:415] inception_4e/double_3x3_reduce_bn -> inception_4e/double_3x3_reduce_bn
I0109 14:38:03.769927  4932 net.cpp:160] Setting up inception_4e/double_3x3_reduce_bn
I0109 14:38:03.769939  4932 net.cpp:167] Top shape: 72 192 14 14 (2709504)
I0109 14:38:03.769947  4932 layer_factory.hpp:74] Creating layer inception_4e/relu_double_3x3_reduce
I0109 14:38:03.769953  4932 net.cpp:96] Creating Layer inception_4e/relu_double_3x3_reduce
I0109 14:38:03.769961  4932 net.cpp:459] inception_4e/relu_double_3x3_reduce <- inception_4e/double_3x3_reduce_bn
I0109 14:38:03.769965  4932 net.cpp:404] inception_4e/relu_double_3x3_reduce -> inception_4e/double_3x3_reduce_bn (in-place)
I0109 14:38:03.769969  4932 net.cpp:160] Setting up inception_4e/relu_double_3x3_reduce
I0109 14:38:03.769973  4932 net.cpp:167] Top shape: 72 192 14 14 (2709504)
I0109 14:38:03.769978  4932 layer_factory.hpp:74] Creating layer inception_4e/double_3x3_1
I0109 14:38:03.769982  4932 net.cpp:96] Creating Layer inception_4e/double_3x3_1
I0109 14:38:03.769986  4932 net.cpp:459] inception_4e/double_3x3_1 <- inception_4e/double_3x3_reduce_bn
I0109 14:38:03.769990  4932 net.cpp:415] inception_4e/double_3x3_1 -> inception_4e/double_3x3_1
I0109 14:38:03.769995  4932 net.cpp:160] Setting up inception_4e/double_3x3_1
I0109 14:38:03.772133  4932 net.cpp:167] Top shape: 72 256 14 14 (3612672)
I0109 14:38:03.772142  4932 layer_factory.hpp:74] Creating layer inception_4e/double_3x3_1_bn
I0109 14:38:03.772146  4932 layer_factory.cpp:177] Layer inception_4e/double_3x3_1_bn is using CAFFE engine.
I0109 14:38:03.772151  4932 net.cpp:96] Creating Layer inception_4e/double_3x3_1_bn
I0109 14:38:03.772156  4932 net.cpp:459] inception_4e/double_3x3_1_bn <- inception_4e/double_3x3_1
I0109 14:38:03.772161  4932 net.cpp:415] inception_4e/double_3x3_1_bn -> inception_4e/double_3x3_1_bn
I0109 14:38:03.772166  4932 net.cpp:160] Setting up inception_4e/double_3x3_1_bn
I0109 14:38:03.772179  4932 net.cpp:167] Top shape: 72 256 14 14 (3612672)
I0109 14:38:03.772186  4932 layer_factory.hpp:74] Creating layer inception_4e/relu_double_3x3_1
I0109 14:38:03.772191  4932 net.cpp:96] Creating Layer inception_4e/relu_double_3x3_1
I0109 14:38:03.772194  4932 net.cpp:459] inception_4e/relu_double_3x3_1 <- inception_4e/double_3x3_1_bn
I0109 14:38:03.772198  4932 net.cpp:404] inception_4e/relu_double_3x3_1 -> inception_4e/double_3x3_1_bn (in-place)
I0109 14:38:03.772202  4932 net.cpp:160] Setting up inception_4e/relu_double_3x3_1
I0109 14:38:03.772207  4932 net.cpp:167] Top shape: 72 256 14 14 (3612672)
I0109 14:38:03.772209  4932 layer_factory.hpp:74] Creating layer inception_4e/double_3x3_2
I0109 14:38:03.772215  4932 net.cpp:96] Creating Layer inception_4e/double_3x3_2
I0109 14:38:03.772219  4932 net.cpp:459] inception_4e/double_3x3_2 <- inception_4e/double_3x3_1_bn
I0109 14:38:03.772223  4932 net.cpp:415] inception_4e/double_3x3_2 -> inception_4e/double_3x3_2
I0109 14:38:03.772228  4932 net.cpp:160] Setting up inception_4e/double_3x3_2
I0109 14:38:03.775048  4932 net.cpp:167] Top shape: 72 256 7 7 (903168)
I0109 14:38:03.775055  4932 layer_factory.hpp:74] Creating layer inception_4e/double_3x3_2_bn
I0109 14:38:03.775058  4932 layer_factory.cpp:177] Layer inception_4e/double_3x3_2_bn is using CAFFE engine.
I0109 14:38:03.775063  4932 net.cpp:96] Creating Layer inception_4e/double_3x3_2_bn
I0109 14:38:03.775068  4932 net.cpp:459] inception_4e/double_3x3_2_bn <- inception_4e/double_3x3_2
I0109 14:38:03.775074  4932 net.cpp:415] inception_4e/double_3x3_2_bn -> inception_4e/double_3x3_2_bn
I0109 14:38:03.775079  4932 net.cpp:160] Setting up inception_4e/double_3x3_2_bn
I0109 14:38:03.775090  4932 net.cpp:167] Top shape: 72 256 7 7 (903168)
I0109 14:38:03.775096  4932 layer_factory.hpp:74] Creating layer inception_4e/relu_double_3x3_2
I0109 14:38:03.775101  4932 net.cpp:96] Creating Layer inception_4e/relu_double_3x3_2
I0109 14:38:03.775105  4932 net.cpp:459] inception_4e/relu_double_3x3_2 <- inception_4e/double_3x3_2_bn
I0109 14:38:03.775110  4932 net.cpp:404] inception_4e/relu_double_3x3_2 -> inception_4e/double_3x3_2_bn (in-place)
I0109 14:38:03.775113  4932 net.cpp:160] Setting up inception_4e/relu_double_3x3_2
I0109 14:38:03.775117  4932 net.cpp:167] Top shape: 72 256 7 7 (903168)
I0109 14:38:03.775120  4932 layer_factory.hpp:74] Creating layer inception_4e/pool
I0109 14:38:03.775125  4932 net.cpp:96] Creating Layer inception_4e/pool
I0109 14:38:03.775131  4932 net.cpp:459] inception_4e/pool <- inception_4d/output_inception_4d/output_0_split_2
I0109 14:38:03.775141  4932 net.cpp:415] inception_4e/pool -> inception_4e/pool
I0109 14:38:03.775146  4932 net.cpp:160] Setting up inception_4e/pool
I0109 14:38:03.775153  4932 net.cpp:167] Top shape: 72 608 7 7 (2145024)
I0109 14:38:03.775156  4932 layer_factory.hpp:74] Creating layer inception_4e/output
I0109 14:38:03.775161  4932 net.cpp:96] Creating Layer inception_4e/output
I0109 14:38:03.775166  4932 net.cpp:459] inception_4e/output <- inception_4e/3x3_bn
I0109 14:38:03.775168  4932 net.cpp:459] inception_4e/output <- inception_4e/double_3x3_2_bn
I0109 14:38:03.775172  4932 net.cpp:459] inception_4e/output <- inception_4e/pool
I0109 14:38:03.775177  4932 net.cpp:415] inception_4e/output -> inception_4e/output
I0109 14:38:03.775182  4932 net.cpp:160] Setting up inception_4e/output
I0109 14:38:03.775187  4932 net.cpp:167] Top shape: 72 1056 7 7 (3725568)
I0109 14:38:03.775190  4932 layer_factory.hpp:74] Creating layer inception_4e/output_inception_4e/output_0_split
I0109 14:38:03.775197  4932 net.cpp:96] Creating Layer inception_4e/output_inception_4e/output_0_split
I0109 14:38:03.775199  4932 net.cpp:459] inception_4e/output_inception_4e/output_0_split <- inception_4e/output
I0109 14:38:03.775204  4932 net.cpp:415] inception_4e/output_inception_4e/output_0_split -> inception_4e/output_inception_4e/output_0_split_0
I0109 14:38:03.775209  4932 net.cpp:415] inception_4e/output_inception_4e/output_0_split -> inception_4e/output_inception_4e/output_0_split_1
I0109 14:38:03.775215  4932 net.cpp:415] inception_4e/output_inception_4e/output_0_split -> inception_4e/output_inception_4e/output_0_split_2
I0109 14:38:03.775220  4932 net.cpp:415] inception_4e/output_inception_4e/output_0_split -> inception_4e/output_inception_4e/output_0_split_3
I0109 14:38:03.775225  4932 net.cpp:160] Setting up inception_4e/output_inception_4e/output_0_split
I0109 14:38:03.775230  4932 net.cpp:167] Top shape: 72 1056 7 7 (3725568)
I0109 14:38:03.775234  4932 net.cpp:167] Top shape: 72 1056 7 7 (3725568)
I0109 14:38:03.775238  4932 net.cpp:167] Top shape: 72 1056 7 7 (3725568)
I0109 14:38:03.775241  4932 net.cpp:167] Top shape: 72 1056 7 7 (3725568)
I0109 14:38:03.775244  4932 layer_factory.hpp:74] Creating layer inception_5a/1x1
I0109 14:38:03.775249  4932 net.cpp:96] Creating Layer inception_5a/1x1
I0109 14:38:03.775252  4932 net.cpp:459] inception_5a/1x1 <- inception_4e/output_inception_4e/output_0_split_0
I0109 14:38:03.775259  4932 net.cpp:415] inception_5a/1x1 -> inception_5a/1x1
I0109 14:38:03.775264  4932 net.cpp:160] Setting up inception_5a/1x1
I0109 14:38:03.777066  4932 net.cpp:167] Top shape: 72 352 7 7 (1241856)
I0109 14:38:03.777076  4932 layer_factory.hpp:74] Creating layer inception_5a/1x1_bn
I0109 14:38:03.777079  4932 layer_factory.cpp:177] Layer inception_5a/1x1_bn is using CAFFE engine.
I0109 14:38:03.777086  4932 net.cpp:96] Creating Layer inception_5a/1x1_bn
I0109 14:38:03.777089  4932 net.cpp:459] inception_5a/1x1_bn <- inception_5a/1x1
I0109 14:38:03.777096  4932 net.cpp:415] inception_5a/1x1_bn -> inception_5a/1x1_bn
I0109 14:38:03.777101  4932 net.cpp:160] Setting up inception_5a/1x1_bn
I0109 14:38:03.777114  4932 net.cpp:167] Top shape: 72 352 7 7 (1241856)
I0109 14:38:03.777122  4932 layer_factory.hpp:74] Creating layer inception_5a/relu_1x1
I0109 14:38:03.777125  4932 net.cpp:96] Creating Layer inception_5a/relu_1x1
I0109 14:38:03.777129  4932 net.cpp:459] inception_5a/relu_1x1 <- inception_5a/1x1_bn
I0109 14:38:03.777134  4932 net.cpp:404] inception_5a/relu_1x1 -> inception_5a/1x1_bn (in-place)
I0109 14:38:03.777138  4932 net.cpp:160] Setting up inception_5a/relu_1x1
I0109 14:38:03.777143  4932 net.cpp:167] Top shape: 72 352 7 7 (1241856)
I0109 14:38:03.777146  4932 layer_factory.hpp:74] Creating layer inception_5a/3x3_reduce
I0109 14:38:03.777151  4932 net.cpp:96] Creating Layer inception_5a/3x3_reduce
I0109 14:38:03.777154  4932 net.cpp:459] inception_5a/3x3_reduce <- inception_4e/output_inception_4e/output_0_split_1
I0109 14:38:03.777163  4932 net.cpp:415] inception_5a/3x3_reduce -> inception_5a/3x3_reduce
I0109 14:38:03.777173  4932 net.cpp:160] Setting up inception_5a/3x3_reduce
I0109 14:38:03.778144  4932 net.cpp:167] Top shape: 72 192 7 7 (677376)
I0109 14:38:03.778152  4932 layer_factory.hpp:74] Creating layer inception_5a/3x3_reduce_bn
I0109 14:38:03.778156  4932 layer_factory.cpp:177] Layer inception_5a/3x3_reduce_bn is using CAFFE engine.
I0109 14:38:03.778162  4932 net.cpp:96] Creating Layer inception_5a/3x3_reduce_bn
I0109 14:38:03.778165  4932 net.cpp:459] inception_5a/3x3_reduce_bn <- inception_5a/3x3_reduce
I0109 14:38:03.778170  4932 net.cpp:415] inception_5a/3x3_reduce_bn -> inception_5a/3x3_reduce_bn
I0109 14:38:03.778175  4932 net.cpp:160] Setting up inception_5a/3x3_reduce_bn
I0109 14:38:03.778187  4932 net.cpp:167] Top shape: 72 192 7 7 (677376)
I0109 14:38:03.778193  4932 layer_factory.hpp:74] Creating layer inception_5a/relu_3x3_reduce
I0109 14:38:03.778198  4932 net.cpp:96] Creating Layer inception_5a/relu_3x3_reduce
I0109 14:38:03.778201  4932 net.cpp:459] inception_5a/relu_3x3_reduce <- inception_5a/3x3_reduce_bn
I0109 14:38:03.778205  4932 net.cpp:404] inception_5a/relu_3x3_reduce -> inception_5a/3x3_reduce_bn (in-place)
I0109 14:38:03.778210  4932 net.cpp:160] Setting up inception_5a/relu_3x3_reduce
I0109 14:38:03.778214  4932 net.cpp:167] Top shape: 72 192 7 7 (677376)
I0109 14:38:03.778218  4932 layer_factory.hpp:74] Creating layer inception_5a/3x3
I0109 14:38:03.778223  4932 net.cpp:96] Creating Layer inception_5a/3x3
I0109 14:38:03.778225  4932 net.cpp:459] inception_5a/3x3 <- inception_5a/3x3_reduce_bn
I0109 14:38:03.778231  4932 net.cpp:415] inception_5a/3x3 -> inception_5a/3x3
I0109 14:38:03.778236  4932 net.cpp:160] Setting up inception_5a/3x3
I0109 14:38:03.781083  4932 net.cpp:167] Top shape: 72 320 7 7 (1128960)
I0109 14:38:03.781095  4932 layer_factory.hpp:74] Creating layer inception_5a/3x3_bn
I0109 14:38:03.781100  4932 layer_factory.cpp:177] Layer inception_5a/3x3_bn is using CAFFE engine.
I0109 14:38:03.781106  4932 net.cpp:96] Creating Layer inception_5a/3x3_bn
I0109 14:38:03.781111  4932 net.cpp:459] inception_5a/3x3_bn <- inception_5a/3x3
I0109 14:38:03.781116  4932 net.cpp:415] inception_5a/3x3_bn -> inception_5a/3x3_bn
I0109 14:38:03.781123  4932 net.cpp:160] Setting up inception_5a/3x3_bn
I0109 14:38:03.781137  4932 net.cpp:167] Top shape: 72 320 7 7 (1128960)
I0109 14:38:03.781144  4932 layer_factory.hpp:74] Creating layer inception_5a/relu_3x3
I0109 14:38:03.781148  4932 net.cpp:96] Creating Layer inception_5a/relu_3x3
I0109 14:38:03.781152  4932 net.cpp:459] inception_5a/relu_3x3 <- inception_5a/3x3_bn
I0109 14:38:03.781157  4932 net.cpp:404] inception_5a/relu_3x3 -> inception_5a/3x3_bn (in-place)
I0109 14:38:03.781162  4932 net.cpp:160] Setting up inception_5a/relu_3x3
I0109 14:38:03.781165  4932 net.cpp:167] Top shape: 72 320 7 7 (1128960)
I0109 14:38:03.781168  4932 layer_factory.hpp:74] Creating layer inception_5a/double_3x3_reduce
I0109 14:38:03.781175  4932 net.cpp:96] Creating Layer inception_5a/double_3x3_reduce
I0109 14:38:03.781179  4932 net.cpp:459] inception_5a/double_3x3_reduce <- inception_4e/output_inception_4e/output_0_split_2
I0109 14:38:03.781183  4932 net.cpp:415] inception_5a/double_3x3_reduce -> inception_5a/double_3x3_reduce
I0109 14:38:03.781189  4932 net.cpp:160] Setting up inception_5a/double_3x3_reduce
I0109 14:38:03.782006  4932 net.cpp:167] Top shape: 72 160 7 7 (564480)
I0109 14:38:03.782013  4932 layer_factory.hpp:74] Creating layer inception_5a/double_3x3_reduce_bn
I0109 14:38:03.782017  4932 layer_factory.cpp:177] Layer inception_5a/double_3x3_reduce_bn is using CAFFE engine.
I0109 14:38:03.782023  4932 net.cpp:96] Creating Layer inception_5a/double_3x3_reduce_bn
…
I0109 14:38:04.520376  4932 net.cpp:459] inception_4d/double_3x3_reduce <- inception_4c/output_inception_4c/output_0_split_2
I0109 14:38:04.520385  4932 net.cpp:415] inception_4d/double_3x3_reduce -> inception_4d/double_3x3_reduce
I0109 14:38:04.520391  4932 net.cpp:160] Setting up inception_4d/double_3x3_reduce
I0109 14:38:04.521164  4932 net.cpp:167] Top shape: 3 160 14 14 (94080)
I0109 14:38:04.521173  4932 layer_factory.hpp:74] Creating layer inception_4d/double_3x3_reduce_bn
I0109 14:38:04.521178  4932 layer_factory.cpp:177] Layer inception_4d/double_3x3_reduce_bn is using CAFFE engine.
I0109 14:38:04.521184  4932 net.cpp:96] Creating Layer inception_4d/double_3x3_reduce_bn
I0109 14:38:04.521189  4932 net.cpp:459] inception_4d/double_3x3_reduce_bn <- inception_4d/double_3x3_reduce
I0109 14:38:04.521196  4932 net.cpp:415] inception_4d/double_3x3_reduce_bn -> inception_4d/double_3x3_reduce_bn
I0109 14:38:04.521203  4932 net.cpp:160] Setting up inception_4d/double_3x3_reduce_bn
I0109 14:38:04.521219  4932 net.cpp:167] Top shape: 3 160 14 14 (94080)
I0109 14:38:04.521227  4932 layer_factory.hpp:74] Creating layer inception_4d/relu_double_3x3_reduce
I0109 14:38:04.521234  4932 net.cpp:96] Creating Layer inception_4d/relu_double_3x3_reduce
I0109 14:38:04.521239  4932 net.cpp:459] inception_4d/relu_double_3x3_reduce <- inception_4d/double_3x3_reduce_bn
I0109 14:38:04.521245  4932 net.cpp:404] inception_4d/relu_double_3x3_reduce -> inception_4d/double_3x3_reduce_bn (in-place)
I0109 14:38:04.521250  4932 net.cpp:160] Setting up inception_4d/relu_double_3x3_reduce
I0109 14:38:04.521256  4932 net.cpp:167] Top shape: 3 160 14 14 (94080)
I0109 14:38:04.521260  4932 layer_factory.hpp:74] Creating layer inception_4d/double_3x3_1
I0109 14:38:04.521267  4932 net.cpp:96] Creating Layer inception_4d/double_3x3_1
I0109 14:38:04.521271  4932 net.cpp:459] inception_4d/double_3x3_1 <- inception_4d/double_3x3_reduce_bn
I0109 14:38:04.521278  4932 net.cpp:415] inception_4d/double_3x3_1 -> inception_4d/double_3x3_1
I0109 14:38:04.521286  4932 net.cpp:160] Setting up inception_4d/double_3x3_1
I0109 14:38:04.523375  4932 net.cpp:167] Top shape: 3 192 14 14 (112896)
I0109 14:38:04.523386  4932 layer_factory.hpp:74] Creating layer inception_4d/double_3x3_1_bn
I0109 14:38:04.523388  4932 layer_factory.cpp:177] Layer inception_4d/double_3x3_1_bn is using CAFFE engine.
I0109 14:38:04.523394  4932 net.cpp:96] Creating Layer inception_4d/double_3x3_1_bn
I0109 14:38:04.523398  4932 net.cpp:459] inception_4d/double_3x3_1_bn <- inception_4d/double_3x3_1
I0109 14:38:04.523403  4932 net.cpp:415] inception_4d/double_3x3_1_bn -> inception_4d/double_3x3_1_bn
I0109 14:38:04.523408  4932 net.cpp:160] Setting up inception_4d/double_3x3_1_bn
I0109 14:38:04.523419  4932 net.cpp:167] Top shape: 3 192 14 14 (112896)
I0109 14:38:04.523425  4932 layer_factory.hpp:74] Creating layer inception_4d/relu_double_3x3_1
I0109 14:38:04.523429  4932 net.cpp:96] Creating Layer inception_4d/relu_double_3x3_1
I0109 14:38:04.523432  4932 net.cpp:459] inception_4d/relu_double_3x3_1 <- inception_4d/double_3x3_1_bn
I0109 14:38:04.523435  4932 net.cpp:404] inception_4d/relu_double_3x3_1 -> inception_4d/double_3x3_1_bn (in-place)
I0109 14:38:04.523439  4932 net.cpp:160] Setting up inception_4d/relu_double_3x3_1
I0109 14:38:04.523443  4932 net.cpp:167] Top shape: 3 192 14 14 (112896)
I0109 14:38:04.523447  4932 layer_factory.hpp:74] Creating layer inception_4d/double_3x3_2
I0109 14:38:04.523452  4932 net.cpp:96] Creating Layer inception_4d/double_3x3_2
I0109 14:38:04.523454  4932 net.cpp:459] inception_4d/double_3x3_2 <- inception_4d/double_3x3_1_bn
I0109 14:38:04.523459  4932 net.cpp:415] inception_4d/double_3x3_2 -> inception_4d/double_3x3_2
I0109 14:38:04.523464  4932 net.cpp:160] Setting up inception_4d/double_3x3_2
I0109 14:38:04.524869  4932 net.cpp:167] Top shape: 3 192 14 14 (112896)
I0109 14:38:04.524883  4932 layer_factory.hpp:74] Creating layer inception_4d/double_3x3_2_bn
I0109 14:38:04.524886  4932 layer_factory.cpp:177] Layer inception_4d/double_3x3_2_bn is using CAFFE engine.
I0109 14:38:04.524893  4932 net.cpp:96] Creating Layer inception_4d/double_3x3_2_bn
I0109 14:38:04.524896  4932 net.cpp:459] inception_4d/double_3x3_2_bn <- inception_4d/double_3x3_2
I0109 14:38:04.524901  4932 net.cpp:415] inception_4d/double_3x3_2_bn -> inception_4d/double_3x3_2_bn
I0109 14:38:04.524906  4932 net.cpp:160] Setting up inception_4d/double_3x3_2_bn
I0109 14:38:04.524916  4932 net.cpp:167] Top shape: 3 192 14 14 (112896)
I0109 14:38:04.524922  4932 layer_factory.hpp:74] Creating layer inception_4d/relu_double_3x3_2
I0109 14:38:04.524927  4932 net.cpp:96] Creating Layer inception_4d/relu_double_3x3_2
I0109 14:38:04.524930  4932 net.cpp:459] inception_4d/relu_double_3x3_2 <- inception_4d/double_3x3_2_bn
I0109 14:38:04.524933  4932 net.cpp:404] inception_4d/relu_double_3x3_2 -> inception_4d/double_3x3_2_bn (in-place)
I0109 14:38:04.524937  4932 net.cpp:160] Setting up inception_4d/relu_double_3x3_2
I0109 14:38:04.524941  4932 net.cpp:167] Top shape: 3 192 14 14 (112896)
I0109 14:38:04.524943  4932 layer_factory.hpp:74] Creating layer inception_4d/pool
I0109 14:38:04.524948  4932 net.cpp:96] Creating Layer inception_4d/pool
I0109 14:38:04.524951  4932 net.cpp:459] inception_4d/pool <- inception_4c/output_inception_4c/output_0_split_3
I0109 14:38:04.524955  4932 net.cpp:415] inception_4d/pool -> inception_4d/pool
I0109 14:38:04.524960  4932 net.cpp:160] Setting up inception_4d/pool
I0109 14:38:04.524965  4932 net.cpp:167] Top shape: 3 608 14 14 (357504)
I0109 14:38:04.524967  4932 layer_factory.hpp:74] Creating layer inception_4d/pool_proj
I0109 14:38:04.524973  4932 net.cpp:96] Creating Layer inception_4d/pool_proj
I0109 14:38:04.524976  4932 net.cpp:459] inception_4d/pool_proj <- inception_4d/pool
I0109 14:38:04.524981  4932 net.cpp:415] inception_4d/pool_proj -> inception_4d/pool_proj
I0109 14:38:04.524986  4932 net.cpp:160] Setting up inception_4d/pool_proj
I0109 14:38:04.525321  4932 net.cpp:167] Top shape: 3 128 14 14 (75264)
I0109 14:38:04.525327  4932 layer_factory.hpp:74] Creating layer inception_4d/pool_proj_bn
I0109 14:38:04.525331  4932 layer_factory.cpp:177] Layer inception_4d/pool_proj_bn is using CAFFE engine.
I0109 14:38:04.525336  4932 net.cpp:96] Creating Layer inception_4d/pool_proj_bn
I0109 14:38:04.525339  4932 net.cpp:459] inception_4d/pool_proj_bn <- inception_4d/pool_proj
I0109 14:38:04.525343  4932 net.cpp:415] inception_4d/pool_proj_bn -> inception_4d/pool_proj_bn
I0109 14:38:04.525348  4932 net.cpp:160] Setting up inception_4d/pool_proj_bn
I0109 14:38:04.525357  4932 net.cpp:167] Top shape: 3 128 14 14 (75264)
I0109 14:38:04.525363  4932 layer_factory.hpp:74] Creating layer inception_4d/relu_pool_proj
I0109 14:38:04.525367  4932 net.cpp:96] Creating Layer inception_4d/relu_pool_proj
I0109 14:38:04.525370  4932 net.cpp:459] inception_4d/relu_pool_proj <- inception_4d/pool_proj_bn
I0109 14:38:04.525374  4932 net.cpp:404] inception_4d/relu_pool_proj -> inception_4d/pool_proj_bn (in-place)
I0109 14:38:04.525378  4932 net.cpp:160] Setting up inception_4d/relu_pool_proj
I0109 14:38:04.525382  4932 net.cpp:167] Top shape: 3 128 14 14 (75264)
I0109 14:38:04.525385  4932 layer_factory.hpp:74] Creating layer inception_4d/output
I0109 14:38:04.525389  4932 net.cpp:96] Creating Layer inception_4d/output
I0109 14:38:04.525393  4932 net.cpp:459] inception_4d/output <- inception_4d/1x1_bn
I0109 14:38:04.525395  4932 net.cpp:459] inception_4d/output <- inception_4d/3x3_bn
I0109 14:38:04.525399  4932 net.cpp:459] inception_4d/output <- inception_4d/double_3x3_2_bn
I0109 14:38:04.525403  4932 net.cpp:459] inception_4d/output <- inception_4d/pool_proj_bn
I0109 14:38:04.525406  4932 net.cpp:415] inception_4d/output -> inception_4d/output
I0109 14:38:04.525410  4932 net.cpp:160] Setting up inception_4d/output
I0109 14:38:04.525414  4932 net.cpp:167] Top shape: 3 608 14 14 (357504)
I0109 14:38:04.525420  4932 layer_factory.hpp:74] Creating layer inception_4d/output_inception_4d/output_0_split
I0109 14:38:04.525427  4932 net.cpp:96] Creating Layer inception_4d/output_inception_4d/output_0_split
I0109 14:38:04.525430  4932 net.cpp:459] inception_4d/output_inception_4d/output_0_split <- inception_4d/output
I0109 14:38:04.525436  4932 net.cpp:415] inception_4d/output_inception_4d/output_0_split -> inception_4d/output_inception_4d/output_0_split_0
I0109 14:38:04.525440  4932 net.cpp:415] inception_4d/output_inception_4d/output_0_split -> inception_4d/output_inception_4d/output_0_split_1
I0109 14:38:04.525445  4932 net.cpp:415] inception_4d/output_inception_4d/output_0_split -> inception_4d/output_inception_4d/output_0_split_2
I0109 14:38:04.525449  4932 net.cpp:160] Setting up inception_4d/output_inception_4d/output_0_split
I0109 14:38:04.525454  4932 net.cpp:167] Top shape: 3 608 14 14 (357504)
I0109 14:38:04.525459  4932 net.cpp:167] Top shape: 3 608 14 14 (357504)
I0109 14:38:04.525461  4932 net.cpp:167] Top shape: 3 608 14 14 (357504)
I0109 14:38:04.525465  4932 layer_factory.hpp:74] Creating layer inception_4e/3x3_reduce
I0109 14:38:04.525470  4932 net.cpp:96] Creating Layer inception_4e/3x3_reduce
I0109 14:38:04.525472  4932 net.cpp:459] inception_4e/3x3_reduce <- inception_4d/output_inception_4d/output_0_split_0
I0109 14:38:04.525477  4932 net.cpp:415] inception_4e/3x3_reduce -> inception_4e/3x3_reduce
I0109 14:38:04.525482  4932 net.cpp:160] Setting up inception_4e/3x3_reduce
I0109 14:38:04.525815  4932 net.cpp:167] Top shape: 3 128 14 14 (75264)
I0109 14:38:04.525821  4932 layer_factory.hpp:74] Creating layer inception_4e/3x3_reduce_bn
I0109 14:38:04.525825  4932 layer_factory.cpp:177] Layer inception_4e/3x3_reduce_bn is using CAFFE engine.
I0109 14:38:04.525830  4932 net.cpp:96] Creating Layer inception_4e/3x3_reduce_bn
I0109 14:38:04.525832  4932 net.cpp:459] inception_4e/3x3_reduce_bn <- inception_4e/3x3_reduce
I0109 14:38:04.525837  4932 net.cpp:415] inception_4e/3x3_reduce_bn -> inception_4e/3x3_reduce_bn
I0109 14:38:04.525842  4932 net.cpp:160] Setting up inception_4e/3x3_reduce_bn
I0109 14:38:04.525853  4932 net.cpp:167] Top shape: 3 128 14 14 (75264)
I0109 14:38:04.525859  4932 layer_factory.hpp:74] Creating layer inception_4e/relu_3x3_reduce
I0109 14:38:04.525863  4932 net.cpp:96] Creating Layer inception_4e/relu_3x3_reduce
I0109 14:38:04.525867  4932 net.cpp:459] inception_4e/relu_3x3_reduce <- inception_4e/3x3_reduce_bn
I0109 14:38:04.525871  4932 net.cpp:404] inception_4e/relu_3x3_reduce -> inception_4e/3x3_reduce_bn (in-place)
I0109 14:38:04.525874  4932 net.cpp:160] Setting up inception_4e/relu_3x3_reduce
I0109 14:38:04.525878  4932 net.cpp:167] Top shape: 3 128 14 14 (75264)
I0109 14:38:04.525882  4932 layer_factory.hpp:74] Creating layer inception_4e/3x3
I0109 14:38:04.525887  4932 net.cpp:96] Creating Layer inception_4e/3x3
I0109 14:38:04.525889  4932 net.cpp:459] inception_4e/3x3 <- inception_4e/3x3_reduce_bn
I0109 14:38:04.525894  4932 net.cpp:415] inception_4e/3x3 -> inception_4e/3x3
I0109 14:38:04.525898  4932 net.cpp:160] Setting up inception_4e/3x3
I0109 14:38:04.526832  4932 net.cpp:167] Top shape: 3 192 7 7 (28224)
I0109 14:38:04.526839  4932 layer_factory.hpp:74] Creating layer inception_4e/3x3_bn
I0109 14:38:04.526842  4932 layer_factory.cpp:177] Layer inception_4e/3x3_bn is using CAFFE engine.
I0109 14:38:04.526847  4932 net.cpp:96] Creating Layer inception_4e/3x3_bn
I0109 14:38:04.526850  4932 net.cpp:459] inception_4e/3x3_bn <- inception_4e/3x3
I0109 14:38:04.526855  4932 net.cpp:415] inception_4e/3x3_bn -> inception_4e/3x3_bn
I0109 14:38:04.526859  4932 net.cpp:160] Setting up inception_4e/3x3_bn
I0109 14:38:04.526870  4932 net.cpp:167] Top shape: 3 192 7 7 (28224)
I0109 14:38:04.526875  4932 layer_factory.hpp:74] Creating layer inception_4e/relu_3x3
I0109 14:38:04.526880  4932 net.cpp:96] Creating Layer inception_4e/relu_3x3
I0109 14:38:04.526882  4932 net.cpp:459] inception_4e/relu_3x3 <- inception_4e/3x3_bn
I0109 14:38:04.526887  4932 net.cpp:404] inception_4e/relu_3x3 -> inception_4e/3x3_bn (in-place)
I0109 14:38:04.526896  4932 net.cpp:160] Setting up inception_4e/relu_3x3
I0109 14:38:04.526899  4932 net.cpp:167] Top shape: 3 192 7 7 (28224)
I0109 14:38:04.526902  4932 layer_factory.hpp:74] Creating layer inception_4e/double_3x3_reduce
I0109 14:38:04.526907  4932 net.cpp:96] Creating Layer inception_4e/double_3x3_reduce
I0109 14:38:04.526911  4932 net.cpp:459] inception_4e/double_3x3_reduce <- inception_4d/output_inception_4d/output_0_split_1
I0109 14:38:04.526914  4932 net.cpp:415] inception_4e/double_3x3_reduce -> inception_4e/double_3x3_reduce
I0109 14:38:04.526918  4932 net.cpp:160] Setting up inception_4e/double_3x3_reduce
I0109 14:38:04.527415  4932 net.cpp:167] Top shape: 3 192 14 14 (112896)
I0109 14:38:04.527421  4932 layer_factory.hpp:74] Creating layer inception_4e/double_3x3_reduce_bn
I0109 14:38:04.527425  4932 layer_factory.cpp:177] Layer inception_4e/double_3x3_reduce_bn is using CAFFE engine.
I0109 14:38:04.527428  4932 net.cpp:96] Creating Layer inception_4e/double_3x3_reduce_bn
I0109 14:38:04.527432  4932 net.cpp:459] inception_4e/double_3x3_reduce_bn <- inception_4e/double_3x3_reduce
I0109 14:38:04.527436  4932 net.cpp:415] inception_4e/double_3x3_reduce_bn -> inception_4e/double_3x3_reduce_bn
I0109 14:38:04.527441  4932 net.cpp:160] Setting up inception_4e/double_3x3_reduce_bn
I0109 14:38:04.527452  4932 net.cpp:167] Top shape: 3 192 14 14 (112896)
I0109 14:38:04.527457  4932 layer_factory.hpp:74] Creating layer inception_4e/relu_double_3x3_reduce
I0109 14:38:04.527462  4932 net.cpp:96] Creating Layer inception_4e/relu_double_3x3_reduce
I0109 14:38:04.527465  4932 net.cpp:459] inception_4e/relu_double_3x3_reduce <- inception_4e/double_3x3_reduce_bn
I0109 14:38:04.527468  4932 net.cpp:404] inception_4e/relu_double_3x3_reduce -> inception_4e/double_3x3_reduce_bn (in-place)
I0109 14:38:04.527472  4932 net.cpp:160] Setting up inception_4e/relu_double_3x3_reduce
I0109 14:38:04.527477  4932 net.cpp:167] Top shape: 3 192 14 14 (112896)
I0109 14:38:04.527478  4932 layer_factory.hpp:74] Creating layer inception_4e/double_3x3_1
I0109 14:38:04.527483  4932 net.cpp:96] Creating Layer inception_4e/double_3x3_1
I0109 14:38:04.527487  4932 net.cpp:459] inception_4e/double_3x3_1 <- inception_4e/double_3x3_reduce_bn
I0109 14:38:04.527490  4932 net.cpp:415] inception_4e/double_3x3_1 -> inception_4e/double_3x3_1
I0109 14:38:04.527495  4932 net.cpp:160] Setting up inception_4e/double_3x3_1
I0109 14:38:04.529364  4932 net.cpp:167] Top shape: 3 256 14 14 (150528)
I0109 14:38:04.529372  4932 layer_factory.hpp:74] Creating layer inception_4e/double_3x3_1_bn
I0109 14:38:04.529376  4932 layer_factory.cpp:177] Layer inception_4e/double_3x3_1_bn is using CAFFE engine.
I0109 14:38:04.529381  4932 net.cpp:96] Creating Layer inception_4e/double_3x3_1_bn
I0109 14:38:04.529383  4932 net.cpp:459] inception_4e/double_3x3_1_bn <- inception_4e/double_3x3_1
I0109 14:38:04.529389  4932 net.cpp:415] inception_4e/double_3x3_1_bn -> inception_4e/double_3x3_1_bn
I0109 14:38:04.529394  4932 net.cpp:160] Setting up inception_4e/double_3x3_1_bn
I0109 14:38:04.529404  4932 net.cpp:167] Top shape: 3 256 14 14 (150528)
I0109 14:38:04.529410  4932 layer_factory.hpp:74] Creating layer inception_4e/relu_double_3x3_1
I0109 14:38:04.529414  4932 net.cpp:96] Creating Layer inception_4e/relu_double_3x3_1
I0109 14:38:04.529418  4932 net.cpp:459] inception_4e/relu_double_3x3_1 <- inception_4e/double_3x3_1_bn
I0109 14:38:04.529422  4932 net.cpp:404] inception_4e/relu_double_3x3_1 -> inception_4e/double_3x3_1_bn (in-place)
I0109 14:38:04.529425  4932 net.cpp:160] Setting up inception_4e/relu_double_3x3_1
I0109 14:38:04.529428  4932 net.cpp:167] Top shape: 3 256 14 14 (150528)
I0109 14:38:04.529431  4932 layer_factory.hpp:74] Creating layer inception_4e/double_3x3_2
I0109 14:38:04.529436  4932 net.cpp:96] Creating Layer inception_4e/double_3x3_2
I0109 14:38:04.529439  4932 net.cpp:459] inception_4e/double_3x3_2 <- inception_4e/double_3x3_1_bn
I0109 14:38:04.529443  4932 net.cpp:415] inception_4e/double_3x3_2 -> inception_4e/double_3x3_2
I0109 14:38:04.529453  4932 net.cpp:160] Setting up inception_4e/double_3x3_2
I0109 14:38:04.531926  4932 net.cpp:167] Top shape: 3 256 7 7 (37632)
I0109 14:38:04.531934  4932 layer_factory.hpp:74] Creating layer inception_4e/double_3x3_2_bn
I0109 14:38:04.531936  4932 layer_factory.cpp:177] Layer inception_4e/double_3x3_2_bn is using CAFFE engine.
I0109 14:38:04.531941  4932 net.cpp:96] Creating Layer inception_4e/double_3x3_2_bn
I0109 14:38:04.531944  4932 net.cpp:459] inception_4e/double_3x3_2_bn <- inception_4e/double_3x3_2
I0109 14:38:04.531949  4932 net.cpp:415] inception_4e/double_3x3_2_bn -> inception_4e/double_3x3_2_bn
I0109 14:38:04.531955  4932 net.cpp:160] Setting up inception_4e/double_3x3_2_bn
I0109 14:38:04.531965  4932 net.cpp:167] Top shape: 3 256 7 7 (37632)
I0109 14:38:04.531970  4932 layer_factory.hpp:74] Creating layer inception_4e/relu_double_3x3_2
I0109 14:38:04.531975  4932 net.cpp:96] Creating Layer inception_4e/relu_double_3x3_2
I0109 14:38:04.531976  4932 net.cpp:459] inception_4e/relu_double_3x3_2 <- inception_4e/double_3x3_2_bn
I0109 14:38:04.531981  4932 net.cpp:404] inception_4e/relu_double_3x3_2 -> inception_4e/double_3x3_2_bn (in-place)
I0109 14:38:04.531985  4932 net.cpp:160] Setting up inception_4e/relu_double_3x3_2
I0109 14:38:04.531988  4932 net.cpp:167] Top shape: 3 256 7 7 (37632)
I0109 14:38:04.531991  4932 layer_factory.hpp:74] Creating layer inception_4e/pool
I0109 14:38:04.531996  4932 net.cpp:96] Creating Layer inception_4e/pool
I0109 14:38:04.531998  4932 net.cpp:459] inception_4e/pool <- inception_4d/output_inception_4d/output_0_split_2
I0109 14:38:04.532003  4932 net.cpp:415] inception_4e/pool -> inception_4e/pool
I0109 14:38:04.532007  4932 net.cpp:160] Setting up inception_4e/pool
I0109 14:38:04.532013  4932 net.cpp:167] Top shape: 3 608 7 7 (89376)
I0109 14:38:04.532016  4932 layer_factory.hpp:74] Creating layer inception_4e/output
I0109 14:38:04.532021  4932 net.cpp:96] Creating Layer inception_4e/output
I0109 14:38:04.532023  4932 net.cpp:459] inception_4e/output <- inception_4e/3x3_bn
I0109 14:38:04.532027  4932 net.cpp:459] inception_4e/output <- inception_4e/double_3x3_2_bn
I0109 14:38:04.532030  4932 net.cpp:459] inception_4e/output <- inception_4e/pool
I0109 14:38:04.532034  4932 net.cpp:415] inception_4e/output -> inception_4e/output
I0109 14:38:04.532038  4932 net.cpp:160] Setting up inception_4e/output
I0109 14:38:04.532042  4932 net.cpp:167] Top shape: 3 1056 7 7 (155232)
I0109 14:38:04.532045  4932 layer_factory.hpp:74] Creating layer inception_4e/output_inception_4e/output_0_split
I0109 14:38:04.532052  4932 net.cpp:96] Creating Layer inception_4e/output_inception_4e/output_0_split
I0109 14:38:04.532054  4932 net.cpp:459] inception_4e/output_inception_4e/output_0_split <- inception_4e/output
I0109 14:38:04.532058  4932 net.cpp:415] inception_4e/output_inception_4e/output_0_split -> inception_4e/output_inception_4e/output_0_split_0
I0109 14:38:04.532063  4932 net.cpp:415] inception_4e/output_inception_4e/output_0_split -> inception_4e/output_inception_4e/output_0_split_1
I0109 14:38:04.532068  4932 net.cpp:415] inception_4e/output_inception_4e/output_0_split -> inception_4e/output_inception_4e/output_0_split_2
I0109 14:38:04.532071  4932 net.cpp:415] inception_4e/output_inception_4e/output_0_split -> inception_4e/output_inception_4e/output_0_split_3
I0109 14:38:04.532076  4932 net.cpp:160] Setting up inception_4e/output_inception_4e/output_0_split
I0109 14:38:04.532081  4932 net.cpp:167] Top shape: 3 1056 7 7 (155232)
I0109 14:38:04.532084  4932 net.cpp:167] Top shape: 3 1056 7 7 (155232)
I0109 14:38:04.532088  4932 net.cpp:167] Top shape: 3 1056 7 7 (155232)
I0109 14:38:04.532091  4932 net.cpp:167] Top shape: 3 1056 7 7 (155232)
I0109 14:38:04.532094  4932 layer_factory.hpp:74] Creating layer inception_5a/1x1
I0109 14:38:04.532099  4932 net.cpp:96] Creating Layer inception_5a/1x1
I0109 14:38:04.532101  4932 net.cpp:459] inception_5a/1x1 <- inception_4e/output_inception_4e/output_0_split_0
I0109 14:38:04.532106  4932 net.cpp:415] inception_5a/1x1 -> inception_5a/1x1
I0109 14:38:04.532124  4932 net.cpp:160] Setting up inception_5a/1x1
I0109 14:38:04.533684  4932 net.cpp:167] Top shape: 3 352 7 7 (51744)
I0109 14:38:04.533691  4932 layer_factory.hpp:74] Creating layer inception_5a/1x1_bn
I0109 14:38:04.533694  4932 layer_factory.cpp:177] Layer inception_5a/1x1_bn is using CAFFE engine.
I0109 14:38:04.533699  4932 net.cpp:96] Creating Layer inception_5a/1x1_bn
I0109 14:38:04.533704  4932 net.cpp:459] inception_5a/1x1_bn <- inception_5a/1x1
I0109 14:38:04.533709  4932 net.cpp:415] inception_5a/1x1_bn -> inception_5a/1x1_bn
I0109 14:38:04.533713  4932 net.cpp:160] Setting up inception_5a/1x1_bn
I0109 14:38:04.533725  4932 net.cpp:167] Top shape: 3 352 7 7 (51744)
I0109 14:38:04.533730  4932 layer_factory.hpp:74] Creating layer inception_5a/relu_1x1
I0109 14:38:04.533735  4932 net.cpp:96] Creating Layer inception_5a/relu_1x1
I0109 14:38:04.533737  4932 net.cpp:459] inception_5a/relu_1x1 <- inception_5a/1x1_bn
I0109 14:38:04.533741  4932 net.cpp:404] inception_5a/relu_1x1 -> inception_5a/1x1_bn (in-place)
I0109 14:38:04.533746  4932 net.cpp:160] Setting up inception_5a/relu_1x1
I0109 14:38:04.533748  4932 net.cpp:167] Top shape: 3 352 7 7 (51744)
I0109 14:38:04.533751  4932 layer_factory.hpp:74] Creating layer inception_5a/3x3_reduce
I0109 14:38:04.533756  4932 net.cpp:96] Creating Layer inception_5a/3x3_reduce
I0109 14:38:04.533759  4932 net.cpp:459] inception_5a/3x3_reduce <- inception_4e/output_inception_4e/output_0_split_1
I0109 14:38:04.533764  4932 net.cpp:415] inception_5a/3x3_reduce -> inception_5a/3x3_reduce
I0109 14:38:04.533769  4932 net.cpp:160] Setting up inception_5a/3x3_reduce
I0109 14:38:04.534626  4932 net.cpp:167] Top shape: 3 192 7 7 (28224)
I0109 14:38:04.534632  4932 layer_factory.hpp:74] Creating layer inception_5a/3x3_reduce_bn
I0109 14:38:04.534636  4932 layer_factory.cpp:177] Layer inception_5a/3x3_reduce_bn is using CAFFE engine.
I0109 14:38:04.534641  4932 net.cpp:96] Creating Layer inception_5a/3x3_reduce_bn
I0109 14:38:04.534643  4932 net.cpp:459] inception_5a/3x3_reduce_bn <- inception_5a/3x3_reduce
I0109 14:38:04.534648  4932 net.cpp:415] inception_5a/3x3_reduce_bn -> inception_5a/3x3_reduce_bn
I0109 14:38:04.534653  4932 net.cpp:160] Setting up inception_5a/3x3_reduce_bn
I0109 14:38:04.534663  4932 net.cpp:167] Top shape: 3 192 7 7 (28224)
I0109 14:38:04.534668  4932 layer_factory.hpp:74] Creating layer inception_5a/relu_3x3_reduce
I0109 14:38:04.534673  4932 net.cpp:96] Creating Layer inception_5a/relu_3x3_reduce
I0109 14:38:04.534677  4932 net.cpp:459] inception_5a/relu_3x3_reduce <- inception_5a/3x3_reduce_bn
I0109 14:38:04.534680  4932 net.cpp:404] inception_5a/relu_3x3_reduce -> inception_5a/3x3_reduce_bn (in-place)
I0109 14:38:04.534684  4932 net.cpp:160] Setting up inception_5a/relu_3x3_reduce
I0109 14:38:04.534687  4932 net.cpp:167] Top shape: 3 192 7 7 (28224)
I0109 14:38:04.534690  4932 layer_factory.hpp:74] Creating layer inception_5a/3x3
I0109 14:38:04.534695  4932 net.cpp:96] Creating Layer inception_5a/3x3
I0109 14:38:04.534698  4932 net.cpp:459] inception_5a/3x3 <- inception_5a/3x3_reduce_bn
I0109 14:38:04.534703  4932 net.cpp:415] inception_5a/3x3 -> inception_5a/3x3
I0109 14:38:04.534708  4932 net.cpp:160] Setting up inception_5a/3x3
I0109 14:38:04.537035  4932 net.cpp:167] Top shape: 3 320 7 7 (47040)
I0109 14:38:04.537044  4932 layer_factory.hpp:74] Creating layer inception_5a/3x3_bn
I0109 14:38:04.537046  4932 layer_factory.cpp:177] Layer inception_5a/3x3_bn is using CAFFE engine.
I0109 14:38:04.537051  4932 net.cpp:96] Creating Layer inception_5a/3x3_bn
I0109 14:38:04.537055  4932 net.cpp:459] inception_5a/3x3_bn <- inception_5a/3x3
I0109 14:38:04.537060  4932 net.cpp:415] inception_5a/3x3_bn -> inception_5a/3x3_bn
I0109 14:38:04.537065  4932 net.cpp:160] Setting up inception_5a/3x3_bn
I0109 14:38:04.537075  4932 net.cpp:167] Top shape: 3 320 7 7 (47040)
I0109 14:38:04.537081  4932 layer_factory.hpp:74] Creating layer inception_5a/relu_3x3
I0109 14:38:04.537084  4932 net.cpp:96] Creating Layer inception_5a/relu_3x3
I0109 14:38:04.537089  4932 net.cpp:459] inception_5a/relu_3x3 <- inception_5a/3x3_bn
I0109 14:38:04.537098  4932 net.cpp:404] inception_5a/relu_3x3 -> inception_5a/3x3_bn (in-place)
I0109 14:38:04.537102  4932 net.cpp:160] Setting up inception_5a/relu_3x3
I0109 14:38:04.537106  4932 net.cpp:167] Top shape: 3 320 7 7 (47040)
I0109 14:38:04.537108  4932 layer_factory.hpp:74] Creating layer inception_5a/double_3x3_reduce
I0109 14:38:04.537113  4932 net.cpp:96] Creating Layer inception_5a/double_3x3_reduce
I0109 14:38:04.537117  4932 net.cpp:459] inception_5a/double_3x3_reduce <- inception_4e/output_inception_4e/output_0_split_2
I0109 14:38:04.537122  4932 net.cpp:415] inception_5a/double_3x3_reduce -> inception_5a/double_3x3_reduce
I0109 14:38:04.537127  4932 net.cpp:160] Setting up inception_5a/double_3x3_reduce
I0109 14:38:04.537840  4932 net.cpp:167] Top shape: 3 160 7 7 (23520)
I0109 14:38:04.537847  4932 layer_factory.hpp:74] Creating layer inception_5a/double_3x3_reduce_bn
I0109 14:38:04.537850  4932 layer_factory.cpp:177] Layer inception_5a/double_3x3_reduce_bn is using CAFFE engine.
I0109 14:38:04.537854  4932 net.cpp:96] Creating Layer inception_5a/double_3x3_reduce_bn
I0109 14:38:04.537858  4932 net.cpp:459] inception_5a/double_3x3_reduce_bn <- inception_5a/double_3x3_reduce
I0109 14:38:04.537863  4932 net.cpp:415] inception_5a/double_3x3_reduce_bn -> inception_5a/double_3x3_reduce_bn
I0109 14:38:04.537866  4932 net.cpp:160] Setting up inception_5a/double_3x3_reduce_bn
I0109 14:38:04.537878  4932 net.cpp:167] Top shape: 3 160 7 7 (23520)
I0109 14:38:04.537883  4932 layer_factory.hpp:74] Creating layer inception_5a/relu_double_3x3_reduce
I0109 14:38:04.537886  4932 net.cpp:96] Creating Layer inception_5a/relu_double_3x3_reduce
I0109 14:38:04.537889  4932 net.cpp:459] inception_5a/relu_double_3x3_reduce <- inception_5a/double_3x3_reduce_bn
I0109 14:38:04.537894  4932 net.cpp:404] inception_5a/relu_double_3x3_reduce -> inception_5a/double_3x3_reduce_bn (in-place)
I0109 14:38:04.537897  4932 net.cpp:160] Setting up inception_5a/relu_double_3x3_reduce
I0109 14:38:04.537900  4932 net.cpp:167] Top shape: 3 160 7 7 (23520)
I0109 14:38:04.537904  4932 layer_factory.hpp:74] Creating layer inception_5a/double_3x3_1
I0109 14:38:04.537909  4932 net.cpp:96] Creating Layer inception_5a/double_3x3_1
I0109 14:38:04.537911  4932 net.cpp:459] inception_5a/double_3x3_1 <- inception_5a/double_3x3_reduce_bn
I0109 14:38:04.537915  4932 net.cpp:415] inception_5a/double_3x3_1 -> inception_5a/double_3x3_1
I0109 14:38:04.537919  4932 net.cpp:160] Setting up inception_5a/double_3x3_1
I0109 14:38:04.539273  4932 net.cpp:167] Top shape: 3 224 7 7 (32928)
I0109 14:38:04.539280  4932 layer_factory.hpp:74] Creating layer inception_5a/double_3x3_1_bn
I0109 14:38:04.539283  4932 layer_factory.cpp:177] Layer inception_5a/double_3x3_1_bn is using CAFFE engine.
I0109 14:38:04.539288  4932 net.cpp:96] Creating Layer inception_5a/double_3x3_1_bn
I0109 14:38:04.539293  4932 net.cpp:459] inception_5a/double_3x3_1_bn <- inception_5a/double_3x3_1
I0109 14:38:04.539297  4932 net.cpp:415] inception_5a/double_3x3_1_bn -> inception_5a/double_3x3_1_bn
I0109 14:38:04.539301  4932 net.cpp:160] Setting up inception_5a/double_3x3_1_bn
I0109 14:38:04.539311  4932 net.cpp:167] Top shape: 3 224 7 7 (32928)
I0109 14:38:04.539319  4932 layer_factory.hpp:74] Creating layer inception_5a/relu_double_3x3_1
I0109 14:38:04.539322  4932 net.cpp:96] Creating Layer inception_5a/relu_double_3x3_1
I0109 14:38:04.539325  4932 net.cpp:459] inception_5a/relu_double_3x3_1 <- inception_5a/double_3x3_1_bn
I0109 14:38:04.539330  4932 net.cpp:404] inception_5a/relu_double_3x3_1 -> inception_5a/double_3x3_1_bn (in-place)
I0109 14:38:04.539333  4932 net.cpp:160] Setting up inception_5a/relu_double_3x3_1
I0109 14:38:04.539336  4932 net.cpp:167] Top shape: 3 224 7 7 (32928)
I0109 14:38:04.539340  4932 layer_factory.hpp:74] Creating layer inception_5a/double_3x3_2
I0109 14:38:04.539345  4932 net.cpp:96] Creating Layer inception_5a/double_3x3_2
I0109 14:38:04.539346  4932 net.cpp:459] inception_5a/double_3x3_2 <- inception_5a/double_3x3_1_bn
I0109 14:38:04.539358  4932 net.cpp:415] inception_5a/double_3x3_2 -> inception_5a/double_3x3_2
I0109 14:38:04.539363  4932 net.cpp:160] Setting up inception_5a/double_3x3_2
I0109 14:38:04.541265  4932 net.cpp:167] Top shape: 3 224 7 7 (32928)
I0109 14:38:04.541271  4932 layer_factory.hpp:74] Creating layer inception_5a/double_3x3_2_bn
I0109 14:38:04.541275  4932 layer_factory.cpp:177] Layer inception_5a/double_3x3_2_bn is using CAFFE engine.
I0109 14:38:04.541278  4932 net.cpp:96] Creating Layer inception_5a/double_3x3_2_bn
I0109 14:38:04.541282  4932 net.cpp:459] inception_5a/double_3x3_2_bn <- inception_5a/double_3x3_2
I0109 14:38:04.541287  4932 net.cpp:415] inception_5a/double_3x3_2_bn -> inception_5a/double_3x3_2_bn
I0109 14:38:04.541291  4932 net.cpp:160] Setting up inception_5a/double_3x3_2_bn
I0109 14:38:04.541302  4932 net.cpp:167] Top shape: 3 224 7 7 (32928)
I0109 14:38:04.541308  4932 layer_factory.hpp:74] Creating layer inception_5a/relu_double_3x3_2
I0109 14:38:04.541312  4932 net.cpp:96] Creating Layer inception_5a/relu_double_3x3_2
I0109 14:38:04.541316  4932 net.cpp:459] inception_5a/relu_double_3x3_2 <- inception_5a/double_3x3_2_bn
I0109 14:38:04.541319  4932 net.cpp:404] inception_5a/relu_double_3x3_2 -> inception_5a/double_3x3_2_bn (in-place)
I0109 14:38:04.541323  4932 net.cpp:160] Setting up inception_5a/relu_double_3x3_2
I0109 14:38:04.541326  4932 net.cpp:167] Top shape: 3 224 7 7 (32928)
I0109 14:38:04.541329  4932 layer_factory.hpp:74] Creating layer inception_5a/pool
I0109 14:38:04.541334  4932 net.cpp:96] Creating Layer inception_5a/pool
I0109 14:38:04.541337  4932 net.cpp:459] inception_5a/pool <- inception_4e/output_inception_4e/output_0_split_3
I0109 14:38:04.541342  4932 net.cpp:415] inception_5a/pool -> inception_5a/pool
I0109 14:38:04.541347  4932 net.cpp:160] Setting up inception_5a/pool
I0109 14:38:04.541352  4932 net.cpp:167] Top shape: 3 1056 7 7 (155232)
I0109 14:38:04.541354  4932 layer_factory.hpp:74] Creating layer inception_5a/pool_proj
I0109 14:38:04.541359  4932 net.cpp:96] Creating Layer inception_5a/pool_proj
I0109 14:38:04.541363  4932 net.cpp:459] inception_5a/pool_proj <- inception_5a/pool
I0109 14:38:04.541368  4932 net.cpp:415] inception_5a/pool_proj -> inception_5a/pool_proj
I0109 14:38:04.541371  4932 net.cpp:160] Setting up inception_5a/pool_proj
I0109 14:38:04.541946  4932 net.cpp:167] Top shape: 3 128 7 7 (18816)
I0109 14:38:04.541952  4932 layer_factory.hpp:74] Creating layer inception_5a/pool_proj_bn
I0109 14:38:04.541955  4932 layer_factory.cpp:177] Layer inception_5a/pool_proj_bn is using CAFFE engine.
I0109 14:38:04.541960  4932 net.cpp:96] Creating Layer inception_5a/pool_proj_bn
I0109 14:38:04.541962  4932 net.cpp:459] inception_5a/pool_proj_bn <- inception_5a/pool_proj
I0109 14:38:04.541967  4932 net.cpp:415] inception_5a/pool_proj_bn -> inception_5a/pool_proj_bn
I0109 14:38:04.541972  4932 net.cpp:160] Setting up inception_5a/pool_proj_bn
I0109 14:38:04.541981  4932 net.cpp:167] Top shape: 3 128 7 7 (18816)
I0109 14:38:04.541986  4932 layer_factory.hpp:74] Creating layer inception_5a/relu_pool_proj
I0109 14:38:04.541991  4932 net.cpp:96] Creating Layer inception_5a/relu_pool_proj
I0109 14:38:04.541995  4932 net.cpp:459] inception_5a/relu_pool_proj <- inception_5a/pool_proj_bn
I0109 14:38:04.541998  4932 net.cpp:404] inception_5a/relu_pool_proj -> inception_5a/pool_proj_bn (in-place)
I0109 14:38:04.542002  4932 net.cpp:160] Setting up inception_5a/relu_pool_proj
I0109 14:38:04.542006  4932 net.cpp:167] Top shape: 3 128 7 7 (18816)
I0109 14:38:04.542008  4932 layer_factory.hpp:74] Creating layer inception_5a/output
I0109 14:38:04.542013  4932 net.cpp:96] Creating Layer inception_5a/output
I0109 14:38:04.542016  4932 net.cpp:459] inception_5a/output <- inception_5a/1x1_bn
I0109 14:38:04.542019  4932 net.cpp:459] inception_5a/output <- inception_5a/3x3_bn
I0109 14:38:04.542022  4932 net.cpp:459] inception_5a/output <- inception_5a/double_3x3_2_bn
I0109 14:38:04.542026  4932 net.cpp:459] inception_5a/output <- inception_5a/pool_proj_bn
I0109 14:38:04.542037  4932 net.cpp:415] inception_5a/output -> inception_5a/output
I0109 14:38:04.542040  4932 net.cpp:160] Setting up inception_5a/output
I0109 14:38:04.542045  4932 net.cpp:167] Top shape: 3 1024 7 7 (150528)
I0109 14:38:04.542048  4932 layer_factory.hpp:74] Creating layer inception_5a/output_inception_5a/output_0_split
I0109 14:38:04.542054  4932 net.cpp:96] Creating Layer inception_5a/output_inception_5a/output_0_split
I0109 14:38:04.542057  4932 net.cpp:459] inception_5a/output_inception_5a/output_0_split <- inception_5a/output
I0109 14:38:04.542062  4932 net.cpp:415] inception_5a/output_inception_5a/output_0_split -> inception_5a/output_inception_5a/output_0_split_0
I0109 14:38:04.542065  4932 net.cpp:415] inception_5a/output_inception_5a/output_0_split -> inception_5a/output_inception_5a/output_0_split_1
I0109 14:38:04.542071  4932 net.cpp:415] inception_5a/output_inception_5a/output_0_split -> inception_5a/output_inception_5a/output_0_split_2
I0109 14:38:04.542075  4932 net.cpp:415] inception_5a/output_inception_5a/output_0_split -> inception_5a/output_inception_5a/output_0_split_3
I0109 14:38:04.542079  4932 net.cpp:160] Setting up inception_5a/output_inception_5a/output_0_split
I0109 14:38:04.542083  4932 net.cpp:167] Top shape: 3 1024 7 7 (150528)
I0109 14:38:04.542088  4932 net.cpp:167] Top shape: 3 1024 7 7 (150528)
I0109 14:38:04.542090  4932 net.cpp:167] Top shape: 3 1024 7 7 (150528)
I0109 14:38:04.542093  4932 net.cpp:167] Top shape: 3 1024 7 7 (150528)
I0109 14:38:04.542096  4932 layer_factory.hpp:74] Creating layer inception_5b/1x1
I0109 14:38:04.542101  4932 net.cpp:96] Creating Layer inception_5b/1x1
I0109 14:38:04.542104  4932 net.cpp:459] inception_5b/1x1 <- inception_5a/output_inception_5a/output_0_split_0
I0109 14:38:04.542109  4932 net.cpp:415] inception_5b/1x1 -> inception_5b/1x1
I0109 14:38:04.542114  4932 net.cpp:160] Setting up inception_5b/1x1
I0109 14:38:04.543793  4932 net.cpp:167] Top shape: 3 352 7 7 (51744)
I0109 14:38:04.543803  4932 layer_factory.hpp:74] Creating layer inception_5b/1x1_bn
I0109 14:38:04.543807  4932 layer_factory.cpp:177] Layer inception_5b/1x1_bn is using CAFFE engine.
I0109 14:38:04.543813  4932 net.cpp:96] Creating Layer inception_5b/1x1_bn
I0109 14:38:04.543817  4932 net.cpp:459] inception_5b/1x1_bn <- inception_5b/1x1
I0109 14:38:04.543823  4932 net.cpp:415] inception_5b/1x1_bn -> inception_5b/1x1_bn
I0109 14:38:04.543828  4932 net.cpp:160] Setting up inception_5b/1x1_bn
I0109 14:38:04.543840  4932 net.cpp:167] Top shape: 3 352 7 7 (51744)
I0109 14:38:04.543846  4932 layer_factory.hpp:74] Creating layer inception_5b/relu_1x1
I0109 14:38:04.543850  4932 net.cpp:96] Creating Layer inception_5b/relu_1x1
I0109 14:38:04.543853  4932 net.cpp:459] inception_5b/relu_1x1 <- inception_5b/1x1_bn
I0109 14:38:04.543858  4932 net.cpp:404] inception_5b/relu_1x1 -> inception_5b/1x1_bn (in-place)
I0109 14:38:04.543862  4932 net.cpp:160] Setting up inception_5b/relu_1x1
I0109 14:38:04.543865  4932 net.cpp:167] Top shape: 3 352 7 7 (51744)
I0109 14:38:04.543869  4932 layer_factory.hpp:74] Creating layer inception_5b/3x3_reduce
I0109 14:38:04.543874  4932 net.cpp:96] Creating Layer inception_5b/3x3_reduce
I0109 14:38:04.543876  4932 net.cpp:459] inception_5b/3x3_reduce <- inception_5a/output_inception_5a/output_0_split_1
I0109 14:38:04.543881  4932 net.cpp:415] inception_5b/3x3_reduce -> inception_5b/3x3_reduce
I0109 14:38:04.543887  4932 net.cpp:160] Setting up inception_5b/3x3_reduce
I0109 14:38:04.544731  4932 net.cpp:167] Top shape: 3 192 7 7 (28224)
I0109 14:38:04.544739  4932 layer_factory.hpp:74] Creating layer inception_5b/3x3_reduce_bn
I0109 14:38:04.544742  4932 layer_factory.cpp:177] Layer inception_5b/3x3_reduce_bn is using CAFFE engine.
I0109 14:38:04.544747  4932 net.cpp:96] Creating Layer inception_5b/3x3_reduce_bn
I0109 14:38:04.544751  4932 net.cpp:459] inception_5b/3x3_reduce_bn <- inception_5b/3x3_reduce
I0109 14:38:04.544756  4932 net.cpp:415] inception_5b/3x3_reduce_bn -> inception_5b/3x3_reduce_bn
I0109 14:38:04.544764  4932 net.cpp:160] Setting up inception_5b/3x3_reduce_bn
I0109 14:38:04.544780  4932 net.cpp:167] Top shape: 3 192 7 7 (28224)
I0109 14:38:04.544785  4932 layer_factory.hpp:74] Creating layer inception_5b/relu_3x3_reduce
I0109 14:38:04.544790  4932 net.cpp:96] Creating Layer inception_5b/relu_3x3_reduce
I0109 14:38:04.544792  4932 net.cpp:459] inception_5b/relu_3x3_reduce <- inception_5b/3x3_reduce_bn
I0109 14:38:04.544797  4932 net.cpp:404] inception_5b/relu_3x3_reduce -> inception_5b/3x3_reduce_bn (in-place)
I0109 14:38:04.544801  4932 net.cpp:160] Setting up inception_5b/relu_3x3_reduce
I0109 14:38:04.544805  4932 net.cpp:167] Top shape: 3 192 7 7 (28224)
I0109 14:38:04.544807  4932 layer_factory.hpp:74] Creating layer inception_5b/3x3
I0109 14:38:04.544812  4932 net.cpp:96] Creating Layer inception_5b/3x3
I0109 14:38:04.544816  4932 net.cpp:459] inception_5b/3x3 <- inception_5b/3x3_reduce_bn
I0109 14:38:04.544821  4932 net.cpp:415] inception_5b/3x3 -> inception_5b/3x3
I0109 14:38:04.544826  4932 net.cpp:160] Setting up inception_5b/3x3
I0109 14:38:04.547148  4932 net.cpp:167] Top shape: 3 320 7 7 (47040)
I0109 14:38:04.547155  4932 layer_factory.hpp:74] Creating layer inception_5b/3x3_bn
I0109 14:38:04.547158  4932 layer_factory.cpp:177] Layer inception_5b/3x3_bn is using CAFFE engine.
I0109 14:38:04.547163  4932 net.cpp:96] Creating Layer inception_5b/3x3_bn
I0109 14:38:04.547166  4932 net.cpp:459] inception_5b/3x3_bn <- inception_5b/3x3
I0109 14:38:04.547171  4932 net.cpp:415] inception_5b/3x3_bn -> inception_5b/3x3_bn
I0109 14:38:04.547176  4932 net.cpp:160] Setting up inception_5b/3x3_bn
I0109 14:38:04.547188  4932 net.cpp:167] Top shape: 3 320 7 7 (47040)
I0109 14:38:04.547194  4932 layer_factory.hpp:74] Creating layer inception_5b/relu_3x3
I0109 14:38:04.547199  4932 net.cpp:96] Creating Layer inception_5b/relu_3x3
I0109 14:38:04.547201  4932 net.cpp:459] inception_5b/relu_3x3 <- inception_5b/3x3_bn
I0109 14:38:04.547205  4932 net.cpp:404] inception_5b/relu_3x3 -> inception_5b/3x3_bn (in-place)
I0109 14:38:04.547209  4932 net.cpp:160] Setting up inception_5b/relu_3x3
I0109 14:38:04.547212  4932 net.cpp:167] Top shape: 3 320 7 7 (47040)
I0109 14:38:04.547215  4932 layer_factory.hpp:74] Creating layer inception_5b/double_3x3_reduce
I0109 14:38:04.547220  4932 net.cpp:96] Creating Layer inception_5b/double_3x3_reduce
I0109 14:38:04.547224  4932 net.cpp:459] inception_5b/double_3x3_reduce <- inception_5a/output_inception_5a/output_0_split_2
I0109 14:38:04.547229  4932 net.cpp:415] inception_5b/double_3x3_reduce -> inception_5b/double_3x3_reduce
I0109 14:38:04.547232  4932 net.cpp:160] Setting up inception_5b/double_3x3_reduce
I0109 14:38:04.548064  4932 net.cpp:167] Top shape: 3 192 7 7 (28224)
I0109 14:38:04.548070  4932 layer_factory.hpp:74] Creating layer inception_5b/double_3x3_reduce_bn
I0109 14:38:04.548074  4932 layer_factory.cpp:177] Layer inception_5b/double_3x3_reduce_bn is using CAFFE engine.
I0109 14:38:04.548079  4932 net.cpp:96] Creating Layer inception_5b/double_3x3_reduce_bn
I0109 14:38:04.548081  4932 net.cpp:459] inception_5b/double_3x3_reduce_bn <- inception_5b/double_3x3_reduce
I0109 14:38:04.548086  4932 net.cpp:415] inception_5b/double_3x3_reduce_bn -> inception_5b/double_3x3_reduce_bn
I0109 14:38:04.548091  4932 net.cpp:160] Setting up inception_5b/double_3x3_reduce_bn
I0109 14:38:04.548102  4932 net.cpp:167] Top shape: 3 192 7 7 (28224)
I0109 14:38:04.548115  4932 layer_factory.hpp:74] Creating layer inception_5b/relu_double_3x3_reduce
I0109 14:38:04.548120  4932 net.cpp:96] Creating Layer inception_5b/relu_double_3x3_reduce
I0109 14:38:04.548125  4932 net.cpp:459] inception_5b/relu_double_3x3_reduce <- inception_5b/double_3x3_reduce_bn
I0109 14:38:04.548128  4932 net.cpp:404] inception_5b/relu_double_3x3_reduce -> inception_5b/double_3x3_reduce_bn (in-place)
I0109 14:38:04.548132  4932 net.cpp:160] Setting up inception_5b/relu_double_3x3_reduce
I0109 14:38:04.548136  4932 net.cpp:167] Top shape: 3 192 7 7 (28224)
I0109 14:38:04.548140  4932 layer_factory.hpp:74] Creating layer inception_5b/double_3x3_1
I0109 14:38:04.548146  4932 net.cpp:96] Creating Layer inception_5b/double_3x3_1
I0109 14:38:04.548153  4932 net.cpp:459] inception_5b/double_3x3_1 <- inception_5b/double_3x3_reduce_bn
I0109 14:38:04.548158  4932 net.cpp:415] inception_5b/double_3x3_1 -> inception_5b/double_3x3_1
I0109 14:38:04.548163  4932 net.cpp:160] Setting up inception_5b/double_3x3_1
I0109 14:38:04.549829  4932 net.cpp:167] Top shape: 3 224 7 7 (32928)
I0109 14:38:04.549842  4932 layer_factory.hpp:74] Creating layer inception_5b/double_3x3_1_bn
I0109 14:38:04.549849  4932 layer_factory.cpp:177] Layer inception_5b/double_3x3_1_bn is using CAFFE engine.
I0109 14:38:04.549857  4932 net.cpp:96] Creating Layer inception_5b/double_3x3_1_bn
I0109 14:38:04.549862  4932 net.cpp:459] inception_5b/double_3x3_1_bn <- inception_5b/double_3x3_1
I0109 14:38:04.549870  4932 net.cpp:415] inception_5b/double_3x3_1_bn -> inception_5b/double_3x3_1_bn
I0109 14:38:04.549878  4932 net.cpp:160] Setting up inception_5b/double_3x3_1_bn
I0109 14:38:04.549896  4932 net.cpp:167] Top shape: 3 224 7 7 (32928)
I0109 14:38:04.549906  4932 layer_factory.hpp:74] Creating layer inception_5b/relu_double_3x3_1
I0109 14:38:04.549913  4932 net.cpp:96] Creating Layer inception_5b/relu_double_3x3_1
I0109 14:38:04.549918  4932 net.cpp:459] inception_5b/relu_double_3x3_1 <- inception_5b/double_3x3_1_bn
I0109 14:38:04.549924  4932 net.cpp:404] inception_5b/relu_double_3x3_1 -> inception_5b/double_3x3_1_bn (in-place)
I0109 14:38:04.549932  4932 net.cpp:160] Setting up inception_5b/relu_double_3x3_1
I0109 14:38:04.549937  4932 net.cpp:167] Top shape: 3 224 7 7 (32928)
I0109 14:38:04.549942  4932 layer_factory.hpp:74] Creating layer inception_5b/double_3x3_2
I0109 14:38:04.549949  4932 net.cpp:96] Creating Layer inception_5b/double_3x3_2
I0109 14:38:04.549954  4932 net.cpp:459] inception_5b/double_3x3_2 <- inception_5b/double_3x3_1_bn
I0109 14:38:04.549962  4932 net.cpp:415] inception_5b/double_3x3_2 -> inception_5b/double_3x3_2
I0109 14:38:04.549970  4932 net.cpp:160] Setting up inception_5b/double_3x3_2
I0109 14:38:04.553133  4932 net.cpp:167] Top shape: 3 224 7 7 (32928)
I0109 14:38:04.553148  4932 layer_factory.hpp:74] Creating layer inception_5b/double_3x3_2_bn
I0109 14:38:04.553154  4932 layer_factory.cpp:177] Layer inception_5b/double_3x3_2_bn is using CAFFE engine.
I0109 14:38:04.553164  4932 net.cpp:96] Creating Layer inception_5b/double_3x3_2_bn
I0109 14:38:04.553169  4932 net.cpp:459] inception_5b/double_3x3_2_bn <- inception_5b/double_3x3_2
I0109 14:38:04.553177  4932 net.cpp:415] inception_5b/double_3x3_2_bn -> inception_5b/double_3x3_2_bn
I0109 14:38:04.553186  4932 net.cpp:160] Setting up inception_5b/double_3x3_2_bn
I0109 14:38:04.553205  4932 net.cpp:167] Top shape: 3 224 7 7 (32928)
I0109 14:38:04.553215  4932 layer_factory.hpp:74] Creating layer inception_5b/relu_double_3x3_2
I0109 14:38:04.553222  4932 net.cpp:96] Creating Layer inception_5b/relu_double_3x3_2
I0109 14:38:04.553227  4932 net.cpp:459] inception_5b/relu_double_3x3_2 <- inception_5b/double_3x3_2_bn
I0109 14:38:04.553234  4932 net.cpp:404] inception_5b/relu_double_3x3_2 -> inception_5b/double_3x3_2_bn (in-place)
I0109 14:38:04.553249  4932 net.cpp:160] Setting up inception_5b/relu_double_3x3_2
I0109 14:38:04.553256  4932 net.cpp:167] Top shape: 3 224 7 7 (32928)
I0109 14:38:04.553261  4932 layer_factory.hpp:74] Creating layer inception_5b/pool
I0109 14:38:04.553268  4932 net.cpp:96] Creating Layer inception_5b/pool
I0109 14:38:04.553273  4932 net.cpp:459] inception_5b/pool <- inception_5a/output_inception_5a/output_0_split_3
I0109 14:38:04.553279  4932 net.cpp:415] inception_5b/pool -> inception_5b/pool
I0109 14:38:04.553287  4932 net.cpp:160] Setting up inception_5b/pool
I0109 14:38:04.553294  4932 net.cpp:167] Top shape: 3 1024 7 7 (150528)
I0109 14:38:04.553299  4932 layer_factory.hpp:74] Creating layer inception_5b/pool_proj
I0109 14:38:04.553308  4932 net.cpp:96] Creating Layer inception_5b/pool_proj
I0109 14:38:04.553313  4932 net.cpp:459] inception_5b/pool_proj <- inception_5b/pool
I0109 14:38:04.553324  4932 net.cpp:415] inception_5b/pool_proj -> inception_5b/pool_proj
I0109 14:38:04.553338  4932 net.cpp:160] Setting up inception_5b/pool_proj
I0109 14:38:04.554371  4932 net.cpp:167] Top shape: 3 128 7 7 (18816)
I0109 14:38:04.554383  4932 layer_factory.hpp:74] Creating layer inception_5b/pool_proj_bn
I0109 14:38:04.554389  4932 layer_factory.cpp:177] Layer inception_5b/pool_proj_bn is using CAFFE engine.
I0109 14:38:04.554397  4932 net.cpp:96] Creating Layer inception_5b/pool_proj_bn
I0109 14:38:04.554404  4932 net.cpp:459] inception_5b/pool_proj_bn <- inception_5b/pool_proj
I0109 14:38:04.554411  4932 net.cpp:415] inception_5b/pool_proj_bn -> inception_5b/pool_proj_bn
I0109 14:38:04.554419  4932 net.cpp:160] Setting up inception_5b/pool_proj_bn
I0109 14:38:04.554435  4932 net.cpp:167] Top shape: 3 128 7 7 (18816)
I0109 14:38:04.554443  4932 layer_factory.hpp:74] Creating layer inception_5b/relu_pool_proj
I0109 14:38:04.554450  4932 net.cpp:96] Creating Layer inception_5b/relu_pool_proj
I0109 14:38:04.554453  4932 net.cpp:459] inception_5b/relu_pool_proj <- inception_5b/pool_proj_bn
I0109 14:38:04.554461  4932 net.cpp:404] inception_5b/relu_pool_proj -> inception_5b/pool_proj_bn (in-place)
I0109 14:38:04.554466  4932 net.cpp:160] Setting up inception_5b/relu_pool_proj
I0109 14:38:04.554472  4932 net.cpp:167] Top shape: 3 128 7 7 (18816)
I0109 14:38:04.554476  4932 layer_factory.hpp:74] Creating layer inception_5b/output
I0109 14:38:04.554482  4932 net.cpp:96] Creating Layer inception_5b/output
I0109 14:38:04.554487  4932 net.cpp:459] inception_5b/output <- inception_5b/1x1_bn
I0109 14:38:04.554492  4932 net.cpp:459] inception_5b/output <- inception_5b/3x3_bn
I0109 14:38:04.554498  4932 net.cpp:459] inception_5b/output <- inception_5b/double_3x3_2_bn
I0109 14:38:04.554503  4932 net.cpp:459] inception_5b/output <- inception_5b/pool_proj_bn
I0109 14:38:04.554508  4932 net.cpp:415] inception_5b/output -> inception_5b/output
I0109 14:38:04.554515  4932 net.cpp:160] Setting up inception_5b/output
I0109 14:38:04.554522  4932 net.cpp:167] Top shape: 3 1024 7 7 (150528)
I0109 14:38:04.554527  4932 layer_factory.hpp:74] Creating layer global_pool
I0109 14:38:04.554534  4932 net.cpp:96] Creating Layer global_pool
I0109 14:38:04.554539  4932 net.cpp:459] global_pool <- inception_5b/output
I0109 14:38:04.554545  4932 net.cpp:415] global_pool -> global_pool
I0109 14:38:04.554551  4932 net.cpp:160] Setting up global_pool
I0109 14:38:04.554558  4932 net.cpp:167] Top shape: 3 1024 1 1 (3072)
I0109 14:38:04.554563  4932 layer_factory.hpp:74] Creating layer dropout
I0109 14:38:04.554569  4932 net.cpp:96] Creating Layer dropout
I0109 14:38:04.554574  4932 net.cpp:459] dropout <- global_pool
I0109 14:38:04.554579  4932 net.cpp:404] dropout -> global_pool (in-place)
I0109 14:38:04.554585  4932 net.cpp:160] Setting up dropout
I0109 14:38:04.554592  4932 net.cpp:167] Top shape: 3 1024 1 1 (3072)
I0109 14:38:04.554597  4932 layer_factory.hpp:74] Creating layer fc-action
I0109 14:38:04.554605  4932 net.cpp:96] Creating Layer fc-action
I0109 14:38:04.554608  4932 net.cpp:459] fc-action <- global_pool
I0109 14:38:04.554616  4932 net.cpp:415] fc-action -> fc
I0109 14:38:04.554622  4932 net.cpp:160] Setting up fc-action
I0109 14:38:04.557600  4932 net.cpp:167] Top shape: 3 101 (303)
I0109 14:38:04.557613  4932 layer_factory.hpp:74] Creating layer reshape_fc
I0109 14:38:04.557623  4932 net.cpp:96] Creating Layer reshape_fc
I0109 14:38:04.557629  4932 net.cpp:459] reshape_fc <- fc
I0109 14:38:04.557637  4932 net.cpp:415] reshape_fc -> reshape_fc
I0109 14:38:04.557646  4932 net.cpp:160] Setting up reshape_fc
I0109 14:38:04.557656  4932 net.cpp:167] Top shape: 1 1 3 101 (303)
I0109 14:38:04.557662  4932 layer_factory.hpp:74] Creating layer pool_fusion
I0109 14:38:04.557677  4932 net.cpp:96] Creating Layer pool_fusion
I0109 14:38:04.557684  4932 net.cpp:459] pool_fusion <- reshape_fc
I0109 14:38:04.557693  4932 net.cpp:415] pool_fusion -> pool_fc
I0109 14:38:04.557699  4932 net.cpp:160] Setting up pool_fusion
I0109 14:38:04.557713  4932 net.cpp:167] Top shape: 1 1 1 101 (101)
I0109 14:38:04.557723  4932 layer_factory.hpp:74] Creating layer pool_fc_pool_fusion_0_split
I0109 14:38:04.557730  4932 net.cpp:96] Creating Layer pool_fc_pool_fusion_0_split
I0109 14:38:04.557735  4932 net.cpp:459] pool_fc_pool_fusion_0_split <- pool_fc
I0109 14:38:04.557744  4932 net.cpp:415] pool_fc_pool_fusion_0_split -> pool_fc_pool_fusion_0_split_0
I0109 14:38:04.557751  4932 net.cpp:415] pool_fc_pool_fusion_0_split -> pool_fc_pool_fusion_0_split_1
I0109 14:38:04.557759  4932 net.cpp:160] Setting up pool_fc_pool_fusion_0_split
I0109 14:38:04.557766  4932 net.cpp:167] Top shape: 1 1 1 101 (101)
I0109 14:38:04.557772  4932 net.cpp:167] Top shape: 1 1 1 101 (101)
I0109 14:38:04.557777  4932 layer_factory.hpp:74] Creating layer loss
I0109 14:38:04.557785  4932 net.cpp:96] Creating Layer loss
I0109 14:38:04.557790  4932 net.cpp:459] loss <- pool_fc_pool_fusion_0_split_0
I0109 14:38:04.557796  4932 net.cpp:459] loss <- label_data_1_split_0
I0109 14:38:04.557804  4932 net.cpp:415] loss -> loss
I0109 14:38:04.557811  4932 net.cpp:160] Setting up loss
…
