…
    mean_value: 123
    mean_value: 104
    mean_value: 117
    mean_value: 123
    mean_value: 104
    mean_value: 117
    mean_value: 123
    fix_crop: true
    multi_scale: true
    scale_ratios: 1
    scale_ratios: 0.875
    scale_ratios: 0.75
    scale_ratios: 0.66
    max_distort: 1
    is_flow: false
    more_fix_crop: true
  }
  video_data_param {
    source: "/home/hadoop/whx/dataset/ucf101/train_rgb_split1.txt"
    batch_size: 32
    shuffle: true
    new_length: 1
    num_segments: 3
    modality: RGB
    name_pattern: "frame%06d.jpg"
  }
}
layer {
  name: "reshape_data"
  type: "Reshape"
  bottom: "data"
  top: "reshape_data"
  reshape_param {
    shape {
      dim: -1
      dim: 3
      dim: 224
      dim: 224
    }
  }
}
layer {
  name: "conv1/7x7_s2"
  type: "Convolution"
  bottom: "reshape_data"
  top: "conv1/7x7_s2"
  param {
    lr_mult: 1
    decay_mult: 1
  }
  param {
    lr_mult: 2
    decay_mult: 0
  }
  convolution_param {
    num_output: 64
    pad: 3
    kernel_size: 7
    stride: 2
    weight_filler {
      type: "xavier"
    }
    bias_filler {
      type: "constant"
      value: 0.2
    }
  }
}
layer {
  name: "conv1/7x7_s2_bn"
  type: "BN"
  bottom: "conv1/7x7_s2"
  top: "conv1/7x7_s2_bn"
  param {
    lr_mult: 1
    decay_mult: 0
  }
  param {
    lr_mult: 1
    decay_mult: 0
  }
  bn_param {
    slope_filler {
      type: "constant"
      value: 1
    }
    bias_filler {
      type: "constant"
      value: 0
    }
    frozen: false
  }
}
layer {
  name: "conv1/relu_7x7"
  type: "ReLU"
  bottom: "conv1/7x7_s2_bn"
  top: "conv1/7x7_s2_bn"
}
layer {
  name: "pool1/3x3_s2"
  type: "Pooling"
  bottom: "conv1/7x7_s2_bn"
  top: "pool1/3x3_s2"
  pooling_param {
    pool: MAX
    kernel_size: 3
    stride: 2
  }
}
layer {
  name: "conv2/3x3_reduce"
  type: "Convolution"
  bottom: "pool1/3x3_s2"
  top: "conv2/3x3_reduce"
  param {
    lr_mult: 1
    decay_mult: 1
  }
  param {
    lr_mult: 2
    decay_mult: 0
  }
  convolution_param {
    num_output: 64
    kernel_size: 1
    weight_filler {
      type: "xavier"
    }
    bias_filler {
      type: "constant"
      value: 0.2
    }
  }
}
layer {
  name: "conv2/3x3_reduce_bn"
  type: "BN"
  bottom: "conv2/3x3_reduce"
  top: "conv2/3x3_reduce_bn"
  param {
    lr_mult: 1
    decay_mult: 0
  }
  param {
    lr_mult: 1
    decay_mult: 0
  }
  bn_param {
    slope_filler {
      type: "constant"
      value: 1
    }
    bias_filler {
      type: "constant"
      value: 0
    }
    frozen: true
  }
}
layer {
  name: "conv2/relu_3x3_reduce"
  type: "ReLU"
  bottom: "conv2/3x3_reduce_bn"
  top: "conv2/3x3_reduce_bn"
}
layer {
  name: "conv2/3x3"
  type: "Convolution"
  bottom: "conv2/3x3_reduce_bn"
  top: "conv2/3x3"
  param {
    lr_mult: 1
    decay_mult: 1
  }
  param {
    lr_mult: 2
    decay_mult: 0
  }
  convolution_param {
    num_output: 192
    pad: 1
    kernel_size: 3
    weight_filler {
      type: "xavier"
    }
    bias_filler {
      type: "constant"
      value: 0.2
    }
  }
}
layer {
  name: "conv2/3x3_bn"
  type: "BN"
  bottom: "conv2/3x3"
  top: "conv2/3x3_bn"
  param {
    lr_mult: 1
    decay_mult: 0
  }
  param {
    lr_mult: 1
    decay_mult: 0
  }
  bn_param {
    slope_filler {
      type: "constant"
      value: 1
    }
    bias_filler {
      type: "constant"
      value: 0
    }
    frozen: true
  }
}
layer {
  name: "conv2/relu_3x3"
  type: "ReLU"
  bottom: "conv2/3x3_bn"
  top: "conv2/3x3_bn"
}
layer {
  name: "pool2/3x3_s2"
  type: "Pooling"
  bottom: "conv2/3x3_bn"
  top: "pool2/3x3_s2"
  pooling_param {
    pool: MAX
    kernel_size: 3
    stride: 2
  }
}
layer {
  name: "inception_3a/1x1"
  type: "Convolution"
  bottom: "pool2/3x3_s2"
  top: "inception_3a/1x1"
  param {
    lr_mult: 1
    decay_mult: 1
  }
  param {
    lr_mult: 2
    decay_mult: 0
  }
  convolution_param {
    num_output: 64
    kernel_size: 1
    weight_filler {
      type: "xavier"
    }
    bias_filler {
      type: "constant"
      value: 0.2
    }
  }
}
layer {
  name: "inception_3a/1x1_bn"
  type: "BN"
  bottom: "inception_3a/1x1"
  top: "inception_3a/1x1_bn"
  param {
    lr_mult: 1
    decay_mult: 0
  }
  param {
    lr_mult: 1
    decay_mult: 0
  }
  bn_param {
    slope_filler {
      type: "constant"
      value: 1
    }
    bias_filler {
      type: "constant"
      value: 0
    }
    frozen: true
  }
}
layer {
  name: "inception_3a/relu_1x1"
  type: "ReLU"
  bottom: "inception_3a/1x1_bn"
  top: "inception_3a/1x1_bn"
}
layer {
  name: "inception_3a/3x3_reduce"
  type: "Convolution"
  bottom: "pool2/3x3_s2"
  top: "inception_3a/3x3_reduce"
  param {
    lr_mult: 1
    decay_mult: 1
  }
  param {
    lr_mult: 2
    decay_mult: 0
  }
  convolution_param {
    num_output: 64
    kernel_size: 1
    weight_filler {
      type: "xavier"
    }
    bias_filler {
      type: "constant"
      value: 0.2
    }
  }
}
layer {
  name: "inception_3a/3x3_reduce_bn"
  type: "BN"
  bottom: "inception_3a/3x3_reduce"
  top: "inception_3a/3x3_reduce_bn"
  param {
    lr_mult: 1
    decay_mult: 0
  }
  param {
    lr_mult: 1
    decay_mult: 0
  }
  bn_param {
    slope_filler {
      type: "constant"
      value: 1
    }
    bias_filler {
      type: "constant"
      value: 0
    }
    frozen: true
  }
}
layer {
  name: "inception_3a/relu_3x3_reduce"
  type: "ReLU"
  bottom: "inception_3a/3x3_reduce_bn"
  top: "inception_3a/3x3_reduce_bn"
}
layer {
  name: "inception_3a/3x3"
  type: "Convolution"
  bottom: "inception_3a/3x3_reduce_bn"
  top: "inception_3a/3x3"
  param {
    lr_mult: 1
    decay_mult: 1
  }
  param {
    lr_mult: 2
    decay_mult: 0
  }
  convolution_param {
    num_output: 64
    pad: 1
    kernel_size: 3
    weight_filler {
      type: "xavier"
    }
    bias_filler {
      type: "constant"
      value: 0.2
    }
  }
}
layer {
  name: "inception_3a/3x3_bn"
  type: "BN"
  bottom: "inception_3a/3x3"
  top: "inception_3a/3x3_bn"
  param {
    lr_mult: 1
    decay_mult: 0
  }
  param {
    lr_mult: 1
    decay_mult: 0
  }
  bn_param {
    slope_filler {
      type: "constant"
      value: 1
    }
    bias_filler {
      type: "constant"
      value: 0
    }
    frozen: true
  }
}
layer {
  name: "inception_3a/relu_3x3"
  type: "ReLU"
  bottom: "inception_3a/3x3_bn"
  top: "inception_3a/3x3_bn"
}
layer {
  name: "inception_3a/double_3x3_reduce"
  type: "Convolution"
  bottom: "pool2/3x3_s2"
  top: "inception_3a/double_3x3_reduce"
  param {
    lr_mult: 1
    decay_mult: 1
  }
  param {
    lr_mult: 2
    decay_mult: 0
  }
  convolution_param {
    num_output: 64
    kernel_size: 1
    weight_filler {
      type: "xavier"
    }
    bias_filler {
      type: "constant"
      value: 0.2
    }
  }
}
layer {
  name: "inception_3a/double_3x3_reduce_bn"
  type: "BN"
  bottom: "inception_3a/double_3x3_reduce"
  top: "inception_3a/double_3x3_reduce_bn"
  param {
    lr_mult: 1
    decay_mult: 0
  }
  param {
    lr_mult: 1
    decay_mult: 0
  }
  bn_param {
    slope_filler {
      type: "constant"
      value: 1
    }
    bias_filler {
      type: "constant"
      value: 0
    }
    frozen: true
  }
}
layer {
  name: "inception_3a/relu_double_3x3_reduce"
  type: "ReLU"
  bottom: "inception_3a/double_3x3_reduce_bn"
  top: "inception_3a/double_3x3_reduce_bn"
}
layer {
  name: "inception_3a/double_3x3_1"
  type: "Convolution"
  bottom: "inception_3a/double_3x3_reduce_bn"
  top: "inception_3a/double_3x3_1"
  param {
    lr_mult: 1
    decay_mult: 1
  }
  param {
    lr_mult: 2
    decay_mult: 0
  }
  convolution_param {
    num_output: 96
    pad: 1
    kernel_size: 3
    weight_filler {
      type: "xavier"
    }
    bias_filler {
      type: "constant"
      value: 0.2
    }
  }
}
layer {
  name: "inception_3a/double_3x3_1_bn"
  type: "BN"
  bottom: "inception_3a/double_3x3_1"
  top: "inception_3a/double_3x3_1_bn"
  param {
    lr_mult: 1
    decay_mult: 0
  }
  param {
    lr_mult: 1
    decay_mult: 0
  }
  bn_param {
    slope_filler {
      type: "constant"
      value: 1
    }
    bias_filler {
      type: "constant"
      value: 0
    }
    frozen: true
  }
}
layer {
  name: "inception_3a/relu_double_3x3_1"
  type: "ReLU"
  bottom: "inception_3a/double_3x3_1_bn"
  top: "inception_3a/double_3x3_1_bn"
}
layer {
  name: "inception_3a/double_3x3_2"
  type: "Convolution"
  bottom: "inception_3a/double_3x3_1_bn"
  top: "inception_3a/double_3x3_2"
  param {
    lr_mult: 1
    decay_mult: 1
  }
  param {
    lr_mult: 2
    decay_mult: 0
  }
  convolution_param {
    num_output: 96
    pad: 1
    kernel_size: 3
    weight_filler {
      type: "xavier"
    }
    bias_filler {
      type: "constant"
      value: 0.2
    }
  }
}
layer {
  name: "inception_3a/double_3x3_2_bn"
  type: "BN"
  bottom: "inception_3a/double_3x3_2"
  top: "inception_3a/double_3x3_2_bn"
  param {
    lr_mult: 1
    decay_mult: 0
  }
  param {
    lr_mult: 1
    decay_mult: 0
  }
  bn_param {
    slope_filler {
      type: "constant"
      value: 1
    }
    bias_filler {
      type: "constant"
      value: 0
    }
    frozen: true
  }
}
layer {
  name: "inception_3a/relu_double_3x3_2"
  type: "ReLU"
  bottom: "inception_3a/double_3x3_2_bn"
  top: "inception_3a/double_3x3_2_bn"
}
layer {
  name: "inception_3a/pool"
  type: "Pooling"
  bottom: "pool2/3x3_s2"
  top: "inception_3a/pool"
  pooling_param {
    pool: AVE
    kernel_size: 3
    stride: 1
    pad: 1
  }
}
layer {
  name: "inception_3a/pool_proj"
  type: "Convolution"
  bottom: "inception_3a/pool"
  top: "inception_3a/pool_proj"
  param {
    lr_mult: 1
    decay_mult: 1
  }
  param {
    lr_mult: 2
    decay_mult: 0
  }
  convolution_param {
    num_output: 32
    kernel_size: 1
    weight_filler {
      type: "xavier"
    }
    bias_filler {
      type: "constant"
      value: 0.2
    }
  }
}
layer {
  name: "inception_3a/pool_proj_bn"
  type: "BN"
  bottom: "inception_3a/pool_proj"
  top: "inception_3a/pool_proj_bn"
  param {
    lr_mult: 1
    decay_mult: 0
  }
  param {
    lr_mult: 1
    decay_mult: 0
  }
  bn_param {
    slope_filler {
      type: "constant"
      value: 1
    }
    bias_filler {
      type: "constant"
      value: 0
    }
    frozen: true
  }
}
layer {
  name: "inception_3a/relu_pool_proj"
  type: "ReLU"
  bottom: "inception_3a/pool_proj_bn"
  top: "inception_3a/pool_proj_bn"
}
layer {
  name: "inception_3a/output"
  type: "Concat"
  bottom: "inception_3a/1x1_bn"
  bottom: "inception_3a/3x3_bn"
  bottom: "inception_3a/double_3x3_2_bn"
  bottom: "inception_3a/pool_proj_bn"
  top: "inception_3a/output"
}
layer {
  name: "inception_3b/1x1"
  type: "Convolution"
  bottom: "inception_3a/output"
  top: "inception_3b/1x1"
  param {
    lr_mult: 1
    decay_mult: 1
  }
  param {
    lr_mult: 2
    decay_mult: 0
  }
  convolution_param {
    num_output: 64
    kernel_size: 1
    weight_filler {
      type: "xavier"
    }
    bias_filler {
      type: "constant"
      value: 0.2
    }
  }
}
layer {
  name: "inception_3b/1x1_bn"
  type: "BN"
  bottom: "inception_3b/1x1"
  top: "inception_3b/1x1_bn"
  param {
    lr_mult: 1
    decay_mult: 0
  }
  param {
    lr_mult: 1
    decay_mult: 0
  }
  bn_param {
    slope_filler {
      type: "constant"
      value: 1
    }
    bias_filler {
      type: "constant"
      value: 0
    }
    frozen: true
  }
}
layer {
  name: "inception_3b/relu_1x1"
  type: "ReLU"
  bottom: "inception_3b/1x1_bn"
  top: "inception_3b/1x1_bn"
}
layer {
  name: "inception_3b/3x3_reduce"
  type: "Convolution"
  bottom: "inception_3a/output"
  top: "inception_3b/3x3_reduce"
  param {
    lr_mult: 1
    decay_mult: 1
  }
  param {
    lr_mult: 2
    decay_mult: 0
  }
  convolution_param {
    num_output: 64
    kernel_size: 1
    weight_filler {
      type: "xavier"
    }
    bias_filler {
      type: "constant"
      value: 0.2
    }
  }
}
layer {
  name: "inception_3b/3x3_reduce_bn"
  type: "BN"
  bottom: "inception_3b/3x3_reduce"
  top: "inception_3b/3x3_reduce_bn"
  param {
    lr_mult: 1
    decay_mult: 0
  }
  param {
    lr_mult: 1
    decay_mult: 0
  }
  bn_param {
    slope_filler {
      type: "constant"
      value: 1
    }
    bias_filler {
      type: "constant"
      value: 0
    }
    frozen: true
  }
}
layer {
  name: "inception_3b/relu_3x3_reduce"
  type: "ReLU"
  bottom: "inception_3b/3x3_reduce_bn"
  top: "inception_3b/3x3_reduce_bn"
}
layer {
  name: "inception_3b/3x3"
  type: "Convolution"
  bottom: "inception_3b/3x3_reduce_bn"
  top: "inception_3b/3x3"
  param {
    lr_mult: 1
    decay_mult: 1
  }
  param {
    lr_mult: 2
    decay_mult: 0
  }
  convolution_param {
    num_output: 96
    pad: 1
    kernel_size: 3
    weight_filler {
      type: "xavier"
    }
    bias_filler {
      type: "constant"
      value: 0.2
    }
  }
}
layer {
  name: "inception_3b/3x3_bn"
  type: "BN"
  bottom: "inception_3b/3x3"
  top: "inception_3b/3x3_bn"
  param {
    lr_mult: 1
    decay_mult: 0
  }
  param {
    lr_mult: 1
    decay_mult: 0
  }
  bn_param {
    slope_filler {
      type: "constant"
      value: 1
    }
    bias_filler {
      type: "constant"
      value: 0
    }
    frozen: true
  }
}
layer {
  name: "inception_3b/relu_3x3"
  type: "ReLU"
  bottom: "inception_3b/3x3_bn"
  top: "inception_3b/3x3_bn"
}
layer {
  name: "inception_3b/double_3x3_reduce"
  type: "Convolution"
  bottom: "inception_3a/output"
  top: "inception_3b/double_3x3_reduce"
  param {
    lr_mult: 1
    decay_mult: 1
  }
  param {
    lr_mult: 2
    decay_mult: 0
  }
  convolution_param {
    num_output: 64
    kernel_size: 1
    weight_filler {
      type: "xavier"
    }
    bias_filler {
      type: "constant"
      value: 0.2
    }
  }
}
layer {
  name: "inception_3b/double_3x3_reduce_bn"
  type: "BN"
  bottom: "inception_3b/double_3x3_reduce"
  top: "inception_3b/double_3x3_reduce_bn"
  param {
    lr_mult: 1
    decay_mult: 0
  }
  param {
    lr_mult: 1
    decay_mult: 0
  }
  bn_param {
    slope_filler {
      type: "constant"
      value: 1
    }
    bias_filler {
      type: "constant"
      value: 0
    }
    frozen: true
  }
}
layer {
  name: "inception_3b/relu_double_3x3_reduce"
  type: "ReLU"
  bottom: "inception_3b/double_3x3_reduce_bn"
  top: "inception_3b/double_3x3_reduce_bn"
}
layer {
  name: "inception_3b/double_3x3_1"
  type: "Convolution"
  bottom: "inception_3b/double_3x3_reduce_bn"
  top: "inception_3b/double_3x3_1"
  param {
    lr_mult: 1
    decay_mult: 1
  }
  param {
    lr_mult: 2
    decay_mult: 0
  }
  convolution_param {
    num_output: 96
    pad: 1
    kernel_size: 3
    weight_filler {
      type: "xavier"
    }
    bias_filler {
      type: "constant"
      value: 0.2
    }
  }
}
layer {
  name: "inception_3b/double_3x3_1_bn"
  type: "BN"
  bottom: "inception_3b/double_3x3_1"
  top: "inception_3b/double_3x3_1_bn"
  param {
    lr_mult: 1
    decay_mult: 0
  }
  param {
    lr_mult: 1
    decay_mult: 0
  }
  bn_param {
    slope_filler {
      type: "constant"
      value: 1
    }
    bias_filler {
      type: "constant"
      value: 0
    }
    frozen: true
  }
}
layer {
  name: "inception_3b/relu_double_3x3_1"
  type: "ReLU"
  bottom: "inception_3b/double_3x3_1_bn"
  top: "inception_3b/double_3x3_1_bn"
}
layer {
  name: "inception_3b/double_3x3_2"
  type: "Convolution"
  bottom: "inception_3b/double_3x3_1_bn"
  top: "inception_3b/double_3x3_2"
  param {
    lr_mult: 1
    decay_mult: 1
  }
  param {
    lr_mult: 2
    decay_mult: 0
  }
  convolution_param {
    num_output: 96
    pad: 1
    kernel_size: 3
    weight_filler {
      type: "xavier"
    }
    bias_filler {
      type: "constant"
      value: 0.2
    }
  }
}
layer {
  name: "inception_3b/double_3x3_2_bn"
  type: "BN"
  bottom: "inception_3b/double_3x3_2"
  top: "inception_3b/double_3x3_2_bn"
  param {
    lr_mult: 1
    decay_mult: 0
  }
  param {
    lr_mult: 1
    decay_mult: 0
  }
  bn_param {
    slope_filler {
      type: "constant"
      value: 1
    }
    bias_filler {
      type: "constant"
      value: 0
    }
    frozen: true
  }
}
layer {
  name: "inception_3b/relu_double_3x3_2"
  type: "ReLU"
  bottom: "inception_3b/double_3x3_2_bn"
  top: "inception_3b/double_3x3_2_bn"
}
layer {
  name: "inception_3b/pool"
  type: "Pooling"
  bottom: "inception_3a/output"
  top: "inception_3b/pool"
  pooling_param {
    pool: AVE
    kernel_size: 3
    stride: 1
    pad: 1
  }
}
layer {
  name: "inception_3b/pool_proj"
  type: "Convolution"
  bottom: "inception_3b/pool"
  top: "inception_3b/pool_proj"
  param {
    lr_mult: 1
    decay_mult: 1
  }
  param {
    lr_mult: 2
    decay_mult: 0
  }
  convolution_param {
    num_output: 64
    kernel_size: 1
    weight_filler {
      type: "xavier"
    }
    bias_filler {
      type: "constant"
      value: 0.2
    }
  }
}
layer {
  name: "inception_3b/pool_proj_bn"
  type: "BN"
  bottom: "inception_3b/pool_proj"
  top: "inception_3b/pool_proj_bn"
  param {
    lr_mult: 1
    decay_mult: 0
  }
  param {
    lr_mult: 1
    decay_mult: 0
  }
  bn_param {
    slope_filler {
      type: "constant"
      value: 1
    }
    bias_filler {
      type: "constant"
      value: 0
    }
    frozen: true
  }
}
layer {
  name: "inception_3b/relu_pool_proj"
  type: "ReLU"
  bottom: "inception_3b/pool_proj_bn"
  top: "inception_3b/pool_proj_bn"
}
layer {
  name: "inception_3b/output"
  type: "Concat"
  bottom: "inception_3b/1x1_bn"
  bottom: "inception_3b/3x3_bn"
  bottom: "inception_3b/double_3x3_2_bn"
  bottom: "inception_3b/pool_proj_bn"
  top: "inception_3b/output"
}
layer {
  name: "inception_3c/3x3_reduce"
  type: "Convolution"
  bottom: "inception_3b/output"
  top: "inception_3c/3x3_reduce"
  param {
    lr_mult: 1
    decay_mult: 1
  }
  param {
    lr_mult: 2
    decay_mult: 0
  }
  convolution_param {
    num_output: 128
    kernel_size: 1
    weight_filler {
      type: "xavier"
    }
    bias_filler {
      type: "constant"
      value: 0.2
    }
  }
}
layer {
  name: "inception_3c/3x3_reduce_bn"
  type: "BN"
  bottom: "inception_3c/3x3_reduce"
  top: "inception_3c/3x3_reduce_bn"
  param {
    lr_mult: 1
    decay_mult: 0
  }
  param {
    lr_mult: 1
    decay_mult: 0
  }
  bn_param {
    slope_filler {
      type: "constant"
      value: 1
    }
    bias_filler {
      type: "constant"
      value: 0
    }
    frozen: true
  }
}
layer {
  name: "inception_3c/relu_3x3_reduce"
  type: "ReLU"
  bottom: "inception_3c/3x3_reduce_bn"
  top: "inception_3c/3x3_reduce_bn"
}
layer {
  name: "inception_3c/3x3"
  type: "Convolution"
  bottom: "inception_3c/3x3_reduce_bn"
  top: "inception_3c/3x3"
  param {
    lr_mult: 1
    decay_mult: 1
  }
  param {
    lr_mult: 2
    decay_mult: 0
  }
  convolution_param {
    num_output: 160
    pad: 1
    kernel_size: 3
    stride: 2
    weight_filler {
      type: "xavier"
    }
    bias_filler {
      type: "constant"
      value: 0.2
    }
  }
}
layer {
  name: "inception_3c/3x3_bn"
  type: "BN"
  bottom: "inception_3c/3x3"
  top: "inception_3c/3x3_bn"
  param {
    lr_mult: 1
    decay_mult: 0
  }
  param {
    lr_mult: 1
    decay_mult: 0
  }
  bn_param {
    slope_filler {
      type: "constant"
      value: 1
    }
    bias_filler {
      type: "constant"
      value: 0
    }
    frozen: true
  }
}
layer {
  name: "inception_3c/relu_3x3"
  type: "ReLU"
  bottom: "inception_3c/3x3_bn"
  top: "inception_3c/3x3_bn"
}
layer {
  name: "inception_3c/double_3x3_reduce"
  type: "Convolution"
  bottom: "inception_3b/output"
  top: "inception_3c/double_3x3_reduce"
  param {
    lr_mult: 1
    decay_mult: 1
  }
  param {
    lr_mult: 2
    decay_mult: 0
  }
  convolution_param {
    num_output: 64
    kernel_size: 1
    weight_filler {
      type: "xavier"
    }
    bias_filler {
      type: "constant"
      value: 0.2
    }
  }
}
layer {
  name: "inception_3c/double_3x3_reduce_bn"
  type: "BN"
  bottom: "inception_3c/double_3x3_reduce"
  top: "inception_3c/double_3x3_reduce_bn"
  param {
    lr_mult: 1
    decay_mult: 0
  }
  param {
    lr_mult: 1
    decay_mult: 0
  }
  bn_param {
    slope_filler {
      type: "constant"
      value: 1
    }
    bias_filler {
      type: "constant"
      value: 0
    }
    frozen: true
  }
}
layer {
  name: "inception_3c/relu_double_3x3_reduce"
  type: "ReLU"
  bottom: "inception_3c/double_3x3_reduce_bn"
  top: "inception_3c/double_3x3_reduce_bn"
}
layer {
  name: "inception_3c/double_3x3_1"
  type: "Convolution"
  bottom: "inception_3c/double_3x3_reduce_bn"
  top: "inception_3c/double_3x3_1"
  param {
    lr_mult: 1
    decay_mult: 1
  }
  param {
    lr_mult: 2
    decay_mult: 0
  }
  convolution_param {
    num_output: 96
    pad: 1
    kernel_size: 3
    weight_filler {
      type: "xavier"
    }
    bias_filler {
      type: "constant"
      value: 0.2
    }
  }
}
layer {
  name: "inception_3c/double_3x3_1_bn"
  type: "BN"
  bottom: "inception_3c/double_3x3_1"
  top: "inception_3c/double_3x3_1_bn"
  param {
    lr_mult: 1
    decay_mult: 0
  }
  param {
    lr_mult: 1
    decay_mult: 0
  }
  bn_param {
    slope_filler {
      type: "constant"
      value: 1
    }
    bias_filler {
      type: "constant"
      value: 0
    }
    frozen: true
  }
}
layer {
  name: "inception_3c/relu_double_3x3_1"
  type: "ReLU"
  bottom: "inception_3c/double_3x3_1_bn"
  top: "inception_3c/double_3x3_1_bn"
}
layer {
  name: "inception_3c/double_3x3_2"
  type: "Convolution"
  bottom: "inception_3c/double_3x3_1_bn"
  top: "inception_3c/double_3x3_2"
  param {
    lr_mult: 1
    decay_mult: 1
  }
  param {
    lr_mult: 2
    decay_mult: 0
  }
  convolution_param {
    num_output: 96
    pad: 1
    kernel_size: 3
    stride: 2
    weight_filler {
      type: "xavier"
    }
    bias_filler {
      type: "constant"
      value: 0.2
    }
  }
}
layer {
  name: "inception_3c/double_3x3_2_bn"
  type: "BN"
  bottom: "inception_3c/double_3x3_2"
  top: "inception_3c/double_3x3_2_bn"
  param {
    lr_mult: 1
    decay_mult: 0
  }
  param {
    lr_mult: 1
    decay_mult: 0
  }
  bn_param {
    slope_filler {
      type: "constant"
      value: 1
    }
    bias_filler {
      type: "constant"
      value: 0
    }
    frozen: true
  }
}
layer {
  name: "inception_3c/relu_double_3x3_2"
  type: "ReLU"
  bottom: "inception_3c/double_3x3_2_bn"
  top: "inception_3c/double_3x3_2_bn"
}
layer {
  name: "inception_3c/pool"
  type: "Pooling"
  bottom: "inception_3b/output"
  top: "inception_3c/pool"
  pooling_param {
    pool: MAX
    kernel_size: 3
    stride: 2
  }
}
layer {
  name: "inception_3c/output"
  type: "Concat"
  bottom: "inception_3c/3x3_bn"
  bottom: "inception_3c/double_3x3_2_bn"
  bottom: "inception_3c/pool"
  top: "inception_3c/output"
}
layer {
  name: "inception_4a/1x1"
  type: "Convolution"
  bottom: "inception_3c/output"
  top: "inception_4a/1x1"
  param {
    lr_mult: 1
    decay_mult: 1
  }
  param {
    lr_mult: 2
    decay_mult: 0
  }
  convolution_param {
    num_output: 224
    kernel_size: 1
    weight_filler {
      type: "xavier"
    }
    bias_filler {
      type: "constant"
      value: 0.2
    }
  }
}
layer {
  name: "inception_4a/1x1_bn"
  type: "BN"
  bottom: "inception_4a/1x1"
  top: "inception_4a/1x1_bn"
  param {
    lr_mult: 1
    decay_mult: 0
  }
  param {
    lr_mult: 1
    decay_mult: 0
  }
  bn_param {
    slope_filler {
      type: "constant"
      value: 1
    }
    bias_filler {
      type: "constant"
      value: 0
    }
    frozen: true
  }
}
layer {
  name: "inception_4a/relu_1x1"
  type: "ReLU"
  bottom: "inception_4a/1x1_bn"
  top: "inception_4a/1x1_bn"
}
layer {
  name: "inception_4a/3x3_reduce"
  type: "Convolution"
  bottom: "inception_3c/output"
  top: "inception_4a/3x3_reduce"
  param {
    lr_mult: 1
    decay_mult: 1
  }
  param {
    lr_mult: 2
    decay_mult: 0
  }
  convolution_param {
    num_output: 64
    kernel_size: 1
    weight_filler {
      type: "xavier"
    }
    bias_filler {
      type: "constant"
      value: 0.2
    }
  }
}
layer {
  name: "inception_4a/3x3_reduce_bn"
  type: "BN"
  bottom: "inception_4a/3x3_reduce"
  top: "inception_4a/3x3_reduce_bn"
  param {
    lr_mult: 1
    decay_mult: 0
  }
  param {
    lr_mult: 1
    decay_mult: 0
  }
  bn_param {
    slope_filler {
      type: "constant"
      value: 1
    }
    bias_filler {
      type: "constant"
      value: 0
    }
    frozen: true
  }
}
layer {
  name: "inception_4a/relu_3x3_reduce"
  type: "ReLU"
  bottom: "inception_4a/3x3_reduce_bn"
  top: "inception_4a/3x3_reduce_bn"
}
layer {
  name: "inception_4a/3x3"
  type: "Convolution"
  bottom: "inception_4a/3x3_reduce_bn"
  top: "inception_4a/3x3"
  param {
    lr_mult: 1
    decay_mult: 1
  }
  param {
    lr_mult: 2
    decay_mult: 0
  }
  convolution_param {
    num_output: 96
    pad: 1
    kernel_size: 3
    weight_filler {
      type: "xavier"
    }
    bias_filler {
      type: "constant"
      value: 0.2
    }
  }
}
layer {
  name: "inception_4a/3x3_bn"
  type: "BN"
  bottom: "inception_4a/3x3"
  top: "inception_4a/3x3_bn"
  param {
    lr_mult: 1
    decay_mult: 0
  }
  param {
    lr_mult: 1
    decay_mult: 0
  }
  bn_param {
    slope_filler {
      type: "constant"
      value: 1
    }
    bias_filler {
      type: "constant"
      value: 0
    }
    frozen: true
  }
}
layer {
  name: "inception_4a/relu_3x3"
  type: "ReLU"
  bottom: "inception_4a/3x3_bn"
  top: "inception_4a/3x3_bn"
}
layer {
  name: "inception_4a/double_3x3_reduce"
  type: "Convolution"
  bottom: "inception_3c/output"
  top: "inception_4a/double_3x3_reduce"
  param {
    lr_mult: 1
    decay_mult: 1
  }
  param {
    lr_mult: 2
    decay_mult: 0
  }
  convolution_param {
    num_output: 96
    kernel_size: 1
    weight_filler {
      type: "xavier"
    }
    bias_filler {
      type: "constant"
      value: 0.2
    }
  }
}
layer {
  name: "inception_4a/double_3x3_reduce_bn"
  type: "BN"
  bottom: "inception_4a/double_3x3_reduce"
  top: "inception_4a/double_3x3_reduce_bn"
  param {
    lr_mult: 1
    decay_mult: 0
  }
  param {
    lr_mult: 1
    decay_mult: 0
  }
  bn_param {
    slope_filler {
      type: "constant"
      value: 1
    }
    bias_filler {
      type: "constant"
      value: 0
    }
    frozen: true
  }
}
layer {
  name: "inception_4a/relu_double_3x3_reduce"
  type: "ReLU"
  bottom: "inception_4a/double_3x3_reduce_bn"
  top: "inception_4a/double_3x3_reduce_bn"
}
layer {
  name: "inception_4a/double_3x3_1"
  type: "Convolution"
  bottom: "inception_4a/double_3x3_reduce_bn"
  top: "inception_4a/double_3x3_1"
  param {
    lr_mult: 1
    decay_mult: 1
  }
  param {
    lr_mult: 2
    decay_mult: 0
  }
  convolution_param {
    num_output: 128
    pad: 1
    kernel_size: 3
    weight_filler {
      type: "xavier"
    }
    bias_filler {
      type: "constant"
      value: 0.2
    }
  }
}
layer {
  name: "inception_4a/double_3x3_1_bn"
  type: "BN"
  bottom: "inception_4a/double_3x3_1"
  top: "inception_4a/double_3x3_1_bn"
  param {
    lr_mult: 1
    decay_mult: 0
  }
  param {
    lr_mult: 1
    decay_mult: 0
  }
  bn_param {
    slope_filler {
      type: "constant"
      value: 1
    }
    bias_filler {
      type: "constant"
      value: 0
    }
    frozen: true
  }
}
layer {
  name: "inception_4a/relu_double_3x3_1"
  type: "ReLU"
  bottom: "inception_4a/double_3x3_1_bn"
  top: "inception_4a/double_3x3_1_bn"
}
layer {
  name: "inception_4a/double_3x3_2"
  type: "Convolution"
  bottom: "inception_4a/double_3x3_1_bn"
  top: "inception_4a/double_3x3_2"
  param {
    lr_mult: 1
    decay_mult: 1
  }
  param {
    lr_mult: 2
    decay_mult: 0
  }
  convolution_param {
    num_output: 128
    pad: 1
    kernel_size: 3
    weight_filler {
      type: "xavier"
    }
    bias_filler {
      type: "constant"
      value: 0.2
    }
  }
}
layer {
  name: "inception_4a/double_3x3_2_bn"
  type: "BN"
  bottom: "inception_4a/double_3x3_2"
  top: "inception_4a/double_3x3_2_bn"
  param {
    lr_mult: 1
    decay_mult: 0
  }
  param {
    lr_mult: 1
    decay_mult: 0
  }
  bn_param {
    slope_filler {
      type: "constant"
      value: 1
    }
    bias_filler {
      type: "constant"
      value: 0
    }
    frozen: true
  }
}
layer {
  name: "inception_4a/relu_double_3x3_2"
  type: "ReLU"
  bottom: "inception_4a/double_3x3_2_bn"
  top: "inception_4a/double_3x3_2_bn"
}
layer {
  name: "inception_4a/pool"
  type: "Pooling"
  bottom: "inception_3c/output"
  top: "inception_4a/pool"
  pooling_param {
    pool: AVE
    kernel_size: 3
    stride: 1
    pad: 1
  }
}
layer {
  name: "inception_4a/pool_proj"
  type: "Convolution"
  bottom: "inception_4a/pool"
  top: "inception_4a/pool_proj"
  param {
    lr_mult: 1
    decay_mult: 1
  }
  param {
    lr_mult: 2
    decay_mult: 0
  }
  convolution_param {
    num_output: 128
    kernel_size: 1
    weight_filler {
      type: "xavier"
    }
    bias_filler {
      type: "constant"
      value: 0.2
    }
  }
}
layer {
  name: "inception_4a/pool_proj_bn"
  type: "BN"
  bottom: "inception_4a/pool_proj"
  top: "inception_4a/pool_proj_bn"
  param {
    lr_mult: 1
    decay_mult: 0
  }
  param {
    lr_mult: 1
    decay_mult: 0
  }
  bn_param {
    slope_filler {
      type: "constant"
      value: 1
    }
    bias_filler {
      type: "constant"
      value: 0
    }
    frozen: true
  }
}
layer {
  name: "inception_4a/relu_pool_proj"
  type: "ReLU"
  bottom: "inception_4a/pool_proj_bn"
  top: "inception_4a/pool_proj_bn"
}
layer {
  name: "inception_4a/output"
  type: "Concat"
  bottom: "inception_4a/1x1_bn"
  bottom: "inception_4a/3x3_bn"
  bottom: "inception_4a/double_3x3_2_bn"
  bottom: "inception_4a/pool_proj_bn"
  top: "inception_4a/output"
}
layer {
  name: "inception_4b/1x1"
  type: "Convolution"
  bottom: "inception_4a/output"
  top: "inception_4b/1x1"
  param {
    lr_mult: 1
    decay_mult: 1
  }
  param {
    lr_mult: 2
    decay_mul
I1228 20:31:06.503942 16709 layer_factory.hpp:74] Creating layer data
I1228 20:31:06.503958 16709 net.cpp:96] Creating Layer data
I1228 20:31:06.503963 16709 net.cpp:415] data -> data
I1228 20:31:06.503979 16709 net.cpp:415] data -> label
I1228 20:31:06.503986 16709 net.cpp:160] Setting up data
I1228 20:31:06.504283 16709 video_data_layer.cpp:34] Opening file: /home/hadoop/whx/dataset/ucf101/train_rgb_split1.txt
I1228 20:31:06.508301 16709 video_data_layer.cpp:50] A total of 9537 videos.
I1228 20:31:06.526370 16709 video_data_layer.cpp:89] output data size: 32,9,224,224
I1228 20:31:06.557365 16709 net.cpp:167] Top shape: 32 9 224 224 (14450688)
I1228 20:31:06.557389 16709 net.cpp:167] Top shape: 32 1 1 1 (32)
I1228 20:31:06.557399 16709 layer_factory.hpp:74] Creating layer reshape_data
I1228 20:31:06.557410 16709 net.cpp:96] Creating Layer reshape_data
I1228 20:31:06.557416 16709 net.cpp:459] reshape_data <- data
I1228 20:31:06.557426 16709 net.cpp:415] reshape_data -> reshape_data
I1228 20:31:06.557437 16709 net.cpp:160] Setting up reshape_data
I1228 20:31:06.557447 16709 net.cpp:167] Top shape: 96 3 224 224 (14450688)
I1228 20:31:06.557451 16709 layer_factory.hpp:74] Creating layer conv1/7x7_s2
I1228 20:31:06.557458 16709 net.cpp:96] Creating Layer conv1/7x7_s2
I1228 20:31:06.557462 16709 net.cpp:459] conv1/7x7_s2 <- reshape_data
I1228 20:31:06.557466 16709 net.cpp:415] conv1/7x7_s2 -> conv1/7x7_s2
I1228 20:31:06.557473 16709 net.cpp:160] Setting up conv1/7x7_s2
I1228 20:31:06.557535 16709 net.cpp:167] Top shape: 96 64 112 112 (77070336)
I1228 20:31:06.557543 16709 layer_factory.hpp:74] Creating layer conv1/7x7_s2_bn
I1228 20:31:06.557556 16709 layer_factory.cpp:177] Layer conv1/7x7_s2_bn is using CAFFE engine.
I1228 20:31:06.557562 16709 net.cpp:96] Creating Layer conv1/7x7_s2_bn
I1228 20:31:06.557565 16709 net.cpp:459] conv1/7x7_s2_bn <- conv1/7x7_s2
I1228 20:31:06.557569 16709 net.cpp:415] conv1/7x7_s2_bn -> conv1/7x7_s2_bn
I1228 20:31:06.557576 16709 net.cpp:160] Setting up conv1/7x7_s2_bn
I1228 20:31:06.557595 16709 net.cpp:167] Top shape: 96 64 112 112 (77070336)
I1228 20:31:06.557601 16709 layer_factory.hpp:74] Creating layer conv1/relu_7x7
I1228 20:31:06.557606 16709 net.cpp:96] Creating Layer conv1/relu_7x7
I1228 20:31:06.557610 16709 net.cpp:459] conv1/relu_7x7 <- conv1/7x7_s2_bn
I1228 20:31:06.557613 16709 net.cpp:404] conv1/relu_7x7 -> conv1/7x7_s2_bn (in-place)
I1228 20:31:06.557617 16709 net.cpp:160] Setting up conv1/relu_7x7
I1228 20:31:06.557621 16709 net.cpp:167] Top shape: 96 64 112 112 (77070336)
I1228 20:31:06.557624 16709 layer_factory.hpp:74] Creating layer pool1/3x3_s2
I1228 20:31:06.557629 16709 net.cpp:96] Creating Layer pool1/3x3_s2
I1228 20:31:06.557632 16709 net.cpp:459] pool1/3x3_s2 <- conv1/7x7_s2_bn
I1228 20:31:06.557636 16709 net.cpp:415] pool1/3x3_s2 -> pool1/3x3_s2
I1228 20:31:06.557641 16709 net.cpp:160] Setting up pool1/3x3_s2
I1228 20:31:06.557649 16709 net.cpp:167] Top shape: 96 64 56 56 (19267584)
I1228 20:31:06.557653 16709 layer_factory.hpp:74] Creating layer conv2/3x3_reduce
I1228 20:31:06.557658 16709 net.cpp:96] Creating Layer conv2/3x3_reduce
I1228 20:31:06.557660 16709 net.cpp:459] conv2/3x3_reduce <- pool1/3x3_s2
I1228 20:31:06.557665 16709 net.cpp:415] conv2/3x3_reduce -> conv2/3x3_reduce
I1228 20:31:06.557669 16709 net.cpp:160] Setting up conv2/3x3_reduce
I1228 20:31:06.557694 16709 net.cpp:167] Top shape: 96 64 56 56 (19267584)
I1228 20:31:06.557699 16709 layer_factory.hpp:74] Creating layer conv2/3x3_reduce_bn
I1228 20:31:06.557703 16709 layer_factory.cpp:177] Layer conv2/3x3_reduce_bn is using CAFFE engine.
I1228 20:31:06.557708 16709 net.cpp:96] Creating Layer conv2/3x3_reduce_bn
I1228 20:31:06.557710 16709 net.cpp:459] conv2/3x3_reduce_bn <- conv2/3x3_reduce
I1228 20:31:06.557714 16709 net.cpp:415] conv2/3x3_reduce_bn -> conv2/3x3_reduce_bn
I1228 20:31:06.557718 16709 net.cpp:160] Setting up conv2/3x3_reduce_bn
I1228 20:31:06.557729 16709 net.cpp:167] Top shape: 96 64 56 56 (19267584)
I1228 20:31:06.557735 16709 layer_factory.hpp:74] Creating layer conv2/relu_3x3_reduce
I1228 20:31:06.557740 16709 net.cpp:96] Creating Layer conv2/relu_3x3_reduce
I1228 20:31:06.557742 16709 net.cpp:459] conv2/relu_3x3_reduce <- conv2/3x3_reduce_bn
I1228 20:31:06.557746 16709 net.cpp:404] conv2/relu_3x3_reduce -> conv2/3x3_reduce_bn (in-place)
I1228 20:31:06.557750 16709 net.cpp:160] Setting up conv2/relu_3x3_reduce
I1228 20:31:06.557754 16709 net.cpp:167] Top shape: 96 64 56 56 (19267584)
I1228 20:31:06.557756 16709 layer_factory.hpp:74] Creating layer conv2/3x3
I1228 20:31:06.557761 16709 net.cpp:96] Creating Layer conv2/3x3
I1228 20:31:06.557765 16709 net.cpp:459] conv2/3x3 <- conv2/3x3_reduce_bn
I1228 20:31:06.557768 16709 net.cpp:415] conv2/3x3 -> conv2/3x3
I1228 20:31:06.557773 16709 net.cpp:160] Setting up conv2/3x3
I1228 20:31:06.558207 16709 net.cpp:167] Top shape: 96 192 56 56 (57802752)
I1228 20:31:06.558214 16709 layer_factory.hpp:74] Creating layer conv2/3x3_bn
I1228 20:31:06.558218 16709 layer_factory.cpp:177] Layer conv2/3x3_bn is using CAFFE engine.
I1228 20:31:06.558223 16709 net.cpp:96] Creating Layer conv2/3x3_bn
I1228 20:31:06.558225 16709 net.cpp:459] conv2/3x3_bn <- conv2/3x3
I1228 20:31:06.558229 16709 net.cpp:415] conv2/3x3_bn -> conv2/3x3_bn
I1228 20:31:06.558234 16709 net.cpp:160] Setting up conv2/3x3_bn
I1228 20:31:06.558244 16709 net.cpp:167] Top shape: 96 192 56 56 (57802752)
I1228 20:31:06.558251 16709 layer_factory.hpp:74] Creating layer conv2/relu_3x3
I1228 20:31:06.558255 16709 net.cpp:96] Creating Layer conv2/relu_3x3
I1228 20:31:06.558259 16709 net.cpp:459] conv2/relu_3x3 <- conv2/3x3_bn
I1228 20:31:06.558262 16709 net.cpp:404] conv2/relu_3x3 -> conv2/3x3_bn (in-place)
I1228 20:31:06.558274 16709 net.cpp:160] Setting up conv2/relu_3x3
I1228 20:31:06.558276 16709 net.cpp:167] Top shape: 96 192 56 56 (57802752)
I1228 20:31:06.558279 16709 layer_factory.hpp:74] Creating layer pool2/3x3_s2
I1228 20:31:06.558284 16709 net.cpp:96] Creating Layer pool2/3x3_s2
I1228 20:31:06.558287 16709 net.cpp:459] pool2/3x3_s2 <- conv2/3x3_bn
I1228 20:31:06.558291 16709 net.cpp:415] pool2/3x3_s2 -> pool2/3x3_s2
I1228 20:31:06.558295 16709 net.cpp:160] Setting up pool2/3x3_s2
I1228 20:31:06.558300 16709 net.cpp:167] Top shape: 96 192 28 28 (14450688)
I1228 20:31:06.558302 16709 layer_factory.hpp:74] Creating layer pool2/3x3_s2_pool2/3x3_s2_0_split
I1228 20:31:06.558307 16709 net.cpp:96] Creating Layer pool2/3x3_s2_pool2/3x3_s2_0_split
I1228 20:31:06.558310 16709 net.cpp:459] pool2/3x3_s2_pool2/3x3_s2_0_split <- pool2/3x3_s2
I1228 20:31:06.558315 16709 net.cpp:415] pool2/3x3_s2_pool2/3x3_s2_0_split -> pool2/3x3_s2_pool2/3x3_s2_0_split_0
I1228 20:31:06.558318 16709 net.cpp:415] pool2/3x3_s2_pool2/3x3_s2_0_split -> pool2/3x3_s2_pool2/3x3_s2_0_split_1
I1228 20:31:06.558322 16709 net.cpp:415] pool2/3x3_s2_pool2/3x3_s2_0_split -> pool2/3x3_s2_pool2/3x3_s2_0_split_2
I1228 20:31:06.558327 16709 net.cpp:415] pool2/3x3_s2_pool2/3x3_s2_0_split -> pool2/3x3_s2_pool2/3x3_s2_0_split_3
I1228 20:31:06.558331 16709 net.cpp:160] Setting up pool2/3x3_s2_pool2/3x3_s2_0_split
I1228 20:31:06.558336 16709 net.cpp:167] Top shape: 96 192 28 28 (14450688)
I1228 20:31:06.558338 16709 net.cpp:167] Top shape: 96 192 28 28 (14450688)
I1228 20:31:06.558342 16709 net.cpp:167] Top shape: 96 192 28 28 (14450688)
I1228 20:31:06.558346 16709 net.cpp:167] Top shape: 96 192 28 28 (14450688)
I1228 20:31:06.558348 16709 layer_factory.hpp:74] Creating layer inception_3a/1x1
I1228 20:31:06.558353 16709 net.cpp:96] Creating Layer inception_3a/1x1
I1228 20:31:06.558356 16709 net.cpp:459] inception_3a/1x1 <- pool2/3x3_s2_pool2/3x3_s2_0_split_0
I1228 20:31:06.558359 16709 net.cpp:415] inception_3a/1x1 -> inception_3a/1x1
I1228 20:31:06.558364 16709 net.cpp:160] Setting up inception_3a/1x1
I1228 20:31:06.558419 16709 net.cpp:167] Top shape: 96 64 28 28 (4816896)
I1228 20:31:06.558423 16709 layer_factory.hpp:74] Creating layer inception_3a/1x1_bn
I1228 20:31:06.558428 16709 layer_factory.cpp:177] Layer inception_3a/1x1_bn is using CAFFE engine.
I1228 20:31:06.558431 16709 net.cpp:96] Creating Layer inception_3a/1x1_bn
I1228 20:31:06.558434 16709 net.cpp:459] inception_3a/1x1_bn <- inception_3a/1x1
I1228 20:31:06.558439 16709 net.cpp:415] inception_3a/1x1_bn -> inception_3a/1x1_bn
I1228 20:31:06.558444 16709 net.cpp:160] Setting up inception_3a/1x1_bn
I1228 20:31:06.558452 16709 net.cpp:167] Top shape: 96 64 28 28 (4816896)
I1228 20:31:06.558459 16709 layer_factory.hpp:74] Creating layer inception_3a/relu_1x1
I1228 20:31:06.558464 16709 net.cpp:96] Creating Layer inception_3a/relu_1x1
I1228 20:31:06.558466 16709 net.cpp:459] inception_3a/relu_1x1 <- inception_3a/1x1_bn
I1228 20:31:06.558470 16709 net.cpp:404] inception_3a/relu_1x1 -> inception_3a/1x1_bn (in-place)
I1228 20:31:06.558473 16709 net.cpp:160] Setting up inception_3a/relu_1x1
I1228 20:31:06.558476 16709 net.cpp:167] Top shape: 96 64 28 28 (4816896)
I1228 20:31:06.558480 16709 layer_factory.hpp:74] Creating layer inception_3a/3x3_reduce
I1228 20:31:06.558485 16709 net.cpp:96] Creating Layer inception_3a/3x3_reduce
I1228 20:31:06.558486 16709 net.cpp:459] inception_3a/3x3_reduce <- pool2/3x3_s2_pool2/3x3_s2_0_split_1
I1228 20:31:06.558490 16709 net.cpp:415] inception_3a/3x3_reduce -> inception_3a/3x3_reduce
I1228 20:31:06.558495 16709 net.cpp:160] Setting up inception_3a/3x3_reduce
I1228 20:31:06.558549 16709 net.cpp:167] Top shape: 96 64 28 28 (4816896)
I1228 20:31:06.558554 16709 layer_factory.hpp:74] Creating layer inception_3a/3x3_reduce_bn
I1228 20:31:06.558557 16709 layer_factory.cpp:177] Layer inception_3a/3x3_reduce_bn is using CAFFE engine.
I1228 20:31:06.558562 16709 net.cpp:96] Creating Layer inception_3a/3x3_reduce_bn
I1228 20:31:06.558567 16709 net.cpp:459] inception_3a/3x3_reduce_bn <- inception_3a/3x3_reduce
I1228 20:31:06.558574 16709 net.cpp:415] inception_3a/3x3_reduce_bn -> inception_3a/3x3_reduce_bn
I1228 20:31:06.558578 16709 net.cpp:160] Setting up inception_3a/3x3_reduce_bn
I1228 20:31:06.558588 16709 net.cpp:167] Top shape: 96 64 28 28 (4816896)
I1228 20:31:06.558593 16709 layer_factory.hpp:74] Creating layer inception_3a/relu_3x3_reduce
I1228 20:31:06.558596 16709 net.cpp:96] Creating Layer inception_3a/relu_3x3_reduce
I1228 20:31:06.558599 16709 net.cpp:459] inception_3a/relu_3x3_reduce <- inception_3a/3x3_reduce_bn
I1228 20:31:06.558604 16709 net.cpp:404] inception_3a/relu_3x3_reduce -> inception_3a/3x3_reduce_bn (in-place)
I1228 20:31:06.558607 16709 net.cpp:160] Setting up inception_3a/relu_3x3_reduce
I1228 20:31:06.558610 16709 net.cpp:167] Top shape: 96 64 28 28 (4816896)
I1228 20:31:06.558614 16709 layer_factory.hpp:74] Creating layer inception_3a/3x3
I1228 20:31:06.558619 16709 net.cpp:96] Creating Layer inception_3a/3x3
I1228 20:31:06.558620 16709 net.cpp:459] inception_3a/3x3 <- inception_3a/3x3_reduce_bn
I1228 20:31:06.558624 16709 net.cpp:415] inception_3a/3x3 -> inception_3a/3x3
I1228 20:31:06.558629 16709 net.cpp:160] Setting up inception_3a/3x3
I1228 20:31:06.558775 16709 net.cpp:167] Top shape: 96 64 28 28 (4816896)
I1228 20:31:06.558780 16709 layer_factory.hpp:74] Creating layer inception_3a/3x3_bn
I1228 20:31:06.558784 16709 layer_factory.cpp:177] Layer inception_3a/3x3_bn is using CAFFE engine.
I1228 20:31:06.558787 16709 net.cpp:96] Creating Layer inception_3a/3x3_bn
I1228 20:31:06.558790 16709 net.cpp:459] inception_3a/3x3_bn <- inception_3a/3x3
I1228 20:31:06.558794 16709 net.cpp:415] inception_3a/3x3_bn -> inception_3a/3x3_bn
I1228 20:31:06.558799 16709 net.cpp:160] Setting up inception_3a/3x3_bn
I1228 20:31:06.558807 16709 net.cpp:167] Top shape: 96 64 28 28 (4816896)
I1228 20:31:06.558815 16709 layer_factory.hpp:74] Creating layer inception_3a/relu_3x3
I1228 20:31:06.558818 16709 net.cpp:96] Creating Layer inception_3a/relu_3x3
I1228 20:31:06.558821 16709 net.cpp:459] inception_3a/relu_3x3 <- inception_3a/3x3_bn
I1228 20:31:06.558825 16709 net.cpp:404] inception_3a/relu_3x3 -> inception_3a/3x3_bn (in-place)
I1228 20:31:06.558828 16709 net.cpp:160] Setting up inception_3a/relu_3x3
I1228 20:31:06.558832 16709 net.cpp:167] Top shape: 96 64 28 28 (4816896)
I1228 20:31:06.558835 16709 layer_factory.hpp:74] Creating layer inception_3a/double_3x3_reduce
I1228 20:31:06.558840 16709 net.cpp:96] Creating Layer inception_3a/double_3x3_reduce
I1228 20:31:06.558842 16709 net.cpp:459] inception_3a/double_3x3_reduce <- pool2/3x3_s2_pool2/3x3_s2_0_split_2
I1228 20:31:06.558846 16709 net.cpp:415] inception_3a/double_3x3_reduce -> inception_3a/double_3x3_reduce
I1228 20:31:06.558851 16709 net.cpp:160] Setting up inception_3a/double_3x3_reduce
I1228 20:31:06.558905 16709 net.cpp:167] Top shape: 96 64 28 28 (4816896)
I1228 20:31:06.558910 16709 layer_factory.hpp:74] Creating layer inception_3a/double_3x3_reduce_bn
I1228 20:31:06.558913 16709 layer_factory.cpp:177] Layer inception_3a/double_3x3_reduce_bn is using CAFFE engine.
I1228 20:31:06.558917 16709 net.cpp:96] Creating Layer inception_3a/double_3x3_reduce_bn
I1228 20:31:06.558920 16709 net.cpp:459] inception_3a/double_3x3_reduce_bn <- inception_3a/double_3x3_reduce
I1228 20:31:06.558924 16709 net.cpp:415] inception_3a/double_3x3_reduce_bn -> inception_3a/double_3x3_reduce_bn
I1228 20:31:06.558928 16709 net.cpp:160] Setting up inception_3a/double_3x3_reduce_bn
I1228 20:31:06.558936 16709 net.cpp:167] Top shape: 96 64 28 28 (4816896)
I1228 20:31:06.558943 16709 layer_factory.hpp:74] Creating layer inception_3a/relu_double_3x3_reduce
I1228 20:31:06.558946 16709 net.cpp:96] Creating Layer inception_3a/relu_double_3x3_reduce
I1228 20:31:06.558948 16709 net.cpp:459] inception_3a/relu_double_3x3_reduce <- inception_3a/double_3x3_reduce_bn
I1228 20:31:06.558953 16709 net.cpp:404] inception_3a/relu_double_3x3_reduce -> inception_3a/double_3x3_reduce_bn (in-place)
I1228 20:31:06.558955 16709 net.cpp:160] Setting up inception_3a/relu_double_3x3_reduce
I1228 20:31:06.558964 16709 net.cpp:167] Top shape: 96 64 28 28 (4816896)
I1228 20:31:06.558967 16709 layer_factory.hpp:74] Creating layer inception_3a/double_3x3_1
I1228 20:31:06.558972 16709 net.cpp:96] Creating Layer inception_3a/double_3x3_1
I1228 20:31:06.558975 16709 net.cpp:459] inception_3a/double_3x3_1 <- inception_3a/double_3x3_reduce_bn
I1228 20:31:06.558979 16709 net.cpp:415] inception_3a/double_3x3_1 -> inception_3a/double_3x3_1
I1228 20:31:06.558984 16709 net.cpp:160] Setting up inception_3a/double_3x3_1
I1228 20:31:06.559198 16709 net.cpp:167] Top shape: 96 96 28 28 (7225344)
I1228 20:31:06.559203 16709 layer_factory.hpp:74] Creating layer inception_3a/double_3x3_1_bn
I1228 20:31:06.559206 16709 layer_factory.cpp:177] Layer inception_3a/double_3x3_1_bn is using CAFFE engine.
I1228 20:31:06.559211 16709 net.cpp:96] Creating Layer inception_3a/double_3x3_1_bn
I1228 20:31:06.559214 16709 net.cpp:459] inception_3a/double_3x3_1_bn <- inception_3a/double_3x3_1
I1228 20:31:06.559218 16709 net.cpp:415] inception_3a/double_3x3_1_bn -> inception_3a/double_3x3_1_bn
I1228 20:31:06.559222 16709 net.cpp:160] Setting up inception_3a/double_3x3_1_bn
I1228 20:31:06.559231 16709 net.cpp:167] Top shape: 96 96 28 28 (7225344)
I1228 20:31:06.559237 16709 layer_factory.hpp:74] Creating layer inception_3a/relu_double_3x3_1
I1228 20:31:06.559239 16709 net.cpp:96] Creating Layer inception_3a/relu_double_3x3_1
I1228 20:31:06.559242 16709 net.cpp:459] inception_3a/relu_double_3x3_1 <- inception_3a/double_3x3_1_bn
I1228 20:31:06.559247 16709 net.cpp:404] inception_3a/relu_double_3x3_1 -> inception_3a/double_3x3_1_bn (in-place)
I1228 20:31:06.559249 16709 net.cpp:160] Setting up inception_3a/relu_double_3x3_1
I1228 20:31:06.559253 16709 net.cpp:167] Top shape: 96 96 28 28 (7225344)
I1228 20:31:06.559257 16709 layer_factory.hpp:74] Creating layer inception_3a/double_3x3_2
I1228 20:31:06.559260 16709 net.cpp:96] Creating Layer inception_3a/double_3x3_2
I1228 20:31:06.559263 16709 net.cpp:459] inception_3a/double_3x3_2 <- inception_3a/double_3x3_1_bn
I1228 20:31:06.559267 16709 net.cpp:415] inception_3a/double_3x3_2 -> inception_3a/double_3x3_2
I1228 20:31:06.559272 16709 net.cpp:160] Setting up inception_3a/double_3x3_2
I1228 20:31:06.559590 16709 net.cpp:167] Top shape: 96 96 28 28 (7225344)
I1228 20:31:06.559595 16709 layer_factory.hpp:74] Creating layer inception_3a/double_3x3_2_bn
I1228 20:31:06.559598 16709 layer_factory.cpp:177] Layer inception_3a/double_3x3_2_bn is using CAFFE engine.
I1228 20:31:06.559602 16709 net.cpp:96] Creating Layer inception_3a/double_3x3_2_bn
I1228 20:31:06.559605 16709 net.cpp:459] inception_3a/double_3x3_2_bn <- inception_3a/double_3x3_2
I1228 20:31:06.559609 16709 net.cpp:415] inception_3a/double_3x3_2_bn -> inception_3a/double_3x3_2_bn
I1228 20:31:06.559613 16709 net.cpp:160] Setting up inception_3a/double_3x3_2_bn
I1228 20:31:06.559623 16709 net.cpp:167] Top shape: 96 96 28 28 (7225344)
I1228 20:31:06.559628 16709 layer_factory.hpp:74] Creating layer inception_3a/relu_double_3x3_2
I1228 20:31:06.559631 16709 net.cpp:96] Creating Layer inception_3a/relu_double_3x3_2
I1228 20:31:06.559633 16709 net.cpp:459] inception_3a/relu_double_3x3_2 <- inception_3a/double_3x3_2_bn
I1228 20:31:06.559638 16709 net.cpp:404] inception_3a/relu_double_3x3_2 -> inception_3a/double_3x3_2_bn (in-place)
I1228 20:31:06.559640 16709 net.cpp:160] Setting up inception_3a/relu_double_3x3_2
I1228 20:31:06.559643 16709 net.cpp:167] Top shape: 96 96 28 28 (7225344)
I1228 20:31:06.559646 16709 layer_factory.hpp:74] Creating layer inception_3a/pool
I1228 20:31:06.559653 16709 net.cpp:96] Creating Layer inception_3a/pool
I1228 20:31:06.559655 16709 net.cpp:459] inception_3a/pool <- pool2/3x3_s2_pool2/3x3_s2_0_split_3
I1228 20:31:06.559659 16709 net.cpp:415] inception_3a/pool -> inception_3a/pool
I1228 20:31:06.559664 16709 net.cpp:160] Setting up inception_3a/pool
I1228 20:31:06.559669 16709 net.cpp:167] Top shape: 96 192 28 28 (14450688)
I1228 20:31:06.559671 16709 layer_factory.hpp:74] Creating layer inception_3a/pool_proj
I1228 20:31:06.559682 16709 net.cpp:96] Creating Layer inception_3a/pool_proj
I1228 20:31:06.559685 16709 net.cpp:459] inception_3a/pool_proj <- inception_3a/pool
I1228 20:31:06.559689 16709 net.cpp:415] inception_3a/pool_proj -> inception_3a/pool_proj
I1228 20:31:06.559694 16709 net.cpp:160] Setting up inception_3a/pool_proj
I1228 20:31:06.559725 16709 net.cpp:167] Top shape: 96 32 28 28 (2408448)
I1228 20:31:06.559729 16709 layer_factory.hpp:74] Creating layer inception_3a/pool_proj_bn
I1228 20:31:06.559732 16709 layer_factory.cpp:177] Layer inception_3a/pool_proj_bn is using CAFFE engine.
I1228 20:31:06.559737 16709 net.cpp:96] Creating Layer inception_3a/pool_proj_bn
I1228 20:31:06.559739 16709 net.cpp:459] inception_3a/pool_proj_bn <- inception_3a/pool_proj
I1228 20:31:06.559743 16709 net.cpp:415] inception_3a/pool_proj_bn -> inception_3a/pool_proj_bn
I1228 20:31:06.559748 16709 net.cpp:160] Setting up inception_3a/pool_proj_bn
I1228 20:31:06.559756 16709 net.cpp:167] Top shape: 96 32 28 28 (2408448)
I1228 20:31:06.559762 16709 layer_factory.hpp:74] Creating layer inception_3a/relu_pool_proj
I1228 20:31:06.559765 16709 net.cpp:96] Creating Layer inception_3a/relu_pool_proj
I1228 20:31:06.559767 16709 net.cpp:459] inception_3a/relu_pool_proj <- inception_3a/pool_proj_bn
I1228 20:31:06.559772 16709 net.cpp:404] inception_3a/relu_pool_proj -> inception_3a/pool_proj_bn (in-place)
I1228 20:31:06.559775 16709 net.cpp:160] Setting up inception_3a/relu_pool_proj
I1228 20:31:06.559778 16709 net.cpp:167] Top shape: 96 32 28 28 (2408448)
I1228 20:31:06.559782 16709 layer_factory.hpp:74] Creating layer inception_3a/output
I1228 20:31:06.559785 16709 net.cpp:96] Creating Layer inception_3a/output
I1228 20:31:06.559788 16709 net.cpp:459] inception_3a/output <- inception_3a/1x1_bn
I1228 20:31:06.559792 16709 net.cpp:459] inception_3a/output <- inception_3a/3x3_bn
I1228 20:31:06.559795 16709 net.cpp:459] inception_3a/output <- inception_3a/double_3x3_2_bn
I1228 20:31:06.559798 16709 net.cpp:459] inception_3a/output <- inception_3a/pool_proj_bn
I1228 20:31:06.559803 16709 net.cpp:415] inception_3a/output -> inception_3a/output
I1228 20:31:06.559806 16709 net.cpp:160] Setting up inception_3a/output
I1228 20:31:06.559811 16709 net.cpp:167] Top shape: 96 256 28 28 (19267584)
I1228 20:31:06.559814 16709 layer_factory.hpp:74] Creating layer inception_3a/output_inception_3a/output_0_split
I1228 20:31:06.559818 16709 net.cpp:96] Creating Layer inception_3a/output_inception_3a/output_0_split
I1228 20:31:06.559821 16709 net.cpp:459] inception_3a/output_inception_3a/output_0_split <- inception_3a/output
I1228 20:31:06.559825 16709 net.cpp:415] inception_3a/output_inception_3a/output_0_split -> inception_3a/output_inception_3a/output_0_split_0
I1228 20:31:06.559829 16709 net.cpp:415] inception_3a/output_inception_3a/output_0_split -> inception_3a/output_inception_3a/output_0_split_1
I1228 20:31:06.559835 16709 net.cpp:415] inception_3a/output_inception_3a/output_0_split -> inception_3a/output_inception_3a/output_0_split_2
I1228 20:31:06.559840 16709 net.cpp:415] inception_3a/output_inception_3a/output_0_split -> inception_3a/output_inception_3a/output_0_split_3
I1228 20:31:06.559844 16709 net.cpp:160] Setting up inception_3a/output_inception_3a/output_0_split
I1228 20:31:06.559849 16709 net.cpp:167] Top shape: 96 256 28 28 (19267584)
I1228 20:31:06.559852 16709 net.cpp:167] Top shape: 96 256 28 28 (19267584)
I1228 20:31:06.559855 16709 net.cpp:167] Top shape: 96 256 28 28 (19267584)
I1228 20:31:06.559859 16709 net.cpp:167] Top shape: 96 256 28 28 (19267584)
I1228 20:31:06.559861 16709 layer_factory.hpp:74] Creating layer inception_3b/1x1
I1228 20:31:06.559865 16709 net.cpp:96] Creating Layer inception_3b/1x1
I1228 20:31:06.559869 16709 net.cpp:459] inception_3b/1x1 <- inception_3a/output_inception_3a/output_0_split_0
I1228 20:31:06.559872 16709 net.cpp:415] inception_3b/1x1 -> inception_3b/1x1
I1228 20:31:06.559877 16709 net.cpp:160] Setting up inception_3b/1x1
I1228 20:31:06.559947 16709 net.cpp:167] Top shape: 96 64 28 28 (4816896)
I1228 20:31:06.559957 16709 layer_factory.hpp:74] Creating layer inception_3b/1x1_bn
I1228 20:31:06.559960 16709 layer_factory.cpp:177] Layer inception_3b/1x1_bn is using CAFFE engine.
I1228 20:31:06.559964 16709 net.cpp:96] Creating Layer inception_3b/1x1_bn
I1228 20:31:06.559967 16709 net.cpp:459] inception_3b/1x1_bn <- inception_3b/1x1
I1228 20:31:06.559972 16709 net.cpp:415] inception_3b/1x1_bn -> inception_3b/1x1_bn
I1228 20:31:06.559976 16709 net.cpp:160] Setting up inception_3b/1x1_bn
I1228 20:31:06.559984 16709 net.cpp:167] Top shape: 96 64 28 28 (4816896)
I1228 20:31:06.559993 16709 layer_factory.hpp:74] Creating layer inception_3b/relu_1x1
I1228 20:31:06.559998 16709 net.cpp:96] Creating Layer inception_3b/relu_1x1
I1228 20:31:06.560000 16709 net.cpp:459] inception_3b/relu_1x1 <- inception_3b/1x1_bn
I1228 20:31:06.560003 16709 net.cpp:404] inception_3b/relu_1x1 -> inception_3b/1x1_bn (in-place)
I1228 20:31:06.560008 16709 net.cpp:160] Setting up inception_3b/relu_1x1
I1228 20:31:06.560011 16709 net.cpp:167] Top shape: 96 64 28 28 (4816896)
I1228 20:31:06.560014 16709 layer_factory.hpp:74] Creating layer inception_3b/3x3_reduce
I1228 20:31:06.560019 16709 net.cpp:96] Creating Layer inception_3b/3x3_reduce
I1228 20:31:06.560021 16709 net.cpp:459] inception_3b/3x3_reduce <- inception_3a/output_inception_3a/output_0_split_1
I1228 20:31:06.560025 16709 net.cpp:415] inception_3b/3x3_reduce -> inception_3b/3x3_reduce
I1228 20:31:06.560030 16709 net.cpp:160] Setting up inception_3b/3x3_reduce
I1228 20:31:06.560099 16709 net.cpp:167] Top shape: 96 64 28 28 (4816896)
I1228 20:31:06.560104 16709 layer_factory.hpp:74] Creating layer inception_3b/3x3_reduce_bn
I1228 20:31:06.560107 16709 layer_factory.cpp:177] Layer inception_3b/3x3_reduce_bn is using CAFFE engine.
I1228 20:31:06.560111 16709 net.cpp:96] Creating Layer inception_3b/3x3_reduce_bn
I1228 20:31:06.560114 16709 net.cpp:459] inception_3b/3x3_reduce_bn <- inception_3b/3x3_reduce
I1228 20:31:06.560118 16709 net.cpp:415] inception_3b/3x3_reduce_bn -> inception_3b/3x3_reduce_bn
I1228 20:31:06.560123 16709 net.cpp:160] Setting up inception_3b/3x3_reduce_bn
I1228 20:31:06.560132 16709 net.cpp:167] Top shape: 96 64 28 28 (4816896)
I1228 20:31:06.560137 16709 layer_factory.hpp:74] Creating layer inception_3b/relu_3x3_reduce
I1228 20:31:06.560142 16709 net.cpp:96] Creating Layer inception_3b/relu_3x3_reduce
I1228 20:31:06.560144 16709 net.cpp:459] inception_3b/relu_3x3_reduce <- inception_3b/3x3_reduce_bn
I1228 20:31:06.560148 16709 net.cpp:404] inception_3b/relu_3x3_reduce -> inception_3b/3x3_reduce_bn (in-place)
I1228 20:31:06.560151 16709 net.cpp:160] Setting up inception_3b/relu_3x3_reduce
I1228 20:31:06.560154 16709 net.cpp:167] Top shape: 96 64 28 28 (4816896)
I1228 20:31:06.560158 16709 layer_factory.hpp:74] Creating layer inception_3b/3x3
I1228 20:31:06.560161 16709 net.cpp:96] Creating Layer inception_3b/3x3
I1228 20:31:06.560164 16709 net.cpp:459] inception_3b/3x3 <- inception_3b/3x3_reduce_bn
I1228 20:31:06.560168 16709 net.cpp:415] inception_3b/3x3 -> inception_3b/3x3
I1228 20:31:06.560173 16709 net.cpp:160] Setting up inception_3b/3x3
I1228 20:31:06.560391 16709 net.cpp:167] Top shape: 96 96 28 28 (7225344)
I1228 20:31:06.560396 16709 layer_factory.hpp:74] Creating layer inception_3b/3x3_bn
I1228 20:31:06.560400 16709 layer_factory.cpp:177] Layer inception_3b/3x3_bn is using CAFFE engine.
I1228 20:31:06.560405 16709 net.cpp:96] Creating Layer inception_3b/3x3_bn
I1228 20:31:06.560407 16709 net.cpp:459] inception_3b/3x3_bn <- inception_3b/3x3
I1228 20:31:06.560412 16709 net.cpp:415] inception_3b/3x3_bn -> inception_3b/3x3_bn
I1228 20:31:06.560416 16709 net.cpp:160] Setting up inception_3b/3x3_bn
I1228 20:31:06.560426 16709 net.cpp:167] Top shape: 96 96 28 28 (7225344)
I1228 20:31:06.560431 16709 layer_factory.hpp:74] Creating layer inception_3b/relu_3x3
I1228 20:31:06.560436 16709 net.cpp:96] Creating Layer inception_3b/relu_3x3
I1228 20:31:06.560439 16709 net.cpp:459] inception_3b/relu_3x3 <- inception_3b/3x3_bn
I1228 20:31:06.560446 16709 net.cpp:404] inception_3b/relu_3x3 -> inception_3b/3x3_bn (in-place)
I1228 20:31:06.560452 16709 net.cpp:160] Setting up inception_3b/relu_3x3
I1228 20:31:06.560456 16709 net.cpp:167] Top shape: 96 96 28 28 (7225344)
I1228 20:31:06.560458 16709 layer_factory.hpp:74] Creating layer inception_3b/double_3x3_reduce
I1228 20:31:06.560463 16709 net.cpp:96] Creating Layer inception_3b/double_3x3_reduce
I1228 20:31:06.560466 16709 net.cpp:459] inception_3b/double_3x3_reduce <- inception_3a/output_inception_3a/output_0_split_2
I1228 20:31:06.560470 16709 net.cpp:415] inception_3b/double_3x3_reduce -> inception_3b/double_3x3_reduce
I1228 20:31:06.560474 16709 net.cpp:160] Setting up inception_3b/double_3x3_reduce
I1228 20:31:06.560554 16709 net.cpp:167] Top shape: 96 64 28 28 (4816896)
I1228 20:31:06.560559 16709 layer_factory.hpp:74] Creating layer inception_3b/double_3x3_reduce_bn
I1228 20:31:06.560561 16709 layer_factory.cpp:177] Layer inception_3b/double_3x3_reduce_bn is using CAFFE engine.
I1228 20:31:06.560566 16709 net.cpp:96] Creating Layer inception_3b/double_3x3_reduce_bn
I1228 20:31:06.560570 16709 net.cpp:459] inception_3b/double_3x3_reduce_bn <- inception_3b/double_3x3_reduce
I1228 20:31:06.560575 16709 net.cpp:415] inception_3b/double_3x3_reduce_bn -> inception_3b/double_3x3_reduce_bn
I1228 20:31:06.560578 16709 net.cpp:160] Setting up inception_3b/double_3x3_reduce_bn
I1228 20:31:06.560588 16709 net.cpp:167] Top shape: 96 64 28 28 (4816896)
I1228 20:31:06.560595 16709 layer_factory.hpp:74] Creating layer inception_3b/relu_double_3x3_reduce
I1228 20:31:06.560600 16709 net.cpp:96] Creating Layer inception_3b/relu_double_3x3_reduce
I1228 20:31:06.560602 16709 net.cpp:459] inception_3b/relu_double_3x3_reduce <- inception_3b/double_3x3_reduce_bn
I1228 20:31:06.560606 16709 net.cpp:404] inception_3b/relu_double_3x3_reduce -> inception_3b/double_3x3_reduce_bn (in-place)
I1228 20:31:06.560609 16709 net.cpp:160] Setting up inception_3b/relu_double_3x3_reduce
I1228 20:31:06.560612 16709 net.cpp:167] Top shape: 96 64 28 28 (4816896)
I1228 20:31:06.560616 16709 layer_factory.hpp:74] Creating layer inception_3b/double_3x3_1
I1228 20:31:06.560619 16709 net.cpp:96] Creating Layer inception_3b/double_3x3_1
I1228 20:31:06.560622 16709 net.cpp:459] inception_3b/double_3x3_1 <- inception_3b/double_3x3_reduce_bn
I1228 20:31:06.560627 16709 net.cpp:415] inception_3b/double_3x3_1 -> inception_3b/double_3x3_1
I1228 20:31:06.560631 16709 net.cpp:160] Setting up inception_3b/double_3x3_1
I1228 20:31:06.560874 16709 net.cpp:167] Top shape: 96 96 28 28 (7225344)
I1228 20:31:06.560880 16709 layer_factory.hpp:74] Creating layer inception_3b/double_3x3_1_bn
I1228 20:31:06.560883 16709 layer_factory.cpp:177] Layer inception_3b/double_3x3_1_bn is using CAFFE engine.
I1228 20:31:06.560889 16709 net.cpp:96] Creating Layer inception_3b/double_3x3_1_bn
I1228 20:31:06.560891 16709 net.cpp:459] inception_3b/double_3x3_1_bn <- inception_3b/double_3x3_1
I1228 20:31:06.560896 16709 net.cpp:415] inception_3b/double_3x3_1_bn -> inception_3b/double_3x3_1_bn
I1228 20:31:06.560901 16709 net.cpp:160] Setting up inception_3b/double_3x3_1_bn
I1228 20:31:06.560914 16709 net.cpp:167] Top shape: 96 96 28 28 (7225344)
I1228 20:31:06.560920 16709 layer_factory.hpp:74] Creating layer inception_3b/relu_double_3x3_1
I1228 20:31:06.560925 16709 net.cpp:96] Creating Layer inception_3b/relu_double_3x3_1
I1228 20:31:06.560927 16709 net.cpp:459] inception_3b/relu_double_3x3_1 <- inception_3b/double_3x3_1_bn
I1228 20:31:06.560930 16709 net.cpp:404] inception_3b/relu_double_3x3_1 -> inception_3b/double_3x3_1_bn (in-place)
I1228 20:31:06.560935 16709 net.cpp:160] Setting up inception_3b/relu_double_3x3_1
I1228 20:31:06.560937 16709 net.cpp:167] Top shape: 96 96 28 28 (7225344)
I1228 20:31:06.560940 16709 layer_factory.hpp:74] Creating layer inception_3b/double_3x3_2
I1228 20:31:06.560945 16709 net.cpp:96] Creating Layer inception_3b/double_3x3_2
I1228 20:31:06.560948 16709 net.cpp:459] inception_3b/double_3x3_2 <- inception_3b/double_3x3_1_bn
I1228 20:31:06.560956 16709 net.cpp:415] inception_3b/double_3x3_2 -> inception_3b/double_3x3_2
I1228 20:31:06.560962 16709 net.cpp:160] Setting up inception_3b/double_3x3_2
I1228 20:31:06.561327 16709 net.cpp:167] Top shape: 96 96 28 28 (7225344)
I1228 20:31:06.561333 16709 layer_factory.hpp:74] Creating layer inception_3b/double_3x3_2_bn
I1228 20:31:06.561336 16709 layer_factory.cpp:177] Layer inception_3b/double_3x3_2_bn is using CAFFE engine.
I1228 20:31:06.561342 16709 net.cpp:96] Creating Layer inception_3b/double_3x3_2_bn
I1228 20:31:06.561344 16709 net.cpp:459] inception_3b/double_3x3_2_bn <- inception_3b/double_3x3_2
I1228 20:31:06.561350 16709 net.cpp:415] inception_3b/double_3x3_2_bn -> inception_3b/double_3x3_2_bn
I1228 20:31:06.561354 16709 net.cpp:160] Setting up inception_3b/double_3x3_2_bn
I1228 20:31:06.561365 16709 net.cpp:167] Top shape: 96 96 28 28 (7225344)
I1228 20:31:06.561370 16709 layer_factory.hpp:74] Creating layer inception_3b/relu_double_3x3_2
I1228 20:31:06.561374 16709 net.cpp:96] Creating Layer inception_3b/relu_double_3x3_2
I1228 20:31:06.561378 16709 net.cpp:459] inception_3b/relu_double_3x3_2 <- inception_3b/double_3x3_2_bn
I1228 20:31:06.561380 16709 net.cpp:404] inception_3b/relu_double_3x3_2 -> inception_3b/double_3x3_2_bn (in-place)
I1228 20:31:06.561384 16709 net.cpp:160] Setting up inception_3b/relu_double_3x3_2
I1228 20:31:06.561388 16709 net.cpp:167] Top shape: 96 96 28 28 (7225344)
I1228 20:31:06.561390 16709 layer_factory.hpp:74] Creating layer inception_3b/pool
I1228 20:31:06.561394 16709 net.cpp:96] Creating Layer inception_3b/pool
I1228 20:31:06.561398 16709 net.cpp:459] inception_3b/pool <- inception_3a/output_inception_3a/output_0_split_3
I1228 20:31:06.561403 16709 net.cpp:415] inception_3b/pool -> inception_3b/pool
I1228 20:31:06.561406 16709 net.cpp:160] Setting up inception_3b/pool
I1228 20:31:06.561410 16709 net.cpp:167] Top shape: 96 256 28 28 (19267584)
I1228 20:31:06.561414 16709 layer_factory.hpp:74] Creating layer inception_3b/pool_proj
I1228 20:31:06.561419 16709 net.cpp:96] Creating Layer inception_3b/pool_proj
I1228 20:31:06.561422 16709 net.cpp:459] inception_3b/pool_proj <- inception_3b/pool
I1228 20:31:06.561426 16709 net.cpp:415] inception_3b/pool_proj -> inception_3b/pool_proj
I1228 20:31:06.561431 16709 net.cpp:160] Setting up inception_3b/pool_proj
I1228 20:31:06.561513 16709 net.cpp:167] Top shape: 96 64 28 28 (4816896)
I1228 20:31:06.561518 16709 layer_factory.hpp:74] Creating layer inception_3b/pool_proj_bn
I1228 20:31:06.561522 16709 layer_factory.cpp:177] Layer inception_3b/pool_proj_bn is using CAFFE engine.
I1228 20:31:06.561527 16709 net.cpp:96] Creating Layer inception_3b/pool_proj_bn
I1228 20:31:06.561530 16709 net.cpp:459] inception_3b/pool_proj_bn <- inception_3b/pool_proj
I1228 20:31:06.561535 16709 net.cpp:415] inception_3b/pool_proj_bn -> inception_3b/pool_proj_bn
I1228 20:31:06.561540 16709 net.cpp:160] Setting up inception_3b/pool_proj_bn
I1228 20:31:06.561550 16709 net.cpp:167] Top shape: 96 64 28 28 (4816896)
I1228 20:31:06.561555 16709 layer_factory.hpp:74] Creating layer inception_3b/relu_pool_proj
I1228 20:31:06.561560 16709 net.cpp:96] Creating Layer inception_3b/relu_pool_proj
I1228 20:31:06.561563 16709 net.cpp:459] inception_3b/relu_pool_proj <- inception_3b/pool_proj_bn
I1228 20:31:06.561566 16709 net.cpp:404] inception_3b/relu_pool_proj -> inception_3b/pool_proj_bn (in-place)
I1228 20:31:06.561570 16709 net.cpp:160] Setting up inception_3b/relu_pool_proj
I1228 20:31:06.561573 16709 net.cpp:167] Top shape: 96 64 28 28 (4816896)
I1228 20:31:06.561576 16709 layer_factory.hpp:74] Creating layer inception_3b/output
I1228 20:31:06.561581 16709 net.cpp:96] Creating Layer inception_3b/output
I1228 20:31:06.561584 16709 net.cpp:459] inception_3b/output <- inception_3b/1x1_bn
I1228 20:31:06.561588 16709 net.cpp:459] inception_3b/output <- inception_3b/3x3_bn
I1228 20:31:06.561591 16709 net.cpp:459] inception_3b/output <- inception_3b/double_3x3_2_bn
I1228 20:31:06.561594 16709 net.cpp:459] inception_3b/output <- inception_3b/pool_proj_bn
I1228 20:31:06.561601 16709 net.cpp:415] inception_3b/output -> inception_3b/output
I1228 20:31:06.561609 16709 net.cpp:160] Setting up inception_3b/output
I1228 20:31:06.561614 16709 net.cpp:167] Top shape: 96 320 28 28 (24084480)
I1228 20:31:06.561616 16709 layer_factory.hpp:74] Creating layer inception_3b/output_inception_3b/output_0_split
I1228 20:31:06.561622 16709 net.cpp:96] Creating Layer inception_3b/output_inception_3b/output_0_split
I1228 20:31:06.561626 16709 net.cpp:459] inception_3b/output_inception_3b/output_0_split <- inception_3b/output
I1228 20:31:06.561630 16709 net.cpp:415] inception_3b/output_inception_3b/output_0_split -> inception_3b/output_inception_3b/output_0_split_0
I1228 20:31:06.561635 16709 net.cpp:415] inception_3b/output_inception_3b/output_0_split -> inception_3b/output_inception_3b/output_0_split_1
I1228 20:31:06.561640 16709 net.cpp:415] inception_3b/output_inception_3b/output_0_split -> inception_3b/output_inception_3b/output_0_split_2
I1228 20:31:06.561643 16709 net.cpp:160] Setting up inception_3b/output_inception_3b/output_0_split
I1228 20:31:06.561648 16709 net.cpp:167] Top shape: 96 320 28 28 (24084480)
I1228 20:31:06.561651 16709 net.cpp:167] Top shape: 96 320 28 28 (24084480)
I1228 20:31:06.561655 16709 net.cpp:167] Top shape: 96 320 28 28 (24084480)
I1228 20:31:06.561657 16709 layer_factory.hpp:74] Creating layer inception_3c/3x3_reduce
I1228 20:31:06.561662 16709 net.cpp:96] Creating Layer inception_3c/3x3_reduce
I1228 20:31:06.561666 16709 net.cpp:459] inception_3c/3x3_reduce <- inception_3b/output_inception_3b/output_0_split_0
I1228 20:31:06.561671 16709 net.cpp:415] inception_3c/3x3_reduce -> inception_3c/3x3_reduce
I1228 20:31:06.561676 16709 net.cpp:160] Setting up inception_3c/3x3_reduce
I1228 20:31:06.561867 16709 net.cpp:167] Top shape: 96 128 28 28 (9633792)
I1228 20:31:06.561875 16709 layer_factory.hpp:74] Creating layer inception_3c/3x3_reduce_bn
I1228 20:31:06.561878 16709 layer_factory.cpp:177] Layer inception_3c/3x3_reduce_bn is using CAFFE engine.
I1228 20:31:06.561887 16709 net.cpp:96] Creating Layer inception_3c/3x3_reduce_bn
I1228 20:31:06.561890 16709 net.cpp:459] inception_3c/3x3_reduce_bn <- inception_3c/3x3_reduce
I1228 20:31:06.561894 16709 net.cpp:415] inception_3c/3x3_reduce_bn -> inception_3c/3x3_reduce_bn
I1228 20:31:06.561899 16709 net.cpp:160] Setting up inception_3c/3x3_reduce_bn
I1228 20:31:06.561910 16709 net.cpp:167] Top shape: 96 128 28 28 (9633792)
I1228 20:31:06.561915 16709 layer_factory.hpp:74] Creating layer inception_3c/relu_3x3_reduce
I1228 20:31:06.561924 16709 net.cpp:96] Creating Layer inception_3c/relu_3x3_reduce
I1228 20:31:06.561928 16709 net.cpp:459] inception_3c/relu_3x3_reduce <- inception_3c/3x3_reduce_bn
I1228 20:31:06.561931 16709 net.cpp:404] inception_3c/relu_3x3_reduce -> inception_3c/3x3_reduce_bn (in-place)
I1228 20:31:06.561935 16709 net.cpp:160] Setting up inception_3c/relu_3x3_reduce
I1228 20:31:06.561939 16709 net.cpp:167] Top shape: 96 128 28 28 (9633792)
I1228 20:31:06.561941 16709 layer_factory.hpp:74] Creating layer inception_3c/3x3
I1228 20:31:06.561946 16709 net.cpp:96] Creating Layer inception_3c/3x3
I1228 20:31:06.561949 16709 net.cpp:459] inception_3c/3x3 <- inception_3c/3x3_reduce_bn
I1228 20:31:06.561954 16709 net.cpp:415] inception_3c/3x3 -> inception_3c/3x3
I1228 20:31:06.561959 16709 net.cpp:160] Setting up inception_3c/3x3
I1228 20:31:06.562758 16709 net.cpp:167] Top shape: 96 160 14 14 (3010560)
I1228 20:31:06.562765 16709 layer_factory.hpp:74] Creating layer inception_3c/3x3_bn
I1228 20:31:06.562769 16709 layer_factory.cpp:177] Layer inception_3c/3x3_bn is using CAFFE engine.
I1228 20:31:06.562777 16709 net.cpp:96] Creating Layer inception_3c/3x3_bn
I1228 20:31:06.562779 16709 net.cpp:459] inception_3c/3x3_bn <- inception_3c/3x3
I1228 20:31:06.562783 16709 net.cpp:415] inception_3c/3x3_bn -> inception_3c/3x3_bn
I1228 20:31:06.562789 16709 net.cpp:160] Setting up inception_3c/3x3_bn
I1228 20:31:06.562799 16709 net.cpp:167] Top shape: 96 160 14 14 (3010560)
I1228 20:31:06.562804 16709 layer_factory.hpp:74] Creating layer inception_3c/relu_3x3
I1228 20:31:06.562815 16709 net.cpp:96] Creating Layer inception_3c/relu_3x3
I1228 20:31:06.562819 16709 net.cpp:459] inception_3c/relu_3x3 <- inception_3c/3x3_bn
I1228 20:31:06.562824 16709 net.cpp:404] inception_3c/relu_3x3 -> inception_3c/3x3_bn (in-place)
I1228 20:31:06.562826 16709 net.cpp:160] Setting up inception_3c/relu_3x3
I1228 20:31:06.562830 16709 net.cpp:167] Top shape: 96 160 14 14 (3010560)
I1228 20:31:06.562834 16709 layer_factory.hpp:74] Creating layer inception_3c/double_3x3_reduce
I1228 20:31:06.562839 16709 net.cpp:96] Creating Layer inception_3c/double_3x3_reduce
I1228 20:31:06.562841 16709 net.cpp:459] inception_3c/double_3x3_reduce <- inception_3b/output_inception_3b/output_0_split_1
I1228 20:31:06.562845 16709 net.cpp:415] inception_3c/double_3x3_reduce -> inception_3c/double_3x3_reduce
I1228 20:31:06.562850 16709 net.cpp:160] Setting up inception_3c/double_3x3_reduce
I1228 20:31:06.562947 16709 net.cpp:167] Top shape: 96 64 28 28 (4816896)
I1228 20:31:06.562952 16709 layer_factory.hpp:74] Creating layer inception_3c/double_3x3_reduce_bn
I1228 20:31:06.562954 16709 layer_factory.cpp:177] Layer inception_3c/double_3x3_reduce_bn is using CAFFE engine.
I1228 20:31:06.562961 16709 net.cpp:96] Creating Layer inception_3c/double_3x3_reduce_bn
I1228 20:31:06.562964 16709 net.cpp:459] inception_3c/double_3x3_reduce_bn <- inception_3c/double_3x3_reduce
I1228 20:31:06.562969 16709 net.cpp:415] inception_3c/double_3x3_reduce_bn -> inception_3c/double_3x3_reduce_bn
I1228 20:31:06.562974 16709 net.cpp:160] Setting up inception_3c/double_3x3_reduce_bn
I1228 20:31:06.562984 16709 net.cpp:167] Top shape: 96 64 28 28 (4816896)
I1228 20:31:06.562993 16709 layer_factory.hpp:74] Creating layer inception_3c/relu_double_3x3_reduce
I1228 20:31:06.562996 16709 net.cpp:96] Creating Layer inception_3c/relu_double_3x3_reduce
I1228 20:31:06.562999 16709 net.cpp:459] inception_3c/relu_double_3x3_reduce <- inception_3c/double_3x3_reduce_bn
I1228 20:31:06.563004 16709 net.cpp:404] inception_3c/relu_double_3x3_reduce -> inception_3c/double_3x3_reduce_bn (in-place)
I1228 20:31:06.563006 16709 net.cpp:160] Setting up inception_3c/relu_double_3x3_reduce
I1228 20:31:06.563010 16709 net.cpp:167] Top shape: 96 64 28 28 (4816896)
I1228 20:31:06.563014 16709 layer_factory.hpp:74] Creating layer inception_3c/double_3x3_1
I1228 20:31:06.563017 16709 net.cpp:96] Creating Layer inception_3c/double_3x3_1
I1228 20:31:06.563020 16709 net.cpp:459] inception_3c/double_3x3_1 <- inception_3c/double_3x3_reduce_bn
I1228 20:31:06.563025 16709 net.cpp:415] inception_3c/double_3x3_1 -> inception_3c/double_3x3_1
I1228 20:31:06.563030 16709 net.cpp:160] Setting up inception_3c/double_3x3_1
I1228 20:31:06.563274 16709 net.cpp:167] Top shape: 96 96 28 28 (7225344)
I1228 20:31:06.563280 16709 layer_factory.hpp:74] Creating layer inception_3c/double_3x3_1_bn
I1228 20:31:06.563283 16709 layer_factory.cpp:177] Layer inception_3c/double_3x3_1_bn is using CAFFE engine.
I1228 20:31:06.563288 16709 net.cpp:96] Creating Layer inception_3c/double_3x3_1_bn
I1228 20:31:06.563292 16709 net.cpp:459] inception_3c/double_3x3_1_bn <- inception_3c/double_3x3_1
I1228 20:31:06.563297 16709 net.cpp:415] inception_3c/double_3x3_1_bn -> inception_3c/double_3x3_1_bn
I1228 20:31:06.563302 16709 net.cpp:160] Setting up inception_3c/double_3x3_1_bn
I1228 20:31:06.563313 16709 net.cpp:167] Top shape: 96 96 28 28 (7225344)
I1228 20:31:06.563318 16709 layer_factory.hpp:74] Creating layer inception_3c/relu_double_3x3_1
I1228 20:31:06.563323 16709 net.cpp:96] Creating Layer inception_3c/relu_double_3x3_1
I1228 20:31:06.563325 16709 net.cpp:459] inception_3c/relu_double_3x3_1 <- inception_3c/double_3x3_1_bn
I1228 20:31:06.563328 16709 net.cpp:404] inception_3c/relu_double_3x3_1 -> inception_3c/double_3x3_1_bn (in-place)
I1228 20:31:06.563333 16709 net.cpp:160] Setting up inception_3c/relu_double_3x3_1
I1228 20:31:06.563335 16709 net.cpp:167] Top shape: 96 96 28 28 (7225344)
I1228 20:31:06.563338 16709 layer_factory.hpp:74] Creating layer inception_3c/double_3x3_2
I1228 20:31:06.563346 16709 net.cpp:96] Creating Layer inception_3c/double_3x3_2
I1228 20:31:06.563354 16709 net.cpp:459] inception_3c/double_3x3_2 <- inception_3c/double_3x3_1_bn
I1228 20:31:06.563359 16709 net.cpp:415] inception_3c/double_3x3_2 -> inception_3c/double_3x3_2
I1228 20:31:06.563364 16709 net.cpp:160] Setting up inception_3c/double_3x3_2
I1228 20:31:06.563823 16709 net.cpp:167] Top shape: 96 96 14 14 (1806336)
I1228 20:31:06.563837 16709 layer_factory.hpp:74] Creating layer inception_3c/double_3x3_2_bn
I1228 20:31:06.563841 16709 layer_factory.cpp:177] Layer inception_3c/double_3x3_2_bn is using CAFFE engine.
I1228 20:31:06.563850 16709 net.cpp:96] Creating Layer inception_3c/double_3x3_2_bn
I1228 20:31:06.563855 16709 net.cpp:459] inception_3c/double_3x3_2_bn <- inception_3c/double_3x3_2
I1228 20:31:06.563863 16709 net.cpp:415] inception_3c/double_3x3_2_bn -> inception_3c/double_3x3_2_bn
I1228 20:31:06.563871 16709 net.cpp:160] Setting up inception_3c/double_3x3_2_bn
I1228 20:31:06.563889 16709 net.cpp:167] Top shape: 96 96 14 14 (1806336)
I1228 20:31:06.563910 16709 layer_factory.hpp:74] Creating layer inception_3c/relu_double_3x3_2
I1228 20:31:06.563917 16709 net.cpp:96] Creating Layer inception_3c/relu_double_3x3_2
I1228 20:31:06.563922 16709 net.cpp:459] inception_3c/relu_double_3x3_2 <- inception_3c/double_3x3_2_bn
I1228 20:31:06.563927 16709 net.cpp:404] inception_3c/relu_double_3x3_2 -> inception_3c/double_3x3_2_bn (in-place)
I1228 20:31:06.563935 16709 net.cpp:160] Setting up inception_3c/relu_double_3x3_2
I1228 20:31:06.563941 16709 net.cpp:167] Top shape: 96 96 14 14 (1806336)
I1228 20:31:06.563946 16709 layer_factory.hpp:74] Creating layer inception_3c/pool
I1228 20:31:06.563952 16709 net.cpp:96] Creating Layer inception_3c/pool
I1228 20:31:06.563957 16709 net.cpp:459] inception_3c/pool <- inception_3b/output_inception_3b/output_0_split_2
I1228 20:31:06.563966 16709 net.cpp:415] inception_3c/pool -> inception_3c/pool
I1228 20:31:06.563977 16709 net.cpp:160] Setting up inception_3c/pool
I1228 20:31:06.563987 16709 net.cpp:167] Top shape: 96 320 14 14 (6021120)
I1228 20:31:06.563992 16709 layer_factory.hpp:74] Creating layer inception_3c/output
I1228 20:31:06.563999 16709 net.cpp:96] Creating Layer inception_3c/output
I1228 20:31:06.564003 16709 net.cpp:459] inception_3c/output <- inception_3c/3x3_bn
I1228 20:31:06.564009 16709 net.cpp:459] inception_3c/output <- inception_3c/double_3x3_2_bn
I1228 20:31:06.564014 16709 net.cpp:459] inception_3c/output <- inception_3c/pool
I1228 20:31:06.564023 16709 net.cpp:415] inception_3c/output -> inception_3c/output
I1228 20:31:06.564029 16709 net.cpp:160] Setting up inception_3c/output
I1228 20:31:06.564038 16709 net.cpp:167] Top shape: 96 576 14 14 (10838016)
I1228 20:31:06.564043 16709 layer_factory.hpp:74] Creating layer inception_3c/output_inception_3c/output_0_split
I1228 20:31:06.564049 16709 net.cpp:96] Creating Layer inception_3c/output_inception_3c/output_0_split
I1228 20:31:06.564054 16709 net.cpp:459] inception_3c/output_inception_3c/output_0_split <- inception_3c/output
I1228 20:31:06.564060 16709 net.cpp:415] inception_3c/output_inception_3c/output_0_split -> inception_3c/output_inception_3c/output_0_split_0
I1228 20:31:06.564069 16709 net.cpp:415] inception_3c/output_inception_3c/output_0_split -> inception_3c/output_inception_3c/output_0_split_1
I1228 20:31:06.564076 16709 net.cpp:415] inception_3c/output_inception_3c/output_0_split -> inception_3c/output_inception_3c/output_0_split_2
I1228 20:31:06.564083 16709 net.cpp:415] inception_3c/output_inception_3c/output_0_split -> inception_3c/output_inception_3c/output_0_split_3
I1228 20:31:06.564090 16709 net.cpp:160] Setting up inception_3c/output_inception_3c/output_0_split
I1228 20:31:06.564097 16709 net.cpp:167] Top shape: 96 576 14 14 (10838016)
I1228 20:31:06.564103 16709 net.cpp:167] Top shape: 96 576 14 14 (10838016)
I1228 20:31:06.564110 16709 net.cpp:167] Top shape: 96 576 14 14 (10838016)
I1228 20:31:06.564115 16709 net.cpp:167] Top shape: 96 576 14 14 (10838016)
I1228 20:31:06.564123 16709 layer_factory.hpp:74] Creating layer inception_4a/1x1
I1228 20:31:06.564137 16709 net.cpp:96] Creating Layer inception_4a/1x1
I1228 20:31:06.564142 16709 net.cpp:459] inception_4a/1x1 <- inception_3c/output_inception_3c/output_0_split_0
I1228 20:31:06.564152 16709 net.cpp:415] inception_4a/1x1 -> inception_4a/1x1
I1228 20:31:06.564160 16709 net.cpp:160] Setting up inception_4a/1x1
I1228 20:31:06.565186 16709 net.cpp:167] Top shape: 96 224 14 14 (4214784)
I1228 20:31:06.565197 16709 layer_factory.hpp:74] Creating layer inception_4a/1x1_bn
I1228 20:31:06.565202 16709 layer_factory.cpp:177] Layer inception_4a/1x1_bn is using CAFFE engine.
I1228 20:31:06.565210 16709 net.cpp:96] Creating Layer inception_4a/1x1_bn
I1228 20:31:06.565217 16709 net.cpp:459] inception_4a/1x1_bn <- inception_4a/1x1
I1228 20:31:06.565224 16709 net.cpp:415] inception_4a/1x1_bn -> inception_4a/1x1_bn
I1228 20:31:06.565232 16709 net.cpp:160] Setting up inception_4a/1x1_bn
I1228 20:31:06.565250 16709 net.cpp:167] Top shape: 96 224 14 14 (4214784)
I1228 20:31:06.565259 16709 layer_factory.hpp:74] Creating layer inception_4a/relu_1x1
I1228 20:31:06.565265 16709 net.cpp:96] Creating Layer inception_4a/relu_1x1
I1228 20:31:06.565271 16709 net.cpp:459] inception_4a/relu_1x1 <- inception_4a/1x1_bn
I1228 20:31:06.565277 16709 net.cpp:404] inception_4a/relu_1x1 -> inception_4a/1x1_bn (in-place)
I1228 20:31:06.565284 16709 net.cpp:160] Setting up inception_4a/relu_1x1
I1228 20:31:06.565289 16709 net.cpp:167] Top shape: 96 224 14 14 (4214784)
I1228 20:31:06.565294 16709 layer_factory.hpp:74] Creating layer inception_4a/3x3_reduce
I1228 20:31:06.565301 16709 net.cpp:96] Creating Layer inception_4a/3x3_reduce
I1228 20:31:06.565310 16709 net.cpp:459] inception_4a/3x3_reduce <- inception_3c/output_inception_3c/output_0_split_1
I1228 20:31:06.565318 16709 net.cpp:415] inception_4a/3x3_reduce -> inception_4a/3x3_reduce
I1228 20:31:06.565326 16709 net.cpp:160] Setting up inception_4a/3x3_reduce
I1228 20:31:06.565572 16709 net.cpp:167] Top shape: 96 64 14 14 (1204224)
I1228 20:31:06.565580 16709 layer_factory.hpp:74] Creating layer inception_4a/3x3_reduce_bn
I1228 20:31:06.565584 16709 layer_factory.cpp:177] Layer inception_4a/3x3_reduce_bn is using CAFFE engine.
I1228 20:31:06.565590 16709 net.cpp:96] Creating Layer inception_4a/3x3_reduce_bn
I1228 20:31:06.565593 16709 net.cpp:459] inception_4a/3x3_reduce_bn <- inception_4a/3x3_reduce
I1228 20:31:06.565599 16709 net.cpp:415] inception_4a/3x3_reduce_bn -> inception_4a/3x3_reduce_bn
I1228 20:31:06.565604 16709 net.cpp:160] Setting up inception_4a/3x3_reduce_bn
I1228 20:31:06.565616 16709 net.cpp:167] Top shape: 96 64 14 14 (1204224)
I1228 20:31:06.565625 16709 layer_factory.hpp:74] Creating layer inception_4a/relu_3x3_reduce
I1228 20:31:06.565632 16709 net.cpp:96] Creating Layer inception_4a/relu_3x3_reduce
I1228 20:31:06.565639 16709 net.cpp:459] inception_4a/relu_3x3_reduce <- inception_4a/3x3_reduce_bn
I1228 20:31:06.565647 16709 net.cpp:404] inception_4a/relu_3x3_reduce -> inception_4a/3x3_reduce_bn (in-place)
I1228 20:31:06.565655 16709 net.cpp:160] Setting up inception_4a/relu_3x3_reduce
I1228 20:31:06.565662 16709 net.cpp:167] Top shape: 96 64 14 14 (1204224)
I1228 20:31:06.565667 16709 layer_factory.hpp:74] Creating layer inception_4a/3x3
I1228 20:31:06.565675 16709 net.cpp:96] Creating Layer inception_4a/3x3
I1228 20:31:06.565680 16709 net.cpp:459] inception_4a/3x3 <- inception_4a/3x3_reduce_bn
I1228 20:31:06.565688 16709 net.cpp:415] inception_4a/3x3 -> inception_4a/3x3
I1228 20:31:06.565696 16709 net.cpp:160] Setting up inception_4a/3x3
I1228 20:31:06.566157 16709 net.cpp:167] Top shape: 96 96 14 14 (1806336)
I1228 20:31:06.566169 16709 layer_factory.hpp:74] Creating layer inception_4a/3x3_bn
I1228 20:31:06.566175 16709 layer_factory.cpp:177] Layer inception_4a/3x3_bn is using CAFFE engine.
I1228 20:31:06.566184 16709 net.cpp:96] Creating Layer inception_4a/3x3_bn
I1228 20:31:06.566190 16709 net.cpp:459] inception_4a/3x3_bn <- inception_4a/3x3
I1228 20:31:06.566196 16709 net.cpp:415] inception_4a/3x3_bn -> inception_4a/3x3_bn
I1228 20:31:06.566212 16709 net.cpp:160] Setting up inception_4a/3x3_bn
I1228 20:31:06.566244 16709 net.cpp:167] Top shape: 96 96 14 14 (1806336)
I1228 20:31:06.566259 16709 layer_factory.hpp:74] Creating layer inception_4a/relu_3x3
I1228 20:31:06.566268 16709 net.cpp:96] Creating Layer inception_4a/relu_3x3
I1228 20:31:06.566274 16709 net.cpp:459] inception_4a/relu_3x3 <- inception_4a/3x3_bn
I1228 20:31:06.566284 16709 net.cpp:404] inception_4a/relu_3x3 -> inception_4a/3x3_bn (in-place)
I1228 20:31:06.566290 16709 net.cpp:160] Setting up inception_4a/relu_3x3
I1228 20:31:06.566298 16709 net.cpp:167] Top shape: 96 96 14 14 (1806336)
I1228 20:31:06.566313 16709 layer_factory.hpp:74] Creating layer inception_4a/double_3x3_reduce
I1228 20:31:06.566321 16709 net.cpp:96] Creating Layer inception_4a/double_3x3_reduce
I1228 20:31:06.566326 16709 net.cpp:459] inception_4a/double_3x3_reduce <- inception_3c/output_inception_3c/output_0_split_2
I1228 20:31:06.566337 16709 net.cpp:415] inception_4a/double_3x3_reduce -> inception_4a/double_3x3_reduce
I1228 20:31:06.566346 16709 net.cpp:160] Setting up inception_4a/double_3x3_reduce
I1228 20:31:06.566799 16709 net.cpp:167] Top shape: 96 96 14 14 (1806336)
I1228 20:31:06.566809 16709 layer_factory.hpp:74] Creating layer inception_4a/double_3x3_reduce_bn
I1228 20:31:06.566819 16709 layer_factory.cpp:177] Layer inception_4a/double_3x3_reduce_bn is using CAFFE engine.
I1228 20:31:06.566826 16709 net.cpp:96] Creating Layer inception_4a/double_3x3_reduce_bn
I1228 20:31:06.566833 16709 net.cpp:459] inception_4a/double_3x3_reduce_bn <- inception_4a/double_3x3_reduce
I1228 20:31:06.566848 16709 net.cpp:415] inception_4a/double_3x3_reduce_bn -> inception_4a/double_3x3_reduce_bn
I1228 20:31:06.566856 16709 net.cpp:160] Setting up inception_4a/double_3x3_reduce_bn
I1228 20:31:06.566875 16709 net.cpp:167] Top shape: 96 96 14 14 (1806336)
I1228 20:31:06.566889 16709 layer_factory.hpp:74] Creating layer inception_4a/relu_double_3x3_reduce
I1228 20:31:06.566897 16709 net.cpp:96] Creating Layer inception_4a/relu_double_3x3_reduce
I1228 20:31:06.566906 16709 net.cpp:459] inception_4a/relu_double_3x3_reduce <- inception_4a/double_3x3_reduce_bn
I1228 20:31:06.566912 16709 net.cpp:404] inception_4a/relu_double_3x3_reduce -> inception_4a/double_3x3_reduce_bn (in-place)
I1228 20:31:06.566920 16709 net.cpp:160] Setting up inception_4a/relu_double_3x3_reduce
I1228 20:31:06.566926 16709 net.cpp:167] Top shape: 96 96 14 14 (1806336)
I1228 20:31:06.566932 16709 layer_factory.hpp:74] Creating layer inception_4a/double_3x3_1
I1228 20:31:06.566941 16709 net.cpp:96] Creating Layer inception_4a/double_3x3_1
I1228 20:31:06.566949 16709 net.cpp:459] inception_4a/double_3x3_1 <- inception_4a/double_3x3_reduce_bn
I1228 20:31:06.566958 16709 net.cpp:415] inception_4a/double_3x3_1 -> inception_4a/double_3x3_1
I1228 20:31:06.566965 16709 net.cpp:160] Setting up inception_4a/double_3x3_1
I1228 20:31:06.567756 16709 net.cpp:167] Top shape: 96 128 14 14 (2408448)
I1228 20:31:06.567770 16709 layer_factory.hpp:74] Creating layer inception_4a/double_3x3_1_bn
I1228 20:31:06.567776 16709 layer_factory.cpp:177] Layer inception_4a/double_3x3_1_bn is using CAFFE engine.
I1228 20:31:06.567785 16709 net.cpp:96] Creating Layer inception_4a/double_3x3_1_bn
I1228 20:31:06.567790 16709 net.cpp:459] inception_4a/double_3x3_1_bn <- inception_4a/double_3x3_1
I1228 20:31:06.567801 16709 net.cpp:415] inception_4a/double_3x3_1_bn -> inception_4a/double_3x3_1_bn
I1228 20:31:06.567809 16709 net.cpp:160] Setting up inception_4a/double_3x3_1_bn
I1228 20:31:06.567826 16709 net.cpp:167] Top shape: 96 128 14 14 (2408448)
I1228 20:31:06.567836 16709 layer_factory.hpp:74] Creating layer inception_4a/relu_double_3x3_1
I1228 20:31:06.567842 16709 net.cpp:96] Creating Layer inception_4a/relu_double_3x3_1
I1228 20:31:06.567847 16709 net.cpp:459] inception_4a/relu_double_3x3_1 <- inception_4a/double_3x3_1_bn
I1228 20:31:06.567854 16709 net.cpp:404] inception_4a/relu_double_3x3_1 -> inception_4a/double_3x3_1_bn (in-place)
I1228 20:31:06.567865 16709 net.cpp:160] Setting up inception_4a/relu_double_3x3_1
I1228 20:31:06.567878 16709 net.cpp:167] Top shape: 96 128 14 14 (2408448)
I1228 20:31:06.567883 16709 layer_factory.hpp:74] Creating layer inception_4a/double_3x3_2
I1228 20:31:06.567889 16709 net.cpp:96] Creating Layer inception_4a/double_3x3_2
I1228 20:31:06.567894 16709 net.cpp:459] inception_4a/double_3x3_2 <- inception_4a/double_3x3_1_bn
I1228 20:31:06.567903 16709 net.cpp:415] inception_4a/double_3x3_2 -> inception_4a/double_3x3_2
I1228 20:31:06.567910 16709 net.cpp:160] Setting up inception_4a/double_3x3_2
I1228 20:31:06.569097 16709 net.cpp:167] Top shape: 96 128 14 14 (2408448)
I1228 20:31:06.569108 16709 layer_factory.hpp:74] Creating layer inception_4a/double_3x3_2_bn
I1228 20:31:06.569113 16709 layer_factory.cpp:177] Layer inception_4a/double_3x3_2_bn is using CAFFE engine.
I1228 20:31:06.569120 16709 net.cpp:96] Creating Layer inception_4a/double_3x3_2_bn
I1228 20:31:06.569125 16709 net.cpp:459] inception_4a/double_3x3_2_bn <- inception_4a/double_3x3_2
I1228 20:31:06.569133 16709 net.cpp:415] inception_4a/double_3x3_2_bn -> inception_4a/double_3x3_2_bn
I1228 20:31:06.569140 16709 net.cpp:160] Setting up inception_4a/double_3x3_2_bn
I1228 20:31:06.569156 16709 net.cpp:167] Top shape: 96 128 14 14 (2408448)
I1228 20:31:06.569165 16709 layer_factory.hpp:74] Creating layer inception_4a/relu_double_3x3_2
I1228 20:31:06.569170 16709 net.cpp:96] Creating Layer inception_4a/relu_double_3x3_2
I1228 20:31:06.569175 16709 net.cpp:459] inception_4a/relu_double_3x3_2 <- inception_4a/double_3x3_2_bn
I1228 20:31:06.569182 16709 net.cpp:404] inception_4a/relu_double_3x3_2 -> inception_4a/double_3x3_2_bn (in-place)
I1228 20:31:06.569188 16709 net.cpp:160] Setting up inception_4a/relu_double_3x3_2
I1228 20:31:06.569195 16709 net.cpp:167] Top shape: 96 128 14 14 (2408448)
I1228 20:31:06.569200 16709 layer_factory.hpp:74] Creating layer inception_4a/pool
I1228 20:31:06.569205 16709 net.cpp:96] Creating Layer inception_4a/pool
I1228 20:31:06.569211 16709 net.cpp:459] inception_4a/pool <- inception_3c/output_inception_3c/output_0_split_3
I1228 20:31:06.569216 16709 net.cpp:415] inception_4a/pool -> inception_4a/pool
I1228 20:31:06.569223 16709 net.cpp:160] Setting up inception_4a/pool
I1228 20:31:06.569231 16709 net.cpp:167] Top shape: 96 576 14 14 (10838016)
I1228 20:31:06.569236 16709 layer_factory.hpp:74] Creating layer inception_4a/pool_proj
I1228 20:31:06.569247 16709 net.cpp:96] Creating Layer inception_4a/pool_proj
I1228 20:31:06.569252 16709 net.cpp:459] inception_4a/pool_proj <- inception_4a/pool
I1228 20:31:06.569259 16709 net.cpp:415] inception_4a/pool_proj -> inception_4a/pool_proj
I1228 20:31:06.569265 16709 net.cpp:160] Setting up inception_4a/pool_proj
I1228 20:31:06.569891 16709 net.cpp:167] Top shape: 96 128 14 14 (2408448)
I1228 20:31:06.569906 16709 layer_factory.hpp:74] Creating layer inception_4a/pool_proj_bn
I1228 20:31:06.569912 16709 layer_factory.cpp:177] Layer inception_4a/pool_proj_bn is using CAFFE engine.
I1228 20:31:06.569919 16709 net.cpp:96] Creating Layer inception_4a/pool_proj_bn
I1228 20:31:06.569926 16709 net.cpp:459] inception_4a/pool_proj_bn <- inception_4a/pool_proj
I1228 20:31:06.569933 16709 net.cpp:415] inception_4a/pool_proj_bn -> inception_4a/pool_proj_bn
I1228 20:31:06.569942 16709 net.cpp:160] Setting up inception_4a/pool_proj_bn
I1228 20:31:06.569962 16709 net.cpp:167] Top shape: 96 128 14 14 (2408448)
I1228 20:31:06.569972 16709 layer_factory.hpp:74] Creating layer inception_4a/relu_pool_proj
I1228 20:31:06.569978 16709 net.cpp:96] Creating Layer inception_4a/relu_pool_proj
I1228 20:31:06.569983 16709 net.cpp:459] inception_4a/relu_pool_proj <- inception_4a/pool_proj_bn
I1228 20:31:06.569991 16709 net.cpp:404] inception_4a/relu_pool_proj -> inception_4a/pool_proj_bn (in-place)
I1228 20:31:06.569998 16709 net.cpp:160] Setting up inception_4a/relu_pool_proj
I1228 20:31:06.570003 16709 net.cpp:167] Top shape: 96 128 14 14 (2408448)
I1228 20:31:06.570008 16709 layer_factory.hpp:74] Creating layer inception_4a/output
I1228 20:31:06.570019 16709 net.cpp:96] Creating Layer inception_4a/output
I1228 20:31:06.570029 16709 net.cpp:459] inception_4a/output <- inception_4a/1x1_bn
I1228 20:31:06.570035 16709 net.cpp:459] inception_4a/output <- inception_4a/3x3_bn
I1228 20:31:06.570041 16709 net.cpp:459] inception_4a/output <- inception_4a/double_3x3_2_bn
I1228 20:31:06.570046 16709 net.cpp:459] inception_4a/output <- inception_4a/pool_proj_bn
I1228 20:31:06.570052 16709 net.cpp:415] inception_4a/output -> inception_4a/output
I1228 20:31:06.570060 16709 net.cpp:160] Setting up inception_4a/output
I1228 20:31:06.570067 16709 net.cpp:167] Top shape: 96 576 14 14 (10838016)
I1228 20:31:06.570072 16709 layer_factory.hpp:74] Creating layer inception_4a/output_inception_4a/output_0_split
I1228 20:31:06.570080 16709 net.cpp:96] Creating Layer inception_4a/output_inception_4a/output_0_split
I1228 20:31:06.570086 16709 net.cpp:459] inception_4a/output_inception_4a/output_0_split <- inception_4a/output
I1228 20:31:06.570091 16709 net.cpp:415] inception_4a/output_inception_4a/output_0_split -> inception_4a/output_inception_4a/output_0_split_0
I1228 20:31:06.570099 16709 net.cpp:415] inception_4a/output_inception_4a/output_0_split -> inception_4a/output_inception_4a/output_0_split_1
I1228 20:31:06.570107 16709 net.cpp:415] inception_4a/output_inception_4a/output_0_split -> inception_4a/output_inception_4a/output_0_split_2
I1228 20:31:06.570114 16709 net.cpp:415] inception_4a/output_inception_4a/output_0_split -> inception_4a/output_inception_4a/output_0_split_3
I1228 20:31:06.570122 16709 net.cpp:160] Setting up inception_4a/output_inception_4a/output_0_split
I1228 20:31:06.570128 16709 net.cpp:167] Top shape: 96 576 14 14 (10838016)
I1228 20:31:06.570134 16709 net.cpp:167] Top shape: 96 576 14 14 (10838016)
I1228 20:31:06.570140 16709 net.cpp:167] Top shape: 96 576 14 14 (10838016)
I1228 20:31:06.570145 16709 net.cpp:167] Top shape: 96 576 14 14 (10838016)
I1228 20:31:06.570150 16709 layer_factory.hpp:74] Creating layer inception_4b/1x1
I1228 20:31:06.570159 16709 net.cpp:96] Creating Layer inception_4b/1x1
I1228 20:31:06.570164 16709 net.cpp:459] inception_4b/1x1 <- inception_4a/output_inception_4a/output_0_split_0
I1228 20:31:06.570173 16709 net.cpp:415] inception_4b/1x1 -> inception_4b/1x1
I1228 20:31:06.570180 16709 net.cpp:160] Setting up inception_4b/1x1
I1228 20:31:06.571012 16709 net.cpp:167] Top shape: 96 192 14 14 (3612672)
I1228 20:31:06.571029 16709 layer_factory.hpp:74] Creating layer inception_4b/1x1_bn
I1228 20:31:06.571036 16709 layer_factory.cpp:177] Layer inception_4b/1x1_bn is using CAFFE engine.
I1228 20:31:06.571045 16709 net.cpp:96] Creating Layer inception_4b/1x1_bn
I1228 20:31:06.571050 16709 net.cpp:459] inception_4b/1x1_bn <- inception_4b/1x1
I1228 20:31:06.571058 16709 net.cpp:415] inception_4b/1x1_bn -> inception_4b/1x1_bn
I1228 20:31:06.571066 16709 net.cpp:160] Setting up inception_4b/1x1_bn
I1228 20:31:06.571086 16709 net.cpp:167] Top shape: 96 192 14 14 (3612672)
I1228 20:31:06.571097 16709 layer_factory.hpp:74] Creating layer inception_4b/relu_1x1
I1228 20:31:06.571105 16709 net.cpp:96] Creating Layer inception_4b/relu_1x1
I1228 20:31:06.571110 16709 net.cpp:459] inception_4b/relu_1x1 <- inception_4b/1x1_bn
I1228 20:31:06.571115 16709 net.cpp:404] inception_4b/relu_1x1 -> inception_4b/1x1_bn (in-place)
I1228 20:31:06.571125 16709 net.cpp:160] Setting up inception_4b/relu_1x1
I1228 20:31:06.571131 16709 net.cpp:167] Top shape: 96 192 14 14 (3612672)
I1228 20:31:06.571136 16709 layer_factory.hpp:74] Creating layer inception_4b/3x3_reduce
I1228 20:31:06.571146 16709 net.cpp:96] Creating Layer inception_4b/3x3_reduce
I1228 20:31:06.571151 16709 net.cpp:459] inception_4b/3x3_reduce <- inception_4a/output_inception_4a/output_0_split_1
I1228 20:31:06.571158 16709 net.cpp:415] inception_4b/3x3_reduce -> inception_4b/3x3_reduce
I1228 20:31:06.571166 16709 net.cpp:160] Setting up inception_4b/3x3_reduce
I1228 20:31:06.571584 16709 net.cpp:167] Top shape: 96 96 14 14 (1806336)
I1228 20:31:06.571596 16709 layer_factory.hpp:74] Creating layer inception_4b/3x3_reduce_bn
I1228 20:31:06.571609 16709 layer_factory.cpp:177] Layer inception_4b/3x3_reduce_bn is using CAFFE engine.
I1228 20:31:06.571619 16709 net.cpp:96] Creating Layer inception_4b/3x3_reduce_bn
I1228 20:31:06.571625 16709 net.cpp:459] inception_4b/3x3_reduce_bn <- inception_4b/3x3_reduce
I1228 20:31:06.571635 16709 net.cpp:415] inception_4b/3x3_reduce_bn -> inception_4b/3x3_reduce_bn
I1228 20:31:06.571643 16709 net.cpp:160] Setting up inception_4b/3x3_reduce_bn
I1228 20:31:06.571660 16709 net.cpp:167] Top shape: 96 96 14 14 (1806336)
I1228 20:31:06.571671 16709 layer_factory.hpp:74] Creating layer inception_4b/relu_3x3_reduce
I1228 20:31:06.571677 16709 net.cpp:96] Creating Layer inception_4b/relu_3x3_reduce
I1228 20:31:06.571682 16709 net.cpp:459] inception_4b/relu_3x3_reduce <- inception_4b/3x3_reduce_bn
I1228 20:31:06.571689 16709 net.cpp:404] inception_4b/relu_3x3_reduce -> inception_4b/3x3_reduce_bn (in-place)
I1228 20:31:06.571696 16709 net.cpp:160] Setting up inception_4b/relu_3x3_reduce
I1228 20:31:06.571702 16709 net.cpp:167] Top shape: 96 96 14 14 (1806336)
I1228 20:31:06.571707 16709 layer_factory.hpp:74] Creating layer inception_4b/3x3
I1228 20:31:06.571715 16709 net.cpp:96] Creating Layer inception_4b/3x3
I1228 20:31:06.571719 16709 net.cpp:459] inception_4b/3x3 <- inception_4b/3x3_reduce_bn
I1228 20:31:06.571727 16709 net.cpp:415] inception_4b/3x3 -> inception_4b/3x3
I1228 20:31:06.571734 16709 net.cpp:160] Setting up inception_4b/3x3
I1228 20:31:06.572659 16709 net.cpp:167] Top shape: 96 128 14 14 (2408448)
I1228 20:31:06.572672 16709 layer_factory.hpp:74] Creating layer inception_4b/3x3_bn
I1228 20:31:06.572679 16709 layer_factory.cpp:177] Layer inception_4b/3x3_bn is using CAFFE engine.
I1228 20:31:06.572686 16709 net.cpp:96] Creating Layer inception_4b/3x3_bn
I1228 20:31:06.572692 16709 net.cpp:459] inception_4b/3x3_bn <- inception_4b/3x3
I1228 20:31:06.572701 16709 net.cpp:415] inception_4b/3x3_bn -> inception_4b/3x3_bn
I1228 20:31:06.572710 16709 net.cpp:160] Setting up inception_4b/3x3_bn
I1228 20:31:06.572727 16709 net.cpp:167] Top shape: 96 128 14 14 (2408448)
I1228 20:31:06.572738 16709 layer_factory.hpp:74] Creating layer inception_4b/relu_3x3
I1228 20:31:06.572746 16709 net.cpp:96] Creating Layer inception_4b/relu_3x3
I1228 20:31:06.572751 16709 net.cpp:459] inception_4b/relu_3x3 <- inception_4b/3x3_bn
I1228 20:31:06.572757 16709 net.cpp:404] inception_4b/relu_3x3 -> inception_4b/3x3_bn (in-place)
I1228 20:31:06.572765 16709 net.cpp:160] Setting up inception_4b/relu_3x3
I1228 20:31:06.572772 16709 net.cpp:167] Top shape: 96 128 14 14 (2408448)
I1228 20:31:06.572777 16709 layer_factory.hpp:74] Creating layer inception_4b/double_3x3_reduce
I1228 20:31:06.572788 16709 net.cpp:96] Creating Layer inception_4b/double_3x3_reduce
I1228 20:31:06.572793 16709 net.cpp:459] inception_4b/double_3x3_reduce <- inception_4a/output_inception_4a/output_0_split_2
I1228 20:31:06.572801 16709 net.cpp:415] inception_4b/double_3x3_reduce -> inception_4b/double_3x3_reduce
I1228 20:31:06.572809 16709 net.cpp:160] Setting up inception_4b/double_3x3_reduce
I1228 20:31:06.573259 16709 net.cpp:167] Top shape: 96 96 14 14 (1806336)
I1228 20:31:06.573271 16709 layer_factory.hpp:74] Creating layer inception_4b/double_3x3_reduce_bn
I1228 20:31:06.573276 16709 layer_factory.cpp:177] Layer inception_4b/double_3x3_reduce_bn is using CAFFE engine.
I1228 20:31:06.573285 16709 net.cpp:96] Creating Layer inception_4b/double_3x3_reduce_bn
I1228 20:31:06.573290 16709 net.cpp:459] inception_4b/double_3x3_reduce_bn <- inception_4b/double_3x3_reduce
I1228 20:31:06.573298 16709 net.cpp:415] inception_4b/double_3x3_reduce_bn -> inception_4b/double_3x3_reduce_bn
I1228 20:31:06.573305 16709 net.cpp:160] Setting up inception_4b/double_3x3_reduce_bn
I1228 20:31:06.573320 16709 net.cpp:167] Top shape: 96 96 14 14 (1806336)
I1228 20:31:06.573329 16709 layer_factory.hpp:74] Creating layer inception_4b/relu_double_3x3_reduce
I1228 20:31:06.573336 16709 net.cpp:96] Creating Layer inception_4b/relu_double_3x3_reduce
I1228 20:31:06.573344 16709 net.cpp:459] inception_4b/relu_double_3x3_reduce <- inception_4b/double_3x3_reduce_bn
I1228 20:31:06.573355 16709 net.cpp:404] inception_4b/relu_double_3x3_reduce -> inception_4b/double_3x3_reduce_bn (in-place)
I1228 20:31:06.573361 16709 net.cpp:160] Setting up inception_4b/relu_double_3x3_reduce
I1228 20:31:06.573367 16709 net.cpp:167] Top shape: 96 96 14 14 (1806336)
I1228 20:31:06.573371 16709 layer_factory.hpp:74] Creating layer inception_4b/double_3x3_1
I1228 20:31:06.573381 16709 net.cpp:96] Creating Layer inception_4b/double_3x3_1
I1228 20:31:06.573385 16709 net.cpp:459] inception_4b/double_3x3_1 <- inception_4b/double_3x3_reduce_bn
I1228 20:31:06.573392 16709 net.cpp:415] inception_4b/double_3x3_1 -> inception_4b/double_3x3_1
I1228 20:31:06.573398 16709 net.cpp:160] Setting up inception_4b/double_3x3_1
I1228 20:31:06.574280 16709 net.cpp:167] Top shape: 96 128 14 14 (2408448)
I1228 20:31:06.574290 16709 layer_factory.hpp:74] Creating layer inception_4b/double_3x3_1_bn
I1228 20:31:06.574295 16709 layer_factory.cpp:177] Layer inception_4b/double_3x3_1_bn is using CAFFE engine.
I1228 20:31:06.574303 16709 net.cpp:96] Creating Layer inception_4b/double_3x3_1_bn
I1228 20:31:06.574308 16709 net.cpp:459] inception_4b/double_3x3_1_bn <- inception_4b/double_3x3_1
I1228 20:31:06.574314 16709 net.cpp:415] inception_4b/double_3x3_1_bn -> inception_4b/double_3x3_1_bn
I1228 20:31:06.574321 16709 net.cpp:160] Setting up inception_4b/double_3x3_1_bn
I1228 20:31:06.574337 16709 net.cpp:167] Top shape: 96 128 14 14 (2408448)
I1228 20:31:06.574345 16709 layer_factory.hpp:74] Creating layer inception_4b/relu_double_3x3_1
I1228 20:31:06.574352 16709 net.cpp:96] Creating Layer inception_4b/relu_double_3x3_1
I1228 20:31:06.574357 16709 net.cpp:459] inception_4b/relu_double_3x3_1 <- inception_4b/double_3x3_1_bn
I1228 20:31:06.574362 16709 net.cpp:404] inception_4b/relu_double_3x3_1 -> inception_4b/double_3x3_1_bn (in-place)
I1228 20:31:06.574368 16709 net.cpp:160] Setting up inception_4b/relu_double_3x3_1
I1228 20:31:06.574373 16709 net.cpp:167] Top shape: 96 128 14 14 (2408448)
I1228 20:31:06.574376 16709 layer_factory.hpp:74] Creating layer inception_4b/double_3x3_2
I1228 20:31:06.574383 16709 net.cpp:96] Creating Layer inception_4b/double_3x3_2
I1228 20:31:06.574386 16709 net.cpp:459] inception_4b/double_3x3_2 <- inception_4b/double_3x3_1_bn
I1228 20:31:06.574394 16709 net.cpp:415] inception_4b/double_3x3_2 -> inception_4b/double_3x3_2
I1228 20:31:06.574401 16709 net.cpp:160] Setting up inception_4b/double_3x3_2
I1228 20:31:06.575556 16709 net.cpp:167] Top shape: 96 128 14 14 (2408448)
I1228 20:31:06.575565 16709 layer_factory.hpp:74] Creating layer inception_4b/double_3x3_2_bn
I1228 20:31:06.575570 16709 layer_factory.cpp:177] Layer inception_4b/double_3x3_2_bn is using CAFFE engine.
I1228 20:31:06.575578 16709 net.cpp:96] Creating Layer inception_4b/double_3x3_2_bn
I1228 20:31:06.575583 16709 net.cpp:459] inception_4b/double_3x3_2_bn <- inception_4b/double_3x3_2
I1228 20:31:06.575592 16709 net.cpp:415] inception_4b/double_3x3_2_bn -> inception_4b/double_3x3_2_bn
I1228 20:31:06.575599 16709 net.cpp:160] Setting up inception_4b/double_3x3_2_bn
I1228 20:31:06.575616 16709 net.cpp:167] Top shape: 96 128 14 14 (2408448)
I1228 20:31:06.575625 16709 layer_factory.hpp:74] Creating layer inception_4b/relu_double_3x3_2
I1228 20:31:06.575633 16709 net.cpp:96] Creating Layer inception_4b/relu_double_3x3_2
I1228 20:31:06.575637 16709 net.cpp:459] inception_4b/relu_double_3x3_2 <- inception_4b/double_3x3_2_bn
I1228 20:31:06.575644 16709 net.cpp:404] inception_4b/relu_double_3x3_2 -> inception_4b/double_3x3_2_bn (in-place)
I1228 20:31:06.575649 16709 net.cpp:160] Setting up inception_4b/relu_double_3x3_2
I1228 20:31:06.575655 16709 net.cpp:167] Top shape: 96 128 14 14 (2408448)
I1228 20:31:06.575660 16709 layer_factory.hpp:74] Creating layer inception_4b/pool
I1228 20:31:06.575669 16709 net.cpp:96] Creating Layer inception_4b/pool
I1228 20:31:06.575673 16709 net.cpp:459] inception_4b/pool <- inception_4a/output_inception_4a/output_0_split_3
I1228 20:31:06.575683 16709 net.cpp:415] inception_4b/pool -> inception_4b/pool
I1228 20:31:06.575695 16709 net.cpp:160] Setting up inception_4b/pool
I1228 20:31:06.575703 16709 net.cpp:167] Top shape: 96 576 14 14 (10838016)
I1228 20:31:06.575708 16709 layer_factory.hpp:74] Creating layer inception_4b/pool_proj
I1228 20:31:06.575716 16709 net.cpp:96] Creating Layer inception_4b/pool_proj
I1228 20:31:06.575721 16709 net.cpp:459] inception_4b/pool_proj <- inception_4b/pool
I1228 20:31:06.575728 16709 net.cpp:415] inception_4b/pool_proj -> inception_4b/pool_proj
I1228 20:31:06.575736 16709 net.cpp:160] Setting up inception_4b/pool_proj
I1228 20:31:06.576319 16709 net.cpp:167] Top shape: 96 128 14 14 (2408448)
I1228 20:31:06.576328 16709 layer_factory.hpp:74] Creating layer inception_4b/pool_proj_bn
I1228 20:31:06.576333 16709 layer_factory.cpp:177] Layer inception_4b/pool_proj_bn is using CAFFE engine.
I1228 20:31:06.576341 16709 net.cpp:96] Creating Layer inception_4b/pool_proj_bn
I1228 20:31:06.576345 16709 net.cpp:459] inception_4b/pool_proj_bn <- inception_4b/pool_proj
I1228 20:31:06.576352 16709 net.cpp:415] inception_4b/pool_proj_bn -> inception_4b/pool_proj_bn
I1228 20:31:06.576359 16709 net.cpp:160] Setting up inception_4b/pool_proj_bn
I1228 20:31:06.576375 16709 net.cpp:167] Top shape: 96 128 14 14 (2408448)
I1228 20:31:06.576382 16709 layer_factory.hpp:74] Creating layer inception_4b/relu_pool_proj
I1228 20:31:06.576390 16709 net.cpp:96] Creating Layer inception_4b/relu_pool_proj
I1228 20:31:06.576393 16709 net.cpp:459] inception_4b/relu_pool_proj <- inception_4b/pool_proj_bn
I1228 20:31:06.576400 16709 net.cpp:404] inception_4b/relu_pool_proj -> inception_4b/pool_proj_bn (in-place)
I1228 20:31:06.576405 16709 net.cpp:160] Setting up inception_4b/relu_pool_proj
I1228 20:31:06.576411 16709 net.cpp:167] Top shape: 96 128 14 14 (2408448)
I1228 20:31:06.576416 16709 layer_factory.hpp:74] Creating layer inception_4b/output
I1228 20:31:06.576421 16709 net.cpp:96] Creating Layer inception_4b/output
I1228 20:31:06.576426 16709 net.cpp:459] inception_4b/output <- inception_4b/1x1_bn
I1228 20:31:06.576431 16709 net.cpp:459] inception_4b/output <- inception_4b/3x3_bn
I1228 20:31:06.576436 16709 net.cpp:459] inception_4b/output <- inception_4b/double_3x3_2_bn
I1228 20:31:06.576441 16709 net.cpp:459] inception_4b/output <- inception_4b/pool_proj_bn
I1228 20:31:06.576447 16709 net.cpp:415] inception_4b/output -> inception_4b/output
I1228 20:31:06.576453 16709 net.cpp:160] Setting up inception_4b/output
I1228 20:31:06.576462 16709 net.cpp:167] Top shape: 96 576 14 14 (10838016)
I1228 20:31:06.576465 16709 layer_factory.hpp:74] Creating layer inception_4b/output_inception_4b/output_0_split
I1228 20:31:06.576472 16709 net.cpp:96] Creating Layer inception_4b/output_inception_4b/output_0_split
I1228 20:31:06.576477 16709 net.cpp:459] inception_4b/output_inception_4b/output_0_split <- inception_4b/output
I1228 20:31:06.576483 16709 net.cpp:415] inception_4b/output_inception_4b/output_0_split -> inception_4b/output_inception_4b/output_0_split_0
I1228 20:31:06.576490 16709 net.cpp:415] inception_4b/output_inception_4b/output_0_split -> inception_4b/output_inception_4b/output_0_split_1
I1228 20:31:06.576498 16709 net.cpp:415] inception_4b/output_inception_4b/output_0_split -> inception_4b/output_inception_4b/output_0_split_2
I1228 20:31:06.576504 16709 net.cpp:415] inception_4b/output_inception_4b/output_0_split -> inception_4b/output_inception_4b/output_0_split_3
I1228 20:31:06.576510 16709 net.cpp:160] Setting up inception_4b/output_inception_4b/output_0_split
I1228 20:31:06.576517 16709 net.cpp:167] Top shape: 96 576 14 14 (10838016)
I1228 20:31:06.576522 16709 net.cpp:167] Top shape: 96 576 14 14 (10838016)
I1228 20:31:06.576527 16709 net.cpp:167] Top shape: 96 576 14 14 (10838016)
I1228 20:31:06.576532 16709 net.cpp:167] Top shape: 96 576 14 14 (10838016)
I1228 20:31:06.576537 16709 layer_factory.hpp:74] Creating layer inception_4c/1x1
I1228 20:31:06.576558 16709 net.cpp:96] Creating Layer inception_4c/1x1
I1228 20:31:06.576566 16709 net.cpp:459] inception_4c/1x1 <- inception_4b/output_inception_4b/output_0_split_0
I1228 20:31:06.576577 16709 net.cpp:415] inception_4c/1x1 -> inception_4c/1x1
I1228 20:31:06.576586 16709 net.cpp:160] Setting up inception_4c/1x1
I1228 20:31:06.577302 16709 net.cpp:167] Top shape: 96 160 14 14 (3010560)
I1228 20:31:06.577313 16709 layer_factory.hpp:74] Creating layer inception_4c/1x1_bn
I1228 20:31:06.577317 16709 layer_factory.cpp:177] Layer inception_4c/1x1_bn is using CAFFE engine.
I1228 20:31:06.577323 16709 net.cpp:96] Creating Layer inception_4c/1x1_bn
I1228 20:31:06.577327 16709 net.cpp:459] inception_4c/1x1_bn <- inception_4c/1x1
I1228 20:31:06.577332 16709 net.cpp:415] inception_4c/1x1_bn -> inception_4c/1x1_bn
I1228 20:31:06.577337 16709 net.cpp:160] Setting up inception_4c/1x1_bn
I1228 20:31:06.577348 16709 net.cpp:167] Top shape: 96 160 14 14 (3010560)
I1228 20:31:06.577354 16709 layer_factory.hpp:74] Creating layer inception_4c/relu_1x1
I1228 20:31:06.577358 16709 net.cpp:96] Creating Layer inception_4c/relu_1x1
I1228 20:31:06.577361 16709 net.cpp:459] inception_4c/relu_1x1 <- inception_4c/1x1_bn
I1228 20:31:06.577364 16709 net.cpp:404] inception_4c/relu_1x1 -> inception_4c/1x1_bn (in-place)
I1228 20:31:06.577368 16709 net.cpp:160] Setting up inception_4c/relu_1x1
I1228 20:31:06.577373 16709 net.cpp:167] Top shape: 96 160 14 14 (3010560)
I1228 20:31:06.577375 16709 layer_factory.hpp:74] Creating layer inception_4c/3x3_reduce
I1228 20:31:06.577380 16709 net.cpp:96] Creating Layer inception_4c/3x3_reduce
I1228 20:31:06.577384 16709 net.cpp:459] inception_4c/3x3_reduce <- inception_4b/output_inception_4b/output_0_split_1
I1228 20:31:06.577389 16709 net.cpp:415] inception_4c/3x3_reduce -> inception_4c/3x3_reduce
I1228 20:31:06.577392 16709 net.cpp:160] Setting up inception_4c/3x3_reduce
I1228 20:31:06.577710 16709 net.cpp:167] Top shape: 96 128 14 14 (2408448)
I1228 20:31:06.577716 16709 layer_factory.hpp:74] Creating layer inception_4c/3x3_reduce_bn
I1228 20:31:06.577719 16709 layer_factory.cpp:177] Layer inception_4c/3x3_reduce_bn is using CAFFE engine.
I1228 20:31:06.577725 16709 net.cpp:96] Creating Layer inception_4c/3x3_reduce_bn
I1228 20:31:06.577728 16709 net.cpp:459] inception_4c/3x3_reduce_bn <- inception_4c/3x3_reduce
I1228 20:31:06.577733 16709 net.cpp:415] inception_4c/3x3_reduce_bn -> inception_4c/3x3_reduce_bn
I1228 20:31:06.577739 16709 net.cpp:160] Setting up inception_4c/3x3_reduce_bn
I1228 20:31:06.577747 16709 net.cpp:167] Top shape: 96 128 14 14 (2408448)
I1228 20:31:06.577754 16709 layer_factory.hpp:74] Creating layer inception_4c/relu_3x3_reduce
I1228 20:31:06.577757 16709 net.cpp:96] Creating Layer inception_4c/relu_3x3_reduce
I1228 20:31:06.577760 16709 net.cpp:459] inception_4c/relu_3x3_reduce <- inception_4c/3x3_reduce_bn
I1228 20:31:06.577764 16709 net.cpp:404] inception_4c/relu_3x3_reduce -> inception_4c/3x3_reduce_bn (in-place)
I1228 20:31:06.577769 16709 net.cpp:160] Setting up inception_4c/relu_3x3_reduce
I1228 20:31:06.577771 16709 net.cpp:167] Top shape: 96 128 14 14 (2408448)
I1228 20:31:06.577775 16709 layer_factory.hpp:74] Creating layer inception_4c/3x3
I1228 20:31:06.577780 16709 net.cpp:96] Creating Layer inception_4c/3x3
I1228 20:31:06.577782 16709 net.cpp:459] inception_4c/3x3 <- inception_4c/3x3_reduce_bn
I1228 20:31:06.577786 16709 net.cpp:415] inception_4c/3x3 -> inception_4c/3x3
I1228 20:31:06.577791 16709 net.cpp:160] Setting up inception_4c/3x3
I1228 20:31:06.578588 16709 net.cpp:167] Top shape: 96 160 14 14 (3010560)
I1228 20:31:06.578595 16709 layer_factory.hpp:74] Creating layer inception_4c/3x3_bn
I1228 20:31:06.578598 16709 layer_factory.cpp:177] Layer inception_4c/3x3_bn is using CAFFE engine.
I1228 20:31:06.578603 16709 net.cpp:96] Creating Layer inception_4c/3x3_bn
I1228 20:31:06.578606 16709 net.cpp:459] inception_4c/3x3_bn <- inception_4c/3x3
I1228 20:31:06.578611 16709 net.cpp:415] inception_4c/3x3_bn -> inception_4c/3x3_bn
I1228 20:31:06.578616 16709 net.cpp:160] Setting up inception_4c/3x3_bn
I1228 20:31:06.578627 16709 net.cpp:167] Top shape: 96 160 14 14 (3010560)
I1228 20:31:06.578639 16709 layer_factory.hpp:74] Creating layer inception_4c/relu_3x3
I1228 20:31:06.578644 16709 net.cpp:96] Creating Layer inception_4c/relu_3x3
I1228 20:31:06.578646 16709 net.cpp:459] inception_4c/relu_3x3 <- inception_4c/3x3_bn
I1228 20:31:06.578651 16709 net.cpp:404] inception_4c/relu_3x3 -> inception_4c/3x3_bn (in-place)
I1228 20:31:06.578655 16709 net.cpp:160] Setting up inception_4c/relu_3x3
I1228 20:31:06.578658 16709 net.cpp:167] Top shape: 96 160 14 14 (3010560)
I1228 20:31:06.578661 16709 layer_factory.hpp:74] Creating layer inception_4c/double_3x3_reduce
I1228 20:31:06.578666 16709 net.cpp:96] Creating Layer inception_4c/double_3x3_reduce
I1228 20:31:06.578670 16709 net.cpp:459] inception_4c/double_3x3_reduce <- inception_4b/output_inception_4b/output_0_split_2
I1228 20:31:06.578673 16709 net.cpp:415] inception_4c/double_3x3_reduce -> inception_4c/double_3x3_reduce
I1228 20:31:06.578678 16709 net.cpp:160] Setting up inception_4c/double_3x3_reduce
I1228 20:31:06.578997 16709 net.cpp:167] Top shape: 96 128 14 14 (2408448)
I1228 20:31:06.579005 16709 layer_factory.hpp:74] Creating layer inception_4c/double_3x3_reduce_bn
I1228 20:31:06.579007 16709 layer_factory.cpp:177] Layer inception_4c/double_3x3_reduce_bn is using CAFFE engine.
I1228 20:31:06.579012 16709 net.cpp:96] Creating Layer inception_4c/double_3x3_reduce_bn
I1228 20:31:06.579015 16709 net.cpp:459] inception_4c/double_3x3_reduce_bn <- inception_4c/double_3x3_reduce
I1228 20:31:06.579020 16709 net.cpp:415] inception_4c/double_3x3_reduce_bn -> inception_4c/double_3x3_reduce_bn
I1228 20:31:06.579025 16709 net.cpp:160] Setting up inception_4c/double_3x3_reduce_bn
I1228 20:31:06.579033 16709 net.cpp:167] Top shape: 96 128 14 14 (2408448)
I1228 20:31:06.579040 16709 layer_factory.hpp:74] Creating layer inception_4c/relu_double_3x3_reduce
I1228 20:31:06.579043 16709 net.cpp:96] Creating Layer inception_4c/relu_double_3x3_reduce
I1228 20:31:06.579047 16709 net.cpp:459] inception_4c/relu_double_3x3_reduce <- inception_4c/double_3x3_reduce_bn
I1228 20:31:06.579051 16709 net.cpp:404] inception_4c/relu_double_3x3_reduce -> inception_4c/double_3x3_reduce_bn (in-place)
I1228 20:31:06.579054 16709 net.cpp:160] Setting up inception_4c/relu_double_3x3_reduce
I1228 20:31:06.579057 16709 net.cpp:167] Top shape: 96 128 14 14 (2408448)
I1228 20:31:06.579061 16709 layer_factory.hpp:74] Creating layer inception_4c/double_3x3_1
I1228 20:31:06.579066 16709 net.cpp:96] Creating Layer inception_4c/double_3x3_1
I1228 20:31:06.579067 16709 net.cpp:459] inception_4c/double_3x3_1 <- inception_4c/double_3x3_reduce_bn
I1228 20:31:06.579072 16709 net.cpp:415] inception_4c/double_3x3_1 -> inception_4c/double_3x3_1
I1228 20:31:06.579077 16709 net.cpp:160] Setting up inception_4c/double_3x3_1
I1228 20:31:06.579869 16709 net.cpp:167] Top shape: 96 160 14 14 (3010560)
I1228 20:31:06.579874 16709 layer_factory.hpp:74] Creating layer inception_4c/double_3x3_1_bn
I1228 20:31:06.579879 16709 layer_factory.cpp:177] Layer inception_4c/double_3x3_1_bn is using CAFFE engine.
I1228 20:31:06.579883 16709 net.cpp:96] Creating Layer inception_4c/double_3x3_1_bn
I1228 20:31:06.579886 16709 net.cpp:459] inception_4c/double_3x3_1_bn <- inception_4c/double_3x3_1
I1228 20:31:06.579891 16709 net.cpp:415] inception_4c/double_3x3_1_bn -> inception_4c/double_3x3_1_bn
I1228 20:31:06.579895 16709 net.cpp:160] Setting up inception_4c/double_3x3_1_bn
I1228 20:31:06.579906 16709 net.cpp:167] Top shape: 96 160 14 14 (3010560)
I1228 20:31:06.579911 16709 layer_factory.hpp:74] Creating layer inception_4c/relu_double_3x3_1
I1228 20:31:06.579916 16709 net.cpp:96] Creating Layer inception_4c/relu_double_3x3_1
I1228 20:31:06.579919 16709 net.cpp:459] inception_4c/relu_double_3x3_1 <- inception_4c/double_3x3_1_bn
I1228 20:31:06.579923 16709 net.cpp:404] inception_4c/relu_double_3x3_1 -> inception_4c/double_3x3_1_bn (in-place)
I1228 20:31:06.579926 16709 net.cpp:160] Setting up inception_4c/relu_double_3x3_1
I1228 20:31:06.579931 16709 net.cpp:167] Top shape: 96 160 14 14 (3010560)
I1228 20:31:06.579936 16709 layer_factory.hpp:74] Creating layer inception_4c/double_3x3_2
I1228 20:31:06.579946 16709 net.cpp:96] Creating Layer inception_4c/double_3x3_2
I1228 20:31:06.579948 16709 net.cpp:459] inception_4c/double_3x3_2 <- inception_4c/double_3x3_1_bn
I1228 20:31:06.579952 16709 net.cpp:415] inception_4c/double_3x3_2 -> inception_4c/double_3x3_2
I1228 20:31:06.579957 16709 net.cpp:160] Setting up inception_4c/double_3x3_2
I1228 20:31:06.580956 16709 net.cpp:167] Top shape: 96 160 14 14 (3010560)
I1228 20:31:06.580962 16709 layer_factory.hpp:74] Creating layer inception_4c/double_3x3_2_bn
I1228 20:31:06.580965 16709 layer_factory.cpp:177] Layer inception_4c/double_3x3_2_bn is using CAFFE engine.
I1228 20:31:06.580971 16709 net.cpp:96] Creating Layer inception_4c/double_3x3_2_bn
I1228 20:31:06.580973 16709 net.cpp:459] inception_4c/double_3x3_2_bn <- inception_4c/double_3x3_2
I1228 20:31:06.580978 16709 net.cpp:415] inception_4c/double_3x3_2_bn -> inception_4c/double_3x3_2_bn
I1228 20:31:06.580982 16709 net.cpp:160] Setting up inception_4c/double_3x3_2_bn
I1228 20:31:06.580993 16709 net.cpp:167] Top shape: 96 160 14 14 (3010560)
I1228 20:31:06.580998 16709 layer_factory.hpp:74] Creating layer inception_4c/relu_double_3x3_2
I1228 20:31:06.581002 16709 net.cpp:96] Creating Layer inception_4c/relu_double_3x3_2
I1228 20:31:06.581006 16709 net.cpp:459] inception_4c/relu_double_3x3_2 <- inception_4c/double_3x3_2_bn
I1228 20:31:06.581009 16709 net.cpp:404] inception_4c/relu_double_3x3_2 -> inception_4c/double_3x3_2_bn (in-place)
I1228 20:31:06.581013 16709 net.cpp:160] Setting up inception_4c/relu_double_3x3_2
I1228 20:31:06.581017 16709 net.cpp:167] Top shape: 96 160 14 14 (3010560)
I1228 20:31:06.581019 16709 layer_factory.hpp:74] Creating layer inception_4c/pool
I1228 20:31:06.581023 16709 net.cpp:96] Creating Layer inception_4c/pool
I1228 20:31:06.581027 16709 net.cpp:459] inception_4c/pool <- inception_4b/output_inception_4b/output_0_split_3
I1228 20:31:06.581030 16709 net.cpp:415] inception_4c/pool -> inception_4c/pool
I1228 20:31:06.581034 16709 net.cpp:160] Setting up inception_4c/pool
I1228 20:31:06.581039 16709 net.cpp:167] Top shape: 96 576 14 14 (10838016)
I1228 20:31:06.581043 16709 layer_factory.hpp:74] Creating layer inception_4c/pool_proj
I1228 20:31:06.581048 16709 net.cpp:96] Creating Layer inception_4c/pool_proj
I1228 20:31:06.581050 16709 net.cpp:459] inception_4c/pool_proj <- inception_4c/pool
I1228 20:31:06.581054 16709 net.cpp:415] inception_4c/pool_proj -> inception_4c/pool_proj
I1228 20:31:06.581059 16709 net.cpp:160] Setting up inception_4c/pool_proj
I1228 20:31:06.581384 16709 net.cpp:167] Top shape: 96 128 14 14 (2408448)
I1228 20:31:06.581390 16709 layer_factory.hpp:74] Creating layer inception_4c/pool_proj_bn
I1228 20:31:06.581393 16709 layer_factory.cpp:177] Layer inception_4c/pool_proj_bn is using CAFFE engine.
I1228 20:31:06.581398 16709 net.cpp:96] Creating Layer inception_4c/pool_proj_bn
I1228 20:31:06.581401 16709 net.cpp:459] inception_4c/pool_proj_bn <- inception_4c/pool_proj
I1228 20:31:06.581406 16709 net.cpp:415] inception_4c/pool_proj_bn -> inception_4c/pool_proj_bn
I1228 20:31:06.581411 16709 net.cpp:160] Setting up inception_4c/pool_proj_bn
I1228 20:31:06.581421 16709 net.cpp:167] Top shape: 96 128 14 14 (2408448)
I1228 20:31:06.581444 16709 layer_factory.hpp:74] Creating layer inception_4c/relu_pool_proj
I1228 20:31:06.581449 16709 net.cpp:96] Creating Layer inception_4c/relu_pool_proj
I1228 20:31:06.581451 16709 net.cpp:459] inception_4c/relu_pool_proj <- inception_4c/pool_proj_bn
I1228 20:31:06.581455 16709 net.cpp:404] inception_4c/relu_pool_proj -> inception_4c/pool_proj_bn (in-place)
I1228 20:31:06.581459 16709 net.cpp:160] Setting up inception_4c/relu_pool_proj
I1228 20:31:06.581463 16709 net.cpp:167] Top shape: 96 128 14 14 (2408448)
I1228 20:31:06.581466 16709 layer_factory.hpp:74] Creating layer inception_4c/output
I1228 20:31:06.581470 16709 net.cpp:96] Creating Layer inception_4c/output
I1228 20:31:06.581473 16709 net.cpp:459] inception_4c/output <- inception_4c/1x1_bn
I1228 20:31:06.581482 16709 net.cpp:459] inception_4c/output <- inception_4c/3x3_bn
I1228 20:31:06.581485 16709 net.cpp:459] inception_4c/output <- inception_4c/double_3x3_2_bn
I1228 20:31:06.581488 16709 net.cpp:459] inception_4c/output <- inception_4c/pool_proj_bn
I1228 20:31:06.581492 16709 net.cpp:415] inception_4c/output -> inception_4c/output
I1228 20:31:06.581497 16709 net.cpp:160] Setting up inception_4c/output
I1228 20:31:06.581501 16709 net.cpp:167] Top shape: 96 608 14 14 (11440128)
I1228 20:31:06.581504 16709 layer_factory.hpp:74] Creating layer inception_4c/output_inception_4c/output_0_split
I1228 20:31:06.581508 16709 net.cpp:96] Creating Layer inception_4c/output_inception_4c/output_0_split
I1228 20:31:06.581511 16709 net.cpp:459] inception_4c/output_inception_4c/output_0_split <- inception_4c/output
I1228 20:31:06.581516 16709 net.cpp:415] inception_4c/output_inception_4c/output_0_split -> inception_4c/output_inception_4c/output_0_split_0
I1228 20:31:06.581521 16709 net.cpp:415] inception_4c/output_inception_4c/output_0_split -> inception_4c/output_inception_4c/output_0_split_1
I1228 20:31:06.581526 16709 net.cpp:415] inception_4c/output_inception_4c/output_0_split -> inception_4c/output_inception_4c/output_0_split_2
I1228 20:31:06.581538 16709 net.cpp:415] inception_4c/output_inception_4c/output_0_split -> inception_4c/output_inception_4c/output_0_split_3
I1228 20:31:06.581542 16709 net.cpp:160] Setting up inception_4c/output_inception_4c/output_0_split
I1228 20:31:06.581547 16709 net.cpp:167] Top shape: 96 608 14 14 (11440128)
I1228 20:31:06.581550 16709 net.cpp:167] Top shape: 96 608 14 14 (11440128)
I1228 20:31:06.581554 16709 net.cpp:167] Top shape: 96 608 14 14 (11440128)
I1228 20:31:06.581557 16709 net.cpp:167] Top shape: 96 608 14 14 (11440128)
I1228 20:31:06.581560 16709 layer_factory.hpp:74] Creating layer inception_4d/1x1
I1228 20:31:06.581565 16709 net.cpp:96] Creating Layer inception_4d/1x1
I1228 20:31:06.581568 16709 net.cpp:459] inception_4d/1x1 <- inception_4c/output_inception_4c/output_0_split_0
I1228 20:31:06.581573 16709 net.cpp:415] inception_4d/1x1 -> inception_4d/1x1
I1228 20:31:06.581578 16709 net.cpp:160] Setting up inception_4d/1x1
I1228 20:31:06.581846 16709 net.cpp:167] Top shape: 96 96 14 14 (1806336)
I1228 20:31:06.581854 16709 layer_factory.hpp:74] Creating layer inception_4d/1x1_bn
I1228 20:31:06.581857 16709 layer_factory.cpp:177] Layer inception_4d/1x1_bn is using CAFFE engine.
I1228 20:31:06.581862 16709 net.cpp:96] Creating Layer inception_4d/1x1_bn
I1228 20:31:06.581866 16709 net.cpp:459] inception_4d/1x1_bn <- inception_4d/1x1
I1228 20:31:06.581871 16709 net.cpp:415] inception_4d/1x1_bn -> inception_4d/1x1_bn
I1228 20:31:06.581876 16709 net.cpp:160] Setting up inception_4d/1x1_bn
I1228 20:31:06.581887 16709 net.cpp:167] Top shape: 96 96 14 14 (1806336)
I1228 20:31:06.581892 16709 layer_factory.hpp:74] Creating layer inception_4d/relu_1x1
I1228 20:31:06.581897 16709 net.cpp:96] Creating Layer inception_4d/relu_1x1
I1228 20:31:06.581899 16709 net.cpp:459] inception_4d/relu_1x1 <- inception_4d/1x1_bn
I1228 20:31:06.581902 16709 net.cpp:404] inception_4d/relu_1x1 -> inception_4d/1x1_bn (in-place)
I1228 20:31:06.581907 16709 net.cpp:160] Setting up inception_4d/relu_1x1
I1228 20:31:06.581910 16709 net.cpp:167] Top shape: 96 96 14 14 (1806336)
I1228 20:31:06.581912 16709 layer_factory.hpp:74] Creating layer inception_4d/3x3_reduce
I1228 20:31:06.581918 16709 net.cpp:96] Creating Layer inception_4d/3x3_reduce
I1228 20:31:06.581921 16709 net.cpp:459] inception_4d/3x3_reduce <- inception_4c/output_inception_4c/output_0_split_1
I1228 20:31:06.581925 16709 net.cpp:415] inception_4d/3x3_reduce -> inception_4d/3x3_reduce
I1228 20:31:06.581930 16709 net.cpp:160] Setting up inception_4d/3x3_reduce
I1228 20:31:06.582273 16709 net.cpp:167] Top shape: 96 128 14 14 (2408448)
I1228 20:31:06.582278 16709 layer_factory.hpp:74] Creating layer inception_4d/3x3_reduce_bn
I1228 20:31:06.582281 16709 layer_factory.cpp:177] Layer inception_4d/3x3_reduce_bn is using CAFFE engine.
I1228 20:31:06.582288 16709 net.cpp:96] Creating Layer inception_4d/3x3_reduce_bn
I1228 20:31:06.582295 16709 net.cpp:459] inception_4d/3x3_reduce_bn <- inception_4d/3x3_reduce
I1228 20:31:06.582301 16709 net.cpp:415] inception_4d/3x3_reduce_bn -> inception_4d/3x3_reduce_bn
I1228 20:31:06.582306 16709 net.cpp:160] Setting up inception_4d/3x3_reduce_bn
I1228 20:31:06.582315 16709 net.cpp:167] Top shape: 96 128 14 14 (2408448)
I1228 20:31:06.582321 16709 layer_factory.hpp:74] Creating layer inception_4d/relu_3x3_reduce
I1228 20:31:06.582326 16709 net.cpp:96] Creating Layer inception_4d/relu_3x3_reduce
I1228 20:31:06.582329 16709 net.cpp:459] inception_4d/relu_3x3_reduce <- inception_4d/3x3_reduce_bn
I1228 20:31:06.582332 16709 net.cpp:404] inception_4d/relu_3x3_reduce -> inception_4d/3x3_reduce_bn (in-place)
I1228 20:31:06.582336 16709 net.cpp:160] Setting up inception_4d/relu_3x3_reduce
I1228 20:31:06.582340 16709 net.cpp:167] Top shape: 96 128 14 14 (2408448)
I1228 20:31:06.582343 16709 layer_factory.hpp:74] Creating layer inception_4d/3x3
I1228 20:31:06.582348 16709 net.cpp:96] Creating Layer inception_4d/3x3
I1228 20:31:06.582351 16709 net.cpp:459] inception_4d/3x3 <- inception_4d/3x3_reduce_bn
I1228 20:31:06.582355 16709 net.cpp:415] inception_4d/3x3 -> inception_4d/3x3
I1228 20:31:06.582360 16709 net.cpp:160] Setting up inception_4d/3x3
I1228 20:31:06.584048 16709 net.cpp:167] Top shape: 96 192 14 14 (3612672)
I1228 20:31:06.584061 16709 layer_factory.hpp:74] Creating layer inception_4d/3x3_bn
I1228 20:31:06.584067 16709 layer_factory.cpp:177] Layer inception_4d/3x3_bn is using CAFFE engine.
I1228 20:31:06.584075 16709 net.cpp:96] Creating Layer inception_4d/3x3_bn
I1228 20:31:06.584080 16709 net.cpp:459] inception_4d/3x3_bn <- inception_4d/3x3
I1228 20:31:06.584089 16709 net.cpp:415] inception_4d/3x3_bn -> inception_4d/3x3_bn
I1228 20:31:06.584097 16709 net.cpp:160] Setting up inception_4d/3x3_bn
I1228 20:31:06.584116 16709 net.cpp:167] Top shape: 96 192 14 14 (3612672)
I1228 20:31:06.584127 16709 layer_factory.hpp:74] Creating layer inception_4d/relu_3x3
I1228 20:31:06.584133 16709 net.cpp:96] Creating Layer inception_4d/relu_3x3
I1228 20:31:06.584136 16709 net.cpp:459] inception_4d/relu_3x3 <- inception_4d/3x3_bn
I1228 20:31:06.584141 16709 net.cpp:404] inception_4d/relu_3x3 -> inception_4d/3x3_bn (in-place)
I1228 20:31:06.584146 16709 net.cpp:160] Setting up inception_4d/relu_3x3
I1228 20:31:06.584149 16709 net.cpp:167] Top shape: 96 192 14 14 (3612672)
I1228 20:31:06.584152 16709 layer_factory.hpp:74] Creating layer inception_4d/double_3x3_reduce
I1228 20:31:06.584157 16709 net.cpp:96] Creating Layer inception_4d/double_3x3_reduce
I1228 20:31:06.584161 16709 net.cpp:459] inception_4d/double_3x3_reduce <- inception_4c/output_inception_4c/output_0_split_2
I1228 20:31:06.584166 16709 net.cpp:415] inception_4d/double_3x3_reduce -> inception_4d/double_3x3_reduce
I1228 20:31:06.584170 16709 net.cpp:160] Setting up inception_4d/double_3x3_reduce
I1228 20:31:06.584597 16709 net.cpp:167] Top shape: 96 160 14 14 (3010560)
I1228 20:31:06.584604 16709 layer_factory.hpp:74] Creating layer inception_4d/double_3x3_reduce_bn
I1228 20:31:06.584606 16709 layer_factory.cpp:177] Layer inception_4d/double_3x3_reduce_bn is using CAFFE engine.
I1228 20:31:06.584612 16709 net.cpp:96] Creating Layer inception_4d/double_3x3_reduce_bn
I1228 20:31:06.584615 16709 net.cpp:459] inception_4d/double_3x3_reduce_bn <- inception_4d/double_3x3_reduce
I1228 20:31:06.584619 16709 net.cpp:415] inception_4d/double_3x3_reduce_bn -> inception_4d/double_3x3_reduce_bn
I1228 20:31:06.584625 16709 net.cpp:160] Setting up inception_4d/double_3x3_reduce_bn
I1228 20:31:06.584635 16709 net.cpp:167] Top shape: 96 160 14 14 (3010560)
I1228 20:31:06.584640 16709 layer_factory.hpp:74] Creating layer inception_4d/relu_double_3x3_reduce
I1228 20:31:06.584645 16709 net.cpp:96] Creating Layer inception_4d/relu_double_3x3_reduce
I1228 20:31:06.584647 16709 net.cpp:459] inception_4d/relu_double_3x3_reduce <- inception_4d/double_3x3_reduce_bn
I1228 20:31:06.584653 16709 net.cpp:404] inception_4d/relu_double_3x3_reduce -> inception_4d/double_3x3_reduce_bn (in-place)
I1228 20:31:06.584661 16709 net.cpp:160] Setting up inception_4d/relu_double_3x3_reduce
I1228 20:31:06.584664 16709 net.cpp:167] Top shape: 96 160 14 14 (3010560)
I1228 20:31:06.584667 16709 layer_factory.hpp:74] Creating layer inception_4d/double_3x3_1
I1228 20:31:06.584673 16709 net.cpp:96] Creating Layer inception_4d/double_3x3_1
I1228 20:31:06.584676 16709 net.cpp:459] inception_4d/double_3x3_1 <- inception_4d/double_3x3_reduce_bn
I1228 20:31:06.584681 16709 net.cpp:415] inception_4d/double_3x3_1 -> inception_4d/double_3x3_1
I1228 20:31:06.584686 16709 net.cpp:160] Setting up inception_4d/double_3x3_1
I1228 20:31:06.585886 16709 net.cpp:167] Top shape: 96 192 14 14 (3612672)
I1228 20:31:06.585894 16709 layer_factory.hpp:74] Creating layer inception_4d/double_3x3_1_bn
I1228 20:31:06.585897 16709 layer_factory.cpp:177] Layer inception_4d/double_3x3_1_bn is using CAFFE engine.
I1228 20:31:06.585903 16709 net.cpp:96] Creating Layer inception_4d/double_3x3_1_bn
I1228 20:31:06.585906 16709 net.cpp:459] inception_4d/double_3x3_1_bn <- inception_4d/double_3x3_1
I1228 20:31:06.585911 16709 net.cpp:415] inception_4d/double_3x3_1_bn -> inception_4d/double_3x3_1_bn
I1228 20:31:06.585916 16709 net.cpp:160] Setting up inception_4d/double_3x3_1_bn
I1228 20:31:06.585927 16709 net.cpp:167] Top shape: 96 192 14 14 (3612672)
I1228 20:31:06.585933 16709 layer_factory.hpp:74] Creating layer inception_4d/relu_double_3x3_1
I1228 20:31:06.585937 16709 net.cpp:96] Creating Layer inception_4d/relu_double_3x3_1
I1228 20:31:06.585940 16709 net.cpp:459] inception_4d/relu_double_3x3_1 <- inception_4d/double_3x3_1_bn
I1228 20:31:06.585943 16709 net.cpp:404] inception_4d/relu_double_3x3_1 -> inception_4d/double_3x3_1_bn (in-place)
I1228 20:31:06.585947 16709 net.cpp:160] Setting up inception_4d/relu_double_3x3_1
I1228 20:31:06.585952 16709 net.cpp:167] Top shape: 96 192 14 14 (3612672)
I1228 20:31:06.585954 16709 layer_factory.hpp:74] Creating layer inception_4d/double_3x3_2
I1228 20:31:06.585958 16709 net.cpp:96] Creating Layer inception_4d/double_3x3_2
I1228 20:31:06.585961 16709 net.cpp:459] inception_4d/double_3x3_2 <- inception_4d/double_3x3_1_bn
I1228 20:31:06.585966 16709 net.cpp:415] inception_4d/double_3x3_2 -> inception_4d/double_3x3_2
I1228 20:31:06.585970 16709 net.cpp:160] Setting up inception_4d/double_3x3_2
I1228 20:31:06.587397 16709 net.cpp:167] Top shape: 96 192 14 14 (3612672)
I1228 20:31:06.587404 16709 layer_factory.hpp:74] Creating layer inception_4d/double_3x3_2_bn
I1228 20:31:06.587406 16709 layer_factory.cpp:177] Layer inception_4d/double_3x3_2_bn is using CAFFE engine.
I1228 20:31:06.587412 16709 net.cpp:96] Creating Layer inception_4d/double_3x3_2_bn
I1228 20:31:06.587415 16709 net.cpp:459] inception_4d/double_3x3_2_bn <- inception_4d/double_3x3_2
I1228 20:31:06.587420 16709 net.cpp:415] inception_4d/double_3x3_2_bn -> inception_4d/double_3x3_2_bn
I1228 20:31:06.587425 16709 net.cpp:160] Setting up inception_4d/double_3x3_2_bn
I1228 20:31:06.587435 16709 net.cpp:167] Top shape: 96 192 14 14 (3612672)
I1228 20:31:06.587440 16709 layer_factory.hpp:74] Creating layer inception_4d/relu_double_3x3_2
I1228 20:31:06.587445 16709 net.cpp:96] Creating Layer inception_4d/relu_double_3x3_2
I1228 20:31:06.587448 16709 net.cpp:459] inception_4d/relu_double_3x3_2 <- inception_4d/double_3x3_2_bn
I1228 20:31:06.587451 16709 net.cpp:404] inception_4d/relu_double_3x3_2 -> inception_4d/double_3x3_2_bn (in-place)
I1228 20:31:06.587455 16709 net.cpp:160] Setting up inception_4d/relu_double_3x3_2
I1228 20:31:06.587458 16709 net.cpp:167] Top shape: 96 192 14 14 (3612672)
I1228 20:31:06.587461 16709 layer_factory.hpp:74] Creating layer inception_4d/pool
I1228 20:31:06.587466 16709 net.cpp:96] Creating Layer inception_4d/pool
I1228 20:31:06.587469 16709 net.cpp:459] inception_4d/pool <- inception_4c/output_inception_4c/output_0_split_3
I1228 20:31:06.587472 16709 net.cpp:415] inception_4d/pool -> inception_4d/pool
I1228 20:31:06.587479 16709 net.cpp:160] Setting up inception_4d/pool
I1228 20:31:06.587488 16709 net.cpp:167] Top shape: 96 608 14 14 (11440128)
I1228 20:31:06.587491 16709 layer_factory.hpp:74] Creating layer inception_4d/pool_proj
I1228 20:31:06.587497 16709 net.cpp:96] Creating Layer inception_4d/pool_proj
I1228 20:31:06.587502 16709 net.cpp:459] inception_4d/pool_proj <- inception_4d/pool
I1228 20:31:06.587507 16709 net.cpp:415] inception_4d/pool_proj -> inception_4d/pool_proj
I1228 20:31:06.587512 16709 net.cpp:160] Setting up inception_4d/pool_proj
I1228 20:31:06.587852 16709 net.cpp:167] Top shape: 96 128 14 14 (2408448)
I1228 20:31:06.587860 16709 layer_factory.hpp:74] Creating layer inception_4d/pool_proj_bn
I1228 20:31:06.587863 16709 layer_factory.cpp:177] Layer inception_4d/pool_proj_bn is using CAFFE engine.
I1228 20:31:06.587868 16709 net.cpp:96] Creating Layer inception_4d/pool_proj_bn
I1228 20:31:06.587873 16709 net.cpp:459] inception_4d/pool_proj_bn <- inception_4d/pool_proj
I1228 20:31:06.587877 16709 net.cpp:415] inception_4d/pool_proj_bn -> inception_4d/pool_proj_bn
I1228 20:31:06.587882 16709 net.cpp:160] Setting up inception_4d/pool_proj_bn
I1228 20:31:06.587891 16709 net.cpp:167] Top shape: 96 128 14 14 (2408448)
I1228 20:31:06.587898 16709 layer_factory.hpp:74] Creating layer inception_4d/relu_pool_proj
I1228 20:31:06.587901 16709 net.cpp:96] Creating Layer inception_4d/relu_pool_proj
I1228 20:31:06.587904 16709 net.cpp:459] inception_4d/relu_pool_proj <- inception_4d/pool_proj_bn
I1228 20:31:06.587908 16709 net.cpp:404] inception_4d/relu_pool_proj -> inception_4d/pool_proj_bn (in-place)
I1228 20:31:06.587913 16709 net.cpp:160] Setting up inception_4d/relu_pool_proj
I1228 20:31:06.587915 16709 net.cpp:167] Top shape: 96 128 14 14 (2408448)
I1228 20:31:06.587918 16709 layer_factory.hpp:74] Creating layer inception_4d/output
I1228 20:31:06.587923 16709 net.cpp:96] Creating Layer inception_4d/output
I1228 20:31:06.587925 16709 net.cpp:459] inception_4d/output <- inception_4d/1x1_bn
I1228 20:31:06.587929 16709 net.cpp:459] inception_4d/output <- inception_4d/3x3_bn
I1228 20:31:06.587932 16709 net.cpp:459] inception_4d/output <- inception_4d/double_3x3_2_bn
I1228 20:31:06.587935 16709 net.cpp:459] inception_4d/output <- inception_4d/pool_proj_bn
I1228 20:31:06.587939 16709 net.cpp:415] inception_4d/output -> inception_4d/output
I1228 20:31:06.587944 16709 net.cpp:160] Setting up inception_4d/output
I1228 20:31:06.587947 16709 net.cpp:167] Top shape: 96 608 14 14 (11440128)
I1228 20:31:06.587950 16709 layer_factory.hpp:74] Creating layer inception_4d/output_inception_4d/output_0_split
I1228 20:31:06.587956 16709 net.cpp:96] Creating Layer inception_4d/output_inception_4d/output_0_split
I1228 20:31:06.587960 16709 net.cpp:459] inception_4d/output_inception_4d/output_0_split <- inception_4d/output
I1228 20:31:06.587962 16709 net.cpp:415] inception_4d/output_inception_4d/output_0_split -> inception_4d/output_inception_4d/output_0_split_0
I1228 20:31:06.587967 16709 net.cpp:415] inception_4d/output_inception_4d/output_0_split -> inception_4d/output_inception_4d/output_0_split_1
I1228 20:31:06.587971 16709 net.cpp:415] inception_4d/output_inception_4d/output_0_split -> inception_4d/output_inception_4d/output_0_split_2
I1228 20:31:06.587975 16709 net.cpp:160] Setting up inception_4d/output_inception_4d/output_0_split
I1228 20:31:06.587980 16709 net.cpp:167] Top shape: 96 608 14 14 (11440128)
I1228 20:31:06.587985 16709 net.cpp:167] Top shape: 96 608 14 14 (11440128)
I1228 20:31:06.587987 16709 net.cpp:167] Top shape: 96 608 14 14 (11440128)
I1228 20:31:06.587990 16709 layer_factory.hpp:74] Creating layer inception_4e/3x3_reduce
I1228 20:31:06.587996 16709 net.cpp:96] Creating Layer inception_4e/3x3_reduce
I1228 20:31:06.587998 16709 net.cpp:459] inception_4e/3x3_reduce <- inception_4d/output_inception_4d/output_0_split_0
I1228 20:31:06.588004 16709 net.cpp:415] inception_4e/3x3_reduce -> inception_4e/3x3_reduce
I1228 20:31:06.588008 16709 net.cpp:160] Setting up inception_4e/3x3_reduce
I1228 20:31:06.588349 16709 net.cpp:167] Top shape: 96 128 14 14 (2408448)
I1228 20:31:06.588361 16709 layer_factory.hpp:74] Creating layer inception_4e/3x3_reduce_bn
I1228 20:31:06.588364 16709 layer_factory.cpp:177] Layer inception_4e/3x3_reduce_bn is using CAFFE engine.
I1228 20:31:06.588368 16709 net.cpp:96] Creating Layer inception_4e/3x3_reduce_bn
I1228 20:31:06.588372 16709 net.cpp:459] inception_4e/3x3_reduce_bn <- inception_4e/3x3_reduce
I1228 20:31:06.588377 16709 net.cpp:415] inception_4e/3x3_reduce_bn -> inception_4e/3x3_reduce_bn
I1228 20:31:06.588382 16709 net.cpp:160] Setting up inception_4e/3x3_reduce_bn
I1228 20:31:06.588392 16709 net.cpp:167] Top shape: 96 128 14 14 (2408448)
I1228 20:31:06.588398 16709 layer_factory.hpp:74] Creating layer inception_4e/relu_3x3_reduce
I1228 20:31:06.588402 16709 net.cpp:96] Creating Layer inception_4e/relu_3x3_reduce
I1228 20:31:06.588405 16709 net.cpp:459] inception_4e/relu_3x3_reduce <- inception_4e/3x3_reduce_bn
I1228 20:31:06.588409 16709 net.cpp:404] inception_4e/relu_3x3_reduce -> inception_4e/3x3_reduce_bn (in-place)
I1228 20:31:06.588413 16709 net.cpp:160] Setting up inception_4e/relu_3x3_reduce
I1228 20:31:06.588416 16709 net.cpp:167] Top shape: 96 128 14 14 (2408448)
I1228 20:31:06.588419 16709 layer_factory.hpp:74] Creating layer inception_4e/3x3
I1228 20:31:06.588424 16709 net.cpp:96] Creating Layer inception_4e/3x3
I1228 20:31:06.588426 16709 net.cpp:459] inception_4e/3x3 <- inception_4e/3x3_reduce_bn
I1228 20:31:06.588431 16709 net.cpp:415] inception_4e/3x3 -> inception_4e/3x3
I1228 20:31:06.588436 16709 net.cpp:160] Setting up inception_4e/3x3
I1228 20:31:06.589395 16709 net.cpp:167] Top shape: 96 192 7 7 (903168)
I1228 20:31:06.589402 16709 layer_factory.hpp:74] Creating layer inception_4e/3x3_bn
I1228 20:31:06.589406 16709 layer_factory.cpp:177] Layer inception_4e/3x3_bn is using CAFFE engine.
I1228 20:31:06.589411 16709 net.cpp:96] Creating Layer inception_4e/3x3_bn
I1228 20:31:06.589414 16709 net.cpp:459] inception_4e/3x3_bn <- inception_4e/3x3
I1228 20:31:06.589418 16709 net.cpp:415] inception_4e/3x3_bn -> inception_4e/3x3_bn
I1228 20:31:06.589423 16709 net.cpp:160] Setting up inception_4e/3x3_bn
I1228 20:31:06.589433 16709 net.cpp:167] Top shape: 96 192 7 7 (903168)
I1228 20:31:06.589438 16709 layer_factory.hpp:74] Creating layer inception_4e/relu_3x3
I1228 20:31:06.589443 16709 net.cpp:96] Creating Layer inception_4e/relu_3x3
I1228 20:31:06.589447 16709 net.cpp:459] inception_4e/relu_3x3 <- inception_4e/3x3_bn
I1228 20:31:06.589450 16709 net.cpp:404] inception_4e/relu_3x3 -> inception_4e/3x3_bn (in-place)
I1228 20:31:06.589453 16709 net.cpp:160] Setting up inception_4e/relu_3x3
I1228 20:31:06.589457 16709 net.cpp:167] Top shape: 96 192 7 7 (903168)
I1228 20:31:06.589459 16709 layer_factory.hpp:74] Creating layer inception_4e/double_3x3_reduce
I1228 20:31:06.589464 16709 net.cpp:96] Creating Layer inception_4e/double_3x3_reduce
I1228 20:31:06.589468 16709 net.cpp:459] inception_4e/double_3x3_reduce <- inception_4d/output_inception_4d/output_0_split_1
I1228 20:31:06.589473 16709 net.cpp:415] inception_4e/double_3x3_reduce -> inception_4e/double_3x3_reduce
I1228 20:31:06.589476 16709 net.cpp:160] Setting up inception_4e/double_3x3_reduce
I1228 20:31:06.589998 16709 net.cpp:167] Top shape: 96 192 14 14 (3612672)
I1228 20:31:06.590006 16709 layer_factory.hpp:74] Creating layer inception_4e/double_3x3_reduce_bn
I1228 20:31:06.590009 16709 layer_factory.cpp:177] Layer inception_4e/double_3x3_reduce_bn is using CAFFE engine.
I1228 20:31:06.590014 16709 net.cpp:96] Creating Layer inception_4e/double_3x3_reduce_bn
I1228 20:31:06.590018 16709 net.cpp:459] inception_4e/double_3x3_reduce_bn <- inception_4e/double_3x3_reduce
I1228 20:31:06.590023 16709 net.cpp:415] inception_4e/double_3x3_reduce_bn -> inception_4e/double_3x3_reduce_bn
I1228 20:31:06.590029 16709 net.cpp:160] Setting up inception_4e/double_3x3_reduce_bn
I1228 20:31:06.590039 16709 net.cpp:167] Top shape: 96 192 14 14 (3612672)
I1228 20:31:06.590044 16709 layer_factory.hpp:74] Creating layer inception_4e/relu_double_3x3_reduce
I1228 20:31:06.590051 16709 net.cpp:96] Creating Layer inception_4e/relu_double_3x3_reduce
I1228 20:31:06.590057 16709 net.cpp:459] inception_4e/relu_double_3x3_reduce <- inception_4e/double_3x3_reduce_bn
I1228 20:31:06.590062 16709 net.cpp:404] inception_4e/relu_double_3x3_reduce -> inception_4e/double_3x3_reduce_bn (in-place)
I1228 20:31:06.590066 16709 net.cpp:160] Setting up inception_4e/relu_double_3x3_reduce
I1228 20:31:06.590070 16709 net.cpp:167] Top shape: 96 192 14 14 (3612672)
I1228 20:31:06.590072 16709 layer_factory.hpp:74] Creating layer inception_4e/double_3x3_1
I1228 20:31:06.590077 16709 net.cpp:96] Creating Layer inception_4e/double_3x3_1
I1228 20:31:06.590080 16709 net.cpp:459] inception_4e/double_3x3_1 <- inception_4e/double_3x3_reduce_bn
I1228 20:31:06.590085 16709 net.cpp:415] inception_4e/double_3x3_1 -> inception_4e/double_3x3_1
I1228 20:31:06.590090 16709 net.cpp:160] Setting up inception_4e/double_3x3_1
I1228 20:31:06.592000 16709 net.cpp:167] Top shape: 96 256 14 14 (4816896)
I1228 20:31:06.592006 16709 layer_factory.hpp:74] Creating layer inception_4e/double_3x3_1_bn
I1228 20:31:06.592010 16709 layer_factory.cpp:177] Layer inception_4e/double_3x3_1_bn is using CAFFE engine.
I1228 20:31:06.592015 16709 net.cpp:96] Creating Layer inception_4e/double_3x3_1_bn
I1228 20:31:06.592017 16709 net.cpp:459] inception_4e/double_3x3_1_bn <- inception_4e/double_3x3_1
I1228 20:31:06.592022 16709 net.cpp:415] inception_4e/double_3x3_1_bn -> inception_4e/double_3x3_1_bn
I1228 20:31:06.592026 16709 net.cpp:160] Setting up inception_4e/double_3x3_1_bn
I1228 20:31:06.592039 16709 net.cpp:167] Top shape: 96 256 14 14 (4816896)
I1228 20:31:06.592044 16709 layer_factory.hpp:74] Creating layer inception_4e/relu_double_3x3_1
I1228 20:31:06.592049 16709 net.cpp:96] Creating Layer inception_4e/relu_double_3x3_1
I1228 20:31:06.592052 16709 net.cpp:459] inception_4e/relu_double_3x3_1 <- inception_4e/double_3x3_1_bn
I1228 20:31:06.592056 16709 net.cpp:404] inception_4e/relu_double_3x3_1 -> inception_4e/double_3x3_1_bn (in-place)
I1228 20:31:06.592059 16709 net.cpp:160] Setting up inception_4e/relu_double_3x3_1
I1228 20:31:06.592063 16709 net.cpp:167] Top shape: 96 256 14 14 (4816896)
I1228 20:31:06.592067 16709 layer_factory.hpp:74] Creating layer inception_4e/double_3x3_2
I1228 20:31:06.592070 16709 net.cpp:96] Creating Layer inception_4e/double_3x3_2
I1228 20:31:06.592073 16709 net.cpp:459] inception_4e/double_3x3_2 <- inception_4e/double_3x3_1_bn
I1228 20:31:06.592077 16709 net.cpp:415] inception_4e/double_3x3_2 -> inception_4e/double_3x3_2
I1228 20:31:06.592082 16709 net.cpp:160] Setting up inception_4e/double_3x3_2
I1228 20:31:06.595381 16709 net.cpp:167] Top shape: 96 256 7 7 (1204224)
I1228 20:31:06.595393 16709 layer_factory.hpp:74] Creating layer inception_4e/double_3x3_2_bn
I1228 20:31:06.595397 16709 layer_factory.cpp:177] Layer inception_4e/double_3x3_2_bn is using CAFFE engine.
I1228 20:31:06.595404 16709 net.cpp:96] Creating Layer inception_4e/double_3x3_2_bn
I1228 20:31:06.595408 16709 net.cpp:459] inception_4e/double_3x3_2_bn <- inception_4e/double_3x3_2
I1228 20:31:06.595413 16709 net.cpp:415] inception_4e/double_3x3_2_bn -> inception_4e/double_3x3_2_bn
I1228 20:31:06.595420 16709 net.cpp:160] Setting up inception_4e/double_3x3_2_bn
I1228 20:31:06.595432 16709 net.cpp:167] Top shape: 96 256 7 7 (1204224)
I1228 20:31:06.595438 16709 layer_factory.hpp:74] Creating layer inception_4e/relu_double_3x3_2
I1228 20:31:06.595441 16709 net.cpp:96] Creating Layer inception_4e/relu_double_3x3_2
I1228 20:31:06.595445 16709 net.cpp:459] inception_4e/relu_double_3x3_2 <- inception_4e/double_3x3_2_bn
I1228 20:31:06.595449 16709 net.cpp:404] inception_4e/relu_double_3x3_2 -> inception_4e/double_3x3_2_bn (in-place)
I1228 20:31:06.595454 16709 net.cpp:160] Setting up inception_4e/relu_double_3x3_2
I1228 20:31:06.595458 16709 net.cpp:167] Top shape: 96 256 7 7 (1204224)
I1228 20:31:06.595460 16709 layer_factory.hpp:74] Creating layer inception_4e/pool
I1228 20:31:06.595465 16709 net.cpp:96] Creating Layer inception_4e/pool
I1228 20:31:06.595471 16709 net.cpp:459] inception_4e/pool <- inception_4d/output_inception_4d/output_0_split_2
I1228 20:31:06.595479 16709 net.cpp:415] inception_4e/pool -> inception_4e/pool
I1228 20:31:06.595484 16709 net.cpp:160] Setting up inception_4e/pool
I1228 20:31:06.595489 16709 net.cpp:167] Top shape: 96 608 7 7 (2860032)
I1228 20:31:06.595492 16709 layer_factory.hpp:74] Creating layer inception_4e/output
I1228 20:31:06.595499 16709 net.cpp:96] Creating Layer inception_4e/output
I1228 20:31:06.595502 16709 net.cpp:459] inception_4e/output <- inception_4e/3x3_bn
I1228 20:31:06.595505 16709 net.cpp:459] inception_4e/output <- inception_4e/double_3x3_2_bn
I1228 20:31:06.595510 16709 net.cpp:459] inception_4e/output <- inception_4e/pool
I1228 20:31:06.595513 16709 net.cpp:415] inception_4e/output -> inception_4e/output
I1228 20:31:06.595517 16709 net.cpp:160] Setting up inception_4e/output
I1228 20:31:06.595522 16709 net.cpp:167] Top shape: 96 1056 7 7 (4967424)
I1228 20:31:06.595525 16709 layer_factory.hpp:74] Creating layer inception_4e/output_inception_4e/output_0_split
I1228 20:31:06.595531 16709 net.cpp:96] Creating Layer inception_4e/output_inception_4e/output_0_split
I1228 20:31:06.595535 16709 net.cpp:459] inception_4e/output_inception_4e/output_0_split <- inception_4e/output
I1228 20:31:06.595538 16709 net.cpp:415] inception_4e/output_inception_4e/output_0_split -> inception_4e/output_inception_4e/output_0_split_0
I1228 20:31:06.595543 16709 net.cpp:415] inception_4e/output_inception_4e/output_0_split -> inception_4e/output_inception_4e/output_0_split_1
I1228 20:31:06.595548 16709 net.cpp:415] inception_4e/output_inception_4e/output_0_split -> inception_4e/output_inception_4e/output_0_split_2
I1228 20:31:06.595552 16709 net.cpp:415] inception_4e/output_inception_4e/output_0_split -> inception_4e/output_inception_4e/output_0_split_3
I1228 20:31:06.595556 16709 net.cpp:160] Setting up inception_4e/output_inception_4e/output_0_split
I1228 20:31:06.595561 16709 net.cpp:167] Top shape: 96 1056 7 7 (4967424)
I1228 20:31:06.595564 16709 net.cpp:167] Top shape: 96 1056 7 7 (4967424)
I1228 20:31:06.595568 16709 net.cpp:167] Top shape: 96 1056 7 7 (4967424)
I1228 20:31:06.595571 16709 net.cpp:167] Top shape: 96 1056 7 7 (4967424)
I1228 20:31:06.595574 16709 layer_factory.hpp:74] Creating layer inception_5a/1x1
I1228 20:31:06.595579 16709 net.cpp:96] Creating Layer inception_5a/1x1
I1228 20:31:06.595582 16709 net.cpp:459] inception_5a/1x1 <- inception_4e/output_inception_4e/output_0_split_0
I1228 20:31:06.595587 16709 net.cpp:415] inception_5a/1x1 -> inception_5a/1x1
I1228 20:31:06.595592 16709 net.cpp:160] Setting up inception_5a/1x1
I1228 20:31:06.597165 16709 net.cpp:167] Top shape: 96 352 7 7 (1655808)
I1228 20:31:06.597172 16709 layer_factory.hpp:74] Creating layer inception_5a/1x1_bn
I1228 20:31:06.597175 16709 layer_factory.cpp:177] Layer inception_5a/1x1_bn is using CAFFE engine.
I1228 20:31:06.597182 16709 net.cpp:96] Creating Layer inception_5a/1x1_bn
I1228 20:31:06.597184 16709 net.cpp:459] inception_5a/1x1_bn <- inception_5a/1x1
I1228 20:31:06.597188 16709 net.cpp:415] inception_5a/1x1_bn -> inception_5a/1x1_bn
I1228 20:31:06.597193 16709 net.cpp:160] Setting up inception_5a/1x1_bn
I1228 20:31:06.597204 16709 net.cpp:167] Top shape: 96 352 7 7 (1655808)
I1228 20:31:06.597210 16709 layer_factory.hpp:74] Creating layer inception_5a/relu_1x1
I1228 20:31:06.597215 16709 net.cpp:96] Creating Layer inception_5a/relu_1x1
I1228 20:31:06.597218 16709 net.cpp:459] inception_5a/relu_1x1 <- inception_5a/1x1_bn
I1228 20:31:06.597223 16709 net.cpp:404] inception_5a/relu_1x1 -> inception_5a/1x1_bn (in-place)
I1228 20:31:06.597228 16709 net.cpp:160] Setting up inception_5a/relu_1x1
I1228 20:31:06.597230 16709 net.cpp:167] Top shape: 96 352 7 7 (1655808)
I1228 20:31:06.597234 16709 layer_factory.hpp:74] Creating layer inception_5a/3x3_reduce
I1228 20:31:06.597239 16709 net.cpp:96] Creating Layer inception_5a/3x3_reduce
I1228 20:31:06.597241 16709 net.cpp:459] inception_5a/3x3_reduce <- inception_4e/output_inception_4e/output_0_split_1
I1228 20:31:06.597249 16709 net.cpp:415] inception_5a/3x3_reduce -> inception_5a/3x3_reduce
I1228 20:31:06.597259 16709 net.cpp:160] Setting up inception_5a/3x3_reduce
I1228 20:31:06.598132 16709 net.cpp:167] Top shape: 96 192 7 7 (903168)
I1228 20:31:06.598140 16709 layer_factory.hpp:74] Creating layer inception_5a/3x3_reduce_bn
I1228 20:31:06.598142 16709 layer_factory.cpp:177] Layer inception_5a/3x3_reduce_bn is using CAFFE engine.
I1228 20:31:06.598147 16709 net.cpp:96] Creating Layer inception_5a/3x3_reduce_bn
I1228 20:31:06.598150 16709 net.cpp:459] inception_5a/3x3_reduce_bn <- inception_5a/3x3_reduce
I1228 20:31:06.598155 16709 net.cpp:415] inception_5a/3x3_reduce_bn -> inception_5a/3x3_reduce_bn
I1228 20:31:06.598160 16709 net.cpp:160] Setting up inception_5a/3x3_reduce_bn
I1228 20:31:06.598171 16709 net.cpp:167] Top shape: 96 192 7 7 (903168)
I1228 20:31:06.598176 16709 layer_factory.hpp:74] Creating layer inception_5a/relu_3x3_reduce
I1228 20:31:06.598181 16709 net.cpp:96] Creating Layer inception_5a/relu_3x3_reduce
I1228 20:31:06.598184 16709 net.cpp:459] inception_5a/relu_3x3_reduce <- inception_5a/3x3_reduce_bn
I1228 20:31:06.598188 16709 net.cpp:404] inception_5a/relu_3x3_reduce -> inception_5a/3x3_reduce_bn (in-place)
I1228 20:31:06.598192 16709 net.cpp:160] Setting up inception_5a/relu_3x3_reduce
I1228 20:31:06.598196 16709 net.cpp:167] Top shape: 96 192 7 7 (903168)
I1228 20:31:06.598199 16709 layer_factory.hpp:74] Creating layer inception_5a/3x3
I1228 20:31:06.598203 16709 net.cpp:96] Creating Layer inception_5a/3x3
I1228 20:31:06.598206 16709 net.cpp:459] inception_5a/3x3 <- inception_5a/3x3_reduce_bn
I1228 20:31:06.598212 16709 net.cpp:415] inception_5a/3x3 -> inception_5a/3x3
I1228 20:31:06.598215 16709 net.cpp:160] Setting up inception_5a/3x3
I1228 20:31:06.602514 16709 net.cpp:167] Top shape: 96 320 7 7 (1505280)
I1228 20:31:06.602531 16709 layer_factory.hpp:74] Creating layer inception_5a/3x3_bn
I1228 20:31:06.602537 16709 layer_factory.cpp:177] Layer inception_5a/3x3_bn is using CAFFE engine.
I1228 20:31:06.602546 16709 net.cpp:96] Creating Layer inception_5a/3x3_bn
I1228 20:31:06.602552 16709 net.cpp:459] inception_5a/3x3_bn <- inception_5a/3x3
I1228 20:31:06.602560 16709 net.cpp:415] inception_5a/3x3_bn -> inception_5a/3x3_bn
I1228 20:31:06.602567 16709 net.cpp:160] Setting up inception_5a/3x3_bn
I1228 20:31:06.602584 16709 net.cpp:167] Top shape: 96 320 7 7 (1505280)
I1228 20:31:06.602593 16709 layer_factory.hpp:74] Creating layer inception_5a/relu_3x3
I1228 20:31:06.602601 16709 net.cpp:96] Creating Layer inception_5a/relu_3x3
I1228 20:31:06.602604 16709 net.cpp:459] inception_5a/relu_3x3 <- inception_5a/3x3_bn
I1228 20:31:06.602610 16709 net.cpp:404] inception_5a/relu_3x3 -> inception_5a/3x3_bn (in-place)
I1228 20:31:06.602617 16709 net.cpp:160] Setting up inception_5a/relu_3x3
I1228 20:31:06.602622 16709 net.cpp:167] Top shape: 96 320 7 7 (1505280)
I1228 20:31:06.602627 16709 layer_factory.hpp:74] Creating layer inception_5a/double_3x3_reduce
I1228 20:31:06.602634 16709 net.cpp:96] Creating Layer inception_5a/double_3x3_reduce
I1228 20:31:06.602639 16709 net.cpp:459] inception_5a/double_3x3_reduce <- inception_4e/output_inception_4e/output_0_split_2
I1228 20:31:06.602646 16709 net.cpp:415] inception_5a/double_3x3_reduce -> inception_5a/double_3x3_reduce
I1228 20:31:06.602653 16709 net.cpp:160] Setting up inception_5a/double_3x3_reduce
I1228 20:31:06.603986 16709 net.cpp:167] Top shape: 96 160 7 7 (752640)
I1228 20:31:06.603996 16709 layer_factory.hpp:74] Creating layer inception_5a/double_3x3_reduce_bn
I1228 20:31:06.604001 16709 layer_factory.cpp:177] Layer inception_5a/double_3x3_reduce_bn is using CAFFE engine.
I1228 20:31:06.604008 16709 net.cpp:96] Creating Layer inception_5a/double_3x3_reduce_bn
I1228 20:31:06.604013 16709 net.cpp:459] inception_5a/double_3x3_reduce_bn <- inception_5a/double_3x3_reduce
I1228 20:31:06.604019 16709 net.cpp:415] inception_5a/double_3x3_reduce_bn -> inception_5a/double_3x3_reduce_bn
…
I1228 20:31:06.702080 16709 net.cpp:415] inception_4d/double_3x3_reduce_bn -> inception_4d/double_3x3_reduce_bn
I1228 20:31:06.702085 16709 net.cpp:160] Setting up inception_4d/double_3x3_reduce_bn
I1228 20:31:06.702095 16709 net.cpp:167] Top shape: 3 160 14 14 (94080)
I1228 20:31:06.702100 16709 layer_factory.hpp:74] Creating layer inception_4d/relu_double_3x3_reduce
I1228 20:31:06.702105 16709 net.cpp:96] Creating Layer inception_4d/relu_double_3x3_reduce
I1228 20:31:06.702107 16709 net.cpp:459] inception_4d/relu_double_3x3_reduce <- inception_4d/double_3x3_reduce_bn
I1228 20:31:06.702111 16709 net.cpp:404] inception_4d/relu_double_3x3_reduce -> inception_4d/double_3x3_reduce_bn (in-place)
I1228 20:31:06.702116 16709 net.cpp:160] Setting up inception_4d/relu_double_3x3_reduce
I1228 20:31:06.702118 16709 net.cpp:167] Top shape: 3 160 14 14 (94080)
I1228 20:31:06.702121 16709 layer_factory.hpp:74] Creating layer inception_4d/double_3x3_1
I1228 20:31:06.702126 16709 net.cpp:96] Creating Layer inception_4d/double_3x3_1
I1228 20:31:06.702129 16709 net.cpp:459] inception_4d/double_3x3_1 <- inception_4d/double_3x3_reduce_bn
I1228 20:31:06.702133 16709 net.cpp:415] inception_4d/double_3x3_1 -> inception_4d/double_3x3_1
I1228 20:31:06.702138 16709 net.cpp:160] Setting up inception_4d/double_3x3_1
I1228 20:31:06.704304 16709 net.cpp:167] Top shape: 3 192 14 14 (112896)
I1228 20:31:06.704316 16709 layer_factory.hpp:74] Creating layer inception_4d/double_3x3_1_bn
I1228 20:31:06.704322 16709 layer_factory.cpp:177] Layer inception_4d/double_3x3_1_bn is using CAFFE engine.
I1228 20:31:06.704329 16709 net.cpp:96] Creating Layer inception_4d/double_3x3_1_bn
I1228 20:31:06.704334 16709 net.cpp:459] inception_4d/double_3x3_1_bn <- inception_4d/double_3x3_1
I1228 20:31:06.704342 16709 net.cpp:415] inception_4d/double_3x3_1_bn -> inception_4d/double_3x3_1_bn
I1228 20:31:06.704349 16709 net.cpp:160] Setting up inception_4d/double_3x3_1_bn
I1228 20:31:06.704365 16709 net.cpp:167] Top shape: 3 192 14 14 (112896)
I1228 20:31:06.704375 16709 layer_factory.hpp:74] Creating layer inception_4d/relu_double_3x3_1
I1228 20:31:06.704380 16709 net.cpp:96] Creating Layer inception_4d/relu_double_3x3_1
I1228 20:31:06.704385 16709 net.cpp:459] inception_4d/relu_double_3x3_1 <- inception_4d/double_3x3_1_bn
I1228 20:31:06.704392 16709 net.cpp:404] inception_4d/relu_double_3x3_1 -> inception_4d/double_3x3_1_bn (in-place)
I1228 20:31:06.704398 16709 net.cpp:160] Setting up inception_4d/relu_double_3x3_1
I1228 20:31:06.704404 16709 net.cpp:167] Top shape: 3 192 14 14 (112896)
I1228 20:31:06.704409 16709 layer_factory.hpp:74] Creating layer inception_4d/double_3x3_2
I1228 20:31:06.704416 16709 net.cpp:96] Creating Layer inception_4d/double_3x3_2
I1228 20:31:06.704421 16709 net.cpp:459] inception_4d/double_3x3_2 <- inception_4d/double_3x3_1_bn
I1228 20:31:06.704428 16709 net.cpp:415] inception_4d/double_3x3_2 -> inception_4d/double_3x3_2
I1228 20:31:06.704435 16709 net.cpp:160] Setting up inception_4d/double_3x3_2
I1228 20:31:06.707029 16709 net.cpp:167] Top shape: 3 192 14 14 (112896)
I1228 20:31:06.707047 16709 layer_factory.hpp:74] Creating layer inception_4d/double_3x3_2_bn
I1228 20:31:06.707053 16709 layer_factory.cpp:177] Layer inception_4d/double_3x3_2_bn is using CAFFE engine.
I1228 20:31:06.707062 16709 net.cpp:96] Creating Layer inception_4d/double_3x3_2_bn
I1228 20:31:06.707068 16709 net.cpp:459] inception_4d/double_3x3_2_bn <- inception_4d/double_3x3_2
I1228 20:31:06.707075 16709 net.cpp:415] inception_4d/double_3x3_2_bn -> inception_4d/double_3x3_2_bn
I1228 20:31:06.707083 16709 net.cpp:160] Setting up inception_4d/double_3x3_2_bn
I1228 20:31:06.707100 16709 net.cpp:167] Top shape: 3 192 14 14 (112896)
I1228 20:31:06.707110 16709 layer_factory.hpp:74] Creating layer inception_4d/relu_double_3x3_2
I1228 20:31:06.707116 16709 net.cpp:96] Creating Layer inception_4d/relu_double_3x3_2
I1228 20:31:06.707121 16709 net.cpp:459] inception_4d/relu_double_3x3_2 <- inception_4d/double_3x3_2_bn
I1228 20:31:06.707128 16709 net.cpp:404] inception_4d/relu_double_3x3_2 -> inception_4d/double_3x3_2_bn (in-place)
I1228 20:31:06.707134 16709 net.cpp:160] Setting up inception_4d/relu_double_3x3_2
I1228 20:31:06.707139 16709 net.cpp:167] Top shape: 3 192 14 14 (112896)
I1228 20:31:06.707144 16709 layer_factory.hpp:74] Creating layer inception_4d/pool
I1228 20:31:06.707154 16709 net.cpp:96] Creating Layer inception_4d/pool
I1228 20:31:06.707159 16709 net.cpp:459] inception_4d/pool <- inception_4c/output_inception_4c/output_0_split_3
I1228 20:31:06.707165 16709 net.cpp:415] inception_4d/pool -> inception_4d/pool
I1228 20:31:06.707172 16709 net.cpp:160] Setting up inception_4d/pool
I1228 20:31:06.707180 16709 net.cpp:167] Top shape: 3 608 14 14 (357504)
I1228 20:31:06.707185 16709 layer_factory.hpp:74] Creating layer inception_4d/pool_proj
I1228 20:31:06.707192 16709 net.cpp:96] Creating Layer inception_4d/pool_proj
I1228 20:31:06.707196 16709 net.cpp:459] inception_4d/pool_proj <- inception_4d/pool
I1228 20:31:06.707203 16709 net.cpp:415] inception_4d/pool_proj -> inception_4d/pool_proj
I1228 20:31:06.707209 16709 net.cpp:160] Setting up inception_4d/pool_proj
I1228 20:31:06.707825 16709 net.cpp:167] Top shape: 3 128 14 14 (75264)
I1228 20:31:06.707834 16709 layer_factory.hpp:74] Creating layer inception_4d/pool_proj_bn
I1228 20:31:06.707839 16709 layer_factory.cpp:177] Layer inception_4d/pool_proj_bn is using CAFFE engine.
I1228 20:31:06.707845 16709 net.cpp:96] Creating Layer inception_4d/pool_proj_bn
I1228 20:31:06.707850 16709 net.cpp:459] inception_4d/pool_proj_bn <- inception_4d/pool_proj
I1228 20:31:06.707859 16709 net.cpp:415] inception_4d/pool_proj_bn -> inception_4d/pool_proj_bn
I1228 20:31:06.707865 16709 net.cpp:160] Setting up inception_4d/pool_proj_bn
I1228 20:31:06.707881 16709 net.cpp:167] Top shape: 3 128 14 14 (75264)
I1228 20:31:06.707890 16709 layer_factory.hpp:74] Creating layer inception_4d/relu_pool_proj
I1228 20:31:06.707895 16709 net.cpp:96] Creating Layer inception_4d/relu_pool_proj
I1228 20:31:06.707901 16709 net.cpp:459] inception_4d/relu_pool_proj <- inception_4d/pool_proj_bn
I1228 20:31:06.707906 16709 net.cpp:404] inception_4d/relu_pool_proj -> inception_4d/pool_proj_bn (in-place)
I1228 20:31:06.707911 16709 net.cpp:160] Setting up inception_4d/relu_pool_proj
I1228 20:31:06.707917 16709 net.cpp:167] Top shape: 3 128 14 14 (75264)
I1228 20:31:06.707921 16709 layer_factory.hpp:74] Creating layer inception_4d/output
I1228 20:31:06.707927 16709 net.cpp:96] Creating Layer inception_4d/output
I1228 20:31:06.707933 16709 net.cpp:459] inception_4d/output <- inception_4d/1x1_bn
I1228 20:31:06.707938 16709 net.cpp:459] inception_4d/output <- inception_4d/3x3_bn
I1228 20:31:06.707944 16709 net.cpp:459] inception_4d/output <- inception_4d/double_3x3_2_bn
I1228 20:31:06.707949 16709 net.cpp:459] inception_4d/output <- inception_4d/pool_proj_bn
I1228 20:31:06.707957 16709 net.cpp:415] inception_4d/output -> inception_4d/output
I1228 20:31:06.707964 16709 net.cpp:160] Setting up inception_4d/output
I1228 20:31:06.707976 16709 net.cpp:167] Top shape: 3 608 14 14 (357504)
I1228 20:31:06.707985 16709 layer_factory.hpp:74] Creating layer inception_4d/output_inception_4d/output_0_split
I1228 20:31:06.707993 16709 net.cpp:96] Creating Layer inception_4d/output_inception_4d/output_0_split
I1228 20:31:06.707998 16709 net.cpp:459] inception_4d/output_inception_4d/output_0_split <- inception_4d/output
I1228 20:31:06.708003 16709 net.cpp:415] inception_4d/output_inception_4d/output_0_split -> inception_4d/output_inception_4d/output_0_split_0
I1228 20:31:06.708012 16709 net.cpp:415] inception_4d/output_inception_4d/output_0_split -> inception_4d/output_inception_4d/output_0_split_1
I1228 20:31:06.708019 16709 net.cpp:415] inception_4d/output_inception_4d/output_0_split -> inception_4d/output_inception_4d/output_0_split_2
I1228 20:31:06.708026 16709 net.cpp:160] Setting up inception_4d/output_inception_4d/output_0_split
I1228 20:31:06.708034 16709 net.cpp:167] Top shape: 3 608 14 14 (357504)
I1228 20:31:06.708039 16709 net.cpp:167] Top shape: 3 608 14 14 (357504)
I1228 20:31:06.708045 16709 net.cpp:167] Top shape: 3 608 14 14 (357504)
I1228 20:31:06.708050 16709 layer_factory.hpp:74] Creating layer inception_4e/3x3_reduce
I1228 20:31:06.708057 16709 net.cpp:96] Creating Layer inception_4e/3x3_reduce
I1228 20:31:06.708062 16709 net.cpp:459] inception_4e/3x3_reduce <- inception_4d/output_inception_4d/output_0_split_0
I1228 20:31:06.708070 16709 net.cpp:415] inception_4e/3x3_reduce -> inception_4e/3x3_reduce
I1228 20:31:06.708077 16709 net.cpp:160] Setting up inception_4e/3x3_reduce
…
E1228 20:31:06.708494 16719 io.cpp:321] Could not load file /home/hadoop/whx/dataset/ucf101/ucf_videoframedata_jpeg/HandstandPushups/v_HandStandPushups_g20_c07
E1228 20:31:06.708503 16719 io.cpp:321] Could not load file /home/hadoop/whx/dataset/ucf101/ucf_videoframedata_jpeg/HandstandPushups/v_HandStandPushups_g20_c07
E1228 20:31:06.708513 16719 io.cpp:321] Could not load file /home/hadoop/whx/dataset/ucf101/ucf_videoframedata_jpeg/HandstandPushups/v_HandStandPushups_g20_c07
E1228 20:31:06.708523 16719 io.cpp:321] Could not load file /home/hadoop/whx/dataset/ucf101/ucf_videoframedata_jpeg/HandstandPushups/v_HandStandPushups_g20_c07
I1228 20:31:06.708665 16709 net.cpp:167] Top shape: 3 128 14 14 (75264)
I1228 20:31:06.708678 16709 layer_factory.hpp:74] Creating layer inception_4e/3x3_reduce_bn
I1228 20:31:06.708683 16709 layer_factory.cpp:177] Layer inception_4e/3x3_reduce_bn is using CAFFE engine.
I1228 20:31:06.708693 16709 net.cpp:96] Creating Layer inception_4e/3x3_reduce_bn
I1228 20:31:06.708698 16709 net.cpp:459] inception_4e/3x3_reduce_bn <- inception_4e/3x3_reduce
I1228 20:31:06.708709 16709 net.cpp:415] inception_4e/3x3_reduce_bn -> inception_4e/3x3_reduce_bn
I1228 20:31:06.708717 16709 net.cpp:160] Setting up inception_4e/3x3_reduce_bn
I1228 20:31:06.708732 16709 net.cpp:167] Top shape: 3 128 14 14 (75264)
I1228 20:31:06.708739 16709 layer_factory.hpp:74] Creating layer inception_4e/relu_3x3_reduce
I1228 20:31:06.708744 16709 net.cpp:96] Creating Layer inception_4e/relu_3x3_reduce
I1228 20:31:06.708746 16709 net.cpp:459] inception_4e/relu_3x3_reduce <- inception_4e/3x3_reduce_bn
I1228 20:31:06.708750 16709 net.cpp:404] inception_4e/relu_3x3_reduce -> inception_4e/3x3_reduce_bn (in-place)
I1228 20:31:06.708755 16709 net.cpp:160] Setting up inception_4e/relu_3x3_reduce
I1228 20:31:06.708758 16709 net.cpp:167] Top shape: 3 128 14 14 (75264)
I1228 20:31:06.708761 16709 layer_factory.hpp:74] Creating layer inception_4e/3x3
I1228 20:31:06.708766 16709 net.cpp:96] Creating Layer inception_4e/3x3
I1228 20:31:06.708770 16709 net.cpp:459] inception_4e/3x3 <- inception_4e/3x3_reduce_bn
I1228 20:31:06.708773 16709 net.cpp:415] inception_4e/3x3 -> inception_4e/3x3
I1228 20:31:06.708778 16709 net.cpp:160] Setting up inception_4e/3x3
I1228 20:31:06.709717 16709 net.cpp:167] Top shape: 3 192 7 7 (28224)
I1228 20:31:06.709724 16709 layer_factory.hpp:74] Creating layer inception_4e/3x3_bn
I1228 20:31:06.709728 16709 layer_factory.cpp:177] Layer inception_4e/3x3_bn is using CAFFE engine.
I1228 20:31:06.709733 16709 net.cpp:96] Creating Layer inception_4e/3x3_bn
I1228 20:31:06.709736 16709 net.cpp:459] inception_4e/3x3_bn <- inception_4e/3x3
I1228 20:31:06.709740 16709 net.cpp:415] inception_4e/3x3_bn -> inception_4e/3x3_bn
I1228 20:31:06.709745 16709 net.cpp:160] Setting up inception_4e/3x3_bn
I1228 20:31:06.709756 16709 net.cpp:167] Top shape: 3 192 7 7 (28224)
I1228 20:31:06.709761 16709 layer_factory.hpp:74] Creating layer inception_4e/relu_3x3
I1228 20:31:06.709766 16709 net.cpp:96] Creating Layer inception_4e/relu_3x3
I1228 20:31:06.709769 16709 net.cpp:459] inception_4e/relu_3x3 <- inception_4e/3x3_bn
I1228 20:31:06.709774 16709 net.cpp:404] inception_4e/relu_3x3 -> inception_4e/3x3_bn (in-place)
I1228 20:31:06.709777 16709 net.cpp:160] Setting up inception_4e/relu_3x3
I1228 20:31:06.709780 16709 net.cpp:167] Top shape: 3 192 7 7 (28224)
I1228 20:31:06.709785 16709 layer_factory.hpp:74] Creating layer inception_4e/double_3x3_reduce
I1228 20:31:06.709794 16709 net.cpp:96] Creating Layer inception_4e/double_3x3_reduce
I1228 20:31:06.709796 16709 net.cpp:459] inception_4e/double_3x3_reduce <- inception_4d/output_inception_4d/output_0_split_1
I1228 20:31:06.709801 16709 net.cpp:415] inception_4e/double_3x3_reduce -> inception_4e/double_3x3_reduce
I1228 20:31:06.709806 16709 net.cpp:160] Setting up inception_4e/double_3x3_reduce
I1228 20:31:06.710311 16709 net.cpp:167] Top shape: 3 192 14 14 (112896)
I1228 20:31:06.710319 16709 layer_factory.hpp:74] Creating layer inception_4e/double_3x3_reduce_bn
I1228 20:31:06.710322 16709 layer_factory.cpp:177] Layer inception_4e/double_3x3_reduce_bn is using CAFFE engine.
I1228 20:31:06.710327 16709 net.cpp:96] Creating Layer inception_4e/double_3x3_reduce_bn
I1228 20:31:06.710331 16709 net.cpp:459] inception_4e/double_3x3_reduce_bn <- inception_4e/double_3x3_reduce
I1228 20:31:06.710336 16709 net.cpp:415] inception_4e/double_3x3_reduce_bn -> inception_4e/double_3x3_reduce_bn
I1228 20:31:06.710341 16709 net.cpp:160] Setting up inception_4e/double_3x3_reduce_bn
I1228 20:31:06.710350 16709 net.cpp:167] Top shape: 3 192 14 14 (112896)
I1228 20:31:06.710357 16709 layer_factory.hpp:74] Creating layer inception_4e/relu_double_3x3_reduce
I1228 20:31:06.710361 16709 net.cpp:96] Creating Layer inception_4e/relu_double_3x3_reduce
I1228 20:31:06.710364 16709 net.cpp:459] inception_4e/relu_double_3x3_reduce <- inception_4e/double_3x3_reduce_bn
I1228 20:31:06.710368 16709 net.cpp:404] inception_4e/relu_double_3x3_reduce -> inception_4e/double_3x3_reduce_bn (in-place)
I1228 20:31:06.710372 16709 net.cpp:160] Setting up inception_4e/relu_double_3x3_reduce
I1228 20:31:06.710376 16709 net.cpp:167] Top shape: 3 192 14 14 (112896)
I1228 20:31:06.710378 16709 layer_factory.hpp:74] Creating layer inception_4e/double_3x3_1
I1228 20:31:06.710383 16709 net.cpp:96] Creating Layer inception_4e/double_3x3_1
I1228 20:31:06.710386 16709 net.cpp:459] inception_4e/double_3x3_1 <- inception_4e/double_3x3_reduce_bn
I1228 20:31:06.710391 16709 net.cpp:415] inception_4e/double_3x3_1 -> inception_4e/double_3x3_1
I1228 20:31:06.710396 16709 net.cpp:160] Setting up inception_4e/double_3x3_1
I1228 20:31:06.712252 16709 net.cpp:167] Top shape: 3 256 14 14 (150528)
I1228 20:31:06.712260 16709 layer_factory.hpp:74] Creating layer inception_4e/double_3x3_1_bn
I1228 20:31:06.712262 16709 layer_factory.cpp:177] Layer inception_4e/double_3x3_1_bn is using CAFFE engine.
I1228 20:31:06.712267 16709 net.cpp:96] Creating Layer inception_4e/double_3x3_1_bn
I1228 20:31:06.712270 16709 net.cpp:459] inception_4e/double_3x3_1_bn <- inception_4e/double_3x3_1
I1228 20:31:06.712275 16709 net.cpp:415] inception_4e/double_3x3_1_bn -> inception_4e/double_3x3_1_bn
I1228 20:31:06.712280 16709 net.cpp:160] Setting up inception_4e/double_3x3_1_bn
I1228 20:31:06.712291 16709 net.cpp:167] Top shape: 3 256 14 14 (150528)
I1228 20:31:06.712296 16709 layer_factory.hpp:74] Creating layer inception_4e/relu_double_3x3_1
I1228 20:31:06.712299 16709 net.cpp:96] Creating Layer inception_4e/relu_double_3x3_1
I1228 20:31:06.712302 16709 net.cpp:459] inception_4e/relu_double_3x3_1 <- inception_4e/double_3x3_1_bn
I1228 20:31:06.712307 16709 net.cpp:404] inception_4e/relu_double_3x3_1 -> inception_4e/double_3x3_1_bn (in-place)
I1228 20:31:06.712311 16709 net.cpp:160] Setting up inception_4e/relu_double_3x3_1
I1228 20:31:06.712314 16709 net.cpp:167] Top shape: 3 256 14 14 (150528)
I1228 20:31:06.712317 16709 layer_factory.hpp:74] Creating layer inception_4e/double_3x3_2
I1228 20:31:06.712321 16709 net.cpp:96] Creating Layer inception_4e/double_3x3_2
I1228 20:31:06.712324 16709 net.cpp:459] inception_4e/double_3x3_2 <- inception_4e/double_3x3_1_bn
I1228 20:31:06.712329 16709 net.cpp:415] inception_4e/double_3x3_2 -> inception_4e/double_3x3_2
I1228 20:31:06.712333 16709 net.cpp:160] Setting up inception_4e/double_3x3_2
I1228 20:31:06.714812 16709 net.cpp:167] Top shape: 3 256 7 7 (37632)
I1228 20:31:06.714821 16709 layer_factory.hpp:74] Creating layer inception_4e/double_3x3_2_bn
I1228 20:31:06.714831 16709 layer_factory.cpp:177] Layer inception_4e/double_3x3_2_bn is using CAFFE engine.
I1228 20:31:06.714836 16709 net.cpp:96] Creating Layer inception_4e/double_3x3_2_bn
I1228 20:31:06.714840 16709 net.cpp:459] inception_4e/double_3x3_2_bn <- inception_4e/double_3x3_2
I1228 20:31:06.714845 16709 net.cpp:415] inception_4e/double_3x3_2_bn -> inception_4e/double_3x3_2_bn
I1228 20:31:06.714850 16709 net.cpp:160] Setting up inception_4e/double_3x3_2_bn
I1228 20:31:06.714861 16709 net.cpp:167] Top shape: 3 256 7 7 (37632)
I1228 20:31:06.714866 16709 layer_factory.hpp:74] Creating layer inception_4e/relu_double_3x3_2
I1228 20:31:06.714871 16709 net.cpp:96] Creating Layer inception_4e/relu_double_3x3_2
I1228 20:31:06.714875 16709 net.cpp:459] inception_4e/relu_double_3x3_2 <- inception_4e/double_3x3_2_bn
I1228 20:31:06.714879 16709 net.cpp:404] inception_4e/relu_double_3x3_2 -> inception_4e/double_3x3_2_bn (in-place)
I1228 20:31:06.714882 16709 net.cpp:160] Setting up inception_4e/relu_double_3x3_2
I1228 20:31:06.714886 16709 net.cpp:167] Top shape: 3 256 7 7 (37632)
I1228 20:31:06.714890 16709 layer_factory.hpp:74] Creating layer inception_4e/pool
I1228 20:31:06.714895 16709 net.cpp:96] Creating Layer inception_4e/pool
I1228 20:31:06.714897 16709 net.cpp:459] inception_4e/pool <- inception_4d/output_inception_4d/output_0_split_2
I1228 20:31:06.714901 16709 net.cpp:415] inception_4e/pool -> inception_4e/pool
I1228 20:31:06.714906 16709 net.cpp:160] Setting up inception_4e/pool
I1228 20:31:06.714911 16709 net.cpp:167] Top shape: 3 608 7 7 (89376)
I1228 20:31:06.714915 16709 layer_factory.hpp:74] Creating layer inception_4e/output
I1228 20:31:06.714920 16709 net.cpp:96] Creating Layer inception_4e/output
I1228 20:31:06.714922 16709 net.cpp:459] inception_4e/output <- inception_4e/3x3_bn
I1228 20:31:06.714926 16709 net.cpp:459] inception_4e/output <- inception_4e/double_3x3_2_bn
I1228 20:31:06.714929 16709 net.cpp:459] inception_4e/output <- inception_4e/pool
I1228 20:31:06.714934 16709 net.cpp:415] inception_4e/output -> inception_4e/output
I1228 20:31:06.714938 16709 net.cpp:160] Setting up inception_4e/output
I1228 20:31:06.714943 16709 net.cpp:167] Top shape: 3 1056 7 7 (155232)
I1228 20:31:06.714946 16709 layer_factory.hpp:74] Creating layer inception_4e/output_inception_4e/output_0_split
I1228 20:31:06.714951 16709 net.cpp:96] Creating Layer inception_4e/output_inception_4e/output_0_split
I1228 20:31:06.714953 16709 net.cpp:459] inception_4e/output_inception_4e/output_0_split <- inception_4e/output
I1228 20:31:06.714958 16709 net.cpp:415] inception_4e/output_inception_4e/output_0_split -> inception_4e/output_inception_4e/output_0_split_0
I1228 20:31:06.714963 16709 net.cpp:415] inception_4e/output_inception_4e/output_0_split -> inception_4e/output_inception_4e/output_0_split_1
I1228 20:31:06.714967 16709 net.cpp:415] inception_4e/output_inception_4e/output_0_split -> inception_4e/output_inception_4e/output_0_split_2
I1228 20:31:06.714972 16709 net.cpp:415] inception_4e/output_inception_4e/output_0_split -> inception_4e/output_inception_4e/output_0_split_3
I1228 20:31:06.714977 16709 net.cpp:160] Setting up inception_4e/output_inception_4e/output_0_split
I1228 20:31:06.714980 16709 net.cpp:167] Top shape: 3 1056 7 7 (155232)
I1228 20:31:06.714984 16709 net.cpp:167] Top shape: 3 1056 7 7 (155232)
I1228 20:31:06.714987 16709 net.cpp:167] Top shape: 3 1056 7 7 (155232)
I1228 20:31:06.714990 16709 net.cpp:167] Top shape: 3 1056 7 7 (155232)
I1228 20:31:06.714993 16709 layer_factory.hpp:74] Creating layer inception_5a/1x1
I1228 20:31:06.714998 16709 net.cpp:96] Creating Layer inception_5a/1x1
I1228 20:31:06.715003 16709 net.cpp:459] inception_5a/1x1 <- inception_4e/output_inception_4e/output_0_split_0
I1228 20:31:06.715006 16709 net.cpp:415] inception_5a/1x1 -> inception_5a/1x1
I1228 20:31:06.715011 16709 net.cpp:160] Setting up inception_5a/1x1
I1228 20:31:06.716570 16709 net.cpp:167] Top shape: 3 352 7 7 (51744)
I1228 20:31:06.716578 16709 layer_factory.hpp:74] Creating layer inception_5a/1x1_bn
I1228 20:31:06.716586 16709 layer_factory.cpp:177] Layer inception_5a/1x1_bn is using CAFFE engine.
I1228 20:31:06.716591 16709 net.cpp:96] Creating Layer inception_5a/1x1_bn
I1228 20:31:06.716595 16709 net.cpp:459] inception_5a/1x1_bn <- inception_5a/1x1
I1228 20:31:06.716600 16709 net.cpp:415] inception_5a/1x1_bn -> inception_5a/1x1_bn
I1228 20:31:06.716605 16709 net.cpp:160] Setting up inception_5a/1x1_bn
I1228 20:31:06.716616 16709 net.cpp:167] Top shape: 3 352 7 7 (51744)
I1228 20:31:06.716621 16709 layer_factory.hpp:74] Creating layer inception_5a/relu_1x1
I1228 20:31:06.716625 16709 net.cpp:96] Creating Layer inception_5a/relu_1x1
I1228 20:31:06.716629 16709 net.cpp:459] inception_5a/relu_1x1 <- inception_5a/1x1_bn
I1228 20:31:06.716634 16709 net.cpp:404] inception_5a/relu_1x1 -> inception_5a/1x1_bn (in-place)
I1228 20:31:06.716637 16709 net.cpp:160] Setting up inception_5a/relu_1x1
I1228 20:31:06.716640 16709 net.cpp:167] Top shape: 3 352 7 7 (51744)
I1228 20:31:06.716644 16709 layer_factory.hpp:74] Creating layer inception_5a/3x3_reduce
I1228 20:31:06.716648 16709 net.cpp:96] Creating Layer inception_5a/3x3_reduce
I1228 20:31:06.716651 16709 net.cpp:459] inception_5a/3x3_reduce <- inception_4e/output_inception_4e/output_0_split_1
I1228 20:31:06.716656 16709 net.cpp:415] inception_5a/3x3_reduce -> inception_5a/3x3_reduce
I1228 20:31:06.716660 16709 net.cpp:160] Setting up inception_5a/3x3_reduce
I1228 20:31:06.717515 16709 net.cpp:167] Top shape: 3 192 7 7 (28224)
I1228 20:31:06.717522 16709 layer_factory.hpp:74] Creating layer inception_5a/3x3_reduce_bn
I1228 20:31:06.717526 16709 layer_factory.cpp:177] Layer inception_5a/3x3_reduce_bn is using CAFFE engine.
I1228 20:31:06.717531 16709 net.cpp:96] Creating Layer inception_5a/3x3_reduce_bn
I1228 20:31:06.717535 16709 net.cpp:459] inception_5a/3x3_reduce_bn <- inception_5a/3x3_reduce
I1228 20:31:06.717540 16709 net.cpp:415] inception_5a/3x3_reduce_bn -> inception_5a/3x3_reduce_bn
I1228 20:31:06.717543 16709 net.cpp:160] Setting up inception_5a/3x3_reduce_bn
I1228 20:31:06.717553 16709 net.cpp:167] Top shape: 3 192 7 7 (28224)
I1228 20:31:06.717558 16709 layer_factory.hpp:74] Creating layer inception_5a/relu_3x3_reduce
I1228 20:31:06.717563 16709 net.cpp:96] Creating Layer inception_5a/relu_3x3_reduce
I1228 20:31:06.717566 16709 net.cpp:459] inception_5a/relu_3x3_reduce <- inception_5a/3x3_reduce_bn
I1228 20:31:06.717571 16709 net.cpp:404] inception_5a/relu_3x3_reduce -> inception_5a/3x3_reduce_bn (in-place)
I1228 20:31:06.717574 16709 net.cpp:160] Setting up inception_5a/relu_3x3_reduce
I1228 20:31:06.717577 16709 net.cpp:167] Top shape: 3 192 7 7 (28224)
I1228 20:31:06.717581 16709 layer_factory.hpp:74] Creating layer inception_5a/3x3
I1228 20:31:06.717584 16709 net.cpp:96] Creating Layer inception_5a/3x3
I1228 20:31:06.717587 16709 net.cpp:459] inception_5a/3x3 <- inception_5a/3x3_reduce_bn
I1228 20:31:06.717592 16709 net.cpp:415] inception_5a/3x3 -> inception_5a/3x3
I1228 20:31:06.717597 16709 net.cpp:160] Setting up inception_5a/3x3
I1228 20:31:06.719923 16709 net.cpp:167] Top shape: 3 320 7 7 (47040)
I1228 20:31:06.719931 16709 layer_factory.hpp:74] Creating layer inception_5a/3x3_bn
I1228 20:31:06.719935 16709 layer_factory.cpp:177] Layer inception_5a/3x3_bn is using CAFFE engine.
I1228 20:31:06.719940 16709 net.cpp:96] Creating Layer inception_5a/3x3_bn
I1228 20:31:06.719944 16709 net.cpp:459] inception_5a/3x3_bn <- inception_5a/3x3
I1228 20:31:06.719949 16709 net.cpp:415] inception_5a/3x3_bn -> inception_5a/3x3_bn
I1228 20:31:06.719954 16709 net.cpp:160] Setting up inception_5a/3x3_bn
I1228 20:31:06.719964 16709 net.cpp:167] Top shape: 3 320 7 7 (47040)
I1228 20:31:06.719970 16709 layer_factory.hpp:74] Creating layer inception_5a/relu_3x3
I1228 20:31:06.719975 16709 net.cpp:96] Creating Layer inception_5a/relu_3x3
I1228 20:31:06.719979 16709 net.cpp:459] inception_5a/relu_3x3 <- inception_5a/3x3_bn
I1228 20:31:06.719981 16709 net.cpp:404] inception_5a/relu_3x3 -> inception_5a/3x3_bn (in-place)
I1228 20:31:06.719988 16709 net.cpp:160] Setting up inception_5a/relu_3x3
I1228 20:31:06.719996 16709 net.cpp:167] Top shape: 3 320 7 7 (47040)
I1228 20:31:06.720000 16709 layer_factory.hpp:74] Creating layer inception_5a/double_3x3_reduce
I1228 20:31:06.720003 16709 net.cpp:96] Creating Layer inception_5a/double_3x3_reduce
I1228 20:31:06.720006 16709 net.cpp:459] inception_5a/double_3x3_reduce <- inception_4e/output_inception_4e/output_0_split_2
I1228 20:31:06.720011 16709 net.cpp:415] inception_5a/double_3x3_reduce -> inception_5a/double_3x3_reduce
I1228 20:31:06.720016 16709 net.cpp:160] Setting up inception_5a/double_3x3_reduce
I1228 20:31:06.720732 16709 net.cpp:167] Top shape: 3 160 7 7 (23520)
I1228 20:31:06.720738 16709 layer_factory.hpp:74] Creating layer inception_5a/double_3x3_reduce_bn
I1228 20:31:06.720741 16709 layer_factory.cpp:177] Layer inception_5a/double_3x3_reduce_bn is using CAFFE engine.
I1228 20:31:06.720746 16709 net.cpp:96] Creating Layer inception_5a/double_3x3_reduce_bn
I1228 20:31:06.720751 16709 net.cpp:459] inception_5a/double_3x3_reduce_bn <- inception_5a/double_3x3_reduce
I1228 20:31:06.720754 16709 net.cpp:415] inception_5a/double_3x3_reduce_bn -> inception_5a/double_3x3_reduce_bn
I1228 20:31:06.720759 16709 net.cpp:160] Setting up inception_5a/double_3x3_reduce_bn
I1228 20:31:06.720769 16709 net.cpp:167] Top shape: 3 160 7 7 (23520)
I1228 20:31:06.720774 16709 layer_factory.hpp:74] Creating layer inception_5a/relu_double_3x3_reduce
I1228 20:31:06.720778 16709 net.cpp:96] Creating Layer inception_5a/relu_double_3x3_reduce
I1228 20:31:06.720782 16709 net.cpp:459] inception_5a/relu_double_3x3_reduce <- inception_5a/double_3x3_reduce_bn
I1228 20:31:06.720788 16709 net.cpp:404] inception_5a/relu_double_3x3_reduce -> inception_5a/double_3x3_reduce_bn (in-place)
I1228 20:31:06.720791 16709 net.cpp:160] Setting up inception_5a/relu_double_3x3_reduce
I1228 20:31:06.720794 16709 net.cpp:167] Top shape: 3 160 7 7 (23520)
I1228 20:31:06.720798 16709 layer_factory.hpp:74] Creating layer inception_5a/double_3x3_1
I1228 20:31:06.720801 16709 net.cpp:96] Creating Layer inception_5a/double_3x3_1
I1228 20:31:06.720804 16709 net.cpp:459] inception_5a/double_3x3_1 <- inception_5a/double_3x3_reduce_bn
I1228 20:31:06.720809 16709 net.cpp:415] inception_5a/double_3x3_1 -> inception_5a/double_3x3_1
I1228 20:31:06.720813 16709 net.cpp:160] Setting up inception_5a/double_3x3_1
I1228 20:31:06.722177 16709 net.cpp:167] Top shape: 3 224 7 7 (32928)
I1228 20:31:06.722184 16709 layer_factory.hpp:74] Creating layer inception_5a/double_3x3_1_bn
I1228 20:31:06.722188 16709 layer_factory.cpp:177] Layer inception_5a/double_3x3_1_bn is using CAFFE engine.
I1228 20:31:06.722193 16709 net.cpp:96] Creating Layer inception_5a/double_3x3_1_bn
I1228 20:31:06.722196 16709 net.cpp:459] inception_5a/double_3x3_1_bn <- inception_5a/double_3x3_1
I1228 20:31:06.722201 16709 net.cpp:415] inception_5a/double_3x3_1_bn -> inception_5a/double_3x3_1_bn
I1228 20:31:06.722206 16709 net.cpp:160] Setting up inception_5a/double_3x3_1_bn
I1228 20:31:06.722216 16709 net.cpp:167] Top shape: 3 224 7 7 (32928)
I1228 20:31:06.722221 16709 layer_factory.hpp:74] Creating layer inception_5a/relu_double_3x3_1
I1228 20:31:06.722226 16709 net.cpp:96] Creating Layer inception_5a/relu_double_3x3_1
I1228 20:31:06.722229 16709 net.cpp:459] inception_5a/relu_double_3x3_1 <- inception_5a/double_3x3_1_bn
I1228 20:31:06.722232 16709 net.cpp:404] inception_5a/relu_double_3x3_1 -> inception_5a/double_3x3_1_bn (in-place)
I1228 20:31:06.722236 16709 net.cpp:160] Setting up inception_5a/relu_double_3x3_1
I1228 20:31:06.722240 16709 net.cpp:167] Top shape: 3 224 7 7 (32928)
I1228 20:31:06.722244 16709 layer_factory.hpp:74] Creating layer inception_5a/double_3x3_2
I1228 20:31:06.722247 16709 net.cpp:96] Creating Layer inception_5a/double_3x3_2
I1228 20:31:06.722250 16709 net.cpp:459] inception_5a/double_3x3_2 <- inception_5a/double_3x3_1_bn
I1228 20:31:06.722255 16709 net.cpp:415] inception_5a/double_3x3_2 -> inception_5a/double_3x3_2
I1228 20:31:06.722259 16709 net.cpp:160] Setting up inception_5a/double_3x3_2
I1228 20:31:06.724155 16709 net.cpp:167] Top shape: 3 224 7 7 (32928)
I1228 20:31:06.724162 16709 layer_factory.hpp:74] Creating layer inception_5a/double_3x3_2_bn
I1228 20:31:06.724165 16709 layer_factory.cpp:177] Layer inception_5a/double_3x3_2_bn is using CAFFE engine.
I1228 20:31:06.724170 16709 net.cpp:96] Creating Layer inception_5a/double_3x3_2_bn
I1228 20:31:06.724174 16709 net.cpp:459] inception_5a/double_3x3_2_bn <- inception_5a/double_3x3_2
I1228 20:31:06.724179 16709 net.cpp:415] inception_5a/double_3x3_2_bn -> inception_5a/double_3x3_2_bn
I1228 20:31:06.724184 16709 net.cpp:160] Setting up inception_5a/double_3x3_2_bn
I1228 20:31:06.724194 16709 net.cpp:167] Top shape: 3 224 7 7 (32928)
I1228 20:31:06.724198 16709 layer_factory.hpp:74] Creating layer inception_5a/relu_double_3x3_2
I1228 20:31:06.724203 16709 net.cpp:96] Creating Layer inception_5a/relu_double_3x3_2
I1228 20:31:06.724206 16709 net.cpp:459] inception_5a/relu_double_3x3_2 <- inception_5a/double_3x3_2_bn
I1228 20:31:06.724210 16709 net.cpp:404] inception_5a/relu_double_3x3_2 -> inception_5a/double_3x3_2_bn (in-place)
I1228 20:31:06.724215 16709 net.cpp:160] Setting up inception_5a/relu_double_3x3_2
I1228 20:31:06.724217 16709 net.cpp:167] Top shape: 3 224 7 7 (32928)
I1228 20:31:06.724220 16709 layer_factory.hpp:74] Creating layer inception_5a/pool
I1228 20:31:06.724226 16709 net.cpp:96] Creating Layer inception_5a/pool
I1228 20:31:06.724230 16709 net.cpp:459] inception_5a/pool <- inception_4e/output_inception_4e/output_0_split_3
I1228 20:31:06.724233 16709 net.cpp:415] inception_5a/pool -> inception_5a/pool
I1228 20:31:06.724238 16709 net.cpp:160] Setting up inception_5a/pool
I1228 20:31:06.724243 16709 net.cpp:167] Top shape: 3 1056 7 7 (155232)
I1228 20:31:06.724246 16709 layer_factory.hpp:74] Creating layer inception_5a/pool_proj
I1228 20:31:06.724251 16709 net.cpp:96] Creating Layer inception_5a/pool_proj
I1228 20:31:06.724254 16709 net.cpp:459] inception_5a/pool_proj <- inception_5a/pool
I1228 20:31:06.724258 16709 net.cpp:415] inception_5a/pool_proj -> inception_5a/pool_proj
I1228 20:31:06.724263 16709 net.cpp:160] Setting up inception_5a/pool_proj
I1228 20:31:06.724838 16709 net.cpp:167] Top shape: 3 128 7 7 (18816)
I1228 20:31:06.724844 16709 layer_factory.hpp:74] Creating layer inception_5a/pool_proj_bn
I1228 20:31:06.724848 16709 layer_factory.cpp:177] Layer inception_5a/pool_proj_bn is using CAFFE engine.
I1228 20:31:06.724853 16709 net.cpp:96] Creating Layer inception_5a/pool_proj_bn
I1228 20:31:06.724856 16709 net.cpp:459] inception_5a/pool_proj_bn <- inception_5a/pool_proj
I1228 20:31:06.724860 16709 net.cpp:415] inception_5a/pool_proj_bn -> inception_5a/pool_proj_bn
I1228 20:31:06.724864 16709 net.cpp:160] Setting up inception_5a/pool_proj_bn
I1228 20:31:06.724874 16709 net.cpp:167] Top shape: 3 128 7 7 (18816)
I1228 20:31:06.724880 16709 layer_factory.hpp:74] Creating layer inception_5a/relu_pool_proj
I1228 20:31:06.724884 16709 net.cpp:96] Creating Layer inception_5a/relu_pool_proj
I1228 20:31:06.724886 16709 net.cpp:459] inception_5a/relu_pool_proj <- inception_5a/pool_proj_bn
I1228 20:31:06.724890 16709 net.cpp:404] inception_5a/relu_pool_proj -> inception_5a/pool_proj_bn (in-place)
I1228 20:31:06.724895 16709 net.cpp:160] Setting up inception_5a/relu_pool_proj
I1228 20:31:06.724897 16709 net.cpp:167] Top shape: 3 128 7 7 (18816)
I1228 20:31:06.724900 16709 layer_factory.hpp:74] Creating layer inception_5a/output
I1228 20:31:06.724906 16709 net.cpp:96] Creating Layer inception_5a/output
I1228 20:31:06.724910 16709 net.cpp:459] inception_5a/output <- inception_5a/1x1_bn
I1228 20:31:06.724913 16709 net.cpp:459] inception_5a/output <- inception_5a/3x3_bn
I1228 20:31:06.724916 16709 net.cpp:459] inception_5a/output <- inception_5a/double_3x3_2_bn
I1228 20:31:06.724920 16709 net.cpp:459] inception_5a/output <- inception_5a/pool_proj_bn
I1228 20:31:06.724923 16709 net.cpp:415] inception_5a/output -> inception_5a/output
I1228 20:31:06.724928 16709 net.cpp:160] Setting up inception_5a/output
I1228 20:31:06.724936 16709 net.cpp:167] Top shape: 3 1024 7 7 (150528)
I1228 20:31:06.724941 16709 layer_factory.hpp:74] Creating layer inception_5a/output_inception_5a/output_0_split
I1228 20:31:06.724946 16709 net.cpp:96] Creating Layer inception_5a/output_inception_5a/output_0_split
I1228 20:31:06.724949 16709 net.cpp:459] inception_5a/output_inception_5a/output_0_split <- inception_5a/output
I1228 20:31:06.724954 16709 net.cpp:415] inception_5a/output_inception_5a/output_0_split -> inception_5a/output_inception_5a/output_0_split_0
I1228 20:31:06.724961 16709 net.cpp:415] inception_5a/output_inception_5a/output_0_split -> inception_5a/output_inception_5a/output_0_split_1
I1228 20:31:06.724964 16709 net.cpp:415] inception_5a/output_inception_5a/output_0_split -> inception_5a/output_inception_5a/output_0_split_2
I1228 20:31:06.724969 16709 net.cpp:415] inception_5a/output_inception_5a/output_0_split -> inception_5a/output_inception_5a/output_0_split_3
I1228 20:31:06.724973 16709 net.cpp:160] Setting up inception_5a/output_inception_5a/output_0_split
I1228 20:31:06.724977 16709 net.cpp:167] Top shape: 3 1024 7 7 (150528)
I1228 20:31:06.724982 16709 net.cpp:167] Top shape: 3 1024 7 7 (150528)
I1228 20:31:06.724984 16709 net.cpp:167] Top shape: 3 1024 7 7 (150528)
I1228 20:31:06.724987 16709 net.cpp:167] Top shape: 3 1024 7 7 (150528)
I1228 20:31:06.724990 16709 layer_factory.hpp:74] Creating layer inception_5b/1x1
I1228 20:31:06.724997 16709 net.cpp:96] Creating Layer inception_5b/1x1
I1228 20:31:06.724999 16709 net.cpp:459] inception_5b/1x1 <- inception_5a/output_inception_5a/output_0_split_0
I1228 20:31:06.725004 16709 net.cpp:415] inception_5b/1x1 -> inception_5b/1x1
I1228 20:31:06.725008 16709 net.cpp:160] Setting up inception_5b/1x1
I1228 20:31:06.726522 16709 net.cpp:167] Top shape: 3 352 7 7 (51744)
I1228 20:31:06.726531 16709 layer_factory.hpp:74] Creating layer inception_5b/1x1_bn
I1228 20:31:06.726534 16709 layer_factory.cpp:177] Layer inception_5b/1x1_bn is using CAFFE engine.
I1228 20:31:06.726539 16709 net.cpp:96] Creating Layer inception_5b/1x1_bn
I1228 20:31:06.726543 16709 net.cpp:459] inception_5b/1x1_bn <- inception_5b/1x1
I1228 20:31:06.726547 16709 net.cpp:415] inception_5b/1x1_bn -> inception_5b/1x1_bn
I1228 20:31:06.726552 16709 net.cpp:160] Setting up inception_5b/1x1_bn
I1228 20:31:06.726563 16709 net.cpp:167] Top shape: 3 352 7 7 (51744)
I1228 20:31:06.726568 16709 layer_factory.hpp:74] Creating layer inception_5b/relu_1x1
I1228 20:31:06.726573 16709 net.cpp:96] Creating Layer inception_5b/relu_1x1
I1228 20:31:06.726577 16709 net.cpp:459] inception_5b/relu_1x1 <- inception_5b/1x1_bn
I1228 20:31:06.726580 16709 net.cpp:404] inception_5b/relu_1x1 -> inception_5b/1x1_bn (in-place)
I1228 20:31:06.726584 16709 net.cpp:160] Setting up inception_5b/relu_1x1
I1228 20:31:06.726588 16709 net.cpp:167] Top shape: 3 352 7 7 (51744)
I1228 20:31:06.726590 16709 layer_factory.hpp:74] Creating layer inception_5b/3x3_reduce
I1228 20:31:06.726595 16709 net.cpp:96] Creating Layer inception_5b/3x3_reduce
I1228 20:31:06.726598 16709 net.cpp:459] inception_5b/3x3_reduce <- inception_5a/output_inception_5a/output_0_split_1
I1228 20:31:06.726603 16709 net.cpp:415] inception_5b/3x3_reduce -> inception_5b/3x3_reduce
I1228 20:31:06.726608 16709 net.cpp:160] Setting up inception_5b/3x3_reduce
I1228 20:31:06.727435 16709 net.cpp:167] Top shape: 3 192 7 7 (28224)
I1228 20:31:06.727442 16709 layer_factory.hpp:74] Creating layer inception_5b/3x3_reduce_bn
I1228 20:31:06.727444 16709 layer_factory.cpp:177] Layer inception_5b/3x3_reduce_bn is using CAFFE engine.
I1228 20:31:06.727449 16709 net.cpp:96] Creating Layer inception_5b/3x3_reduce_bn
I1228 20:31:06.727452 16709 net.cpp:459] inception_5b/3x3_reduce_bn <- inception_5b/3x3_reduce
I1228 20:31:06.727457 16709 net.cpp:415] inception_5b/3x3_reduce_bn -> inception_5b/3x3_reduce_bn
I1228 20:31:06.727461 16709 net.cpp:160] Setting up inception_5b/3x3_reduce_bn
I1228 20:31:06.727471 16709 net.cpp:167] Top shape: 3 192 7 7 (28224)
I1228 20:31:06.727476 16709 layer_factory.hpp:74] Creating layer inception_5b/relu_3x3_reduce
I1228 20:31:06.727486 16709 net.cpp:96] Creating Layer inception_5b/relu_3x3_reduce
I1228 20:31:06.727490 16709 net.cpp:459] inception_5b/relu_3x3_reduce <- inception_5b/3x3_reduce_bn
I1228 20:31:06.727494 16709 net.cpp:404] inception_5b/relu_3x3_reduce -> inception_5b/3x3_reduce_bn (in-place)
I1228 20:31:06.727497 16709 net.cpp:160] Setting up inception_5b/relu_3x3_reduce
I1228 20:31:06.727501 16709 net.cpp:167] Top shape: 3 192 7 7 (28224)
I1228 20:31:06.727504 16709 layer_factory.hpp:74] Creating layer inception_5b/3x3
I1228 20:31:06.727509 16709 net.cpp:96] Creating Layer inception_5b/3x3
I1228 20:31:06.727511 16709 net.cpp:459] inception_5b/3x3 <- inception_5b/3x3_reduce_bn
I1228 20:31:06.727516 16709 net.cpp:415] inception_5b/3x3 -> inception_5b/3x3
I1228 20:31:06.727521 16709 net.cpp:160] Setting up inception_5b/3x3
I1228 20:31:06.729840 16709 net.cpp:167] Top shape: 3 320 7 7 (47040)
I1228 20:31:06.729846 16709 layer_factory.hpp:74] Creating layer inception_5b/3x3_bn
I1228 20:31:06.729851 16709 layer_factory.cpp:177] Layer inception_5b/3x3_bn is using CAFFE engine.
I1228 20:31:06.729856 16709 net.cpp:96] Creating Layer inception_5b/3x3_bn
I1228 20:31:06.729858 16709 net.cpp:459] inception_5b/3x3_bn <- inception_5b/3x3
I1228 20:31:06.729863 16709 net.cpp:415] inception_5b/3x3_bn -> inception_5b/3x3_bn
I1228 20:31:06.729868 16709 net.cpp:160] Setting up inception_5b/3x3_bn
I1228 20:31:06.729879 16709 net.cpp:167] Top shape: 3 320 7 7 (47040)
I1228 20:31:06.729884 16709 layer_factory.hpp:74] Creating layer inception_5b/relu_3x3
I1228 20:31:06.729888 16709 net.cpp:96] Creating Layer inception_5b/relu_3x3
I1228 20:31:06.729892 16709 net.cpp:459] inception_5b/relu_3x3 <- inception_5b/3x3_bn
I1228 20:31:06.729895 16709 net.cpp:404] inception_5b/relu_3x3 -> inception_5b/3x3_bn (in-place)
I1228 20:31:06.729899 16709 net.cpp:160] Setting up inception_5b/relu_3x3
I1228 20:31:06.729902 16709 net.cpp:167] Top shape: 3 320 7 7 (47040)
I1228 20:31:06.729905 16709 layer_factory.hpp:74] Creating layer inception_5b/double_3x3_reduce
I1228 20:31:06.729910 16709 net.cpp:96] Creating Layer inception_5b/double_3x3_reduce
I1228 20:31:06.729913 16709 net.cpp:459] inception_5b/double_3x3_reduce <- inception_5a/output_inception_5a/output_0_split_2
I1228 20:31:06.729918 16709 net.cpp:415] inception_5b/double_3x3_reduce -> inception_5b/double_3x3_reduce
I1228 20:31:06.729923 16709 net.cpp:160] Setting up inception_5b/double_3x3_reduce
I1228 20:31:06.730752 16709 net.cpp:167] Top shape: 3 192 7 7 (28224)
I1228 20:31:06.730758 16709 layer_factory.hpp:74] Creating layer inception_5b/double_3x3_reduce_bn
I1228 20:31:06.730762 16709 layer_factory.cpp:177] Layer inception_5b/double_3x3_reduce_bn is using CAFFE engine.
I1228 20:31:06.730767 16709 net.cpp:96] Creating Layer inception_5b/double_3x3_reduce_bn
I1228 20:31:06.730770 16709 net.cpp:459] inception_5b/double_3x3_reduce_bn <- inception_5b/double_3x3_reduce
I1228 20:31:06.730775 16709 net.cpp:415] inception_5b/double_3x3_reduce_bn -> inception_5b/double_3x3_reduce_bn
I1228 20:31:06.730780 16709 net.cpp:160] Setting up inception_5b/double_3x3_reduce_bn
I1228 20:31:06.730790 16709 net.cpp:167] Top shape: 3 192 7 7 (28224)
I1228 20:31:06.730796 16709 layer_factory.hpp:74] Creating layer inception_5b/relu_double_3x3_reduce
I1228 20:31:06.730800 16709 net.cpp:96] Creating Layer inception_5b/relu_double_3x3_reduce
I1228 20:31:06.730803 16709 net.cpp:459] inception_5b/relu_double_3x3_reduce <- inception_5b/double_3x3_reduce_bn
I1228 20:31:06.730808 16709 net.cpp:404] inception_5b/relu_double_3x3_reduce -> inception_5b/double_3x3_reduce_bn (in-place)
I1228 20:31:06.730811 16709 net.cpp:160] Setting up inception_5b/relu_double_3x3_reduce
I1228 20:31:06.730814 16709 net.cpp:167] Top shape: 3 192 7 7 (28224)
I1228 20:31:06.730818 16709 layer_factory.hpp:74] Creating layer inception_5b/double_3x3_1
I1228 20:31:06.730823 16709 net.cpp:96] Creating Layer inception_5b/double_3x3_1
I1228 20:31:06.730825 16709 net.cpp:459] inception_5b/double_3x3_1 <- inception_5b/double_3x3_reduce_bn
I1228 20:31:06.730832 16709 net.cpp:415] inception_5b/double_3x3_1 -> inception_5b/double_3x3_1
I1228 20:31:06.730840 16709 net.cpp:160] Setting up inception_5b/double_3x3_1
I1228 20:31:06.732458 16709 net.cpp:167] Top shape: 3 224 7 7 (32928)
I1228 20:31:06.732466 16709 layer_factory.hpp:74] Creating layer inception_5b/double_3x3_1_bn
I1228 20:31:06.732470 16709 layer_factory.cpp:177] Layer inception_5b/double_3x3_1_bn is using CAFFE engine.
I1228 20:31:06.732473 16709 net.cpp:96] Creating Layer inception_5b/double_3x3_1_bn
I1228 20:31:06.732476 16709 net.cpp:459] inception_5b/double_3x3_1_bn <- inception_5b/double_3x3_1
I1228 20:31:06.732481 16709 net.cpp:415] inception_5b/double_3x3_1_bn -> inception_5b/double_3x3_1_bn
I1228 20:31:06.732486 16709 net.cpp:160] Setting up inception_5b/double_3x3_1_bn
I1228 20:31:06.732496 16709 net.cpp:167] Top shape: 3 224 7 7 (32928)
I1228 20:31:06.732502 16709 layer_factory.hpp:74] Creating layer inception_5b/relu_double_3x3_1
I1228 20:31:06.732506 16709 net.cpp:96] Creating Layer inception_5b/relu_double_3x3_1
I1228 20:31:06.732509 16709 net.cpp:459] inception_5b/relu_double_3x3_1 <- inception_5b/double_3x3_1_bn
I1228 20:31:06.732512 16709 net.cpp:404] inception_5b/relu_double_3x3_1 -> inception_5b/double_3x3_1_bn (in-place)
I1228 20:31:06.732517 16709 net.cpp:160] Setting up inception_5b/relu_double_3x3_1
I1228 20:31:06.732519 16709 net.cpp:167] Top shape: 3 224 7 7 (32928)
I1228 20:31:06.732522 16709 layer_factory.hpp:74] Creating layer inception_5b/double_3x3_2
I1228 20:31:06.732528 16709 net.cpp:96] Creating Layer inception_5b/double_3x3_2
I1228 20:31:06.732532 16709 net.cpp:459] inception_5b/double_3x3_2 <- inception_5b/double_3x3_1_bn
I1228 20:31:06.732535 16709 net.cpp:415] inception_5b/double_3x3_2 -> inception_5b/double_3x3_2
I1228 20:31:06.732540 16709 net.cpp:160] Setting up inception_5b/double_3x3_2
I1228 20:31:06.734434 16709 net.cpp:167] Top shape: 3 224 7 7 (32928)
I1228 20:31:06.734441 16709 layer_factory.hpp:74] Creating layer inception_5b/double_3x3_2_bn
I1228 20:31:06.734446 16709 layer_factory.cpp:177] Layer inception_5b/double_3x3_2_bn is using CAFFE engine.
I1228 20:31:06.734450 16709 net.cpp:96] Creating Layer inception_5b/double_3x3_2_bn
I1228 20:31:06.734453 16709 net.cpp:459] inception_5b/double_3x3_2_bn <- inception_5b/double_3x3_2
I1228 20:31:06.734458 16709 net.cpp:415] inception_5b/double_3x3_2_bn -> inception_5b/double_3x3_2_bn
I1228 20:31:06.734463 16709 net.cpp:160] Setting up inception_5b/double_3x3_2_bn
I1228 20:31:06.734473 16709 net.cpp:167] Top shape: 3 224 7 7 (32928)
I1228 20:31:06.734478 16709 layer_factory.hpp:74] Creating layer inception_5b/relu_double_3x3_2
I1228 20:31:06.734483 16709 net.cpp:96] Creating Layer inception_5b/relu_double_3x3_2
I1228 20:31:06.734486 16709 net.cpp:459] inception_5b/relu_double_3x3_2 <- inception_5b/double_3x3_2_bn
I1228 20:31:06.734489 16709 net.cpp:404] inception_5b/relu_double_3x3_2 -> inception_5b/double_3x3_2_bn (in-place)
I1228 20:31:06.734493 16709 net.cpp:160] Setting up inception_5b/relu_double_3x3_2
I1228 20:31:06.734496 16709 net.cpp:167] Top shape: 3 224 7 7 (32928)
I1228 20:31:06.734499 16709 layer_factory.hpp:74] Creating layer inception_5b/pool
I1228 20:31:06.734504 16709 net.cpp:96] Creating Layer inception_5b/pool
I1228 20:31:06.734508 16709 net.cpp:459] inception_5b/pool <- inception_5a/output_inception_5a/output_0_split_3
I1228 20:31:06.734511 16709 net.cpp:415] inception_5b/pool -> inception_5b/pool
I1228 20:31:06.734515 16709 net.cpp:160] Setting up inception_5b/pool
I1228 20:31:06.734521 16709 net.cpp:167] Top shape: 3 1024 7 7 (150528)
I1228 20:31:06.734524 16709 layer_factory.hpp:74] Creating layer inception_5b/pool_proj
I1228 20:31:06.734529 16709 net.cpp:96] Creating Layer inception_5b/pool_proj
I1228 20:31:06.734534 16709 net.cpp:459] inception_5b/pool_proj <- inception_5b/pool
I1228 20:31:06.734539 16709 net.cpp:415] inception_5b/pool_proj -> inception_5b/pool_proj
I1228 20:31:06.734544 16709 net.cpp:160] Setting up inception_5b/pool_proj
I1228 20:31:06.735097 16709 net.cpp:167] Top shape: 3 128 7 7 (18816)
I1228 20:31:06.735110 16709 layer_factory.hpp:74] Creating layer inception_5b/pool_proj_bn
I1228 20:31:06.735113 16709 layer_factory.cpp:177] Layer inception_5b/pool_proj_bn is using CAFFE engine.
I1228 20:31:06.735118 16709 net.cpp:96] Creating Layer inception_5b/pool_proj_bn
I1228 20:31:06.735121 16709 net.cpp:459] inception_5b/pool_proj_bn <- inception_5b/pool_proj
I1228 20:31:06.735126 16709 net.cpp:415] inception_5b/pool_proj_bn -> inception_5b/pool_proj_bn
I1228 20:31:06.735131 16709 net.cpp:160] Setting up inception_5b/pool_proj_bn
I1228 20:31:06.735141 16709 net.cpp:167] Top shape: 3 128 7 7 (18816)
I1228 20:31:06.735146 16709 layer_factory.hpp:74] Creating layer inception_5b/relu_pool_proj
I1228 20:31:06.735152 16709 net.cpp:96] Creating Layer inception_5b/relu_pool_proj
I1228 20:31:06.735154 16709 net.cpp:459] inception_5b/relu_pool_proj <- inception_5b/pool_proj_bn
I1228 20:31:06.735158 16709 net.cpp:404] inception_5b/relu_pool_proj -> inception_5b/pool_proj_bn (in-place)
I1228 20:31:06.735162 16709 net.cpp:160] Setting up inception_5b/relu_pool_proj
I1228 20:31:06.735165 16709 net.cpp:167] Top shape: 3 128 7 7 (18816)
I1228 20:31:06.735168 16709 layer_factory.hpp:74] Creating layer inception_5b/output
I1228 20:31:06.735172 16709 net.cpp:96] Creating Layer inception_5b/output
I1228 20:31:06.735175 16709 net.cpp:459] inception_5b/output <- inception_5b/1x1_bn
I1228 20:31:06.735179 16709 net.cpp:459] inception_5b/output <- inception_5b/3x3_bn
I1228 20:31:06.735183 16709 net.cpp:459] inception_5b/output <- inception_5b/double_3x3_2_bn
I1228 20:31:06.735186 16709 net.cpp:459] inception_5b/output <- inception_5b/pool_proj_bn
I1228 20:31:06.735190 16709 net.cpp:415] inception_5b/output -> inception_5b/output
I1228 20:31:06.735195 16709 net.cpp:160] Setting up inception_5b/output
I1228 20:31:06.735200 16709 net.cpp:167] Top shape: 3 1024 7 7 (150528)
I1228 20:31:06.735203 16709 layer_factory.hpp:74] Creating layer global_pool
I1228 20:31:06.735208 16709 net.cpp:96] Creating Layer global_pool
I1228 20:31:06.735210 16709 net.cpp:459] global_pool <- inception_5b/output
I1228 20:31:06.735215 16709 net.cpp:415] global_pool -> global_pool
I1228 20:31:06.735219 16709 net.cpp:160] Setting up global_pool
I1228 20:31:06.735224 16709 net.cpp:167] Top shape: 3 1024 1 1 (3072)
I1228 20:31:06.735226 16709 layer_factory.hpp:74] Creating layer dropout
I1228 20:31:06.735231 16709 net.cpp:96] Creating Layer dropout
I1228 20:31:06.735235 16709 net.cpp:459] dropout <- global_pool
I1228 20:31:06.735239 16709 net.cpp:404] dropout -> global_pool (in-place)
I1228 20:31:06.735244 16709 net.cpp:160] Setting up dropout
I1228 20:31:06.735247 16709 net.cpp:167] Top shape: 3 1024 1 1 (3072)
I1228 20:31:06.735250 16709 layer_factory.hpp:74] Creating layer fc-action
I1228 20:31:06.735256 16709 net.cpp:96] Creating Layer fc-action
I1228 20:31:06.735260 16709 net.cpp:459] fc-action <- global_pool
I1228 20:31:06.735263 16709 net.cpp:415] fc-action -> fc
I1228 20:31:06.735268 16709 net.cpp:160] Setting up fc-action
I1228 20:31:06.737057 16709 net.cpp:167] Top shape: 3 101 (303)
I1228 20:31:06.737063 16709 layer_factory.hpp:74] Creating layer reshape_fc
I1228 20:31:06.737069 16709 net.cpp:96] Creating Layer reshape_fc
I1228 20:31:06.737072 16709 net.cpp:459] reshape_fc <- fc
I1228 20:31:06.737078 16709 net.cpp:415] reshape_fc -> reshape_fc
I1228 20:31:06.737083 16709 net.cpp:160] Setting up reshape_fc
I1228 20:31:06.737088 16709 net.cpp:167] Top shape: 1 1 3 101 (303)
I1228 20:31:06.737092 16709 layer_factory.hpp:74] Creating layer segment_consensus
I1228 20:31:06.737097 16709 net.cpp:96] Creating Layer segment_consensus
I1228 20:31:06.737099 16709 net.cpp:459] segment_consensus <- reshape_fc
I1228 20:31:06.737103 16709 net.cpp:415] segment_consensus -> pool_fusion
I1228 20:31:06.737107 16709 net.cpp:160] Setting up segment_consensus
I1228 20:31:06.737112 16709 net.cpp:167] Top shape: 1 1 1 101 (101)
I1228 20:31:06.737114 16709 layer_factory.hpp:74] Creating layer pool_fusion_segment_consensus_0_split
I1228 20:31:06.737123 16709 net.cpp:96] Creating Layer pool_fusion_segment_consensus_0_split
I1228 20:31:06.737128 16709 net.cpp:459] pool_fusion_segment_consensus_0_split <- pool_fusion
I1228 20:31:06.737133 16709 net.cpp:415] pool_fusion_segment_consensus_0_split -> pool_fusion_segment_consensus_0_split_0
I1228 20:31:06.737138 16709 net.cpp:415] pool_fusion_segment_consensus_0_split -> pool_fusion_segment_consensus_0_split_1
I1228 20:31:06.737143 16709 net.cpp:160] Setting up pool_fusion_segment_consensus_0_split
I1228 20:31:06.737148 16709 net.cpp:167] Top shape: 1 1 1 101 (101)
I1228 20:31:06.737150 16709 net.cpp:167] Top shape: 1 1 1 101 (101)
I1228 20:31:06.737154 16709 layer_factory.hpp:74] Creating layer loss
I1228 20:31:06.737159 16709 net.cpp:96] Creating Layer loss
I1228 20:31:06.737162 16709 net.cpp:459] loss <- pool_fusion_segment_consensus_0_split_0
I1228 20:31:06.737165 16709 net.cpp:459] loss <- label_data_1_split_0
I1228 20:31:06.737169 16709 net.cpp:415] loss -> loss
I1228 20:31:06.737174 16709 net.cpp:160] Setting up loss
…
