…
  type: "VideoData"
  top: "data"
  top: "label"
  include {
    phase: TRAIN
  }
  transform_param {
    mirror: true
    crop_size: 224
    mean_value: 128
    fix_crop: true
    multi_scale: true
    scale_ratios: 1
    scale_ratios: 0.875
    scale_ratios: 0.75
    max_distort: 1
    is_flow: true
    more_fix_crop: true
  }
  video_data_param {
    source: "/home/hadoop/whx/dataset/ucf101/train_flow_split1.txt"
    batch_size: 24
    shuffle: true
    new_length: 5
    num_segments: 3
    modality: FLOW
    name_pattern: "flow_%c_%04d.jpg"
  }
}
layer {
  name: "data_reshape"
  type: "Reshape"
  bottom: "data"
  top: "data_reshape"
  reshape_param {
    shape {
      dim: -1
      dim: 10
      dim: 224
      dim: 224
    }
  }
}
layer {
  name: "conv1/7x7_s2"
  type: "Convolution"
  bottom: "data_reshape"
  top: "conv1/7x7_s2"
  param {
    lr_mult: 5
    decay_mult: 1
  }
  param {
    lr_mult: 10
    decay_mult: 0
  }
  convolution_param {
    num_output: 64
    pad: 3
    kernel_size: 7
    stride: 2
    weight_filler {
      type: "xavier"
    }
    bias_filler {
      type: "constant"
      value: 0.2
    }
  }
}
layer {
  name: "conv1/7x7_s2_bn"
  type: "BN"
  bottom: "conv1/7x7_s2"
  top: "conv1/7x7_s2_bn"
  param {
    lr_mult: 1
    decay_mult: 0
  }
  param {
    lr_mult: 1
    decay_mult: 0
  }
  bn_param {
    slope_filler {
      type: "constant"
      value: 1
    }
    bias_filler {
      type: "constant"
      value: 0
    }
    frozen: false
    engine: CAFFE
  }
}
layer {
  name: "conv1/relu_7x7"
  type: "ReLU"
  bottom: "conv1/7x7_s2_bn"
  top: "conv1/7x7_s2_bn"
}
layer {
  name: "pool1/3x3_s2"
  type: "Pooling"
  bottom: "conv1/7x7_s2_bn"
  top: "pool1/3x3_s2"
  pooling_param {
    pool: MAX
    kernel_size: 3
    stride: 2
  }
}
layer {
  name: "conv2/3x3_reduce"
  type: "Convolution"
  bottom: "pool1/3x3_s2"
  top: "conv2/3x3_reduce"
  param {
    lr_mult: 1
    decay_mult: 1
  }
  param {
    lr_mult: 2
    decay_mult: 0
  }
  convolution_param {
    num_output: 64
    kernel_size: 1
    weight_filler {
      type: "xavier"
    }
    bias_filler {
      type: "constant"
      value: 0.2
    }
  }
}
layer {
  name: "conv2/3x3_reduce_bn"
  type: "BN"
  bottom: "conv2/3x3_reduce"
  top: "conv2/3x3_reduce_bn"
  param {
    lr_mult: 1
    decay_mult: 0
  }
  param {
    lr_mult: 1
    decay_mult: 0
  }
  bn_param {
    slope_filler {
      type: "constant"
      value: 1
    }
    bias_filler {
      type: "constant"
      value: 0
    }
    frozen: true
    engine: CAFFE
  }
}
layer {
  name: "conv2/relu_3x3_reduce"
  type: "ReLU"
  bottom: "conv2/3x3_reduce_bn"
  top: "conv2/3x3_reduce_bn"
}
layer {
  name: "conv2/3x3"
  type: "Convolution"
  bottom: "conv2/3x3_reduce_bn"
  top: "conv2/3x3"
  param {
    lr_mult: 1
    decay_mult: 1
  }
  param {
    lr_mult: 2
    decay_mult: 0
  }
  convolution_param {
    num_output: 192
    pad: 1
    kernel_size: 3
    weight_filler {
      type: "xavier"
    }
    bias_filler {
      type: "constant"
      value: 0.2
    }
  }
}
layer {
  name: "conv2/3x3_bn"
  type: "BN"
  bottom: "conv2/3x3"
  top: "conv2/3x3_bn"
  param {
    lr_mult: 1
    decay_mult: 0
  }
  param {
    lr_mult: 1
    decay_mult: 0
  }
  bn_param {
    slope_filler {
      type: "constant"
      value: 1
    }
    bias_filler {
      type: "constant"
      value: 0
    }
    frozen: true
    engine: CAFFE
  }
}
layer {
  name: "conv2/relu_3x3"
  type: "ReLU"
  bottom: "conv2/3x3_bn"
  top: "conv2/3x3_bn"
}
layer {
  name: "pool2/3x3_s2"
  type: "Pooling"
  bottom: "conv2/3x3_bn"
  top: "pool2/3x3_s2"
  pooling_param {
    pool: MAX
    kernel_size: 3
    stride: 2
  }
}
layer {
  name: "inception_3a/1x1"
  type: "Convolution"
  bottom: "pool2/3x3_s2"
  top: "inception_3a/1x1"
  param {
    lr_mult: 1
    decay_mult: 1
  }
  param {
    lr_mult: 2
    decay_mult: 0
  }
  convolution_param {
    num_output: 64
    kernel_size: 1
    weight_filler {
      type: "xavier"
    }
    bias_filler {
      type: "constant"
      value: 0.2
    }
  }
}
layer {
  name: "inception_3a/1x1_bn"
  type: "BN"
  bottom: "inception_3a/1x1"
  top: "inception_3a/1x1_bn"
  param {
    lr_mult: 1
    decay_mult: 0
  }
  param {
    lr_mult: 1
    decay_mult: 0
  }
  bn_param {
    slope_filler {
      type: "constant"
      value: 1
    }
    bias_filler {
      type: "constant"
      value: 0
    }
    frozen: true
    engine: CAFFE
  }
}
layer {
  name: "inception_3a/relu_1x1"
  type: "ReLU"
  bottom: "inception_3a/1x1_bn"
  top: "inception_3a/1x1_bn"
}
layer {
  name: "inception_3a/3x3_reduce"
  type: "Convolution"
  bottom: "pool2/3x3_s2"
  top: "inception_3a/3x3_reduce"
  param {
    lr_mult: 1
    decay_mult: 1
  }
  param {
    lr_mult: 2
    decay_mult: 0
  }
  convolution_param {
    num_output: 64
    kernel_size: 1
    weight_filler {
      type: "xavier"
    }
    bias_filler {
      type: "constant"
      value: 0.2
    }
  }
}
layer {
  name: "inception_3a/3x3_reduce_bn"
  type: "BN"
  bottom: "inception_3a/3x3_reduce"
  top: "inception_3a/3x3_reduce_bn"
  param {
    lr_mult: 1
    decay_mult: 0
  }
  param {
    lr_mult: 1
    decay_mult: 0
  }
  bn_param {
    slope_filler {
      type: "constant"
      value: 1
    }
    bias_filler {
      type: "constant"
      value: 0
    }
    frozen: true
    engine: CAFFE
  }
}
layer {
  name: "inception_3a/relu_3x3_reduce"
  type: "ReLU"
  bottom: "inception_3a/3x3_reduce_bn"
  top: "inception_3a/3x3_reduce_bn"
}
layer {
  name: "inception_3a/3x3"
  type: "Convolution"
  bottom: "inception_3a/3x3_reduce_bn"
  top: "inception_3a/3x3"
  param {
    lr_mult: 1
    decay_mult: 1
  }
  param {
    lr_mult: 2
    decay_mult: 0
  }
  convolution_param {
    num_output: 64
    pad: 1
    kernel_size: 3
    weight_filler {
      type: "xavier"
    }
    bias_filler {
      type: "constant"
      value: 0.2
    }
  }
}
layer {
  name: "inception_3a/3x3_bn"
  type: "BN"
  bottom: "inception_3a/3x3"
  top: "inception_3a/3x3_bn"
  param {
    lr_mult: 1
    decay_mult: 0
  }
  param {
    lr_mult: 1
    decay_mult: 0
  }
  bn_param {
    slope_filler {
      type: "constant"
      value: 1
    }
    bias_filler {
      type: "constant"
      value: 0
    }
    frozen: true
    engine: CAFFE
  }
}
layer {
  name: "inception_3a/relu_3x3"
  type: "ReLU"
  bottom: "inception_3a/3x3_bn"
  top: "inception_3a/3x3_bn"
}
layer {
  name: "inception_3a/double_3x3_reduce"
  type: "Convolution"
  bottom: "pool2/3x3_s2"
  top: "inception_3a/double_3x3_reduce"
  param {
    lr_mult: 1
    decay_mult: 1
  }
  param {
    lr_mult: 2
    decay_mult: 0
  }
  convolution_param {
    num_output: 64
    kernel_size: 1
    weight_filler {
      type: "xavier"
    }
    bias_filler {
      type: "constant"
      value: 0.2
    }
  }
}
layer {
  name: "inception_3a/double_3x3_reduce_bn"
  type: "BN"
  bottom: "inception_3a/double_3x3_reduce"
  top: "inception_3a/double_3x3_reduce_bn"
  param {
    lr_mult: 1
    decay_mult: 0
  }
  param {
    lr_mult: 1
    decay_mult: 0
  }
  bn_param {
    slope_filler {
      type: "constant"
      value: 1
    }
    bias_filler {
      type: "constant"
      value: 0
    }
    frozen: true
    engine: CAFFE
  }
}
layer {
  name: "inception_3a/relu_double_3x3_reduce"
  type: "ReLU"
  bottom: "inception_3a/double_3x3_reduce_bn"
  top: "inception_3a/double_3x3_reduce_bn"
}
layer {
  name: "inception_3a/double_3x3_1"
  type: "Convolution"
  bottom: "inception_3a/double_3x3_reduce_bn"
  top: "inception_3a/double_3x3_1"
  param {
    lr_mult: 1
    decay_mult: 1
  }
  param {
    lr_mult: 2
    decay_mult: 0
  }
  convolution_param {
    num_output: 96
    pad: 1
    kernel_size: 3
    weight_filler {
      type: "xavier"
    }
    bias_filler {
      type: "constant"
      value: 0.2
    }
  }
}
layer {
  name: "inception_3a/double_3x3_1_bn"
  type: "BN"
  bottom: "inception_3a/double_3x3_1"
  top: "inception_3a/double_3x3_1_bn"
  param {
    lr_mult: 1
    decay_mult: 0
  }
  param {
    lr_mult: 1
    decay_mult: 0
  }
  bn_param {
    slope_filler {
      type: "constant"
      value: 1
    }
    bias_filler {
      type: "constant"
      value: 0
    }
    frozen: true
    engine: CAFFE
  }
}
layer {
  name: "inception_3a/relu_double_3x3_1"
  type: "ReLU"
  bottom: "inception_3a/double_3x3_1_bn"
  top: "inception_3a/double_3x3_1_bn"
}
layer {
  name: "inception_3a/double_3x3_2"
  type: "Convolution"
  bottom: "inception_3a/double_3x3_1_bn"
  top: "inception_3a/double_3x3_2"
  param {
    lr_mult: 1
    decay_mult: 1
  }
  param {
    lr_mult: 2
    decay_mult: 0
  }
  convolution_param {
    num_output: 96
    pad: 1
    kernel_size: 3
    weight_filler {
      type: "xavier"
    }
    bias_filler {
      type: "constant"
      value: 0.2
    }
  }
}
layer {
  name: "inception_3a/double_3x3_2_bn"
  type: "BN"
  bottom: "inception_3a/double_3x3_2"
  top: "inception_3a/double_3x3_2_bn"
  param {
    lr_mult: 1
    decay_mult: 0
  }
  param {
    lr_mult: 1
    decay_mult: 0
  }
  bn_param {
    slope_filler {
      type: "constant"
      value: 1
    }
    bias_filler {
      type: "constant"
      value: 0
    }
    frozen: true
    engine: CAFFE
  }
}
layer {
  name: "inception_3a/relu_double_3x3_2"
  type: "ReLU"
  bottom: "inception_3a/double_3x3_2_bn"
  top: "inception_3a/double_3x3_2_bn"
}
layer {
  name: "inception_3a/pool"
  type: "Pooling"
  bottom: "pool2/3x3_s2"
  top: "inception_3a/pool"
  pooling_param {
    pool: AVE
    kernel_size: 3
    stride: 1
    pad: 1
  }
}
layer {
  name: "inception_3a/pool_proj"
  type: "Convolution"
  bottom: "inception_3a/pool"
  top: "inception_3a/pool_proj"
  param {
    lr_mult: 1
    decay_mult: 1
  }
  param {
    lr_mult: 2
    decay_mult: 0
  }
  convolution_param {
    num_output: 32
    kernel_size: 1
    weight_filler {
      type: "xavier"
    }
    bias_filler {
      type: "constant"
      value: 0.2
    }
  }
}
layer {
  name: "inception_3a/pool_proj_bn"
  type: "BN"
  bottom: "inception_3a/pool_proj"
  top: "inception_3a/pool_proj_bn"
  param {
    lr_mult: 1
    decay_mult: 0
  }
  param {
    lr_mult: 1
    decay_mult: 0
  }
  bn_param {
    slope_filler {
      type: "constant"
      value: 1
    }
    bias_filler {
      type: "constant"
      value: 0
    }
    frozen: true
    engine: CAFFE
  }
}
layer {
  name: "inception_3a/relu_pool_proj"
  type: "ReLU"
  bottom: "inception_3a/pool_proj_bn"
  top: "inception_3a/pool_proj_bn"
}
layer {
  name: "inception_3a/output"
  type: "Concat"
  bottom: "inception_3a/1x1_bn"
  bottom: "inception_3a/3x3_bn"
  bottom: "inception_3a/double_3x3_2_bn"
  bottom: "inception_3a/pool_proj_bn"
  top: "inception_3a/output"
}
layer {
  name: "inception_3b/1x1"
  type: "Convolution"
  bottom: "inception_3a/output"
  top: "inception_3b/1x1"
  param {
    lr_mult: 1
    decay_mult: 1
  }
  param {
    lr_mult: 2
    decay_mult: 0
  }
  convolution_param {
    num_output: 64
    kernel_size: 1
    weight_filler {
      type: "xavier"
    }
    bias_filler {
      type: "constant"
      value: 0.2
    }
  }
}
layer {
  name: "inception_3b/1x1_bn"
  type: "BN"
  bottom: "inception_3b/1x1"
  top: "inception_3b/1x1_bn"
  param {
    lr_mult: 1
    decay_mult: 0
  }
  param {
    lr_mult: 1
    decay_mult: 0
  }
  bn_param {
    slope_filler {
      type: "constant"
      value: 1
    }
    bias_filler {
      type: "constant"
      value: 0
    }
    frozen: true
    engine: CAFFE
  }
}
layer {
  name: "inception_3b/relu_1x1"
  type: "ReLU"
  bottom: "inception_3b/1x1_bn"
  top: "inception_3b/1x1_bn"
}
layer {
  name: "inception_3b/3x3_reduce"
  type: "Convolution"
  bottom: "inception_3a/output"
  top: "inception_3b/3x3_reduce"
  param {
    lr_mult: 1
    decay_mult: 1
  }
  param {
    lr_mult: 2
    decay_mult: 0
  }
  convolution_param {
    num_output: 64
    kernel_size: 1
    weight_filler {
      type: "xavier"
    }
    bias_filler {
      type: "constant"
      value: 0.2
    }
  }
}
layer {
  name: "inception_3b/3x3_reduce_bn"
  type: "BN"
  bottom: "inception_3b/3x3_reduce"
  top: "inception_3b/3x3_reduce_bn"
  param {
    lr_mult: 1
    decay_mult: 0
  }
  param {
    lr_mult: 1
    decay_mult: 0
  }
  bn_param {
    slope_filler {
      type: "constant"
      value: 1
    }
    bias_filler {
      type: "constant"
      value: 0
    }
    frozen: true
    engine: CAFFE
  }
}
layer {
  name: "inception_3b/relu_3x3_reduce"
  type: "ReLU"
  bottom: "inception_3b/3x3_reduce_bn"
  top: "inception_3b/3x3_reduce_bn"
}
layer {
  name: "inception_3b/3x3"
  type: "Convolution"
  bottom: "inception_3b/3x3_reduce_bn"
  top: "inception_3b/3x3"
  param {
    lr_mult: 1
    decay_mult: 1
  }
  param {
    lr_mult: 2
    decay_mult: 0
  }
  convolution_param {
    num_output: 96
    pad: 1
    kernel_size: 3
    weight_filler {
      type: "xavier"
    }
    bias_filler {
      type: "constant"
      value: 0.2
    }
  }
}
layer {
  name: "inception_3b/3x3_bn"
  type: "BN"
  bottom: "inception_3b/3x3"
  top: "inception_3b/3x3_bn"
  param {
    lr_mult: 1
    decay_mult: 0
  }
  param {
    lr_mult: 1
    decay_mult: 0
  }
  bn_param {
    slope_filler {
      type: "constant"
      value: 1
    }
    bias_filler {
      type: "constant"
      value: 0
    }
    frozen: true
    engine: CAFFE
  }
}
layer {
  name: "inception_3b/relu_3x3"
  type: "ReLU"
  bottom: "inception_3b/3x3_bn"
  top: "inception_3b/3x3_bn"
}
layer {
  name: "inception_3b/double_3x3_reduce"
  type: "Convolution"
  bottom: "inception_3a/output"
  top: "inception_3b/double_3x3_reduce"
  param {
    lr_mult: 1
    decay_mult: 1
  }
  param {
    lr_mult: 2
    decay_mult: 0
  }
  convolution_param {
    num_output: 64
    kernel_size: 1
    weight_filler {
      type: "xavier"
    }
    bias_filler {
      type: "constant"
      value: 0.2
    }
  }
}
layer {
  name: "inception_3b/double_3x3_reduce_bn"
  type: "BN"
  bottom: "inception_3b/double_3x3_reduce"
  top: "inception_3b/double_3x3_reduce_bn"
  param {
    lr_mult: 1
    decay_mult: 0
  }
  param {
    lr_mult: 1
    decay_mult: 0
  }
  bn_param {
    slope_filler {
      type: "constant"
      value: 1
    }
    bias_filler {
      type: "constant"
      value: 0
    }
    frozen: true
    engine: CAFFE
  }
}
layer {
  name: "inception_3b/relu_double_3x3_reduce"
  type: "ReLU"
  bottom: "inception_3b/double_3x3_reduce_bn"
  top: "inception_3b/double_3x3_reduce_bn"
}
layer {
  name: "inception_3b/double_3x3_1"
  type: "Convolution"
  bottom: "inception_3b/double_3x3_reduce_bn"
  top: "inception_3b/double_3x3_1"
  param {
    lr_mult: 1
    decay_mult: 1
  }
  param {
    lr_mult: 2
    decay_mult: 0
  }
  convolution_param {
    num_output: 96
    pad: 1
    kernel_size: 3
    weight_filler {
      type: "xavier"
    }
    bias_filler {
      type: "constant"
      value: 0.2
    }
  }
}
layer {
  name: "inception_3b/double_3x3_1_bn"
  type: "BN"
  bottom: "inception_3b/double_3x3_1"
  top: "inception_3b/double_3x3_1_bn"
  param {
    lr_mult: 1
    decay_mult: 0
  }
  param {
    lr_mult: 1
    decay_mult: 0
  }
  bn_param {
    slope_filler {
      type: "constant"
      value: 1
    }
    bias_filler {
      type: "constant"
      value: 0
    }
    frozen: true
    engine: CAFFE
  }
}
layer {
  name: "inception_3b/relu_double_3x3_1"
  type: "ReLU"
  bottom: "inception_3b/double_3x3_1_bn"
  top: "inception_3b/double_3x3_1_bn"
}
layer {
  name: "inception_3b/double_3x3_2"
  type: "Convolution"
  bottom: "inception_3b/double_3x3_1_bn"
  top: "inception_3b/double_3x3_2"
  param {
    lr_mult: 1
    decay_mult: 1
  }
  param {
    lr_mult: 2
    decay_mult: 0
  }
  convolution_param {
    num_output: 96
    pad: 1
    kernel_size: 3
    weight_filler {
      type: "xavier"
    }
    bias_filler {
      type: "constant"
      value: 0.2
    }
  }
}
layer {
  name: "inception_3b/double_3x3_2_bn"
  type: "BN"
  bottom: "inception_3b/double_3x3_2"
  top: "inception_3b/double_3x3_2_bn"
  param {
    lr_mult: 1
    decay_mult: 0
  }
  param {
    lr_mult: 1
    decay_mult: 0
  }
  bn_param {
    slope_filler {
      type: "constant"
      value: 1
    }
    bias_filler {
      type: "constant"
      value: 0
    }
    frozen: true
    engine: CAFFE
  }
}
layer {
  name: "inception_3b/relu_double_3x3_2"
  type: "ReLU"
  bottom: "inception_3b/double_3x3_2_bn"
  top: "inception_3b/double_3x3_2_bn"
}
layer {
  name: "inception_3b/pool"
  type: "Pooling"
  bottom: "inception_3a/output"
  top: "inception_3b/pool"
  pooling_param {
    pool: AVE
    kernel_size: 3
    stride: 1
    pad: 1
  }
}
layer {
  name: "inception_3b/pool_proj"
  type: "Convolution"
  bottom: "inception_3b/pool"
  top: "inception_3b/pool_proj"
  param {
    lr_mult: 1
    decay_mult: 1
  }
  param {
    lr_mult: 2
    decay_mult: 0
  }
  convolution_param {
    num_output: 64
    kernel_size: 1
    weight_filler {
      type: "xavier"
    }
    bias_filler {
      type: "constant"
      value: 0.2
    }
  }
}
layer {
  name: "inception_3b/pool_proj_bn"
  type: "BN"
  bottom: "inception_3b/pool_proj"
  top: "inception_3b/pool_proj_bn"
  param {
    lr_mult: 1
    decay_mult: 0
  }
  param {
    lr_mult: 1
    decay_mult: 0
  }
  bn_param {
    slope_filler {
      type: "constant"
      value: 1
    }
    bias_filler {
      type: "constant"
      value: 0
    }
    frozen: true
    engine: CAFFE
  }
}
layer {
  name: "inception_3b/relu_pool_proj"
  type: "ReLU"
  bottom: "inception_3b/pool_proj_bn"
  top: "inception_3b/pool_proj_bn"
}
layer {
  name: "inception_3b/output"
  type: "Concat"
  bottom: "inception_3b/1x1_bn"
  bottom: "inception_3b/3x3_bn"
  bottom: "inception_3b/double_3x3_2_bn"
  bottom: "inception_3b/pool_proj_bn"
  top: "inception_3b/output"
}
layer {
  name: "inception_3c/3x3_reduce"
  type: "Convolution"
  bottom: "inception_3b/output"
  top: "inception_3c/3x3_reduce"
  param {
    lr_mult: 1
    decay_mult: 1
  }
  param {
    lr_mult: 2
    decay_mult: 0
  }
  convolution_param {
    num_output: 128
    kernel_size: 1
    weight_filler {
      type: "xavier"
    }
    bias_filler {
      type: "constant"
      value: 0.2
    }
  }
}
layer {
  name: "inception_3c/3x3_reduce_bn"
  type: "BN"
  bottom: "inception_3c/3x3_reduce"
  top: "inception_3c/3x3_reduce_bn"
  param {
    lr_mult: 1
    decay_mult: 0
  }
  param {
    lr_mult: 1
    decay_mult: 0
  }
  bn_param {
    slope_filler {
      type: "constant"
      value: 1
    }
    bias_filler {
      type: "constant"
      value: 0
    }
    frozen: true
    engine: CAFFE
  }
}
layer {
  name: "inception_3c/relu_3x3_reduce"
  type: "ReLU"
  bottom: "inception_3c/3x3_reduce_bn"
  top: "inception_3c/3x3_reduce_bn"
}
layer {
  name: "inception_3c/3x3"
  type: "Convolution"
  bottom: "inception_3c/3x3_reduce_bn"
  top: "inception_3c/3x3"
  param {
    lr_mult: 1
    decay_mult: 1
  }
  param {
    lr_mult: 2
    decay_mult: 0
  }
  convolution_param {
    num_output: 160
    pad: 1
    kernel_size: 3
    stride: 2
    weight_filler {
      type: "xavier"
    }
    bias_filler {
      type: "constant"
      value: 0.2
    }
  }
}
layer {
  name: "inception_3c/3x3_bn"
  type: "BN"
  bottom: "inception_3c/3x3"
  top: "inception_3c/3x3_bn"
  param {
    lr_mult: 1
    decay_mult: 0
  }
  param {
    lr_mult: 1
    decay_mult: 0
  }
  bn_param {
    slope_filler {
      type: "constant"
      value: 1
    }
    bias_filler {
      type: "constant"
      value: 0
    }
    frozen: true
    engine: CAFFE
  }
}
layer {
  name: "inception_3c/relu_3x3"
  type: "ReLU"
  bottom: "inception_3c/3x3_bn"
  top: "inception_3c/3x3_bn"
}
layer {
  name: "inception_3c/double_3x3_reduce"
  type: "Convolution"
  bottom: "inception_3b/output"
  top: "inception_3c/double_3x3_reduce"
  param {
    lr_mult: 1
    decay_mult: 1
  }
  param {
    lr_mult: 2
    decay_mult: 0
  }
  convolution_param {
    num_output: 64
    kernel_size: 1
    weight_filler {
      type: "xavier"
    }
    bias_filler {
      type: "constant"
      value: 0.2
    }
  }
}
layer {
  name: "inception_3c/double_3x3_reduce_bn"
  type: "BN"
  bottom: "inception_3c/double_3x3_reduce"
  top: "inception_3c/double_3x3_reduce_bn"
  param {
    lr_mult: 1
    decay_mult: 0
  }
  param {
    lr_mult: 1
    decay_mult: 0
  }
  bn_param {
    slope_filler {
      type: "constant"
      value: 1
    }
    bias_filler {
      type: "constant"
      value: 0
    }
    frozen: true
    engine: CAFFE
  }
}
layer {
  name: "inception_3c/relu_double_3x3_reduce"
  type: "ReLU"
  bottom: "inception_3c/double_3x3_reduce_bn"
  top: "inception_3c/double_3x3_reduce_bn"
}
layer {
  name: "inception_3c/double_3x3_1"
  type: "Convolution"
  bottom: "inception_3c/double_3x3_reduce_bn"
  top: "inception_3c/double_3x3_1"
  param {
    lr_mult: 1
    decay_mult: 1
  }
  param {
    lr_mult: 2
    decay_mult: 0
  }
  convolution_param {
    num_output: 96
    pad: 1
    kernel_size: 3
    weight_filler {
      type: "xavier"
    }
    bias_filler {
      type: "constant"
      value: 0.2
    }
  }
}
layer {
  name: "inception_3c/double_3x3_1_bn"
  type: "BN"
  bottom: "inception_3c/double_3x3_1"
  top: "inception_3c/double_3x3_1_bn"
  param {
    lr_mult: 1
    decay_mult: 0
  }
  param {
    lr_mult: 1
    decay_mult: 0
  }
  bn_param {
    slope_filler {
      type: "constant"
      value: 1
    }
    bias_filler {
      type: "constant"
      value: 0
    }
    frozen: true
    engine: CAFFE
  }
}
layer {
  name: "inception_3c/relu_double_3x3_1"
  type: "ReLU"
  bottom: "inception_3c/double_3x3_1_bn"
  top: "inception_3c/double_3x3_1_bn"
}
layer {
  name: "inception_3c/double_3x3_2"
  type: "Convolution"
  bottom: "inception_3c/double_3x3_1_bn"
  top: "inception_3c/double_3x3_2"
  param {
    lr_mult: 1
    decay_mult: 1
  }
  param {
    lr_mult: 2
    decay_mult: 0
  }
  convolution_param {
    num_output: 96
    pad: 1
    kernel_size: 3
    stride: 2
    weight_filler {
      type: "xavier"
    }
    bias_filler {
      type: "constant"
      value: 0.2
    }
  }
}
layer {
  name: "inception_3c/double_3x3_2_bn"
  type: "BN"
  bottom: "inception_3c/double_3x3_2"
  top: "inception_3c/double_3x3_2_bn"
  param {
    lr_mult: 1
    decay_mult: 0
  }
  param {
    lr_mult: 1
    decay_mult: 0
  }
  bn_param {
    slope_filler {
      type: "constant"
      value: 1
    }
    bias_filler {
      type: "constant"
      value: 0
    }
    frozen: true
    engine: CAFFE
  }
}
layer {
  name: "inception_3c/relu_double_3x3_2"
  type: "ReLU"
  bottom: "inception_3c/double_3x3_2_bn"
  top: "inception_3c/double_3x3_2_bn"
}
layer {
  name: "inception_3c/pool"
  type: "Pooling"
  bottom: "inception_3b/output"
  top: "inception_3c/pool"
  pooling_param {
    pool: MAX
    kernel_size: 3
    stride: 2
  }
}
layer {
  name: "inception_3c/output"
  type: "Concat"
  bottom: "inception_3c/3x3_bn"
  bottom: "inception_3c/double_3x3_2_bn"
  bottom: "inception_3c/pool"
  top: "inception_3c/output"
}
layer {
  name: "inception_4a/1x1"
  type: "Convolution"
  bottom: "inception_3c/output"
  top: "inception_4a/1x1"
  param {
    lr_mult: 1
    decay_mult: 1
  }
  param {
    lr_mult: 2
    decay_mult: 0
  }
  convolution_param {
    num_output: 224
    kernel_size: 1
    weight_filler {
      type: "xavier"
    }
    bias_filler {
      type: "constant"
      value: 0.2
    }
  }
}
layer {
  name: "inception_4a/1x1_bn"
  type: "BN"
  bottom: "inception_4a/1x1"
  top: "inception_4a/1x1_bn"
  param {
    lr_mult: 1
    decay_mult: 0
  }
  param {
    lr_mult: 1
    decay_mult: 0
  }
  bn_param {
    slope_filler {
      type: "constant"
      value: 1
    }
    bias_filler {
      type: "constant"
      value: 0
    }
    frozen: true
    engine: CAFFE
  }
}
layer {
  name: "inception_4a/relu_1x1"
  type: "ReLU"
  bottom: "inception_4a/1x1_bn"
  top: "inception_4a/1x1_bn"
}
layer {
  name: "inception_4a/3x3_reduce"
  type: "Convolution"
  bottom: "inception_3c/output"
  top: "inception_4a/3x3_reduce"
  param {
    lr_mult: 1
    decay_mult: 1
  }
  param {
    lr_mult: 2
    decay_mult: 0
  }
  convolution_param {
    num_output: 64
    kernel_size: 1
    weight_filler {
      type: "xavier"
    }
    bias_filler {
      type: "constant"
      value: 0.2
    }
  }
}
layer {
  name: "inception_4a/3x3_reduce_bn"
  type: "BN"
  bottom: "inception_4a/3x3_reduce"
  top: "inception_4a/3x3_reduce_bn"
  param {
    lr_mult: 1
    decay_mult: 0
  }
  param {
    lr_mult: 1
    decay_mult: 0
  }
  bn_param {
    slope_filler {
      type: "constant"
      value: 1
    }
    bias_filler {
      type: "constant"
      value: 0
    }
    frozen: true
    engine: CAFFE
  }
}
layer {
  name: "inception_4a/relu_3x3_reduce"
  type: "ReLU"
  bottom: "inception_4a/3x3_reduce_bn"
  top: "inception_4a/3x3_reduce_bn"
}
layer {
  name: "inception_4a/3x3"
  type: "Convolution"
  bottom: "inception_4a/3x3_reduce_bn"
  top: "inception_4a/3x3"
  param {
    lr_mult: 1
    decay_mult: 1
  }
  param {
    lr_mult: 2
    decay_mult: 0
  }
  convolution_param {
    num_output: 96
    pad: 1
    kernel_size: 3
    weight_filler {
      type: "xavier"
    }
    bias_filler {
      type: "constant"
      value: 0.2
    }
  }
}
layer {
  name: "inception_4a/3x3_bn"
  type: "BN"
  bottom: "inception_4a/3x3"
  top: "inception_4a/3x3_bn"
  param {
    lr_mult: 1
    decay_mult: 0
  }
  param {
    lr_mult: 1
    decay_mult: 0
  }
  bn_param {
    slope_filler {
      type: "constant"
      value: 1
    }
    bias_filler {
      type: "constant"
      value: 0
    }
    frozen: true
    engine: CAFFE
  }
}
layer {
  name: "inception_4a/relu_3x3"
  type: "ReLU"
  bottom: "inception_4a/3x3_bn"
  top: "inception_4a/3x3_bn"
}
layer {
  name: "inception_4a/double_3x3_reduce"
  type: "Convolution"
  bottom: "inception_3c/output"
  top: "inception_4a/double_3x3_reduce"
  param {
    lr_mult: 1
    decay_mult: 1
  }
  param {
    lr_mult: 2
    decay_mult: 0
  }
  convolution_param {
    num_output: 96
    kernel_size: 1
    weight_filler {
      type: "xavier"
    }
    bias_filler {
      type: "constant"
      value: 0.2
    }
  }
}
layer {
  name: "inception_4a/double_3x3_reduce_bn"
  type: "BN"
  bottom: "inception_4a/double_3x3_reduce"
  top: "inception_4a/double_3x3_reduce_bn"
  param {
    lr_mult: 1
    decay_mult: 0
  }
  param {
    lr_mult: 1
    decay_mult: 0
  }
  bn_param {
    slope_filler {
      type: "constant"
      value: 1
    }
    bias_filler {
      type: "constant"
      value: 0
    }
    frozen: true
    engine: CAFFE
  }
}
layer {
  name: "inception_4a/relu_double_3x3_reduce"
  type: "ReLU"
  bottom: "inception_4a/double_3x3_reduce_bn"
  top: "inception_4a/double_3x3_reduce_bn"
}
layer {
  name: "inception_4a/double_3x3_1"
  type: "Convolution"
  bottom: "inception_4a/double_3x3_reduce_bn"
  top: "inception_4a/double_3x3_1"
  param {
    lr_mult: 1
    decay_mult: 1
  }
  param {
    lr_mult: 2
    decay_mult: 0
  }
  convolution_param {
    num_output: 128
    pad: 1
    kernel_size: 3
    weight_filler {
      type: "xavier"
    }
    bias_filler {
      type: "constant"
      value: 0.2
    }
  }
}
layer {
  name: "inception_4a/double_3x3_1_bn"
  type: "BN"
  bottom: "inception_4a/double_3x3_1"
  top: "inception_4a/double_3x3_1_bn"
  param {
    lr_mult: 1
    decay_mult: 0
  }
  param {
    lr_mult: 1
    decay_mult: 0
  }
  bn_param {
    slope_filler {
      type: "constant"
      value: 1
    }
    bias_filler {
      type: "constant"
      value: 0
    }
    frozen: true
    engine: CAFFE
  }
}
layer {
  name: "inception_4a/relu_double_3x3_1"
  type: "ReLU"
  bottom: "inception_4a/double_3x3_1_bn"
  top: "inception_4a/double_3x3_1_bn"
}
layer {
  name: "inception_4a/double_3x3_2"
  type: "Convolution"
  bottom: "inception_4a/double_3x3_1_bn"
  top: "inception_4a/double_3x3_2"
  param {
    lr_mult: 1
    decay_mult: 1
  }
  param {
    lr_mult: 2
    decay_mult: 0
  }
  convolution_param {
    num_output: 128
    pad: 1
    kernel_size: 3
    weight_filler {
      type: "xavier"
    }
    bias_filler {
      type: "constant"
      value: 0.2
    }
  }
}
layer {
  name: "inception_4a/double_3x3_2_bn"
  type: "BN"
  bottom: "inception_4a/double_3x3_2"
  top: "inception_4a/double_3x3_2_bn"
  param {
    lr_mult: 1
    decay_mult: 0
  }
  param {
    lr_mult: 1
    decay_mult: 0
  }
  bn_param {
    slope_filler {
      type: "constant"
      value: 1
    }
    bias_filler {
      type: "constant"
      value: 0
    }
    frozen: true
    engine: CAFFE
  }
}
layer {
  name: "inception_4a/relu_double_3x3_2"
  type: "ReLU"
  bottom: "inception_4a/double_3x3_2_bn"
  top: "inception_4a/double_3x3_2_bn"
}
layer {
  name: "inception_4a/pool"
  type: "Pooling"
  bottom: "inception_3c/output"
  top: "inception_4a/pool"
  pooling_param {
    pool: AVE
    kernel_size: 3
    stride: 1
    pad: 1
  }
}
layer {
  name: "inception_4a/pool_proj"
  type: "Convolution"
  bottom: "inception_4a/pool"
  top: "inception_4a/pool_proj"
  param {
    lr_mult: 1
    decay_mult: 1
  }
  param {
    lr_mult: 2
    decay_mult: 0
  }
  convolution_param {
    num_output: 128
    kernel_size: 1
    weight_filler {
      type: "xavier"
    }
    bias_filler {
      type: "constant"
      value: 0.2
    }
  }
}
layer {
  name: "inception_4a/pool_proj_bn"
  type: "BN"
  bottom: "inception_4a/pool_proj"
  top: "inception_4a/pool_proj_bn"
  param {
    lr_mult: 1
    decay_mult: 0
  }
  param {
    lr_mult: 1
    decay_mult: 0
  }
  bn_param {
    slope_filler {
      type: "constant"
      value: 1
    }
    bias_filler {
      type: "constant"
      value: 0
    }
    frozen: true
    engine: CAFFE
  }
}
layer {
  name: "inception_4a/relu_pool_proj"
  type: "ReLU"
  bottom: "inception_4a/pool_proj_bn"
  top: "inception_4a/pool_proj_bn"
}
layer {
  name: "inception_4a/output"
  type: "Concat"
  bottom: "inception_4a/1x1_b
I1219 14:14:06.681836 15716 layer_factory.hpp:74] Creating layer data
I1219 14:14:06.681855 15716 net.cpp:96] Creating Layer data
I1219 14:14:06.681860 15716 net.cpp:415] data -> data
I1219 14:14:06.681886 15716 net.cpp:415] data -> label
I1219 14:14:06.681893 15716 net.cpp:160] Setting up data
I1219 14:14:06.682188 15716 video_data_layer.cpp:34] Opening file: /home/hadoop/whx/dataset/ucf101/train_flow_split1.txt
I1219 14:14:06.685910 15716 video_data_layer.cpp:50] A total of 9537 videos.
I1219 14:14:06.795389 15716 video_data_layer.cpp:89] output data size: 24,30,224,224
I1219 14:14:06.806556 15716 net.cpp:167] Top shape: 24 30 224 224 (36126720)
I1219 14:14:06.806583 15716 net.cpp:167] Top shape: 24 1 1 1 (24)
I1219 14:14:06.806591 15716 layer_factory.hpp:74] Creating layer data_reshape
I1219 14:14:06.806605 15716 net.cpp:96] Creating Layer data_reshape
I1219 14:14:06.806610 15716 net.cpp:459] data_reshape <- data
I1219 14:14:06.806619 15716 net.cpp:415] data_reshape -> data_reshape
I1219 14:14:06.806630 15716 net.cpp:160] Setting up data_reshape
I1219 14:14:06.808948 15716 net.cpp:167] Top shape: 72 10 224 224 (36126720)
I1219 14:14:06.808959 15716 layer_factory.hpp:74] Creating layer conv1/7x7_s2
I1219 14:14:06.808967 15716 net.cpp:96] Creating Layer conv1/7x7_s2
I1219 14:14:06.808970 15716 net.cpp:459] conv1/7x7_s2 <- data_reshape
I1219 14:14:06.808975 15716 net.cpp:415] conv1/7x7_s2 -> conv1/7x7_s2
I1219 14:14:06.808984 15716 net.cpp:160] Setting up conv1/7x7_s2
I1219 14:14:06.809191 15716 net.cpp:167] Top shape: 72 64 112 112 (57802752)
I1219 14:14:06.809202 15716 layer_factory.hpp:74] Creating layer conv1/7x7_s2_bn
I1219 14:14:06.809216 15716 layer_factory.cpp:177] Layer conv1/7x7_s2_bn is using CAFFE engine.
I1219 14:14:06.809221 15716 net.cpp:96] Creating Layer conv1/7x7_s2_bn
I1219 14:14:06.809224 15716 net.cpp:459] conv1/7x7_s2_bn <- conv1/7x7_s2
I1219 14:14:06.809228 15716 net.cpp:415] conv1/7x7_s2_bn -> conv1/7x7_s2_bn
I1219 14:14:06.809236 15716 net.cpp:160] Setting up conv1/7x7_s2_bn
I1219 14:14:06.809357 15716 net.cpp:167] Top shape: 72 64 112 112 (57802752)
I1219 14:14:06.809372 15716 layer_factory.hpp:74] Creating layer conv1/relu_7x7
I1219 14:14:06.809378 15716 net.cpp:96] Creating Layer conv1/relu_7x7
I1219 14:14:06.809381 15716 net.cpp:459] conv1/relu_7x7 <- conv1/7x7_s2_bn
I1219 14:14:06.809386 15716 net.cpp:404] conv1/relu_7x7 -> conv1/7x7_s2_bn (in-place)
I1219 14:14:06.809391 15716 net.cpp:160] Setting up conv1/relu_7x7
I1219 14:14:06.809397 15716 net.cpp:167] Top shape: 72 64 112 112 (57802752)
I1219 14:14:06.809401 15716 layer_factory.hpp:74] Creating layer pool1/3x3_s2
I1219 14:14:06.809404 15716 net.cpp:96] Creating Layer pool1/3x3_s2
I1219 14:14:06.809407 15716 net.cpp:459] pool1/3x3_s2 <- conv1/7x7_s2_bn
I1219 14:14:06.809411 15716 net.cpp:415] pool1/3x3_s2 -> pool1/3x3_s2
I1219 14:14:06.809417 15716 net.cpp:160] Setting up pool1/3x3_s2
I1219 14:14:06.809425 15716 net.cpp:167] Top shape: 72 64 56 56 (14450688)
I1219 14:14:06.809428 15716 layer_factory.hpp:74] Creating layer conv2/3x3_reduce
I1219 14:14:06.809433 15716 net.cpp:96] Creating Layer conv2/3x3_reduce
I1219 14:14:06.809435 15716 net.cpp:459] conv2/3x3_reduce <- pool1/3x3_s2
I1219 14:14:06.809439 15716 net.cpp:415] conv2/3x3_reduce -> conv2/3x3_reduce
I1219 14:14:06.809444 15716 net.cpp:160] Setting up conv2/3x3_reduce
I1219 14:14:06.809476 15716 net.cpp:167] Top shape: 72 64 56 56 (14450688)
I1219 14:14:06.809481 15716 layer_factory.hpp:74] Creating layer conv2/3x3_reduce_bn
I1219 14:14:06.809484 15716 layer_factory.cpp:177] Layer conv2/3x3_reduce_bn is using CAFFE engine.
I1219 14:14:06.809489 15716 net.cpp:96] Creating Layer conv2/3x3_reduce_bn
I1219 14:14:06.809491 15716 net.cpp:459] conv2/3x3_reduce_bn <- conv2/3x3_reduce
I1219 14:14:06.809495 15716 net.cpp:415] conv2/3x3_reduce_bn -> conv2/3x3_reduce_bn
I1219 14:14:06.809499 15716 net.cpp:160] Setting up conv2/3x3_reduce_bn
I1219 14:14:06.809509 15716 net.cpp:167] Top shape: 72 64 56 56 (14450688)
I1219 14:14:06.809514 15716 layer_factory.hpp:74] Creating layer conv2/relu_3x3_reduce
I1219 14:14:06.809520 15716 net.cpp:96] Creating Layer conv2/relu_3x3_reduce
I1219 14:14:06.809521 15716 net.cpp:459] conv2/relu_3x3_reduce <- conv2/3x3_reduce_bn
I1219 14:14:06.809525 15716 net.cpp:404] conv2/relu_3x3_reduce -> conv2/3x3_reduce_bn (in-place)
I1219 14:14:06.809528 15716 net.cpp:160] Setting up conv2/relu_3x3_reduce
I1219 14:14:06.809532 15716 net.cpp:167] Top shape: 72 64 56 56 (14450688)
I1219 14:14:06.809535 15716 layer_factory.hpp:74] Creating layer conv2/3x3
I1219 14:14:06.809540 15716 net.cpp:96] Creating Layer conv2/3x3
I1219 14:14:06.809542 15716 net.cpp:459] conv2/3x3 <- conv2/3x3_reduce_bn
I1219 14:14:06.809545 15716 net.cpp:415] conv2/3x3 -> conv2/3x3
I1219 14:14:06.809551 15716 net.cpp:160] Setting up conv2/3x3
I1219 14:14:06.810272 15716 net.cpp:167] Top shape: 72 192 56 56 (43352064)
I1219 14:14:06.810286 15716 layer_factory.hpp:74] Creating layer conv2/3x3_bn
I1219 14:14:06.810292 15716 layer_factory.cpp:177] Layer conv2/3x3_bn is using CAFFE engine.
I1219 14:14:06.810297 15716 net.cpp:96] Creating Layer conv2/3x3_bn
I1219 14:14:06.810302 15716 net.cpp:459] conv2/3x3_bn <- conv2/3x3
I1219 14:14:06.810309 15716 net.cpp:415] conv2/3x3_bn -> conv2/3x3_bn
I1219 14:14:06.810317 15716 net.cpp:160] Setting up conv2/3x3_bn
I1219 14:14:06.810331 15716 net.cpp:167] Top shape: 72 192 56 56 (43352064)
I1219 14:14:06.810340 15716 layer_factory.hpp:74] Creating layer conv2/relu_3x3
I1219 14:14:06.810346 15716 net.cpp:96] Creating Layer conv2/relu_3x3
I1219 14:14:06.810350 15716 net.cpp:459] conv2/relu_3x3 <- conv2/3x3_bn
I1219 14:14:06.810360 15716 net.cpp:404] conv2/relu_3x3 -> conv2/3x3_bn (in-place)
I1219 14:14:06.810370 15716 net.cpp:160] Setting up conv2/relu_3x3
I1219 14:14:06.810376 15716 net.cpp:167] Top shape: 72 192 56 56 (43352064)
I1219 14:14:06.810380 15716 layer_factory.hpp:74] Creating layer pool2/3x3_s2
I1219 14:14:06.810387 15716 net.cpp:96] Creating Layer pool2/3x3_s2
I1219 14:14:06.810392 15716 net.cpp:459] pool2/3x3_s2 <- conv2/3x3_bn
I1219 14:14:06.810398 15716 net.cpp:415] pool2/3x3_s2 -> pool2/3x3_s2
I1219 14:14:06.810405 15716 net.cpp:160] Setting up pool2/3x3_s2
I1219 14:14:06.810413 15716 net.cpp:167] Top shape: 72 192 28 28 (10838016)
I1219 14:14:06.810418 15716 layer_factory.hpp:74] Creating layer pool2/3x3_s2_pool2/3x3_s2_0_split
I1219 14:14:06.810425 15716 net.cpp:96] Creating Layer pool2/3x3_s2_pool2/3x3_s2_0_split
I1219 14:14:06.810431 15716 net.cpp:459] pool2/3x3_s2_pool2/3x3_s2_0_split <- pool2/3x3_s2
I1219 14:14:06.810436 15716 net.cpp:415] pool2/3x3_s2_pool2/3x3_s2_0_split -> pool2/3x3_s2_pool2/3x3_s2_0_split_0
I1219 14:14:06.810442 15716 net.cpp:415] pool2/3x3_s2_pool2/3x3_s2_0_split -> pool2/3x3_s2_pool2/3x3_s2_0_split_1
I1219 14:14:06.810449 15716 net.cpp:415] pool2/3x3_s2_pool2/3x3_s2_0_split -> pool2/3x3_s2_pool2/3x3_s2_0_split_2
I1219 14:14:06.810456 15716 net.cpp:415] pool2/3x3_s2_pool2/3x3_s2_0_split -> pool2/3x3_s2_pool2/3x3_s2_0_split_3
I1219 14:14:06.810461 15716 net.cpp:160] Setting up pool2/3x3_s2_pool2/3x3_s2_0_split
I1219 14:14:06.810467 15716 net.cpp:167] Top shape: 72 192 28 28 (10838016)
I1219 14:14:06.810472 15716 net.cpp:167] Top shape: 72 192 28 28 (10838016)
I1219 14:14:06.810477 15716 net.cpp:167] Top shape: 72 192 28 28 (10838016)
I1219 14:14:06.810482 15716 net.cpp:167] Top shape: 72 192 28 28 (10838016)
I1219 14:14:06.810485 15716 layer_factory.hpp:74] Creating layer inception_3a/1x1
I1219 14:14:06.810492 15716 net.cpp:96] Creating Layer inception_3a/1x1
I1219 14:14:06.810497 15716 net.cpp:459] inception_3a/1x1 <- pool2/3x3_s2_pool2/3x3_s2_0_split_0
I1219 14:14:06.810503 15716 net.cpp:415] inception_3a/1x1 -> inception_3a/1x1
I1219 14:14:06.810508 15716 net.cpp:160] Setting up inception_3a/1x1
I1219 14:14:06.810598 15716 net.cpp:167] Top shape: 72 64 28 28 (3612672)
I1219 14:14:06.810606 15716 layer_factory.hpp:74] Creating layer inception_3a/1x1_bn
I1219 14:14:06.810611 15716 layer_factory.cpp:177] Layer inception_3a/1x1_bn is using CAFFE engine.
I1219 14:14:06.810616 15716 net.cpp:96] Creating Layer inception_3a/1x1_bn
I1219 14:14:06.810621 15716 net.cpp:459] inception_3a/1x1_bn <- inception_3a/1x1
I1219 14:14:06.810626 15716 net.cpp:415] inception_3a/1x1_bn -> inception_3a/1x1_bn
I1219 14:14:06.810633 15716 net.cpp:160] Setting up inception_3a/1x1_bn
I1219 14:14:06.810647 15716 net.cpp:167] Top shape: 72 64 28 28 (3612672)
I1219 14:14:06.810654 15716 layer_factory.hpp:74] Creating layer inception_3a/relu_1x1
I1219 14:14:06.810662 15716 net.cpp:96] Creating Layer inception_3a/relu_1x1
I1219 14:14:06.810665 15716 net.cpp:459] inception_3a/relu_1x1 <- inception_3a/1x1_bn
I1219 14:14:06.810670 15716 net.cpp:404] inception_3a/relu_1x1 -> inception_3a/1x1_bn (in-place)
I1219 14:14:06.810677 15716 net.cpp:160] Setting up inception_3a/relu_1x1
I1219 14:14:06.810681 15716 net.cpp:167] Top shape: 72 64 28 28 (3612672)
I1219 14:14:06.810685 15716 layer_factory.hpp:74] Creating layer inception_3a/3x3_reduce
I1219 14:14:06.810693 15716 net.cpp:96] Creating Layer inception_3a/3x3_reduce
I1219 14:14:06.810696 15716 net.cpp:459] inception_3a/3x3_reduce <- pool2/3x3_s2_pool2/3x3_s2_0_split_1
I1219 14:14:06.810703 15716 net.cpp:415] inception_3a/3x3_reduce -> inception_3a/3x3_reduce
I1219 14:14:06.810709 15716 net.cpp:160] Setting up inception_3a/3x3_reduce
I1219 14:14:06.810796 15716 net.cpp:167] Top shape: 72 64 28 28 (3612672)
I1219 14:14:06.810807 15716 layer_factory.hpp:74] Creating layer inception_3a/3x3_reduce_bn
I1219 14:14:06.810813 15716 layer_factory.cpp:177] Layer inception_3a/3x3_reduce_bn is using CAFFE engine.
I1219 14:14:06.810819 15716 net.cpp:96] Creating Layer inception_3a/3x3_reduce_bn
I1219 14:14:06.810829 15716 net.cpp:459] inception_3a/3x3_reduce_bn <- inception_3a/3x3_reduce
I1219 14:14:06.810840 15716 net.cpp:415] inception_3a/3x3_reduce_bn -> inception_3a/3x3_reduce_bn
I1219 14:14:06.810848 15716 net.cpp:160] Setting up inception_3a/3x3_reduce_bn
I1219 14:14:06.810863 15716 net.cpp:167] Top shape: 72 64 28 28 (3612672)
I1219 14:14:06.810871 15716 layer_factory.hpp:74] Creating layer inception_3a/relu_3x3_reduce
I1219 14:14:06.810878 15716 net.cpp:96] Creating Layer inception_3a/relu_3x3_reduce
I1219 14:14:06.810883 15716 net.cpp:459] inception_3a/relu_3x3_reduce <- inception_3a/3x3_reduce_bn
I1219 14:14:06.810889 15716 net.cpp:404] inception_3a/relu_3x3_reduce -> inception_3a/3x3_reduce_bn (in-place)
I1219 14:14:06.810894 15716 net.cpp:160] Setting up inception_3a/relu_3x3_reduce
I1219 14:14:06.810899 15716 net.cpp:167] Top shape: 72 64 28 28 (3612672)
I1219 14:14:06.810904 15716 layer_factory.hpp:74] Creating layer inception_3a/3x3
I1219 14:14:06.810911 15716 net.cpp:96] Creating Layer inception_3a/3x3
I1219 14:14:06.810916 15716 net.cpp:459] inception_3a/3x3 <- inception_3a/3x3_reduce_bn
I1219 14:14:06.810922 15716 net.cpp:415] inception_3a/3x3 -> inception_3a/3x3
I1219 14:14:06.810930 15716 net.cpp:160] Setting up inception_3a/3x3
I1219 14:14:06.811172 15716 net.cpp:167] Top shape: 72 64 28 28 (3612672)
I1219 14:14:06.811183 15716 layer_factory.hpp:74] Creating layer inception_3a/3x3_bn
I1219 14:14:06.811188 15716 layer_factory.cpp:177] Layer inception_3a/3x3_bn is using CAFFE engine.
I1219 14:14:06.811195 15716 net.cpp:96] Creating Layer inception_3a/3x3_bn
I1219 14:14:06.811200 15716 net.cpp:459] inception_3a/3x3_bn <- inception_3a/3x3
I1219 14:14:06.811208 15716 net.cpp:415] inception_3a/3x3_bn -> inception_3a/3x3_bn
I1219 14:14:06.811214 15716 net.cpp:160] Setting up inception_3a/3x3_bn
I1219 14:14:06.811228 15716 net.cpp:167] Top shape: 72 64 28 28 (3612672)
I1219 14:14:06.811239 15716 layer_factory.hpp:74] Creating layer inception_3a/relu_3x3
I1219 14:14:06.811245 15716 net.cpp:96] Creating Layer inception_3a/relu_3x3
I1219 14:14:06.811250 15716 net.cpp:459] inception_3a/relu_3x3 <- inception_3a/3x3_bn
I1219 14:14:06.811256 15716 net.cpp:404] inception_3a/relu_3x3 -> inception_3a/3x3_bn (in-place)
I1219 14:14:06.811262 15716 net.cpp:160] Setting up inception_3a/relu_3x3
I1219 14:14:06.811269 15716 net.cpp:167] Top shape: 72 64 28 28 (3612672)
I1219 14:14:06.811272 15716 layer_factory.hpp:74] Creating layer inception_3a/double_3x3_reduce
I1219 14:14:06.811280 15716 net.cpp:96] Creating Layer inception_3a/double_3x3_reduce
I1219 14:14:06.811285 15716 net.cpp:459] inception_3a/double_3x3_reduce <- pool2/3x3_s2_pool2/3x3_s2_0_split_2
I1219 14:14:06.811290 15716 net.cpp:415] inception_3a/double_3x3_reduce -> inception_3a/double_3x3_reduce
I1219 14:14:06.811298 15716 net.cpp:160] Setting up inception_3a/double_3x3_reduce
I1219 14:14:06.811391 15716 net.cpp:167] Top shape: 72 64 28 28 (3612672)
I1219 14:14:06.811399 15716 layer_factory.hpp:74] Creating layer inception_3a/double_3x3_reduce_bn
I1219 14:14:06.811404 15716 layer_factory.cpp:177] Layer inception_3a/double_3x3_reduce_bn is using CAFFE engine.
I1219 14:14:06.811410 15716 net.cpp:96] Creating Layer inception_3a/double_3x3_reduce_bn
I1219 14:14:06.811415 15716 net.cpp:459] inception_3a/double_3x3_reduce_bn <- inception_3a/double_3x3_reduce
I1219 14:14:06.811421 15716 net.cpp:415] inception_3a/double_3x3_reduce_bn -> inception_3a/double_3x3_reduce_bn
I1219 14:14:06.811427 15716 net.cpp:160] Setting up inception_3a/double_3x3_reduce_bn
I1219 14:14:06.811439 15716 net.cpp:167] Top shape: 72 64 28 28 (3612672)
I1219 14:14:06.811447 15716 layer_factory.hpp:74] Creating layer inception_3a/relu_double_3x3_reduce
I1219 14:14:06.811453 15716 net.cpp:96] Creating Layer inception_3a/relu_double_3x3_reduce
I1219 14:14:06.811457 15716 net.cpp:459] inception_3a/relu_double_3x3_reduce <- inception_3a/double_3x3_reduce_bn
I1219 14:14:06.811463 15716 net.cpp:404] inception_3a/relu_double_3x3_reduce -> inception_3a/double_3x3_reduce_bn (in-place)
I1219 14:14:06.811472 15716 net.cpp:160] Setting up inception_3a/relu_double_3x3_reduce
I1219 14:14:06.811482 15716 net.cpp:167] Top shape: 72 64 28 28 (3612672)
I1219 14:14:06.811486 15716 layer_factory.hpp:74] Creating layer inception_3a/double_3x3_1
I1219 14:14:06.811493 15716 net.cpp:96] Creating Layer inception_3a/double_3x3_1
I1219 14:14:06.811497 15716 net.cpp:459] inception_3a/double_3x3_1 <- inception_3a/double_3x3_reduce_bn
I1219 14:14:06.811503 15716 net.cpp:415] inception_3a/double_3x3_1 -> inception_3a/double_3x3_1
I1219 14:14:06.811509 15716 net.cpp:160] Setting up inception_3a/double_3x3_1
I1219 14:14:06.811905 15716 net.cpp:167] Top shape: 72 96 28 28 (5419008)
I1219 14:14:06.811913 15716 layer_factory.hpp:74] Creating layer inception_3a/double_3x3_1_bn
I1219 14:14:06.811918 15716 layer_factory.cpp:177] Layer inception_3a/double_3x3_1_bn is using CAFFE engine.
I1219 14:14:06.811924 15716 net.cpp:96] Creating Layer inception_3a/double_3x3_1_bn
I1219 14:14:06.811929 15716 net.cpp:459] inception_3a/double_3x3_1_bn <- inception_3a/double_3x3_1
I1219 14:14:06.811939 15716 net.cpp:415] inception_3a/double_3x3_1_bn -> inception_3a/double_3x3_1_bn
I1219 14:14:06.811949 15716 net.cpp:160] Setting up inception_3a/double_3x3_1_bn
I1219 14:14:06.811966 15716 net.cpp:167] Top shape: 72 96 28 28 (5419008)
I1219 14:14:06.811976 15716 layer_factory.hpp:74] Creating layer inception_3a/relu_double_3x3_1
I1219 14:14:06.811983 15716 net.cpp:96] Creating Layer inception_3a/relu_double_3x3_1
I1219 14:14:06.811988 15716 net.cpp:459] inception_3a/relu_double_3x3_1 <- inception_3a/double_3x3_1_bn
I1219 14:14:06.811995 15716 net.cpp:404] inception_3a/relu_double_3x3_1 -> inception_3a/double_3x3_1_bn (in-place)
I1219 14:14:06.812000 15716 net.cpp:160] Setting up inception_3a/relu_double_3x3_1
I1219 14:14:06.812006 15716 net.cpp:167] Top shape: 72 96 28 28 (5419008)
I1219 14:14:06.812011 15716 layer_factory.hpp:74] Creating layer inception_3a/double_3x3_2
I1219 14:14:06.812018 15716 net.cpp:96] Creating Layer inception_3a/double_3x3_2
I1219 14:14:06.812023 15716 net.cpp:459] inception_3a/double_3x3_2 <- inception_3a/double_3x3_1_bn
I1219 14:14:06.812029 15716 net.cpp:415] inception_3a/double_3x3_2 -> inception_3a/double_3x3_2
I1219 14:14:06.812036 15716 net.cpp:160] Setting up inception_3a/double_3x3_2
I1219 14:14:06.812628 15716 net.cpp:167] Top shape: 72 96 28 28 (5419008)
I1219 14:14:06.812640 15716 layer_factory.hpp:74] Creating layer inception_3a/double_3x3_2_bn
I1219 14:14:06.812646 15716 layer_factory.cpp:177] Layer inception_3a/double_3x3_2_bn is using CAFFE engine.
I1219 14:14:06.812654 15716 net.cpp:96] Creating Layer inception_3a/double_3x3_2_bn
I1219 14:14:06.812659 15716 net.cpp:459] inception_3a/double_3x3_2_bn <- inception_3a/double_3x3_2
I1219 14:14:06.812666 15716 net.cpp:415] inception_3a/double_3x3_2_bn -> inception_3a/double_3x3_2_bn
I1219 14:14:06.812674 15716 net.cpp:160] Setting up inception_3a/double_3x3_2_bn
I1219 14:14:06.812690 15716 net.cpp:167] Top shape: 72 96 28 28 (5419008)
I1219 14:14:06.812697 15716 layer_factory.hpp:74] Creating layer inception_3a/relu_double_3x3_2
I1219 14:14:06.812703 15716 net.cpp:96] Creating Layer inception_3a/relu_double_3x3_2
I1219 14:14:06.812707 15716 net.cpp:459] inception_3a/relu_double_3x3_2 <- inception_3a/double_3x3_2_bn
I1219 14:14:06.812713 15716 net.cpp:404] inception_3a/relu_double_3x3_2 -> inception_3a/double_3x3_2_bn (in-place)
I1219 14:14:06.812718 15716 net.cpp:160] Setting up inception_3a/relu_double_3x3_2
I1219 14:14:06.812724 15716 net.cpp:167] Top shape: 72 96 28 28 (5419008)
I1219 14:14:06.812728 15716 layer_factory.hpp:74] Creating layer inception_3a/pool
I1219 14:14:06.812737 15716 net.cpp:96] Creating Layer inception_3a/pool
I1219 14:14:06.812741 15716 net.cpp:459] inception_3a/pool <- pool2/3x3_s2_pool2/3x3_s2_0_split_3
I1219 14:14:06.812748 15716 net.cpp:415] inception_3a/pool -> inception_3a/pool
I1219 14:14:06.812754 15716 net.cpp:160] Setting up inception_3a/pool
I1219 14:14:06.812762 15716 net.cpp:167] Top shape: 72 192 28 28 (10838016)
I1219 14:14:06.812765 15716 layer_factory.hpp:74] Creating layer inception_3a/pool_proj
I1219 14:14:06.812780 15716 net.cpp:96] Creating Layer inception_3a/pool_proj
I1219 14:14:06.812785 15716 net.cpp:459] inception_3a/pool_proj <- inception_3a/pool
I1219 14:14:06.812793 15716 net.cpp:415] inception_3a/pool_proj -> inception_3a/pool_proj
I1219 14:14:06.812798 15716 net.cpp:160] Setting up inception_3a/pool_proj
I1219 14:14:06.812852 15716 net.cpp:167] Top shape: 72 32 28 28 (1806336)
I1219 14:14:06.812860 15716 layer_factory.hpp:74] Creating layer inception_3a/pool_proj_bn
I1219 14:14:06.812865 15716 layer_factory.cpp:177] Layer inception_3a/pool_proj_bn is using CAFFE engine.
I1219 14:14:06.812871 15716 net.cpp:96] Creating Layer inception_3a/pool_proj_bn
I1219 14:14:06.812875 15716 net.cpp:459] inception_3a/pool_proj_bn <- inception_3a/pool_proj
I1219 14:14:06.812881 15716 net.cpp:415] inception_3a/pool_proj_bn -> inception_3a/pool_proj_bn
I1219 14:14:06.812887 15716 net.cpp:160] Setting up inception_3a/pool_proj_bn
I1219 14:14:06.812901 15716 net.cpp:167] Top shape: 72 32 28 28 (1806336)
I1219 14:14:06.812911 15716 layer_factory.hpp:74] Creating layer inception_3a/relu_pool_proj
I1219 14:14:06.812917 15716 net.cpp:96] Creating Layer inception_3a/relu_pool_proj
I1219 14:14:06.812922 15716 net.cpp:459] inception_3a/relu_pool_proj <- inception_3a/pool_proj_bn
I1219 14:14:06.812927 15716 net.cpp:404] inception_3a/relu_pool_proj -> inception_3a/pool_proj_bn (in-place)
I1219 14:14:06.812932 15716 net.cpp:160] Setting up inception_3a/relu_pool_proj
I1219 14:14:06.812937 15716 net.cpp:167] Top shape: 72 32 28 28 (1806336)
I1219 14:14:06.812940 15716 layer_factory.hpp:74] Creating layer inception_3a/output
I1219 14:14:06.812947 15716 net.cpp:96] Creating Layer inception_3a/output
I1219 14:14:06.812952 15716 net.cpp:459] inception_3a/output <- inception_3a/1x1_bn
I1219 14:14:06.812957 15716 net.cpp:459] inception_3a/output <- inception_3a/3x3_bn
I1219 14:14:06.812960 15716 net.cpp:459] inception_3a/output <- inception_3a/double_3x3_2_bn
I1219 14:14:06.812965 15716 net.cpp:459] inception_3a/output <- inception_3a/pool_proj_bn
I1219 14:14:06.812970 15716 net.cpp:415] inception_3a/output -> inception_3a/output
I1219 14:14:06.812976 15716 net.cpp:160] Setting up inception_3a/output
I1219 14:14:06.812983 15716 net.cpp:167] Top shape: 72 256 28 28 (14450688)
I1219 14:14:06.812988 15716 layer_factory.hpp:74] Creating layer inception_3a/output_inception_3a/output_0_split
I1219 14:14:06.812994 15716 net.cpp:96] Creating Layer inception_3a/output_inception_3a/output_0_split
I1219 14:14:06.812997 15716 net.cpp:459] inception_3a/output_inception_3a/output_0_split <- inception_3a/output
I1219 14:14:06.813004 15716 net.cpp:415] inception_3a/output_inception_3a/output_0_split -> inception_3a/output_inception_3a/output_0_split_0
I1219 14:14:06.813010 15716 net.cpp:415] inception_3a/output_inception_3a/output_0_split -> inception_3a/output_inception_3a/output_0_split_1
I1219 14:14:06.813019 15716 net.cpp:415] inception_3a/output_inception_3a/output_0_split -> inception_3a/output_inception_3a/output_0_split_2
I1219 14:14:06.813025 15716 net.cpp:415] inception_3a/output_inception_3a/output_0_split -> inception_3a/output_inception_3a/output_0_split_3
I1219 14:14:06.813030 15716 net.cpp:160] Setting up inception_3a/output_inception_3a/output_0_split
I1219 14:14:06.813037 15716 net.cpp:167] Top shape: 72 256 28 28 (14450688)
I1219 14:14:06.813042 15716 net.cpp:167] Top shape: 72 256 28 28 (14450688)
I1219 14:14:06.813047 15716 net.cpp:167] Top shape: 72 256 28 28 (14450688)
I1219 14:14:06.813051 15716 net.cpp:167] Top shape: 72 256 28 28 (14450688)
I1219 14:14:06.813056 15716 layer_factory.hpp:74] Creating layer inception_3b/1x1
I1219 14:14:06.813063 15716 net.cpp:96] Creating Layer inception_3b/1x1
I1219 14:14:06.813069 15716 net.cpp:459] inception_3b/1x1 <- inception_3a/output_inception_3a/output_0_split_0
I1219 14:14:06.813077 15716 net.cpp:415] inception_3b/1x1 -> inception_3b/1x1
I1219 14:14:06.813086 15716 net.cpp:160] Setting up inception_3b/1x1
I1219 14:14:06.813211 15716 net.cpp:167] Top shape: 72 64 28 28 (3612672)
I1219 14:14:06.813228 15716 layer_factory.hpp:74] Creating layer inception_3b/1x1_bn
I1219 14:14:06.813233 15716 layer_factory.cpp:177] Layer inception_3b/1x1_bn is using CAFFE engine.
I1219 14:14:06.813241 15716 net.cpp:96] Creating Layer inception_3b/1x1_bn
I1219 14:14:06.813246 15716 net.cpp:459] inception_3b/1x1_bn <- inception_3b/1x1
I1219 14:14:06.813253 15716 net.cpp:415] inception_3b/1x1_bn -> inception_3b/1x1_bn
I1219 14:14:06.813261 15716 net.cpp:160] Setting up inception_3b/1x1_bn
I1219 14:14:06.813277 15716 net.cpp:167] Top shape: 72 64 28 28 (3612672)
I1219 14:14:06.813292 15716 layer_factory.hpp:74] Creating layer inception_3b/relu_1x1
I1219 14:14:06.813297 15716 net.cpp:96] Creating Layer inception_3b/relu_1x1
I1219 14:14:06.813302 15716 net.cpp:459] inception_3b/relu_1x1 <- inception_3b/1x1_bn
I1219 14:14:06.813309 15716 net.cpp:404] inception_3b/relu_1x1 -> inception_3b/1x1_bn (in-place)
I1219 14:14:06.813316 15716 net.cpp:160] Setting up inception_3b/relu_1x1
I1219 14:14:06.813321 15716 net.cpp:167] Top shape: 72 64 28 28 (3612672)
I1219 14:14:06.813326 15716 layer_factory.hpp:74] Creating layer inception_3b/3x3_reduce
I1219 14:14:06.813333 15716 net.cpp:96] Creating Layer inception_3b/3x3_reduce
I1219 14:14:06.813338 15716 net.cpp:459] inception_3b/3x3_reduce <- inception_3a/output_inception_3a/output_0_split_1
I1219 14:14:06.813346 15716 net.cpp:415] inception_3b/3x3_reduce -> inception_3b/3x3_reduce
I1219 14:14:06.813355 15716 net.cpp:160] Setting up inception_3b/3x3_reduce
I1219 14:14:06.813478 15716 net.cpp:167] Top shape: 72 64 28 28 (3612672)
I1219 14:14:06.813490 15716 layer_factory.hpp:74] Creating layer inception_3b/3x3_reduce_bn
I1219 14:14:06.813496 15716 layer_factory.cpp:177] Layer inception_3b/3x3_reduce_bn is using CAFFE engine.
I1219 14:14:06.813503 15716 net.cpp:96] Creating Layer inception_3b/3x3_reduce_bn
I1219 14:14:06.813508 15716 net.cpp:459] inception_3b/3x3_reduce_bn <- inception_3b/3x3_reduce
I1219 14:14:06.813515 15716 net.cpp:415] inception_3b/3x3_reduce_bn -> inception_3b/3x3_reduce_bn
I1219 14:14:06.813524 15716 net.cpp:160] Setting up inception_3b/3x3_reduce_bn
I1219 14:14:06.813539 15716 net.cpp:167] Top shape: 72 64 28 28 (3612672)
I1219 14:14:06.813549 15716 layer_factory.hpp:74] Creating layer inception_3b/relu_3x3_reduce
I1219 14:14:06.813555 15716 net.cpp:96] Creating Layer inception_3b/relu_3x3_reduce
I1219 14:14:06.813560 15716 net.cpp:459] inception_3b/relu_3x3_reduce <- inception_3b/3x3_reduce_bn
I1219 14:14:06.813565 15716 net.cpp:404] inception_3b/relu_3x3_reduce -> inception_3b/3x3_reduce_bn (in-place)
I1219 14:14:06.813571 15716 net.cpp:160] Setting up inception_3b/relu_3x3_reduce
I1219 14:14:06.813577 15716 net.cpp:167] Top shape: 72 64 28 28 (3612672)
I1219 14:14:06.813581 15716 layer_factory.hpp:74] Creating layer inception_3b/3x3
I1219 14:14:06.813590 15716 net.cpp:96] Creating Layer inception_3b/3x3
I1219 14:14:06.813594 15716 net.cpp:459] inception_3b/3x3 <- inception_3b/3x3_reduce_bn
I1219 14:14:06.813601 15716 net.cpp:415] inception_3b/3x3 -> inception_3b/3x3
I1219 14:14:06.813607 15716 net.cpp:160] Setting up inception_3b/3x3
I1219 14:14:06.814025 15716 net.cpp:167] Top shape: 72 96 28 28 (5419008)
I1219 14:14:06.814035 15716 layer_factory.hpp:74] Creating layer inception_3b/3x3_bn
I1219 14:14:06.814041 15716 layer_factory.cpp:177] Layer inception_3b/3x3_bn is using CAFFE engine.
I1219 14:14:06.814049 15716 net.cpp:96] Creating Layer inception_3b/3x3_bn
I1219 14:14:06.814054 15716 net.cpp:459] inception_3b/3x3_bn <- inception_3b/3x3
I1219 14:14:06.814060 15716 net.cpp:415] inception_3b/3x3_bn -> inception_3b/3x3_bn
I1219 14:14:06.814067 15716 net.cpp:160] Setting up inception_3b/3x3_bn
I1219 14:14:06.814083 15716 net.cpp:167] Top shape: 72 96 28 28 (5419008)
I1219 14:14:06.814091 15716 layer_factory.hpp:74] Creating layer inception_3b/relu_3x3
I1219 14:14:06.814097 15716 net.cpp:96] Creating Layer inception_3b/relu_3x3
I1219 14:14:06.814101 15716 net.cpp:459] inception_3b/relu_3x3 <- inception_3b/3x3_bn
I1219 14:14:06.814110 15716 net.cpp:404] inception_3b/relu_3x3 -> inception_3b/3x3_bn (in-place)
I1219 14:14:06.814121 15716 net.cpp:160] Setting up inception_3b/relu_3x3
I1219 14:14:06.814126 15716 net.cpp:167] Top shape: 72 96 28 28 (5419008)
I1219 14:14:06.814131 15716 layer_factory.hpp:74] Creating layer inception_3b/double_3x3_reduce
I1219 14:14:06.814137 15716 net.cpp:96] Creating Layer inception_3b/double_3x3_reduce
I1219 14:14:06.814142 15716 net.cpp:459] inception_3b/double_3x3_reduce <- inception_3a/output_inception_3a/output_0_split_2
I1219 14:14:06.814148 15716 net.cpp:415] inception_3b/double_3x3_reduce -> inception_3b/double_3x3_reduce
I1219 14:14:06.814154 15716 net.cpp:160] Setting up inception_3b/double_3x3_reduce
I1219 14:14:06.814275 15716 net.cpp:167] Top shape: 72 64 28 28 (3612672)
I1219 14:14:06.814286 15716 layer_factory.hpp:74] Creating layer inception_3b/double_3x3_reduce_bn
I1219 14:14:06.814292 15716 layer_factory.cpp:177] Layer inception_3b/double_3x3_reduce_bn is using CAFFE engine.
I1219 14:14:06.814299 15716 net.cpp:96] Creating Layer inception_3b/double_3x3_reduce_bn
I1219 14:14:06.814304 15716 net.cpp:459] inception_3b/double_3x3_reduce_bn <- inception_3b/double_3x3_reduce
I1219 14:14:06.814313 15716 net.cpp:415] inception_3b/double_3x3_reduce_bn -> inception_3b/double_3x3_reduce_bn
I1219 14:14:06.814321 15716 net.cpp:160] Setting up inception_3b/double_3x3_reduce_bn
I1219 14:14:06.814337 15716 net.cpp:167] Top shape: 72 64 28 28 (3612672)
I1219 14:14:06.814347 15716 layer_factory.hpp:74] Creating layer inception_3b/relu_double_3x3_reduce
I1219 14:14:06.814352 15716 net.cpp:96] Creating Layer inception_3b/relu_double_3x3_reduce
I1219 14:14:06.814357 15716 net.cpp:459] inception_3b/relu_double_3x3_reduce <- inception_3b/double_3x3_reduce_bn
I1219 14:14:06.814363 15716 net.cpp:404] inception_3b/relu_double_3x3_reduce -> inception_3b/double_3x3_reduce_bn (in-place)
I1219 14:14:06.814369 15716 net.cpp:160] Setting up inception_3b/relu_double_3x3_reduce
I1219 14:14:06.814375 15716 net.cpp:167] Top shape: 72 64 28 28 (3612672)
I1219 14:14:06.814379 15716 layer_factory.hpp:74] Creating layer inception_3b/double_3x3_1
I1219 14:14:06.814388 15716 net.cpp:96] Creating Layer inception_3b/double_3x3_1
I1219 14:14:06.814393 15716 net.cpp:459] inception_3b/double_3x3_1 <- inception_3b/double_3x3_reduce_bn
I1219 14:14:06.814399 15716 net.cpp:415] inception_3b/double_3x3_1 -> inception_3b/double_3x3_1
I1219 14:14:06.814405 15716 net.cpp:160] Setting up inception_3b/double_3x3_1
I1219 14:14:06.814803 15716 net.cpp:167] Top shape: 72 96 28 28 (5419008)
I1219 14:14:06.814815 15716 layer_factory.hpp:74] Creating layer inception_3b/double_3x3_1_bn
I1219 14:14:06.814821 15716 layer_factory.cpp:177] Layer inception_3b/double_3x3_1_bn is using CAFFE engine.
I1219 14:14:06.814828 15716 net.cpp:96] Creating Layer inception_3b/double_3x3_1_bn
I1219 14:14:06.814833 15716 net.cpp:459] inception_3b/double_3x3_1_bn <- inception_3b/double_3x3_1
I1219 14:14:06.814841 15716 net.cpp:415] inception_3b/double_3x3_1_bn -> inception_3b/double_3x3_1_bn
I1219 14:14:06.814848 15716 net.cpp:160] Setting up inception_3b/double_3x3_1_bn
I1219 14:14:06.814862 15716 net.cpp:167] Top shape: 72 96 28 28 (5419008)
I1219 14:14:06.814873 15716 layer_factory.hpp:74] Creating layer inception_3b/relu_double_3x3_1
I1219 14:14:06.814879 15716 net.cpp:96] Creating Layer inception_3b/relu_double_3x3_1
I1219 14:14:06.814884 15716 net.cpp:459] inception_3b/relu_double_3x3_1 <- inception_3b/double_3x3_1_bn
I1219 14:14:06.814889 15716 net.cpp:404] inception_3b/relu_double_3x3_1 -> inception_3b/double_3x3_1_bn (in-place)
I1219 14:14:06.814895 15716 net.cpp:160] Setting up inception_3b/relu_double_3x3_1
I1219 14:14:06.814900 15716 net.cpp:167] Top shape: 72 96 28 28 (5419008)
I1219 14:14:06.814904 15716 layer_factory.hpp:74] Creating layer inception_3b/double_3x3_2
I1219 14:14:06.814911 15716 net.cpp:96] Creating Layer inception_3b/double_3x3_2
I1219 14:14:06.814915 15716 net.cpp:459] inception_3b/double_3x3_2 <- inception_3b/double_3x3_1_bn
I1219 14:14:06.814925 15716 net.cpp:415] inception_3b/double_3x3_2 -> inception_3b/double_3x3_2
I1219 14:14:06.814939 15716 net.cpp:160] Setting up inception_3b/double_3x3_2
I1219 14:14:06.815531 15716 net.cpp:167] Top shape: 72 96 28 28 (5419008)
I1219 14:14:06.815542 15716 layer_factory.hpp:74] Creating layer inception_3b/double_3x3_2_bn
I1219 14:14:06.815548 15716 layer_factory.cpp:177] Layer inception_3b/double_3x3_2_bn is using CAFFE engine.
I1219 14:14:06.815557 15716 net.cpp:96] Creating Layer inception_3b/double_3x3_2_bn
I1219 14:14:06.815562 15716 net.cpp:459] inception_3b/double_3x3_2_bn <- inception_3b/double_3x3_2
I1219 14:14:06.815572 15716 net.cpp:415] inception_3b/double_3x3_2_bn -> inception_3b/double_3x3_2_bn
I1219 14:14:06.815577 15716 net.cpp:160] Setting up inception_3b/double_3x3_2_bn
I1219 14:14:06.815589 15716 net.cpp:167] Top shape: 72 96 28 28 (5419008)
I1219 14:14:06.815595 15716 layer_factory.hpp:74] Creating layer inception_3b/relu_double_3x3_2
I1219 14:14:06.815600 15716 net.cpp:96] Creating Layer inception_3b/relu_double_3x3_2
I1219 14:14:06.815603 15716 net.cpp:459] inception_3b/relu_double_3x3_2 <- inception_3b/double_3x3_2_bn
I1219 14:14:06.815606 15716 net.cpp:404] inception_3b/relu_double_3x3_2 -> inception_3b/double_3x3_2_bn (in-place)
I1219 14:14:06.815610 15716 net.cpp:160] Setting up inception_3b/relu_double_3x3_2
I1219 14:14:06.815614 15716 net.cpp:167] Top shape: 72 96 28 28 (5419008)
I1219 14:14:06.815616 15716 layer_factory.hpp:74] Creating layer inception_3b/pool
I1219 14:14:06.815620 15716 net.cpp:96] Creating Layer inception_3b/pool
I1219 14:14:06.815624 15716 net.cpp:459] inception_3b/pool <- inception_3a/output_inception_3a/output_0_split_3
I1219 14:14:06.815629 15716 net.cpp:415] inception_3b/pool -> inception_3b/pool
I1219 14:14:06.815636 15716 net.cpp:160] Setting up inception_3b/pool
I1219 14:14:06.815644 15716 net.cpp:167] Top shape: 72 256 28 28 (14450688)
I1219 14:14:06.815650 15716 layer_factory.hpp:74] Creating layer inception_3b/pool_proj
I1219 14:14:06.815659 15716 net.cpp:96] Creating Layer inception_3b/pool_proj
I1219 14:14:06.815665 15716 net.cpp:459] inception_3b/pool_proj <- inception_3b/pool
I1219 14:14:06.815673 15716 net.cpp:415] inception_3b/pool_proj -> inception_3b/pool_proj
I1219 14:14:06.815681 15716 net.cpp:160] Setting up inception_3b/pool_proj
I1219 14:14:06.815810 15716 net.cpp:167] Top shape: 72 64 28 28 (3612672)
I1219 14:14:06.815819 15716 layer_factory.hpp:74] Creating layer inception_3b/pool_proj_bn
I1219 14:14:06.815824 15716 layer_factory.cpp:177] Layer inception_3b/pool_proj_bn is using CAFFE engine.
I1219 14:14:06.815834 15716 net.cpp:96] Creating Layer inception_3b/pool_proj_bn
I1219 14:14:06.815840 15716 net.cpp:459] inception_3b/pool_proj_bn <- inception_3b/pool_proj
I1219 14:14:06.815846 15716 net.cpp:415] inception_3b/pool_proj_bn -> inception_3b/pool_proj_bn
I1219 14:14:06.815855 15716 net.cpp:160] Setting up inception_3b/pool_proj_bn
I1219 14:14:06.815871 15716 net.cpp:167] Top shape: 72 64 28 28 (3612672)
I1219 14:14:06.815881 15716 layer_factory.hpp:74] Creating layer inception_3b/relu_pool_proj
I1219 14:14:06.815887 15716 net.cpp:96] Creating Layer inception_3b/relu_pool_proj
I1219 14:14:06.815892 15716 net.cpp:459] inception_3b/relu_pool_proj <- inception_3b/pool_proj_bn
I1219 14:14:06.815902 15716 net.cpp:404] inception_3b/relu_pool_proj -> inception_3b/pool_proj_bn (in-place)
I1219 14:14:06.815912 15716 net.cpp:160] Setting up inception_3b/relu_pool_proj
I1219 14:14:06.815918 15716 net.cpp:167] Top shape: 72 64 28 28 (3612672)
I1219 14:14:06.815923 15716 layer_factory.hpp:74] Creating layer inception_3b/output
I1219 14:14:06.815929 15716 net.cpp:96] Creating Layer inception_3b/output
I1219 14:14:06.815935 15716 net.cpp:459] inception_3b/output <- inception_3b/1x1_bn
I1219 14:14:06.815940 15716 net.cpp:459] inception_3b/output <- inception_3b/3x3_bn
I1219 14:14:06.815946 15716 net.cpp:459] inception_3b/output <- inception_3b/double_3x3_2_bn
I1219 14:14:06.815953 15716 net.cpp:459] inception_3b/output <- inception_3b/pool_proj_bn
I1219 14:14:06.815963 15716 net.cpp:415] inception_3b/output -> inception_3b/output
I1219 14:14:06.815974 15716 net.cpp:160] Setting up inception_3b/output
I1219 14:14:06.815982 15716 net.cpp:167] Top shape: 72 320 28 28 (18063360)
I1219 14:14:06.815987 15716 layer_factory.hpp:74] Creating layer inception_3b/output_inception_3b/output_0_split
I1219 14:14:06.815994 15716 net.cpp:96] Creating Layer inception_3b/output_inception_3b/output_0_split
I1219 14:14:06.816000 15716 net.cpp:459] inception_3b/output_inception_3b/output_0_split <- inception_3b/output
I1219 14:14:06.816006 15716 net.cpp:415] inception_3b/output_inception_3b/output_0_split -> inception_3b/output_inception_3b/output_0_split_0
I1219 14:14:06.816014 15716 net.cpp:415] inception_3b/output_inception_3b/output_0_split -> inception_3b/output_inception_3b/output_0_split_1
I1219 14:14:06.816020 15716 net.cpp:415] inception_3b/output_inception_3b/output_0_split -> inception_3b/output_inception_3b/output_0_split_2
I1219 14:14:06.816027 15716 net.cpp:160] Setting up inception_3b/output_inception_3b/output_0_split
I1219 14:14:06.816035 15716 net.cpp:167] Top shape: 72 320 28 28 (18063360)
I1219 14:14:06.816040 15716 net.cpp:167] Top shape: 72 320 28 28 (18063360)
I1219 14:14:06.816045 15716 net.cpp:167] Top shape: 72 320 28 28 (18063360)
I1219 14:14:06.816049 15716 layer_factory.hpp:74] Creating layer inception_3c/3x3_reduce
I1219 14:14:06.816058 15716 net.cpp:96] Creating Layer inception_3c/3x3_reduce
I1219 14:14:06.816063 15716 net.cpp:459] inception_3c/3x3_reduce <- inception_3b/output_inception_3b/output_0_split_0
I1219 14:14:06.816071 15716 net.cpp:415] inception_3c/3x3_reduce -> inception_3c/3x3_reduce
I1219 14:14:06.816078 15716 net.cpp:160] Setting up inception_3c/3x3_reduce
I1219 14:14:06.816392 15716 net.cpp:167] Top shape: 72 128 28 28 (7225344)
I1219 14:14:06.816403 15716 layer_factory.hpp:74] Creating layer inception_3c/3x3_reduce_bn
I1219 14:14:06.816408 15716 layer_factory.cpp:177] Layer inception_3c/3x3_reduce_bn is using CAFFE engine.
I1219 14:14:06.816414 15716 net.cpp:96] Creating Layer inception_3c/3x3_reduce_bn
I1219 14:14:06.816419 15716 net.cpp:459] inception_3c/3x3_reduce_bn <- inception_3c/3x3_reduce
I1219 14:14:06.816426 15716 net.cpp:415] inception_3c/3x3_reduce_bn -> inception_3c/3x3_reduce_bn
I1219 14:14:06.816432 15716 net.cpp:160] Setting up inception_3c/3x3_reduce_bn
I1219 14:14:06.816449 15716 net.cpp:167] Top shape: 72 128 28 28 (7225344)
I1219 14:14:06.816457 15716 layer_factory.hpp:74] Creating layer inception_3c/relu_3x3_reduce
I1219 14:14:06.816467 15716 net.cpp:96] Creating Layer inception_3c/relu_3x3_reduce
I1219 14:14:06.816471 15716 net.cpp:459] inception_3c/relu_3x3_reduce <- inception_3c/3x3_reduce_bn
I1219 14:14:06.816478 15716 net.cpp:404] inception_3c/relu_3x3_reduce -> inception_3c/3x3_reduce_bn (in-place)
I1219 14:14:06.816484 15716 net.cpp:160] Setting up inception_3c/relu_3x3_reduce
I1219 14:14:06.816489 15716 net.cpp:167] Top shape: 72 128 28 28 (7225344)
I1219 14:14:06.816494 15716 layer_factory.hpp:74] Creating layer inception_3c/3x3
I1219 14:14:06.816500 15716 net.cpp:96] Creating Layer inception_3c/3x3
I1219 14:14:06.816504 15716 net.cpp:459] inception_3c/3x3 <- inception_3c/3x3_reduce_bn
I1219 14:14:06.816511 15716 net.cpp:415] inception_3c/3x3 -> inception_3c/3x3
I1219 14:14:06.816517 15716 net.cpp:160] Setting up inception_3c/3x3
I1219 14:14:06.817811 15716 net.cpp:167] Top shape: 72 160 14 14 (2257920)
I1219 14:14:06.817822 15716 layer_factory.hpp:74] Creating layer inception_3c/3x3_bn
I1219 14:14:06.817826 15716 layer_factory.cpp:177] Layer inception_3c/3x3_bn is using CAFFE engine.
I1219 14:14:06.817833 15716 net.cpp:96] Creating Layer inception_3c/3x3_bn
I1219 14:14:06.817839 15716 net.cpp:459] inception_3c/3x3_bn <- inception_3c/3x3
I1219 14:14:06.817848 15716 net.cpp:415] inception_3c/3x3_bn -> inception_3c/3x3_bn
I1219 14:14:06.817857 15716 net.cpp:160] Setting up inception_3c/3x3_bn
I1219 14:14:06.817876 15716 net.cpp:167] Top shape: 72 160 14 14 (2257920)
I1219 14:14:06.817885 15716 layer_factory.hpp:74] Creating layer inception_3c/relu_3x3
I1219 14:14:06.817901 15716 net.cpp:96] Creating Layer inception_3c/relu_3x3
I1219 14:14:06.817908 15716 net.cpp:459] inception_3c/relu_3x3 <- inception_3c/3x3_bn
I1219 14:14:06.817914 15716 net.cpp:404] inception_3c/relu_3x3 -> inception_3c/3x3_bn (in-place)
I1219 14:14:06.817919 15716 net.cpp:160] Setting up inception_3c/relu_3x3
I1219 14:14:06.817925 15716 net.cpp:167] Top shape: 72 160 14 14 (2257920)
I1219 14:14:06.817930 15716 layer_factory.hpp:74] Creating layer inception_3c/double_3x3_reduce
I1219 14:14:06.817937 15716 net.cpp:96] Creating Layer inception_3c/double_3x3_reduce
I1219 14:14:06.817942 15716 net.cpp:459] inception_3c/double_3x3_reduce <- inception_3b/output_inception_3b/output_0_split_1
I1219 14:14:06.817950 15716 net.cpp:415] inception_3c/double_3x3_reduce -> inception_3c/double_3x3_reduce
I1219 14:14:06.817956 15716 net.cpp:160] Setting up inception_3c/double_3x3_reduce
I1219 14:14:06.818106 15716 net.cpp:167] Top shape: 72 64 28 28 (3612672)
I1219 14:14:06.818114 15716 layer_factory.hpp:74] Creating layer inception_3c/double_3x3_reduce_bn
I1219 14:14:06.818119 15716 layer_factory.cpp:177] Layer inception_3c/double_3x3_reduce_bn is using CAFFE engine.
I1219 14:14:06.818123 15716 net.cpp:96] Creating Layer inception_3c/double_3x3_reduce_bn
I1219 14:14:06.818128 15716 net.cpp:459] inception_3c/double_3x3_reduce_bn <- inception_3c/double_3x3_reduce
I1219 14:14:06.818136 15716 net.cpp:415] inception_3c/double_3x3_reduce_bn -> inception_3c/double_3x3_reduce_bn
I1219 14:14:06.818145 15716 net.cpp:160] Setting up inception_3c/double_3x3_reduce_bn
I1219 14:14:06.818166 15716 net.cpp:167] Top shape: 72 64 28 28 (3612672)
I1219 14:14:06.818176 15716 layer_factory.hpp:74] Creating layer inception_3c/relu_double_3x3_reduce
I1219 14:14:06.818182 15716 net.cpp:96] Creating Layer inception_3c/relu_double_3x3_reduce
I1219 14:14:06.818187 15716 net.cpp:459] inception_3c/relu_double_3x3_reduce <- inception_3c/double_3x3_reduce_bn
I1219 14:14:06.818194 15716 net.cpp:404] inception_3c/relu_double_3x3_reduce -> inception_3c/double_3x3_reduce_bn (in-place)
I1219 14:14:06.818202 15716 net.cpp:160] Setting up inception_3c/relu_double_3x3_reduce
I1219 14:14:06.818207 15716 net.cpp:167] Top shape: 72 64 28 28 (3612672)
I1219 14:14:06.818212 15716 layer_factory.hpp:74] Creating layer inception_3c/double_3x3_1
I1219 14:14:06.818219 15716 net.cpp:96] Creating Layer inception_3c/double_3x3_1
I1219 14:14:06.818223 15716 net.cpp:459] inception_3c/double_3x3_1 <- inception_3c/double_3x3_reduce_bn
I1219 14:14:06.818233 15716 net.cpp:415] inception_3c/double_3x3_1 -> inception_3c/double_3x3_1
I1219 14:14:06.818239 15716 net.cpp:160] Setting up inception_3c/double_3x3_1
I1219 14:14:06.818646 15716 net.cpp:167] Top shape: 72 96 28 28 (5419008)
I1219 14:14:06.818655 15716 layer_factory.hpp:74] Creating layer inception_3c/double_3x3_1_bn
I1219 14:14:06.818660 15716 layer_factory.cpp:177] Layer inception_3c/double_3x3_1_bn is using CAFFE engine.
I1219 14:14:06.818667 15716 net.cpp:96] Creating Layer inception_3c/double_3x3_1_bn
I1219 14:14:06.818671 15716 net.cpp:459] inception_3c/double_3x3_1_bn <- inception_3c/double_3x3_1
I1219 14:14:06.818677 15716 net.cpp:415] inception_3c/double_3x3_1_bn -> inception_3c/double_3x3_1_bn
I1219 14:14:06.818684 15716 net.cpp:160] Setting up inception_3c/double_3x3_1_bn
I1219 14:14:06.818701 15716 net.cpp:167] Top shape: 72 96 28 28 (5419008)
I1219 14:14:06.818708 15716 layer_factory.hpp:74] Creating layer inception_3c/relu_double_3x3_1
I1219 14:14:06.818713 15716 net.cpp:96] Creating Layer inception_3c/relu_double_3x3_1
I1219 14:14:06.818717 15716 net.cpp:459] inception_3c/relu_double_3x3_1 <- inception_3c/double_3x3_1_bn
I1219 14:14:06.818723 15716 net.cpp:404] inception_3c/relu_double_3x3_1 -> inception_3c/double_3x3_1_bn (in-place)
I1219 14:14:06.818729 15716 net.cpp:160] Setting up inception_3c/relu_double_3x3_1
I1219 14:14:06.818734 15716 net.cpp:167] Top shape: 72 96 28 28 (5419008)
I1219 14:14:06.818738 15716 layer_factory.hpp:74] Creating layer inception_3c/double_3x3_2
I1219 14:14:06.818748 15716 net.cpp:96] Creating Layer inception_3c/double_3x3_2
I1219 14:14:06.818756 15716 net.cpp:459] inception_3c/double_3x3_2 <- inception_3c/double_3x3_1_bn
I1219 14:14:06.818763 15716 net.cpp:415] inception_3c/double_3x3_2 -> inception_3c/double_3x3_2
I1219 14:14:06.818769 15716 net.cpp:160] Setting up inception_3c/double_3x3_2
I1219 14:14:06.819355 15716 net.cpp:167] Top shape: 72 96 14 14 (1354752)
I1219 14:14:06.819367 15716 layer_factory.hpp:74] Creating layer inception_3c/double_3x3_2_bn
I1219 14:14:06.819372 15716 layer_factory.cpp:177] Layer inception_3c/double_3x3_2_bn is using CAFFE engine.
I1219 14:14:06.819380 15716 net.cpp:96] Creating Layer inception_3c/double_3x3_2_bn
I1219 14:14:06.819385 15716 net.cpp:459] inception_3c/double_3x3_2_bn <- inception_3c/double_3x3_2
I1219 14:14:06.819392 15716 net.cpp:415] inception_3c/double_3x3_2_bn -> inception_3c/double_3x3_2_bn
I1219 14:14:06.819401 15716 net.cpp:160] Setting up inception_3c/double_3x3_2_bn
I1219 14:14:06.819416 15716 net.cpp:167] Top shape: 72 96 14 14 (1354752)
I1219 14:14:06.819433 15716 layer_factory.hpp:74] Creating layer inception_3c/relu_double_3x3_2
I1219 14:14:06.819439 15716 net.cpp:96] Creating Layer inception_3c/relu_double_3x3_2
I1219 14:14:06.819443 15716 net.cpp:459] inception_3c/relu_double_3x3_2 <- inception_3c/double_3x3_2_bn
I1219 14:14:06.819450 15716 net.cpp:404] inception_3c/relu_double_3x3_2 -> inception_3c/double_3x3_2_bn (in-place)
I1219 14:14:06.819456 15716 net.cpp:160] Setting up inception_3c/relu_double_3x3_2
I1219 14:14:06.819461 15716 net.cpp:167] Top shape: 72 96 14 14 (1354752)
I1219 14:14:06.819466 15716 layer_factory.hpp:74] Creating layer inception_3c/pool
I1219 14:14:06.819473 15716 net.cpp:96] Creating Layer inception_3c/pool
I1219 14:14:06.819476 15716 net.cpp:459] inception_3c/pool <- inception_3b/output_inception_3b/output_0_split_2
I1219 14:14:06.819483 15716 net.cpp:415] inception_3c/pool -> inception_3c/pool
I1219 14:14:06.819494 15716 net.cpp:160] Setting up inception_3c/pool
I1219 14:14:06.819502 15716 net.cpp:167] Top shape: 72 320 14 14 (4515840)
I1219 14:14:06.819506 15716 layer_factory.hpp:74] Creating layer inception_3c/output
I1219 14:14:06.819512 15716 net.cpp:96] Creating Layer inception_3c/output
I1219 14:14:06.819516 15716 net.cpp:459] inception_3c/output <- inception_3c/3x3_bn
I1219 14:14:06.819521 15716 net.cpp:459] inception_3c/output <- inception_3c/double_3x3_2_bn
I1219 14:14:06.819526 15716 net.cpp:459] inception_3c/output <- inception_3c/pool
I1219 14:14:06.819532 15716 net.cpp:415] inception_3c/output -> inception_3c/output
I1219 14:14:06.819537 15716 net.cpp:160] Setting up inception_3c/output
I1219 14:14:06.819545 15716 net.cpp:167] Top shape: 72 576 14 14 (8128512)
I1219 14:14:06.819548 15716 layer_factory.hpp:74] Creating layer inception_3c/output_inception_3c/output_0_split
I1219 14:14:06.819555 15716 net.cpp:96] Creating Layer inception_3c/output_inception_3c/output_0_split
I1219 14:14:06.819558 15716 net.cpp:459] inception_3c/output_inception_3c/output_0_split <- inception_3c/output
I1219 14:14:06.819564 15716 net.cpp:415] inception_3c/output_inception_3c/output_0_split -> inception_3c/output_inception_3c/output_0_split_0
I1219 14:14:06.819571 15716 net.cpp:415] inception_3c/output_inception_3c/output_0_split -> inception_3c/output_inception_3c/output_0_split_1
I1219 14:14:06.819576 15716 net.cpp:415] inception_3c/output_inception_3c/output_0_split -> inception_3c/output_inception_3c/output_0_split_2
I1219 14:14:06.819582 15716 net.cpp:415] inception_3c/output_inception_3c/output_0_split -> inception_3c/output_inception_3c/output_0_split_3
I1219 14:14:06.819588 15716 net.cpp:160] Setting up inception_3c/output_inception_3c/output_0_split
I1219 14:14:06.819595 15716 net.cpp:167] Top shape: 72 576 14 14 (8128512)
I1219 14:14:06.819600 15716 net.cpp:167] Top shape: 72 576 14 14 (8128512)
I1219 14:14:06.819605 15716 net.cpp:167] Top shape: 72 576 14 14 (8128512)
I1219 14:14:06.819610 15716 net.cpp:167] Top shape: 72 576 14 14 (8128512)
I1219 14:14:06.819617 15716 layer_factory.hpp:74] Creating layer inception_4a/1x1
I1219 14:14:06.819629 15716 net.cpp:96] Creating Layer inception_4a/1x1
I1219 14:14:06.819633 15716 net.cpp:459] inception_4a/1x1 <- inception_3c/output_inception_3c/output_0_split_0
I1219 14:14:06.819641 15716 net.cpp:415] inception_4a/1x1 -> inception_4a/1x1
I1219 14:14:06.819648 15716 net.cpp:160] Setting up inception_4a/1x1
I1219 14:14:06.820556 15716 net.cpp:167] Top shape: 72 224 14 14 (3161088)
I1219 14:14:06.820569 15716 layer_factory.hpp:74] Creating layer inception_4a/1x1_bn
I1219 14:14:06.820575 15716 layer_factory.cpp:177] Layer inception_4a/1x1_bn is using CAFFE engine.
I1219 14:14:06.820585 15716 net.cpp:96] Creating Layer inception_4a/1x1_bn
I1219 14:14:06.820590 15716 net.cpp:459] inception_4a/1x1_bn <- inception_4a/1x1
I1219 14:14:06.820595 15716 net.cpp:415] inception_4a/1x1_bn -> inception_4a/1x1_bn
I1219 14:14:06.820602 15716 net.cpp:160] Setting up inception_4a/1x1_bn
I1219 14:14:06.820618 15716 net.cpp:167] Top shape: 72 224 14 14 (3161088)
I1219 14:14:06.820626 15716 layer_factory.hpp:74] Creating layer inception_4a/relu_1x1
I1219 14:14:06.820632 15716 net.cpp:96] Creating Layer inception_4a/relu_1x1
I1219 14:14:06.820636 15716 net.cpp:459] inception_4a/relu_1x1 <- inception_4a/1x1_bn
I1219 14:14:06.820644 15716 net.cpp:404] inception_4a/relu_1x1 -> inception_4a/1x1_bn (in-place)
I1219 14:14:06.820650 15716 net.cpp:160] Setting up inception_4a/relu_1x1
I1219 14:14:06.820657 15716 net.cpp:167] Top shape: 72 224 14 14 (3161088)
I1219 14:14:06.820660 15716 layer_factory.hpp:74] Creating layer inception_4a/3x3_reduce
I1219 14:14:06.820667 15716 net.cpp:96] Creating Layer inception_4a/3x3_reduce
I1219 14:14:06.820672 15716 net.cpp:459] inception_4a/3x3_reduce <- inception_3c/output_inception_3c/output_0_split_1
I1219 14:14:06.820679 15716 net.cpp:415] inception_4a/3x3_reduce -> inception_4a/3x3_reduce
I1219 14:14:06.820686 15716 net.cpp:160] Setting up inception_4a/3x3_reduce
I1219 14:14:06.820961 15716 net.cpp:167] Top shape: 72 64 14 14 (903168)
I1219 14:14:06.820971 15716 layer_factory.hpp:74] Creating layer inception_4a/3x3_reduce_bn
I1219 14:14:06.820976 15716 layer_factory.cpp:177] Layer inception_4a/3x3_reduce_bn is using CAFFE engine.
I1219 14:14:06.820982 15716 net.cpp:96] Creating Layer inception_4a/3x3_reduce_bn
I1219 14:14:06.820986 15716 net.cpp:459] inception_4a/3x3_reduce_bn <- inception_4a/3x3_reduce
I1219 14:14:06.820992 15716 net.cpp:415] inception_4a/3x3_reduce_bn -> inception_4a/3x3_reduce_bn
I1219 14:14:06.820999 15716 net.cpp:160] Setting up inception_4a/3x3_reduce_bn
I1219 14:14:06.821015 15716 net.cpp:167] Top shape: 72 64 14 14 (903168)
I1219 14:14:06.821024 15716 layer_factory.hpp:74] Creating layer inception_4a/relu_3x3_reduce
I1219 14:14:06.821029 15716 net.cpp:96] Creating Layer inception_4a/relu_3x3_reduce
I1219 14:14:06.821033 15716 net.cpp:459] inception_4a/relu_3x3_reduce <- inception_4a/3x3_reduce_bn
I1219 14:14:06.821036 15716 net.cpp:404] inception_4a/relu_3x3_reduce -> inception_4a/3x3_reduce_bn (in-place)
I1219 14:14:06.821040 15716 net.cpp:160] Setting up inception_4a/relu_3x3_reduce
I1219 14:14:06.821043 15716 net.cpp:167] Top shape: 72 64 14 14 (903168)
I1219 14:14:06.821046 15716 layer_factory.hpp:74] Creating layer inception_4a/3x3
I1219 14:14:06.821051 15716 net.cpp:96] Creating Layer inception_4a/3x3
I1219 14:14:06.821054 15716 net.cpp:459] inception_4a/3x3 <- inception_4a/3x3_reduce_bn
I1219 14:14:06.821058 15716 net.cpp:415] inception_4a/3x3 -> inception_4a/3x3
I1219 14:14:06.821063 15716 net.cpp:160] Setting up inception_4a/3x3
I1219 14:14:06.821470 15716 net.cpp:167] Top shape: 72 96 14 14 (1354752)
I1219 14:14:06.821483 15716 layer_factory.hpp:74] Creating layer inception_4a/3x3_bn
I1219 14:14:06.821488 15716 layer_factory.cpp:177] Layer inception_4a/3x3_bn is using CAFFE engine.
I1219 14:14:06.821496 15716 net.cpp:96] Creating Layer inception_4a/3x3_bn
I1219 14:14:06.821501 15716 net.cpp:459] inception_4a/3x3_bn <- inception_4a/3x3
I1219 14:14:06.821508 15716 net.cpp:415] inception_4a/3x3_bn -> inception_4a/3x3_bn
I1219 14:14:06.821524 15716 net.cpp:160] Setting up inception_4a/3x3_bn
I1219 14:14:06.821539 15716 net.cpp:167] Top shape: 72 96 14 14 (1354752)
I1219 14:14:06.821548 15716 layer_factory.hpp:74] Creating layer inception_4a/relu_3x3
I1219 14:14:06.821557 15716 net.cpp:96] Creating Layer inception_4a/relu_3x3
I1219 14:14:06.821562 15716 net.cpp:459] inception_4a/relu_3x3 <- inception_4a/3x3_bn
I1219 14:14:06.821568 15716 net.cpp:404] inception_4a/relu_3x3 -> inception_4a/3x3_bn (in-place)
I1219 14:14:06.821573 15716 net.cpp:160] Setting up inception_4a/relu_3x3
I1219 14:14:06.821578 15716 net.cpp:167] Top shape: 72 96 14 14 (1354752)
I1219 14:14:06.821583 15716 layer_factory.hpp:74] Creating layer inception_4a/double_3x3_reduce
I1219 14:14:06.821588 15716 net.cpp:96] Creating Layer inception_4a/double_3x3_reduce
I1219 14:14:06.821593 15716 net.cpp:459] inception_4a/double_3x3_reduce <- inception_3c/output_inception_3c/output_0_split_2
I1219 14:14:06.821600 15716 net.cpp:415] inception_4a/double_3x3_reduce -> inception_4a/double_3x3_reduce
I1219 14:14:06.821606 15716 net.cpp:160] Setting up inception_4a/double_3x3_reduce
I1219 14:14:06.822010 15716 net.cpp:167] Top shape: 72 96 14 14 (1354752)
I1219 14:14:06.822018 15716 layer_factory.hpp:74] Creating layer inception_4a/double_3x3_reduce_bn
I1219 14:14:06.822023 15716 layer_factory.cpp:177] Layer inception_4a/double_3x3_reduce_bn is using CAFFE engine.
I1219 14:14:06.822031 15716 net.cpp:96] Creating Layer inception_4a/double_3x3_reduce_bn
I1219 14:14:06.822034 15716 net.cpp:459] inception_4a/double_3x3_reduce_bn <- inception_4a/double_3x3_reduce
I1219 14:14:06.822041 15716 net.cpp:415] inception_4a/double_3x3_reduce_bn -> inception_4a/double_3x3_reduce_bn
I1219 14:14:06.822047 15716 net.cpp:160] Setting up inception_4a/double_3x3_reduce_bn
I1219 14:14:06.822063 15716 net.cpp:167] Top shape: 72 96 14 14 (1354752)
I1219 14:14:06.822072 15716 layer_factory.hpp:74] Creating layer inception_4a/relu_double_3x3_reduce
I1219 14:14:06.822077 15716 net.cpp:96] Creating Layer inception_4a/relu_double_3x3_reduce
I1219 14:14:06.822082 15716 net.cpp:459] inception_4a/relu_double_3x3_reduce <- inception_4a/double_3x3_reduce_bn
I1219 14:14:06.822089 15716 net.cpp:404] inception_4a/relu_double_3x3_reduce -> inception_4a/double_3x3_reduce_bn (in-place)
I1219 14:14:06.822098 15716 net.cpp:160] Setting up inception_4a/relu_double_3x3_reduce
I1219 14:14:06.822103 15716 net.cpp:167] Top shape: 72 96 14 14 (1354752)
I1219 14:14:06.822105 15716 layer_factory.hpp:74] Creating layer inception_4a/double_3x3_1
I1219 14:14:06.822110 15716 net.cpp:96] Creating Layer inception_4a/double_3x3_1
I1219 14:14:06.822113 15716 net.cpp:459] inception_4a/double_3x3_1 <- inception_4a/double_3x3_reduce_bn
I1219 14:14:06.822118 15716 net.cpp:415] inception_4a/double_3x3_1 -> inception_4a/double_3x3_1
I1219 14:14:06.822123 15716 net.cpp:160] Setting up inception_4a/double_3x3_1
I1219 14:14:06.822901 15716 net.cpp:167] Top shape: 72 128 14 14 (1806336)
I1219 14:14:06.822916 15716 layer_factory.hpp:74] Creating layer inception_4a/double_3x3_1_bn
I1219 14:14:06.822922 15716 layer_factory.cpp:177] Layer inception_4a/double_3x3_1_bn is using CAFFE engine.
I1219 14:14:06.822931 15716 net.cpp:96] Creating Layer inception_4a/double_3x3_1_bn
I1219 14:14:06.822937 15716 net.cpp:459] inception_4a/double_3x3_1_bn <- inception_4a/double_3x3_1
I1219 14:14:06.822943 15716 net.cpp:415] inception_4a/double_3x3_1_bn -> inception_4a/double_3x3_1_bn
I1219 14:14:06.822952 15716 net.cpp:160] Setting up inception_4a/double_3x3_1_bn
I1219 14:14:06.822968 15716 net.cpp:167] Top shape: 72 128 14 14 (1806336)
I1219 14:14:06.822978 15716 layer_factory.hpp:74] Creating layer inception_4a/relu_double_3x3_1
I1219 14:14:06.822985 15716 net.cpp:96] Creating Layer inception_4a/relu_double_3x3_1
I1219 14:14:06.822990 15716 net.cpp:459] inception_4a/relu_double_3x3_1 <- inception_4a/double_3x3_1_bn
I1219 14:14:06.822998 15716 net.cpp:404] inception_4a/relu_double_3x3_1 -> inception_4a/double_3x3_1_bn (in-place)
I1219 14:14:06.823009 15716 net.cpp:160] Setting up inception_4a/relu_double_3x3_1
I1219 14:14:06.823019 15716 net.cpp:167] Top shape: 72 128 14 14 (1806336)
I1219 14:14:06.823024 15716 layer_factory.hpp:74] Creating layer inception_4a/double_3x3_2
I1219 14:14:06.823032 15716 net.cpp:96] Creating Layer inception_4a/double_3x3_2
I1219 14:14:06.823037 15716 net.cpp:459] inception_4a/double_3x3_2 <- inception_4a/double_3x3_1_bn
I1219 14:14:06.823045 15716 net.cpp:415] inception_4a/double_3x3_2 -> inception_4a/double_3x3_2
I1219 14:14:06.823053 15716 net.cpp:160] Setting up inception_4a/double_3x3_2
I1219 14:14:06.824105 15716 net.cpp:167] Top shape: 72 128 14 14 (1806336)
I1219 14:14:06.824115 15716 layer_factory.hpp:74] Creating layer inception_4a/double_3x3_2_bn
I1219 14:14:06.824117 15716 layer_factory.cpp:177] Layer inception_4a/double_3x3_2_bn is using CAFFE engine.
I1219 14:14:06.824122 15716 net.cpp:96] Creating Layer inception_4a/double_3x3_2_bn
I1219 14:14:06.824126 15716 net.cpp:459] inception_4a/double_3x3_2_bn <- inception_4a/double_3x3_2
I1219 14:14:06.824131 15716 net.cpp:415] inception_4a/double_3x3_2_bn -> inception_4a/double_3x3_2_bn
I1219 14:14:06.824137 15716 net.cpp:160] Setting up inception_4a/double_3x3_2_bn
I1219 14:14:06.824158 15716 net.cpp:167] Top shape: 72 128 14 14 (1806336)
I1219 14:14:06.824169 15716 layer_factory.hpp:74] Creating layer inception_4a/relu_double_3x3_2
I1219 14:14:06.824177 15716 net.cpp:96] Creating Layer inception_4a/relu_double_3x3_2
I1219 14:14:06.824182 15716 net.cpp:459] inception_4a/relu_double_3x3_2 <- inception_4a/double_3x3_2_bn
I1219 14:14:06.824188 15716 net.cpp:404] inception_4a/relu_double_3x3_2 -> inception_4a/double_3x3_2_bn (in-place)
I1219 14:14:06.824195 15716 net.cpp:160] Setting up inception_4a/relu_double_3x3_2
I1219 14:14:06.824201 15716 net.cpp:167] Top shape: 72 128 14 14 (1806336)
I1219 14:14:06.824206 15716 layer_factory.hpp:74] Creating layer inception_4a/pool
I1219 14:14:06.824213 15716 net.cpp:96] Creating Layer inception_4a/pool
I1219 14:14:06.824218 15716 net.cpp:459] inception_4a/pool <- inception_3c/output_inception_3c/output_0_split_3
I1219 14:14:06.824224 15716 net.cpp:415] inception_4a/pool -> inception_4a/pool
I1219 14:14:06.824230 15716 net.cpp:160] Setting up inception_4a/pool
I1219 14:14:06.824239 15716 net.cpp:167] Top shape: 72 576 14 14 (8128512)
I1219 14:14:06.824242 15716 layer_factory.hpp:74] Creating layer inception_4a/pool_proj
I1219 14:14:06.824250 15716 net.cpp:96] Creating Layer inception_4a/pool_proj
I1219 14:14:06.824254 15716 net.cpp:459] inception_4a/pool_proj <- inception_4a/pool
I1219 14:14:06.824262 15716 net.cpp:415] inception_4a/pool_proj -> inception_4a/pool_proj
I1219 14:14:06.824268 15716 net.cpp:160] Setting up inception_4a/pool_proj
I1219 14:14:06.824820 15716 net.cpp:167] Top shape: 72 128 14 14 (1806336)
I1219 14:14:06.824831 15716 layer_factory.hpp:74] Creating layer inception_4a/pool_proj_bn
I1219 14:14:06.824836 15716 layer_factory.cpp:177] Layer inception_4a/pool_proj_bn is using CAFFE engine.
I1219 14:14:06.824842 15716 net.cpp:96] Creating Layer inception_4a/pool_proj_bn
I1219 14:14:06.824848 15716 net.cpp:459] inception_4a/pool_proj_bn <- inception_4a/pool_proj
I1219 14:14:06.824857 15716 net.cpp:415] inception_4a/pool_proj_bn -> inception_4a/pool_proj_bn
I1219 14:14:06.824864 15716 net.cpp:160] Setting up inception_4a/pool_proj_bn
I1219 14:14:06.824877 15716 net.cpp:167] Top shape: 72 128 14 14 (1806336)
I1219 14:14:06.824882 15716 layer_factory.hpp:74] Creating layer inception_4a/relu_pool_proj
I1219 14:14:06.824885 15716 net.cpp:96] Creating Layer inception_4a/relu_pool_proj
I1219 14:14:06.824888 15716 net.cpp:459] inception_4a/relu_pool_proj <- inception_4a/pool_proj_bn
I1219 14:14:06.824892 15716 net.cpp:404] inception_4a/relu_pool_proj -> inception_4a/pool_proj_bn (in-place)
I1219 14:14:06.824897 15716 net.cpp:160] Setting up inception_4a/relu_pool_proj
I1219 14:14:06.824900 15716 net.cpp:167] Top shape: 72 128 14 14 (1806336)
I1219 14:14:06.824903 15716 layer_factory.hpp:74] Creating layer inception_4a/output
I1219 14:14:06.824909 15716 net.cpp:96] Creating Layer inception_4a/output
I1219 14:14:06.824918 15716 net.cpp:459] inception_4a/output <- inception_4a/1x1_bn
I1219 14:14:06.824923 15716 net.cpp:459] inception_4a/output <- inception_4a/3x3_bn
I1219 14:14:06.824929 15716 net.cpp:459] inception_4a/output <- inception_4a/double_3x3_2_bn
I1219 14:14:06.824935 15716 net.cpp:459] inception_4a/output <- inception_4a/pool_proj_bn
I1219 14:14:06.824942 15716 net.cpp:415] inception_4a/output -> inception_4a/output
I1219 14:14:06.824949 15716 net.cpp:160] Setting up inception_4a/output
I1219 14:14:06.824959 15716 net.cpp:167] Top shape: 72 576 14 14 (8128512)
I1219 14:14:06.824965 15716 layer_factory.hpp:74] Creating layer inception_4a/output_inception_4a/output_0_split
I1219 14:14:06.824970 15716 net.cpp:96] Creating Layer inception_4a/output_inception_4a/output_0_split
I1219 14:14:06.824975 15716 net.cpp:459] inception_4a/output_inception_4a/output_0_split <- inception_4a/output
I1219 14:14:06.824981 15716 net.cpp:415] inception_4a/output_inception_4a/output_0_split -> inception_4a/output_inception_4a/output_0_split_0
I1219 14:14:06.824988 15716 net.cpp:415] inception_4a/output_inception_4a/output_0_split -> inception_4a/output_inception_4a/output_0_split_1
I1219 14:14:06.824995 15716 net.cpp:415] inception_4a/output_inception_4a/output_0_split -> inception_4a/output_inception_4a/output_0_split_2
I1219 14:14:06.825001 15716 net.cpp:415] inception_4a/output_inception_4a/output_0_split -> inception_4a/output_inception_4a/output_0_split_3
I1219 14:14:06.825007 15716 net.cpp:160] Setting up inception_4a/output_inception_4a/output_0_split
I1219 14:14:06.825016 15716 net.cpp:167] Top shape: 72 576 14 14 (8128512)
I1219 14:14:06.825021 15716 net.cpp:167] Top shape: 72 576 14 14 (8128512)
I1219 14:14:06.825026 15716 net.cpp:167] Top shape: 72 576 14 14 (8128512)
I1219 14:14:06.825031 15716 net.cpp:167] Top shape: 72 576 14 14 (8128512)
I1219 14:14:06.825036 15716 layer_factory.hpp:74] Creating layer inception_4b/1x1
I1219 14:14:06.825043 15716 net.cpp:96] Creating Layer inception_4b/1x1
I1219 14:14:06.825048 15716 net.cpp:459] inception_4b/1x1 <- inception_4a/output_inception_4a/output_0_split_0
I1219 14:14:06.825055 15716 net.cpp:415] inception_4b/1x1 -> inception_4b/1x1
I1219 14:14:06.825062 15716 net.cpp:160] Setting up inception_4b/1x1
I1219 14:14:06.825866 15716 net.cpp:167] Top shape: 72 192 14 14 (2709504)
I1219 14:14:06.825878 15716 layer_factory.hpp:74] Creating layer inception_4b/1x1_bn
I1219 14:14:06.825884 15716 layer_factory.cpp:177] Layer inception_4b/1x1_bn is using CAFFE engine.
I1219 14:14:06.825892 15716 net.cpp:96] Creating Layer inception_4b/1x1_bn
I1219 14:14:06.825897 15716 net.cpp:459] inception_4b/1x1_bn <- inception_4b/1x1
I1219 14:14:06.825904 15716 net.cpp:415] inception_4b/1x1_bn -> inception_4b/1x1_bn
I1219 14:14:06.825912 15716 net.cpp:160] Setting up inception_4b/1x1_bn
I1219 14:14:06.825929 15716 net.cpp:167] Top shape: 72 192 14 14 (2709504)
I1219 14:14:06.825938 15716 layer_factory.hpp:74] Creating layer inception_4b/relu_1x1
I1219 14:14:06.825944 15716 net.cpp:96] Creating Layer inception_4b/relu_1x1
I1219 14:14:06.825948 15716 net.cpp:459] inception_4b/relu_1x1 <- inception_4b/1x1_bn
I1219 14:14:06.825954 15716 net.cpp:404] inception_4b/relu_1x1 -> inception_4b/1x1_bn (in-place)
I1219 14:14:06.825959 15716 net.cpp:160] Setting up inception_4b/relu_1x1
I1219 14:14:06.825964 15716 net.cpp:167] Top shape: 72 192 14 14 (2709504)
I1219 14:14:06.825969 15716 layer_factory.hpp:74] Creating layer inception_4b/3x3_reduce
I1219 14:14:06.825976 15716 net.cpp:96] Creating Layer inception_4b/3x3_reduce
I1219 14:14:06.825980 15716 net.cpp:459] inception_4b/3x3_reduce <- inception_4a/output_inception_4a/output_0_split_1
I1219 14:14:06.825987 15716 net.cpp:415] inception_4b/3x3_reduce -> inception_4b/3x3_reduce
I1219 14:14:06.825994 15716 net.cpp:160] Setting up inception_4b/3x3_reduce
I1219 14:14:06.826366 15716 net.cpp:167] Top shape: 72 96 14 14 (1354752)
I1219 14:14:06.826375 15716 layer_factory.hpp:74] Creating layer inception_4b/3x3_reduce_bn
I1219 14:14:06.826383 15716 layer_factory.cpp:177] Layer inception_4b/3x3_reduce_bn is using CAFFE engine.
I1219 14:14:06.826388 15716 net.cpp:96] Creating Layer inception_4b/3x3_reduce_bn
I1219 14:14:06.826392 15716 net.cpp:459] inception_4b/3x3_reduce_bn <- inception_4b/3x3_reduce
I1219 14:14:06.826397 15716 net.cpp:415] inception_4b/3x3_reduce_bn -> inception_4b/3x3_reduce_bn
I1219 14:14:06.826402 15716 net.cpp:160] Setting up inception_4b/3x3_reduce_bn
I1219 14:14:06.826411 15716 net.cpp:167] Top shape: 72 96 14 14 (1354752)
I1219 14:14:06.826417 15716 layer_factory.hpp:74] Creating layer inception_4b/relu_3x3_reduce
I1219 14:14:06.826421 15716 net.cpp:96] Creating Layer inception_4b/relu_3x3_reduce
I1219 14:14:06.826424 15716 net.cpp:459] inception_4b/relu_3x3_reduce <- inception_4b/3x3_reduce_bn
I1219 14:14:06.826428 15716 net.cpp:404] inception_4b/relu_3x3_reduce -> inception_4b/3x3_reduce_bn (in-place)
I1219 14:14:06.826431 15716 net.cpp:160] Setting up inception_4b/relu_3x3_reduce
I1219 14:14:06.826436 15716 net.cpp:167] Top shape: 72 96 14 14 (1354752)
I1219 14:14:06.826437 15716 layer_factory.hpp:74] Creating layer inception_4b/3x3
I1219 14:14:06.826443 15716 net.cpp:96] Creating Layer inception_4b/3x3
I1219 14:14:06.826445 15716 net.cpp:459] inception_4b/3x3 <- inception_4b/3x3_reduce_bn
I1219 14:14:06.826449 15716 net.cpp:415] inception_4b/3x3 -> inception_4b/3x3
I1219 14:14:06.826453 15716 net.cpp:160] Setting up inception_4b/3x3
I1219 14:14:06.827126 15716 net.cpp:167] Top shape: 72 128 14 14 (1806336)
I1219 14:14:06.827131 15716 layer_factory.hpp:74] Creating layer inception_4b/3x3_bn
I1219 14:14:06.827134 15716 layer_factory.cpp:177] Layer inception_4b/3x3_bn is using CAFFE engine.
I1219 14:14:06.827138 15716 net.cpp:96] Creating Layer inception_4b/3x3_bn
I1219 14:14:06.827142 15716 net.cpp:459] inception_4b/3x3_bn <- inception_4b/3x3
I1219 14:14:06.827147 15716 net.cpp:415] inception_4b/3x3_bn -> inception_4b/3x3_bn
I1219 14:14:06.827150 15716 net.cpp:160] Setting up inception_4b/3x3_bn
I1219 14:14:06.827159 15716 net.cpp:167] Top shape: 72 128 14 14 (1806336)
I1219 14:14:06.827164 15716 layer_factory.hpp:74] Creating layer inception_4b/relu_3x3
I1219 14:14:06.827168 15716 net.cpp:96] Creating Layer inception_4b/relu_3x3
I1219 14:14:06.827172 15716 net.cpp:459] inception_4b/relu_3x3 <- inception_4b/3x3_bn
I1219 14:14:06.827174 15716 net.cpp:404] inception_4b/relu_3x3 -> inception_4b/3x3_bn (in-place)
I1219 14:14:06.827178 15716 net.cpp:160] Setting up inception_4b/relu_3x3
I1219 14:14:06.827181 15716 net.cpp:167] Top shape: 72 128 14 14 (1806336)
I1219 14:14:06.827184 15716 layer_factory.hpp:74] Creating layer inception_4b/double_3x3_reduce
I1219 14:14:06.827189 15716 net.cpp:96] Creating Layer inception_4b/double_3x3_reduce
I1219 14:14:06.827193 15716 net.cpp:459] inception_4b/double_3x3_reduce <- inception_4a/output_inception_4a/output_0_split_2
I1219 14:14:06.827196 15716 net.cpp:415] inception_4b/double_3x3_reduce -> inception_4b/double_3x3_reduce
I1219 14:14:06.827201 15716 net.cpp:160] Setting up inception_4b/double_3x3_reduce
I1219 14:14:06.827538 15716 net.cpp:167] Top shape: 72 96 14 14 (1354752)
I1219 14:14:06.827544 15716 layer_factory.hpp:74] Creating layer inception_4b/double_3x3_reduce_bn
I1219 14:14:06.827548 15716 layer_factory.cpp:177] Layer inception_4b/double_3x3_reduce_bn is using CAFFE engine.
I1219 14:14:06.827551 15716 net.cpp:96] Creating Layer inception_4b/double_3x3_reduce_bn
I1219 14:14:06.827554 15716 net.cpp:459] inception_4b/double_3x3_reduce_bn <- inception_4b/double_3x3_reduce
I1219 14:14:06.827559 15716 net.cpp:415] inception_4b/double_3x3_reduce_bn -> inception_4b/double_3x3_reduce_bn
I1219 14:14:06.827564 15716 net.cpp:160] Setting up inception_4b/double_3x3_reduce_bn
I1219 14:14:06.827572 15716 net.cpp:167] Top shape: 72 96 14 14 (1354752)
I1219 14:14:06.827577 15716 layer_factory.hpp:74] Creating layer inception_4b/relu_double_3x3_reduce
I1219 14:14:06.827581 15716 net.cpp:96] Creating Layer inception_4b/relu_double_3x3_reduce
I1219 14:14:06.827586 15716 net.cpp:459] inception_4b/relu_double_3x3_reduce <- inception_4b/double_3x3_reduce_bn
I1219 14:14:06.827592 15716 net.cpp:404] inception_4b/relu_double_3x3_reduce -> inception_4b/double_3x3_reduce_bn (in-place)
I1219 14:14:06.827596 15716 net.cpp:160] Setting up inception_4b/relu_double_3x3_reduce
I1219 14:14:06.827600 15716 net.cpp:167] Top shape: 72 96 14 14 (1354752)
I1219 14:14:06.827602 15716 layer_factory.hpp:74] Creating layer inception_4b/double_3x3_1
I1219 14:14:06.827607 15716 net.cpp:96] Creating Layer inception_4b/double_3x3_1
I1219 14:14:06.827610 15716 net.cpp:459] inception_4b/double_3x3_1 <- inception_4b/double_3x3_reduce_bn
I1219 14:14:06.827615 15716 net.cpp:415] inception_4b/double_3x3_1 -> inception_4b/double_3x3_1
I1219 14:14:06.827618 15716 net.cpp:160] Setting up inception_4b/double_3x3_1
I1219 14:14:06.828286 15716 net.cpp:167] Top shape: 72 128 14 14 (1806336)
I1219 14:14:06.828292 15716 layer_factory.hpp:74] Creating layer inception_4b/double_3x3_1_bn
I1219 14:14:06.828295 15716 layer_factory.cpp:177] Layer inception_4b/double_3x3_1_bn is using CAFFE engine.
I1219 14:14:06.828299 15716 net.cpp:96] Creating Layer inception_4b/double_3x3_1_bn
I1219 14:14:06.828302 15716 net.cpp:459] inception_4b/double_3x3_1_bn <- inception_4b/double_3x3_1
I1219 14:14:06.828306 15716 net.cpp:415] inception_4b/double_3x3_1_bn -> inception_4b/double_3x3_1_bn
I1219 14:14:06.828310 15716 net.cpp:160] Setting up inception_4b/double_3x3_1_bn
I1219 14:14:06.828320 15716 net.cpp:167] Top shape: 72 128 14 14 (1806336)
I1219 14:14:06.828325 15716 layer_factory.hpp:74] Creating layer inception_4b/relu_double_3x3_1
I1219 14:14:06.828328 15716 net.cpp:96] Creating Layer inception_4b/relu_double_3x3_1
I1219 14:14:06.828330 15716 net.cpp:459] inception_4b/relu_double_3x3_1 <- inception_4b/double_3x3_1_bn
I1219 14:14:06.828335 15716 net.cpp:404] inception_4b/relu_double_3x3_1 -> inception_4b/double_3x3_1_bn (in-place)
I1219 14:14:06.828342 15716 net.cpp:160] Setting up inception_4b/relu_double_3x3_1
I1219 14:14:06.828347 15716 net.cpp:167] Top shape: 72 128 14 14 (1806336)
I1219 14:14:06.828349 15716 layer_factory.hpp:74] Creating layer inception_4b/double_3x3_2
I1219 14:14:06.828354 15716 net.cpp:96] Creating Layer inception_4b/double_3x3_2
I1219 14:14:06.828356 15716 net.cpp:459] inception_4b/double_3x3_2 <- inception_4b/double_3x3_1_bn
I1219 14:14:06.828361 15716 net.cpp:415] inception_4b/double_3x3_2 -> inception_4b/double_3x3_2
I1219 14:14:06.828366 15716 net.cpp:160] Setting up inception_4b/double_3x3_2
I1219 14:14:06.829257 15716 net.cpp:167] Top shape: 72 128 14 14 (1806336)
I1219 14:14:06.829262 15716 layer_factory.hpp:74] Creating layer inception_4b/double_3x3_2_bn
I1219 14:14:06.829265 15716 layer_factory.cpp:177] Layer inception_4b/double_3x3_2_bn is using CAFFE engine.
I1219 14:14:06.829270 15716 net.cpp:96] Creating Layer inception_4b/double_3x3_2_bn
I1219 14:14:06.829273 15716 net.cpp:459] inception_4b/double_3x3_2_bn <- inception_4b/double_3x3_2
I1219 14:14:06.829277 15716 net.cpp:415] inception_4b/double_3x3_2_bn -> inception_4b/double_3x3_2_bn
I1219 14:14:06.829282 15716 net.cpp:160] Setting up inception_4b/double_3x3_2_bn
I1219 14:14:06.829290 15716 net.cpp:167] Top shape: 72 128 14 14 (1806336)
I1219 14:14:06.829295 15716 layer_factory.hpp:74] Creating layer inception_4b/relu_double_3x3_2
I1219 14:14:06.829299 15716 net.cpp:96] Creating Layer inception_4b/relu_double_3x3_2
I1219 14:14:06.829303 15716 net.cpp:459] inception_4b/relu_double_3x3_2 <- inception_4b/double_3x3_2_bn
I1219 14:14:06.829305 15716 net.cpp:404] inception_4b/relu_double_3x3_2 -> inception_4b/double_3x3_2_bn (in-place)
I1219 14:14:06.829308 15716 net.cpp:160] Setting up inception_4b/relu_double_3x3_2
I1219 14:14:06.829313 15716 net.cpp:167] Top shape: 72 128 14 14 (1806336)
I1219 14:14:06.829314 15716 layer_factory.hpp:74] Creating layer inception_4b/pool
I1219 14:14:06.829319 15716 net.cpp:96] Creating Layer inception_4b/pool
I1219 14:14:06.829321 15716 net.cpp:459] inception_4b/pool <- inception_4a/output_inception_4a/output_0_split_3
I1219 14:14:06.829329 15716 net.cpp:415] inception_4b/pool -> inception_4b/pool
I1219 14:14:06.829336 15716 net.cpp:160] Setting up inception_4b/pool
I1219 14:14:06.829340 15716 net.cpp:167] Top shape: 72 576 14 14 (8128512)
I1219 14:14:06.829344 15716 layer_factory.hpp:74] Creating layer inception_4b/pool_proj
I1219 14:14:06.829347 15716 net.cpp:96] Creating Layer inception_4b/pool_proj
I1219 14:14:06.829350 15716 net.cpp:459] inception_4b/pool_proj <- inception_4b/pool
I1219 14:14:06.829355 15716 net.cpp:415] inception_4b/pool_proj -> inception_4b/pool_proj
I1219 14:14:06.829360 15716 net.cpp:160] Setting up inception_4b/pool_proj
I1219 14:14:06.829809 15716 net.cpp:167] Top shape: 72 128 14 14 (1806336)
I1219 14:14:06.829815 15716 layer_factory.hpp:74] Creating layer inception_4b/pool_proj_bn
I1219 14:14:06.829818 15716 layer_factory.cpp:177] Layer inception_4b/pool_proj_bn is using CAFFE engine.
I1219 14:14:06.829823 15716 net.cpp:96] Creating Layer inception_4b/pool_proj_bn
I1219 14:14:06.829825 15716 net.cpp:459] inception_4b/pool_proj_bn <- inception_4b/pool_proj
I1219 14:14:06.829829 15716 net.cpp:415] inception_4b/pool_proj_bn -> inception_4b/pool_proj_bn
I1219 14:14:06.829834 15716 net.cpp:160] Setting up inception_4b/pool_proj_bn
I1219 14:14:06.829843 15716 net.cpp:167] Top shape: 72 128 14 14 (1806336)
I1219 14:14:06.829848 15716 layer_factory.hpp:74] Creating layer inception_4b/relu_pool_proj
I1219 14:14:06.829852 15716 net.cpp:96] Creating Layer inception_4b/relu_pool_proj
I1219 14:14:06.829855 15716 net.cpp:459] inception_4b/relu_pool_proj <- inception_4b/pool_proj_bn
I1219 14:14:06.829859 15716 net.cpp:404] inception_4b/relu_pool_proj -> inception_4b/pool_proj_bn (in-place)
I1219 14:14:06.829861 15716 net.cpp:160] Setting up inception_4b/relu_pool_proj
I1219 14:14:06.829865 15716 net.cpp:167] Top shape: 72 128 14 14 (1806336)
I1219 14:14:06.829867 15716 layer_factory.hpp:74] Creating layer inception_4b/output
I1219 14:14:06.829871 15716 net.cpp:96] Creating Layer inception_4b/output
I1219 14:14:06.829874 15716 net.cpp:459] inception_4b/output <- inception_4b/1x1_bn
I1219 14:14:06.829877 15716 net.cpp:459] inception_4b/output <- inception_4b/3x3_bn
I1219 14:14:06.829880 15716 net.cpp:459] inception_4b/output <- inception_4b/double_3x3_2_bn
I1219 14:14:06.829883 15716 net.cpp:459] inception_4b/output <- inception_4b/pool_proj_bn
I1219 14:14:06.829888 15716 net.cpp:415] inception_4b/output -> inception_4b/output
I1219 14:14:06.829892 15716 net.cpp:160] Setting up inception_4b/output
I1219 14:14:06.829896 15716 net.cpp:167] Top shape: 72 576 14 14 (8128512)
I1219 14:14:06.829900 15716 layer_factory.hpp:74] Creating layer inception_4b/output_inception_4b/output_0_split
I1219 14:14:06.829903 15716 net.cpp:96] Creating Layer inception_4b/output_inception_4b/output_0_split
I1219 14:14:06.829905 15716 net.cpp:459] inception_4b/output_inception_4b/output_0_split <- inception_4b/output
I1219 14:14:06.829910 15716 net.cpp:415] inception_4b/output_inception_4b/output_0_split -> inception_4b/output_inception_4b/output_0_split_0
I1219 14:14:06.829913 15716 net.cpp:415] inception_4b/output_inception_4b/output_0_split -> inception_4b/output_inception_4b/output_0_split_1
I1219 14:14:06.829918 15716 net.cpp:415] inception_4b/output_inception_4b/output_0_split -> inception_4b/output_inception_4b/output_0_split_2
I1219 14:14:06.829922 15716 net.cpp:415] inception_4b/output_inception_4b/output_0_split -> inception_4b/output_inception_4b/output_0_split_3
I1219 14:14:06.829926 15716 net.cpp:160] Setting up inception_4b/output_inception_4b/output_0_split
I1219 14:14:06.829931 15716 net.cpp:167] Top shape: 72 576 14 14 (8128512)
I1219 14:14:06.829933 15716 net.cpp:167] Top shape: 72 576 14 14 (8128512)
I1219 14:14:06.829936 15716 net.cpp:167] Top shape: 72 576 14 14 (8128512)
I1219 14:14:06.829939 15716 net.cpp:167] Top shape: 72 576 14 14 (8128512)
I1219 14:14:06.829941 15716 layer_factory.hpp:74] Creating layer inception_4c/1x1
I1219 14:14:06.829954 15716 net.cpp:96] Creating Layer inception_4c/1x1
I1219 14:14:06.829960 15716 net.cpp:459] inception_4c/1x1 <- inception_4b/output_inception_4b/output_0_split_0
I1219 14:14:06.829967 15716 net.cpp:415] inception_4c/1x1 -> inception_4c/1x1
I1219 14:14:06.829972 15716 net.cpp:160] Setting up inception_4c/1x1
I1219 14:14:06.830529 15716 net.cpp:167] Top shape: 72 160 14 14 (2257920)
I1219 14:14:06.830536 15716 layer_factory.hpp:74] Creating layer inception_4c/1x1_bn
I1219 14:14:06.830539 15716 layer_factory.cpp:177] Layer inception_4c/1x1_bn is using CAFFE engine.
I1219 14:14:06.830543 15716 net.cpp:96] Creating Layer inception_4c/1x1_bn
I1219 14:14:06.830546 15716 net.cpp:459] inception_4c/1x1_bn <- inception_4c/1x1
I1219 14:14:06.830550 15716 net.cpp:415] inception_4c/1x1_bn -> inception_4c/1x1_bn
I1219 14:14:06.830555 15716 net.cpp:160] Setting up inception_4c/1x1_bn
I1219 14:14:06.830564 15716 net.cpp:167] Top shape: 72 160 14 14 (2257920)
I1219 14:14:06.830569 15716 layer_factory.hpp:74] Creating layer inception_4c/relu_1x1
I1219 14:14:06.830574 15716 net.cpp:96] Creating Layer inception_4c/relu_1x1
I1219 14:14:06.830576 15716 net.cpp:459] inception_4c/relu_1x1 <- inception_4c/1x1_bn
I1219 14:14:06.830579 15716 net.cpp:404] inception_4c/relu_1x1 -> inception_4c/1x1_bn (in-place)
I1219 14:14:06.830584 15716 net.cpp:160] Setting up inception_4c/relu_1x1
I1219 14:14:06.830586 15716 net.cpp:167] Top shape: 72 160 14 14 (2257920)
I1219 14:14:06.830588 15716 layer_factory.hpp:74] Creating layer inception_4c/3x3_reduce
I1219 14:14:06.830593 15716 net.cpp:96] Creating Layer inception_4c/3x3_reduce
I1219 14:14:06.830595 15716 net.cpp:459] inception_4c/3x3_reduce <- inception_4b/output_inception_4b/output_0_split_1
I1219 14:14:06.830600 15716 net.cpp:415] inception_4c/3x3_reduce -> inception_4c/3x3_reduce
I1219 14:14:06.830605 15716 net.cpp:160] Setting up inception_4c/3x3_reduce
I1219 14:14:06.831053 15716 net.cpp:167] Top shape: 72 128 14 14 (1806336)
I1219 14:14:06.831058 15716 layer_factory.hpp:74] Creating layer inception_4c/3x3_reduce_bn
I1219 14:14:06.831060 15716 layer_factory.cpp:177] Layer inception_4c/3x3_reduce_bn is using CAFFE engine.
I1219 14:14:06.831065 15716 net.cpp:96] Creating Layer inception_4c/3x3_reduce_bn
I1219 14:14:06.831068 15716 net.cpp:459] inception_4c/3x3_reduce_bn <- inception_4c/3x3_reduce
I1219 14:14:06.831073 15716 net.cpp:415] inception_4c/3x3_reduce_bn -> inception_4c/3x3_reduce_bn
I1219 14:14:06.831076 15716 net.cpp:160] Setting up inception_4c/3x3_reduce_bn
I1219 14:14:06.831085 15716 net.cpp:167] Top shape: 72 128 14 14 (1806336)
I1219 14:14:06.831090 15716 layer_factory.hpp:74] Creating layer inception_4c/relu_3x3_reduce
I1219 14:14:06.831094 15716 net.cpp:96] Creating Layer inception_4c/relu_3x3_reduce
I1219 14:14:06.831097 15716 net.cpp:459] inception_4c/relu_3x3_reduce <- inception_4c/3x3_reduce_bn
I1219 14:14:06.831100 15716 net.cpp:404] inception_4c/relu_3x3_reduce -> inception_4c/3x3_reduce_bn (in-place)
I1219 14:14:06.831104 15716 net.cpp:160] Setting up inception_4c/relu_3x3_reduce
I1219 14:14:06.831107 15716 net.cpp:167] Top shape: 72 128 14 14 (1806336)
I1219 14:14:06.831110 15716 layer_factory.hpp:74] Creating layer inception_4c/3x3
I1219 14:14:06.831115 15716 net.cpp:96] Creating Layer inception_4c/3x3
I1219 14:14:06.831117 15716 net.cpp:459] inception_4c/3x3 <- inception_4c/3x3_reduce_bn
I1219 14:14:06.831121 15716 net.cpp:415] inception_4c/3x3 -> inception_4c/3x3
I1219 14:14:06.831125 15716 net.cpp:160] Setting up inception_4c/3x3
I1219 14:14:06.832236 15716 net.cpp:167] Top shape: 72 160 14 14 (2257920)
I1219 14:14:06.832240 15716 layer_factory.hpp:74] Creating layer inception_4c/3x3_bn
I1219 14:14:06.832243 15716 layer_factory.cpp:177] Layer inception_4c/3x3_bn is using CAFFE engine.
I1219 14:14:06.832248 15716 net.cpp:96] Creating Layer inception_4c/3x3_bn
I1219 14:14:06.832252 15716 net.cpp:459] inception_4c/3x3_bn <- inception_4c/3x3
I1219 14:14:06.832255 15716 net.cpp:415] inception_4c/3x3_bn -> inception_4c/3x3_bn
I1219 14:14:06.832259 15716 net.cpp:160] Setting up inception_4c/3x3_bn
I1219 14:14:06.832268 15716 net.cpp:167] Top shape: 72 160 14 14 (2257920)
I1219 14:14:06.832278 15716 layer_factory.hpp:74] Creating layer inception_4c/relu_3x3
I1219 14:14:06.832283 15716 net.cpp:96] Creating Layer inception_4c/relu_3x3
I1219 14:14:06.832285 15716 net.cpp:459] inception_4c/relu_3x3 <- inception_4c/3x3_bn
I1219 14:14:06.832288 15716 net.cpp:404] inception_4c/relu_3x3 -> inception_4c/3x3_bn (in-place)
I1219 14:14:06.832293 15716 net.cpp:160] Setting up inception_4c/relu_3x3
I1219 14:14:06.832295 15716 net.cpp:167] Top shape: 72 160 14 14 (2257920)
I1219 14:14:06.832298 15716 layer_factory.hpp:74] Creating layer inception_4c/double_3x3_reduce
I1219 14:14:06.832304 15716 net.cpp:96] Creating Layer inception_4c/double_3x3_reduce
I1219 14:14:06.832306 15716 net.cpp:459] inception_4c/double_3x3_reduce <- inception_4b/output_inception_4b/output_0_split_2
I1219 14:14:06.832310 15716 net.cpp:415] inception_4c/double_3x3_reduce -> inception_4c/double_3x3_reduce
I1219 14:14:06.832314 15716 net.cpp:160] Setting up inception_4c/double_3x3_reduce
I1219 14:14:06.832772 15716 net.cpp:167] Top shape: 72 128 14 14 (1806336)
I1219 14:14:06.832778 15716 layer_factory.hpp:74] Creating layer inception_4c/double_3x3_reduce_bn
I1219 14:14:06.832782 15716 layer_factory.cpp:177] Layer inception_4c/double_3x3_reduce_bn is using CAFFE engine.
I1219 14:14:06.832787 15716 net.cpp:96] Creating Layer inception_4c/double_3x3_reduce_bn
I1219 14:14:06.832789 15716 net.cpp:459] inception_4c/double_3x3_reduce_bn <- inception_4c/double_3x3_reduce
I1219 14:14:06.832794 15716 net.cpp:415] inception_4c/double_3x3_reduce_bn -> inception_4c/double_3x3_reduce_bn
I1219 14:14:06.832798 15716 net.cpp:160] Setting up inception_4c/double_3x3_reduce_bn
I1219 14:14:06.832808 15716 net.cpp:167] Top shape: 72 128 14 14 (1806336)
I1219 14:14:06.832813 15716 layer_factory.hpp:74] Creating layer inception_4c/relu_double_3x3_reduce
I1219 14:14:06.832816 15716 net.cpp:96] Creating Layer inception_4c/relu_double_3x3_reduce
I1219 14:14:06.832818 15716 net.cpp:459] inception_4c/relu_double_3x3_reduce <- inception_4c/double_3x3_reduce_bn
I1219 14:14:06.832823 15716 net.cpp:404] inception_4c/relu_double_3x3_reduce -> inception_4c/double_3x3_reduce_bn (in-place)
I1219 14:14:06.832826 15716 net.cpp:160] Setting up inception_4c/relu_double_3x3_reduce
I1219 14:14:06.832829 15716 net.cpp:167] Top shape: 72 128 14 14 (1806336)
I1219 14:14:06.832833 15716 layer_factory.hpp:74] Creating layer inception_4c/double_3x3_1
I1219 14:14:06.832836 15716 net.cpp:96] Creating Layer inception_4c/double_3x3_1
I1219 14:14:06.832839 15716 net.cpp:459] inception_4c/double_3x3_1 <- inception_4c/double_3x3_reduce_bn
I1219 14:14:06.832842 15716 net.cpp:415] inception_4c/double_3x3_1 -> inception_4c/double_3x3_1
I1219 14:14:06.832846 15716 net.cpp:160] Setting up inception_4c/double_3x3_1
I1219 14:14:06.833956 15716 net.cpp:167] Top shape: 72 160 14 14 (2257920)
I1219 14:14:06.833961 15716 layer_factory.hpp:74] Creating layer inception_4c/double_3x3_1_bn
I1219 14:14:06.833964 15716 layer_factory.cpp:177] Layer inception_4c/double_3x3_1_bn is using CAFFE engine.
I1219 14:14:06.833968 15716 net.cpp:96] Creating Layer inception_4c/double_3x3_1_bn
I1219 14:14:06.833971 15716 net.cpp:459] inception_4c/double_3x3_1_bn <- inception_4c/double_3x3_1
I1219 14:14:06.833976 15716 net.cpp:415] inception_4c/double_3x3_1_bn -> inception_4c/double_3x3_1_bn
I1219 14:14:06.833979 15716 net.cpp:160] Setting up inception_4c/double_3x3_1_bn
I1219 14:14:06.833989 15716 net.cpp:167] Top shape: 72 160 14 14 (2257920)
I1219 14:14:06.833994 15716 layer_factory.hpp:74] Creating layer inception_4c/relu_double_3x3_1
I1219 14:14:06.833998 15716 net.cpp:96] Creating Layer inception_4c/relu_double_3x3_1
I1219 14:14:06.834002 15716 net.cpp:459] inception_4c/relu_double_3x3_1 <- inception_4c/double_3x3_1_bn
I1219 14:14:06.834005 15716 net.cpp:404] inception_4c/relu_double_3x3_1 -> inception_4c/double_3x3_1_bn (in-place)
I1219 14:14:06.834008 15716 net.cpp:160] Setting up inception_4c/relu_double_3x3_1
I1219 14:14:06.834012 15716 net.cpp:167] Top shape: 72 160 14 14 (2257920)
I1219 14:14:06.834017 15716 layer_factory.hpp:74] Creating layer inception_4c/double_3x3_2
I1219 14:14:06.834024 15716 net.cpp:96] Creating Layer inception_4c/double_3x3_2
I1219 14:14:06.834028 15716 net.cpp:459] inception_4c/double_3x3_2 <- inception_4c/double_3x3_1_bn
I1219 14:14:06.834031 15716 net.cpp:415] inception_4c/double_3x3_2 -> inception_4c/double_3x3_2
I1219 14:14:06.834035 15716 net.cpp:160] Setting up inception_4c/double_3x3_2
I1219 14:14:06.835419 15716 net.cpp:167] Top shape: 72 160 14 14 (2257920)
I1219 14:14:06.835425 15716 layer_factory.hpp:74] Creating layer inception_4c/double_3x3_2_bn
I1219 14:14:06.835428 15716 layer_factory.cpp:177] Layer inception_4c/double_3x3_2_bn is using CAFFE engine.
I1219 14:14:06.835433 15716 net.cpp:96] Creating Layer inception_4c/double_3x3_2_bn
I1219 14:14:06.835435 15716 net.cpp:459] inception_4c/double_3x3_2_bn <- inception_4c/double_3x3_2
I1219 14:14:06.835439 15716 net.cpp:415] inception_4c/double_3x3_2_bn -> inception_4c/double_3x3_2_bn
I1219 14:14:06.835443 15716 net.cpp:160] Setting up inception_4c/double_3x3_2_bn
I1219 14:14:06.835453 15716 net.cpp:167] Top shape: 72 160 14 14 (2257920)
I1219 14:14:06.835458 15716 layer_factory.hpp:74] Creating layer inception_4c/relu_double_3x3_2
I1219 14:14:06.835460 15716 net.cpp:96] Creating Layer inception_4c/relu_double_3x3_2
I1219 14:14:06.835464 15716 net.cpp:459] inception_4c/relu_double_3x3_2 <- inception_4c/double_3x3_2_bn
I1219 14:14:06.835466 15716 net.cpp:404] inception_4c/relu_double_3x3_2 -> inception_4c/double_3x3_2_bn (in-place)
I1219 14:14:06.835469 15716 net.cpp:160] Setting up inception_4c/relu_double_3x3_2
I1219 14:14:06.835474 15716 net.cpp:167] Top shape: 72 160 14 14 (2257920)
I1219 14:14:06.835475 15716 layer_factory.hpp:74] Creating layer inception_4c/pool
I1219 14:14:06.835479 15716 net.cpp:96] Creating Layer inception_4c/pool
I1219 14:14:06.835482 15716 net.cpp:459] inception_4c/pool <- inception_4b/output_inception_4b/output_0_split_3
I1219 14:14:06.835486 15716 net.cpp:415] inception_4c/pool -> inception_4c/pool
I1219 14:14:06.835490 15716 net.cpp:160] Setting up inception_4c/pool
I1219 14:14:06.835494 15716 net.cpp:167] Top shape: 72 576 14 14 (8128512)
I1219 14:14:06.835497 15716 layer_factory.hpp:74] Creating layer inception_4c/pool_proj
I1219 14:14:06.835502 15716 net.cpp:96] Creating Layer inception_4c/pool_proj
I1219 14:14:06.835505 15716 net.cpp:459] inception_4c/pool_proj <- inception_4c/pool
I1219 14:14:06.835510 15716 net.cpp:415] inception_4c/pool_proj -> inception_4c/pool_proj
I1219 14:14:06.835513 15716 net.cpp:160] Setting up inception_4c/pool_proj
I1219 14:14:06.835965 15716 net.cpp:167] Top shape: 72 128 14 14 (1806336)
I1219 14:14:06.835971 15716 layer_factory.hpp:74] Creating layer inception_4c/pool_proj_bn
I1219 14:14:06.835974 15716 layer_factory.cpp:177] Layer inception_4c/pool_proj_bn is using CAFFE engine.
I1219 14:14:06.835978 15716 net.cpp:96] Creating Layer inception_4c/pool_proj_bn
I1219 14:14:06.835983 15716 net.cpp:459] inception_4c/pool_proj_bn <- inception_4c/pool_proj
I1219 14:14:06.835985 15716 net.cpp:415] inception_4c/pool_proj_bn -> inception_4c/pool_proj_bn
I1219 14:14:06.835990 15716 net.cpp:160] Setting up inception_4c/pool_proj_bn
I1219 14:14:06.835999 15716 net.cpp:167] Top shape: 72 128 14 14 (1806336)
I1219 14:14:06.836021 15716 layer_factory.hpp:74] Creating layer inception_4c/relu_pool_proj
I1219 14:14:06.836025 15716 net.cpp:96] Creating Layer inception_4c/relu_pool_proj
I1219 14:14:06.836028 15716 net.cpp:459] inception_4c/relu_pool_proj <- inception_4c/pool_proj_bn
I1219 14:14:06.836032 15716 net.cpp:404] inception_4c/relu_pool_proj -> inception_4c/pool_proj_bn (in-place)
I1219 14:14:06.836036 15716 net.cpp:160] Setting up inception_4c/relu_pool_proj
I1219 14:14:06.836040 15716 net.cpp:167] Top shape: 72 128 14 14 (1806336)
I1219 14:14:06.836042 15716 layer_factory.hpp:74] Creating layer inception_4c/output
I1219 14:14:06.836047 15716 net.cpp:96] Creating Layer inception_4c/output
I1219 14:14:06.836050 15716 net.cpp:459] inception_4c/output <- inception_4c/1x1_bn
I1219 14:14:06.836055 15716 net.cpp:459] inception_4c/output <- inception_4c/3x3_bn
I1219 14:14:06.836063 15716 net.cpp:459] inception_4c/output <- inception_4c/double_3x3_2_bn
I1219 14:14:06.836067 15716 net.cpp:459] inception_4c/output <- inception_4c/pool_proj_bn
I1219 14:14:06.836071 15716 net.cpp:415] inception_4c/output -> inception_4c/output
I1219 14:14:06.836074 15716 net.cpp:160] Setting up inception_4c/output
I1219 14:14:06.836079 15716 net.cpp:167] Top shape: 72 608 14 14 (8580096)
I1219 14:14:06.836082 15716 layer_factory.hpp:74] Creating layer inception_4c/output_inception_4c/output_0_split
I1219 14:14:06.836086 15716 net.cpp:96] Creating Layer inception_4c/output_inception_4c/output_0_split
I1219 14:14:06.836088 15716 net.cpp:459] inception_4c/output_inception_4c/output_0_split <- inception_4c/output
I1219 14:14:06.836092 15716 net.cpp:415] inception_4c/output_inception_4c/output_0_split -> inception_4c/output_inception_4c/output_0_split_0
I1219 14:14:06.836097 15716 net.cpp:415] inception_4c/output_inception_4c/output_0_split -> inception_4c/output_inception_4c/output_0_split_1
I1219 14:14:06.836100 15716 net.cpp:415] inception_4c/output_inception_4c/output_0_split -> inception_4c/output_inception_4c/output_0_split_2
I1219 14:14:06.836112 15716 net.cpp:415] inception_4c/output_inception_4c/output_0_split -> inception_4c/output_inception_4c/output_0_split_3
I1219 14:14:06.836117 15716 net.cpp:160] Setting up inception_4c/output_inception_4c/output_0_split
I1219 14:14:06.836120 15716 net.cpp:167] Top shape: 72 608 14 14 (8580096)
I1219 14:14:06.836123 15716 net.cpp:167] Top shape: 72 608 14 14 (8580096)
I1219 14:14:06.836127 15716 net.cpp:167] Top shape: 72 608 14 14 (8580096)
I1219 14:14:06.836130 15716 net.cpp:167] Top shape: 72 608 14 14 (8580096)
I1219 14:14:06.836133 15716 layer_factory.hpp:74] Creating layer inception_4d/1x1
I1219 14:14:06.836138 15716 net.cpp:96] Creating Layer inception_4d/1x1
I1219 14:14:06.836140 15716 net.cpp:459] inception_4d/1x1 <- inception_4c/output_inception_4c/output_0_split_0
I1219 14:14:06.836144 15716 net.cpp:415] inception_4d/1x1 -> inception_4d/1x1
I1219 14:14:06.836148 15716 net.cpp:160] Setting up inception_4d/1x1
I1219 14:14:06.836513 15716 net.cpp:167] Top shape: 72 96 14 14 (1354752)
I1219 14:14:06.836521 15716 layer_factory.hpp:74] Creating layer inception_4d/1x1_bn
I1219 14:14:06.836524 15716 layer_factory.cpp:177] Layer inception_4d/1x1_bn is using CAFFE engine.
I1219 14:14:06.836530 15716 net.cpp:96] Creating Layer inception_4d/1x1_bn
I1219 14:14:06.836534 15716 net.cpp:459] inception_4d/1x1_bn <- inception_4d/1x1
I1219 14:14:06.836537 15716 net.cpp:415] inception_4d/1x1_bn -> inception_4d/1x1_bn
I1219 14:14:06.836541 15716 net.cpp:160] Setting up inception_4d/1x1_bn
I1219 14:14:06.836550 15716 net.cpp:167] Top shape: 72 96 14 14 (1354752)
I1219 14:14:06.836555 15716 layer_factory.hpp:74] Creating layer inception_4d/relu_1x1
I1219 14:14:06.836560 15716 net.cpp:96] Creating Layer inception_4d/relu_1x1
I1219 14:14:06.836562 15716 net.cpp:459] inception_4d/relu_1x1 <- inception_4d/1x1_bn
I1219 14:14:06.836566 15716 net.cpp:404] inception_4d/relu_1x1 -> inception_4d/1x1_bn (in-place)
I1219 14:14:06.836570 15716 net.cpp:160] Setting up inception_4d/relu_1x1
I1219 14:14:06.836573 15716 net.cpp:167] Top shape: 72 96 14 14 (1354752)
I1219 14:14:06.836576 15716 layer_factory.hpp:74] Creating layer inception_4d/3x3_reduce
I1219 14:14:06.836580 15716 net.cpp:96] Creating Layer inception_4d/3x3_reduce
I1219 14:14:06.836583 15716 net.cpp:459] inception_4d/3x3_reduce <- inception_4c/output_inception_4c/output_0_split_1
I1219 14:14:06.836587 15716 net.cpp:415] inception_4d/3x3_reduce -> inception_4d/3x3_reduce
I1219 14:14:06.836591 15716 net.cpp:160] Setting up inception_4d/3x3_reduce
I1219 14:14:06.837064 15716 net.cpp:167] Top shape: 72 128 14 14 (1806336)
I1219 14:14:06.837070 15716 layer_factory.hpp:74] Creating layer inception_4d/3x3_reduce_bn
I1219 14:14:06.837074 15716 layer_factory.cpp:177] Layer inception_4d/3x3_reduce_bn is using CAFFE engine.
I1219 14:14:06.837080 15716 net.cpp:96] Creating Layer inception_4d/3x3_reduce_bn
I1219 14:14:06.837085 15716 net.cpp:459] inception_4d/3x3_reduce_bn <- inception_4d/3x3_reduce
I1219 14:14:06.837090 15716 net.cpp:415] inception_4d/3x3_reduce_bn -> inception_4d/3x3_reduce_bn
I1219 14:14:06.837095 15716 net.cpp:160] Setting up inception_4d/3x3_reduce_bn
I1219 14:14:06.837105 15716 net.cpp:167] Top shape: 72 128 14 14 (1806336)
I1219 14:14:06.837110 15716 layer_factory.hpp:74] Creating layer inception_4d/relu_3x3_reduce
I1219 14:14:06.837112 15716 net.cpp:96] Creating Layer inception_4d/relu_3x3_reduce
I1219 14:14:06.837116 15716 net.cpp:459] inception_4d/relu_3x3_reduce <- inception_4d/3x3_reduce_bn
I1219 14:14:06.837119 15716 net.cpp:404] inception_4d/relu_3x3_reduce -> inception_4d/3x3_reduce_bn (in-place)
I1219 14:14:06.837123 15716 net.cpp:160] Setting up inception_4d/relu_3x3_reduce
I1219 14:14:06.837126 15716 net.cpp:167] Top shape: 72 128 14 14 (1806336)
I1219 14:14:06.837129 15716 layer_factory.hpp:74] Creating layer inception_4d/3x3
I1219 14:14:06.837133 15716 net.cpp:96] Creating Layer inception_4d/3x3
I1219 14:14:06.837136 15716 net.cpp:459] inception_4d/3x3 <- inception_4d/3x3_reduce_bn
I1219 14:14:06.837141 15716 net.cpp:415] inception_4d/3x3 -> inception_4d/3x3
I1219 14:14:06.837144 15716 net.cpp:160] Setting up inception_4d/3x3
I1219 14:14:06.838474 15716 net.cpp:167] Top shape: 72 192 14 14 (2709504)
I1219 14:14:06.838479 15716 layer_factory.hpp:74] Creating layer inception_4d/3x3_bn
I1219 14:14:06.838482 15716 layer_factory.cpp:177] Layer inception_4d/3x3_bn is using CAFFE engine.
I1219 14:14:06.838486 15716 net.cpp:96] Creating Layer inception_4d/3x3_bn
I1219 14:14:06.838490 15716 net.cpp:459] inception_4d/3x3_bn <- inception_4d/3x3
I1219 14:14:06.838493 15716 net.cpp:415] inception_4d/3x3_bn -> inception_4d/3x3_bn
I1219 14:14:06.838497 15716 net.cpp:160] Setting up inception_4d/3x3_bn
I1219 14:14:06.838507 15716 net.cpp:167] Top shape: 72 192 14 14 (2709504)
I1219 14:14:06.838512 15716 layer_factory.hpp:74] Creating layer inception_4d/relu_3x3
I1219 14:14:06.838515 15716 net.cpp:96] Creating Layer inception_4d/relu_3x3
I1219 14:14:06.838518 15716 net.cpp:459] inception_4d/relu_3x3 <- inception_4d/3x3_bn
I1219 14:14:06.838521 15716 net.cpp:404] inception_4d/relu_3x3 -> inception_4d/3x3_bn (in-place)
I1219 14:14:06.838526 15716 net.cpp:160] Setting up inception_4d/relu_3x3
I1219 14:14:06.838528 15716 net.cpp:167] Top shape: 72 192 14 14 (2709504)
I1219 14:14:06.838531 15716 layer_factory.hpp:74] Creating layer inception_4d/double_3x3_reduce
I1219 14:14:06.838536 15716 net.cpp:96] Creating Layer inception_4d/double_3x3_reduce
I1219 14:14:06.838539 15716 net.cpp:459] inception_4d/double_3x3_reduce <- inception_4c/output_inception_4c/output_0_split_2
I1219 14:14:06.838543 15716 net.cpp:415] inception_4d/double_3x3_reduce -> inception_4d/double_3x3_reduce
I1219 14:14:06.838547 15716 net.cpp:160] Setting up inception_4d/double_3x3_reduce
I1219 14:14:06.839136 15716 net.cpp:167] Top shape: 72 160 14 14 (2257920)
I1219 14:14:06.839141 15716 layer_factory.hpp:74] Creating layer inception_4d/double_3x3_reduce_bn
I1219 14:14:06.839144 15716 layer_factory.cpp:177] Layer inception_4d/double_3x3_reduce_bn is using CAFFE engine.
I1219 14:14:06.839149 15716 net.cpp:96] Creating Layer inception_4d/double_3x3_reduce_bn
I1219 14:14:06.839153 15716 net.cpp:459] inception_4d/double_3x3_reduce_bn <- inception_4d/double_3x3_reduce
I1219 14:14:06.839157 15716 net.cpp:415] inception_4d/double_3x3_reduce_bn -> inception_4d/double_3x3_reduce_bn
I1219 14:14:06.839161 15716 net.cpp:160] Setting up inception_4d/double_3x3_reduce_bn
I1219 14:14:06.839170 15716 net.cpp:167] Top shape: 72 160 14 14 (2257920)
I1219 14:14:06.839175 15716 layer_factory.hpp:74] Creating layer inception_4d/relu_double_3x3_reduce
I1219 14:14:06.839179 15716 net.cpp:96] Creating Layer inception_4d/relu_double_3x3_reduce
I1219 14:14:06.839182 15716 net.cpp:459] inception_4d/relu_double_3x3_reduce <- inception_4d/double_3x3_reduce_bn
I1219 14:14:06.839188 15716 net.cpp:404] inception_4d/relu_double_3x3_reduce -> inception_4d/double_3x3_reduce_bn (in-place)
I1219 14:14:06.839195 15716 net.cpp:160] Setting up inception_4d/relu_double_3x3_reduce
I1219 14:14:06.839198 15716 net.cpp:167] Top shape: 72 160 14 14 (2257920)
I1219 14:14:06.839200 15716 layer_factory.hpp:74] Creating layer inception_4d/double_3x3_1
I1219 14:14:06.839205 15716 net.cpp:96] Creating Layer inception_4d/double_3x3_1
I1219 14:14:06.839207 15716 net.cpp:459] inception_4d/double_3x3_1 <- inception_4d/double_3x3_reduce_bn
I1219 14:14:06.839212 15716 net.cpp:415] inception_4d/double_3x3_1 -> inception_4d/double_3x3_1
I1219 14:14:06.839216 15716 net.cpp:160] Setting up inception_4d/double_3x3_1
I1219 14:14:06.840879 15716 net.cpp:167] Top shape: 72 192 14 14 (2709504)
I1219 14:14:06.840886 15716 layer_factory.hpp:74] Creating layer inception_4d/double_3x3_1_bn
I1219 14:14:06.840889 15716 layer_factory.cpp:177] Layer inception_4d/double_3x3_1_bn is using CAFFE engine.
I1219 14:14:06.840894 15716 net.cpp:96] Creating Layer inception_4d/double_3x3_1_bn
I1219 14:14:06.840898 15716 net.cpp:459] inception_4d/double_3x3_1_bn <- inception_4d/double_3x3_1
I1219 14:14:06.840901 15716 net.cpp:415] inception_4d/double_3x3_1_bn -> inception_4d/double_3x3_1_bn
I1219 14:14:06.840905 15716 net.cpp:160] Setting up inception_4d/double_3x3_1_bn
I1219 14:14:06.840914 15716 net.cpp:167] Top shape: 72 192 14 14 (2709504)
I1219 14:14:06.840919 15716 layer_factory.hpp:74] Creating layer inception_4d/relu_double_3x3_1
I1219 14:14:06.840924 15716 net.cpp:96] Creating Layer inception_4d/relu_double_3x3_1
I1219 14:14:06.840927 15716 net.cpp:459] inception_4d/relu_double_3x3_1 <- inception_4d/double_3x3_1_bn
I1219 14:14:06.840931 15716 net.cpp:404] inception_4d/relu_double_3x3_1 -> inception_4d/double_3x3_1_bn (in-place)
I1219 14:14:06.840934 15716 net.cpp:160] Setting up inception_4d/relu_double_3x3_1
I1219 14:14:06.840939 15716 net.cpp:167] Top shape: 72 192 14 14 (2709504)
I1219 14:14:06.840940 15716 layer_factory.hpp:74] Creating layer inception_4d/double_3x3_2
I1219 14:14:06.840945 15716 net.cpp:96] Creating Layer inception_4d/double_3x3_2
I1219 14:14:06.840947 15716 net.cpp:459] inception_4d/double_3x3_2 <- inception_4d/double_3x3_1_bn
I1219 14:14:06.840950 15716 net.cpp:415] inception_4d/double_3x3_2 -> inception_4d/double_3x3_2
I1219 14:14:06.840955 15716 net.cpp:160] Setting up inception_4d/double_3x3_2
I1219 14:14:06.842960 15716 net.cpp:167] Top shape: 72 192 14 14 (2709504)
I1219 14:14:06.842969 15716 layer_factory.hpp:74] Creating layer inception_4d/double_3x3_2_bn
I1219 14:14:06.842972 15716 layer_factory.cpp:177] Layer inception_4d/double_3x3_2_bn is using CAFFE engine.
I1219 14:14:06.842978 15716 net.cpp:96] Creating Layer inception_4d/double_3x3_2_bn
I1219 14:14:06.842980 15716 net.cpp:459] inception_4d/double_3x3_2_bn <- inception_4d/double_3x3_2
I1219 14:14:06.842985 15716 net.cpp:415] inception_4d/double_3x3_2_bn -> inception_4d/double_3x3_2_bn
I1219 14:14:06.842990 15716 net.cpp:160] Setting up inception_4d/double_3x3_2_bn
I1219 14:14:06.843000 15716 net.cpp:167] Top shape: 72 192 14 14 (2709504)
I1219 14:14:06.843005 15716 layer_factory.hpp:74] Creating layer inception_4d/relu_double_3x3_2
I1219 14:14:06.843009 15716 net.cpp:96] Creating Layer inception_4d/relu_double_3x3_2
I1219 14:14:06.843013 15716 net.cpp:459] inception_4d/relu_double_3x3_2 <- inception_4d/double_3x3_2_bn
I1219 14:14:06.843015 15716 net.cpp:404] inception_4d/relu_double_3x3_2 -> inception_4d/double_3x3_2_bn (in-place)
I1219 14:14:06.843019 15716 net.cpp:160] Setting up inception_4d/relu_double_3x3_2
I1219 14:14:06.843022 15716 net.cpp:167] Top shape: 72 192 14 14 (2709504)
I1219 14:14:06.843025 15716 layer_factory.hpp:74] Creating layer inception_4d/pool
I1219 14:14:06.843029 15716 net.cpp:96] Creating Layer inception_4d/pool
I1219 14:14:06.843032 15716 net.cpp:459] inception_4d/pool <- inception_4c/output_inception_4c/output_0_split_3
I1219 14:14:06.843036 15716 net.cpp:415] inception_4d/pool -> inception_4d/pool
I1219 14:14:06.843040 15716 net.cpp:160] Setting up inception_4d/pool
I1219 14:14:06.843051 15716 net.cpp:167] Top shape: 72 608 14 14 (8580096)
I1219 14:14:06.843055 15716 layer_factory.hpp:74] Creating layer inception_4d/pool_proj
I1219 14:14:06.843058 15716 net.cpp:96] Creating Layer inception_4d/pool_proj
I1219 14:14:06.843061 15716 net.cpp:459] inception_4d/pool_proj <- inception_4d/pool
I1219 14:14:06.843066 15716 net.cpp:415] inception_4d/pool_proj -> inception_4d/pool_proj
I1219 14:14:06.843070 15716 net.cpp:160] Setting up inception_4d/pool_proj
I1219 14:14:06.843545 15716 net.cpp:167] Top shape: 72 128 14 14 (1806336)
I1219 14:14:06.843550 15716 layer_factory.hpp:74] Creating layer inception_4d/pool_proj_bn
I1219 14:14:06.843554 15716 layer_factory.cpp:177] Layer inception_4d/pool_proj_bn is using CAFFE engine.
I1219 14:14:06.843559 15716 net.cpp:96] Creating Layer inception_4d/pool_proj_bn
I1219 14:14:06.843561 15716 net.cpp:459] inception_4d/pool_proj_bn <- inception_4d/pool_proj
I1219 14:14:06.843565 15716 net.cpp:415] inception_4d/pool_proj_bn -> inception_4d/pool_proj_bn
I1219 14:14:06.843570 15716 net.cpp:160] Setting up inception_4d/pool_proj_bn
I1219 14:14:06.843578 15716 net.cpp:167] Top shape: 72 128 14 14 (1806336)
I1219 14:14:06.843583 15716 layer_factory.hpp:74] Creating layer inception_4d/relu_pool_proj
I1219 14:14:06.843587 15716 net.cpp:96] Creating Layer inception_4d/relu_pool_proj
I1219 14:14:06.843590 15716 net.cpp:459] inception_4d/relu_pool_proj <- inception_4d/pool_proj_bn
I1219 14:14:06.843595 15716 net.cpp:404] inception_4d/relu_pool_proj -> inception_4d/pool_proj_bn (in-place)
I1219 14:14:06.843597 15716 net.cpp:160] Setting up inception_4d/relu_pool_proj
I1219 14:14:06.843601 15716 net.cpp:167] Top shape: 72 128 14 14 (1806336)
I1219 14:14:06.843603 15716 layer_factory.hpp:74] Creating layer inception_4d/output
I1219 14:14:06.843607 15716 net.cpp:96] Creating Layer inception_4d/output
I1219 14:14:06.843611 15716 net.cpp:459] inception_4d/output <- inception_4d/1x1_bn
I1219 14:14:06.843613 15716 net.cpp:459] inception_4d/output <- inception_4d/3x3_bn
I1219 14:14:06.843616 15716 net.cpp:459] inception_4d/output <- inception_4d/double_3x3_2_bn
I1219 14:14:06.843619 15716 net.cpp:459] inception_4d/output <- inception_4d/pool_proj_bn
I1219 14:14:06.843624 15716 net.cpp:415] inception_4d/output -> inception_4d/output
I1219 14:14:06.843628 15716 net.cpp:160] Setting up inception_4d/output
I1219 14:14:06.843633 15716 net.cpp:167] Top shape: 72 608 14 14 (8580096)
I1219 14:14:06.843636 15716 layer_factory.hpp:74] Creating layer inception_4d/output_inception_4d/output_0_split
I1219 14:14:06.843639 15716 net.cpp:96] Creating Layer inception_4d/output_inception_4d/output_0_split
I1219 14:14:06.843642 15716 net.cpp:459] inception_4d/output_inception_4d/output_0_split <- inception_4d/output
I1219 14:14:06.843647 15716 net.cpp:415] inception_4d/output_inception_4d/output_0_split -> inception_4d/output_inception_4d/output_0_split_0
I1219 14:14:06.843649 15716 net.cpp:415] inception_4d/output_inception_4d/output_0_split -> inception_4d/output_inception_4d/output_0_split_1
I1219 14:14:06.843654 15716 net.cpp:415] inception_4d/output_inception_4d/output_0_split -> inception_4d/output_inception_4d/output_0_split_2
I1219 14:14:06.843657 15716 net.cpp:160] Setting up inception_4d/output_inception_4d/output_0_split
I1219 14:14:06.843662 15716 net.cpp:167] Top shape: 72 608 14 14 (8580096)
I1219 14:14:06.843664 15716 net.cpp:167] Top shape: 72 608 14 14 (8580096)
I1219 14:14:06.843667 15716 net.cpp:167] Top shape: 72 608 14 14 (8580096)
I1219 14:14:06.843670 15716 layer_factory.hpp:74] Creating layer inception_4e/3x3_reduce
I1219 14:14:06.843677 15716 net.cpp:96] Creating Layer inception_4e/3x3_reduce
I1219 14:14:06.843678 15716 net.cpp:459] inception_4e/3x3_reduce <- inception_4d/output_inception_4d/output_0_split_0
I1219 14:14:06.843683 15716 net.cpp:415] inception_4e/3x3_reduce -> inception_4e/3x3_reduce
I1219 14:14:06.843688 15716 net.cpp:160] Setting up inception_4e/3x3_reduce
I1219 14:14:06.844161 15716 net.cpp:167] Top shape: 72 128 14 14 (1806336)
I1219 14:14:06.844168 15716 layer_factory.hpp:74] Creating layer inception_4e/3x3_reduce_bn
I1219 14:14:06.844174 15716 layer_factory.cpp:177] Layer inception_4e/3x3_reduce_bn is using CAFFE engine.
I1219 14:14:06.844179 15716 net.cpp:96] Creating Layer inception_4e/3x3_reduce_bn
I1219 14:14:06.844182 15716 net.cpp:459] inception_4e/3x3_reduce_bn <- inception_4e/3x3_reduce
I1219 14:14:06.844187 15716 net.cpp:415] inception_4e/3x3_reduce_bn -> inception_4e/3x3_reduce_bn
I1219 14:14:06.844190 15716 net.cpp:160] Setting up inception_4e/3x3_reduce_bn
I1219 14:14:06.844199 15716 net.cpp:167] Top shape: 72 128 14 14 (1806336)
I1219 14:14:06.844204 15716 layer_factory.hpp:74] Creating layer inception_4e/relu_3x3_reduce
I1219 14:14:06.844208 15716 net.cpp:96] Creating Layer inception_4e/relu_3x3_reduce
I1219 14:14:06.844211 15716 net.cpp:459] inception_4e/relu_3x3_reduce <- inception_4e/3x3_reduce_bn
I1219 14:14:06.844215 15716 net.cpp:404] inception_4e/relu_3x3_reduce -> inception_4e/3x3_reduce_bn (in-place)
I1219 14:14:06.844218 15716 net.cpp:160] Setting up inception_4e/relu_3x3_reduce
I1219 14:14:06.844223 15716 net.cpp:167] Top shape: 72 128 14 14 (1806336)
I1219 14:14:06.844224 15716 layer_factory.hpp:74] Creating layer inception_4e/3x3
I1219 14:14:06.844228 15716 net.cpp:96] Creating Layer inception_4e/3x3
I1219 14:14:06.844231 15716 net.cpp:459] inception_4e/3x3 <- inception_4e/3x3_reduce_bn
I1219 14:14:06.844236 15716 net.cpp:415] inception_4e/3x3 -> inception_4e/3x3
I1219 14:14:06.844240 15716 net.cpp:160] Setting up inception_4e/3x3
I1219 14:14:06.845578 15716 net.cpp:167] Top shape: 72 192 7 7 (677376)
I1219 14:14:06.845584 15716 layer_factory.hpp:74] Creating layer inception_4e/3x3_bn
I1219 14:14:06.845587 15716 layer_factory.cpp:177] Layer inception_4e/3x3_bn is using CAFFE engine.
I1219 14:14:06.845592 15716 net.cpp:96] Creating Layer inception_4e/3x3_bn
I1219 14:14:06.845595 15716 net.cpp:459] inception_4e/3x3_bn <- inception_4e/3x3
I1219 14:14:06.845599 15716 net.cpp:415] inception_4e/3x3_bn -> inception_4e/3x3_bn
I1219 14:14:06.845603 15716 net.cpp:160] Setting up inception_4e/3x3_bn
I1219 14:14:06.845613 15716 net.cpp:167] Top shape: 72 192 7 7 (677376)
I1219 14:14:06.845618 15716 layer_factory.hpp:74] Creating layer inception_4e/relu_3x3
I1219 14:14:06.845623 15716 net.cpp:96] Creating Layer inception_4e/relu_3x3
I1219 14:14:06.845625 15716 net.cpp:459] inception_4e/relu_3x3 <- inception_4e/3x3_bn
I1219 14:14:06.845629 15716 net.cpp:404] inception_4e/relu_3x3 -> inception_4e/3x3_bn (in-place)
I1219 14:14:06.845633 15716 net.cpp:160] Setting up inception_4e/relu_3x3
I1219 14:14:06.845635 15716 net.cpp:167] Top shape: 72 192 7 7 (677376)
I1219 14:14:06.845638 15716 layer_factory.hpp:74] Creating layer inception_4e/double_3x3_reduce
I1219 14:14:06.845643 15716 net.cpp:96] Creating Layer inception_4e/double_3x3_reduce
I1219 14:14:06.845646 15716 net.cpp:459] inception_4e/double_3x3_reduce <- inception_4d/output_inception_4d/output_0_split_1
I1219 14:14:06.845650 15716 net.cpp:415] inception_4e/double_3x3_reduce -> inception_4e/double_3x3_reduce
I1219 14:14:06.845654 15716 net.cpp:160] Setting up inception_4e/double_3x3_reduce
I1219 14:14:06.846361 15716 net.cpp:167] Top shape: 72 192 14 14 (2709504)
I1219 14:14:06.846367 15716 layer_factory.hpp:74] Creating layer inception_4e/double_3x3_reduce_bn
I1219 14:14:06.846370 15716 layer_factory.cpp:177] Layer inception_4e/double_3x3_reduce_bn is using CAFFE engine.
I1219 14:14:06.846374 15716 net.cpp:96] Creating Layer inception_4e/double_3x3_reduce_bn
I1219 14:14:06.846377 15716 net.cpp:459] inception_4e/double_3x3_reduce_bn <- inception_4e/double_3x3_reduce
I1219 14:14:06.846382 15716 net.cpp:415] inception_4e/double_3x3_reduce_bn -> inception_4e/double_3x3_reduce_bn
I1219 14:14:06.846386 15716 net.cpp:160] Setting up inception_4e/double_3x3_reduce_bn
I1219 14:14:06.846395 15716 net.cpp:167] Top shape: 72 192 14 14 (2709504)
I1219 14:14:06.846400 15716 layer_factory.hpp:74] Creating layer inception_4e/relu_double_3x3_reduce
I1219 14:14:06.846405 15716 net.cpp:96] Creating Layer inception_4e/relu_double_3x3_reduce
I1219 14:14:06.846412 15716 net.cpp:459] inception_4e/relu_double_3x3_reduce <- inception_4e/double_3x3_reduce_bn
I1219 14:14:06.846416 15716 net.cpp:404] inception_4e/relu_double_3x3_reduce -> inception_4e/double_3x3_reduce_bn (in-place)
I1219 14:14:06.846421 15716 net.cpp:160] Setting up inception_4e/relu_double_3x3_reduce
I1219 14:14:06.846423 15716 net.cpp:167] Top shape: 72 192 14 14 (2709504)
I1219 14:14:06.846426 15716 layer_factory.hpp:74] Creating layer inception_4e/double_3x3_1
I1219 14:14:06.846431 15716 net.cpp:96] Creating Layer inception_4e/double_3x3_1
I1219 14:14:06.846433 15716 net.cpp:459] inception_4e/double_3x3_1 <- inception_4e/double_3x3_reduce_bn
I1219 14:14:06.846437 15716 net.cpp:415] inception_4e/double_3x3_1 -> inception_4e/double_3x3_1
I1219 14:14:06.846441 15716 net.cpp:160] Setting up inception_4e/double_3x3_1
I1219 14:14:06.849107 15716 net.cpp:167] Top shape: 72 256 14 14 (3612672)
I1219 14:14:06.849117 15716 layer_factory.hpp:74] Creating layer inception_4e/double_3x3_1_bn
I1219 14:14:06.849119 15716 layer_factory.cpp:177] Layer inception_4e/double_3x3_1_bn is using CAFFE engine.
I1219 14:14:06.849125 15716 net.cpp:96] Creating Layer inception_4e/double_3x3_1_bn
I1219 14:14:06.849128 15716 net.cpp:459] inception_4e/double_3x3_1_bn <- inception_4e/double_3x3_1
I1219 14:14:06.849133 15716 net.cpp:415] inception_4e/double_3x3_1_bn -> inception_4e/double_3x3_1_bn
I1219 14:14:06.849138 15716 net.cpp:160] Setting up inception_4e/double_3x3_1_bn
I1219 14:14:06.849148 15716 net.cpp:167] Top shape: 72 256 14 14 (3612672)
I1219 14:14:06.849153 15716 layer_factory.hpp:74] Creating layer inception_4e/relu_double_3x3_1
I1219 14:14:06.849158 15716 net.cpp:96] Creating Layer inception_4e/relu_double_3x3_1
I1219 14:14:06.849159 15716 net.cpp:459] inception_4e/relu_double_3x3_1 <- inception_4e/double_3x3_1_bn
I1219 14:14:06.849164 15716 net.cpp:404] inception_4e/relu_double_3x3_1 -> inception_4e/double_3x3_1_bn (in-place)
I1219 14:14:06.849167 15716 net.cpp:160] Setting up inception_4e/relu_double_3x3_1
I1219 14:14:06.849170 15716 net.cpp:167] Top shape: 72 256 14 14 (3612672)
I1219 14:14:06.849174 15716 layer_factory.hpp:74] Creating layer inception_4e/double_3x3_2
I1219 14:14:06.849179 15716 net.cpp:96] Creating Layer inception_4e/double_3x3_2
I1219 14:14:06.849180 15716 net.cpp:459] inception_4e/double_3x3_2 <- inception_4e/double_3x3_1_bn
I1219 14:14:06.849184 15716 net.cpp:415] inception_4e/double_3x3_2 -> inception_4e/double_3x3_2
I1219 14:14:06.849189 15716 net.cpp:160] Setting up inception_4e/double_3x3_2
I1219 14:14:06.852524 15716 net.cpp:167] Top shape: 72 256 7 7 (903168)
I1219 14:14:06.852530 15716 layer_factory.hpp:74] Creating layer inception_4e/double_3x3_2_bn
I1219 14:14:06.852533 15716 layer_factory.cpp:177] Layer inception_4e/double_3x3_2_bn is using CAFFE engine.
I1219 14:14:06.852538 15716 net.cpp:96] Creating Layer inception_4e/double_3x3_2_bn
I1219 14:14:06.852541 15716 net.cpp:459] inception_4e/double_3x3_2_bn <- inception_4e/double_3x3_2
I1219 14:14:06.852545 15716 net.cpp:415] inception_4e/double_3x3_2_bn -> inception_4e/double_3x3_2_bn
I1219 14:14:06.852550 15716 net.cpp:160] Setting up inception_4e/double_3x3_2_bn
I1219 14:14:06.852558 15716 net.cpp:167] Top shape: 72 256 7 7 (903168)
I1219 14:14:06.852563 15716 layer_factory.hpp:74] Creating layer inception_4e/relu_double_3x3_2
I1219 14:14:06.852567 15716 net.cpp:96] Creating Layer inception_4e/relu_double_3x3_2
I1219 14:14:06.852571 15716 net.cpp:459] inception_4e/relu_double_3x3_2 <- inception_4e/double_3x3_2_bn
I1219 14:14:06.852573 15716 net.cpp:404] inception_4e/relu_double_3x3_2 -> inception_4e/double_3x3_2_bn (in-place)
I1219 14:14:06.852577 15716 net.cpp:160] Setting up inception_4e/relu_double_3x3_2
I1219 14:14:06.852581 15716 net.cpp:167] Top shape: 72 256 7 7 (903168)
I1219 14:14:06.852583 15716 layer_factory.hpp:74] Creating layer inception_4e/pool
I1219 14:14:06.852587 15716 net.cpp:96] Creating Layer inception_4e/pool
I1219 14:14:06.852591 15716 net.cpp:459] inception_4e/pool <- inception_4d/output_inception_4d/output_0_split_2
I1219 14:14:06.852601 15716 net.cpp:415] inception_4e/pool -> inception_4e/pool
I1219 14:14:06.852605 15716 net.cpp:160] Setting up inception_4e/pool
I1219 14:14:06.852610 15716 net.cpp:167] Top shape: 72 608 7 7 (2145024)
I1219 14:14:06.852613 15716 layer_factory.hpp:74] Creating layer inception_4e/output
I1219 14:14:06.852617 15716 net.cpp:96] Creating Layer inception_4e/output
I1219 14:14:06.852620 15716 net.cpp:459] inception_4e/output <- inception_4e/3x3_bn
I1219 14:14:06.852623 15716 net.cpp:459] inception_4e/output <- inception_4e/double_3x3_2_bn
I1219 14:14:06.852627 15716 net.cpp:459] inception_4e/output <- inception_4e/pool
I1219 14:14:06.852630 15716 net.cpp:415] inception_4e/output -> inception_4e/output
I1219 14:14:06.852634 15716 net.cpp:160] Setting up inception_4e/output
I1219 14:14:06.852638 15716 net.cpp:167] Top shape: 72 1056 7 7 (3725568)
I1219 14:14:06.852641 15716 layer_factory.hpp:74] Creating layer inception_4e/output_inception_4e/output_0_split
I1219 14:14:06.852645 15716 net.cpp:96] Creating Layer inception_4e/output_inception_4e/output_0_split
I1219 14:14:06.852648 15716 net.cpp:459] inception_4e/output_inception_4e/output_0_split <- inception_4e/output
I1219 14:14:06.852653 15716 net.cpp:415] inception_4e/output_inception_4e/output_0_split -> inception_4e/output_inception_4e/output_0_split_0
I1219 14:14:06.852656 15716 net.cpp:415] inception_4e/output_inception_4e/output_0_split -> inception_4e/output_inception_4e/output_0_split_1
I1219 14:14:06.852660 15716 net.cpp:415] inception_4e/output_inception_4e/output_0_split -> inception_4e/output_inception_4e/output_0_split_2
I1219 14:14:06.852664 15716 net.cpp:415] inception_4e/output_inception_4e/output_0_split -> inception_4e/output_inception_4e/output_0_split_3
I1219 14:14:06.852669 15716 net.cpp:160] Setting up inception_4e/output_inception_4e/output_0_split
I1219 14:14:06.852674 15716 net.cpp:167] Top shape: 72 1056 7 7 (3725568)
I1219 14:14:06.852676 15716 net.cpp:167] Top shape: 72 1056 7 7 (3725568)
I1219 14:14:06.852679 15716 net.cpp:167] Top shape: 72 1056 7 7 (3725568)
I1219 14:14:06.852682 15716 net.cpp:167] Top shape: 72 1056 7 7 (3725568)
I1219 14:14:06.852685 15716 layer_factory.hpp:74] Creating layer inception_5a/1x1
I1219 14:14:06.852689 15716 net.cpp:96] Creating Layer inception_5a/1x1
I1219 14:14:06.852692 15716 net.cpp:459] inception_5a/1x1 <- inception_4e/output_inception_4e/output_0_split_0
I1219 14:14:06.852697 15716 net.cpp:415] inception_5a/1x1 -> inception_5a/1x1
I1219 14:14:06.852701 15716 net.cpp:160] Setting up inception_5a/1x1
I1219 14:14:06.854935 15716 net.cpp:167] Top shape: 72 352 7 7 (1241856)
I1219 14:14:06.854943 15716 layer_factory.hpp:74] Creating layer inception_5a/1x1_bn
I1219 14:14:06.854944 15716 layer_factory.cpp:177] Layer inception_5a/1x1_bn is using CAFFE engine.
I1219 14:14:06.854949 15716 net.cpp:96] Creating Layer inception_5a/1x1_bn
I1219 14:14:06.854953 15716 net.cpp:459] inception_5a/1x1_bn <- inception_5a/1x1
I1219 14:14:06.854956 15716 net.cpp:415] inception_5a/1x1_bn -> inception_5a/1x1_bn
I1219 14:14:06.854961 15716 net.cpp:160] Setting up inception_5a/1x1_bn
I1219 14:14:06.854971 15716 net.cpp:167] Top shape: 72 352 7 7 (1241856)
I1219 14:14:06.854976 15716 layer_factory.hpp:74] Creating layer inception_5a/relu_1x1
I1219 14:14:06.854980 15716 net.cpp:96] Creating Layer inception_5a/relu_1x1
I1219 14:14:06.854984 15716 net.cpp:459] inception_5a/relu_1x1 <- inception_5a/1x1_bn
I1219 14:14:06.854986 15716 net.cpp:404] inception_5a/relu_1x1 -> inception_5a/1x1_bn (in-place)
I1219 14:14:06.854990 15716 net.cpp:160] Setting up inception_5a/relu_1x1
I1219 14:14:06.854993 15716 net.cpp:167] Top shape: 72 352 7 7 (1241856)
I1219 14:14:06.854996 15716 layer_factory.hpp:74] Creating layer inception_5a/3x3_reduce
I1219 14:14:06.855001 15716 net.cpp:96] Creating Layer inception_5a/3x3_reduce
I1219 14:14:06.855005 15716 net.cpp:459] inception_5a/3x3_reduce <- inception_4e/output_inception_4e/output_0_split_1
I1219 14:14:06.855011 15716 net.cpp:415] inception_5a/3x3_reduce -> inception_5a/3x3_reduce
I1219 14:14:06.855020 15716 net.cpp:160] Setting up inception_5a/3x3_reduce
I1219 14:14:06.856240 15716 net.cpp:167] Top shape: 72 192 7 7 (677376)
I1219 14:14:06.856246 15716 layer_factory.hpp:74] Creating layer inception_5a/3x3_reduce_bn
I1219 14:14:06.856250 15716 layer_factory.cpp:177] Layer inception_5a/3x3_reduce_bn is using CAFFE engine.
I1219 14:14:06.856254 15716 net.cpp:96] Creating Layer inception_5a/3x3_reduce_bn
I1219 14:14:06.856257 15716 net.cpp:459] inception_5a/3x3_reduce_bn <- inception_5a/3x3_reduce
I1219 14:14:06.856262 15716 net.cpp:415] inception_5a/3x3_reduce_bn -> inception_5a/3x3_reduce_bn
I1219 14:14:06.856266 15716 net.cpp:160] Setting up inception_5a/3x3_reduce_bn
I1219 14:14:06.856276 15716 net.cpp:167] Top shape: 72 192 7 7 (677376)
I1219 14:14:06.856279 15716 layer_factory.hpp:74] Creating layer inception_5a/relu_3x3_reduce
I1219 14:14:06.856283 15716 net.cpp:96] Creating Layer inception_5a/relu_3x3_reduce
I1219 14:14:06.856287 15716 net.cpp:459] inception_5a/relu_3x3_reduce <- inception_5a/3x3_reduce_bn
I1219 14:14:06.856290 15716 net.cpp:404] inception_5a/relu_3x3_reduce -> inception_5a/3x3_reduce_bn (in-place)
I1219 14:14:06.856294 15716 net.cpp:160] Setting up inception_5a/relu_3x3_reduce
I1219 14:14:06.856297 15716 net.cpp:167] Top shape: 72 192 7 7 (677376)
I1219 14:14:06.856300 15716 layer_factory.hpp:74] Creating layer inception_5a/3x3
I1219 14:14:06.856304 15716 net.cpp:96] Creating Layer inception_5a/3x3
I1219 14:14:06.856307 15716 net.cpp:459] inception_5a/3x3 <- inception_5a/3x3_reduce_bn
I1219 14:14:06.856312 15716 net.cpp:415] inception_5a/3x3 -> inception_5a/3x3
I1219 14:14:06.856315 15716 net.cpp:160] Setting up inception_5a/3x3
I1219 14:14:06.859647 15716 net.cpp:167] Top shape: 72 320 7 7 (1128960)
I1219 14:14:06.859657 15716 layer_factory.hpp:74] Creating layer inception_5a/3x3_bn
I1219 14:14:06.859659 15716 layer_factory.cpp:177] Layer inception_5a/3x3_bn is using CAFFE engine.
I1219 14:14:06.859663 15716 net.cpp:96] Creating Layer inception_5a/3x3_bn
I1219 14:14:06.859668 15716 net.cpp:459] inception_5a/3x3_bn <- inception_5a/3x3
I1219 14:14:06.859671 15716 net.cpp:415] inception_5a/3x3_bn -> inception_5a/3x3_bn
I1219 14:14:06.859678 15716 net.cpp:160] Setting up inception_5a/3x3_bn
I1219 14:14:06.859686 15716 net.cpp:167] Top shape: 72 320 7 7 (1128960)
I1219 14:14:06.859693 15716 layer_factory.hpp:74] Creating layer inception_5a/relu_3x3
I1219 14:14:06.859696 15716 net.cpp:96] Creating Layer inception_5a/relu_3x3
I1219 14:14:06.859699 15716 net.cpp:459] inception_5a/relu_3x3 <- inception_5a/3x3_bn
I1219 14:14:06.859702 15716 net.cpp:404] inception_5a/relu_3x3 -> inception_5a/3x3_bn (in-place)
I1219 14:14:06.859706 15716 net.cpp:160] Setting up inception_5a/relu_3x3
I1219 14:14:06.859709 15716 net.cpp:167] Top shape: 72 320 7 7 (1128960)
I1219 14:14:06.859712 15716 layer_factory.hpp:74] Creating layer inception_5a/double_3x3_reduce
I1219 14:14:06.859716 15716 net.cpp:96] Creating Layer inception_5a/double_3x3_reduce
I1219 14:14:06.859719 15716 net.cpp:459] inception_5a/double_3x3_reduce <- inception_4e/output_inception_4e/output_0_split_2
I1219 14:14:06.859724 15716 net.cpp:415] inception_5a/double_3x3_reduce -> inception_5a/double_3x3_reduce
I1219 14:14:06.859729 15716 net.cpp:160] Setting up inception_5a/double_3x3_reduce
I1219 14:14:06.860751 15716 net.cpp:167] Top shape: 72 160 7 7 (564480)
I1219 14:14:06.860759 15716 layer_factory.hpp:74] Creating layer inception_5a/double_3x3_reduce_bn
I1219 14:14:06.860761 15716 layer_factory.cpp:177] Layer inception_5a/double_3x3_reduce_bn is using CAFFE engine.
I1219 14:14:06.860765 15716 net.cpp:96] Creating Layer inception_5a/double_3x3_reduce_bn
…
I1219 14:14:07.969377 15716 net.cpp:459] inception_4d/double_3x3_reduce <- inception_4c/output_inception_4c/output_0_split_2
I1219 14:14:07.969382 15716 net.cpp:415] inception_4d/double_3x3_reduce -> inception_4d/double_3x3_reduce
I1219 14:14:07.969385 15716 net.cpp:160] Setting up inception_4d/double_3x3_reduce
I1219 14:14:07.969974 15716 net.cpp:167] Top shape: 3 160 14 14 (94080)
I1219 14:14:07.969980 15716 layer_factory.hpp:74] Creating layer inception_4d/double_3x3_reduce_bn
I1219 14:14:07.969983 15716 layer_factory.cpp:177] Layer inception_4d/double_3x3_reduce_bn is using CAFFE engine.
I1219 14:14:07.969987 15716 net.cpp:96] Creating Layer inception_4d/double_3x3_reduce_bn
I1219 14:14:07.969990 15716 net.cpp:459] inception_4d/double_3x3_reduce_bn <- inception_4d/double_3x3_reduce
I1219 14:14:07.969995 15716 net.cpp:415] inception_4d/double_3x3_reduce_bn -> inception_4d/double_3x3_reduce_bn
I1219 14:14:07.969998 15716 net.cpp:160] Setting up inception_4d/double_3x3_reduce_bn
I1219 14:14:07.970007 15716 net.cpp:167] Top shape: 3 160 14 14 (94080)
I1219 14:14:07.970012 15716 layer_factory.hpp:74] Creating layer inception_4d/relu_double_3x3_reduce
I1219 14:14:07.970016 15716 net.cpp:96] Creating Layer inception_4d/relu_double_3x3_reduce
I1219 14:14:07.970018 15716 net.cpp:459] inception_4d/relu_double_3x3_reduce <- inception_4d/double_3x3_reduce_bn
I1219 14:14:07.970022 15716 net.cpp:404] inception_4d/relu_double_3x3_reduce -> inception_4d/double_3x3_reduce_bn (in-place)
I1219 14:14:07.970026 15716 net.cpp:160] Setting up inception_4d/relu_double_3x3_reduce
I1219 14:14:07.970029 15716 net.cpp:167] Top shape: 3 160 14 14 (94080)
I1219 14:14:07.970031 15716 layer_factory.hpp:74] Creating layer inception_4d/double_3x3_1
I1219 14:14:07.970036 15716 net.cpp:96] Creating Layer inception_4d/double_3x3_1
I1219 14:14:07.970039 15716 net.cpp:459] inception_4d/double_3x3_1 <- inception_4d/double_3x3_reduce_bn
I1219 14:14:07.970043 15716 net.cpp:415] inception_4d/double_3x3_1 -> inception_4d/double_3x3_1
I1219 14:14:07.970047 15716 net.cpp:160] Setting up inception_4d/double_3x3_1
I1219 14:14:07.971709 15716 net.cpp:167] Top shape: 3 192 14 14 (112896)
I1219 14:14:07.971715 15716 layer_factory.hpp:74] Creating layer inception_4d/double_3x3_1_bn
I1219 14:14:07.971719 15716 layer_factory.cpp:177] Layer inception_4d/double_3x3_1_bn is using CAFFE engine.
I1219 14:14:07.971724 15716 net.cpp:96] Creating Layer inception_4d/double_3x3_1_bn
I1219 14:14:07.971726 15716 net.cpp:459] inception_4d/double_3x3_1_bn <- inception_4d/double_3x3_1
I1219 14:14:07.971730 15716 net.cpp:415] inception_4d/double_3x3_1_bn -> inception_4d/double_3x3_1_bn
I1219 14:14:07.971735 15716 net.cpp:160] Setting up inception_4d/double_3x3_1_bn
I1219 14:14:07.971743 15716 net.cpp:167] Top shape: 3 192 14 14 (112896)
I1219 14:14:07.971747 15716 layer_factory.hpp:74] Creating layer inception_4d/relu_double_3x3_1
I1219 14:14:07.971752 15716 net.cpp:96] Creating Layer inception_4d/relu_double_3x3_1
I1219 14:14:07.971755 15716 net.cpp:459] inception_4d/relu_double_3x3_1 <- inception_4d/double_3x3_1_bn
I1219 14:14:07.971758 15716 net.cpp:404] inception_4d/relu_double_3x3_1 -> inception_4d/double_3x3_1_bn (in-place)
I1219 14:14:07.971762 15716 net.cpp:160] Setting up inception_4d/relu_double_3x3_1
I1219 14:14:07.971765 15716 net.cpp:167] Top shape: 3 192 14 14 (112896)
I1219 14:14:07.971767 15716 layer_factory.hpp:74] Creating layer inception_4d/double_3x3_2
I1219 14:14:07.971772 15716 net.cpp:96] Creating Layer inception_4d/double_3x3_2
I1219 14:14:07.971774 15716 net.cpp:459] inception_4d/double_3x3_2 <- inception_4d/double_3x3_1_bn
I1219 14:14:07.971778 15716 net.cpp:415] inception_4d/double_3x3_2 -> inception_4d/double_3x3_2
I1219 14:14:07.971782 15716 net.cpp:160] Setting up inception_4d/double_3x3_2
I1219 14:14:07.973775 15716 net.cpp:167] Top shape: 3 192 14 14 (112896)
I1219 14:14:07.973784 15716 layer_factory.hpp:74] Creating layer inception_4d/double_3x3_2_bn
I1219 14:14:07.973791 15716 layer_factory.cpp:177] Layer inception_4d/double_3x3_2_bn is using CAFFE engine.
I1219 14:14:07.973796 15716 net.cpp:96] Creating Layer inception_4d/double_3x3_2_bn
I1219 14:14:07.973799 15716 net.cpp:459] inception_4d/double_3x3_2_bn <- inception_4d/double_3x3_2
I1219 14:14:07.973803 15716 net.cpp:415] inception_4d/double_3x3_2_bn -> inception_4d/double_3x3_2_bn
I1219 14:14:07.973809 15716 net.cpp:160] Setting up inception_4d/double_3x3_2_bn
I1219 14:14:07.973816 15716 net.cpp:167] Top shape: 3 192 14 14 (112896)
I1219 14:14:07.973821 15716 layer_factory.hpp:74] Creating layer inception_4d/relu_double_3x3_2
I1219 14:14:07.973825 15716 net.cpp:96] Creating Layer inception_4d/relu_double_3x3_2
I1219 14:14:07.973827 15716 net.cpp:459] inception_4d/relu_double_3x3_2 <- inception_4d/double_3x3_2_bn
I1219 14:14:07.973831 15716 net.cpp:404] inception_4d/relu_double_3x3_2 -> inception_4d/double_3x3_2_bn (in-place)
I1219 14:14:07.973835 15716 net.cpp:160] Setting up inception_4d/relu_double_3x3_2
I1219 14:14:07.973839 15716 net.cpp:167] Top shape: 3 192 14 14 (112896)
I1219 14:14:07.973841 15716 layer_factory.hpp:74] Creating layer inception_4d/pool
I1219 14:14:07.973845 15716 net.cpp:96] Creating Layer inception_4d/pool
I1219 14:14:07.973847 15716 net.cpp:459] inception_4d/pool <- inception_4c/output_inception_4c/output_0_split_3
I1219 14:14:07.973851 15716 net.cpp:415] inception_4d/pool -> inception_4d/pool
I1219 14:14:07.973855 15716 net.cpp:160] Setting up inception_4d/pool
I1219 14:14:07.973860 15716 net.cpp:167] Top shape: 3 608 14 14 (357504)
I1219 14:14:07.973862 15716 layer_factory.hpp:74] Creating layer inception_4d/pool_proj
I1219 14:14:07.973867 15716 net.cpp:96] Creating Layer inception_4d/pool_proj
I1219 14:14:07.973870 15716 net.cpp:459] inception_4d/pool_proj <- inception_4d/pool
I1219 14:14:07.973875 15716 net.cpp:415] inception_4d/pool_proj -> inception_4d/pool_proj
I1219 14:14:07.973879 15716 net.cpp:160] Setting up inception_4d/pool_proj
I1219 14:14:07.974351 15716 net.cpp:167] Top shape: 3 128 14 14 (75264)
I1219 14:14:07.974356 15716 layer_factory.hpp:74] Creating layer inception_4d/pool_proj_bn
I1219 14:14:07.974359 15716 layer_factory.cpp:177] Layer inception_4d/pool_proj_bn is using CAFFE engine.
I1219 14:14:07.974364 15716 net.cpp:96] Creating Layer inception_4d/pool_proj_bn
I1219 14:14:07.974367 15716 net.cpp:459] inception_4d/pool_proj_bn <- inception_4d/pool_proj
I1219 14:14:07.974371 15716 net.cpp:415] inception_4d/pool_proj_bn -> inception_4d/pool_proj_bn
I1219 14:14:07.974375 15716 net.cpp:160] Setting up inception_4d/pool_proj_bn
I1219 14:14:07.974385 15716 net.cpp:167] Top shape: 3 128 14 14 (75264)
I1219 14:14:07.974390 15716 layer_factory.hpp:74] Creating layer inception_4d/relu_pool_proj
I1219 14:14:07.974393 15716 net.cpp:96] Creating Layer inception_4d/relu_pool_proj
I1219 14:14:07.974396 15716 net.cpp:459] inception_4d/relu_pool_proj <- inception_4d/pool_proj_bn
I1219 14:14:07.974400 15716 net.cpp:404] inception_4d/relu_pool_proj -> inception_4d/pool_proj_bn (in-place)
I1219 14:14:07.974403 15716 net.cpp:160] Setting up inception_4d/relu_pool_proj
I1219 14:14:07.974407 15716 net.cpp:167] Top shape: 3 128 14 14 (75264)
I1219 14:14:07.974409 15716 layer_factory.hpp:74] Creating layer inception_4d/output
I1219 14:14:07.974413 15716 net.cpp:96] Creating Layer inception_4d/output
I1219 14:14:07.974416 15716 net.cpp:459] inception_4d/output <- inception_4d/1x1_bn
I1219 14:14:07.974419 15716 net.cpp:459] inception_4d/output <- inception_4d/3x3_bn
I1219 14:14:07.974422 15716 net.cpp:459] inception_4d/output <- inception_4d/double_3x3_2_bn
I1219 14:14:07.974426 15716 net.cpp:459] inception_4d/output <- inception_4d/pool_proj_bn
I1219 14:14:07.974429 15716 net.cpp:415] inception_4d/output -> inception_4d/output
I1219 14:14:07.974433 15716 net.cpp:160] Setting up inception_4d/output
I1219 14:14:07.974437 15716 net.cpp:167] Top shape: 3 608 14 14 (357504)
I1219 14:14:07.974442 15716 layer_factory.hpp:74] Creating layer inception_4d/output_inception_4d/output_0_split
I1219 14:14:07.974449 15716 net.cpp:96] Creating Layer inception_4d/output_inception_4d/output_0_split
I1219 14:14:07.974452 15716 net.cpp:459] inception_4d/output_inception_4d/output_0_split <- inception_4d/output
I1219 14:14:07.974457 15716 net.cpp:415] inception_4d/output_inception_4d/output_0_split -> inception_4d/output_inception_4d/output_0_split_0
I1219 14:14:07.974462 15716 net.cpp:415] inception_4d/output_inception_4d/output_0_split -> inception_4d/output_inception_4d/output_0_split_1
I1219 14:14:07.974465 15716 net.cpp:415] inception_4d/output_inception_4d/output_0_split -> inception_4d/output_inception_4d/output_0_split_2
I1219 14:14:07.974469 15716 net.cpp:160] Setting up inception_4d/output_inception_4d/output_0_split
I1219 14:14:07.974473 15716 net.cpp:167] Top shape: 3 608 14 14 (357504)
I1219 14:14:07.974476 15716 net.cpp:167] Top shape: 3 608 14 14 (357504)
I1219 14:14:07.974479 15716 net.cpp:167] Top shape: 3 608 14 14 (357504)
I1219 14:14:07.974483 15716 layer_factory.hpp:74] Creating layer inception_4e/3x3_reduce
I1219 14:14:07.974488 15716 net.cpp:96] Creating Layer inception_4e/3x3_reduce
I1219 14:14:07.974490 15716 net.cpp:459] inception_4e/3x3_reduce <- inception_4d/output_inception_4d/output_0_split_0
I1219 14:14:07.974493 15716 net.cpp:415] inception_4e/3x3_reduce -> inception_4e/3x3_reduce
I1219 14:14:07.974498 15716 net.cpp:160] Setting up inception_4e/3x3_reduce
I1219 14:14:07.974969 15716 net.cpp:167] Top shape: 3 128 14 14 (75264)
I1219 14:14:07.974974 15716 layer_factory.hpp:74] Creating layer inception_4e/3x3_reduce_bn
I1219 14:14:07.974977 15716 layer_factory.cpp:177] Layer inception_4e/3x3_reduce_bn is using CAFFE engine.
I1219 14:14:07.974982 15716 net.cpp:96] Creating Layer inception_4e/3x3_reduce_bn
I1219 14:14:07.974984 15716 net.cpp:459] inception_4e/3x3_reduce_bn <- inception_4e/3x3_reduce
I1219 14:14:07.974988 15716 net.cpp:415] inception_4e/3x3_reduce_bn -> inception_4e/3x3_reduce_bn
I1219 14:14:07.974992 15716 net.cpp:160] Setting up inception_4e/3x3_reduce_bn
I1219 14:14:07.975003 15716 net.cpp:167] Top shape: 3 128 14 14 (75264)
I1219 14:14:07.975006 15716 layer_factory.hpp:74] Creating layer inception_4e/relu_3x3_reduce
I1219 14:14:07.975010 15716 net.cpp:96] Creating Layer inception_4e/relu_3x3_reduce
I1219 14:14:07.975013 15716 net.cpp:459] inception_4e/relu_3x3_reduce <- inception_4e/3x3_reduce_bn
I1219 14:14:07.975016 15716 net.cpp:404] inception_4e/relu_3x3_reduce -> inception_4e/3x3_reduce_bn (in-place)
I1219 14:14:07.975020 15716 net.cpp:160] Setting up inception_4e/relu_3x3_reduce
I1219 14:14:07.975023 15716 net.cpp:167] Top shape: 3 128 14 14 (75264)
I1219 14:14:07.975025 15716 layer_factory.hpp:74] Creating layer inception_4e/3x3
I1219 14:14:07.975030 15716 net.cpp:96] Creating Layer inception_4e/3x3
I1219 14:14:07.975033 15716 net.cpp:459] inception_4e/3x3 <- inception_4e/3x3_reduce_bn
I1219 14:14:07.975038 15716 net.cpp:415] inception_4e/3x3 -> inception_4e/3x3
I1219 14:14:07.975041 15716 net.cpp:160] Setting up inception_4e/3x3
I1219 14:14:07.976372 15716 net.cpp:167] Top shape: 3 192 7 7 (28224)
I1219 14:14:07.976378 15716 layer_factory.hpp:74] Creating layer inception_4e/3x3_bn
I1219 14:14:07.976382 15716 layer_factory.cpp:177] Layer inception_4e/3x3_bn is using CAFFE engine.
I1219 14:14:07.976387 15716 net.cpp:96] Creating Layer inception_4e/3x3_bn
I1219 14:14:07.976389 15716 net.cpp:459] inception_4e/3x3_bn <- inception_4e/3x3
I1219 14:14:07.976393 15716 net.cpp:415] inception_4e/3x3_bn -> inception_4e/3x3_bn
I1219 14:14:07.976398 15716 net.cpp:160] Setting up inception_4e/3x3_bn
I1219 14:14:07.976407 15716 net.cpp:167] Top shape: 3 192 7 7 (28224)
I1219 14:14:07.976411 15716 layer_factory.hpp:74] Creating layer inception_4e/relu_3x3
I1219 14:14:07.976416 15716 net.cpp:96] Creating Layer inception_4e/relu_3x3
I1219 14:14:07.976419 15716 net.cpp:459] inception_4e/relu_3x3 <- inception_4e/3x3_bn
I1219 14:14:07.976423 15716 net.cpp:404] inception_4e/relu_3x3 -> inception_4e/3x3_bn (in-place)
I1219 14:14:07.976431 15716 net.cpp:160] Setting up inception_4e/relu_3x3
I1219 14:14:07.976435 15716 net.cpp:167] Top shape: 3 192 7 7 (28224)
I1219 14:14:07.976438 15716 layer_factory.hpp:74] Creating layer inception_4e/double_3x3_reduce
I1219 14:14:07.976442 15716 net.cpp:96] Creating Layer inception_4e/double_3x3_reduce
I1219 14:14:07.976445 15716 net.cpp:459] inception_4e/double_3x3_reduce <- inception_4d/output_inception_4d/output_0_split_1
I1219 14:14:07.976449 15716 net.cpp:415] inception_4e/double_3x3_reduce -> inception_4e/double_3x3_reduce
I1219 14:14:07.976454 15716 net.cpp:160] Setting up inception_4e/double_3x3_reduce
I1219 14:14:07.977159 15716 net.cpp:167] Top shape: 3 192 14 14 (112896)
I1219 14:14:07.977164 15716 layer_factory.hpp:74] Creating layer inception_4e/double_3x3_reduce_bn
I1219 14:14:07.977166 15716 layer_factory.cpp:177] Layer inception_4e/double_3x3_reduce_bn is using CAFFE engine.
I1219 14:14:07.977170 15716 net.cpp:96] Creating Layer inception_4e/double_3x3_reduce_bn
I1219 14:14:07.977174 15716 net.cpp:459] inception_4e/double_3x3_reduce_bn <- inception_4e/double_3x3_reduce
I1219 14:14:07.977179 15716 net.cpp:415] inception_4e/double_3x3_reduce_bn -> inception_4e/double_3x3_reduce_bn
I1219 14:14:07.977182 15716 net.cpp:160] Setting up inception_4e/double_3x3_reduce_bn
I1219 14:14:07.977191 15716 net.cpp:167] Top shape: 3 192 14 14 (112896)
I1219 14:14:07.977196 15716 layer_factory.hpp:74] Creating layer inception_4e/relu_double_3x3_reduce
I1219 14:14:07.977200 15716 net.cpp:96] Creating Layer inception_4e/relu_double_3x3_reduce
I1219 14:14:07.977202 15716 net.cpp:459] inception_4e/relu_double_3x3_reduce <- inception_4e/double_3x3_reduce_bn
I1219 14:14:07.977206 15716 net.cpp:404] inception_4e/relu_double_3x3_reduce -> inception_4e/double_3x3_reduce_bn (in-place)
I1219 14:14:07.977210 15716 net.cpp:160] Setting up inception_4e/relu_double_3x3_reduce
I1219 14:14:07.977213 15716 net.cpp:167] Top shape: 3 192 14 14 (112896)
I1219 14:14:07.977216 15716 layer_factory.hpp:74] Creating layer inception_4e/double_3x3_1
I1219 14:14:07.977219 15716 net.cpp:96] Creating Layer inception_4e/double_3x3_1
I1219 14:14:07.977222 15716 net.cpp:459] inception_4e/double_3x3_1 <- inception_4e/double_3x3_reduce_bn
I1219 14:14:07.977226 15716 net.cpp:415] inception_4e/double_3x3_1 -> inception_4e/double_3x3_1
I1219 14:14:07.977231 15716 net.cpp:160] Setting up inception_4e/double_3x3_1
I1219 14:14:07.979878 15716 net.cpp:167] Top shape: 3 256 14 14 (150528)
I1219 14:14:07.979884 15716 layer_factory.hpp:74] Creating layer inception_4e/double_3x3_1_bn
I1219 14:14:07.979887 15716 layer_factory.cpp:177] Layer inception_4e/double_3x3_1_bn is using CAFFE engine.
I1219 14:14:07.979892 15716 net.cpp:96] Creating Layer inception_4e/double_3x3_1_bn
I1219 14:14:07.979895 15716 net.cpp:459] inception_4e/double_3x3_1_bn <- inception_4e/double_3x3_1
I1219 14:14:07.979899 15716 net.cpp:415] inception_4e/double_3x3_1_bn -> inception_4e/double_3x3_1_bn
I1219 14:14:07.979903 15716 net.cpp:160] Setting up inception_4e/double_3x3_1_bn
I1219 14:14:07.979912 15716 net.cpp:167] Top shape: 3 256 14 14 (150528)
I1219 14:14:07.979918 15716 layer_factory.hpp:74] Creating layer inception_4e/relu_double_3x3_1
I1219 14:14:07.979921 15716 net.cpp:96] Creating Layer inception_4e/relu_double_3x3_1
I1219 14:14:07.979923 15716 net.cpp:459] inception_4e/relu_double_3x3_1 <- inception_4e/double_3x3_1_bn
I1219 14:14:07.979928 15716 net.cpp:404] inception_4e/relu_double_3x3_1 -> inception_4e/double_3x3_1_bn (in-place)
I1219 14:14:07.979931 15716 net.cpp:160] Setting up inception_4e/relu_double_3x3_1
I1219 14:14:07.979934 15716 net.cpp:167] Top shape: 3 256 14 14 (150528)
I1219 14:14:07.979938 15716 layer_factory.hpp:74] Creating layer inception_4e/double_3x3_2
I1219 14:14:07.979941 15716 net.cpp:96] Creating Layer inception_4e/double_3x3_2
I1219 14:14:07.979944 15716 net.cpp:459] inception_4e/double_3x3_2 <- inception_4e/double_3x3_1_bn
I1219 14:14:07.979948 15716 net.cpp:415] inception_4e/double_3x3_2 -> inception_4e/double_3x3_2
I1219 14:14:07.979954 15716 net.cpp:160] Setting up inception_4e/double_3x3_2
I1219 14:14:07.983505 15716 net.cpp:167] Top shape: 3 256 7 7 (37632)
I1219 14:14:07.983513 15716 layer_factory.hpp:74] Creating layer inception_4e/double_3x3_2_bn
I1219 14:14:07.983516 15716 layer_factory.cpp:177] Layer inception_4e/double_3x3_2_bn is using CAFFE engine.
I1219 14:14:07.983521 15716 net.cpp:96] Creating Layer inception_4e/double_3x3_2_bn
I1219 14:14:07.983525 15716 net.cpp:459] inception_4e/double_3x3_2_bn <- inception_4e/double_3x3_2
I1219 14:14:07.983528 15716 net.cpp:415] inception_4e/double_3x3_2_bn -> inception_4e/double_3x3_2_bn
I1219 14:14:07.983532 15716 net.cpp:160] Setting up inception_4e/double_3x3_2_bn
I1219 14:14:07.983541 15716 net.cpp:167] Top shape: 3 256 7 7 (37632)
I1219 14:14:07.983546 15716 layer_factory.hpp:74] Creating layer inception_4e/relu_double_3x3_2
I1219 14:14:07.983551 15716 net.cpp:96] Creating Layer inception_4e/relu_double_3x3_2
I1219 14:14:07.983553 15716 net.cpp:459] inception_4e/relu_double_3x3_2 <- inception_4e/double_3x3_2_bn
I1219 14:14:07.983556 15716 net.cpp:404] inception_4e/relu_double_3x3_2 -> inception_4e/double_3x3_2_bn (in-place)
I1219 14:14:07.983561 15716 net.cpp:160] Setting up inception_4e/relu_double_3x3_2
I1219 14:14:07.983563 15716 net.cpp:167] Top shape: 3 256 7 7 (37632)
I1219 14:14:07.983566 15716 layer_factory.hpp:74] Creating layer inception_4e/pool
I1219 14:14:07.983570 15716 net.cpp:96] Creating Layer inception_4e/pool
I1219 14:14:07.983574 15716 net.cpp:459] inception_4e/pool <- inception_4d/output_inception_4d/output_0_split_2
I1219 14:14:07.983578 15716 net.cpp:415] inception_4e/pool -> inception_4e/pool
I1219 14:14:07.983582 15716 net.cpp:160] Setting up inception_4e/pool
I1219 14:14:07.983588 15716 net.cpp:167] Top shape: 3 608 7 7 (89376)
I1219 14:14:07.983592 15716 layer_factory.hpp:74] Creating layer inception_4e/output
I1219 14:14:07.983595 15716 net.cpp:96] Creating Layer inception_4e/output
I1219 14:14:07.983598 15716 net.cpp:459] inception_4e/output <- inception_4e/3x3_bn
I1219 14:14:07.983602 15716 net.cpp:459] inception_4e/output <- inception_4e/double_3x3_2_bn
I1219 14:14:07.983604 15716 net.cpp:459] inception_4e/output <- inception_4e/pool
I1219 14:14:07.983608 15716 net.cpp:415] inception_4e/output -> inception_4e/output
I1219 14:14:07.983613 15716 net.cpp:160] Setting up inception_4e/output
I1219 14:14:07.983616 15716 net.cpp:167] Top shape: 3 1056 7 7 (155232)
I1219 14:14:07.983618 15716 layer_factory.hpp:74] Creating layer inception_4e/output_inception_4e/output_0_split
I1219 14:14:07.983623 15716 net.cpp:96] Creating Layer inception_4e/output_inception_4e/output_0_split
I1219 14:14:07.983625 15716 net.cpp:459] inception_4e/output_inception_4e/output_0_split <- inception_4e/output
I1219 14:14:07.983630 15716 net.cpp:415] inception_4e/output_inception_4e/output_0_split -> inception_4e/output_inception_4e/output_0_split_0
I1219 14:14:07.983634 15716 net.cpp:415] inception_4e/output_inception_4e/output_0_split -> inception_4e/output_inception_4e/output_0_split_1
I1219 14:14:07.983639 15716 net.cpp:415] inception_4e/output_inception_4e/output_0_split -> inception_4e/output_inception_4e/output_0_split_2
I1219 14:14:07.983642 15716 net.cpp:415] inception_4e/output_inception_4e/output_0_split -> inception_4e/output_inception_4e/output_0_split_3
I1219 14:14:07.983646 15716 net.cpp:160] Setting up inception_4e/output_inception_4e/output_0_split
I1219 14:14:07.983650 15716 net.cpp:167] Top shape: 3 1056 7 7 (155232)
I1219 14:14:07.983654 15716 net.cpp:167] Top shape: 3 1056 7 7 (155232)
I1219 14:14:07.983656 15716 net.cpp:167] Top shape: 3 1056 7 7 (155232)
I1219 14:14:07.983659 15716 net.cpp:167] Top shape: 3 1056 7 7 (155232)
I1219 14:14:07.983661 15716 layer_factory.hpp:74] Creating layer inception_5a/1x1
I1219 14:14:07.983666 15716 net.cpp:96] Creating Layer inception_5a/1x1
I1219 14:14:07.983669 15716 net.cpp:459] inception_5a/1x1 <- inception_4e/output_inception_4e/output_0_split_0
I1219 14:14:07.983675 15716 net.cpp:415] inception_5a/1x1 -> inception_5a/1x1
I1219 14:14:07.983680 15716 net.cpp:160] Setting up inception_5a/1x1
I1219 14:14:07.985923 15716 net.cpp:167] Top shape: 3 352 7 7 (51744)
I1219 14:14:07.985930 15716 layer_factory.hpp:74] Creating layer inception_5a/1x1_bn
I1219 14:14:07.985934 15716 layer_factory.cpp:177] Layer inception_5a/1x1_bn is using CAFFE engine.
I1219 14:14:07.985937 15716 net.cpp:96] Creating Layer inception_5a/1x1_bn
I1219 14:14:07.985940 15716 net.cpp:459] inception_5a/1x1_bn <- inception_5a/1x1
I1219 14:14:07.985945 15716 net.cpp:415] inception_5a/1x1_bn -> inception_5a/1x1_bn
I1219 14:14:07.985949 15716 net.cpp:160] Setting up inception_5a/1x1_bn
I1219 14:14:07.985960 15716 net.cpp:167] Top shape: 3 352 7 7 (51744)
I1219 14:14:07.985965 15716 layer_factory.hpp:74] Creating layer inception_5a/relu_1x1
I1219 14:14:07.985968 15716 net.cpp:96] Creating Layer inception_5a/relu_1x1
I1219 14:14:07.985971 15716 net.cpp:459] inception_5a/relu_1x1 <- inception_5a/1x1_bn
I1219 14:14:07.985975 15716 net.cpp:404] inception_5a/relu_1x1 -> inception_5a/1x1_bn (in-place)
I1219 14:14:07.985978 15716 net.cpp:160] Setting up inception_5a/relu_1x1
I1219 14:14:07.985981 15716 net.cpp:167] Top shape: 3 352 7 7 (51744)
I1219 14:14:07.985985 15716 layer_factory.hpp:74] Creating layer inception_5a/3x3_reduce
I1219 14:14:07.985988 15716 net.cpp:96] Creating Layer inception_5a/3x3_reduce
I1219 14:14:07.985991 15716 net.cpp:459] inception_5a/3x3_reduce <- inception_4e/output_inception_4e/output_0_split_1
I1219 14:14:07.985996 15716 net.cpp:415] inception_5a/3x3_reduce -> inception_5a/3x3_reduce
I1219 14:14:07.986001 15716 net.cpp:160] Setting up inception_5a/3x3_reduce
I1219 14:14:07.987220 15716 net.cpp:167] Top shape: 3 192 7 7 (28224)
I1219 14:14:07.987224 15716 layer_factory.hpp:74] Creating layer inception_5a/3x3_reduce_bn
I1219 14:14:07.987227 15716 layer_factory.cpp:177] Layer inception_5a/3x3_reduce_bn is using CAFFE engine.
I1219 14:14:07.987232 15716 net.cpp:96] Creating Layer inception_5a/3x3_reduce_bn
I1219 14:14:07.987236 15716 net.cpp:459] inception_5a/3x3_reduce_bn <- inception_5a/3x3_reduce
I1219 14:14:07.987239 15716 net.cpp:415] inception_5a/3x3_reduce_bn -> inception_5a/3x3_reduce_bn
I1219 14:14:07.987243 15716 net.cpp:160] Setting up inception_5a/3x3_reduce_bn
I1219 14:14:07.987252 15716 net.cpp:167] Top shape: 3 192 7 7 (28224)
I1219 14:14:07.987257 15716 layer_factory.hpp:74] Creating layer inception_5a/relu_3x3_reduce
I1219 14:14:07.987262 15716 net.cpp:96] Creating Layer inception_5a/relu_3x3_reduce
I1219 14:14:07.987265 15716 net.cpp:459] inception_5a/relu_3x3_reduce <- inception_5a/3x3_reduce_bn
I1219 14:14:07.987268 15716 net.cpp:404] inception_5a/relu_3x3_reduce -> inception_5a/3x3_reduce_bn (in-place)
I1219 14:14:07.987272 15716 net.cpp:160] Setting up inception_5a/relu_3x3_reduce
I1219 14:14:07.987275 15716 net.cpp:167] Top shape: 3 192 7 7 (28224)
I1219 14:14:07.987277 15716 layer_factory.hpp:74] Creating layer inception_5a/3x3
I1219 14:14:07.987283 15716 net.cpp:96] Creating Layer inception_5a/3x3
I1219 14:14:07.987287 15716 net.cpp:459] inception_5a/3x3 <- inception_5a/3x3_reduce_bn
I1219 14:14:07.987290 15716 net.cpp:415] inception_5a/3x3 -> inception_5a/3x3
I1219 14:14:07.987294 15716 net.cpp:160] Setting up inception_5a/3x3
I1219 14:14:07.990413 15716 net.cpp:167] Top shape: 3 320 7 7 (47040)
I1219 14:14:07.990419 15716 layer_factory.hpp:74] Creating layer inception_5a/3x3_bn
I1219 14:14:07.990422 15716 layer_factory.cpp:177] Layer inception_5a/3x3_bn is using CAFFE engine.
I1219 14:14:07.990427 15716 net.cpp:96] Creating Layer inception_5a/3x3_bn
I1219 14:14:07.990429 15716 net.cpp:459] inception_5a/3x3_bn <- inception_5a/3x3
I1219 14:14:07.990434 15716 net.cpp:415] inception_5a/3x3_bn -> inception_5a/3x3_bn
I1219 14:14:07.990439 15716 net.cpp:160] Setting up inception_5a/3x3_bn
I1219 14:14:07.990447 15716 net.cpp:167] Top shape: 3 320 7 7 (47040)
I1219 14:14:07.990453 15716 layer_factory.hpp:74] Creating layer inception_5a/relu_3x3
I1219 14:14:07.990456 15716 net.cpp:96] Creating Layer inception_5a/relu_3x3
I1219 14:14:07.990463 15716 net.cpp:459] inception_5a/relu_3x3 <- inception_5a/3x3_bn
I1219 14:14:07.990470 15716 net.cpp:404] inception_5a/relu_3x3 -> inception_5a/3x3_bn (in-place)
I1219 14:14:07.990474 15716 net.cpp:160] Setting up inception_5a/relu_3x3
I1219 14:14:07.990478 15716 net.cpp:167] Top shape: 3 320 7 7 (47040)
I1219 14:14:07.990480 15716 layer_factory.hpp:74] Creating layer inception_5a/double_3x3_reduce
I1219 14:14:07.990484 15716 net.cpp:96] Creating Layer inception_5a/double_3x3_reduce
I1219 14:14:07.990487 15716 net.cpp:459] inception_5a/double_3x3_reduce <- inception_4e/output_inception_4e/output_0_split_2
I1219 14:14:07.990490 15716 net.cpp:415] inception_5a/double_3x3_reduce -> inception_5a/double_3x3_reduce
I1219 14:14:07.990494 15716 net.cpp:160] Setting up inception_5a/double_3x3_reduce
I1219 14:14:07.991529 15716 net.cpp:167] Top shape: 3 160 7 7 (23520)
I1219 14:14:07.991539 15716 layer_factory.hpp:74] Creating layer inception_5a/double_3x3_reduce_bn
I1219 14:14:07.991541 15716 layer_factory.cpp:177] Layer inception_5a/double_3x3_reduce_bn is using CAFFE engine.
I1219 14:14:07.991546 15716 net.cpp:96] Creating Layer inception_5a/double_3x3_reduce_bn
I1219 14:14:07.991549 15716 net.cpp:459] inception_5a/double_3x3_reduce_bn <- inception_5a/double_3x3_reduce
I1219 14:14:07.991554 15716 net.cpp:415] inception_5a/double_3x3_reduce_bn -> inception_5a/double_3x3_reduce_bn
I1219 14:14:07.991559 15716 net.cpp:160] Setting up inception_5a/double_3x3_reduce_bn
I1219 14:14:07.991569 15716 net.cpp:167] Top shape: 3 160 7 7 (23520)
I1219 14:14:07.991578 15716 layer_factory.hpp:74] Creating layer inception_5a/relu_double_3x3_reduce
I1219 14:14:07.991586 15716 net.cpp:96] Creating Layer inception_5a/relu_double_3x3_reduce
I1219 14:14:07.991591 15716 net.cpp:459] inception_5a/relu_double_3x3_reduce <- inception_5a/double_3x3_reduce_bn
I1219 14:14:07.991597 15716 net.cpp:404] inception_5a/relu_double_3x3_reduce -> inception_5a/double_3x3_reduce_bn (in-place)
I1219 14:14:07.991605 15716 net.cpp:160] Setting up inception_5a/relu_double_3x3_reduce
I1219 14:14:07.991608 15716 net.cpp:167] Top shape: 3 160 7 7 (23520)
I1219 14:14:07.991611 15716 layer_factory.hpp:74] Creating layer inception_5a/double_3x3_1
I1219 14:14:07.991616 15716 net.cpp:96] Creating Layer inception_5a/double_3x3_1
I1219 14:14:07.991618 15716 net.cpp:459] inception_5a/double_3x3_1 <- inception_5a/double_3x3_reduce_bn
I1219 14:14:07.991623 15716 net.cpp:415] inception_5a/double_3x3_1 -> inception_5a/double_3x3_1
I1219 14:14:07.991628 15716 net.cpp:160] Setting up inception_5a/double_3x3_1
I1219 14:14:07.993580 15716 net.cpp:167] Top shape: 3 224 7 7 (32928)
I1219 14:14:07.993588 15716 layer_factory.hpp:74] Creating layer inception_5a/double_3x3_1_bn
I1219 14:14:07.993592 15716 layer_factory.cpp:177] Layer inception_5a/double_3x3_1_bn is using CAFFE engine.
I1219 14:14:07.993597 15716 net.cpp:96] Creating Layer inception_5a/double_3x3_1_bn
I1219 14:14:07.993600 15716 net.cpp:459] inception_5a/double_3x3_1_bn <- inception_5a/double_3x3_1
I1219 14:14:07.993604 15716 net.cpp:415] inception_5a/double_3x3_1_bn -> inception_5a/double_3x3_1_bn
I1219 14:14:07.993609 15716 net.cpp:160] Setting up inception_5a/double_3x3_1_bn
I1219 14:14:07.993619 15716 net.cpp:167] Top shape: 3 224 7 7 (32928)
I1219 14:14:07.993625 15716 layer_factory.hpp:74] Creating layer inception_5a/relu_double_3x3_1
I1219 14:14:07.993629 15716 net.cpp:96] Creating Layer inception_5a/relu_double_3x3_1
I1219 14:14:07.993633 15716 net.cpp:459] inception_5a/relu_double_3x3_1 <- inception_5a/double_3x3_1_bn
I1219 14:14:07.993635 15716 net.cpp:404] inception_5a/relu_double_3x3_1 -> inception_5a/double_3x3_1_bn (in-place)
I1219 14:14:07.993639 15716 net.cpp:160] Setting up inception_5a/relu_double_3x3_1
I1219 14:14:07.993643 15716 net.cpp:167] Top shape: 3 224 7 7 (32928)
I1219 14:14:07.993645 15716 layer_factory.hpp:74] Creating layer inception_5a/double_3x3_2
I1219 14:14:07.993650 15716 net.cpp:96] Creating Layer inception_5a/double_3x3_2
I1219 14:14:07.993654 15716 net.cpp:459] inception_5a/double_3x3_2 <- inception_5a/double_3x3_1_bn
I1219 14:14:07.993664 15716 net.cpp:415] inception_5a/double_3x3_2 -> inception_5a/double_3x3_2
I1219 14:14:07.993667 15716 net.cpp:160] Setting up inception_5a/double_3x3_2
I1219 14:14:07.996418 15716 net.cpp:167] Top shape: 3 224 7 7 (32928)
I1219 14:14:07.996429 15716 layer_factory.hpp:74] Creating layer inception_5a/double_3x3_2_bn
I1219 14:14:07.996433 15716 layer_factory.cpp:177] Layer inception_5a/double_3x3_2_bn is using CAFFE engine.
I1219 14:14:07.996438 15716 net.cpp:96] Creating Layer inception_5a/double_3x3_2_bn
I1219 14:14:07.996441 15716 net.cpp:459] inception_5a/double_3x3_2_bn <- inception_5a/double_3x3_2
I1219 14:14:07.996446 15716 net.cpp:415] inception_5a/double_3x3_2_bn -> inception_5a/double_3x3_2_bn
I1219 14:14:07.996451 15716 net.cpp:160] Setting up inception_5a/double_3x3_2_bn
I1219 14:14:07.996461 15716 net.cpp:167] Top shape: 3 224 7 7 (32928)
I1219 14:14:07.996466 15716 layer_factory.hpp:74] Creating layer inception_5a/relu_double_3x3_2
I1219 14:14:07.996470 15716 net.cpp:96] Creating Layer inception_5a/relu_double_3x3_2
I1219 14:14:07.996474 15716 net.cpp:459] inception_5a/relu_double_3x3_2 <- inception_5a/double_3x3_2_bn
I1219 14:14:07.996477 15716 net.cpp:404] inception_5a/relu_double_3x3_2 -> inception_5a/double_3x3_2_bn (in-place)
I1219 14:14:07.996480 15716 net.cpp:160] Setting up inception_5a/relu_double_3x3_2
I1219 14:14:07.996484 15716 net.cpp:167] Top shape: 3 224 7 7 (32928)
I1219 14:14:07.996486 15716 layer_factory.hpp:74] Creating layer inception_5a/pool
I1219 14:14:07.996492 15716 net.cpp:96] Creating Layer inception_5a/pool
I1219 14:14:07.996495 15716 net.cpp:459] inception_5a/pool <- inception_4e/output_inception_4e/output_0_split_3
I1219 14:14:07.996500 15716 net.cpp:415] inception_5a/pool -> inception_5a/pool
I1219 14:14:07.996503 15716 net.cpp:160] Setting up inception_5a/pool
I1219 14:14:07.996508 15716 net.cpp:167] Top shape: 3 1056 7 7 (155232)
I1219 14:14:07.996511 15716 layer_factory.hpp:74] Creating layer inception_5a/pool_proj
I1219 14:14:07.996516 15716 net.cpp:96] Creating Layer inception_5a/pool_proj
I1219 14:14:07.996520 15716 net.cpp:459] inception_5a/pool_proj <- inception_5a/pool
I1219 14:14:07.996523 15716 net.cpp:415] inception_5a/pool_proj -> inception_5a/pool_proj
I1219 14:14:07.996527 15716 net.cpp:160] Setting up inception_5a/pool_proj
I1219 14:14:07.997344 15716 net.cpp:167] Top shape: 3 128 7 7 (18816)
I1219 14:14:07.997350 15716 layer_factory.hpp:74] Creating layer inception_5a/pool_proj_bn
I1219 14:14:07.997354 15716 layer_factory.cpp:177] Layer inception_5a/pool_proj_bn is using CAFFE engine.
I1219 14:14:07.997359 15716 net.cpp:96] Creating Layer inception_5a/pool_proj_bn
I1219 14:14:07.997361 15716 net.cpp:459] inception_5a/pool_proj_bn <- inception_5a/pool_proj
I1219 14:14:07.997365 15716 net.cpp:415] inception_5a/pool_proj_bn -> inception_5a/pool_proj_bn
I1219 14:14:07.997370 15716 net.cpp:160] Setting up inception_5a/pool_proj_bn
I1219 14:14:07.997377 15716 net.cpp:167] Top shape: 3 128 7 7 (18816)
I1219 14:14:07.997382 15716 layer_factory.hpp:74] Creating layer inception_5a/relu_pool_proj
I1219 14:14:07.997386 15716 net.cpp:96] Creating Layer inception_5a/relu_pool_proj
I1219 14:14:07.997390 15716 net.cpp:459] inception_5a/relu_pool_proj <- inception_5a/pool_proj_bn
I1219 14:14:07.997393 15716 net.cpp:404] inception_5a/relu_pool_proj -> inception_5a/pool_proj_bn (in-place)
I1219 14:14:07.997397 15716 net.cpp:160] Setting up inception_5a/relu_pool_proj
I1219 14:14:07.997400 15716 net.cpp:167] Top shape: 3 128 7 7 (18816)
I1219 14:14:07.997403 15716 layer_factory.hpp:74] Creating layer inception_5a/output
I1219 14:14:07.997407 15716 net.cpp:96] Creating Layer inception_5a/output
I1219 14:14:07.997411 15716 net.cpp:459] inception_5a/output <- inception_5a/1x1_bn
I1219 14:14:07.997413 15716 net.cpp:459] inception_5a/output <- inception_5a/3x3_bn
I1219 14:14:07.997417 15716 net.cpp:459] inception_5a/output <- inception_5a/double_3x3_2_bn
I1219 14:14:07.997421 15716 net.cpp:459] inception_5a/output <- inception_5a/pool_proj_bn
I1219 14:14:07.997426 15716 net.cpp:415] inception_5a/output -> inception_5a/output
I1219 14:14:07.997437 15716 net.cpp:160] Setting up inception_5a/output
I1219 14:14:07.997442 15716 net.cpp:167] Top shape: 3 1024 7 7 (150528)
I1219 14:14:07.997444 15716 layer_factory.hpp:74] Creating layer inception_5a/output_inception_5a/output_0_split
I1219 14:14:07.997448 15716 net.cpp:96] Creating Layer inception_5a/output_inception_5a/output_0_split
I1219 14:14:07.997452 15716 net.cpp:459] inception_5a/output_inception_5a/output_0_split <- inception_5a/output
I1219 14:14:07.997455 15716 net.cpp:415] inception_5a/output_inception_5a/output_0_split -> inception_5a/output_inception_5a/output_0_split_0
I1219 14:14:07.997460 15716 net.cpp:415] inception_5a/output_inception_5a/output_0_split -> inception_5a/output_inception_5a/output_0_split_1
I1219 14:14:07.997464 15716 net.cpp:415] inception_5a/output_inception_5a/output_0_split -> inception_5a/output_inception_5a/output_0_split_2
I1219 14:14:07.997468 15716 net.cpp:415] inception_5a/output_inception_5a/output_0_split -> inception_5a/output_inception_5a/output_0_split_3
I1219 14:14:07.997472 15716 net.cpp:160] Setting up inception_5a/output_inception_5a/output_0_split
I1219 14:14:07.997476 15716 net.cpp:167] Top shape: 3 1024 7 7 (150528)
I1219 14:14:07.997480 15716 net.cpp:167] Top shape: 3 1024 7 7 (150528)
I1219 14:14:07.997483 15716 net.cpp:167] Top shape: 3 1024 7 7 (150528)
I1219 14:14:07.997486 15716 net.cpp:167] Top shape: 3 1024 7 7 (150528)
I1219 14:14:07.997488 15716 layer_factory.hpp:74] Creating layer inception_5b/1x1
I1219 14:14:07.997493 15716 net.cpp:96] Creating Layer inception_5b/1x1
I1219 14:14:07.997495 15716 net.cpp:459] inception_5b/1x1 <- inception_5a/output_inception_5a/output_0_split_0
I1219 14:14:07.997500 15716 net.cpp:415] inception_5b/1x1 -> inception_5b/1x1
I1219 14:14:07.997505 15716 net.cpp:160] Setting up inception_5b/1x1
I1219 14:14:07.999665 15716 net.cpp:167] Top shape: 3 352 7 7 (51744)
I1219 14:14:07.999671 15716 layer_factory.hpp:74] Creating layer inception_5b/1x1_bn
I1219 14:14:07.999675 15716 layer_factory.cpp:177] Layer inception_5b/1x1_bn is using CAFFE engine.
I1219 14:14:07.999680 15716 net.cpp:96] Creating Layer inception_5b/1x1_bn
I1219 14:14:07.999683 15716 net.cpp:459] inception_5b/1x1_bn <- inception_5b/1x1
I1219 14:14:07.999687 15716 net.cpp:415] inception_5b/1x1_bn -> inception_5b/1x1_bn
I1219 14:14:07.999691 15716 net.cpp:160] Setting up inception_5b/1x1_bn
I1219 14:14:07.999701 15716 net.cpp:167] Top shape: 3 352 7 7 (51744)
I1219 14:14:07.999706 15716 layer_factory.hpp:74] Creating layer inception_5b/relu_1x1
I1219 14:14:07.999711 15716 net.cpp:96] Creating Layer inception_5b/relu_1x1
I1219 14:14:07.999713 15716 net.cpp:459] inception_5b/relu_1x1 <- inception_5b/1x1_bn
I1219 14:14:07.999716 15716 net.cpp:404] inception_5b/relu_1x1 -> inception_5b/1x1_bn (in-place)
I1219 14:14:07.999721 15716 net.cpp:160] Setting up inception_5b/relu_1x1
I1219 14:14:07.999723 15716 net.cpp:167] Top shape: 3 352 7 7 (51744)
I1219 14:14:07.999727 15716 layer_factory.hpp:74] Creating layer inception_5b/3x3_reduce
I1219 14:14:07.999732 15716 net.cpp:96] Creating Layer inception_5b/3x3_reduce
I1219 14:14:07.999734 15716 net.cpp:459] inception_5b/3x3_reduce <- inception_5a/output_inception_5a/output_0_split_1
I1219 14:14:07.999738 15716 net.cpp:415] inception_5b/3x3_reduce -> inception_5b/3x3_reduce
I1219 14:14:07.999742 15716 net.cpp:160] Setting up inception_5b/3x3_reduce
I1219 14:14:08.000934 15716 net.cpp:167] Top shape: 3 192 7 7 (28224)
I1219 14:14:08.000942 15716 layer_factory.hpp:74] Creating layer inception_5b/3x3_reduce_bn
I1219 14:14:08.000946 15716 layer_factory.cpp:177] Layer inception_5b/3x3_reduce_bn is using CAFFE engine.
I1219 14:14:08.000951 15716 net.cpp:96] Creating Layer inception_5b/3x3_reduce_bn
I1219 14:14:08.000953 15716 net.cpp:459] inception_5b/3x3_reduce_bn <- inception_5b/3x3_reduce
I1219 14:14:08.000958 15716 net.cpp:415] inception_5b/3x3_reduce_bn -> inception_5b/3x3_reduce_bn
I1219 14:14:08.000963 15716 net.cpp:160] Setting up inception_5b/3x3_reduce_bn
I1219 14:14:08.000978 15716 net.cpp:167] Top shape: 3 192 7 7 (28224)
I1219 14:14:08.000983 15716 layer_factory.hpp:74] Creating layer inception_5b/relu_3x3_reduce
I1219 14:14:08.000988 15716 net.cpp:96] Creating Layer inception_5b/relu_3x3_reduce
I1219 14:14:08.000991 15716 net.cpp:459] inception_5b/relu_3x3_reduce <- inception_5b/3x3_reduce_bn
I1219 14:14:08.000995 15716 net.cpp:404] inception_5b/relu_3x3_reduce -> inception_5b/3x3_reduce_bn (in-place)
I1219 14:14:08.000999 15716 net.cpp:160] Setting up inception_5b/relu_3x3_reduce
I1219 14:14:08.001003 15716 net.cpp:167] Top shape: 3 192 7 7 (28224)
I1219 14:14:08.001005 15716 layer_factory.hpp:74] Creating layer inception_5b/3x3
I1219 14:14:08.001010 15716 net.cpp:96] Creating Layer inception_5b/3x3
I1219 14:14:08.001013 15716 net.cpp:459] inception_5b/3x3 <- inception_5b/3x3_reduce_bn
I1219 14:14:08.001018 15716 net.cpp:415] inception_5b/3x3 -> inception_5b/3x3
I1219 14:14:08.001021 15716 net.cpp:160] Setting up inception_5b/3x3
I1219 14:14:08.004331 15716 net.cpp:167] Top shape: 3 320 7 7 (47040)
I1219 14:14:08.004344 15716 layer_factory.hpp:74] Creating layer inception_5b/3x3_bn
I1219 14:14:08.004349 15716 layer_factory.cpp:177] Layer inception_5b/3x3_bn is using CAFFE engine.
I1219 14:14:08.004354 15716 net.cpp:96] Creating Layer inception_5b/3x3_bn
I1219 14:14:08.004356 15716 net.cpp:459] inception_5b/3x3_bn <- inception_5b/3x3
I1219 14:14:08.004364 15716 net.cpp:415] inception_5b/3x3_bn -> inception_5b/3x3_bn
I1219 14:14:08.004369 15716 net.cpp:160] Setting up inception_5b/3x3_bn
I1219 14:14:08.004380 15716 net.cpp:167] Top shape: 3 320 7 7 (47040)
I1219 14:14:08.004386 15716 layer_factory.hpp:74] Creating layer inception_5b/relu_3x3
I1219 14:14:08.004390 15716 net.cpp:96] Creating Layer inception_5b/relu_3x3
I1219 14:14:08.004393 15716 net.cpp:459] inception_5b/relu_3x3 <- inception_5b/3x3_bn
I1219 14:14:08.004397 15716 net.cpp:404] inception_5b/relu_3x3 -> inception_5b/3x3_bn (in-place)
I1219 14:14:08.004401 15716 net.cpp:160] Setting up inception_5b/relu_3x3
I1219 14:14:08.004405 15716 net.cpp:167] Top shape: 3 320 7 7 (47040)
I1219 14:14:08.004407 15716 layer_factory.hpp:74] Creating layer inception_5b/double_3x3_reduce
I1219 14:14:08.004411 15716 net.cpp:96] Creating Layer inception_5b/double_3x3_reduce
I1219 14:14:08.004415 15716 net.cpp:459] inception_5b/double_3x3_reduce <- inception_5a/output_inception_5a/output_0_split_2
I1219 14:14:08.004418 15716 net.cpp:415] inception_5b/double_3x3_reduce -> inception_5b/double_3x3_reduce
I1219 14:14:08.004422 15716 net.cpp:160] Setting up inception_5b/double_3x3_reduce
I1219 14:14:08.005604 15716 net.cpp:167] Top shape: 3 192 7 7 (28224)
I1219 14:14:08.005609 15716 layer_factory.hpp:74] Creating layer inception_5b/double_3x3_reduce_bn
I1219 14:14:08.005612 15716 layer_factory.cpp:177] Layer inception_5b/double_3x3_reduce_bn is using CAFFE engine.
I1219 14:14:08.005616 15716 net.cpp:96] Creating Layer inception_5b/double_3x3_reduce_bn
I1219 14:14:08.005620 15716 net.cpp:459] inception_5b/double_3x3_reduce_bn <- inception_5b/double_3x3_reduce
I1219 14:14:08.005625 15716 net.cpp:415] inception_5b/double_3x3_reduce_bn -> inception_5b/double_3x3_reduce_bn
I1219 14:14:08.005628 15716 net.cpp:160] Setting up inception_5b/double_3x3_reduce_bn
I1219 14:14:08.005637 15716 net.cpp:167] Top shape: 3 192 7 7 (28224)
I1219 14:14:08.005642 15716 layer_factory.hpp:74] Creating layer inception_5b/relu_double_3x3_reduce
I1219 14:14:08.005646 15716 net.cpp:96] Creating Layer inception_5b/relu_double_3x3_reduce
I1219 14:14:08.005650 15716 net.cpp:459] inception_5b/relu_double_3x3_reduce <- inception_5b/double_3x3_reduce_bn
I1219 14:14:08.005652 15716 net.cpp:404] inception_5b/relu_double_3x3_reduce -> inception_5b/double_3x3_reduce_bn (in-place)
I1219 14:14:08.005656 15716 net.cpp:160] Setting up inception_5b/relu_double_3x3_reduce
I1219 14:14:08.005659 15716 net.cpp:167] Top shape: 3 192 7 7 (28224)
I1219 14:14:08.005662 15716 layer_factory.hpp:74] Creating layer inception_5b/double_3x3_1
I1219 14:14:08.005669 15716 net.cpp:96] Creating Layer inception_5b/double_3x3_1
I1219 14:14:08.005676 15716 net.cpp:459] inception_5b/double_3x3_1 <- inception_5b/double_3x3_reduce_bn
I1219 14:14:08.005681 15716 net.cpp:415] inception_5b/double_3x3_1 -> inception_5b/double_3x3_1
I1219 14:14:08.005686 15716 net.cpp:160] Setting up inception_5b/double_3x3_1
I1219 14:14:08.008008 15716 net.cpp:167] Top shape: 3 224 7 7 (32928)
I1219 14:14:08.008014 15716 layer_factory.hpp:74] Creating layer inception_5b/double_3x3_1_bn
I1219 14:14:08.008018 15716 layer_factory.cpp:177] Layer inception_5b/double_3x3_1_bn is using CAFFE engine.
I1219 14:14:08.008023 15716 net.cpp:96] Creating Layer inception_5b/double_3x3_1_bn
I1219 14:14:08.008025 15716 net.cpp:459] inception_5b/double_3x3_1_bn <- inception_5b/double_3x3_1
I1219 14:14:08.008030 15716 net.cpp:415] inception_5b/double_3x3_1_bn -> inception_5b/double_3x3_1_bn
I1219 14:14:08.008034 15716 net.cpp:160] Setting up inception_5b/double_3x3_1_bn
I1219 14:14:08.008044 15716 net.cpp:167] Top shape: 3 224 7 7 (32928)
I1219 14:14:08.008049 15716 layer_factory.hpp:74] Creating layer inception_5b/relu_double_3x3_1
I1219 14:14:08.008051 15716 net.cpp:96] Creating Layer inception_5b/relu_double_3x3_1
I1219 14:14:08.008055 15716 net.cpp:459] inception_5b/relu_double_3x3_1 <- inception_5b/double_3x3_1_bn
I1219 14:14:08.008059 15716 net.cpp:404] inception_5b/relu_double_3x3_1 -> inception_5b/double_3x3_1_bn (in-place)
I1219 14:14:08.008062 15716 net.cpp:160] Setting up inception_5b/relu_double_3x3_1
I1219 14:14:08.008065 15716 net.cpp:167] Top shape: 3 224 7 7 (32928)
I1219 14:14:08.008067 15716 layer_factory.hpp:74] Creating layer inception_5b/double_3x3_2
I1219 14:14:08.008072 15716 net.cpp:96] Creating Layer inception_5b/double_3x3_2
I1219 14:14:08.008075 15716 net.cpp:459] inception_5b/double_3x3_2 <- inception_5b/double_3x3_1_bn
I1219 14:14:08.008080 15716 net.cpp:415] inception_5b/double_3x3_2 -> inception_5b/double_3x3_2
I1219 14:14:08.008083 15716 net.cpp:160] Setting up inception_5b/double_3x3_2
I1219 14:14:08.010804 15716 net.cpp:167] Top shape: 3 224 7 7 (32928)
I1219 14:14:08.010812 15716 layer_factory.hpp:74] Creating layer inception_5b/double_3x3_2_bn
I1219 14:14:08.010814 15716 layer_factory.cpp:177] Layer inception_5b/double_3x3_2_bn is using CAFFE engine.
I1219 14:14:08.010819 15716 net.cpp:96] Creating Layer inception_5b/double_3x3_2_bn
I1219 14:14:08.010823 15716 net.cpp:459] inception_5b/double_3x3_2_bn <- inception_5b/double_3x3_2
I1219 14:14:08.010826 15716 net.cpp:415] inception_5b/double_3x3_2_bn -> inception_5b/double_3x3_2_bn
I1219 14:14:08.010831 15716 net.cpp:160] Setting up inception_5b/double_3x3_2_bn
I1219 14:14:08.010841 15716 net.cpp:167] Top shape: 3 224 7 7 (32928)
I1219 14:14:08.010846 15716 layer_factory.hpp:74] Creating layer inception_5b/relu_double_3x3_2
I1219 14:14:08.010851 15716 net.cpp:96] Creating Layer inception_5b/relu_double_3x3_2
I1219 14:14:08.010854 15716 net.cpp:459] inception_5b/relu_double_3x3_2 <- inception_5b/double_3x3_2_bn
I1219 14:14:08.010857 15716 net.cpp:404] inception_5b/relu_double_3x3_2 -> inception_5b/double_3x3_2_bn (in-place)
I1219 14:14:08.010861 15716 net.cpp:160] Setting up inception_5b/relu_double_3x3_2
I1219 14:14:08.010864 15716 net.cpp:167] Top shape: 3 224 7 7 (32928)
I1219 14:14:08.010867 15716 layer_factory.hpp:74] Creating layer inception_5b/pool
I1219 14:14:08.010871 15716 net.cpp:96] Creating Layer inception_5b/pool
I1219 14:14:08.010874 15716 net.cpp:459] inception_5b/pool <- inception_5a/output_inception_5a/output_0_split_3
I1219 14:14:08.010879 15716 net.cpp:415] inception_5b/pool -> inception_5b/pool
I1219 14:14:08.010884 15716 net.cpp:160] Setting up inception_5b/pool
I1219 14:14:08.010888 15716 net.cpp:167] Top shape: 3 1024 7 7 (150528)
I1219 14:14:08.010891 15716 layer_factory.hpp:74] Creating layer inception_5b/pool_proj
I1219 14:14:08.010896 15716 net.cpp:96] Creating Layer inception_5b/pool_proj
I1219 14:14:08.010900 15716 net.cpp:459] inception_5b/pool_proj <- inception_5b/pool
I1219 14:14:08.010907 15716 net.cpp:415] inception_5b/pool_proj -> inception_5b/pool_proj
I1219 14:14:08.010915 15716 net.cpp:160] Setting up inception_5b/pool_proj
I1219 14:14:08.011708 15716 net.cpp:167] Top shape: 3 128 7 7 (18816)
I1219 14:14:08.011713 15716 layer_factory.hpp:74] Creating layer inception_5b/pool_proj_bn
I1219 14:14:08.011715 15716 layer_factory.cpp:177] Layer inception_5b/pool_proj_bn is using CAFFE engine.
I1219 14:14:08.011719 15716 net.cpp:96] Creating Layer inception_5b/pool_proj_bn
I1219 14:14:08.011723 15716 net.cpp:459] inception_5b/pool_proj_bn <- inception_5b/pool_proj
I1219 14:14:08.011728 15716 net.cpp:415] inception_5b/pool_proj_bn -> inception_5b/pool_proj_bn
I1219 14:14:08.011731 15716 net.cpp:160] Setting up inception_5b/pool_proj_bn
I1219 14:14:08.011741 15716 net.cpp:167] Top shape: 3 128 7 7 (18816)
I1219 14:14:08.011746 15716 layer_factory.hpp:74] Creating layer inception_5b/relu_pool_proj
I1219 14:14:08.011749 15716 net.cpp:96] Creating Layer inception_5b/relu_pool_proj
I1219 14:14:08.011752 15716 net.cpp:459] inception_5b/relu_pool_proj <- inception_5b/pool_proj_bn
I1219 14:14:08.011755 15716 net.cpp:404] inception_5b/relu_pool_proj -> inception_5b/pool_proj_bn (in-place)
I1219 14:14:08.011759 15716 net.cpp:160] Setting up inception_5b/relu_pool_proj
I1219 14:14:08.011762 15716 net.cpp:167] Top shape: 3 128 7 7 (18816)
I1219 14:14:08.011765 15716 layer_factory.hpp:74] Creating layer inception_5b/output
I1219 14:14:08.011770 15716 net.cpp:96] Creating Layer inception_5b/output
I1219 14:14:08.011772 15716 net.cpp:459] inception_5b/output <- inception_5b/1x1_bn
I1219 14:14:08.011776 15716 net.cpp:459] inception_5b/output <- inception_5b/3x3_bn
I1219 14:14:08.011780 15716 net.cpp:459] inception_5b/output <- inception_5b/double_3x3_2_bn
I1219 14:14:08.011782 15716 net.cpp:459] inception_5b/output <- inception_5b/pool_proj_bn
I1219 14:14:08.011786 15716 net.cpp:415] inception_5b/output -> inception_5b/output
I1219 14:14:08.011790 15716 net.cpp:160] Setting up inception_5b/output
I1219 14:14:08.011795 15716 net.cpp:167] Top shape: 3 1024 7 7 (150528)
I1219 14:14:08.011798 15716 layer_factory.hpp:74] Creating layer global_pool
I1219 14:14:08.011802 15716 net.cpp:96] Creating Layer global_pool
I1219 14:14:08.011806 15716 net.cpp:459] global_pool <- inception_5b/output
I1219 14:14:08.011811 15716 net.cpp:415] global_pool -> global_pool
I1219 14:14:08.011813 15716 net.cpp:160] Setting up global_pool
I1219 14:14:08.011818 15716 net.cpp:167] Top shape: 3 1024 1 1 (3072)
I1219 14:14:08.011821 15716 layer_factory.hpp:74] Creating layer dropout
I1219 14:14:08.011826 15716 net.cpp:96] Creating Layer dropout
I1219 14:14:08.011827 15716 net.cpp:459] dropout <- global_pool
I1219 14:14:08.011831 15716 net.cpp:404] dropout -> global_pool (in-place)
I1219 14:14:08.011836 15716 net.cpp:160] Setting up dropout
I1219 14:14:08.011839 15716 net.cpp:167] Top shape: 3 1024 1 1 (3072)
I1219 14:14:08.011842 15716 layer_factory.hpp:74] Creating layer fc-action
I1219 14:14:08.011848 15716 net.cpp:96] Creating Layer fc-action
I1219 14:14:08.011850 15716 net.cpp:459] fc-action <- global_pool
I1219 14:14:08.011855 15716 net.cpp:415] fc-action -> fc
I1219 14:14:08.011859 15716 net.cpp:160] Setting up fc-action
I1219 14:14:08.013922 15716 net.cpp:167] Top shape: 3 101 (303)
I1219 14:14:08.013929 15716 layer_factory.hpp:74] Creating layer reshape_fc
I1219 14:14:08.013934 15716 net.cpp:96] Creating Layer reshape_fc
I1219 14:14:08.013937 15716 net.cpp:459] reshape_fc <- fc
I1219 14:14:08.013942 15716 net.cpp:415] reshape_fc -> reshape_fc
I1219 14:14:08.013947 15716 net.cpp:160] Setting up reshape_fc
I1219 14:14:08.013953 15716 net.cpp:167] Top shape: 1 1 3 101 (303)
I1219 14:14:08.013957 15716 layer_factory.hpp:74] Creating layer pool_fusion
I1219 14:14:08.013960 15716 net.cpp:96] Creating Layer pool_fusion
I1219 14:14:08.013963 15716 net.cpp:459] pool_fusion <- reshape_fc
I1219 14:14:08.013967 15716 net.cpp:415] pool_fusion -> pool_fc
I1219 14:14:08.013972 15716 net.cpp:160] Setting up pool_fusion
I1219 14:14:08.013977 15716 net.cpp:167] Top shape: 1 1 1 101 (101)
I1219 14:14:08.013984 15716 layer_factory.hpp:74] Creating layer pool_fc_pool_fusion_0_split
I1219 14:14:08.013988 15716 net.cpp:96] Creating Layer pool_fc_pool_fusion_0_split
I1219 14:14:08.013991 15716 net.cpp:459] pool_fc_pool_fusion_0_split <- pool_fc
I1219 14:14:08.013995 15716 net.cpp:415] pool_fc_pool_fusion_0_split -> pool_fc_pool_fusion_0_split_0
I1219 14:14:08.013999 15716 net.cpp:415] pool_fc_pool_fusion_0_split -> pool_fc_pool_fusion_0_split_1
I1219 14:14:08.014003 15716 net.cpp:160] Setting up pool_fc_pool_fusion_0_split
I1219 14:14:08.014008 15716 net.cpp:167] Top shape: 1 1 1 101 (101)
I1219 14:14:08.014010 15716 net.cpp:167] Top shape: 1 1 1 101 (101)
I1219 14:14:08.014014 15716 layer_factory.hpp:74] Creating layer loss
I1219 14:14:08.014019 15716 net.cpp:96] Creating Layer loss
I1219 14:14:08.014021 15716 net.cpp:459] loss <- pool_fc_pool_fusion_0_split_0
I1219 14:14:08.014025 15716 net.cpp:459] loss <- label_data_1_split_0
I1219 14:14:08.014029 15716 net.cpp:415] loss -> loss
I1219 14:14:08.014034 15716 net.cpp:160] Setting up loss
…
