…
    mean_value: 123
    mean_value: 104
    mean_value: 117
    mean_value: 123
    mean_value: 104
    mean_value: 117
    mean_value: 123
    fix_crop: true
    multi_scale: true
    scale_ratios: 1
    scale_ratios: 0.875
    scale_ratios: 0.75
    scale_ratios: 0.66
    max_distort: 1
    is_flow: false
    more_fix_crop: true
  }
  video_data_param {
    source: "/home/hadoop/whx/dataset/ucf101/train_rgb_split1.txt"
    batch_size: 24
    shuffle: true
    new_length: 1
    num_segments: 3
    modality: RGB
    name_pattern: "frame%06d.jpg"
  }
}
layer {
  name: "reshape_data"
  type: "Reshape"
  bottom: "data"
  top: "reshape_data"
  reshape_param {
    shape {
      dim: -1
      dim: 3
      dim: 224
      dim: 224
    }
  }
}
layer {
  name: "conv1/7x7_s2"
  type: "Convolution"
  bottom: "reshape_data"
  top: "conv1/7x7_s2"
  param {
    lr_mult: 1
    decay_mult: 1
  }
  param {
    lr_mult: 2
    decay_mult: 0
  }
  convolution_param {
    num_output: 64
    pad: 3
    kernel_size: 7
    stride: 2
    weight_filler {
      type: "xavier"
    }
    bias_filler {
      type: "constant"
      value: 0.2
    }
  }
}
layer {
  name: "conv1/7x7_s2_bn"
  type: "BN"
  bottom: "conv1/7x7_s2"
  top: "conv1/7x7_s2_bn"
  param {
    lr_mult: 1
    decay_mult: 0
  }
  param {
    lr_mult: 1
    decay_mult: 0
  }
  bn_param {
    slope_filler {
      type: "constant"
      value: 1
    }
    bias_filler {
      type: "constant"
      value: 0
    }
    frozen: false
  }
}
layer {
  name: "conv1/relu_7x7"
  type: "ReLU"
  bottom: "conv1/7x7_s2_bn"
  top: "conv1/7x7_s2_bn"
}
layer {
  name: "pool1/3x3_s2"
  type: "Pooling"
  bottom: "conv1/7x7_s2_bn"
  top: "pool1/3x3_s2"
  pooling_param {
    pool: MAX
    kernel_size: 3
    stride: 2
  }
}
layer {
  name: "conv2/3x3_reduce"
  type: "Convolution"
  bottom: "pool1/3x3_s2"
  top: "conv2/3x3_reduce"
  param {
    lr_mult: 1
    decay_mult: 1
  }
  param {
    lr_mult: 2
    decay_mult: 0
  }
  convolution_param {
    num_output: 64
    kernel_size: 1
    weight_filler {
      type: "xavier"
    }
    bias_filler {
      type: "constant"
      value: 0.2
    }
  }
}
layer {
  name: "conv2/3x3_reduce_bn"
  type: "BN"
  bottom: "conv2/3x3_reduce"
  top: "conv2/3x3_reduce_bn"
  param {
    lr_mult: 1
    decay_mult: 0
  }
  param {
    lr_mult: 1
    decay_mult: 0
  }
  bn_param {
    slope_filler {
      type: "constant"
      value: 1
    }
    bias_filler {
      type: "constant"
      value: 0
    }
    frozen: true
  }
}
layer {
  name: "conv2/relu_3x3_reduce"
  type: "ReLU"
  bottom: "conv2/3x3_reduce_bn"
  top: "conv2/3x3_reduce_bn"
}
layer {
  name: "conv2/3x3"
  type: "Convolution"
  bottom: "conv2/3x3_reduce_bn"
  top: "conv2/3x3"
  param {
    lr_mult: 1
    decay_mult: 1
  }
  param {
    lr_mult: 2
    decay_mult: 0
  }
  convolution_param {
    num_output: 192
    pad: 1
    kernel_size: 3
    weight_filler {
      type: "xavier"
    }
    bias_filler {
      type: "constant"
      value: 0.2
    }
  }
}
layer {
  name: "conv2/3x3_bn"
  type: "BN"
  bottom: "conv2/3x3"
  top: "conv2/3x3_bn"
  param {
    lr_mult: 1
    decay_mult: 0
  }
  param {
    lr_mult: 1
    decay_mult: 0
  }
  bn_param {
    slope_filler {
      type: "constant"
      value: 1
    }
    bias_filler {
      type: "constant"
      value: 0
    }
    frozen: true
  }
}
layer {
  name: "conv2/relu_3x3"
  type: "ReLU"
  bottom: "conv2/3x3_bn"
  top: "conv2/3x3_bn"
}
layer {
  name: "pool2/3x3_s2"
  type: "Pooling"
  bottom: "conv2/3x3_bn"
  top: "pool2/3x3_s2"
  pooling_param {
    pool: MAX
    kernel_size: 3
    stride: 2
  }
}
layer {
  name: "inception_3a/1x1"
  type: "Convolution"
  bottom: "pool2/3x3_s2"
  top: "inception_3a/1x1"
  param {
    lr_mult: 1
    decay_mult: 1
  }
  param {
    lr_mult: 2
    decay_mult: 0
  }
  convolution_param {
    num_output: 64
    kernel_size: 1
    weight_filler {
      type: "xavier"
    }
    bias_filler {
      type: "constant"
      value: 0.2
    }
  }
}
layer {
  name: "inception_3a/1x1_bn"
  type: "BN"
  bottom: "inception_3a/1x1"
  top: "inception_3a/1x1_bn"
  param {
    lr_mult: 1
    decay_mult: 0
  }
  param {
    lr_mult: 1
    decay_mult: 0
  }
  bn_param {
    slope_filler {
      type: "constant"
      value: 1
    }
    bias_filler {
      type: "constant"
      value: 0
    }
    frozen: true
  }
}
layer {
  name: "inception_3a/relu_1x1"
  type: "ReLU"
  bottom: "inception_3a/1x1_bn"
  top: "inception_3a/1x1_bn"
}
layer {
  name: "inception_3a/3x3_reduce"
  type: "Convolution"
  bottom: "pool2/3x3_s2"
  top: "inception_3a/3x3_reduce"
  param {
    lr_mult: 1
    decay_mult: 1
  }
  param {
    lr_mult: 2
    decay_mult: 0
  }
  convolution_param {
    num_output: 64
    kernel_size: 1
    weight_filler {
      type: "xavier"
    }
    bias_filler {
      type: "constant"
      value: 0.2
    }
  }
}
layer {
  name: "inception_3a/3x3_reduce_bn"
  type: "BN"
  bottom: "inception_3a/3x3_reduce"
  top: "inception_3a/3x3_reduce_bn"
  param {
    lr_mult: 1
    decay_mult: 0
  }
  param {
    lr_mult: 1
    decay_mult: 0
  }
  bn_param {
    slope_filler {
      type: "constant"
      value: 1
    }
    bias_filler {
      type: "constant"
      value: 0
    }
    frozen: true
  }
}
layer {
  name: "inception_3a/relu_3x3_reduce"
  type: "ReLU"
  bottom: "inception_3a/3x3_reduce_bn"
  top: "inception_3a/3x3_reduce_bn"
}
layer {
  name: "inception_3a/3x3"
  type: "Convolution"
  bottom: "inception_3a/3x3_reduce_bn"
  top: "inception_3a/3x3"
  param {
    lr_mult: 1
    decay_mult: 1
  }
  param {
    lr_mult: 2
    decay_mult: 0
  }
  convolution_param {
    num_output: 64
    pad: 1
    kernel_size: 3
    weight_filler {
      type: "xavier"
    }
    bias_filler {
      type: "constant"
      value: 0.2
    }
  }
}
layer {
  name: "inception_3a/3x3_bn"
  type: "BN"
  bottom: "inception_3a/3x3"
  top: "inception_3a/3x3_bn"
  param {
    lr_mult: 1
    decay_mult: 0
  }
  param {
    lr_mult: 1
    decay_mult: 0
  }
  bn_param {
    slope_filler {
      type: "constant"
      value: 1
    }
    bias_filler {
      type: "constant"
      value: 0
    }
    frozen: true
  }
}
layer {
  name: "inception_3a/relu_3x3"
  type: "ReLU"
  bottom: "inception_3a/3x3_bn"
  top: "inception_3a/3x3_bn"
}
layer {
  name: "inception_3a/double_3x3_reduce"
  type: "Convolution"
  bottom: "pool2/3x3_s2"
  top: "inception_3a/double_3x3_reduce"
  param {
    lr_mult: 1
    decay_mult: 1
  }
  param {
    lr_mult: 2
    decay_mult: 0
  }
  convolution_param {
    num_output: 64
    kernel_size: 1
    weight_filler {
      type: "xavier"
    }
    bias_filler {
      type: "constant"
      value: 0.2
    }
  }
}
layer {
  name: "inception_3a/double_3x3_reduce_bn"
  type: "BN"
  bottom: "inception_3a/double_3x3_reduce"
  top: "inception_3a/double_3x3_reduce_bn"
  param {
    lr_mult: 1
    decay_mult: 0
  }
  param {
    lr_mult: 1
    decay_mult: 0
  }
  bn_param {
    slope_filler {
      type: "constant"
      value: 1
    }
    bias_filler {
      type: "constant"
      value: 0
    }
    frozen: true
  }
}
layer {
  name: "inception_3a/relu_double_3x3_reduce"
  type: "ReLU"
  bottom: "inception_3a/double_3x3_reduce_bn"
  top: "inception_3a/double_3x3_reduce_bn"
}
layer {
  name: "inception_3a/double_3x3_1"
  type: "Convolution"
  bottom: "inception_3a/double_3x3_reduce_bn"
  top: "inception_3a/double_3x3_1"
  param {
    lr_mult: 1
    decay_mult: 1
  }
  param {
    lr_mult: 2
    decay_mult: 0
  }
  convolution_param {
    num_output: 96
    pad: 1
    kernel_size: 3
    weight_filler {
      type: "xavier"
    }
    bias_filler {
      type: "constant"
      value: 0.2
    }
  }
}
layer {
  name: "inception_3a/double_3x3_1_bn"
  type: "BN"
  bottom: "inception_3a/double_3x3_1"
  top: "inception_3a/double_3x3_1_bn"
  param {
    lr_mult: 1
    decay_mult: 0
  }
  param {
    lr_mult: 1
    decay_mult: 0
  }
  bn_param {
    slope_filler {
      type: "constant"
      value: 1
    }
    bias_filler {
      type: "constant"
      value: 0
    }
    frozen: true
  }
}
layer {
  name: "inception_3a/relu_double_3x3_1"
  type: "ReLU"
  bottom: "inception_3a/double_3x3_1_bn"
  top: "inception_3a/double_3x3_1_bn"
}
layer {
  name: "inception_3a/double_3x3_2"
  type: "Convolution"
  bottom: "inception_3a/double_3x3_1_bn"
  top: "inception_3a/double_3x3_2"
  param {
    lr_mult: 1
    decay_mult: 1
  }
  param {
    lr_mult: 2
    decay_mult: 0
  }
  convolution_param {
    num_output: 96
    pad: 1
    kernel_size: 3
    weight_filler {
      type: "xavier"
    }
    bias_filler {
      type: "constant"
      value: 0.2
    }
  }
}
layer {
  name: "inception_3a/double_3x3_2_bn"
  type: "BN"
  bottom: "inception_3a/double_3x3_2"
  top: "inception_3a/double_3x3_2_bn"
  param {
    lr_mult: 1
    decay_mult: 0
  }
  param {
    lr_mult: 1
    decay_mult: 0
  }
  bn_param {
    slope_filler {
      type: "constant"
      value: 1
    }
    bias_filler {
      type: "constant"
      value: 0
    }
    frozen: true
  }
}
layer {
  name: "inception_3a/relu_double_3x3_2"
  type: "ReLU"
  bottom: "inception_3a/double_3x3_2_bn"
  top: "inception_3a/double_3x3_2_bn"
}
layer {
  name: "inception_3a/pool"
  type: "Pooling"
  bottom: "pool2/3x3_s2"
  top: "inception_3a/pool"
  pooling_param {
    pool: AVE
    kernel_size: 3
    stride: 1
    pad: 1
  }
}
layer {
  name: "inception_3a/pool_proj"
  type: "Convolution"
  bottom: "inception_3a/pool"
  top: "inception_3a/pool_proj"
  param {
    lr_mult: 1
    decay_mult: 1
  }
  param {
    lr_mult: 2
    decay_mult: 0
  }
  convolution_param {
    num_output: 32
    kernel_size: 1
    weight_filler {
      type: "xavier"
    }
    bias_filler {
      type: "constant"
      value: 0.2
    }
  }
}
layer {
  name: "inception_3a/pool_proj_bn"
  type: "BN"
  bottom: "inception_3a/pool_proj"
  top: "inception_3a/pool_proj_bn"
  param {
    lr_mult: 1
    decay_mult: 0
  }
  param {
    lr_mult: 1
    decay_mult: 0
  }
  bn_param {
    slope_filler {
      type: "constant"
      value: 1
    }
    bias_filler {
      type: "constant"
      value: 0
    }
    frozen: true
  }
}
layer {
  name: "inception_3a/relu_pool_proj"
  type: "ReLU"
  bottom: "inception_3a/pool_proj_bn"
  top: "inception_3a/pool_proj_bn"
}
layer {
  name: "inception_3a/output"
  type: "Concat"
  bottom: "inception_3a/1x1_bn"
  bottom: "inception_3a/3x3_bn"
  bottom: "inception_3a/double_3x3_2_bn"
  bottom: "inception_3a/pool_proj_bn"
  top: "inception_3a/output"
}
layer {
  name: "inception_3b/1x1"
  type: "Convolution"
  bottom: "inception_3a/output"
  top: "inception_3b/1x1"
  param {
    lr_mult: 1
    decay_mult: 1
  }
  param {
    lr_mult: 2
    decay_mult: 0
  }
  convolution_param {
    num_output: 64
    kernel_size: 1
    weight_filler {
      type: "xavier"
    }
    bias_filler {
      type: "constant"
      value: 0.2
    }
  }
}
layer {
  name: "inception_3b/1x1_bn"
  type: "BN"
  bottom: "inception_3b/1x1"
  top: "inception_3b/1x1_bn"
  param {
    lr_mult: 1
    decay_mult: 0
  }
  param {
    lr_mult: 1
    decay_mult: 0
  }
  bn_param {
    slope_filler {
      type: "constant"
      value: 1
    }
    bias_filler {
      type: "constant"
      value: 0
    }
    frozen: true
  }
}
layer {
  name: "inception_3b/relu_1x1"
  type: "ReLU"
  bottom: "inception_3b/1x1_bn"
  top: "inception_3b/1x1_bn"
}
layer {
  name: "inception_3b/3x3_reduce"
  type: "Convolution"
  bottom: "inception_3a/output"
  top: "inception_3b/3x3_reduce"
  param {
    lr_mult: 1
    decay_mult: 1
  }
  param {
    lr_mult: 2
    decay_mult: 0
  }
  convolution_param {
    num_output: 64
    kernel_size: 1
    weight_filler {
      type: "xavier"
    }
    bias_filler {
      type: "constant"
      value: 0.2
    }
  }
}
layer {
  name: "inception_3b/3x3_reduce_bn"
  type: "BN"
  bottom: "inception_3b/3x3_reduce"
  top: "inception_3b/3x3_reduce_bn"
  param {
    lr_mult: 1
    decay_mult: 0
  }
  param {
    lr_mult: 1
    decay_mult: 0
  }
  bn_param {
    slope_filler {
      type: "constant"
      value: 1
    }
    bias_filler {
      type: "constant"
      value: 0
    }
    frozen: true
  }
}
layer {
  name: "inception_3b/relu_3x3_reduce"
  type: "ReLU"
  bottom: "inception_3b/3x3_reduce_bn"
  top: "inception_3b/3x3_reduce_bn"
}
layer {
  name: "inception_3b/3x3"
  type: "Convolution"
  bottom: "inception_3b/3x3_reduce_bn"
  top: "inception_3b/3x3"
  param {
    lr_mult: 1
    decay_mult: 1
  }
  param {
    lr_mult: 2
    decay_mult: 0
  }
  convolution_param {
    num_output: 96
    pad: 1
    kernel_size: 3
    weight_filler {
      type: "xavier"
    }
    bias_filler {
      type: "constant"
      value: 0.2
    }
  }
}
layer {
  name: "inception_3b/3x3_bn"
  type: "BN"
  bottom: "inception_3b/3x3"
  top: "inception_3b/3x3_bn"
  param {
    lr_mult: 1
    decay_mult: 0
  }
  param {
    lr_mult: 1
    decay_mult: 0
  }
  bn_param {
    slope_filler {
      type: "constant"
      value: 1
    }
    bias_filler {
      type: "constant"
      value: 0
    }
    frozen: true
  }
}
layer {
  name: "inception_3b/relu_3x3"
  type: "ReLU"
  bottom: "inception_3b/3x3_bn"
  top: "inception_3b/3x3_bn"
}
layer {
  name: "inception_3b/double_3x3_reduce"
  type: "Convolution"
  bottom: "inception_3a/output"
  top: "inception_3b/double_3x3_reduce"
  param {
    lr_mult: 1
    decay_mult: 1
  }
  param {
    lr_mult: 2
    decay_mult: 0
  }
  convolution_param {
    num_output: 64
    kernel_size: 1
    weight_filler {
      type: "xavier"
    }
    bias_filler {
      type: "constant"
      value: 0.2
    }
  }
}
layer {
  name: "inception_3b/double_3x3_reduce_bn"
  type: "BN"
  bottom: "inception_3b/double_3x3_reduce"
  top: "inception_3b/double_3x3_reduce_bn"
  param {
    lr_mult: 1
    decay_mult: 0
  }
  param {
    lr_mult: 1
    decay_mult: 0
  }
  bn_param {
    slope_filler {
      type: "constant"
      value: 1
    }
    bias_filler {
      type: "constant"
      value: 0
    }
    frozen: true
  }
}
layer {
  name: "inception_3b/relu_double_3x3_reduce"
  type: "ReLU"
  bottom: "inception_3b/double_3x3_reduce_bn"
  top: "inception_3b/double_3x3_reduce_bn"
}
layer {
  name: "inception_3b/double_3x3_1"
  type: "Convolution"
  bottom: "inception_3b/double_3x3_reduce_bn"
  top: "inception_3b/double_3x3_1"
  param {
    lr_mult: 1
    decay_mult: 1
  }
  param {
    lr_mult: 2
    decay_mult: 0
  }
  convolution_param {
    num_output: 96
    pad: 1
    kernel_size: 3
    weight_filler {
      type: "xavier"
    }
    bias_filler {
      type: "constant"
      value: 0.2
    }
  }
}
layer {
  name: "inception_3b/double_3x3_1_bn"
  type: "BN"
  bottom: "inception_3b/double_3x3_1"
  top: "inception_3b/double_3x3_1_bn"
  param {
    lr_mult: 1
    decay_mult: 0
  }
  param {
    lr_mult: 1
    decay_mult: 0
  }
  bn_param {
    slope_filler {
      type: "constant"
      value: 1
    }
    bias_filler {
      type: "constant"
      value: 0
    }
    frozen: true
  }
}
layer {
  name: "inception_3b/relu_double_3x3_1"
  type: "ReLU"
  bottom: "inception_3b/double_3x3_1_bn"
  top: "inception_3b/double_3x3_1_bn"
}
layer {
  name: "inception_3b/double_3x3_2"
  type: "Convolution"
  bottom: "inception_3b/double_3x3_1_bn"
  top: "inception_3b/double_3x3_2"
  param {
    lr_mult: 1
    decay_mult: 1
  }
  param {
    lr_mult: 2
    decay_mult: 0
  }
  convolution_param {
    num_output: 96
    pad: 1
    kernel_size: 3
    weight_filler {
      type: "xavier"
    }
    bias_filler {
      type: "constant"
      value: 0.2
    }
  }
}
layer {
  name: "inception_3b/double_3x3_2_bn"
  type: "BN"
  bottom: "inception_3b/double_3x3_2"
  top: "inception_3b/double_3x3_2_bn"
  param {
    lr_mult: 1
    decay_mult: 0
  }
  param {
    lr_mult: 1
    decay_mult: 0
  }
  bn_param {
    slope_filler {
      type: "constant"
      value: 1
    }
    bias_filler {
      type: "constant"
      value: 0
    }
    frozen: true
  }
}
layer {
  name: "inception_3b/relu_double_3x3_2"
  type: "ReLU"
  bottom: "inception_3b/double_3x3_2_bn"
  top: "inception_3b/double_3x3_2_bn"
}
layer {
  name: "inception_3b/pool"
  type: "Pooling"
  bottom: "inception_3a/output"
  top: "inception_3b/pool"
  pooling_param {
    pool: AVE
    kernel_size: 3
    stride: 1
    pad: 1
  }
}
layer {
  name: "inception_3b/pool_proj"
  type: "Convolution"
  bottom: "inception_3b/pool"
  top: "inception_3b/pool_proj"
  param {
    lr_mult: 1
    decay_mult: 1
  }
  param {
    lr_mult: 2
    decay_mult: 0
  }
  convolution_param {
    num_output: 64
    kernel_size: 1
    weight_filler {
      type: "xavier"
    }
    bias_filler {
      type: "constant"
      value: 0.2
    }
  }
}
layer {
  name: "inception_3b/pool_proj_bn"
  type: "BN"
  bottom: "inception_3b/pool_proj"
  top: "inception_3b/pool_proj_bn"
  param {
    lr_mult: 1
    decay_mult: 0
  }
  param {
    lr_mult: 1
    decay_mult: 0
  }
  bn_param {
    slope_filler {
      type: "constant"
      value: 1
    }
    bias_filler {
      type: "constant"
      value: 0
    }
    frozen: true
  }
}
layer {
  name: "inception_3b/relu_pool_proj"
  type: "ReLU"
  bottom: "inception_3b/pool_proj_bn"
  top: "inception_3b/pool_proj_bn"
}
layer {
  name: "inception_3b/output"
  type: "Concat"
  bottom: "inception_3b/1x1_bn"
  bottom: "inception_3b/3x3_bn"
  bottom: "inception_3b/double_3x3_2_bn"
  bottom: "inception_3b/pool_proj_bn"
  top: "inception_3b/output"
}
layer {
  name: "inception_3c/3x3_reduce"
  type: "Convolution"
  bottom: "inception_3b/output"
  top: "inception_3c/3x3_reduce"
  param {
    lr_mult: 1
    decay_mult: 1
  }
  param {
    lr_mult: 2
    decay_mult: 0
  }
  convolution_param {
    num_output: 128
    kernel_size: 1
    weight_filler {
      type: "xavier"
    }
    bias_filler {
      type: "constant"
      value: 0.2
    }
  }
}
layer {
  name: "inception_3c/3x3_reduce_bn"
  type: "BN"
  bottom: "inception_3c/3x3_reduce"
  top: "inception_3c/3x3_reduce_bn"
  param {
    lr_mult: 1
    decay_mult: 0
  }
  param {
    lr_mult: 1
    decay_mult: 0
  }
  bn_param {
    slope_filler {
      type: "constant"
      value: 1
    }
    bias_filler {
      type: "constant"
      value: 0
    }
    frozen: true
  }
}
layer {
  name: "inception_3c/relu_3x3_reduce"
  type: "ReLU"
  bottom: "inception_3c/3x3_reduce_bn"
  top: "inception_3c/3x3_reduce_bn"
}
layer {
  name: "inception_3c/3x3"
  type: "Convolution"
  bottom: "inception_3c/3x3_reduce_bn"
  top: "inception_3c/3x3"
  param {
    lr_mult: 1
    decay_mult: 1
  }
  param {
    lr_mult: 2
    decay_mult: 0
  }
  convolution_param {
    num_output: 160
    pad: 1
    kernel_size: 3
    stride: 2
    weight_filler {
      type: "xavier"
    }
    bias_filler {
      type: "constant"
      value: 0.2
    }
  }
}
layer {
  name: "inception_3c/3x3_bn"
  type: "BN"
  bottom: "inception_3c/3x3"
  top: "inception_3c/3x3_bn"
  param {
    lr_mult: 1
    decay_mult: 0
  }
  param {
    lr_mult: 1
    decay_mult: 0
  }
  bn_param {
    slope_filler {
      type: "constant"
      value: 1
    }
    bias_filler {
      type: "constant"
      value: 0
    }
    frozen: true
  }
}
layer {
  name: "inception_3c/relu_3x3"
  type: "ReLU"
  bottom: "inception_3c/3x3_bn"
  top: "inception_3c/3x3_bn"
}
layer {
  name: "inception_3c/double_3x3_reduce"
  type: "Convolution"
  bottom: "inception_3b/output"
  top: "inception_3c/double_3x3_reduce"
  param {
    lr_mult: 1
    decay_mult: 1
  }
  param {
    lr_mult: 2
    decay_mult: 0
  }
  convolution_param {
    num_output: 64
    kernel_size: 1
    weight_filler {
      type: "xavier"
    }
    bias_filler {
      type: "constant"
      value: 0.2
    }
  }
}
layer {
  name: "inception_3c/double_3x3_reduce_bn"
  type: "BN"
  bottom: "inception_3c/double_3x3_reduce"
  top: "inception_3c/double_3x3_reduce_bn"
  param {
    lr_mult: 1
    decay_mult: 0
  }
  param {
    lr_mult: 1
    decay_mult: 0
  }
  bn_param {
    slope_filler {
      type: "constant"
      value: 1
    }
    bias_filler {
      type: "constant"
      value: 0
    }
    frozen: true
  }
}
layer {
  name: "inception_3c/relu_double_3x3_reduce"
  type: "ReLU"
  bottom: "inception_3c/double_3x3_reduce_bn"
  top: "inception_3c/double_3x3_reduce_bn"
}
layer {
  name: "inception_3c/double_3x3_1"
  type: "Convolution"
  bottom: "inception_3c/double_3x3_reduce_bn"
  top: "inception_3c/double_3x3_1"
  param {
    lr_mult: 1
    decay_mult: 1
  }
  param {
    lr_mult: 2
    decay_mult: 0
  }
  convolution_param {
    num_output: 96
    pad: 1
    kernel_size: 3
    weight_filler {
      type: "xavier"
    }
    bias_filler {
      type: "constant"
      value: 0.2
    }
  }
}
layer {
  name: "inception_3c/double_3x3_1_bn"
  type: "BN"
  bottom: "inception_3c/double_3x3_1"
  top: "inception_3c/double_3x3_1_bn"
  param {
    lr_mult: 1
    decay_mult: 0
  }
  param {
    lr_mult: 1
    decay_mult: 0
  }
  bn_param {
    slope_filler {
      type: "constant"
      value: 1
    }
    bias_filler {
      type: "constant"
      value: 0
    }
    frozen: true
  }
}
layer {
  name: "inception_3c/relu_double_3x3_1"
  type: "ReLU"
  bottom: "inception_3c/double_3x3_1_bn"
  top: "inception_3c/double_3x3_1_bn"
}
layer {
  name: "inception_3c/double_3x3_2"
  type: "Convolution"
  bottom: "inception_3c/double_3x3_1_bn"
  top: "inception_3c/double_3x3_2"
  param {
    lr_mult: 1
    decay_mult: 1
  }
  param {
    lr_mult: 2
    decay_mult: 0
  }
  convolution_param {
    num_output: 96
    pad: 1
    kernel_size: 3
    stride: 2
    weight_filler {
      type: "xavier"
    }
    bias_filler {
      type: "constant"
      value: 0.2
    }
  }
}
layer {
  name: "inception_3c/double_3x3_2_bn"
  type: "BN"
  bottom: "inception_3c/double_3x3_2"
  top: "inception_3c/double_3x3_2_bn"
  param {
    lr_mult: 1
    decay_mult: 0
  }
  param {
    lr_mult: 1
    decay_mult: 0
  }
  bn_param {
    slope_filler {
      type: "constant"
      value: 1
    }
    bias_filler {
      type: "constant"
      value: 0
    }
    frozen: true
  }
}
layer {
  name: "inception_3c/relu_double_3x3_2"
  type: "ReLU"
  bottom: "inception_3c/double_3x3_2_bn"
  top: "inception_3c/double_3x3_2_bn"
}
layer {
  name: "inception_3c/pool"
  type: "Pooling"
  bottom: "inception_3b/output"
  top: "inception_3c/pool"
  pooling_param {
    pool: MAX
    kernel_size: 3
    stride: 2
  }
}
layer {
  name: "inception_3c/output"
  type: "Concat"
  bottom: "inception_3c/3x3_bn"
  bottom: "inception_3c/double_3x3_2_bn"
  bottom: "inception_3c/pool"
  top: "inception_3c/output"
}
layer {
  name: "inception_4a/1x1"
  type: "Convolution"
  bottom: "inception_3c/output"
  top: "inception_4a/1x1"
  param {
    lr_mult: 1
    decay_mult: 1
  }
  param {
    lr_mult: 2
    decay_mult: 0
  }
  convolution_param {
    num_output: 224
    kernel_size: 1
    weight_filler {
      type: "xavier"
    }
    bias_filler {
      type: "constant"
      value: 0.2
    }
  }
}
layer {
  name: "inception_4a/1x1_bn"
  type: "BN"
  bottom: "inception_4a/1x1"
  top: "inception_4a/1x1_bn"
  param {
    lr_mult: 1
    decay_mult: 0
  }
  param {
    lr_mult: 1
    decay_mult: 0
  }
  bn_param {
    slope_filler {
      type: "constant"
      value: 1
    }
    bias_filler {
      type: "constant"
      value: 0
    }
    frozen: true
  }
}
layer {
  name: "inception_4a/relu_1x1"
  type: "ReLU"
  bottom: "inception_4a/1x1_bn"
  top: "inception_4a/1x1_bn"
}
layer {
  name: "inception_4a/3x3_reduce"
  type: "Convolution"
  bottom: "inception_3c/output"
  top: "inception_4a/3x3_reduce"
  param {
    lr_mult: 1
    decay_mult: 1
  }
  param {
    lr_mult: 2
    decay_mult: 0
  }
  convolution_param {
    num_output: 64
    kernel_size: 1
    weight_filler {
      type: "xavier"
    }
    bias_filler {
      type: "constant"
      value: 0.2
    }
  }
}
layer {
  name: "inception_4a/3x3_reduce_bn"
  type: "BN"
  bottom: "inception_4a/3x3_reduce"
  top: "inception_4a/3x3_reduce_bn"
  param {
    lr_mult: 1
    decay_mult: 0
  }
  param {
    lr_mult: 1
    decay_mult: 0
  }
  bn_param {
    slope_filler {
      type: "constant"
      value: 1
    }
    bias_filler {
      type: "constant"
      value: 0
    }
    frozen: true
  }
}
layer {
  name: "inception_4a/relu_3x3_reduce"
  type: "ReLU"
  bottom: "inception_4a/3x3_reduce_bn"
  top: "inception_4a/3x3_reduce_bn"
}
layer {
  name: "inception_4a/3x3"
  type: "Convolution"
  bottom: "inception_4a/3x3_reduce_bn"
  top: "inception_4a/3x3"
  param {
    lr_mult: 1
    decay_mult: 1
  }
  param {
    lr_mult: 2
    decay_mult: 0
  }
  convolution_param {
    num_output: 96
    pad: 1
    kernel_size: 3
    weight_filler {
      type: "xavier"
    }
    bias_filler {
      type: "constant"
      value: 0.2
    }
  }
}
layer {
  name: "inception_4a/3x3_bn"
  type: "BN"
  bottom: "inception_4a/3x3"
  top: "inception_4a/3x3_bn"
  param {
    lr_mult: 1
    decay_mult: 0
  }
  param {
    lr_mult: 1
    decay_mult: 0
  }
  bn_param {
    slope_filler {
      type: "constant"
      value: 1
    }
    bias_filler {
      type: "constant"
      value: 0
    }
    frozen: true
  }
}
layer {
  name: "inception_4a/relu_3x3"
  type: "ReLU"
  bottom: "inception_4a/3x3_bn"
  top: "inception_4a/3x3_bn"
}
layer {
  name: "inception_4a/double_3x3_reduce"
  type: "Convolution"
  bottom: "inception_3c/output"
  top: "inception_4a/double_3x3_reduce"
  param {
    lr_mult: 1
    decay_mult: 1
  }
  param {
    lr_mult: 2
    decay_mult: 0
  }
  convolution_param {
    num_output: 96
    kernel_size: 1
    weight_filler {
      type: "xavier"
    }
    bias_filler {
      type: "constant"
      value: 0.2
    }
  }
}
layer {
  name: "inception_4a/double_3x3_reduce_bn"
  type: "BN"
  bottom: "inception_4a/double_3x3_reduce"
  top: "inception_4a/double_3x3_reduce_bn"
  param {
    lr_mult: 1
    decay_mult: 0
  }
  param {
    lr_mult: 1
    decay_mult: 0
  }
  bn_param {
    slope_filler {
      type: "constant"
      value: 1
    }
    bias_filler {
      type: "constant"
      value: 0
    }
    frozen: true
  }
}
layer {
  name: "inception_4a/relu_double_3x3_reduce"
  type: "ReLU"
  bottom: "inception_4a/double_3x3_reduce_bn"
  top: "inception_4a/double_3x3_reduce_bn"
}
layer {
  name: "inception_4a/double_3x3_1"
  type: "Convolution"
  bottom: "inception_4a/double_3x3_reduce_bn"
  top: "inception_4a/double_3x3_1"
  param {
    lr_mult: 1
    decay_mult: 1
  }
  param {
    lr_mult: 2
    decay_mult: 0
  }
  convolution_param {
    num_output: 128
    pad: 1
    kernel_size: 3
    weight_filler {
      type: "xavier"
    }
    bias_filler {
      type: "constant"
      value: 0.2
    }
  }
}
layer {
  name: "inception_4a/double_3x3_1_bn"
  type: "BN"
  bottom: "inception_4a/double_3x3_1"
  top: "inception_4a/double_3x3_1_bn"
  param {
    lr_mult: 1
    decay_mult: 0
  }
  param {
    lr_mult: 1
    decay_mult: 0
  }
  bn_param {
    slope_filler {
      type: "constant"
      value: 1
    }
    bias_filler {
      type: "constant"
      value: 0
    }
    frozen: true
  }
}
layer {
  name: "inception_4a/relu_double_3x3_1"
  type: "ReLU"
  bottom: "inception_4a/double_3x3_1_bn"
  top: "inception_4a/double_3x3_1_bn"
}
layer {
  name: "inception_4a/double_3x3_2"
  type: "Convolution"
  bottom: "inception_4a/double_3x3_1_bn"
  top: "inception_4a/double_3x3_2"
  param {
    lr_mult: 1
    decay_mult: 1
  }
  param {
    lr_mult: 2
    decay_mult: 0
  }
  convolution_param {
    num_output: 128
    pad: 1
    kernel_size: 3
    weight_filler {
      type: "xavier"
    }
    bias_filler {
      type: "constant"
      value: 0.2
    }
  }
}
layer {
  name: "inception_4a/double_3x3_2_bn"
  type: "BN"
  bottom: "inception_4a/double_3x3_2"
  top: "inception_4a/double_3x3_2_bn"
  param {
    lr_mult: 1
    decay_mult: 0
  }
  param {
    lr_mult: 1
    decay_mult: 0
  }
  bn_param {
    slope_filler {
      type: "constant"
      value: 1
    }
    bias_filler {
      type: "constant"
      value: 0
    }
    frozen: true
  }
}
layer {
  name: "inception_4a/relu_double_3x3_2"
  type: "ReLU"
  bottom: "inception_4a/double_3x3_2_bn"
  top: "inception_4a/double_3x3_2_bn"
}
layer {
  name: "inception_4a/pool"
  type: "Pooling"
  bottom: "inception_3c/output"
  top: "inception_4a/pool"
  pooling_param {
    pool: AVE
    kernel_size: 3
    stride: 1
    pad: 1
  }
}
layer {
  name: "inception_4a/pool_proj"
  type: "Convolution"
  bottom: "inception_4a/pool"
  top: "inception_4a/pool_proj"
  param {
    lr_mult: 1
    decay_mult: 1
  }
  param {
    lr_mult: 2
    decay_mult: 0
  }
  convolution_param {
    num_output: 128
    kernel_size: 1
    weight_filler {
      type: "xavier"
    }
    bias_filler {
      type: "constant"
      value: 0.2
    }
  }
}
layer {
  name: "inception_4a/pool_proj_bn"
  type: "BN"
  bottom: "inception_4a/pool_proj"
  top: "inception_4a/pool_proj_bn"
  param {
    lr_mult: 1
    decay_mult: 0
  }
  param {
    lr_mult: 1
    decay_mult: 0
  }
  bn_param {
    slope_filler {
      type: "constant"
      value: 1
    }
    bias_filler {
      type: "constant"
      value: 0
    }
    frozen: true
  }
}
layer {
  name: "inception_4a/relu_pool_proj"
  type: "ReLU"
  bottom: "inception_4a/pool_proj_bn"
  top: "inception_4a/pool_proj_bn"
}
layer {
  name: "inception_4a/output"
  type: "Concat"
  bottom: "inception_4a/1x1_bn"
  bottom: "inception_4a/3x3_bn"
  bottom: "inception_4a/double_3x3_2_bn"
  bottom: "inception_4a/pool_proj_bn"
  top: "inception_4a/output"
}
layer {
  name: "inception_4b/1x1"
  type: "Convolution"
  bottom: "inception_4a/output"
  top: "inception_4b/1x1"
  param {
    lr_mult: 1
    decay_mult: 1
  }
  param {
    lr_mult: 2
    decay_mul
I0105 10:52:03.733896 13351 layer_factory.hpp:74] Creating layer data
I0105 10:52:03.733913 13351 net.cpp:96] Creating Layer data
I0105 10:52:03.733918 13351 net.cpp:415] data -> data
I0105 10:52:03.733935 13351 net.cpp:415] data -> label
I0105 10:52:03.733943 13351 net.cpp:160] Setting up data
I0105 10:52:03.734241 13351 video_data_layer.cpp:34] Opening file: /home/hadoop/whx/dataset/ucf101/train_rgb_split1.txt
I0105 10:52:03.738438 13351 video_data_layer.cpp:50] A total of 9537 videos.
I0105 10:52:03.755815 13351 video_data_layer.cpp:89] output data size: 24,9,224,224
I0105 10:52:03.829535 13351 net.cpp:167] Top shape: 24 9 224 224 (10838016)
I0105 10:52:03.829562 13351 net.cpp:167] Top shape: 24 1 1 1 (24)
I0105 10:52:03.829571 13351 layer_factory.hpp:74] Creating layer reshape_data
I0105 10:52:03.829586 13351 net.cpp:96] Creating Layer reshape_data
I0105 10:52:03.829591 13351 net.cpp:459] reshape_data <- data
I0105 10:52:03.829601 13351 net.cpp:415] reshape_data -> reshape_data
I0105 10:52:03.829614 13351 net.cpp:160] Setting up reshape_data
I0105 10:52:03.829624 13351 net.cpp:167] Top shape: 72 3 224 224 (10838016)
I0105 10:52:03.829629 13351 layer_factory.hpp:74] Creating layer conv1/7x7_s2
I0105 10:52:03.829638 13351 net.cpp:96] Creating Layer conv1/7x7_s2
I0105 10:52:03.829641 13351 net.cpp:459] conv1/7x7_s2 <- reshape_data
I0105 10:52:03.829646 13351 net.cpp:415] conv1/7x7_s2 -> conv1/7x7_s2
I0105 10:52:03.829654 13351 net.cpp:160] Setting up conv1/7x7_s2
I0105 10:52:03.829718 13351 net.cpp:167] Top shape: 72 64 112 112 (57802752)
I0105 10:52:03.829727 13351 layer_factory.hpp:74] Creating layer conv1/7x7_s2_bn
I0105 10:52:03.829743 13351 layer_factory.cpp:177] Layer conv1/7x7_s2_bn is using CAFFE engine.
I0105 10:52:03.829749 13351 net.cpp:96] Creating Layer conv1/7x7_s2_bn
I0105 10:52:03.829753 13351 net.cpp:459] conv1/7x7_s2_bn <- conv1/7x7_s2
I0105 10:52:03.829758 13351 net.cpp:415] conv1/7x7_s2_bn -> conv1/7x7_s2_bn
I0105 10:52:03.829764 13351 net.cpp:160] Setting up conv1/7x7_s2_bn
I0105 10:52:03.829782 13351 net.cpp:167] Top shape: 72 64 112 112 (57802752)
I0105 10:52:03.829790 13351 layer_factory.hpp:74] Creating layer conv1/relu_7x7
I0105 10:52:03.829797 13351 net.cpp:96] Creating Layer conv1/relu_7x7
I0105 10:52:03.829800 13351 net.cpp:459] conv1/relu_7x7 <- conv1/7x7_s2_bn
I0105 10:52:03.829804 13351 net.cpp:404] conv1/relu_7x7 -> conv1/7x7_s2_bn (in-place)
I0105 10:52:03.829808 13351 net.cpp:160] Setting up conv1/relu_7x7
I0105 10:52:03.829813 13351 net.cpp:167] Top shape: 72 64 112 112 (57802752)
I0105 10:52:03.829816 13351 layer_factory.hpp:74] Creating layer pool1/3x3_s2
I0105 10:52:03.829821 13351 net.cpp:96] Creating Layer pool1/3x3_s2
I0105 10:52:03.829824 13351 net.cpp:459] pool1/3x3_s2 <- conv1/7x7_s2_bn
I0105 10:52:03.829828 13351 net.cpp:415] pool1/3x3_s2 -> pool1/3x3_s2
I0105 10:52:03.829846 13351 net.cpp:160] Setting up pool1/3x3_s2
I0105 10:52:03.829864 13351 net.cpp:167] Top shape: 72 64 56 56 (14450688)
I0105 10:52:03.829869 13351 layer_factory.hpp:74] Creating layer conv2/3x3_reduce
I0105 10:52:03.829877 13351 net.cpp:96] Creating Layer conv2/3x3_reduce
I0105 10:52:03.829881 13351 net.cpp:459] conv2/3x3_reduce <- pool1/3x3_s2
I0105 10:52:03.829887 13351 net.cpp:415] conv2/3x3_reduce -> conv2/3x3_reduce
I0105 10:52:03.829895 13351 net.cpp:160] Setting up conv2/3x3_reduce
I0105 10:52:03.829934 13351 net.cpp:167] Top shape: 72 64 56 56 (14450688)
I0105 10:52:03.829942 13351 layer_factory.hpp:74] Creating layer conv2/3x3_reduce_bn
I0105 10:52:03.829947 13351 layer_factory.cpp:177] Layer conv2/3x3_reduce_bn is using CAFFE engine.
I0105 10:52:03.829954 13351 net.cpp:96] Creating Layer conv2/3x3_reduce_bn
I0105 10:52:03.829958 13351 net.cpp:459] conv2/3x3_reduce_bn <- conv2/3x3_reduce
I0105 10:52:03.829964 13351 net.cpp:415] conv2/3x3_reduce_bn -> conv2/3x3_reduce_bn
I0105 10:52:03.829972 13351 net.cpp:160] Setting up conv2/3x3_reduce_bn
I0105 10:52:03.829988 13351 net.cpp:167] Top shape: 72 64 56 56 (14450688)
I0105 10:52:03.829998 13351 layer_factory.hpp:74] Creating layer conv2/relu_3x3_reduce
I0105 10:52:03.830004 13351 net.cpp:96] Creating Layer conv2/relu_3x3_reduce
I0105 10:52:03.830009 13351 net.cpp:459] conv2/relu_3x3_reduce <- conv2/3x3_reduce_bn
I0105 10:52:03.830014 13351 net.cpp:404] conv2/relu_3x3_reduce -> conv2/3x3_reduce_bn (in-place)
I0105 10:52:03.830019 13351 net.cpp:160] Setting up conv2/relu_3x3_reduce
I0105 10:52:03.830025 13351 net.cpp:167] Top shape: 72 64 56 56 (14450688)
I0105 10:52:03.830029 13351 layer_factory.hpp:74] Creating layer conv2/3x3
I0105 10:52:03.830036 13351 net.cpp:96] Creating Layer conv2/3x3
I0105 10:52:03.830040 13351 net.cpp:459] conv2/3x3 <- conv2/3x3_reduce_bn
I0105 10:52:03.830046 13351 net.cpp:415] conv2/3x3 -> conv2/3x3
I0105 10:52:03.830054 13351 net.cpp:160] Setting up conv2/3x3
I0105 10:52:03.830508 13351 net.cpp:167] Top shape: 72 192 56 56 (43352064)
I0105 10:52:03.830515 13351 layer_factory.hpp:74] Creating layer conv2/3x3_bn
I0105 10:52:03.830518 13351 layer_factory.cpp:177] Layer conv2/3x3_bn is using CAFFE engine.
I0105 10:52:03.830523 13351 net.cpp:96] Creating Layer conv2/3x3_bn
I0105 10:52:03.830526 13351 net.cpp:459] conv2/3x3_bn <- conv2/3x3
I0105 10:52:03.830530 13351 net.cpp:415] conv2/3x3_bn -> conv2/3x3_bn
I0105 10:52:03.830535 13351 net.cpp:160] Setting up conv2/3x3_bn
I0105 10:52:03.830546 13351 net.cpp:167] Top shape: 72 192 56 56 (43352064)
I0105 10:52:03.830554 13351 layer_factory.hpp:74] Creating layer conv2/relu_3x3
I0105 10:52:03.830559 13351 net.cpp:96] Creating Layer conv2/relu_3x3
I0105 10:52:03.830561 13351 net.cpp:459] conv2/relu_3x3 <- conv2/3x3_bn
I0105 10:52:03.830565 13351 net.cpp:404] conv2/relu_3x3 -> conv2/3x3_bn (in-place)
I0105 10:52:03.830577 13351 net.cpp:160] Setting up conv2/relu_3x3
I0105 10:52:03.830581 13351 net.cpp:167] Top shape: 72 192 56 56 (43352064)
I0105 10:52:03.830585 13351 layer_factory.hpp:74] Creating layer pool2/3x3_s2
I0105 10:52:03.830590 13351 net.cpp:96] Creating Layer pool2/3x3_s2
I0105 10:52:03.830592 13351 net.cpp:459] pool2/3x3_s2 <- conv2/3x3_bn
I0105 10:52:03.830596 13351 net.cpp:415] pool2/3x3_s2 -> pool2/3x3_s2
I0105 10:52:03.830600 13351 net.cpp:160] Setting up pool2/3x3_s2
I0105 10:52:03.830606 13351 net.cpp:167] Top shape: 72 192 28 28 (10838016)
I0105 10:52:03.830610 13351 layer_factory.hpp:74] Creating layer pool2/3x3_s2_pool2/3x3_s2_0_split
I0105 10:52:03.830615 13351 net.cpp:96] Creating Layer pool2/3x3_s2_pool2/3x3_s2_0_split
I0105 10:52:03.830616 13351 net.cpp:459] pool2/3x3_s2_pool2/3x3_s2_0_split <- pool2/3x3_s2
I0105 10:52:03.830621 13351 net.cpp:415] pool2/3x3_s2_pool2/3x3_s2_0_split -> pool2/3x3_s2_pool2/3x3_s2_0_split_0
I0105 10:52:03.830626 13351 net.cpp:415] pool2/3x3_s2_pool2/3x3_s2_0_split -> pool2/3x3_s2_pool2/3x3_s2_0_split_1
I0105 10:52:03.830631 13351 net.cpp:415] pool2/3x3_s2_pool2/3x3_s2_0_split -> pool2/3x3_s2_pool2/3x3_s2_0_split_2
I0105 10:52:03.830636 13351 net.cpp:415] pool2/3x3_s2_pool2/3x3_s2_0_split -> pool2/3x3_s2_pool2/3x3_s2_0_split_3
I0105 10:52:03.830639 13351 net.cpp:160] Setting up pool2/3x3_s2_pool2/3x3_s2_0_split
I0105 10:52:03.830644 13351 net.cpp:167] Top shape: 72 192 28 28 (10838016)
I0105 10:52:03.830647 13351 net.cpp:167] Top shape: 72 192 28 28 (10838016)
I0105 10:52:03.830651 13351 net.cpp:167] Top shape: 72 192 28 28 (10838016)
I0105 10:52:03.830653 13351 net.cpp:167] Top shape: 72 192 28 28 (10838016)
I0105 10:52:03.830657 13351 layer_factory.hpp:74] Creating layer inception_3a/1x1
I0105 10:52:03.830662 13351 net.cpp:96] Creating Layer inception_3a/1x1
I0105 10:52:03.830665 13351 net.cpp:459] inception_3a/1x1 <- pool2/3x3_s2_pool2/3x3_s2_0_split_0
I0105 10:52:03.830669 13351 net.cpp:415] inception_3a/1x1 -> inception_3a/1x1
I0105 10:52:03.830673 13351 net.cpp:160] Setting up inception_3a/1x1
I0105 10:52:03.830729 13351 net.cpp:167] Top shape: 72 64 28 28 (3612672)
I0105 10:52:03.830734 13351 layer_factory.hpp:74] Creating layer inception_3a/1x1_bn
I0105 10:52:03.830739 13351 layer_factory.cpp:177] Layer inception_3a/1x1_bn is using CAFFE engine.
I0105 10:52:03.830742 13351 net.cpp:96] Creating Layer inception_3a/1x1_bn
I0105 10:52:03.830745 13351 net.cpp:459] inception_3a/1x1_bn <- inception_3a/1x1
I0105 10:52:03.830749 13351 net.cpp:415] inception_3a/1x1_bn -> inception_3a/1x1_bn
I0105 10:52:03.830755 13351 net.cpp:160] Setting up inception_3a/1x1_bn
I0105 10:52:03.830765 13351 net.cpp:167] Top shape: 72 64 28 28 (3612672)
I0105 10:52:03.830770 13351 layer_factory.hpp:74] Creating layer inception_3a/relu_1x1
I0105 10:52:03.830775 13351 net.cpp:96] Creating Layer inception_3a/relu_1x1
I0105 10:52:03.830778 13351 net.cpp:459] inception_3a/relu_1x1 <- inception_3a/1x1_bn
I0105 10:52:03.830782 13351 net.cpp:404] inception_3a/relu_1x1 -> inception_3a/1x1_bn (in-place)
I0105 10:52:03.830786 13351 net.cpp:160] Setting up inception_3a/relu_1x1
I0105 10:52:03.830790 13351 net.cpp:167] Top shape: 72 64 28 28 (3612672)
I0105 10:52:03.830793 13351 layer_factory.hpp:74] Creating layer inception_3a/3x3_reduce
I0105 10:52:03.830798 13351 net.cpp:96] Creating Layer inception_3a/3x3_reduce
I0105 10:52:03.830801 13351 net.cpp:459] inception_3a/3x3_reduce <- pool2/3x3_s2_pool2/3x3_s2_0_split_1
I0105 10:52:03.830806 13351 net.cpp:415] inception_3a/3x3_reduce -> inception_3a/3x3_reduce
I0105 10:52:03.830811 13351 net.cpp:160] Setting up inception_3a/3x3_reduce
I0105 10:52:03.830866 13351 net.cpp:167] Top shape: 72 64 28 28 (3612672)
I0105 10:52:03.830871 13351 layer_factory.hpp:74] Creating layer inception_3a/3x3_reduce_bn
I0105 10:52:03.830874 13351 layer_factory.cpp:177] Layer inception_3a/3x3_reduce_bn is using CAFFE engine.
I0105 10:52:03.830879 13351 net.cpp:96] Creating Layer inception_3a/3x3_reduce_bn
I0105 10:52:03.830886 13351 net.cpp:459] inception_3a/3x3_reduce_bn <- inception_3a/3x3_reduce
I0105 10:52:03.830894 13351 net.cpp:415] inception_3a/3x3_reduce_bn -> inception_3a/3x3_reduce_bn
I0105 10:52:03.830899 13351 net.cpp:160] Setting up inception_3a/3x3_reduce_bn
I0105 10:52:03.830909 13351 net.cpp:167] Top shape: 72 64 28 28 (3612672)
I0105 10:52:03.830914 13351 layer_factory.hpp:74] Creating layer inception_3a/relu_3x3_reduce
I0105 10:52:03.830919 13351 net.cpp:96] Creating Layer inception_3a/relu_3x3_reduce
I0105 10:52:03.830921 13351 net.cpp:459] inception_3a/relu_3x3_reduce <- inception_3a/3x3_reduce_bn
I0105 10:52:03.830925 13351 net.cpp:404] inception_3a/relu_3x3_reduce -> inception_3a/3x3_reduce_bn (in-place)
I0105 10:52:03.830929 13351 net.cpp:160] Setting up inception_3a/relu_3x3_reduce
I0105 10:52:03.830934 13351 net.cpp:167] Top shape: 72 64 28 28 (3612672)
I0105 10:52:03.830936 13351 layer_factory.hpp:74] Creating layer inception_3a/3x3
I0105 10:52:03.830940 13351 net.cpp:96] Creating Layer inception_3a/3x3
I0105 10:52:03.830943 13351 net.cpp:459] inception_3a/3x3 <- inception_3a/3x3_reduce_bn
I0105 10:52:03.830947 13351 net.cpp:415] inception_3a/3x3 -> inception_3a/3x3
I0105 10:52:03.830952 13351 net.cpp:160] Setting up inception_3a/3x3
I0105 10:52:03.831099 13351 net.cpp:167] Top shape: 72 64 28 28 (3612672)
I0105 10:52:03.831104 13351 layer_factory.hpp:74] Creating layer inception_3a/3x3_bn
I0105 10:52:03.831107 13351 layer_factory.cpp:177] Layer inception_3a/3x3_bn is using CAFFE engine.
I0105 10:52:03.831111 13351 net.cpp:96] Creating Layer inception_3a/3x3_bn
I0105 10:52:03.831115 13351 net.cpp:459] inception_3a/3x3_bn <- inception_3a/3x3
I0105 10:52:03.831120 13351 net.cpp:415] inception_3a/3x3_bn -> inception_3a/3x3_bn
I0105 10:52:03.831123 13351 net.cpp:160] Setting up inception_3a/3x3_bn
I0105 10:52:03.831132 13351 net.cpp:167] Top shape: 72 64 28 28 (3612672)
I0105 10:52:03.831140 13351 layer_factory.hpp:74] Creating layer inception_3a/relu_3x3
I0105 10:52:03.831145 13351 net.cpp:96] Creating Layer inception_3a/relu_3x3
I0105 10:52:03.831147 13351 net.cpp:459] inception_3a/relu_3x3 <- inception_3a/3x3_bn
I0105 10:52:03.831151 13351 net.cpp:404] inception_3a/relu_3x3 -> inception_3a/3x3_bn (in-place)
I0105 10:52:03.831156 13351 net.cpp:160] Setting up inception_3a/relu_3x3
I0105 10:52:03.831158 13351 net.cpp:167] Top shape: 72 64 28 28 (3612672)
I0105 10:52:03.831161 13351 layer_factory.hpp:74] Creating layer inception_3a/double_3x3_reduce
I0105 10:52:03.831166 13351 net.cpp:96] Creating Layer inception_3a/double_3x3_reduce
I0105 10:52:03.831169 13351 net.cpp:459] inception_3a/double_3x3_reduce <- pool2/3x3_s2_pool2/3x3_s2_0_split_2
I0105 10:52:03.831174 13351 net.cpp:415] inception_3a/double_3x3_reduce -> inception_3a/double_3x3_reduce
I0105 10:52:03.831179 13351 net.cpp:160] Setting up inception_3a/double_3x3_reduce
I0105 10:52:03.831233 13351 net.cpp:167] Top shape: 72 64 28 28 (3612672)
I0105 10:52:03.831238 13351 layer_factory.hpp:74] Creating layer inception_3a/double_3x3_reduce_bn
I0105 10:52:03.831243 13351 layer_factory.cpp:177] Layer inception_3a/double_3x3_reduce_bn is using CAFFE engine.
I0105 10:52:03.831246 13351 net.cpp:96] Creating Layer inception_3a/double_3x3_reduce_bn
I0105 10:52:03.831249 13351 net.cpp:459] inception_3a/double_3x3_reduce_bn <- inception_3a/double_3x3_reduce
I0105 10:52:03.831254 13351 net.cpp:415] inception_3a/double_3x3_reduce_bn -> inception_3a/double_3x3_reduce_bn
I0105 10:52:03.831259 13351 net.cpp:160] Setting up inception_3a/double_3x3_reduce_bn
I0105 10:52:03.831266 13351 net.cpp:167] Top shape: 72 64 28 28 (3612672)
I0105 10:52:03.831272 13351 layer_factory.hpp:74] Creating layer inception_3a/relu_double_3x3_reduce
I0105 10:52:03.831276 13351 net.cpp:96] Creating Layer inception_3a/relu_double_3x3_reduce
I0105 10:52:03.831279 13351 net.cpp:459] inception_3a/relu_double_3x3_reduce <- inception_3a/double_3x3_reduce_bn
I0105 10:52:03.831282 13351 net.cpp:404] inception_3a/relu_double_3x3_reduce -> inception_3a/double_3x3_reduce_bn (in-place)
I0105 10:52:03.831286 13351 net.cpp:160] Setting up inception_3a/relu_double_3x3_reduce
I0105 10:52:03.831295 13351 net.cpp:167] Top shape: 72 64 28 28 (3612672)
I0105 10:52:03.831298 13351 layer_factory.hpp:74] Creating layer inception_3a/double_3x3_1
I0105 10:52:03.831303 13351 net.cpp:96] Creating Layer inception_3a/double_3x3_1
I0105 10:52:03.831306 13351 net.cpp:459] inception_3a/double_3x3_1 <- inception_3a/double_3x3_reduce_bn
I0105 10:52:03.831310 13351 net.cpp:415] inception_3a/double_3x3_1 -> inception_3a/double_3x3_1
I0105 10:52:03.831315 13351 net.cpp:160] Setting up inception_3a/double_3x3_1
I0105 10:52:03.831532 13351 net.cpp:167] Top shape: 72 96 28 28 (5419008)
I0105 10:52:03.831537 13351 layer_factory.hpp:74] Creating layer inception_3a/double_3x3_1_bn
I0105 10:52:03.831539 13351 layer_factory.cpp:177] Layer inception_3a/double_3x3_1_bn is using CAFFE engine.
I0105 10:52:03.831544 13351 net.cpp:96] Creating Layer inception_3a/double_3x3_1_bn
I0105 10:52:03.831547 13351 net.cpp:459] inception_3a/double_3x3_1_bn <- inception_3a/double_3x3_1
I0105 10:52:03.831552 13351 net.cpp:415] inception_3a/double_3x3_1_bn -> inception_3a/double_3x3_1_bn
I0105 10:52:03.831555 13351 net.cpp:160] Setting up inception_3a/double_3x3_1_bn
I0105 10:52:03.831564 13351 net.cpp:167] Top shape: 72 96 28 28 (5419008)
I0105 10:52:03.831570 13351 layer_factory.hpp:74] Creating layer inception_3a/relu_double_3x3_1
I0105 10:52:03.831574 13351 net.cpp:96] Creating Layer inception_3a/relu_double_3x3_1
I0105 10:52:03.831578 13351 net.cpp:459] inception_3a/relu_double_3x3_1 <- inception_3a/double_3x3_1_bn
I0105 10:52:03.831581 13351 net.cpp:404] inception_3a/relu_double_3x3_1 -> inception_3a/double_3x3_1_bn (in-place)
I0105 10:52:03.831584 13351 net.cpp:160] Setting up inception_3a/relu_double_3x3_1
I0105 10:52:03.831588 13351 net.cpp:167] Top shape: 72 96 28 28 (5419008)
I0105 10:52:03.831591 13351 layer_factory.hpp:74] Creating layer inception_3a/double_3x3_2
I0105 10:52:03.831595 13351 net.cpp:96] Creating Layer inception_3a/double_3x3_2
I0105 10:52:03.831598 13351 net.cpp:459] inception_3a/double_3x3_2 <- inception_3a/double_3x3_1_bn
I0105 10:52:03.831603 13351 net.cpp:415] inception_3a/double_3x3_2 -> inception_3a/double_3x3_2
I0105 10:52:03.831607 13351 net.cpp:160] Setting up inception_3a/double_3x3_2
I0105 10:52:03.831928 13351 net.cpp:167] Top shape: 72 96 28 28 (5419008)
I0105 10:52:03.831933 13351 layer_factory.hpp:74] Creating layer inception_3a/double_3x3_2_bn
I0105 10:52:03.831936 13351 layer_factory.cpp:177] Layer inception_3a/double_3x3_2_bn is using CAFFE engine.
I0105 10:52:03.831940 13351 net.cpp:96] Creating Layer inception_3a/double_3x3_2_bn
I0105 10:52:03.831943 13351 net.cpp:459] inception_3a/double_3x3_2_bn <- inception_3a/double_3x3_2
I0105 10:52:03.831948 13351 net.cpp:415] inception_3a/double_3x3_2_bn -> inception_3a/double_3x3_2_bn
I0105 10:52:03.831953 13351 net.cpp:160] Setting up inception_3a/double_3x3_2_bn
I0105 10:52:03.831961 13351 net.cpp:167] Top shape: 72 96 28 28 (5419008)
I0105 10:52:03.831967 13351 layer_factory.hpp:74] Creating layer inception_3a/relu_double_3x3_2
I0105 10:52:03.831971 13351 net.cpp:96] Creating Layer inception_3a/relu_double_3x3_2
I0105 10:52:03.831974 13351 net.cpp:459] inception_3a/relu_double_3x3_2 <- inception_3a/double_3x3_2_bn
I0105 10:52:03.831979 13351 net.cpp:404] inception_3a/relu_double_3x3_2 -> inception_3a/double_3x3_2_bn (in-place)
I0105 10:52:03.831982 13351 net.cpp:160] Setting up inception_3a/relu_double_3x3_2
I0105 10:52:03.831986 13351 net.cpp:167] Top shape: 72 96 28 28 (5419008)
I0105 10:52:03.831990 13351 layer_factory.hpp:74] Creating layer inception_3a/pool
I0105 10:52:03.831995 13351 net.cpp:96] Creating Layer inception_3a/pool
I0105 10:52:03.831998 13351 net.cpp:459] inception_3a/pool <- pool2/3x3_s2_pool2/3x3_s2_0_split_3
I0105 10:52:03.832002 13351 net.cpp:415] inception_3a/pool -> inception_3a/pool
I0105 10:52:03.832007 13351 net.cpp:160] Setting up inception_3a/pool
I0105 10:52:03.832011 13351 net.cpp:167] Top shape: 72 192 28 28 (10838016)
I0105 10:52:03.832015 13351 layer_factory.hpp:74] Creating layer inception_3a/pool_proj
I0105 10:52:03.832025 13351 net.cpp:96] Creating Layer inception_3a/pool_proj
I0105 10:52:03.832027 13351 net.cpp:459] inception_3a/pool_proj <- inception_3a/pool
I0105 10:52:03.832032 13351 net.cpp:415] inception_3a/pool_proj -> inception_3a/pool_proj
I0105 10:52:03.832036 13351 net.cpp:160] Setting up inception_3a/pool_proj
I0105 10:52:03.832068 13351 net.cpp:167] Top shape: 72 32 28 28 (1806336)
I0105 10:52:03.832073 13351 layer_factory.hpp:74] Creating layer inception_3a/pool_proj_bn
I0105 10:52:03.832077 13351 layer_factory.cpp:177] Layer inception_3a/pool_proj_bn is using CAFFE engine.
I0105 10:52:03.832080 13351 net.cpp:96] Creating Layer inception_3a/pool_proj_bn
I0105 10:52:03.832083 13351 net.cpp:459] inception_3a/pool_proj_bn <- inception_3a/pool_proj
I0105 10:52:03.832087 13351 net.cpp:415] inception_3a/pool_proj_bn -> inception_3a/pool_proj_bn
I0105 10:52:03.832093 13351 net.cpp:160] Setting up inception_3a/pool_proj_bn
I0105 10:52:03.832101 13351 net.cpp:167] Top shape: 72 32 28 28 (1806336)
I0105 10:52:03.832110 13351 layer_factory.hpp:74] Creating layer inception_3a/relu_pool_proj
I0105 10:52:03.832118 13351 net.cpp:96] Creating Layer inception_3a/relu_pool_proj
I0105 10:52:03.832123 13351 net.cpp:459] inception_3a/relu_pool_proj <- inception_3a/pool_proj_bn
I0105 10:52:03.832129 13351 net.cpp:404] inception_3a/relu_pool_proj -> inception_3a/pool_proj_bn (in-place)
I0105 10:52:03.832136 13351 net.cpp:160] Setting up inception_3a/relu_pool_proj
I0105 10:52:03.832144 13351 net.cpp:167] Top shape: 72 32 28 28 (1806336)
I0105 10:52:03.832149 13351 layer_factory.hpp:74] Creating layer inception_3a/output
I0105 10:52:03.832156 13351 net.cpp:96] Creating Layer inception_3a/output
I0105 10:52:03.832162 13351 net.cpp:459] inception_3a/output <- inception_3a/1x1_bn
I0105 10:52:03.832168 13351 net.cpp:459] inception_3a/output <- inception_3a/3x3_bn
I0105 10:52:03.832175 13351 net.cpp:459] inception_3a/output <- inception_3a/double_3x3_2_bn
I0105 10:52:03.832180 13351 net.cpp:459] inception_3a/output <- inception_3a/pool_proj_bn
I0105 10:52:03.832186 13351 net.cpp:415] inception_3a/output -> inception_3a/output
I0105 10:52:03.832193 13351 net.cpp:160] Setting up inception_3a/output
I0105 10:52:03.832201 13351 net.cpp:167] Top shape: 72 256 28 28 (14450688)
I0105 10:52:03.832206 13351 layer_factory.hpp:74] Creating layer inception_3a/output_inception_3a/output_0_split
I0105 10:52:03.832214 13351 net.cpp:96] Creating Layer inception_3a/output_inception_3a/output_0_split
I0105 10:52:03.832219 13351 net.cpp:459] inception_3a/output_inception_3a/output_0_split <- inception_3a/output
I0105 10:52:03.832226 13351 net.cpp:415] inception_3a/output_inception_3a/output_0_split -> inception_3a/output_inception_3a/output_0_split_0
I0105 10:52:03.832233 13351 net.cpp:415] inception_3a/output_inception_3a/output_0_split -> inception_3a/output_inception_3a/output_0_split_1
I0105 10:52:03.832242 13351 net.cpp:415] inception_3a/output_inception_3a/output_0_split -> inception_3a/output_inception_3a/output_0_split_2
I0105 10:52:03.832252 13351 net.cpp:415] inception_3a/output_inception_3a/output_0_split -> inception_3a/output_inception_3a/output_0_split_3
I0105 10:52:03.832257 13351 net.cpp:160] Setting up inception_3a/output_inception_3a/output_0_split
I0105 10:52:03.832265 13351 net.cpp:167] Top shape: 72 256 28 28 (14450688)
I0105 10:52:03.832271 13351 net.cpp:167] Top shape: 72 256 28 28 (14450688)
I0105 10:52:03.832278 13351 net.cpp:167] Top shape: 72 256 28 28 (14450688)
I0105 10:52:03.832283 13351 net.cpp:167] Top shape: 72 256 28 28 (14450688)
I0105 10:52:03.832288 13351 layer_factory.hpp:74] Creating layer inception_3b/1x1
I0105 10:52:03.832295 13351 net.cpp:96] Creating Layer inception_3b/1x1
I0105 10:52:03.832300 13351 net.cpp:459] inception_3b/1x1 <- inception_3a/output_inception_3a/output_0_split_0
I0105 10:52:03.832309 13351 net.cpp:415] inception_3b/1x1 -> inception_3b/1x1
I0105 10:52:03.832315 13351 net.cpp:160] Setting up inception_3b/1x1
I0105 10:52:03.832445 13351 net.cpp:167] Top shape: 72 64 28 28 (3612672)
I0105 10:52:03.832461 13351 layer_factory.hpp:74] Creating layer inception_3b/1x1_bn
I0105 10:52:03.832468 13351 layer_factory.cpp:177] Layer inception_3b/1x1_bn is using CAFFE engine.
I0105 10:52:03.832474 13351 net.cpp:96] Creating Layer inception_3b/1x1_bn
I0105 10:52:03.832479 13351 net.cpp:459] inception_3b/1x1_bn <- inception_3b/1x1
I0105 10:52:03.832486 13351 net.cpp:415] inception_3b/1x1_bn -> inception_3b/1x1_bn
I0105 10:52:03.832494 13351 net.cpp:160] Setting up inception_3b/1x1_bn
I0105 10:52:03.832510 13351 net.cpp:167] Top shape: 72 64 28 28 (3612672)
I0105 10:52:03.832523 13351 layer_factory.hpp:74] Creating layer inception_3b/relu_1x1
I0105 10:52:03.832530 13351 net.cpp:96] Creating Layer inception_3b/relu_1x1
I0105 10:52:03.832535 13351 net.cpp:459] inception_3b/relu_1x1 <- inception_3b/1x1_bn
I0105 10:52:03.832541 13351 net.cpp:404] inception_3b/relu_1x1 -> inception_3b/1x1_bn (in-place)
I0105 10:52:03.832548 13351 net.cpp:160] Setting up inception_3b/relu_1x1
I0105 10:52:03.832554 13351 net.cpp:167] Top shape: 72 64 28 28 (3612672)
I0105 10:52:03.832558 13351 layer_factory.hpp:74] Creating layer inception_3b/3x3_reduce
I0105 10:52:03.832566 13351 net.cpp:96] Creating Layer inception_3b/3x3_reduce
I0105 10:52:03.832571 13351 net.cpp:459] inception_3b/3x3_reduce <- inception_3a/output_inception_3a/output_0_split_1
I0105 10:52:03.832578 13351 net.cpp:415] inception_3b/3x3_reduce -> inception_3b/3x3_reduce
I0105 10:52:03.832587 13351 net.cpp:160] Setting up inception_3b/3x3_reduce
I0105 10:52:03.832716 13351 net.cpp:167] Top shape: 72 64 28 28 (3612672)
I0105 10:52:03.832725 13351 layer_factory.hpp:74] Creating layer inception_3b/3x3_reduce_bn
I0105 10:52:03.832729 13351 layer_factory.cpp:177] Layer inception_3b/3x3_reduce_bn is using CAFFE engine.
I0105 10:52:03.832736 13351 net.cpp:96] Creating Layer inception_3b/3x3_reduce_bn
I0105 10:52:03.832741 13351 net.cpp:459] inception_3b/3x3_reduce_bn <- inception_3b/3x3_reduce
I0105 10:52:03.832748 13351 net.cpp:415] inception_3b/3x3_reduce_bn -> inception_3b/3x3_reduce_bn
I0105 10:52:03.832756 13351 net.cpp:160] Setting up inception_3b/3x3_reduce_bn
I0105 10:52:03.832772 13351 net.cpp:167] Top shape: 72 64 28 28 (3612672)
I0105 10:52:03.832780 13351 layer_factory.hpp:74] Creating layer inception_3b/relu_3x3_reduce
I0105 10:52:03.832787 13351 net.cpp:96] Creating Layer inception_3b/relu_3x3_reduce
I0105 10:52:03.832792 13351 net.cpp:459] inception_3b/relu_3x3_reduce <- inception_3b/3x3_reduce_bn
I0105 10:52:03.832798 13351 net.cpp:404] inception_3b/relu_3x3_reduce -> inception_3b/3x3_reduce_bn (in-place)
I0105 10:52:03.832804 13351 net.cpp:160] Setting up inception_3b/relu_3x3_reduce
I0105 10:52:03.832810 13351 net.cpp:167] Top shape: 72 64 28 28 (3612672)
I0105 10:52:03.832818 13351 layer_factory.hpp:74] Creating layer inception_3b/3x3
I0105 10:52:03.832824 13351 net.cpp:96] Creating Layer inception_3b/3x3
I0105 10:52:03.832830 13351 net.cpp:459] inception_3b/3x3 <- inception_3b/3x3_reduce_bn
I0105 10:52:03.832837 13351 net.cpp:415] inception_3b/3x3 -> inception_3b/3x3
I0105 10:52:03.832845 13351 net.cpp:160] Setting up inception_3b/3x3
I0105 10:52:03.833253 13351 net.cpp:167] Top shape: 72 96 28 28 (5419008)
I0105 10:52:03.833262 13351 layer_factory.hpp:74] Creating layer inception_3b/3x3_bn
I0105 10:52:03.833267 13351 layer_factory.cpp:177] Layer inception_3b/3x3_bn is using CAFFE engine.
I0105 10:52:03.833276 13351 net.cpp:96] Creating Layer inception_3b/3x3_bn
I0105 10:52:03.833281 13351 net.cpp:459] inception_3b/3x3_bn <- inception_3b/3x3
I0105 10:52:03.833288 13351 net.cpp:415] inception_3b/3x3_bn -> inception_3b/3x3_bn
I0105 10:52:03.833302 13351 net.cpp:160] Setting up inception_3b/3x3_bn
I0105 10:52:03.833317 13351 net.cpp:167] Top shape: 72 96 28 28 (5419008)
I0105 10:52:03.833329 13351 layer_factory.hpp:74] Creating layer inception_3b/relu_3x3
I0105 10:52:03.833335 13351 net.cpp:96] Creating Layer inception_3b/relu_3x3
I0105 10:52:03.833343 13351 net.cpp:459] inception_3b/relu_3x3 <- inception_3b/3x3_bn
I0105 10:52:03.833351 13351 net.cpp:404] inception_3b/relu_3x3 -> inception_3b/3x3_bn (in-place)
I0105 10:52:03.833364 13351 net.cpp:160] Setting up inception_3b/relu_3x3
I0105 10:52:03.833374 13351 net.cpp:167] Top shape: 72 96 28 28 (5419008)
I0105 10:52:03.833379 13351 layer_factory.hpp:74] Creating layer inception_3b/double_3x3_reduce
I0105 10:52:03.833389 13351 net.cpp:96] Creating Layer inception_3b/double_3x3_reduce
I0105 10:52:03.833395 13351 net.cpp:459] inception_3b/double_3x3_reduce <- inception_3a/output_inception_3a/output_0_split_2
I0105 10:52:03.833401 13351 net.cpp:415] inception_3b/double_3x3_reduce -> inception_3b/double_3x3_reduce
I0105 10:52:03.833412 13351 net.cpp:160] Setting up inception_3b/double_3x3_reduce
I0105 10:52:03.833551 13351 net.cpp:167] Top shape: 72 64 28 28 (3612672)
I0105 10:52:03.833560 13351 layer_factory.hpp:74] Creating layer inception_3b/double_3x3_reduce_bn
I0105 10:52:03.833570 13351 layer_factory.cpp:177] Layer inception_3b/double_3x3_reduce_bn is using CAFFE engine.
I0105 10:52:03.833580 13351 net.cpp:96] Creating Layer inception_3b/double_3x3_reduce_bn
I0105 10:52:03.833585 13351 net.cpp:459] inception_3b/double_3x3_reduce_bn <- inception_3b/double_3x3_reduce
I0105 10:52:03.833592 13351 net.cpp:415] inception_3b/double_3x3_reduce_bn -> inception_3b/double_3x3_reduce_bn
I0105 10:52:03.833600 13351 net.cpp:160] Setting up inception_3b/double_3x3_reduce_bn
I0105 10:52:03.833617 13351 net.cpp:167] Top shape: 72 64 28 28 (3612672)
I0105 10:52:03.833631 13351 layer_factory.hpp:74] Creating layer inception_3b/relu_double_3x3_reduce
I0105 10:52:03.833639 13351 net.cpp:96] Creating Layer inception_3b/relu_double_3x3_reduce
I0105 10:52:03.833644 13351 net.cpp:459] inception_3b/relu_double_3x3_reduce <- inception_3b/double_3x3_reduce_bn
I0105 10:52:03.833652 13351 net.cpp:404] inception_3b/relu_double_3x3_reduce -> inception_3b/double_3x3_reduce_bn (in-place)
I0105 10:52:03.833663 13351 net.cpp:160] Setting up inception_3b/relu_double_3x3_reduce
I0105 10:52:03.833669 13351 net.cpp:167] Top shape: 72 64 28 28 (3612672)
I0105 10:52:03.833674 13351 layer_factory.hpp:74] Creating layer inception_3b/double_3x3_1
I0105 10:52:03.833683 13351 net.cpp:96] Creating Layer inception_3b/double_3x3_1
I0105 10:52:03.833690 13351 net.cpp:459] inception_3b/double_3x3_1 <- inception_3b/double_3x3_reduce_bn
I0105 10:52:03.833696 13351 net.cpp:415] inception_3b/double_3x3_1 -> inception_3b/double_3x3_1
I0105 10:52:03.833705 13351 net.cpp:160] Setting up inception_3b/double_3x3_1
I0105 10:52:03.834143 13351 net.cpp:167] Top shape: 72 96 28 28 (5419008)
I0105 10:52:03.834157 13351 layer_factory.hpp:74] Creating layer inception_3b/double_3x3_1_bn
I0105 10:52:03.834163 13351 layer_factory.cpp:177] Layer inception_3b/double_3x3_1_bn is using CAFFE engine.
I0105 10:52:03.834170 13351 net.cpp:96] Creating Layer inception_3b/double_3x3_1_bn
I0105 10:52:03.834175 13351 net.cpp:459] inception_3b/double_3x3_1_bn <- inception_3b/double_3x3_1
I0105 10:52:03.834183 13351 net.cpp:415] inception_3b/double_3x3_1_bn -> inception_3b/double_3x3_1_bn
I0105 10:52:03.834192 13351 net.cpp:160] Setting up inception_3b/double_3x3_1_bn
I0105 10:52:03.834209 13351 net.cpp:167] Top shape: 72 96 28 28 (5419008)
I0105 10:52:03.834218 13351 layer_factory.hpp:74] Creating layer inception_3b/relu_double_3x3_1
I0105 10:52:03.834226 13351 net.cpp:96] Creating Layer inception_3b/relu_double_3x3_1
I0105 10:52:03.834231 13351 net.cpp:459] inception_3b/relu_double_3x3_1 <- inception_3b/double_3x3_1_bn
I0105 10:52:03.834236 13351 net.cpp:404] inception_3b/relu_double_3x3_1 -> inception_3b/double_3x3_1_bn (in-place)
I0105 10:52:03.834242 13351 net.cpp:160] Setting up inception_3b/relu_double_3x3_1
I0105 10:52:03.834249 13351 net.cpp:167] Top shape: 72 96 28 28 (5419008)
I0105 10:52:03.834254 13351 layer_factory.hpp:74] Creating layer inception_3b/double_3x3_2
I0105 10:52:03.834261 13351 net.cpp:96] Creating Layer inception_3b/double_3x3_2
I0105 10:52:03.834266 13351 net.cpp:459] inception_3b/double_3x3_2 <- inception_3b/double_3x3_1_bn
I0105 10:52:03.834276 13351 net.cpp:415] inception_3b/double_3x3_2 -> inception_3b/double_3x3_2
I0105 10:52:03.834288 13351 net.cpp:160] Setting up inception_3b/double_3x3_2
I0105 10:52:03.834954 13351 net.cpp:167] Top shape: 72 96 28 28 (5419008)
I0105 10:52:03.834966 13351 layer_factory.hpp:74] Creating layer inception_3b/double_3x3_2_bn
I0105 10:52:03.834971 13351 layer_factory.cpp:177] Layer inception_3b/double_3x3_2_bn is using CAFFE engine.
I0105 10:52:03.834980 13351 net.cpp:96] Creating Layer inception_3b/double_3x3_2_bn
I0105 10:52:03.834985 13351 net.cpp:459] inception_3b/double_3x3_2_bn <- inception_3b/double_3x3_2
I0105 10:52:03.834995 13351 net.cpp:415] inception_3b/double_3x3_2_bn -> inception_3b/double_3x3_2_bn
I0105 10:52:03.835002 13351 net.cpp:160] Setting up inception_3b/double_3x3_2_bn
I0105 10:52:03.835021 13351 net.cpp:167] Top shape: 72 96 28 28 (5419008)
I0105 10:52:03.835031 13351 layer_factory.hpp:74] Creating layer inception_3b/relu_double_3x3_2
I0105 10:52:03.835038 13351 net.cpp:96] Creating Layer inception_3b/relu_double_3x3_2
I0105 10:52:03.835044 13351 net.cpp:459] inception_3b/relu_double_3x3_2 <- inception_3b/double_3x3_2_bn
I0105 10:52:03.835052 13351 net.cpp:404] inception_3b/relu_double_3x3_2 -> inception_3b/double_3x3_2_bn (in-place)
I0105 10:52:03.835058 13351 net.cpp:160] Setting up inception_3b/relu_double_3x3_2
I0105 10:52:03.835065 13351 net.cpp:167] Top shape: 72 96 28 28 (5419008)
I0105 10:52:03.835072 13351 layer_factory.hpp:74] Creating layer inception_3b/pool
I0105 10:52:03.835079 13351 net.cpp:96] Creating Layer inception_3b/pool
I0105 10:52:03.835085 13351 net.cpp:459] inception_3b/pool <- inception_3a/output_inception_3a/output_0_split_3
I0105 10:52:03.835095 13351 net.cpp:415] inception_3b/pool -> inception_3b/pool
I0105 10:52:03.835103 13351 net.cpp:160] Setting up inception_3b/pool
I0105 10:52:03.835113 13351 net.cpp:167] Top shape: 72 256 28 28 (14450688)
I0105 10:52:03.835119 13351 layer_factory.hpp:74] Creating layer inception_3b/pool_proj
I0105 10:52:03.835129 13351 net.cpp:96] Creating Layer inception_3b/pool_proj
I0105 10:52:03.835135 13351 net.cpp:459] inception_3b/pool_proj <- inception_3b/pool
I0105 10:52:03.835144 13351 net.cpp:415] inception_3b/pool_proj -> inception_3b/pool_proj
I0105 10:52:03.835152 13351 net.cpp:160] Setting up inception_3b/pool_proj
I0105 10:52:03.835289 13351 net.cpp:167] Top shape: 72 64 28 28 (3612672)
I0105 10:52:03.835299 13351 layer_factory.hpp:74] Creating layer inception_3b/pool_proj_bn
I0105 10:52:03.835304 13351 layer_factory.cpp:177] Layer inception_3b/pool_proj_bn is using CAFFE engine.
I0105 10:52:03.835314 13351 net.cpp:96] Creating Layer inception_3b/pool_proj_bn
I0105 10:52:03.835319 13351 net.cpp:459] inception_3b/pool_proj_bn <- inception_3b/pool_proj
I0105 10:52:03.835328 13351 net.cpp:415] inception_3b/pool_proj_bn -> inception_3b/pool_proj_bn
I0105 10:52:03.835336 13351 net.cpp:160] Setting up inception_3b/pool_proj_bn
I0105 10:52:03.835355 13351 net.cpp:167] Top shape: 72 64 28 28 (3612672)
I0105 10:52:03.835364 13351 layer_factory.hpp:74] Creating layer inception_3b/relu_pool_proj
I0105 10:52:03.835371 13351 net.cpp:96] Creating Layer inception_3b/relu_pool_proj
I0105 10:52:03.835377 13351 net.cpp:459] inception_3b/relu_pool_proj <- inception_3b/pool_proj_bn
I0105 10:52:03.835384 13351 net.cpp:404] inception_3b/relu_pool_proj -> inception_3b/pool_proj_bn (in-place)
I0105 10:52:03.835391 13351 net.cpp:160] Setting up inception_3b/relu_pool_proj
I0105 10:52:03.835397 13351 net.cpp:167] Top shape: 72 64 28 28 (3612672)
I0105 10:52:03.835402 13351 layer_factory.hpp:74] Creating layer inception_3b/output
I0105 10:52:03.835409 13351 net.cpp:96] Creating Layer inception_3b/output
I0105 10:52:03.835414 13351 net.cpp:459] inception_3b/output <- inception_3b/1x1_bn
I0105 10:52:03.835420 13351 net.cpp:459] inception_3b/output <- inception_3b/3x3_bn
I0105 10:52:03.835427 13351 net.cpp:459] inception_3b/output <- inception_3b/double_3x3_2_bn
I0105 10:52:03.835433 13351 net.cpp:459] inception_3b/output <- inception_3b/pool_proj_bn
I0105 10:52:03.835443 13351 net.cpp:415] inception_3b/output -> inception_3b/output
I0105 10:52:03.835454 13351 net.cpp:160] Setting up inception_3b/output
I0105 10:52:03.835464 13351 net.cpp:167] Top shape: 72 320 28 28 (18063360)
I0105 10:52:03.835469 13351 layer_factory.hpp:74] Creating layer inception_3b/output_inception_3b/output_0_split
I0105 10:52:03.835485 13351 net.cpp:96] Creating Layer inception_3b/output_inception_3b/output_0_split
I0105 10:52:03.835492 13351 net.cpp:459] inception_3b/output_inception_3b/output_0_split <- inception_3b/output
I0105 10:52:03.835500 13351 net.cpp:415] inception_3b/output_inception_3b/output_0_split -> inception_3b/output_inception_3b/output_0_split_0
I0105 10:52:03.835507 13351 net.cpp:415] inception_3b/output_inception_3b/output_0_split -> inception_3b/output_inception_3b/output_0_split_1
I0105 10:52:03.835515 13351 net.cpp:415] inception_3b/output_inception_3b/output_0_split -> inception_3b/output_inception_3b/output_0_split_2
I0105 10:52:03.835522 13351 net.cpp:160] Setting up inception_3b/output_inception_3b/output_0_split
I0105 10:52:03.835531 13351 net.cpp:167] Top shape: 72 320 28 28 (18063360)
I0105 10:52:03.835537 13351 net.cpp:167] Top shape: 72 320 28 28 (18063360)
I0105 10:52:03.835543 13351 net.cpp:167] Top shape: 72 320 28 28 (18063360)
I0105 10:52:03.835548 13351 layer_factory.hpp:74] Creating layer inception_3c/3x3_reduce
I0105 10:52:03.835557 13351 net.cpp:96] Creating Layer inception_3c/3x3_reduce
I0105 10:52:03.835564 13351 net.cpp:459] inception_3c/3x3_reduce <- inception_3b/output_inception_3b/output_0_split_0
I0105 10:52:03.835574 13351 net.cpp:415] inception_3c/3x3_reduce -> inception_3c/3x3_reduce
I0105 10:52:03.835583 13351 net.cpp:160] Setting up inception_3c/3x3_reduce
I0105 10:52:03.835919 13351 net.cpp:167] Top shape: 72 128 28 28 (7225344)
I0105 10:52:03.835933 13351 layer_factory.hpp:74] Creating layer inception_3c/3x3_reduce_bn
I0105 10:52:03.835938 13351 layer_factory.cpp:177] Layer inception_3c/3x3_reduce_bn is using CAFFE engine.
I0105 10:52:03.835947 13351 net.cpp:96] Creating Layer inception_3c/3x3_reduce_bn
I0105 10:52:03.835953 13351 net.cpp:459] inception_3c/3x3_reduce_bn <- inception_3c/3x3_reduce
I0105 10:52:03.835960 13351 net.cpp:415] inception_3c/3x3_reduce_bn -> inception_3c/3x3_reduce_bn
I0105 10:52:03.835969 13351 net.cpp:160] Setting up inception_3c/3x3_reduce_bn
I0105 10:52:03.835991 13351 net.cpp:167] Top shape: 72 128 28 28 (7225344)
I0105 10:52:03.836002 13351 layer_factory.hpp:74] Creating layer inception_3c/relu_3x3_reduce
I0105 10:52:03.836015 13351 net.cpp:96] Creating Layer inception_3c/relu_3x3_reduce
I0105 10:52:03.836021 13351 net.cpp:459] inception_3c/relu_3x3_reduce <- inception_3c/3x3_reduce_bn
I0105 10:52:03.836028 13351 net.cpp:404] inception_3c/relu_3x3_reduce -> inception_3c/3x3_reduce_bn (in-place)
I0105 10:52:03.836035 13351 net.cpp:160] Setting up inception_3c/relu_3x3_reduce
I0105 10:52:03.836042 13351 net.cpp:167] Top shape: 72 128 28 28 (7225344)
I0105 10:52:03.836048 13351 layer_factory.hpp:74] Creating layer inception_3c/3x3
I0105 10:52:03.836056 13351 net.cpp:96] Creating Layer inception_3c/3x3
I0105 10:52:03.836061 13351 net.cpp:459] inception_3c/3x3 <- inception_3c/3x3_reduce_bn
I0105 10:52:03.836072 13351 net.cpp:415] inception_3c/3x3 -> inception_3c/3x3
I0105 10:52:03.836081 13351 net.cpp:160] Setting up inception_3c/3x3
I0105 10:52:03.837476 13351 net.cpp:167] Top shape: 72 160 14 14 (2257920)
I0105 10:52:03.837488 13351 layer_factory.hpp:74] Creating layer inception_3c/3x3_bn
I0105 10:52:03.837496 13351 layer_factory.cpp:177] Layer inception_3c/3x3_bn is using CAFFE engine.
I0105 10:52:03.837505 13351 net.cpp:96] Creating Layer inception_3c/3x3_bn
I0105 10:52:03.837510 13351 net.cpp:459] inception_3c/3x3_bn <- inception_3c/3x3
I0105 10:52:03.837517 13351 net.cpp:415] inception_3c/3x3_bn -> inception_3c/3x3_bn
I0105 10:52:03.837527 13351 net.cpp:160] Setting up inception_3c/3x3_bn
I0105 10:52:03.837545 13351 net.cpp:167] Top shape: 72 160 14 14 (2257920)
I0105 10:52:03.837556 13351 layer_factory.hpp:74] Creating layer inception_3c/relu_3x3
I0105 10:52:03.837594 13351 net.cpp:96] Creating Layer inception_3c/relu_3x3
I0105 10:52:03.837605 13351 net.cpp:459] inception_3c/relu_3x3 <- inception_3c/3x3_bn
I0105 10:52:03.837613 13351 net.cpp:404] inception_3c/relu_3x3 -> inception_3c/3x3_bn (in-place)
I0105 10:52:03.837621 13351 net.cpp:160] Setting up inception_3c/relu_3x3
I0105 10:52:03.837628 13351 net.cpp:167] Top shape: 72 160 14 14 (2257920)
I0105 10:52:03.837633 13351 layer_factory.hpp:74] Creating layer inception_3c/double_3x3_reduce
I0105 10:52:03.837643 13351 net.cpp:96] Creating Layer inception_3c/double_3x3_reduce
I0105 10:52:03.837649 13351 net.cpp:459] inception_3c/double_3x3_reduce <- inception_3b/output_inception_3b/output_0_split_1
I0105 10:52:03.837656 13351 net.cpp:415] inception_3c/double_3x3_reduce -> inception_3c/double_3x3_reduce
I0105 10:52:03.837666 13351 net.cpp:160] Setting up inception_3c/double_3x3_reduce
I0105 10:52:03.837858 13351 net.cpp:167] Top shape: 72 64 28 28 (3612672)
I0105 10:52:03.837872 13351 layer_factory.hpp:74] Creating layer inception_3c/double_3x3_reduce_bn
I0105 10:52:03.837877 13351 layer_factory.cpp:177] Layer inception_3c/double_3x3_reduce_bn is using CAFFE engine.
I0105 10:52:03.837888 13351 net.cpp:96] Creating Layer inception_3c/double_3x3_reduce_bn
I0105 10:52:03.837893 13351 net.cpp:459] inception_3c/double_3x3_reduce_bn <- inception_3c/double_3x3_reduce
I0105 10:52:03.837903 13351 net.cpp:415] inception_3c/double_3x3_reduce_bn -> inception_3c/double_3x3_reduce_bn
I0105 10:52:03.837911 13351 net.cpp:160] Setting up inception_3c/double_3x3_reduce_bn
I0105 10:52:03.837929 13351 net.cpp:167] Top shape: 72 64 28 28 (3612672)
I0105 10:52:03.837939 13351 layer_factory.hpp:74] Creating layer inception_3c/relu_double_3x3_reduce
I0105 10:52:03.837947 13351 net.cpp:96] Creating Layer inception_3c/relu_double_3x3_reduce
I0105 10:52:03.837952 13351 net.cpp:459] inception_3c/relu_double_3x3_reduce <- inception_3c/double_3x3_reduce_bn
I0105 10:52:03.837959 13351 net.cpp:404] inception_3c/relu_double_3x3_reduce -> inception_3c/double_3x3_reduce_bn (in-place)
I0105 10:52:03.837965 13351 net.cpp:160] Setting up inception_3c/relu_double_3x3_reduce
I0105 10:52:03.837971 13351 net.cpp:167] Top shape: 72 64 28 28 (3612672)
I0105 10:52:03.837976 13351 layer_factory.hpp:74] Creating layer inception_3c/double_3x3_1
I0105 10:52:03.837985 13351 net.cpp:96] Creating Layer inception_3c/double_3x3_1
I0105 10:52:03.837990 13351 net.cpp:459] inception_3c/double_3x3_1 <- inception_3c/double_3x3_reduce_bn
I0105 10:52:03.837997 13351 net.cpp:415] inception_3c/double_3x3_1 -> inception_3c/double_3x3_1
I0105 10:52:03.838006 13351 net.cpp:160] Setting up inception_3c/double_3x3_1
I0105 10:52:03.838449 13351 net.cpp:167] Top shape: 72 96 28 28 (5419008)
I0105 10:52:03.838459 13351 layer_factory.hpp:74] Creating layer inception_3c/double_3x3_1_bn
I0105 10:52:03.838464 13351 layer_factory.cpp:177] Layer inception_3c/double_3x3_1_bn is using CAFFE engine.
I0105 10:52:03.838472 13351 net.cpp:96] Creating Layer inception_3c/double_3x3_1_bn
I0105 10:52:03.838479 13351 net.cpp:459] inception_3c/double_3x3_1_bn <- inception_3c/double_3x3_1
I0105 10:52:03.838485 13351 net.cpp:415] inception_3c/double_3x3_1_bn -> inception_3c/double_3x3_1_bn
I0105 10:52:03.838492 13351 net.cpp:160] Setting up inception_3c/double_3x3_1_bn
I0105 10:52:03.838511 13351 net.cpp:167] Top shape: 72 96 28 28 (5419008)
I0105 10:52:03.838521 13351 layer_factory.hpp:74] Creating layer inception_3c/relu_double_3x3_1
I0105 10:52:03.838527 13351 net.cpp:96] Creating Layer inception_3c/relu_double_3x3_1
I0105 10:52:03.838532 13351 net.cpp:459] inception_3c/relu_double_3x3_1 <- inception_3c/double_3x3_1_bn
I0105 10:52:03.838541 13351 net.cpp:404] inception_3c/relu_double_3x3_1 -> inception_3c/double_3x3_1_bn (in-place)
I0105 10:52:03.838546 13351 net.cpp:160] Setting up inception_3c/relu_double_3x3_1
I0105 10:52:03.838552 13351 net.cpp:167] Top shape: 72 96 28 28 (5419008)
I0105 10:52:03.838557 13351 layer_factory.hpp:74] Creating layer inception_3c/double_3x3_2
I0105 10:52:03.838570 13351 net.cpp:96] Creating Layer inception_3c/double_3x3_2
I0105 10:52:03.838580 13351 net.cpp:459] inception_3c/double_3x3_2 <- inception_3c/double_3x3_1_bn
I0105 10:52:03.838589 13351 net.cpp:415] inception_3c/double_3x3_2 -> inception_3c/double_3x3_2
I0105 10:52:03.838598 13351 net.cpp:160] Setting up inception_3c/double_3x3_2
I0105 10:52:03.839265 13351 net.cpp:167] Top shape: 72 96 14 14 (1354752)
I0105 10:52:03.839275 13351 layer_factory.hpp:74] Creating layer inception_3c/double_3x3_2_bn
I0105 10:52:03.839280 13351 layer_factory.cpp:177] Layer inception_3c/double_3x3_2_bn is using CAFFE engine.
I0105 10:52:03.839287 13351 net.cpp:96] Creating Layer inception_3c/double_3x3_2_bn
I0105 10:52:03.839293 13351 net.cpp:459] inception_3c/double_3x3_2_bn <- inception_3c/double_3x3_2
I0105 10:52:03.839299 13351 net.cpp:415] inception_3c/double_3x3_2_bn -> inception_3c/double_3x3_2_bn
I0105 10:52:03.839306 13351 net.cpp:160] Setting up inception_3c/double_3x3_2_bn
I0105 10:52:03.839323 13351 net.cpp:167] Top shape: 72 96 14 14 (1354752)
I0105 10:52:03.839345 13351 layer_factory.hpp:74] Creating layer inception_3c/relu_double_3x3_2
I0105 10:52:03.839352 13351 net.cpp:96] Creating Layer inception_3c/relu_double_3x3_2
I0105 10:52:03.839357 13351 net.cpp:459] inception_3c/relu_double_3x3_2 <- inception_3c/double_3x3_2_bn
I0105 10:52:03.839362 13351 net.cpp:404] inception_3c/relu_double_3x3_2 -> inception_3c/double_3x3_2_bn (in-place)
I0105 10:52:03.839368 13351 net.cpp:160] Setting up inception_3c/relu_double_3x3_2
I0105 10:52:03.839375 13351 net.cpp:167] Top shape: 72 96 14 14 (1354752)
I0105 10:52:03.839380 13351 layer_factory.hpp:74] Creating layer inception_3c/pool
I0105 10:52:03.839385 13351 net.cpp:96] Creating Layer inception_3c/pool
I0105 10:52:03.839390 13351 net.cpp:459] inception_3c/pool <- inception_3b/output_inception_3b/output_0_split_2
I0105 10:52:03.839396 13351 net.cpp:415] inception_3c/pool -> inception_3c/pool
I0105 10:52:03.839409 13351 net.cpp:160] Setting up inception_3c/pool
I0105 10:52:03.839418 13351 net.cpp:167] Top shape: 72 320 14 14 (4515840)
I0105 10:52:03.839423 13351 layer_factory.hpp:74] Creating layer inception_3c/output
I0105 10:52:03.839431 13351 net.cpp:96] Creating Layer inception_3c/output
I0105 10:52:03.839435 13351 net.cpp:459] inception_3c/output <- inception_3c/3x3_bn
I0105 10:52:03.839442 13351 net.cpp:459] inception_3c/output <- inception_3c/double_3x3_2_bn
I0105 10:52:03.839447 13351 net.cpp:459] inception_3c/output <- inception_3c/pool
I0105 10:52:03.839453 13351 net.cpp:415] inception_3c/output -> inception_3c/output
I0105 10:52:03.839460 13351 net.cpp:160] Setting up inception_3c/output
I0105 10:52:03.839468 13351 net.cpp:167] Top shape: 72 576 14 14 (8128512)
I0105 10:52:03.839473 13351 layer_factory.hpp:74] Creating layer inception_3c/output_inception_3c/output_0_split
I0105 10:52:03.839480 13351 net.cpp:96] Creating Layer inception_3c/output_inception_3c/output_0_split
I0105 10:52:03.839485 13351 net.cpp:459] inception_3c/output_inception_3c/output_0_split <- inception_3c/output
I0105 10:52:03.839493 13351 net.cpp:415] inception_3c/output_inception_3c/output_0_split -> inception_3c/output_inception_3c/output_0_split_0
I0105 10:52:03.839501 13351 net.cpp:415] inception_3c/output_inception_3c/output_0_split -> inception_3c/output_inception_3c/output_0_split_1
I0105 10:52:03.839509 13351 net.cpp:415] inception_3c/output_inception_3c/output_0_split -> inception_3c/output_inception_3c/output_0_split_2
I0105 10:52:03.839516 13351 net.cpp:415] inception_3c/output_inception_3c/output_0_split -> inception_3c/output_inception_3c/output_0_split_3
I0105 10:52:03.839524 13351 net.cpp:160] Setting up inception_3c/output_inception_3c/output_0_split
I0105 10:52:03.839531 13351 net.cpp:167] Top shape: 72 576 14 14 (8128512)
I0105 10:52:03.839537 13351 net.cpp:167] Top shape: 72 576 14 14 (8128512)
I0105 10:52:03.839542 13351 net.cpp:167] Top shape: 72 576 14 14 (8128512)
I0105 10:52:03.839548 13351 net.cpp:167] Top shape: 72 576 14 14 (8128512)
I0105 10:52:03.839556 13351 layer_factory.hpp:74] Creating layer inception_4a/1x1
I0105 10:52:03.839570 13351 net.cpp:96] Creating Layer inception_4a/1x1
I0105 10:52:03.839574 13351 net.cpp:459] inception_4a/1x1 <- inception_3c/output_inception_3c/output_0_split_0
I0105 10:52:03.839583 13351 net.cpp:415] inception_4a/1x1 -> inception_4a/1x1
I0105 10:52:03.839591 13351 net.cpp:160] Setting up inception_4a/1x1
I0105 10:52:03.840620 13351 net.cpp:167] Top shape: 72 224 14 14 (3161088)
I0105 10:52:03.840631 13351 layer_factory.hpp:74] Creating layer inception_4a/1x1_bn
I0105 10:52:03.840636 13351 layer_factory.cpp:177] Layer inception_4a/1x1_bn is using CAFFE engine.
I0105 10:52:03.840643 13351 net.cpp:96] Creating Layer inception_4a/1x1_bn
I0105 10:52:03.840648 13351 net.cpp:459] inception_4a/1x1_bn <- inception_4a/1x1
I0105 10:52:03.840656 13351 net.cpp:415] inception_4a/1x1_bn -> inception_4a/1x1_bn
I0105 10:52:03.840664 13351 net.cpp:160] Setting up inception_4a/1x1_bn
I0105 10:52:03.840682 13351 net.cpp:167] Top shape: 72 224 14 14 (3161088)
I0105 10:52:03.840690 13351 layer_factory.hpp:74] Creating layer inception_4a/relu_1x1
I0105 10:52:03.840698 13351 net.cpp:96] Creating Layer inception_4a/relu_1x1
I0105 10:52:03.840701 13351 net.cpp:459] inception_4a/relu_1x1 <- inception_4a/1x1_bn
I0105 10:52:03.840708 13351 net.cpp:404] inception_4a/relu_1x1 -> inception_4a/1x1_bn (in-place)
I0105 10:52:03.840713 13351 net.cpp:160] Setting up inception_4a/relu_1x1
I0105 10:52:03.840718 13351 net.cpp:167] Top shape: 72 224 14 14 (3161088)
I0105 10:52:03.840723 13351 layer_factory.hpp:74] Creating layer inception_4a/3x3_reduce
I0105 10:52:03.840729 13351 net.cpp:96] Creating Layer inception_4a/3x3_reduce
I0105 10:52:03.840734 13351 net.cpp:459] inception_4a/3x3_reduce <- inception_3c/output_inception_3c/output_0_split_1
I0105 10:52:03.840744 13351 net.cpp:415] inception_4a/3x3_reduce -> inception_4a/3x3_reduce
I0105 10:52:03.840751 13351 net.cpp:160] Setting up inception_4a/3x3_reduce
I0105 10:52:03.841053 13351 net.cpp:167] Top shape: 72 64 14 14 (903168)
I0105 10:52:03.841063 13351 layer_factory.hpp:74] Creating layer inception_4a/3x3_reduce_bn
I0105 10:52:03.841068 13351 layer_factory.cpp:177] Layer inception_4a/3x3_reduce_bn is using CAFFE engine.
I0105 10:52:03.841075 13351 net.cpp:96] Creating Layer inception_4a/3x3_reduce_bn
I0105 10:52:03.841081 13351 net.cpp:459] inception_4a/3x3_reduce_bn <- inception_4a/3x3_reduce
I0105 10:52:03.841089 13351 net.cpp:415] inception_4a/3x3_reduce_bn -> inception_4a/3x3_reduce_bn
I0105 10:52:03.841096 13351 net.cpp:160] Setting up inception_4a/3x3_reduce_bn
I0105 10:52:03.841114 13351 net.cpp:167] Top shape: 72 64 14 14 (903168)
I0105 10:52:03.841123 13351 layer_factory.hpp:74] Creating layer inception_4a/relu_3x3_reduce
I0105 10:52:03.841130 13351 net.cpp:96] Creating Layer inception_4a/relu_3x3_reduce
I0105 10:52:03.841135 13351 net.cpp:459] inception_4a/relu_3x3_reduce <- inception_4a/3x3_reduce_bn
I0105 10:52:03.841140 13351 net.cpp:404] inception_4a/relu_3x3_reduce -> inception_4a/3x3_reduce_bn (in-place)
I0105 10:52:03.841147 13351 net.cpp:160] Setting up inception_4a/relu_3x3_reduce
I0105 10:52:03.841153 13351 net.cpp:167] Top shape: 72 64 14 14 (903168)
I0105 10:52:03.841158 13351 layer_factory.hpp:74] Creating layer inception_4a/3x3
I0105 10:52:03.841166 13351 net.cpp:96] Creating Layer inception_4a/3x3
I0105 10:52:03.841171 13351 net.cpp:459] inception_4a/3x3 <- inception_4a/3x3_reduce_bn
I0105 10:52:03.841179 13351 net.cpp:415] inception_4a/3x3 -> inception_4a/3x3
I0105 10:52:03.841187 13351 net.cpp:160] Setting up inception_4a/3x3
I0105 10:52:03.841634 13351 net.cpp:167] Top shape: 72 96 14 14 (1354752)
I0105 10:52:03.841642 13351 layer_factory.hpp:74] Creating layer inception_4a/3x3_bn
I0105 10:52:03.841648 13351 layer_factory.cpp:177] Layer inception_4a/3x3_bn is using CAFFE engine.
I0105 10:52:03.841658 13351 net.cpp:96] Creating Layer inception_4a/3x3_bn
I0105 10:52:03.841663 13351 net.cpp:459] inception_4a/3x3_bn <- inception_4a/3x3
I0105 10:52:03.841671 13351 net.cpp:415] inception_4a/3x3_bn -> inception_4a/3x3_bn
I0105 10:52:03.841682 13351 net.cpp:160] Setting up inception_4a/3x3_bn
I0105 10:52:03.841704 13351 net.cpp:167] Top shape: 72 96 14 14 (1354752)
I0105 10:52:03.841712 13351 layer_factory.hpp:74] Creating layer inception_4a/relu_3x3
I0105 10:52:03.841719 13351 net.cpp:96] Creating Layer inception_4a/relu_3x3
I0105 10:52:03.841724 13351 net.cpp:459] inception_4a/relu_3x3 <- inception_4a/3x3_bn
I0105 10:52:03.841730 13351 net.cpp:404] inception_4a/relu_3x3 -> inception_4a/3x3_bn (in-place)
I0105 10:52:03.841737 13351 net.cpp:160] Setting up inception_4a/relu_3x3
I0105 10:52:03.841742 13351 net.cpp:167] Top shape: 72 96 14 14 (1354752)
I0105 10:52:03.841747 13351 layer_factory.hpp:74] Creating layer inception_4a/double_3x3_reduce
I0105 10:52:03.841754 13351 net.cpp:96] Creating Layer inception_4a/double_3x3_reduce
I0105 10:52:03.841758 13351 net.cpp:459] inception_4a/double_3x3_reduce <- inception_3c/output_inception_3c/output_0_split_2
I0105 10:52:03.841764 13351 net.cpp:415] inception_4a/double_3x3_reduce -> inception_4a/double_3x3_reduce
I0105 10:52:03.841771 13351 net.cpp:160] Setting up inception_4a/double_3x3_reduce
I0105 10:52:03.842222 13351 net.cpp:167] Top shape: 72 96 14 14 (1354752)
I0105 10:52:03.842236 13351 layer_factory.hpp:74] Creating layer inception_4a/double_3x3_reduce_bn
I0105 10:52:03.842242 13351 layer_factory.cpp:177] Layer inception_4a/double_3x3_reduce_bn is using CAFFE engine.
I0105 10:52:03.842248 13351 net.cpp:96] Creating Layer inception_4a/double_3x3_reduce_bn
I0105 10:52:03.842253 13351 net.cpp:459] inception_4a/double_3x3_reduce_bn <- inception_4a/double_3x3_reduce
I0105 10:52:03.842262 13351 net.cpp:415] inception_4a/double_3x3_reduce_bn -> inception_4a/double_3x3_reduce_bn
I0105 10:52:03.842269 13351 net.cpp:160] Setting up inception_4a/double_3x3_reduce_bn
I0105 10:52:03.842283 13351 net.cpp:167] Top shape: 72 96 14 14 (1354752)
I0105 10:52:03.842290 13351 layer_factory.hpp:74] Creating layer inception_4a/relu_double_3x3_reduce
I0105 10:52:03.842295 13351 net.cpp:96] Creating Layer inception_4a/relu_double_3x3_reduce
I0105 10:52:03.842298 13351 net.cpp:459] inception_4a/relu_double_3x3_reduce <- inception_4a/double_3x3_reduce_bn
I0105 10:52:03.842303 13351 net.cpp:404] inception_4a/relu_double_3x3_reduce -> inception_4a/double_3x3_reduce_bn (in-place)
I0105 10:52:03.842306 13351 net.cpp:160] Setting up inception_4a/relu_double_3x3_reduce
I0105 10:52:03.842310 13351 net.cpp:167] Top shape: 72 96 14 14 (1354752)
I0105 10:52:03.842314 13351 layer_factory.hpp:74] Creating layer inception_4a/double_3x3_1
I0105 10:52:03.842319 13351 net.cpp:96] Creating Layer inception_4a/double_3x3_1
I0105 10:52:03.842321 13351 net.cpp:459] inception_4a/double_3x3_1 <- inception_4a/double_3x3_reduce_bn
I0105 10:52:03.842326 13351 net.cpp:415] inception_4a/double_3x3_1 -> inception_4a/double_3x3_1
I0105 10:52:03.842331 13351 net.cpp:160] Setting up inception_4a/double_3x3_1
I0105 10:52:03.842819 13351 net.cpp:167] Top shape: 72 128 14 14 (1806336)
I0105 10:52:03.842825 13351 layer_factory.hpp:74] Creating layer inception_4a/double_3x3_1_bn
I0105 10:52:03.842828 13351 layer_factory.cpp:177] Layer inception_4a/double_3x3_1_bn is using CAFFE engine.
I0105 10:52:03.842833 13351 net.cpp:96] Creating Layer inception_4a/double_3x3_1_bn
I0105 10:52:03.842838 13351 net.cpp:459] inception_4a/double_3x3_1_bn <- inception_4a/double_3x3_1
I0105 10:52:03.842842 13351 net.cpp:415] inception_4a/double_3x3_1_bn -> inception_4a/double_3x3_1_bn
I0105 10:52:03.842847 13351 net.cpp:160] Setting up inception_4a/double_3x3_1_bn
I0105 10:52:03.842857 13351 net.cpp:167] Top shape: 72 128 14 14 (1806336)
I0105 10:52:03.842864 13351 layer_factory.hpp:74] Creating layer inception_4a/relu_double_3x3_1
I0105 10:52:03.842869 13351 net.cpp:96] Creating Layer inception_4a/relu_double_3x3_1
I0105 10:52:03.842871 13351 net.cpp:459] inception_4a/relu_double_3x3_1 <- inception_4a/double_3x3_1_bn
I0105 10:52:03.842875 13351 net.cpp:404] inception_4a/relu_double_3x3_1 -> inception_4a/double_3x3_1_bn (in-place)
I0105 10:52:03.842882 13351 net.cpp:160] Setting up inception_4a/relu_double_3x3_1
I0105 10:52:03.842890 13351 net.cpp:167] Top shape: 72 128 14 14 (1806336)
I0105 10:52:03.842893 13351 layer_factory.hpp:74] Creating layer inception_4a/double_3x3_2
I0105 10:52:03.842900 13351 net.cpp:96] Creating Layer inception_4a/double_3x3_2
I0105 10:52:03.842902 13351 net.cpp:459] inception_4a/double_3x3_2 <- inception_4a/double_3x3_1_bn
I0105 10:52:03.842906 13351 net.cpp:415] inception_4a/double_3x3_2 -> inception_4a/double_3x3_2
I0105 10:52:03.842911 13351 net.cpp:160] Setting up inception_4a/double_3x3_2
I0105 10:52:03.843551 13351 net.cpp:167] Top shape: 72 128 14 14 (1806336)
I0105 10:52:03.843557 13351 layer_factory.hpp:74] Creating layer inception_4a/double_3x3_2_bn
I0105 10:52:03.843561 13351 layer_factory.cpp:177] Layer inception_4a/double_3x3_2_bn is using CAFFE engine.
I0105 10:52:03.843566 13351 net.cpp:96] Creating Layer inception_4a/double_3x3_2_bn
I0105 10:52:03.843569 13351 net.cpp:459] inception_4a/double_3x3_2_bn <- inception_4a/double_3x3_2
I0105 10:52:03.843574 13351 net.cpp:415] inception_4a/double_3x3_2_bn -> inception_4a/double_3x3_2_bn
I0105 10:52:03.843578 13351 net.cpp:160] Setting up inception_4a/double_3x3_2_bn
I0105 10:52:03.843588 13351 net.cpp:167] Top shape: 72 128 14 14 (1806336)
I0105 10:52:03.843593 13351 layer_factory.hpp:74] Creating layer inception_4a/relu_double_3x3_2
I0105 10:52:03.843598 13351 net.cpp:96] Creating Layer inception_4a/relu_double_3x3_2
I0105 10:52:03.843602 13351 net.cpp:459] inception_4a/relu_double_3x3_2 <- inception_4a/double_3x3_2_bn
I0105 10:52:03.843605 13351 net.cpp:404] inception_4a/relu_double_3x3_2 -> inception_4a/double_3x3_2_bn (in-place)
I0105 10:52:03.843610 13351 net.cpp:160] Setting up inception_4a/relu_double_3x3_2
I0105 10:52:03.843613 13351 net.cpp:167] Top shape: 72 128 14 14 (1806336)
I0105 10:52:03.843616 13351 layer_factory.hpp:74] Creating layer inception_4a/pool
I0105 10:52:03.843621 13351 net.cpp:96] Creating Layer inception_4a/pool
I0105 10:52:03.843623 13351 net.cpp:459] inception_4a/pool <- inception_3c/output_inception_3c/output_0_split_3
I0105 10:52:03.843628 13351 net.cpp:415] inception_4a/pool -> inception_4a/pool
I0105 10:52:03.843632 13351 net.cpp:160] Setting up inception_4a/pool
I0105 10:52:03.843637 13351 net.cpp:167] Top shape: 72 576 14 14 (8128512)
I0105 10:52:03.843641 13351 layer_factory.hpp:74] Creating layer inception_4a/pool_proj
I0105 10:52:03.843646 13351 net.cpp:96] Creating Layer inception_4a/pool_proj
I0105 10:52:03.843648 13351 net.cpp:459] inception_4a/pool_proj <- inception_4a/pool
I0105 10:52:03.843653 13351 net.cpp:415] inception_4a/pool_proj -> inception_4a/pool_proj
I0105 10:52:03.843658 13351 net.cpp:160] Setting up inception_4a/pool_proj
I0105 10:52:03.843983 13351 net.cpp:167] Top shape: 72 128 14 14 (1806336)
I0105 10:52:03.843989 13351 layer_factory.hpp:74] Creating layer inception_4a/pool_proj_bn
I0105 10:52:03.843992 13351 layer_factory.cpp:177] Layer inception_4a/pool_proj_bn is using CAFFE engine.
I0105 10:52:03.843997 13351 net.cpp:96] Creating Layer inception_4a/pool_proj_bn
I0105 10:52:03.844002 13351 net.cpp:459] inception_4a/pool_proj_bn <- inception_4a/pool_proj
I0105 10:52:03.844005 13351 net.cpp:415] inception_4a/pool_proj_bn -> inception_4a/pool_proj_bn
I0105 10:52:03.844009 13351 net.cpp:160] Setting up inception_4a/pool_proj_bn
I0105 10:52:03.844019 13351 net.cpp:167] Top shape: 72 128 14 14 (1806336)
I0105 10:52:03.844025 13351 layer_factory.hpp:74] Creating layer inception_4a/relu_pool_proj
I0105 10:52:03.844030 13351 net.cpp:96] Creating Layer inception_4a/relu_pool_proj
I0105 10:52:03.844033 13351 net.cpp:459] inception_4a/relu_pool_proj <- inception_4a/pool_proj_bn
I0105 10:52:03.844038 13351 net.cpp:404] inception_4a/relu_pool_proj -> inception_4a/pool_proj_bn (in-place)
I0105 10:52:03.844040 13351 net.cpp:160] Setting up inception_4a/relu_pool_proj
I0105 10:52:03.844044 13351 net.cpp:167] Top shape: 72 128 14 14 (1806336)
I0105 10:52:03.844048 13351 layer_factory.hpp:74] Creating layer inception_4a/output
I0105 10:52:03.844056 13351 net.cpp:96] Creating Layer inception_4a/output
I0105 10:52:03.844063 13351 net.cpp:459] inception_4a/output <- inception_4a/1x1_bn
I0105 10:52:03.844066 13351 net.cpp:459] inception_4a/output <- inception_4a/3x3_bn
I0105 10:52:03.844070 13351 net.cpp:459] inception_4a/output <- inception_4a/double_3x3_2_bn
I0105 10:52:03.844074 13351 net.cpp:459] inception_4a/output <- inception_4a/pool_proj_bn
I0105 10:52:03.844077 13351 net.cpp:415] inception_4a/output -> inception_4a/output
I0105 10:52:03.844081 13351 net.cpp:160] Setting up inception_4a/output
I0105 10:52:03.844086 13351 net.cpp:167] Top shape: 72 576 14 14 (8128512)
I0105 10:52:03.844089 13351 layer_factory.hpp:74] Creating layer inception_4a/output_inception_4a/output_0_split
I0105 10:52:03.844094 13351 net.cpp:96] Creating Layer inception_4a/output_inception_4a/output_0_split
I0105 10:52:03.844097 13351 net.cpp:459] inception_4a/output_inception_4a/output_0_split <- inception_4a/output
I0105 10:52:03.844101 13351 net.cpp:415] inception_4a/output_inception_4a/output_0_split -> inception_4a/output_inception_4a/output_0_split_0
I0105 10:52:03.844106 13351 net.cpp:415] inception_4a/output_inception_4a/output_0_split -> inception_4a/output_inception_4a/output_0_split_1
I0105 10:52:03.844111 13351 net.cpp:415] inception_4a/output_inception_4a/output_0_split -> inception_4a/output_inception_4a/output_0_split_2
I0105 10:52:03.844116 13351 net.cpp:415] inception_4a/output_inception_4a/output_0_split -> inception_4a/output_inception_4a/output_0_split_3
I0105 10:52:03.844120 13351 net.cpp:160] Setting up inception_4a/output_inception_4a/output_0_split
I0105 10:52:03.844125 13351 net.cpp:167] Top shape: 72 576 14 14 (8128512)
I0105 10:52:03.844128 13351 net.cpp:167] Top shape: 72 576 14 14 (8128512)
I0105 10:52:03.844131 13351 net.cpp:167] Top shape: 72 576 14 14 (8128512)
I0105 10:52:03.844135 13351 net.cpp:167] Top shape: 72 576 14 14 (8128512)
I0105 10:52:03.844137 13351 layer_factory.hpp:74] Creating layer inception_4b/1x1
I0105 10:52:03.844142 13351 net.cpp:96] Creating Layer inception_4b/1x1
I0105 10:52:03.844146 13351 net.cpp:459] inception_4b/1x1 <- inception_4a/output_inception_4a/output_0_split_0
I0105 10:52:03.844151 13351 net.cpp:415] inception_4b/1x1 -> inception_4b/1x1
I0105 10:52:03.844156 13351 net.cpp:160] Setting up inception_4b/1x1
I0105 10:52:03.844638 13351 net.cpp:167] Top shape: 72 192 14 14 (2709504)
I0105 10:52:03.844645 13351 layer_factory.hpp:74] Creating layer inception_4b/1x1_bn
I0105 10:52:03.844648 13351 layer_factory.cpp:177] Layer inception_4b/1x1_bn is using CAFFE engine.
I0105 10:52:03.844653 13351 net.cpp:96] Creating Layer inception_4b/1x1_bn
I0105 10:52:03.844656 13351 net.cpp:459] inception_4b/1x1_bn <- inception_4b/1x1
I0105 10:52:03.844663 13351 net.cpp:415] inception_4b/1x1_bn -> inception_4b/1x1_bn
I0105 10:52:03.844668 13351 net.cpp:160] Setting up inception_4b/1x1_bn
I0105 10:52:03.844678 13351 net.cpp:167] Top shape: 72 192 14 14 (2709504)
I0105 10:52:03.844684 13351 layer_factory.hpp:74] Creating layer inception_4b/relu_1x1
I0105 10:52:03.844688 13351 net.cpp:96] Creating Layer inception_4b/relu_1x1
I0105 10:52:03.844692 13351 net.cpp:459] inception_4b/relu_1x1 <- inception_4b/1x1_bn
I0105 10:52:03.844696 13351 net.cpp:404] inception_4b/relu_1x1 -> inception_4b/1x1_bn (in-place)
I0105 10:52:03.844701 13351 net.cpp:160] Setting up inception_4b/relu_1x1
I0105 10:52:03.844703 13351 net.cpp:167] Top shape: 72 192 14 14 (2709504)
I0105 10:52:03.844707 13351 layer_factory.hpp:74] Creating layer inception_4b/3x3_reduce
I0105 10:52:03.844712 13351 net.cpp:96] Creating Layer inception_4b/3x3_reduce
I0105 10:52:03.844714 13351 net.cpp:459] inception_4b/3x3_reduce <- inception_4a/output_inception_4a/output_0_split_1
I0105 10:52:03.844719 13351 net.cpp:415] inception_4b/3x3_reduce -> inception_4b/3x3_reduce
I0105 10:52:03.844724 13351 net.cpp:160] Setting up inception_4b/3x3_reduce
I0105 10:52:03.844967 13351 net.cpp:167] Top shape: 72 96 14 14 (1354752)
I0105 10:52:03.844974 13351 layer_factory.hpp:74] Creating layer inception_4b/3x3_reduce_bn
I0105 10:52:03.844981 13351 layer_factory.cpp:177] Layer inception_4b/3x3_reduce_bn is using CAFFE engine.
I0105 10:52:03.844986 13351 net.cpp:96] Creating Layer inception_4b/3x3_reduce_bn
I0105 10:52:03.844990 13351 net.cpp:459] inception_4b/3x3_reduce_bn <- inception_4b/3x3_reduce
I0105 10:52:03.844995 13351 net.cpp:415] inception_4b/3x3_reduce_bn -> inception_4b/3x3_reduce_bn
I0105 10:52:03.845000 13351 net.cpp:160] Setting up inception_4b/3x3_reduce_bn
I0105 10:52:03.845011 13351 net.cpp:167] Top shape: 72 96 14 14 (1354752)
I0105 10:52:03.845016 13351 layer_factory.hpp:74] Creating layer inception_4b/relu_3x3_reduce
I0105 10:52:03.845021 13351 net.cpp:96] Creating Layer inception_4b/relu_3x3_reduce
I0105 10:52:03.845024 13351 net.cpp:459] inception_4b/relu_3x3_reduce <- inception_4b/3x3_reduce_bn
I0105 10:52:03.845027 13351 net.cpp:404] inception_4b/relu_3x3_reduce -> inception_4b/3x3_reduce_bn (in-place)
I0105 10:52:03.845031 13351 net.cpp:160] Setting up inception_4b/relu_3x3_reduce
I0105 10:52:03.845036 13351 net.cpp:167] Top shape: 72 96 14 14 (1354752)
I0105 10:52:03.845038 13351 layer_factory.hpp:74] Creating layer inception_4b/3x3
I0105 10:52:03.845044 13351 net.cpp:96] Creating Layer inception_4b/3x3
I0105 10:52:03.845047 13351 net.cpp:459] inception_4b/3x3 <- inception_4b/3x3_reduce_bn
I0105 10:52:03.845052 13351 net.cpp:415] inception_4b/3x3 -> inception_4b/3x3
I0105 10:52:03.845057 13351 net.cpp:160] Setting up inception_4b/3x3
I0105 10:52:03.845535 13351 net.cpp:167] Top shape: 72 128 14 14 (1806336)
I0105 10:52:03.845541 13351 layer_factory.hpp:74] Creating layer inception_4b/3x3_bn
I0105 10:52:03.845544 13351 layer_factory.cpp:177] Layer inception_4b/3x3_bn is using CAFFE engine.
I0105 10:52:03.845549 13351 net.cpp:96] Creating Layer inception_4b/3x3_bn
I0105 10:52:03.845552 13351 net.cpp:459] inception_4b/3x3_bn <- inception_4b/3x3
I0105 10:52:03.845557 13351 net.cpp:415] inception_4b/3x3_bn -> inception_4b/3x3_bn
I0105 10:52:03.845562 13351 net.cpp:160] Setting up inception_4b/3x3_bn
I0105 10:52:03.845572 13351 net.cpp:167] Top shape: 72 128 14 14 (1806336)
I0105 10:52:03.845578 13351 layer_factory.hpp:74] Creating layer inception_4b/relu_3x3
I0105 10:52:03.845582 13351 net.cpp:96] Creating Layer inception_4b/relu_3x3
I0105 10:52:03.845585 13351 net.cpp:459] inception_4b/relu_3x3 <- inception_4b/3x3_bn
I0105 10:52:03.845590 13351 net.cpp:404] inception_4b/relu_3x3 -> inception_4b/3x3_bn (in-place)
I0105 10:52:03.845594 13351 net.cpp:160] Setting up inception_4b/relu_3x3
I0105 10:52:03.845598 13351 net.cpp:167] Top shape: 72 128 14 14 (1806336)
I0105 10:52:03.845602 13351 layer_factory.hpp:74] Creating layer inception_4b/double_3x3_reduce
I0105 10:52:03.845605 13351 net.cpp:96] Creating Layer inception_4b/double_3x3_reduce
I0105 10:52:03.845609 13351 net.cpp:459] inception_4b/double_3x3_reduce <- inception_4a/output_inception_4a/output_0_split_2
I0105 10:52:03.845614 13351 net.cpp:415] inception_4b/double_3x3_reduce -> inception_4b/double_3x3_reduce
I0105 10:52:03.845618 13351 net.cpp:160] Setting up inception_4b/double_3x3_reduce
I0105 10:52:03.845870 13351 net.cpp:167] Top shape: 72 96 14 14 (1354752)
I0105 10:52:03.845877 13351 layer_factory.hpp:74] Creating layer inception_4b/double_3x3_reduce_bn
I0105 10:52:03.845881 13351 layer_factory.cpp:177] Layer inception_4b/double_3x3_reduce_bn is using CAFFE engine.
I0105 10:52:03.845885 13351 net.cpp:96] Creating Layer inception_4b/double_3x3_reduce_bn
I0105 10:52:03.845888 13351 net.cpp:459] inception_4b/double_3x3_reduce_bn <- inception_4b/double_3x3_reduce
I0105 10:52:03.845895 13351 net.cpp:415] inception_4b/double_3x3_reduce_bn -> inception_4b/double_3x3_reduce_bn
I0105 10:52:03.845899 13351 net.cpp:160] Setting up inception_4b/double_3x3_reduce_bn
I0105 10:52:03.845911 13351 net.cpp:167] Top shape: 72 96 14 14 (1354752)
I0105 10:52:03.845916 13351 layer_factory.hpp:74] Creating layer inception_4b/relu_double_3x3_reduce
I0105 10:52:03.845921 13351 net.cpp:96] Creating Layer inception_4b/relu_double_3x3_reduce
I0105 10:52:03.845926 13351 net.cpp:459] inception_4b/relu_double_3x3_reduce <- inception_4b/double_3x3_reduce_bn
I0105 10:52:03.845933 13351 net.cpp:404] inception_4b/relu_double_3x3_reduce -> inception_4b/double_3x3_reduce_bn (in-place)
I0105 10:52:03.845937 13351 net.cpp:160] Setting up inception_4b/relu_double_3x3_reduce
I0105 10:52:03.845942 13351 net.cpp:167] Top shape: 72 96 14 14 (1354752)
I0105 10:52:03.845944 13351 layer_factory.hpp:74] Creating layer inception_4b/double_3x3_1
I0105 10:52:03.845950 13351 net.cpp:96] Creating Layer inception_4b/double_3x3_1
I0105 10:52:03.845953 13351 net.cpp:459] inception_4b/double_3x3_1 <- inception_4b/double_3x3_reduce_bn
I0105 10:52:03.845957 13351 net.cpp:415] inception_4b/double_3x3_1 -> inception_4b/double_3x3_1
I0105 10:52:03.845962 13351 net.cpp:160] Setting up inception_4b/double_3x3_1
I0105 10:52:03.846444 13351 net.cpp:167] Top shape: 72 128 14 14 (1806336)
I0105 10:52:03.846451 13351 layer_factory.hpp:74] Creating layer inception_4b/double_3x3_1_bn
I0105 10:52:03.846453 13351 layer_factory.cpp:177] Layer inception_4b/double_3x3_1_bn is using CAFFE engine.
I0105 10:52:03.846459 13351 net.cpp:96] Creating Layer inception_4b/double_3x3_1_bn
I0105 10:52:03.846462 13351 net.cpp:459] inception_4b/double_3x3_1_bn <- inception_4b/double_3x3_1
I0105 10:52:03.846467 13351 net.cpp:415] inception_4b/double_3x3_1_bn -> inception_4b/double_3x3_1_bn
I0105 10:52:03.846472 13351 net.cpp:160] Setting up inception_4b/double_3x3_1_bn
I0105 10:52:03.846482 13351 net.cpp:167] Top shape: 72 128 14 14 (1806336)
I0105 10:52:03.846488 13351 layer_factory.hpp:74] Creating layer inception_4b/relu_double_3x3_1
I0105 10:52:03.846493 13351 net.cpp:96] Creating Layer inception_4b/relu_double_3x3_1
I0105 10:52:03.846495 13351 net.cpp:459] inception_4b/relu_double_3x3_1 <- inception_4b/double_3x3_1_bn
I0105 10:52:03.846499 13351 net.cpp:404] inception_4b/relu_double_3x3_1 -> inception_4b/double_3x3_1_bn (in-place)
I0105 10:52:03.846503 13351 net.cpp:160] Setting up inception_4b/relu_double_3x3_1
I0105 10:52:03.846508 13351 net.cpp:167] Top shape: 72 128 14 14 (1806336)
I0105 10:52:03.846509 13351 layer_factory.hpp:74] Creating layer inception_4b/double_3x3_2
I0105 10:52:03.846515 13351 net.cpp:96] Creating Layer inception_4b/double_3x3_2
I0105 10:52:03.846518 13351 net.cpp:459] inception_4b/double_3x3_2 <- inception_4b/double_3x3_1_bn
I0105 10:52:03.846523 13351 net.cpp:415] inception_4b/double_3x3_2 -> inception_4b/double_3x3_2
I0105 10:52:03.846526 13351 net.cpp:160] Setting up inception_4b/double_3x3_2
I0105 10:52:03.847163 13351 net.cpp:167] Top shape: 72 128 14 14 (1806336)
I0105 10:52:03.847169 13351 layer_factory.hpp:74] Creating layer inception_4b/double_3x3_2_bn
I0105 10:52:03.847172 13351 layer_factory.cpp:177] Layer inception_4b/double_3x3_2_bn is using CAFFE engine.
I0105 10:52:03.847177 13351 net.cpp:96] Creating Layer inception_4b/double_3x3_2_bn
I0105 10:52:03.847179 13351 net.cpp:459] inception_4b/double_3x3_2_bn <- inception_4b/double_3x3_2
I0105 10:52:03.847184 13351 net.cpp:415] inception_4b/double_3x3_2_bn -> inception_4b/double_3x3_2_bn
I0105 10:52:03.847189 13351 net.cpp:160] Setting up inception_4b/double_3x3_2_bn
I0105 10:52:03.847199 13351 net.cpp:167] Top shape: 72 128 14 14 (1806336)
I0105 10:52:03.847205 13351 layer_factory.hpp:74] Creating layer inception_4b/relu_double_3x3_2
I0105 10:52:03.847209 13351 net.cpp:96] Creating Layer inception_4b/relu_double_3x3_2
I0105 10:52:03.847213 13351 net.cpp:459] inception_4b/relu_double_3x3_2 <- inception_4b/double_3x3_2_bn
I0105 10:52:03.847216 13351 net.cpp:404] inception_4b/relu_double_3x3_2 -> inception_4b/double_3x3_2_bn (in-place)
I0105 10:52:03.847220 13351 net.cpp:160] Setting up inception_4b/relu_double_3x3_2
I0105 10:52:03.847223 13351 net.cpp:167] Top shape: 72 128 14 14 (1806336)
I0105 10:52:03.847226 13351 layer_factory.hpp:74] Creating layer inception_4b/pool
I0105 10:52:03.847230 13351 net.cpp:96] Creating Layer inception_4b/pool
I0105 10:52:03.847234 13351 net.cpp:459] inception_4b/pool <- inception_4a/output_inception_4a/output_0_split_3
I0105 10:52:03.847244 13351 net.cpp:415] inception_4b/pool -> inception_4b/pool
I0105 10:52:03.847252 13351 net.cpp:160] Setting up inception_4b/pool
I0105 10:52:03.847256 13351 net.cpp:167] Top shape: 72 576 14 14 (8128512)
I0105 10:52:03.847260 13351 layer_factory.hpp:74] Creating layer inception_4b/pool_proj
I0105 10:52:03.847265 13351 net.cpp:96] Creating Layer inception_4b/pool_proj
I0105 10:52:03.847270 13351 net.cpp:459] inception_4b/pool_proj <- inception_4b/pool
I0105 10:52:03.847273 13351 net.cpp:415] inception_4b/pool_proj -> inception_4b/pool_proj
I0105 10:52:03.847277 13351 net.cpp:160] Setting up inception_4b/pool_proj
I0105 10:52:03.847602 13351 net.cpp:167] Top shape: 72 128 14 14 (1806336)
I0105 10:52:03.847609 13351 layer_factory.hpp:74] Creating layer inception_4b/pool_proj_bn
I0105 10:52:03.847611 13351 layer_factory.cpp:177] Layer inception_4b/pool_proj_bn is using CAFFE engine.
I0105 10:52:03.847615 13351 net.cpp:96] Creating Layer inception_4b/pool_proj_bn
I0105 10:52:03.847620 13351 net.cpp:459] inception_4b/pool_proj_bn <- inception_4b/pool_proj
I0105 10:52:03.847625 13351 net.cpp:415] inception_4b/pool_proj_bn -> inception_4b/pool_proj_bn
I0105 10:52:03.847628 13351 net.cpp:160] Setting up inception_4b/pool_proj_bn
I0105 10:52:03.847640 13351 net.cpp:167] Top shape: 72 128 14 14 (1806336)
I0105 10:52:03.847645 13351 layer_factory.hpp:74] Creating layer inception_4b/relu_pool_proj
I0105 10:52:03.847650 13351 net.cpp:96] Creating Layer inception_4b/relu_pool_proj
I0105 10:52:03.847652 13351 net.cpp:459] inception_4b/relu_pool_proj <- inception_4b/pool_proj_bn
I0105 10:52:03.847656 13351 net.cpp:404] inception_4b/relu_pool_proj -> inception_4b/pool_proj_bn (in-place)
I0105 10:52:03.847659 13351 net.cpp:160] Setting up inception_4b/relu_pool_proj
I0105 10:52:03.847663 13351 net.cpp:167] Top shape: 72 128 14 14 (1806336)
I0105 10:52:03.847666 13351 layer_factory.hpp:74] Creating layer inception_4b/output
I0105 10:52:03.847671 13351 net.cpp:96] Creating Layer inception_4b/output
I0105 10:52:03.847673 13351 net.cpp:459] inception_4b/output <- inception_4b/1x1_bn
I0105 10:52:03.847677 13351 net.cpp:459] inception_4b/output <- inception_4b/3x3_bn
I0105 10:52:03.847681 13351 net.cpp:459] inception_4b/output <- inception_4b/double_3x3_2_bn
I0105 10:52:03.847684 13351 net.cpp:459] inception_4b/output <- inception_4b/pool_proj_bn
I0105 10:52:03.847688 13351 net.cpp:415] inception_4b/output -> inception_4b/output
I0105 10:52:03.847692 13351 net.cpp:160] Setting up inception_4b/output
I0105 10:52:03.847697 13351 net.cpp:167] Top shape: 72 576 14 14 (8128512)
I0105 10:52:03.847700 13351 layer_factory.hpp:74] Creating layer inception_4b/output_inception_4b/output_0_split
I0105 10:52:03.847705 13351 net.cpp:96] Creating Layer inception_4b/output_inception_4b/output_0_split
I0105 10:52:03.847708 13351 net.cpp:459] inception_4b/output_inception_4b/output_0_split <- inception_4b/output
I0105 10:52:03.847712 13351 net.cpp:415] inception_4b/output_inception_4b/output_0_split -> inception_4b/output_inception_4b/output_0_split_0
I0105 10:52:03.847718 13351 net.cpp:415] inception_4b/output_inception_4b/output_0_split -> inception_4b/output_inception_4b/output_0_split_1
I0105 10:52:03.847723 13351 net.cpp:415] inception_4b/output_inception_4b/output_0_split -> inception_4b/output_inception_4b/output_0_split_2
I0105 10:52:03.847726 13351 net.cpp:415] inception_4b/output_inception_4b/output_0_split -> inception_4b/output_inception_4b/output_0_split_3
I0105 10:52:03.847730 13351 net.cpp:160] Setting up inception_4b/output_inception_4b/output_0_split
I0105 10:52:03.847735 13351 net.cpp:167] Top shape: 72 576 14 14 (8128512)
I0105 10:52:03.847738 13351 net.cpp:167] Top shape: 72 576 14 14 (8128512)
I0105 10:52:03.847743 13351 net.cpp:167] Top shape: 72 576 14 14 (8128512)
I0105 10:52:03.847745 13351 net.cpp:167] Top shape: 72 576 14 14 (8128512)
I0105 10:52:03.847748 13351 layer_factory.hpp:74] Creating layer inception_4c/1x1
I0105 10:52:03.847761 13351 net.cpp:96] Creating Layer inception_4c/1x1
I0105 10:52:03.847767 13351 net.cpp:459] inception_4c/1x1 <- inception_4b/output_inception_4b/output_0_split_0
I0105 10:52:03.847777 13351 net.cpp:415] inception_4c/1x1 -> inception_4c/1x1
I0105 10:52:03.847782 13351 net.cpp:160] Setting up inception_4c/1x1
I0105 10:52:03.848186 13351 net.cpp:167] Top shape: 72 160 14 14 (2257920)
I0105 10:52:03.848191 13351 layer_factory.hpp:74] Creating layer inception_4c/1x1_bn
I0105 10:52:03.848196 13351 layer_factory.cpp:177] Layer inception_4c/1x1_bn is using CAFFE engine.
I0105 10:52:03.848201 13351 net.cpp:96] Creating Layer inception_4c/1x1_bn
I0105 10:52:03.848203 13351 net.cpp:459] inception_4c/1x1_bn <- inception_4c/1x1
I0105 10:52:03.848207 13351 net.cpp:415] inception_4c/1x1_bn -> inception_4c/1x1_bn
I0105 10:52:03.848213 13351 net.cpp:160] Setting up inception_4c/1x1_bn
I0105 10:52:03.848223 13351 net.cpp:167] Top shape: 72 160 14 14 (2257920)
I0105 10:52:03.848229 13351 layer_factory.hpp:74] Creating layer inception_4c/relu_1x1
I0105 10:52:03.848234 13351 net.cpp:96] Creating Layer inception_4c/relu_1x1
I0105 10:52:03.848237 13351 net.cpp:459] inception_4c/relu_1x1 <- inception_4c/1x1_bn
I0105 10:52:03.848242 13351 net.cpp:404] inception_4c/relu_1x1 -> inception_4c/1x1_bn (in-place)
I0105 10:52:03.848245 13351 net.cpp:160] Setting up inception_4c/relu_1x1
I0105 10:52:03.848249 13351 net.cpp:167] Top shape: 72 160 14 14 (2257920)
I0105 10:52:03.848253 13351 layer_factory.hpp:74] Creating layer inception_4c/3x3_reduce
I0105 10:52:03.848258 13351 net.cpp:96] Creating Layer inception_4c/3x3_reduce
I0105 10:52:03.848260 13351 net.cpp:459] inception_4c/3x3_reduce <- inception_4b/output_inception_4b/output_0_split_1
I0105 10:52:03.848264 13351 net.cpp:415] inception_4c/3x3_reduce -> inception_4c/3x3_reduce
I0105 10:52:03.848269 13351 net.cpp:160] Setting up inception_4c/3x3_reduce
I0105 10:52:03.848593 13351 net.cpp:167] Top shape: 72 128 14 14 (1806336)
I0105 10:52:03.848599 13351 layer_factory.hpp:74] Creating layer inception_4c/3x3_reduce_bn
I0105 10:52:03.848603 13351 layer_factory.cpp:177] Layer inception_4c/3x3_reduce_bn is using CAFFE engine.
I0105 10:52:03.848608 13351 net.cpp:96] Creating Layer inception_4c/3x3_reduce_bn
I0105 10:52:03.848610 13351 net.cpp:459] inception_4c/3x3_reduce_bn <- inception_4c/3x3_reduce
I0105 10:52:03.848615 13351 net.cpp:415] inception_4c/3x3_reduce_bn -> inception_4c/3x3_reduce_bn
I0105 10:52:03.848620 13351 net.cpp:160] Setting up inception_4c/3x3_reduce_bn
I0105 10:52:03.848631 13351 net.cpp:167] Top shape: 72 128 14 14 (1806336)
I0105 10:52:03.848636 13351 layer_factory.hpp:74] Creating layer inception_4c/relu_3x3_reduce
I0105 10:52:03.848641 13351 net.cpp:96] Creating Layer inception_4c/relu_3x3_reduce
I0105 10:52:03.848644 13351 net.cpp:459] inception_4c/relu_3x3_reduce <- inception_4c/3x3_reduce_bn
I0105 10:52:03.848649 13351 net.cpp:404] inception_4c/relu_3x3_reduce -> inception_4c/3x3_reduce_bn (in-place)
I0105 10:52:03.848652 13351 net.cpp:160] Setting up inception_4c/relu_3x3_reduce
I0105 10:52:03.848655 13351 net.cpp:167] Top shape: 72 128 14 14 (1806336)
I0105 10:52:03.848659 13351 layer_factory.hpp:74] Creating layer inception_4c/3x3
I0105 10:52:03.848664 13351 net.cpp:96] Creating Layer inception_4c/3x3
I0105 10:52:03.848667 13351 net.cpp:459] inception_4c/3x3 <- inception_4c/3x3_reduce_bn
I0105 10:52:03.848672 13351 net.cpp:415] inception_4c/3x3 -> inception_4c/3x3
I0105 10:52:03.848676 13351 net.cpp:160] Setting up inception_4c/3x3
I0105 10:52:03.849474 13351 net.cpp:167] Top shape: 72 160 14 14 (2257920)
I0105 10:52:03.849480 13351 layer_factory.hpp:74] Creating layer inception_4c/3x3_bn
I0105 10:52:03.849483 13351 layer_factory.cpp:177] Layer inception_4c/3x3_bn is using CAFFE engine.
I0105 10:52:03.849490 13351 net.cpp:96] Creating Layer inception_4c/3x3_bn
I0105 10:52:03.849493 13351 net.cpp:459] inception_4c/3x3_bn <- inception_4c/3x3
I0105 10:52:03.849499 13351 net.cpp:415] inception_4c/3x3_bn -> inception_4c/3x3_bn
I0105 10:52:03.849504 13351 net.cpp:160] Setting up inception_4c/3x3_bn
I0105 10:52:03.849514 13351 net.cpp:167] Top shape: 72 160 14 14 (2257920)
I0105 10:52:03.849522 13351 layer_factory.hpp:74] Creating layer inception_4c/relu_3x3
I0105 10:52:03.849529 13351 net.cpp:96] Creating Layer inception_4c/relu_3x3
I0105 10:52:03.849534 13351 net.cpp:459] inception_4c/relu_3x3 <- inception_4c/3x3_bn
I0105 10:52:03.849537 13351 net.cpp:404] inception_4c/relu_3x3 -> inception_4c/3x3_bn (in-place)
I0105 10:52:03.849541 13351 net.cpp:160] Setting up inception_4c/relu_3x3
I0105 10:52:03.849545 13351 net.cpp:167] Top shape: 72 160 14 14 (2257920)
I0105 10:52:03.849548 13351 layer_factory.hpp:74] Creating layer inception_4c/double_3x3_reduce
I0105 10:52:03.849552 13351 net.cpp:96] Creating Layer inception_4c/double_3x3_reduce
I0105 10:52:03.849555 13351 net.cpp:459] inception_4c/double_3x3_reduce <- inception_4b/output_inception_4b/output_0_split_2
I0105 10:52:03.849560 13351 net.cpp:415] inception_4c/double_3x3_reduce -> inception_4c/double_3x3_reduce
I0105 10:52:03.849565 13351 net.cpp:160] Setting up inception_4c/double_3x3_reduce
I0105 10:52:03.849900 13351 net.cpp:167] Top shape: 72 128 14 14 (1806336)
I0105 10:52:03.849906 13351 layer_factory.hpp:74] Creating layer inception_4c/double_3x3_reduce_bn
I0105 10:52:03.849910 13351 layer_factory.cpp:177] Layer inception_4c/double_3x3_reduce_bn is using CAFFE engine.
I0105 10:52:03.849915 13351 net.cpp:96] Creating Layer inception_4c/double_3x3_reduce_bn
I0105 10:52:03.849917 13351 net.cpp:459] inception_4c/double_3x3_reduce_bn <- inception_4c/double_3x3_reduce
I0105 10:52:03.849922 13351 net.cpp:415] inception_4c/double_3x3_reduce_bn -> inception_4c/double_3x3_reduce_bn
I0105 10:52:03.849927 13351 net.cpp:160] Setting up inception_4c/double_3x3_reduce_bn
I0105 10:52:03.849938 13351 net.cpp:167] Top shape: 72 128 14 14 (1806336)
I0105 10:52:03.849944 13351 layer_factory.hpp:74] Creating layer inception_4c/relu_double_3x3_reduce
I0105 10:52:03.849948 13351 net.cpp:96] Creating Layer inception_4c/relu_double_3x3_reduce
I0105 10:52:03.849951 13351 net.cpp:459] inception_4c/relu_double_3x3_reduce <- inception_4c/double_3x3_reduce_bn
I0105 10:52:03.849956 13351 net.cpp:404] inception_4c/relu_double_3x3_reduce -> inception_4c/double_3x3_reduce_bn (in-place)
I0105 10:52:03.849959 13351 net.cpp:160] Setting up inception_4c/relu_double_3x3_reduce
I0105 10:52:03.849963 13351 net.cpp:167] Top shape: 72 128 14 14 (1806336)
I0105 10:52:03.849967 13351 layer_factory.hpp:74] Creating layer inception_4c/double_3x3_1
I0105 10:52:03.849972 13351 net.cpp:96] Creating Layer inception_4c/double_3x3_1
I0105 10:52:03.849974 13351 net.cpp:459] inception_4c/double_3x3_1 <- inception_4c/double_3x3_reduce_bn
I0105 10:52:03.849978 13351 net.cpp:415] inception_4c/double_3x3_1 -> inception_4c/double_3x3_1
I0105 10:52:03.849983 13351 net.cpp:160] Setting up inception_4c/double_3x3_1
I0105 10:52:03.850785 13351 net.cpp:167] Top shape: 72 160 14 14 (2257920)
I0105 10:52:03.850791 13351 layer_factory.hpp:74] Creating layer inception_4c/double_3x3_1_bn
I0105 10:52:03.850795 13351 layer_factory.cpp:177] Layer inception_4c/double_3x3_1_bn is using CAFFE engine.
I0105 10:52:03.850800 13351 net.cpp:96] Creating Layer inception_4c/double_3x3_1_bn
I0105 10:52:03.850802 13351 net.cpp:459] inception_4c/double_3x3_1_bn <- inception_4c/double_3x3_1
I0105 10:52:03.850806 13351 net.cpp:415] inception_4c/double_3x3_1_bn -> inception_4c/double_3x3_1_bn
I0105 10:52:03.850811 13351 net.cpp:160] Setting up inception_4c/double_3x3_1_bn
I0105 10:52:03.850821 13351 net.cpp:167] Top shape: 72 160 14 14 (2257920)
I0105 10:52:03.850826 13351 layer_factory.hpp:74] Creating layer inception_4c/relu_double_3x3_1
I0105 10:52:03.850832 13351 net.cpp:96] Creating Layer inception_4c/relu_double_3x3_1
I0105 10:52:03.850836 13351 net.cpp:459] inception_4c/relu_double_3x3_1 <- inception_4c/double_3x3_1_bn
I0105 10:52:03.850839 13351 net.cpp:404] inception_4c/relu_double_3x3_1 -> inception_4c/double_3x3_1_bn (in-place)
I0105 10:52:03.850843 13351 net.cpp:160] Setting up inception_4c/relu_double_3x3_1
I0105 10:52:03.850847 13351 net.cpp:167] Top shape: 72 160 14 14 (2257920)
I0105 10:52:03.850852 13351 layer_factory.hpp:74] Creating layer inception_4c/double_3x3_2
I0105 10:52:03.850862 13351 net.cpp:96] Creating Layer inception_4c/double_3x3_2
I0105 10:52:03.850864 13351 net.cpp:459] inception_4c/double_3x3_2 <- inception_4c/double_3x3_1_bn
I0105 10:52:03.850869 13351 net.cpp:415] inception_4c/double_3x3_2 -> inception_4c/double_3x3_2
I0105 10:52:03.850873 13351 net.cpp:160] Setting up inception_4c/double_3x3_2
I0105 10:52:03.851869 13351 net.cpp:167] Top shape: 72 160 14 14 (2257920)
I0105 10:52:03.851876 13351 layer_factory.hpp:74] Creating layer inception_4c/double_3x3_2_bn
I0105 10:52:03.851879 13351 layer_factory.cpp:177] Layer inception_4c/double_3x3_2_bn is using CAFFE engine.
I0105 10:52:03.851886 13351 net.cpp:96] Creating Layer inception_4c/double_3x3_2_bn
I0105 10:52:03.851889 13351 net.cpp:459] inception_4c/double_3x3_2_bn <- inception_4c/double_3x3_2
I0105 10:52:03.851894 13351 net.cpp:415] inception_4c/double_3x3_2_bn -> inception_4c/double_3x3_2_bn
I0105 10:52:03.851899 13351 net.cpp:160] Setting up inception_4c/double_3x3_2_bn
I0105 10:52:03.851909 13351 net.cpp:167] Top shape: 72 160 14 14 (2257920)
I0105 10:52:03.851914 13351 layer_factory.hpp:74] Creating layer inception_4c/relu_double_3x3_2
I0105 10:52:03.851919 13351 net.cpp:96] Creating Layer inception_4c/relu_double_3x3_2
I0105 10:52:03.851922 13351 net.cpp:459] inception_4c/relu_double_3x3_2 <- inception_4c/double_3x3_2_bn
I0105 10:52:03.851927 13351 net.cpp:404] inception_4c/relu_double_3x3_2 -> inception_4c/double_3x3_2_bn (in-place)
I0105 10:52:03.851932 13351 net.cpp:160] Setting up inception_4c/relu_double_3x3_2
I0105 10:52:03.851934 13351 net.cpp:167] Top shape: 72 160 14 14 (2257920)
I0105 10:52:03.851938 13351 layer_factory.hpp:74] Creating layer inception_4c/pool
I0105 10:52:03.851941 13351 net.cpp:96] Creating Layer inception_4c/pool
I0105 10:52:03.851944 13351 net.cpp:459] inception_4c/pool <- inception_4b/output_inception_4b/output_0_split_3
I0105 10:52:03.851948 13351 net.cpp:415] inception_4c/pool -> inception_4c/pool
I0105 10:52:03.851953 13351 net.cpp:160] Setting up inception_4c/pool
I0105 10:52:03.851958 13351 net.cpp:167] Top shape: 72 576 14 14 (8128512)
I0105 10:52:03.851960 13351 layer_factory.hpp:74] Creating layer inception_4c/pool_proj
I0105 10:52:03.851966 13351 net.cpp:96] Creating Layer inception_4c/pool_proj
I0105 10:52:03.851969 13351 net.cpp:459] inception_4c/pool_proj <- inception_4c/pool
I0105 10:52:03.851974 13351 net.cpp:415] inception_4c/pool_proj -> inception_4c/pool_proj
I0105 10:52:03.851979 13351 net.cpp:160] Setting up inception_4c/pool_proj
I0105 10:52:03.852300 13351 net.cpp:167] Top shape: 72 128 14 14 (1806336)
I0105 10:52:03.852306 13351 layer_factory.hpp:74] Creating layer inception_4c/pool_proj_bn
I0105 10:52:03.852310 13351 layer_factory.cpp:177] Layer inception_4c/pool_proj_bn is using CAFFE engine.
I0105 10:52:03.852315 13351 net.cpp:96] Creating Layer inception_4c/pool_proj_bn
I0105 10:52:03.852319 13351 net.cpp:459] inception_4c/pool_proj_bn <- inception_4c/pool_proj
I0105 10:52:03.852324 13351 net.cpp:415] inception_4c/pool_proj_bn -> inception_4c/pool_proj_bn
I0105 10:52:03.852329 13351 net.cpp:160] Setting up inception_4c/pool_proj_bn
I0105 10:52:03.852339 13351 net.cpp:167] Top shape: 72 128 14 14 (1806336)
I0105 10:52:03.852361 13351 layer_factory.hpp:74] Creating layer inception_4c/relu_pool_proj
I0105 10:52:03.852366 13351 net.cpp:96] Creating Layer inception_4c/relu_pool_proj
I0105 10:52:03.852370 13351 net.cpp:459] inception_4c/relu_pool_proj <- inception_4c/pool_proj_bn
I0105 10:52:03.852373 13351 net.cpp:404] inception_4c/relu_pool_proj -> inception_4c/pool_proj_bn (in-place)
I0105 10:52:03.852377 13351 net.cpp:160] Setting up inception_4c/relu_pool_proj
I0105 10:52:03.852381 13351 net.cpp:167] Top shape: 72 128 14 14 (1806336)
I0105 10:52:03.852385 13351 layer_factory.hpp:74] Creating layer inception_4c/output
I0105 10:52:03.852390 13351 net.cpp:96] Creating Layer inception_4c/output
I0105 10:52:03.852392 13351 net.cpp:459] inception_4c/output <- inception_4c/1x1_bn
I0105 10:52:03.852398 13351 net.cpp:459] inception_4c/output <- inception_4c/3x3_bn
I0105 10:52:03.852404 13351 net.cpp:459] inception_4c/output <- inception_4c/double_3x3_2_bn
I0105 10:52:03.852408 13351 net.cpp:459] inception_4c/output <- inception_4c/pool_proj_bn
I0105 10:52:03.852413 13351 net.cpp:415] inception_4c/output -> inception_4c/output
I0105 10:52:03.852418 13351 net.cpp:160] Setting up inception_4c/output
I0105 10:52:03.852423 13351 net.cpp:167] Top shape: 72 608 14 14 (8580096)
I0105 10:52:03.852427 13351 layer_factory.hpp:74] Creating layer inception_4c/output_inception_4c/output_0_split
I0105 10:52:03.852430 13351 net.cpp:96] Creating Layer inception_4c/output_inception_4c/output_0_split
I0105 10:52:03.852433 13351 net.cpp:459] inception_4c/output_inception_4c/output_0_split <- inception_4c/output
I0105 10:52:03.852437 13351 net.cpp:415] inception_4c/output_inception_4c/output_0_split -> inception_4c/output_inception_4c/output_0_split_0
I0105 10:52:03.852442 13351 net.cpp:415] inception_4c/output_inception_4c/output_0_split -> inception_4c/output_inception_4c/output_0_split_1
I0105 10:52:03.852447 13351 net.cpp:415] inception_4c/output_inception_4c/output_0_split -> inception_4c/output_inception_4c/output_0_split_2
I0105 10:52:03.852460 13351 net.cpp:415] inception_4c/output_inception_4c/output_0_split -> inception_4c/output_inception_4c/output_0_split_3
I0105 10:52:03.852464 13351 net.cpp:160] Setting up inception_4c/output_inception_4c/output_0_split
I0105 10:52:03.852469 13351 net.cpp:167] Top shape: 72 608 14 14 (8580096)
I0105 10:52:03.852473 13351 net.cpp:167] Top shape: 72 608 14 14 (8580096)
I0105 10:52:03.852476 13351 net.cpp:167] Top shape: 72 608 14 14 (8580096)
I0105 10:52:03.852480 13351 net.cpp:167] Top shape: 72 608 14 14 (8580096)
I0105 10:52:03.852483 13351 layer_factory.hpp:74] Creating layer inception_4d/1x1
I0105 10:52:03.852488 13351 net.cpp:96] Creating Layer inception_4d/1x1
I0105 10:52:03.852491 13351 net.cpp:459] inception_4d/1x1 <- inception_4c/output_inception_4c/output_0_split_0
I0105 10:52:03.852496 13351 net.cpp:415] inception_4d/1x1 -> inception_4d/1x1
I0105 10:52:03.852501 13351 net.cpp:160] Setting up inception_4d/1x1
I0105 10:52:03.852761 13351 net.cpp:167] Top shape: 72 96 14 14 (1354752)
I0105 10:52:03.852766 13351 layer_factory.hpp:74] Creating layer inception_4d/1x1_bn
I0105 10:52:03.852771 13351 layer_factory.cpp:177] Layer inception_4d/1x1_bn is using CAFFE engine.
I0105 10:52:03.852776 13351 net.cpp:96] Creating Layer inception_4d/1x1_bn
I0105 10:52:03.852778 13351 net.cpp:459] inception_4d/1x1_bn <- inception_4d/1x1
I0105 10:52:03.852783 13351 net.cpp:415] inception_4d/1x1_bn -> inception_4d/1x1_bn
I0105 10:52:03.852788 13351 net.cpp:160] Setting up inception_4d/1x1_bn
I0105 10:52:03.852799 13351 net.cpp:167] Top shape: 72 96 14 14 (1354752)
I0105 10:52:03.852804 13351 layer_factory.hpp:74] Creating layer inception_4d/relu_1x1
I0105 10:52:03.852808 13351 net.cpp:96] Creating Layer inception_4d/relu_1x1
I0105 10:52:03.852812 13351 net.cpp:459] inception_4d/relu_1x1 <- inception_4d/1x1_bn
I0105 10:52:03.852816 13351 net.cpp:404] inception_4d/relu_1x1 -> inception_4d/1x1_bn (in-place)
I0105 10:52:03.852820 13351 net.cpp:160] Setting up inception_4d/relu_1x1
I0105 10:52:03.852824 13351 net.cpp:167] Top shape: 72 96 14 14 (1354752)
I0105 10:52:03.852828 13351 layer_factory.hpp:74] Creating layer inception_4d/3x3_reduce
I0105 10:52:03.852833 13351 net.cpp:96] Creating Layer inception_4d/3x3_reduce
I0105 10:52:03.852835 13351 net.cpp:459] inception_4d/3x3_reduce <- inception_4c/output_inception_4c/output_0_split_1
I0105 10:52:03.852840 13351 net.cpp:415] inception_4d/3x3_reduce -> inception_4d/3x3_reduce
I0105 10:52:03.852845 13351 net.cpp:160] Setting up inception_4d/3x3_reduce
I0105 10:52:03.853188 13351 net.cpp:167] Top shape: 72 128 14 14 (1806336)
I0105 10:52:03.853193 13351 layer_factory.hpp:74] Creating layer inception_4d/3x3_reduce_bn
I0105 10:52:03.853198 13351 layer_factory.cpp:177] Layer inception_4d/3x3_reduce_bn is using CAFFE engine.
I0105 10:52:03.853204 13351 net.cpp:96] Creating Layer inception_4d/3x3_reduce_bn
I0105 10:52:03.853211 13351 net.cpp:459] inception_4d/3x3_reduce_bn <- inception_4d/3x3_reduce
I0105 10:52:03.853215 13351 net.cpp:415] inception_4d/3x3_reduce_bn -> inception_4d/3x3_reduce_bn
I0105 10:52:03.853220 13351 net.cpp:160] Setting up inception_4d/3x3_reduce_bn
I0105 10:52:03.853230 13351 net.cpp:167] Top shape: 72 128 14 14 (1806336)
I0105 10:52:03.853236 13351 layer_factory.hpp:74] Creating layer inception_4d/relu_3x3_reduce
I0105 10:52:03.853241 13351 net.cpp:96] Creating Layer inception_4d/relu_3x3_reduce
I0105 10:52:03.853245 13351 net.cpp:459] inception_4d/relu_3x3_reduce <- inception_4d/3x3_reduce_bn
I0105 10:52:03.853248 13351 net.cpp:404] inception_4d/relu_3x3_reduce -> inception_4d/3x3_reduce_bn (in-place)
I0105 10:52:03.853252 13351 net.cpp:160] Setting up inception_4d/relu_3x3_reduce
I0105 10:52:03.853256 13351 net.cpp:167] Top shape: 72 128 14 14 (1806336)
I0105 10:52:03.853260 13351 layer_factory.hpp:74] Creating layer inception_4d/3x3
I0105 10:52:03.853263 13351 net.cpp:96] Creating Layer inception_4d/3x3
I0105 10:52:03.853266 13351 net.cpp:459] inception_4d/3x3 <- inception_4d/3x3_reduce_bn
I0105 10:52:03.853271 13351 net.cpp:415] inception_4d/3x3 -> inception_4d/3x3
I0105 10:52:03.853276 13351 net.cpp:160] Setting up inception_4d/3x3
I0105 10:52:03.854246 13351 net.cpp:167] Top shape: 72 192 14 14 (2709504)
I0105 10:52:03.854254 13351 layer_factory.hpp:74] Creating layer inception_4d/3x3_bn
I0105 10:52:03.854257 13351 layer_factory.cpp:177] Layer inception_4d/3x3_bn is using CAFFE engine.
I0105 10:52:03.854262 13351 net.cpp:96] Creating Layer inception_4d/3x3_bn
I0105 10:52:03.854266 13351 net.cpp:459] inception_4d/3x3_bn <- inception_4d/3x3
I0105 10:52:03.854271 13351 net.cpp:415] inception_4d/3x3_bn -> inception_4d/3x3_bn
I0105 10:52:03.854276 13351 net.cpp:160] Setting up inception_4d/3x3_bn
I0105 10:52:03.854287 13351 net.cpp:167] Top shape: 72 192 14 14 (2709504)
I0105 10:52:03.854292 13351 layer_factory.hpp:74] Creating layer inception_4d/relu_3x3
I0105 10:52:03.854296 13351 net.cpp:96] Creating Layer inception_4d/relu_3x3
I0105 10:52:03.854300 13351 net.cpp:459] inception_4d/relu_3x3 <- inception_4d/3x3_bn
I0105 10:52:03.854305 13351 net.cpp:404] inception_4d/relu_3x3 -> inception_4d/3x3_bn (in-place)
I0105 10:52:03.854308 13351 net.cpp:160] Setting up inception_4d/relu_3x3
I0105 10:52:03.854312 13351 net.cpp:167] Top shape: 72 192 14 14 (2709504)
I0105 10:52:03.854315 13351 layer_factory.hpp:74] Creating layer inception_4d/double_3x3_reduce
I0105 10:52:03.854321 13351 net.cpp:96] Creating Layer inception_4d/double_3x3_reduce
I0105 10:52:03.854323 13351 net.cpp:459] inception_4d/double_3x3_reduce <- inception_4c/output_inception_4c/output_0_split_2
I0105 10:52:03.854328 13351 net.cpp:415] inception_4d/double_3x3_reduce -> inception_4d/double_3x3_reduce
I0105 10:52:03.854332 13351 net.cpp:160] Setting up inception_4d/double_3x3_reduce
I0105 10:52:03.854758 13351 net.cpp:167] Top shape: 72 160 14 14 (2257920)
I0105 10:52:03.854764 13351 layer_factory.hpp:74] Creating layer inception_4d/double_3x3_reduce_bn
I0105 10:52:03.854768 13351 layer_factory.cpp:177] Layer inception_4d/double_3x3_reduce_bn is using CAFFE engine.
I0105 10:52:03.854773 13351 net.cpp:96] Creating Layer inception_4d/double_3x3_reduce_bn
I0105 10:52:03.854775 13351 net.cpp:459] inception_4d/double_3x3_reduce_bn <- inception_4d/double_3x3_reduce
I0105 10:52:03.854780 13351 net.cpp:415] inception_4d/double_3x3_reduce_bn -> inception_4d/double_3x3_reduce_bn
I0105 10:52:03.854785 13351 net.cpp:160] Setting up inception_4d/double_3x3_reduce_bn
I0105 10:52:03.854796 13351 net.cpp:167] Top shape: 72 160 14 14 (2257920)
I0105 10:52:03.854801 13351 layer_factory.hpp:74] Creating layer inception_4d/relu_double_3x3_reduce
I0105 10:52:03.854806 13351 net.cpp:96] Creating Layer inception_4d/relu_double_3x3_reduce
I0105 10:52:03.854810 13351 net.cpp:459] inception_4d/relu_double_3x3_reduce <- inception_4d/double_3x3_reduce_bn
I0105 10:52:03.854813 13351 net.cpp:404] inception_4d/relu_double_3x3_reduce -> inception_4d/double_3x3_reduce_bn (in-place)
I0105 10:52:03.854823 13351 net.cpp:160] Setting up inception_4d/relu_double_3x3_reduce
I0105 10:52:03.854827 13351 net.cpp:167] Top shape: 72 160 14 14 (2257920)
I0105 10:52:03.854830 13351 layer_factory.hpp:74] Creating layer inception_4d/double_3x3_1
I0105 10:52:03.854835 13351 net.cpp:96] Creating Layer inception_4d/double_3x3_1
I0105 10:52:03.854838 13351 net.cpp:459] inception_4d/double_3x3_1 <- inception_4d/double_3x3_reduce_bn
I0105 10:52:03.854843 13351 net.cpp:415] inception_4d/double_3x3_1 -> inception_4d/double_3x3_1
I0105 10:52:03.854848 13351 net.cpp:160] Setting up inception_4d/double_3x3_1
I0105 10:52:03.856042 13351 net.cpp:167] Top shape: 72 192 14 14 (2709504)
I0105 10:52:03.856048 13351 layer_factory.hpp:74] Creating layer inception_4d/double_3x3_1_bn
I0105 10:52:03.856051 13351 layer_factory.cpp:177] Layer inception_4d/double_3x3_1_bn is using CAFFE engine.
I0105 10:52:03.856057 13351 net.cpp:96] Creating Layer inception_4d/double_3x3_1_bn
I0105 10:52:03.856060 13351 net.cpp:459] inception_4d/double_3x3_1_bn <- inception_4d/double_3x3_1
I0105 10:52:03.856065 13351 net.cpp:415] inception_4d/double_3x3_1_bn -> inception_4d/double_3x3_1_bn
I0105 10:52:03.856070 13351 net.cpp:160] Setting up inception_4d/double_3x3_1_bn
I0105 10:52:03.856081 13351 net.cpp:167] Top shape: 72 192 14 14 (2709504)
I0105 10:52:03.856086 13351 layer_factory.hpp:74] Creating layer inception_4d/relu_double_3x3_1
I0105 10:52:03.856091 13351 net.cpp:96] Creating Layer inception_4d/relu_double_3x3_1
I0105 10:52:03.856093 13351 net.cpp:459] inception_4d/relu_double_3x3_1 <- inception_4d/double_3x3_1_bn
I0105 10:52:03.856097 13351 net.cpp:404] inception_4d/relu_double_3x3_1 -> inception_4d/double_3x3_1_bn (in-place)
I0105 10:52:03.856101 13351 net.cpp:160] Setting up inception_4d/relu_double_3x3_1
I0105 10:52:03.856106 13351 net.cpp:167] Top shape: 72 192 14 14 (2709504)
I0105 10:52:03.856108 13351 layer_factory.hpp:74] Creating layer inception_4d/double_3x3_2
I0105 10:52:03.856112 13351 net.cpp:96] Creating Layer inception_4d/double_3x3_2
I0105 10:52:03.856115 13351 net.cpp:459] inception_4d/double_3x3_2 <- inception_4d/double_3x3_1_bn
I0105 10:52:03.856120 13351 net.cpp:415] inception_4d/double_3x3_2 -> inception_4d/double_3x3_2
I0105 10:52:03.856125 13351 net.cpp:160] Setting up inception_4d/double_3x3_2
I0105 10:52:03.857558 13351 net.cpp:167] Top shape: 72 192 14 14 (2709504)
I0105 10:52:03.857564 13351 layer_factory.hpp:74] Creating layer inception_4d/double_3x3_2_bn
I0105 10:52:03.857568 13351 layer_factory.cpp:177] Layer inception_4d/double_3x3_2_bn is using CAFFE engine.
I0105 10:52:03.857574 13351 net.cpp:96] Creating Layer inception_4d/double_3x3_2_bn
I0105 10:52:03.857579 13351 net.cpp:459] inception_4d/double_3x3_2_bn <- inception_4d/double_3x3_2
I0105 10:52:03.857586 13351 net.cpp:415] inception_4d/double_3x3_2_bn -> inception_4d/double_3x3_2_bn
I0105 10:52:03.857594 13351 net.cpp:160] Setting up inception_4d/double_3x3_2_bn
I0105 10:52:03.857650 13351 net.cpp:167] Top shape: 72 192 14 14 (2709504)
I0105 10:52:03.857668 13351 layer_factory.hpp:74] Creating layer inception_4d/relu_double_3x3_2
I0105 10:52:03.857676 13351 net.cpp:96] Creating Layer inception_4d/relu_double_3x3_2
I0105 10:52:03.857681 13351 net.cpp:459] inception_4d/relu_double_3x3_2 <- inception_4d/double_3x3_2_bn
I0105 10:52:03.857684 13351 net.cpp:404] inception_4d/relu_double_3x3_2 -> inception_4d/double_3x3_2_bn (in-place)
I0105 10:52:03.857691 13351 net.cpp:160] Setting up inception_4d/relu_double_3x3_2
I0105 10:52:03.857694 13351 net.cpp:167] Top shape: 72 192 14 14 (2709504)
I0105 10:52:03.857697 13351 layer_factory.hpp:74] Creating layer inception_4d/pool
I0105 10:52:03.857702 13351 net.cpp:96] Creating Layer inception_4d/pool
I0105 10:52:03.857707 13351 net.cpp:459] inception_4d/pool <- inception_4c/output_inception_4c/output_0_split_3
I0105 10:52:03.857712 13351 net.cpp:415] inception_4d/pool -> inception_4d/pool
I0105 10:52:03.857717 13351 net.cpp:160] Setting up inception_4d/pool
I0105 10:52:03.857725 13351 net.cpp:167] Top shape: 72 608 14 14 (8580096)
I0105 10:52:03.857733 13351 layer_factory.hpp:74] Creating layer inception_4d/pool_proj
I0105 10:52:03.857740 13351 net.cpp:96] Creating Layer inception_4d/pool_proj
I0105 10:52:03.857743 13351 net.cpp:459] inception_4d/pool_proj <- inception_4d/pool
I0105 10:52:03.857748 13351 net.cpp:415] inception_4d/pool_proj -> inception_4d/pool_proj
I0105 10:52:03.857753 13351 net.cpp:160] Setting up inception_4d/pool_proj
I0105 10:52:03.858113 13351 net.cpp:167] Top shape: 72 128 14 14 (1806336)
I0105 10:52:03.858119 13351 layer_factory.hpp:74] Creating layer inception_4d/pool_proj_bn
I0105 10:52:03.858124 13351 layer_factory.cpp:177] Layer inception_4d/pool_proj_bn is using CAFFE engine.
I0105 10:52:03.858129 13351 net.cpp:96] Creating Layer inception_4d/pool_proj_bn
I0105 10:52:03.858132 13351 net.cpp:459] inception_4d/pool_proj_bn <- inception_4d/pool_proj
I0105 10:52:03.858137 13351 net.cpp:415] inception_4d/pool_proj_bn -> inception_4d/pool_proj_bn
I0105 10:52:03.858144 13351 net.cpp:160] Setting up inception_4d/pool_proj_bn
I0105 10:52:03.858155 13351 net.cpp:167] Top shape: 72 128 14 14 (1806336)
I0105 10:52:03.858161 13351 layer_factory.hpp:74] Creating layer inception_4d/relu_pool_proj
I0105 10:52:03.858165 13351 net.cpp:96] Creating Layer inception_4d/relu_pool_proj
I0105 10:52:03.858168 13351 net.cpp:459] inception_4d/relu_pool_proj <- inception_4d/pool_proj_bn
I0105 10:52:03.858172 13351 net.cpp:404] inception_4d/relu_pool_proj -> inception_4d/pool_proj_bn (in-place)
I0105 10:52:03.858176 13351 net.cpp:160] Setting up inception_4d/relu_pool_proj
I0105 10:52:03.858180 13351 net.cpp:167] Top shape: 72 128 14 14 (1806336)
I0105 10:52:03.858183 13351 layer_factory.hpp:74] Creating layer inception_4d/output
I0105 10:52:03.858188 13351 net.cpp:96] Creating Layer inception_4d/output
I0105 10:52:03.858191 13351 net.cpp:459] inception_4d/output <- inception_4d/1x1_bn
I0105 10:52:03.858196 13351 net.cpp:459] inception_4d/output <- inception_4d/3x3_bn
I0105 10:52:03.858198 13351 net.cpp:459] inception_4d/output <- inception_4d/double_3x3_2_bn
I0105 10:52:03.858202 13351 net.cpp:459] inception_4d/output <- inception_4d/pool_proj_bn
I0105 10:52:03.858207 13351 net.cpp:415] inception_4d/output -> inception_4d/output
I0105 10:52:03.858212 13351 net.cpp:160] Setting up inception_4d/output
I0105 10:52:03.858217 13351 net.cpp:167] Top shape: 72 608 14 14 (8580096)
I0105 10:52:03.858220 13351 layer_factory.hpp:74] Creating layer inception_4d/output_inception_4d/output_0_split
I0105 10:52:03.858224 13351 net.cpp:96] Creating Layer inception_4d/output_inception_4d/output_0_split
I0105 10:52:03.858227 13351 net.cpp:459] inception_4d/output_inception_4d/output_0_split <- inception_4d/output
I0105 10:52:03.858232 13351 net.cpp:415] inception_4d/output_inception_4d/output_0_split -> inception_4d/output_inception_4d/output_0_split_0
I0105 10:52:03.858237 13351 net.cpp:415] inception_4d/output_inception_4d/output_0_split -> inception_4d/output_inception_4d/output_0_split_1
I0105 10:52:03.858242 13351 net.cpp:415] inception_4d/output_inception_4d/output_0_split -> inception_4d/output_inception_4d/output_0_split_2
I0105 10:52:03.858247 13351 net.cpp:160] Setting up inception_4d/output_inception_4d/output_0_split
I0105 10:52:03.858252 13351 net.cpp:167] Top shape: 72 608 14 14 (8580096)
I0105 10:52:03.858254 13351 net.cpp:167] Top shape: 72 608 14 14 (8580096)
I0105 10:52:03.858258 13351 net.cpp:167] Top shape: 72 608 14 14 (8580096)
I0105 10:52:03.858260 13351 layer_factory.hpp:74] Creating layer inception_4e/3x3_reduce
I0105 10:52:03.858266 13351 net.cpp:96] Creating Layer inception_4e/3x3_reduce
I0105 10:52:03.858269 13351 net.cpp:459] inception_4e/3x3_reduce <- inception_4d/output_inception_4d/output_0_split_0
I0105 10:52:03.858274 13351 net.cpp:415] inception_4e/3x3_reduce -> inception_4e/3x3_reduce
I0105 10:52:03.858279 13351 net.cpp:160] Setting up inception_4e/3x3_reduce
I0105 10:52:03.858631 13351 net.cpp:167] Top shape: 72 128 14 14 (1806336)
I0105 10:52:03.858640 13351 layer_factory.hpp:74] Creating layer inception_4e/3x3_reduce_bn
I0105 10:52:03.858649 13351 layer_factory.cpp:177] Layer inception_4e/3x3_reduce_bn is using CAFFE engine.
I0105 10:52:03.858654 13351 net.cpp:96] Creating Layer inception_4e/3x3_reduce_bn
I0105 10:52:03.858657 13351 net.cpp:459] inception_4e/3x3_reduce_bn <- inception_4e/3x3_reduce
I0105 10:52:03.858662 13351 net.cpp:415] inception_4e/3x3_reduce_bn -> inception_4e/3x3_reduce_bn
I0105 10:52:03.858669 13351 net.cpp:160] Setting up inception_4e/3x3_reduce_bn
I0105 10:52:03.858678 13351 net.cpp:167] Top shape: 72 128 14 14 (1806336)
I0105 10:52:03.858685 13351 layer_factory.hpp:74] Creating layer inception_4e/relu_3x3_reduce
I0105 10:52:03.858690 13351 net.cpp:96] Creating Layer inception_4e/relu_3x3_reduce
I0105 10:52:03.858692 13351 net.cpp:459] inception_4e/relu_3x3_reduce <- inception_4e/3x3_reduce_bn
I0105 10:52:03.858696 13351 net.cpp:404] inception_4e/relu_3x3_reduce -> inception_4e/3x3_reduce_bn (in-place)
I0105 10:52:03.858700 13351 net.cpp:160] Setting up inception_4e/relu_3x3_reduce
I0105 10:52:03.858705 13351 net.cpp:167] Top shape: 72 128 14 14 (1806336)
I0105 10:52:03.858707 13351 layer_factory.hpp:74] Creating layer inception_4e/3x3
I0105 10:52:03.858714 13351 net.cpp:96] Creating Layer inception_4e/3x3
I0105 10:52:03.858717 13351 net.cpp:459] inception_4e/3x3 <- inception_4e/3x3_reduce_bn
I0105 10:52:03.858721 13351 net.cpp:415] inception_4e/3x3 -> inception_4e/3x3
I0105 10:52:03.858726 13351 net.cpp:160] Setting up inception_4e/3x3
I0105 10:52:03.859689 13351 net.cpp:167] Top shape: 72 192 7 7 (677376)
I0105 10:52:03.859696 13351 layer_factory.hpp:74] Creating layer inception_4e/3x3_bn
I0105 10:52:03.859699 13351 layer_factory.cpp:177] Layer inception_4e/3x3_bn is using CAFFE engine.
I0105 10:52:03.859704 13351 net.cpp:96] Creating Layer inception_4e/3x3_bn
I0105 10:52:03.859709 13351 net.cpp:459] inception_4e/3x3_bn <- inception_4e/3x3
I0105 10:52:03.859712 13351 net.cpp:415] inception_4e/3x3_bn -> inception_4e/3x3_bn
I0105 10:52:03.859717 13351 net.cpp:160] Setting up inception_4e/3x3_bn
I0105 10:52:03.859729 13351 net.cpp:167] Top shape: 72 192 7 7 (677376)
I0105 10:52:03.859735 13351 layer_factory.hpp:74] Creating layer inception_4e/relu_3x3
I0105 10:52:03.859740 13351 net.cpp:96] Creating Layer inception_4e/relu_3x3
I0105 10:52:03.859742 13351 net.cpp:459] inception_4e/relu_3x3 <- inception_4e/3x3_bn
I0105 10:52:03.859746 13351 net.cpp:404] inception_4e/relu_3x3 -> inception_4e/3x3_bn (in-place)
I0105 10:52:03.859750 13351 net.cpp:160] Setting up inception_4e/relu_3x3
I0105 10:52:03.859753 13351 net.cpp:167] Top shape: 72 192 7 7 (677376)
I0105 10:52:03.859756 13351 layer_factory.hpp:74] Creating layer inception_4e/double_3x3_reduce
I0105 10:52:03.859762 13351 net.cpp:96] Creating Layer inception_4e/double_3x3_reduce
I0105 10:52:03.859766 13351 net.cpp:459] inception_4e/double_3x3_reduce <- inception_4d/output_inception_4d/output_0_split_1
I0105 10:52:03.859769 13351 net.cpp:415] inception_4e/double_3x3_reduce -> inception_4e/double_3x3_reduce
I0105 10:52:03.859774 13351 net.cpp:160] Setting up inception_4e/double_3x3_reduce
I0105 10:52:03.860287 13351 net.cpp:167] Top shape: 72 192 14 14 (2709504)
I0105 10:52:03.860293 13351 layer_factory.hpp:74] Creating layer inception_4e/double_3x3_reduce_bn
I0105 10:52:03.860296 13351 layer_factory.cpp:177] Layer inception_4e/double_3x3_reduce_bn is using CAFFE engine.
I0105 10:52:03.860302 13351 net.cpp:96] Creating Layer inception_4e/double_3x3_reduce_bn
I0105 10:52:03.860306 13351 net.cpp:459] inception_4e/double_3x3_reduce_bn <- inception_4e/double_3x3_reduce
I0105 10:52:03.860311 13351 net.cpp:415] inception_4e/double_3x3_reduce_bn -> inception_4e/double_3x3_reduce_bn
I0105 10:52:03.860316 13351 net.cpp:160] Setting up inception_4e/double_3x3_reduce_bn
I0105 10:52:03.860327 13351 net.cpp:167] Top shape: 72 192 14 14 (2709504)
I0105 10:52:03.860332 13351 layer_factory.hpp:74] Creating layer inception_4e/relu_double_3x3_reduce
I0105 10:52:03.860337 13351 net.cpp:96] Creating Layer inception_4e/relu_double_3x3_reduce
I0105 10:52:03.860345 13351 net.cpp:459] inception_4e/relu_double_3x3_reduce <- inception_4e/double_3x3_reduce_bn
I0105 10:52:03.860349 13351 net.cpp:404] inception_4e/relu_double_3x3_reduce -> inception_4e/double_3x3_reduce_bn (in-place)
I0105 10:52:03.860353 13351 net.cpp:160] Setting up inception_4e/relu_double_3x3_reduce
I0105 10:52:03.860357 13351 net.cpp:167] Top shape: 72 192 14 14 (2709504)
I0105 10:52:03.860360 13351 layer_factory.hpp:74] Creating layer inception_4e/double_3x3_1
I0105 10:52:03.860365 13351 net.cpp:96] Creating Layer inception_4e/double_3x3_1
I0105 10:52:03.860368 13351 net.cpp:459] inception_4e/double_3x3_1 <- inception_4e/double_3x3_reduce_bn
I0105 10:52:03.860373 13351 net.cpp:415] inception_4e/double_3x3_1 -> inception_4e/double_3x3_1
I0105 10:52:03.860378 13351 net.cpp:160] Setting up inception_4e/double_3x3_1
I0105 10:52:03.862298 13351 net.cpp:167] Top shape: 72 256 14 14 (3612672)
I0105 10:52:03.862306 13351 layer_factory.hpp:74] Creating layer inception_4e/double_3x3_1_bn
I0105 10:52:03.862310 13351 layer_factory.cpp:177] Layer inception_4e/double_3x3_1_bn is using CAFFE engine.
I0105 10:52:03.862315 13351 net.cpp:96] Creating Layer inception_4e/double_3x3_1_bn
I0105 10:52:03.862318 13351 net.cpp:459] inception_4e/double_3x3_1_bn <- inception_4e/double_3x3_1
I0105 10:52:03.862324 13351 net.cpp:415] inception_4e/double_3x3_1_bn -> inception_4e/double_3x3_1_bn
I0105 10:52:03.862329 13351 net.cpp:160] Setting up inception_4e/double_3x3_1_bn
I0105 10:52:03.862340 13351 net.cpp:167] Top shape: 72 256 14 14 (3612672)
I0105 10:52:03.862346 13351 layer_factory.hpp:74] Creating layer inception_4e/relu_double_3x3_1
I0105 10:52:03.862350 13351 net.cpp:96] Creating Layer inception_4e/relu_double_3x3_1
I0105 10:52:03.862354 13351 net.cpp:459] inception_4e/relu_double_3x3_1 <- inception_4e/double_3x3_1_bn
I0105 10:52:03.862357 13351 net.cpp:404] inception_4e/relu_double_3x3_1 -> inception_4e/double_3x3_1_bn (in-place)
I0105 10:52:03.862361 13351 net.cpp:160] Setting up inception_4e/relu_double_3x3_1
I0105 10:52:03.862365 13351 net.cpp:167] Top shape: 72 256 14 14 (3612672)
I0105 10:52:03.862367 13351 layer_factory.hpp:74] Creating layer inception_4e/double_3x3_2
I0105 10:52:03.862373 13351 net.cpp:96] Creating Layer inception_4e/double_3x3_2
I0105 10:52:03.862376 13351 net.cpp:459] inception_4e/double_3x3_2 <- inception_4e/double_3x3_1_bn
I0105 10:52:03.862380 13351 net.cpp:415] inception_4e/double_3x3_2 -> inception_4e/double_3x3_2
I0105 10:52:03.862385 13351 net.cpp:160] Setting up inception_4e/double_3x3_2
I0105 10:52:03.864928 13351 net.cpp:167] Top shape: 72 256 7 7 (903168)
I0105 10:52:03.864933 13351 layer_factory.hpp:74] Creating layer inception_4e/double_3x3_2_bn
I0105 10:52:03.864936 13351 layer_factory.cpp:177] Layer inception_4e/double_3x3_2_bn is using CAFFE engine.
I0105 10:52:03.864943 13351 net.cpp:96] Creating Layer inception_4e/double_3x3_2_bn
I0105 10:52:03.864945 13351 net.cpp:459] inception_4e/double_3x3_2_bn <- inception_4e/double_3x3_2
I0105 10:52:03.864950 13351 net.cpp:415] inception_4e/double_3x3_2_bn -> inception_4e/double_3x3_2_bn
I0105 10:52:03.864955 13351 net.cpp:160] Setting up inception_4e/double_3x3_2_bn
I0105 10:52:03.864965 13351 net.cpp:167] Top shape: 72 256 7 7 (903168)
I0105 10:52:03.864971 13351 layer_factory.hpp:74] Creating layer inception_4e/relu_double_3x3_2
I0105 10:52:03.864976 13351 net.cpp:96] Creating Layer inception_4e/relu_double_3x3_2
I0105 10:52:03.864979 13351 net.cpp:459] inception_4e/relu_double_3x3_2 <- inception_4e/double_3x3_2_bn
I0105 10:52:03.864982 13351 net.cpp:404] inception_4e/relu_double_3x3_2 -> inception_4e/double_3x3_2_bn (in-place)
I0105 10:52:03.864986 13351 net.cpp:160] Setting up inception_4e/relu_double_3x3_2
I0105 10:52:03.864990 13351 net.cpp:167] Top shape: 72 256 7 7 (903168)
I0105 10:52:03.864994 13351 layer_factory.hpp:74] Creating layer inception_4e/pool
I0105 10:52:03.864998 13351 net.cpp:96] Creating Layer inception_4e/pool
I0105 10:52:03.865001 13351 net.cpp:459] inception_4e/pool <- inception_4d/output_inception_4d/output_0_split_2
I0105 10:52:03.865011 13351 net.cpp:415] inception_4e/pool -> inception_4e/pool
I0105 10:52:03.865016 13351 net.cpp:160] Setting up inception_4e/pool
I0105 10:52:03.865023 13351 net.cpp:167] Top shape: 72 608 7 7 (2145024)
I0105 10:52:03.865027 13351 layer_factory.hpp:74] Creating layer inception_4e/output
I0105 10:52:03.865031 13351 net.cpp:96] Creating Layer inception_4e/output
I0105 10:52:03.865034 13351 net.cpp:459] inception_4e/output <- inception_4e/3x3_bn
I0105 10:52:03.865038 13351 net.cpp:459] inception_4e/output <- inception_4e/double_3x3_2_bn
I0105 10:52:03.865041 13351 net.cpp:459] inception_4e/output <- inception_4e/pool
I0105 10:52:03.865046 13351 net.cpp:415] inception_4e/output -> inception_4e/output
I0105 10:52:03.865051 13351 net.cpp:160] Setting up inception_4e/output
I0105 10:52:03.865056 13351 net.cpp:167] Top shape: 72 1056 7 7 (3725568)
I0105 10:52:03.865058 13351 layer_factory.hpp:74] Creating layer inception_4e/output_inception_4e/output_0_split
I0105 10:52:03.865063 13351 net.cpp:96] Creating Layer inception_4e/output_inception_4e/output_0_split
I0105 10:52:03.865067 13351 net.cpp:459] inception_4e/output_inception_4e/output_0_split <- inception_4e/output
I0105 10:52:03.865070 13351 net.cpp:415] inception_4e/output_inception_4e/output_0_split -> inception_4e/output_inception_4e/output_0_split_0
I0105 10:52:03.865074 13351 net.cpp:415] inception_4e/output_inception_4e/output_0_split -> inception_4e/output_inception_4e/output_0_split_1
I0105 10:52:03.865079 13351 net.cpp:415] inception_4e/output_inception_4e/output_0_split -> inception_4e/output_inception_4e/output_0_split_2
I0105 10:52:03.865084 13351 net.cpp:415] inception_4e/output_inception_4e/output_0_split -> inception_4e/output_inception_4e/output_0_split_3
I0105 10:52:03.865088 13351 net.cpp:160] Setting up inception_4e/output_inception_4e/output_0_split
I0105 10:52:03.865093 13351 net.cpp:167] Top shape: 72 1056 7 7 (3725568)
I0105 10:52:03.865097 13351 net.cpp:167] Top shape: 72 1056 7 7 (3725568)
I0105 10:52:03.865100 13351 net.cpp:167] Top shape: 72 1056 7 7 (3725568)
I0105 10:52:03.865103 13351 net.cpp:167] Top shape: 72 1056 7 7 (3725568)
I0105 10:52:03.865106 13351 layer_factory.hpp:74] Creating layer inception_5a/1x1
I0105 10:52:03.865111 13351 net.cpp:96] Creating Layer inception_5a/1x1
I0105 10:52:03.865114 13351 net.cpp:459] inception_5a/1x1 <- inception_4e/output_inception_4e/output_0_split_0
I0105 10:52:03.865120 13351 net.cpp:415] inception_5a/1x1 -> inception_5a/1x1
I0105 10:52:03.865124 13351 net.cpp:160] Setting up inception_5a/1x1
I0105 10:52:03.866742 13351 net.cpp:167] Top shape: 72 352 7 7 (1241856)
I0105 10:52:03.866751 13351 layer_factory.hpp:74] Creating layer inception_5a/1x1_bn
I0105 10:52:03.866755 13351 layer_factory.cpp:177] Layer inception_5a/1x1_bn is using CAFFE engine.
I0105 10:52:03.866760 13351 net.cpp:96] Creating Layer inception_5a/1x1_bn
I0105 10:52:03.866763 13351 net.cpp:459] inception_5a/1x1_bn <- inception_5a/1x1
I0105 10:52:03.866768 13351 net.cpp:415] inception_5a/1x1_bn -> inception_5a/1x1_bn
I0105 10:52:03.866773 13351 net.cpp:160] Setting up inception_5a/1x1_bn
I0105 10:52:03.866786 13351 net.cpp:167] Top shape: 72 352 7 7 (1241856)
I0105 10:52:03.866791 13351 layer_factory.hpp:74] Creating layer inception_5a/relu_1x1
I0105 10:52:03.866796 13351 net.cpp:96] Creating Layer inception_5a/relu_1x1
I0105 10:52:03.866798 13351 net.cpp:459] inception_5a/relu_1x1 <- inception_5a/1x1_bn
I0105 10:52:03.866803 13351 net.cpp:404] inception_5a/relu_1x1 -> inception_5a/1x1_bn (in-place)
I0105 10:52:03.866807 13351 net.cpp:160] Setting up inception_5a/relu_1x1
I0105 10:52:03.866811 13351 net.cpp:167] Top shape: 72 352 7 7 (1241856)
I0105 10:52:03.866814 13351 layer_factory.hpp:74] Creating layer inception_5a/3x3_reduce
I0105 10:52:03.866818 13351 net.cpp:96] Creating Layer inception_5a/3x3_reduce
I0105 10:52:03.866822 13351 net.cpp:459] inception_5a/3x3_reduce <- inception_4e/output_inception_4e/output_0_split_1
I0105 10:52:03.866827 13351 net.cpp:415] inception_5a/3x3_reduce -> inception_5a/3x3_reduce
I0105 10:52:03.866839 13351 net.cpp:160] Setting up inception_5a/3x3_reduce
I0105 10:52:03.867724 13351 net.cpp:167] Top shape: 72 192 7 7 (677376)
I0105 10:52:03.867730 13351 layer_factory.hpp:74] Creating layer inception_5a/3x3_reduce_bn
I0105 10:52:03.867734 13351 layer_factory.cpp:177] Layer inception_5a/3x3_reduce_bn is using CAFFE engine.
I0105 10:52:03.867738 13351 net.cpp:96] Creating Layer inception_5a/3x3_reduce_bn
I0105 10:52:03.867741 13351 net.cpp:459] inception_5a/3x3_reduce_bn <- inception_5a/3x3_reduce
I0105 10:52:03.867746 13351 net.cpp:415] inception_5a/3x3_reduce_bn -> inception_5a/3x3_reduce_bn
I0105 10:52:03.867753 13351 net.cpp:160] Setting up inception_5a/3x3_reduce_bn
I0105 10:52:03.867763 13351 net.cpp:167] Top shape: 72 192 7 7 (677376)
I0105 10:52:03.867769 13351 layer_factory.hpp:74] Creating layer inception_5a/relu_3x3_reduce
I0105 10:52:03.867772 13351 net.cpp:96] Creating Layer inception_5a/relu_3x3_reduce
I0105 10:52:03.867775 13351 net.cpp:459] inception_5a/relu_3x3_reduce <- inception_5a/3x3_reduce_bn
I0105 10:52:03.867780 13351 net.cpp:404] inception_5a/relu_3x3_reduce -> inception_5a/3x3_reduce_bn (in-place)
I0105 10:52:03.867784 13351 net.cpp:160] Setting up inception_5a/relu_3x3_reduce
I0105 10:52:03.867789 13351 net.cpp:167] Top shape: 72 192 7 7 (677376)
I0105 10:52:03.867791 13351 layer_factory.hpp:74] Creating layer inception_5a/3x3
I0105 10:52:03.867795 13351 net.cpp:96] Creating Layer inception_5a/3x3
I0105 10:52:03.867799 13351 net.cpp:459] inception_5a/3x3 <- inception_5a/3x3_reduce_bn
I0105 10:52:03.867804 13351 net.cpp:415] inception_5a/3x3 -> inception_5a/3x3
I0105 10:52:03.867808 13351 net.cpp:160] Setting up inception_5a/3x3
I0105 10:52:03.870234 13351 net.cpp:167] Top shape: 72 320 7 7 (1128960)
I0105 10:52:03.870247 13351 layer_factory.hpp:74] Creating layer inception_5a/3x3_bn
I0105 10:52:03.870251 13351 layer_factory.cpp:177] Layer inception_5a/3x3_bn is using CAFFE engine.
I0105 10:52:03.870257 13351 net.cpp:96] Creating Layer inception_5a/3x3_bn
I0105 10:52:03.870261 13351 net.cpp:459] inception_5a/3x3_bn <- inception_5a/3x3
I0105 10:52:03.870266 13351 net.cpp:415] inception_5a/3x3_bn -> inception_5a/3x3_bn
I0105 10:52:03.870272 13351 net.cpp:160] Setting up inception_5a/3x3_bn
I0105 10:52:03.870285 13351 net.cpp:167] Top shape: 72 320 7 7 (1128960)
I0105 10:52:03.870290 13351 layer_factory.hpp:74] Creating layer inception_5a/relu_3x3
I0105 10:52:03.870296 13351 net.cpp:96] Creating Layer inception_5a/relu_3x3
I0105 10:52:03.870299 13351 net.cpp:459] inception_5a/relu_3x3 <- inception_5a/3x3_bn
I0105 10:52:03.870303 13351 net.cpp:404] inception_5a/relu_3x3 -> inception_5a/3x3_bn (in-place)
I0105 10:52:03.870307 13351 net.cpp:160] Setting up inception_5a/relu_3x3
I0105 10:52:03.870311 13351 net.cpp:167] Top shape: 72 320 7 7 (1128960)
I0105 10:52:03.870314 13351 layer_factory.hpp:74] Creating layer inception_5a/double_3x3_reduce
I0105 10:52:03.870319 13351 net.cpp:96] Creating Layer inception_5a/double_3x3_reduce
I0105 10:52:03.870323 13351 net.cpp:459] inception_5a/double_3x3_reduce <- inception_4e/output_inception_4e/output_0_split_2
I0105 10:52:03.870327 13351 net.cpp:415] inception_5a/double_3x3_reduce -> inception_5a/double_3x3_reduce
I0105 10:52:03.870332 13351 net.cpp:160] Setting up inception_5a/double_3x3_reduce
I0105 10:52:03.871073 13351 net.cpp:167] Top shape: 72 160 7 7 (564480)
I0105 10:52:03.871078 13351 layer_factory.hpp:74] Creating layer inception_5a/double_3x3_reduce_bn
I0105 10:52:03.871083 13351 layer_factory.cpp:177] Layer inception_5a/double_3x3_reduce_bn is using CAFFE engine.
I0105 10:52:03.871088 13351 net.cpp:96] Creating Layer inception_5a/double_3x3_reduce_bn
I0105 10:52:03.871090 13351 net.cpp:459] inception_5a/double_3x3_reduce_bn <- inception_5a/double_3x3_reduce
I0105 10:52:03.871095 13351 net.cpp:415] inception_5a/double_3x3_reduce_bn -> inception_5a/double_3x3_reduce_bn
…
I0217 13:06:05.848104  6798 net.cpp:96] Creating Layer inception_4a/pool_proj_bn
I0217 13:06:05.848109  6798 net.cpp:459] inception_4a/pool_proj_bn <- inception_4a/pool_proj
I0217 13:06:05.848112  6798 net.cpp:415] inception_4a/pool_proj_bn -> inception_4a/pool_proj_bn
I0217 13:06:05.848119  6798 net.cpp:160] Setting up inception_4a/pool_proj_bn
I0217 13:06:05.848130  6798 net.cpp:167] Top shape: 216 128 14 14 (5419008)
I0217 13:06:05.848136  6798 layer_factory.hpp:74] Creating layer inception_4a/relu_pool_proj
I0217 13:06:05.848141  6798 net.cpp:96] Creating Layer inception_4a/relu_pool_proj
I0217 13:06:05.848145  6798 net.cpp:459] inception_4a/relu_pool_proj <- inception_4a/pool_proj_bn
I0217 13:06:05.848148  6798 net.cpp:404] inception_4a/relu_pool_proj -> inception_4a/pool_proj_bn (in-place)
I0217 13:06:05.848152  6798 net.cpp:160] Setting up inception_4a/relu_pool_proj
I0217 13:06:05.848156  6798 net.cpp:167] Top shape: 216 128 14 14 (5419008)
I0217 13:06:05.848163  6798 layer_factory.hpp:74] Creating layer inception_4a/output
I0217 13:06:05.848168  6798 net.cpp:96] Creating Layer inception_4a/output
I0217 13:06:05.848171  6798 net.cpp:459] inception_4a/output <- inception_4a/1x1_bn
I0217 13:06:05.848175  6798 net.cpp:459] inception_4a/output <- inception_4a/3x3_bn
I0217 13:06:05.848178  6798 net.cpp:459] inception_4a/output <- inception_4a/double_3x3_2_bn
I0217 13:06:05.848182  6798 net.cpp:459] inception_4a/output <- inception_4a/pool_proj_bn
I0217 13:06:05.848187  6798 net.cpp:415] inception_4a/output -> inception_4a/output
I0217 13:06:05.848194  6798 net.cpp:160] Setting up inception_4a/output
I0217 13:06:05.848202  6798 net.cpp:167] Top shape: 216 576 14 14 (24385536)
I0217 13:06:05.848209  6798 layer_factory.hpp:74] Creating layer inception_4a/output_inception_4a/output_0_split
I0217 13:06:05.848217  6798 net.cpp:96] Creating Layer inception_4a/output_inception_4a/output_0_split
I0217 13:06:05.848222  6798 net.cpp:459] inception_4a/output_inception_4a/output_0_split <- inception_4a/output
I0217 13:06:05.848229  6798 net.cpp:415] inception_4a/output_inception_4a/output_0_split -> inception_4a/output_inception_4a/output_0_split_0
I0217 13:06:05.848239  6798 net.cpp:415] inception_4a/output_inception_4a/output_0_split -> inception_4a/output_inception_4a/output_0_split_1
I0217 13:06:05.848248  6798 net.cpp:415] inception_4a/output_inception_4a/output_0_split -> inception_4a/output_inception_4a/output_0_split_2
I0217 13:06:05.848256  6798 net.cpp:415] inception_4a/output_inception_4a/output_0_split -> inception_4a/output_inception_4a/output_0_split_3
I0217 13:06:05.848263  6798 net.cpp:160] Setting up inception_4a/output_inception_4a/output_0_split
I0217 13:06:05.848270  6798 net.cpp:167] Top shape: 216 576 14 14 (24385536)
I0217 13:06:05.848276  6798 net.cpp:167] Top shape: 216 576 14 14 (24385536)
I0217 13:06:05.848282  6798 net.cpp:167] Top shape: 216 576 14 14 (24385536)
I0217 13:06:05.848289  6798 net.cpp:167] Top shape: 216 576 14 14 (24385536)
I0217 13:06:05.848294  6798 layer_factory.hpp:74] Creating layer inception_4b/1x1
I0217 13:06:05.848307  6798 net.cpp:96] Creating Layer inception_4b/1x1
I0217 13:06:05.848312  6798 net.cpp:459] inception_4b/1x1 <- inception_4a/output_inception_4a/output_0_split_0
I0217 13:06:05.848320  6798 net.cpp:415] inception_4b/1x1 -> inception_4b/1x1
I0217 13:06:05.848326  6798 net.cpp:160] Setting up inception_4b/1x1
I0217 13:06:05.849077  6798 net.cpp:167] Top shape: 216 192 14 14 (8128512)
I0217 13:06:05.849088  6798 layer_factory.hpp:74] Creating layer inception_4b/1x1_bn
I0217 13:06:05.849094  6798 layer_factory.cpp:177] Layer inception_4b/1x1_bn is using CAFFE engine.
I0217 13:06:05.849102  6798 net.cpp:96] Creating Layer inception_4b/1x1_bn
I0217 13:06:05.849107  6798 net.cpp:459] inception_4b/1x1_bn <- inception_4b/1x1
I0217 13:06:05.849115  6798 net.cpp:415] inception_4b/1x1_bn -> inception_4b/1x1_bn
I0217 13:06:05.849123  6798 net.cpp:160] Setting up inception_4b/1x1_bn
I0217 13:06:05.849141  6798 net.cpp:167] Top shape: 216 192 14 14 (8128512)
I0217 13:06:05.849150  6798 layer_factory.hpp:74] Creating layer inception_4b/relu_1x1
I0217 13:06:05.849159  6798 net.cpp:96] Creating Layer inception_4b/relu_1x1
I0217 13:06:05.849164  6798 net.cpp:459] inception_4b/relu_1x1 <- inception_4b/1x1_bn
I0217 13:06:05.849170  6798 net.cpp:404] inception_4b/relu_1x1 -> inception_4b/1x1_bn (in-place)
I0217 13:06:05.849176  6798 net.cpp:160] Setting up inception_4b/relu_1x1
I0217 13:06:05.849182  6798 net.cpp:167] Top shape: 216 192 14 14 (8128512)
I0217 13:06:05.849187  6798 layer_factory.hpp:74] Creating layer inception_4b/3x3_reduce
I0217 13:06:05.849195  6798 net.cpp:96] Creating Layer inception_4b/3x3_reduce
I0217 13:06:05.849200  6798 net.cpp:459] inception_4b/3x3_reduce <- inception_4a/output_inception_4a/output_0_split_1
I0217 13:06:05.849206  6798 net.cpp:415] inception_4b/3x3_reduce -> inception_4b/3x3_reduce
I0217 13:06:05.849215  6798 net.cpp:160] Setting up inception_4b/3x3_reduce
I0217 13:06:05.849586  6798 net.cpp:167] Top shape: 216 96 14 14 (4064256)
I0217 13:06:05.849596  6798 layer_factory.hpp:74] Creating layer inception_4b/3x3_reduce_bn
I0217 13:06:05.849601  6798 layer_factory.cpp:177] Layer inception_4b/3x3_reduce_bn is using CAFFE engine.
I0217 13:06:05.849608  6798 net.cpp:96] Creating Layer inception_4b/3x3_reduce_bn
I0217 13:06:05.849613  6798 net.cpp:459] inception_4b/3x3_reduce_bn <- inception_4b/3x3_reduce
I0217 13:06:05.849622  6798 net.cpp:415] inception_4b/3x3_reduce_bn -> inception_4b/3x3_reduce_bn
I0217 13:06:05.849628  6798 net.cpp:160] Setting up inception_4b/3x3_reduce_bn
I0217 13:06:05.849645  6798 net.cpp:167] Top shape: 216 96 14 14 (4064256)
I0217 13:06:05.849654  6798 layer_factory.hpp:74] Creating layer inception_4b/relu_3x3_reduce
I0217 13:06:05.849660  6798 net.cpp:96] Creating Layer inception_4b/relu_3x3_reduce
I0217 13:06:05.849665  6798 net.cpp:459] inception_4b/relu_3x3_reduce <- inception_4b/3x3_reduce_bn
I0217 13:06:05.849671  6798 net.cpp:404] inception_4b/relu_3x3_reduce -> inception_4b/3x3_reduce_bn (in-place)
I0217 13:06:05.849678  6798 net.cpp:160] Setting up inception_4b/relu_3x3_reduce
I0217 13:06:05.849684  6798 net.cpp:167] Top shape: 216 96 14 14 (4064256)
I0217 13:06:05.849689  6798 layer_factory.hpp:74] Creating layer inception_4b/3x3
I0217 13:06:05.849696  6798 net.cpp:96] Creating Layer inception_4b/3x3
I0217 13:06:05.849701  6798 net.cpp:459] inception_4b/3x3 <- inception_4b/3x3_reduce_bn
I0217 13:06:05.849707  6798 net.cpp:415] inception_4b/3x3 -> inception_4b/3x3
I0217 13:06:05.849714  6798 net.cpp:160] Setting up inception_4b/3x3
I0217 13:06:05.850312  6798 net.cpp:167] Top shape: 216 128 14 14 (5419008)
I0217 13:06:05.850322  6798 layer_factory.hpp:74] Creating layer inception_4b/3x3_bn
I0217 13:06:05.850325  6798 layer_factory.cpp:177] Layer inception_4b/3x3_bn is using CAFFE engine.
I0217 13:06:05.850332  6798 net.cpp:96] Creating Layer inception_4b/3x3_bn
I0217 13:06:05.850335  6798 net.cpp:459] inception_4b/3x3_bn <- inception_4b/3x3
I0217 13:06:05.850342  6798 net.cpp:415] inception_4b/3x3_bn -> inception_4b/3x3_bn
I0217 13:06:05.850349  6798 net.cpp:160] Setting up inception_4b/3x3_bn
I0217 13:06:05.850360  6798 net.cpp:167] Top shape: 216 128 14 14 (5419008)
I0217 13:06:05.850365  6798 layer_factory.hpp:74] Creating layer inception_4b/relu_3x3
I0217 13:06:05.850370  6798 net.cpp:96] Creating Layer inception_4b/relu_3x3
I0217 13:06:05.850373  6798 net.cpp:459] inception_4b/relu_3x3 <- inception_4b/3x3_bn
I0217 13:06:05.850378  6798 net.cpp:404] inception_4b/relu_3x3 -> inception_4b/3x3_bn (in-place)
I0217 13:06:05.850383  6798 net.cpp:160] Setting up inception_4b/relu_3x3
I0217 13:06:05.850386  6798 net.cpp:167] Top shape: 216 128 14 14 (5419008)
I0217 13:06:05.850389  6798 layer_factory.hpp:74] Creating layer inception_4b/double_3x3_reduce
I0217 13:06:05.850394  6798 net.cpp:96] Creating Layer inception_4b/double_3x3_reduce
I0217 13:06:05.850397  6798 net.cpp:459] inception_4b/double_3x3_reduce <- inception_4a/output_inception_4a/output_0_split_2
I0217 13:06:05.850402  6798 net.cpp:415] inception_4b/double_3x3_reduce -> inception_4b/double_3x3_reduce
I0217 13:06:05.850407  6798 net.cpp:160] Setting up inception_4b/double_3x3_reduce
I0217 13:06:05.850687  6798 net.cpp:167] Top shape: 216 96 14 14 (4064256)
I0217 13:06:05.850692  6798 layer_factory.hpp:74] Creating layer inception_4b/double_3x3_reduce_bn
I0217 13:06:05.850697  6798 layer_factory.cpp:177] Layer inception_4b/double_3x3_reduce_bn is using CAFFE engine.
I0217 13:06:05.850700  6798 net.cpp:96] Creating Layer inception_4b/double_3x3_reduce_bn
I0217 13:06:05.850704  6798 net.cpp:459] inception_4b/double_3x3_reduce_bn <- inception_4b/double_3x3_reduce
I0217 13:06:05.850709  6798 net.cpp:415] inception_4b/double_3x3_reduce_bn -> inception_4b/double_3x3_reduce_bn
I0217 13:06:05.850714  6798 net.cpp:160] Setting up inception_4b/double_3x3_reduce_bn
I0217 13:06:05.850724  6798 net.cpp:167] Top shape: 216 96 14 14 (4064256)
I0217 13:06:05.850730  6798 layer_factory.hpp:74] Creating layer inception_4b/relu_double_3x3_reduce
I0217 13:06:05.850739  6798 net.cpp:96] Creating Layer inception_4b/relu_double_3x3_reduce
I0217 13:06:05.850742  6798 net.cpp:459] inception_4b/relu_double_3x3_reduce <- inception_4b/double_3x3_reduce_bn
I0217 13:06:05.850746  6798 net.cpp:404] inception_4b/relu_double_3x3_reduce -> inception_4b/double_3x3_reduce_bn (in-place)
I0217 13:06:05.850750  6798 net.cpp:160] Setting up inception_4b/relu_double_3x3_reduce
I0217 13:06:05.850754  6798 net.cpp:167] Top shape: 216 96 14 14 (4064256)
I0217 13:06:05.850757  6798 layer_factory.hpp:74] Creating layer inception_4b/double_3x3_1
I0217 13:06:05.850762  6798 net.cpp:96] Creating Layer inception_4b/double_3x3_1
I0217 13:06:05.850765  6798 net.cpp:459] inception_4b/double_3x3_1 <- inception_4b/double_3x3_reduce_bn
I0217 13:06:05.850770  6798 net.cpp:415] inception_4b/double_3x3_1 -> inception_4b/double_3x3_1
I0217 13:06:05.850775  6798 net.cpp:160] Setting up inception_4b/double_3x3_1
I0217 13:06:05.851318  6798 net.cpp:167] Top shape: 216 128 14 14 (5419008)
I0217 13:06:05.851326  6798 layer_factory.hpp:74] Creating layer inception_4b/double_3x3_1_bn
I0217 13:06:05.851330  6798 layer_factory.cpp:177] Layer inception_4b/double_3x3_1_bn is using CAFFE engine.
I0217 13:06:05.851336  6798 net.cpp:96] Creating Layer inception_4b/double_3x3_1_bn
I0217 13:06:05.851338  6798 net.cpp:459] inception_4b/double_3x3_1_bn <- inception_4b/double_3x3_1
I0217 13:06:05.851342  6798 net.cpp:415] inception_4b/double_3x3_1_bn -> inception_4b/double_3x3_1_bn
I0217 13:06:05.851347  6798 net.cpp:160] Setting up inception_4b/double_3x3_1_bn
I0217 13:06:05.851357  6798 net.cpp:167] Top shape: 216 128 14 14 (5419008)
I0217 13:06:05.851362  6798 layer_factory.hpp:74] Creating layer inception_4b/relu_double_3x3_1
I0217 13:06:05.851367  6798 net.cpp:96] Creating Layer inception_4b/relu_double_3x3_1
I0217 13:06:05.851371  6798 net.cpp:459] inception_4b/relu_double_3x3_1 <- inception_4b/double_3x3_1_bn
I0217 13:06:05.851374  6798 net.cpp:404] inception_4b/relu_double_3x3_1 -> inception_4b/double_3x3_1_bn (in-place)
I0217 13:06:05.851378  6798 net.cpp:160] Setting up inception_4b/relu_double_3x3_1
I0217 13:06:05.851384  6798 net.cpp:167] Top shape: 216 128 14 14 (5419008)
I0217 13:06:05.851387  6798 layer_factory.hpp:74] Creating layer inception_4b/double_3x3_2
I0217 13:06:05.851392  6798 net.cpp:96] Creating Layer inception_4b/double_3x3_2
I0217 13:06:05.851395  6798 net.cpp:459] inception_4b/double_3x3_2 <- inception_4b/double_3x3_1_bn
I0217 13:06:05.851400  6798 net.cpp:415] inception_4b/double_3x3_2 -> inception_4b/double_3x3_2
I0217 13:06:05.851405  6798 net.cpp:160] Setting up inception_4b/double_3x3_2
I0217 13:06:05.852128  6798 net.cpp:167] Top shape: 216 128 14 14 (5419008)
I0217 13:06:05.852134  6798 layer_factory.hpp:74] Creating layer inception_4b/double_3x3_2_bn
I0217 13:06:05.852138  6798 layer_factory.cpp:177] Layer inception_4b/double_3x3_2_bn is using CAFFE engine.
I0217 13:06:05.852144  6798 net.cpp:96] Creating Layer inception_4b/double_3x3_2_bn
I0217 13:06:05.852146  6798 net.cpp:459] inception_4b/double_3x3_2_bn <- inception_4b/double_3x3_2
I0217 13:06:05.852151  6798 net.cpp:415] inception_4b/double_3x3_2_bn -> inception_4b/double_3x3_2_bn
I0217 13:06:05.852156  6798 net.cpp:160] Setting up inception_4b/double_3x3_2_bn
I0217 13:06:05.852166  6798 net.cpp:167] Top shape: 216 128 14 14 (5419008)
I0217 13:06:05.852171  6798 layer_factory.hpp:74] Creating layer inception_4b/relu_double_3x3_2
I0217 13:06:05.852176  6798 net.cpp:96] Creating Layer inception_4b/relu_double_3x3_2
I0217 13:06:05.852180  6798 net.cpp:459] inception_4b/relu_double_3x3_2 <- inception_4b/double_3x3_2_bn
I0217 13:06:05.852183  6798 net.cpp:404] inception_4b/relu_double_3x3_2 -> inception_4b/double_3x3_2_bn (in-place)
I0217 13:06:05.852187  6798 net.cpp:160] Setting up inception_4b/relu_double_3x3_2
I0217 13:06:05.852191  6798 net.cpp:167] Top shape: 216 128 14 14 (5419008)
I0217 13:06:05.852195  6798 layer_factory.hpp:74] Creating layer inception_4b/pool
I0217 13:06:05.852205  6798 net.cpp:96] Creating Layer inception_4b/pool
I0217 13:06:05.852207  6798 net.cpp:459] inception_4b/pool <- inception_4a/output_inception_4a/output_0_split_3
I0217 13:06:05.852211  6798 net.cpp:415] inception_4b/pool -> inception_4b/pool
I0217 13:06:05.852216  6798 net.cpp:160] Setting up inception_4b/pool
I0217 13:06:05.852221  6798 net.cpp:167] Top shape: 216 576 14 14 (24385536)
I0217 13:06:05.852224  6798 layer_factory.hpp:74] Creating layer inception_4b/pool_proj
I0217 13:06:05.852229  6798 net.cpp:96] Creating Layer inception_4b/pool_proj
I0217 13:06:05.852233  6798 net.cpp:459] inception_4b/pool_proj <- inception_4b/pool
I0217 13:06:05.852238  6798 net.cpp:415] inception_4b/pool_proj -> inception_4b/pool_proj
I0217 13:06:05.852242  6798 net.cpp:160] Setting up inception_4b/pool_proj
I0217 13:06:05.852716  6798 net.cpp:167] Top shape: 216 128 14 14 (5419008)
I0217 13:06:05.852728  6798 layer_factory.hpp:74] Creating layer inception_4b/pool_proj_bn
I0217 13:06:05.852735  6798 layer_factory.cpp:177] Layer inception_4b/pool_proj_bn is using CAFFE engine.
I0217 13:06:05.852743  6798 net.cpp:96] Creating Layer inception_4b/pool_proj_bn
I0217 13:06:05.852748  6798 net.cpp:459] inception_4b/pool_proj_bn <- inception_4b/pool_proj
I0217 13:06:05.852756  6798 net.cpp:415] inception_4b/pool_proj_bn -> inception_4b/pool_proj_bn
I0217 13:06:05.852766  6798 net.cpp:160] Setting up inception_4b/pool_proj_bn
I0217 13:06:05.852782  6798 net.cpp:167] Top shape: 216 128 14 14 (5419008)
I0217 13:06:05.852792  6798 layer_factory.hpp:74] Creating layer inception_4b/relu_pool_proj
I0217 13:06:05.852799  6798 net.cpp:96] Creating Layer inception_4b/relu_pool_proj
I0217 13:06:05.852804  6798 net.cpp:459] inception_4b/relu_pool_proj <- inception_4b/pool_proj_bn
I0217 13:06:05.852813  6798 net.cpp:404] inception_4b/relu_pool_proj -> inception_4b/pool_proj_bn (in-place)
I0217 13:06:05.852819  6798 net.cpp:160] Setting up inception_4b/relu_pool_proj
I0217 13:06:05.852825  6798 net.cpp:167] Top shape: 216 128 14 14 (5419008)
I0217 13:06:05.852830  6798 layer_factory.hpp:74] Creating layer inception_4b/output
I0217 13:06:05.852836  6798 net.cpp:96] Creating Layer inception_4b/output
I0217 13:06:05.852844  6798 net.cpp:459] inception_4b/output <- inception_4b/1x1_bn
I0217 13:06:05.852851  6798 net.cpp:459] inception_4b/output <- inception_4b/3x3_bn
I0217 13:06:05.852856  6798 net.cpp:459] inception_4b/output <- inception_4b/double_3x3_2_bn
I0217 13:06:05.852862  6798 net.cpp:459] inception_4b/output <- inception_4b/pool_proj_bn
I0217 13:06:05.852869  6798 net.cpp:415] inception_4b/output -> inception_4b/output
I0217 13:06:05.852875  6798 net.cpp:160] Setting up inception_4b/output
I0217 13:06:05.852882  6798 net.cpp:167] Top shape: 216 576 14 14 (24385536)
I0217 13:06:05.852888  6798 layer_factory.hpp:74] Creating layer inception_4b/output_inception_4b/output_0_split
I0217 13:06:05.852895  6798 net.cpp:96] Creating Layer inception_4b/output_inception_4b/output_0_split
I0217 13:06:05.852900  6798 net.cpp:459] inception_4b/output_inception_4b/output_0_split <- inception_4b/output
I0217 13:06:05.852908  6798 net.cpp:415] inception_4b/output_inception_4b/output_0_split -> inception_4b/output_inception_4b/output_0_split_0
I0217 13:06:05.852916  6798 net.cpp:415] inception_4b/output_inception_4b/output_0_split -> inception_4b/output_inception_4b/output_0_split_1
I0217 13:06:05.852923  6798 net.cpp:415] inception_4b/output_inception_4b/output_0_split -> inception_4b/output_inception_4b/output_0_split_2
I0217 13:06:05.852931  6798 net.cpp:415] inception_4b/output_inception_4b/output_0_split -> inception_4b/output_inception_4b/output_0_split_3
I0217 13:06:05.852938  6798 net.cpp:160] Setting up inception_4b/output_inception_4b/output_0_split
I0217 13:06:05.852947  6798 net.cpp:167] Top shape: 216 576 14 14 (24385536)
I0217 13:06:05.852953  6798 net.cpp:167] Top shape: 216 576 14 14 (24385536)
I0217 13:06:05.852958  6798 net.cpp:167] Top shape: 216 576 14 14 (24385536)
I0217 13:06:05.852963  6798 net.cpp:167] Top shape: 216 576 14 14 (24385536)
I0217 13:06:05.852973  6798 layer_factory.hpp:74] Creating layer inception_4c/1x1
I0217 13:06:05.852993  6798 net.cpp:96] Creating Layer inception_4c/1x1
I0217 13:06:05.852998  6798 net.cpp:459] inception_4c/1x1 <- inception_4b/output_inception_4b/output_0_split_0
I0217 13:06:05.853005  6798 net.cpp:415] inception_4c/1x1 -> inception_4c/1x1
I0217 13:06:05.853013  6798 net.cpp:160] Setting up inception_4c/1x1
I0217 13:06:05.853628  6798 net.cpp:167] Top shape: 216 160 14 14 (6773760)
I0217 13:06:05.853639  6798 layer_factory.hpp:74] Creating layer inception_4c/1x1_bn
I0217 13:06:05.853646  6798 layer_factory.cpp:177] Layer inception_4c/1x1_bn is using CAFFE engine.
I0217 13:06:05.853653  6798 net.cpp:96] Creating Layer inception_4c/1x1_bn
I0217 13:06:05.853658  6798 net.cpp:459] inception_4c/1x1_bn <- inception_4c/1x1
I0217 13:06:05.853667  6798 net.cpp:415] inception_4c/1x1_bn -> inception_4c/1x1_bn
I0217 13:06:05.853673  6798 net.cpp:160] Setting up inception_4c/1x1_bn
I0217 13:06:05.853690  6798 net.cpp:167] Top shape: 216 160 14 14 (6773760)
I0217 13:06:05.853699  6798 layer_factory.hpp:74] Creating layer inception_4c/relu_1x1
I0217 13:06:05.853705  6798 net.cpp:96] Creating Layer inception_4c/relu_1x1
I0217 13:06:05.853710  6798 net.cpp:459] inception_4c/relu_1x1 <- inception_4c/1x1_bn
I0217 13:06:05.853718  6798 net.cpp:404] inception_4c/relu_1x1 -> inception_4c/1x1_bn (in-place)
I0217 13:06:05.853724  6798 net.cpp:160] Setting up inception_4c/relu_1x1
I0217 13:06:05.853730  6798 net.cpp:167] Top shape: 216 160 14 14 (6773760)
I0217 13:06:05.853734  6798 layer_factory.hpp:74] Creating layer inception_4c/3x3_reduce
I0217 13:06:05.853741  6798 net.cpp:96] Creating Layer inception_4c/3x3_reduce
I0217 13:06:05.853746  6798 net.cpp:459] inception_4c/3x3_reduce <- inception_4b/output_inception_4b/output_0_split_1
I0217 13:06:05.853754  6798 net.cpp:415] inception_4c/3x3_reduce -> inception_4c/3x3_reduce
I0217 13:06:05.853761  6798 net.cpp:160] Setting up inception_4c/3x3_reduce
I0217 13:06:05.854250  6798 net.cpp:167] Top shape: 216 128 14 14 (5419008)
I0217 13:06:05.854265  6798 layer_factory.hpp:74] Creating layer inception_4c/3x3_reduce_bn
I0217 13:06:05.854276  6798 layer_factory.cpp:177] Layer inception_4c/3x3_reduce_bn is using CAFFE engine.
I0217 13:06:05.854286  6798 net.cpp:96] Creating Layer inception_4c/3x3_reduce_bn
I0217 13:06:05.854292  6798 net.cpp:459] inception_4c/3x3_reduce_bn <- inception_4c/3x3_reduce
I0217 13:06:05.854300  6798 net.cpp:415] inception_4c/3x3_reduce_bn -> inception_4c/3x3_reduce_bn
I0217 13:06:05.854308  6798 net.cpp:160] Setting up inception_4c/3x3_reduce_bn
I0217 13:06:05.854326  6798 net.cpp:167] Top shape: 216 128 14 14 (5419008)
I0217 13:06:05.854336  6798 layer_factory.hpp:74] Creating layer inception_4c/relu_3x3_reduce
I0217 13:06:05.854346  6798 net.cpp:96] Creating Layer inception_4c/relu_3x3_reduce
I0217 13:06:05.854351  6798 net.cpp:459] inception_4c/relu_3x3_reduce <- inception_4c/3x3_reduce_bn
I0217 13:06:05.854357  6798 net.cpp:404] inception_4c/relu_3x3_reduce -> inception_4c/3x3_reduce_bn (in-place)
I0217 13:06:05.854362  6798 net.cpp:160] Setting up inception_4c/relu_3x3_reduce
I0217 13:06:05.854367  6798 net.cpp:167] Top shape: 216 128 14 14 (5419008)
I0217 13:06:05.854369  6798 layer_factory.hpp:74] Creating layer inception_4c/3x3
I0217 13:06:05.854375  6798 net.cpp:96] Creating Layer inception_4c/3x3
I0217 13:06:05.854378  6798 net.cpp:459] inception_4c/3x3 <- inception_4c/3x3_reduce_bn
I0217 13:06:05.854383  6798 net.cpp:415] inception_4c/3x3 -> inception_4c/3x3
I0217 13:06:05.854388  6798 net.cpp:160] Setting up inception_4c/3x3
I0217 13:06:05.855613  6798 net.cpp:167] Top shape: 216 160 14 14 (6773760)
I0217 13:06:05.855626  6798 layer_factory.hpp:74] Creating layer inception_4c/3x3_bn
I0217 13:06:05.855633  6798 layer_factory.cpp:177] Layer inception_4c/3x3_bn is using CAFFE engine.
I0217 13:06:05.855641  6798 net.cpp:96] Creating Layer inception_4c/3x3_bn
I0217 13:06:05.855648  6798 net.cpp:459] inception_4c/3x3_bn <- inception_4c/3x3
I0217 13:06:05.855656  6798 net.cpp:415] inception_4c/3x3_bn -> inception_4c/3x3_bn
I0217 13:06:05.855670  6798 net.cpp:160] Setting up inception_4c/3x3_bn
I0217 13:06:05.855687  6798 net.cpp:167] Top shape: 216 160 14 14 (6773760)
I0217 13:06:05.855696  6798 layer_factory.hpp:74] Creating layer inception_4c/relu_3x3
I0217 13:06:05.855703  6798 net.cpp:96] Creating Layer inception_4c/relu_3x3
I0217 13:06:05.855708  6798 net.cpp:459] inception_4c/relu_3x3 <- inception_4c/3x3_bn
I0217 13:06:05.855715  6798 net.cpp:404] inception_4c/relu_3x3 -> inception_4c/3x3_bn (in-place)
I0217 13:06:05.855722  6798 net.cpp:160] Setting up inception_4c/relu_3x3
I0217 13:06:05.855728  6798 net.cpp:167] Top shape: 216 160 14 14 (6773760)
I0217 13:06:05.855732  6798 layer_factory.hpp:74] Creating layer inception_4c/double_3x3_reduce
I0217 13:06:05.855741  6798 net.cpp:96] Creating Layer inception_4c/double_3x3_reduce
I0217 13:06:05.855744  6798 net.cpp:459] inception_4c/double_3x3_reduce <- inception_4b/output_inception_4b/output_0_split_2
I0217 13:06:05.855752  6798 net.cpp:415] inception_4c/double_3x3_reduce -> inception_4c/double_3x3_reduce
I0217 13:06:05.855761  6798 net.cpp:160] Setting up inception_4c/double_3x3_reduce
I0217 13:06:05.856225  6798 net.cpp:167] Top shape: 216 128 14 14 (5419008)
I0217 13:06:05.856238  6798 layer_factory.hpp:74] Creating layer inception_4c/double_3x3_reduce_bn
I0217 13:06:05.856245  6798 layer_factory.cpp:177] Layer inception_4c/double_3x3_reduce_bn is using CAFFE engine.
I0217 13:06:05.856252  6798 net.cpp:96] Creating Layer inception_4c/double_3x3_reduce_bn
I0217 13:06:05.856258  6798 net.cpp:459] inception_4c/double_3x3_reduce_bn <- inception_4c/double_3x3_reduce
I0217 13:06:05.856266  6798 net.cpp:415] inception_4c/double_3x3_reduce_bn -> inception_4c/double_3x3_reduce_bn
I0217 13:06:05.856274  6798 net.cpp:160] Setting up inception_4c/double_3x3_reduce_bn
I0217 13:06:05.856294  6798 net.cpp:167] Top shape: 216 128 14 14 (5419008)
I0217 13:06:05.856303  6798 layer_factory.hpp:74] Creating layer inception_4c/relu_double_3x3_reduce
I0217 13:06:05.856312  6798 net.cpp:96] Creating Layer inception_4c/relu_double_3x3_reduce
I0217 13:06:05.856319  6798 net.cpp:459] inception_4c/relu_double_3x3_reduce <- inception_4c/double_3x3_reduce_bn
I0217 13:06:05.856326  6798 net.cpp:404] inception_4c/relu_double_3x3_reduce -> inception_4c/double_3x3_reduce_bn (in-place)
I0217 13:06:05.856333  6798 net.cpp:160] Setting up inception_4c/relu_double_3x3_reduce
I0217 13:06:05.856340  6798 net.cpp:167] Top shape: 216 128 14 14 (5419008)
I0217 13:06:05.856345  6798 layer_factory.hpp:74] Creating layer inception_4c/double_3x3_1
I0217 13:06:05.856355  6798 net.cpp:96] Creating Layer inception_4c/double_3x3_1
I0217 13:06:05.856360  6798 net.cpp:459] inception_4c/double_3x3_1 <- inception_4c/double_3x3_reduce_bn
I0217 13:06:05.856367  6798 net.cpp:415] inception_4c/double_3x3_1 -> inception_4c/double_3x3_1
I0217 13:06:05.856375  6798 net.cpp:160] Setting up inception_4c/double_3x3_1
I0217 13:06:05.857591  6798 net.cpp:167] Top shape: 216 160 14 14 (6773760)
I0217 13:06:05.857602  6798 layer_factory.hpp:74] Creating layer inception_4c/double_3x3_1_bn
I0217 13:06:05.857607  6798 layer_factory.cpp:177] Layer inception_4c/double_3x3_1_bn is using CAFFE engine.
I0217 13:06:05.857616  6798 net.cpp:96] Creating Layer inception_4c/double_3x3_1_bn
I0217 13:06:05.857621  6798 net.cpp:459] inception_4c/double_3x3_1_bn <- inception_4c/double_3x3_1
I0217 13:06:05.857630  6798 net.cpp:415] inception_4c/double_3x3_1_bn -> inception_4c/double_3x3_1_bn
I0217 13:06:05.857637  6798 net.cpp:160] Setting up inception_4c/double_3x3_1_bn
I0217 13:06:05.857653  6798 net.cpp:167] Top shape: 216 160 14 14 (6773760)
I0217 13:06:05.857662  6798 layer_factory.hpp:74] Creating layer inception_4c/relu_double_3x3_1
I0217 13:06:05.857668  6798 net.cpp:96] Creating Layer inception_4c/relu_double_3x3_1
I0217 13:06:05.857674  6798 net.cpp:459] inception_4c/relu_double_3x3_1 <- inception_4c/double_3x3_1_bn
I0217 13:06:05.857681  6798 net.cpp:404] inception_4c/relu_double_3x3_1 -> inception_4c/double_3x3_1_bn (in-place)
I0217 13:06:05.857692  6798 net.cpp:160] Setting up inception_4c/relu_double_3x3_1
I0217 13:06:05.857698  6798 net.cpp:167] Top shape: 216 160 14 14 (6773760)
I0217 13:06:05.857703  6798 layer_factory.hpp:74] Creating layer inception_4c/double_3x3_2
I0217 13:06:05.857710  6798 net.cpp:96] Creating Layer inception_4c/double_3x3_2
I0217 13:06:05.857715  6798 net.cpp:459] inception_4c/double_3x3_2 <- inception_4c/double_3x3_1_bn
I0217 13:06:05.857723  6798 net.cpp:415] inception_4c/double_3x3_2 -> inception_4c/double_3x3_2
I0217 13:06:05.857730  6798 net.cpp:160] Setting up inception_4c/double_3x3_2
I0217 13:06:05.859280  6798 net.cpp:167] Top shape: 216 160 14 14 (6773760)
I0217 13:06:05.859295  6798 layer_factory.hpp:74] Creating layer inception_4c/double_3x3_2_bn
I0217 13:06:05.859302  6798 layer_factory.cpp:177] Layer inception_4c/double_3x3_2_bn is using CAFFE engine.
I0217 13:06:05.859310  6798 net.cpp:96] Creating Layer inception_4c/double_3x3_2_bn
I0217 13:06:05.859316  6798 net.cpp:459] inception_4c/double_3x3_2_bn <- inception_4c/double_3x3_2
I0217 13:06:05.859323  6798 net.cpp:415] inception_4c/double_3x3_2_bn -> inception_4c/double_3x3_2_bn
I0217 13:06:05.859331  6798 net.cpp:160] Setting up inception_4c/double_3x3_2_bn
I0217 13:06:05.859350  6798 net.cpp:167] Top shape: 216 160 14 14 (6773760)
I0217 13:06:05.859359  6798 layer_factory.hpp:74] Creating layer inception_4c/relu_double_3x3_2
I0217 13:06:05.859366  6798 net.cpp:96] Creating Layer inception_4c/relu_double_3x3_2
I0217 13:06:05.859371  6798 net.cpp:459] inception_4c/relu_double_3x3_2 <- inception_4c/double_3x3_2_bn
I0217 13:06:05.859377  6798 net.cpp:404] inception_4c/relu_double_3x3_2 -> inception_4c/double_3x3_2_bn (in-place)
I0217 13:06:05.859383  6798 net.cpp:160] Setting up inception_4c/relu_double_3x3_2
I0217 13:06:05.859390  6798 net.cpp:167] Top shape: 216 160 14 14 (6773760)
I0217 13:06:05.859395  6798 layer_factory.hpp:74] Creating layer inception_4c/pool
I0217 13:06:05.859400  6798 net.cpp:96] Creating Layer inception_4c/pool
I0217 13:06:05.859405  6798 net.cpp:459] inception_4c/pool <- inception_4b/output_inception_4b/output_0_split_3
I0217 13:06:05.859417  6798 net.cpp:415] inception_4c/pool -> inception_4c/pool
I0217 13:06:05.859424  6798 net.cpp:160] Setting up inception_4c/pool
I0217 13:06:05.859432  6798 net.cpp:167] Top shape: 216 576 14 14 (24385536)
I0217 13:06:05.859437  6798 layer_factory.hpp:74] Creating layer inception_4c/pool_proj
I0217 13:06:05.859446  6798 net.cpp:96] Creating Layer inception_4c/pool_proj
I0217 13:06:05.859450  6798 net.cpp:459] inception_4c/pool_proj <- inception_4c/pool
I0217 13:06:05.859457  6798 net.cpp:415] inception_4c/pool_proj -> inception_4c/pool_proj
I0217 13:06:05.859464  6798 net.cpp:160] Setting up inception_4c/pool_proj
I0217 13:06:05.859949  6798 net.cpp:167] Top shape: 216 128 14 14 (5419008)
I0217 13:06:05.859962  6798 layer_factory.hpp:74] Creating layer inception_4c/pool_proj_bn
I0217 13:06:05.859968  6798 layer_factory.cpp:177] Layer inception_4c/pool_proj_bn is using CAFFE engine.
I0217 13:06:05.859975  6798 net.cpp:96] Creating Layer inception_4c/pool_proj_bn
I0217 13:06:05.859982  6798 net.cpp:459] inception_4c/pool_proj_bn <- inception_4c/pool_proj
I0217 13:06:05.859989  6798 net.cpp:415] inception_4c/pool_proj_bn -> inception_4c/pool_proj_bn
I0217 13:06:05.859998  6798 net.cpp:160] Setting up inception_4c/pool_proj_bn
I0217 13:06:05.860016  6798 net.cpp:167] Top shape: 216 128 14 14 (5419008)
I0217 13:06:05.860049  6798 layer_factory.hpp:74] Creating layer inception_4c/relu_pool_proj
I0217 13:06:05.860056  6798 net.cpp:96] Creating Layer inception_4c/relu_pool_proj
I0217 13:06:05.860061  6798 net.cpp:459] inception_4c/relu_pool_proj <- inception_4c/pool_proj_bn
I0217 13:06:05.860067  6798 net.cpp:404] inception_4c/relu_pool_proj -> inception_4c/pool_proj_bn (in-place)
I0217 13:06:05.860074  6798 net.cpp:160] Setting up inception_4c/relu_pool_proj
I0217 13:06:05.860081  6798 net.cpp:167] Top shape: 216 128 14 14 (5419008)
I0217 13:06:05.860086  6798 layer_factory.hpp:74] Creating layer inception_4c/output
I0217 13:06:05.860100  6798 net.cpp:96] Creating Layer inception_4c/output
I0217 13:06:05.860105  6798 net.cpp:459] inception_4c/output <- inception_4c/1x1_bn
I0217 13:06:05.860110  6798 net.cpp:459] inception_4c/output <- inception_4c/3x3_bn
I0217 13:06:05.860116  6798 net.cpp:459] inception_4c/output <- inception_4c/double_3x3_2_bn
I0217 13:06:05.860121  6798 net.cpp:459] inception_4c/output <- inception_4c/pool_proj_bn
I0217 13:06:05.860128  6798 net.cpp:415] inception_4c/output -> inception_4c/output
I0217 13:06:05.860136  6798 net.cpp:160] Setting up inception_4c/output
I0217 13:06:05.860143  6798 net.cpp:167] Top shape: 216 608 14 14 (25740288)
I0217 13:06:05.860148  6798 layer_factory.hpp:74] Creating layer inception_4c/output_inception_4c/output_0_split
I0217 13:06:05.860155  6798 net.cpp:96] Creating Layer inception_4c/output_inception_4c/output_0_split
I0217 13:06:05.860160  6798 net.cpp:459] inception_4c/output_inception_4c/output_0_split <- inception_4c/output
I0217 13:06:05.860167  6798 net.cpp:415] inception_4c/output_inception_4c/output_0_split -> inception_4c/output_inception_4c/output_0_split_0
I0217 13:06:05.860175  6798 net.cpp:415] inception_4c/output_inception_4c/output_0_split -> inception_4c/output_inception_4c/output_0_split_1
I0217 13:06:05.860184  6798 net.cpp:415] inception_4c/output_inception_4c/output_0_split -> inception_4c/output_inception_4c/output_0_split_2
I0217 13:06:05.860204  6798 net.cpp:415] inception_4c/output_inception_4c/output_0_split -> inception_4c/output_inception_4c/output_0_split_3
I0217 13:06:05.860211  6798 net.cpp:160] Setting up inception_4c/output_inception_4c/output_0_split
I0217 13:06:05.860219  6798 net.cpp:167] Top shape: 216 608 14 14 (25740288)
I0217 13:06:05.860225  6798 net.cpp:167] Top shape: 216 608 14 14 (25740288)
I0217 13:06:05.860231  6798 net.cpp:167] Top shape: 216 608 14 14 (25740288)
I0217 13:06:05.860237  6798 net.cpp:167] Top shape: 216 608 14 14 (25740288)
I0217 13:06:05.860242  6798 layer_factory.hpp:74] Creating layer inception_4d/1x1
I0217 13:06:05.860250  6798 net.cpp:96] Creating Layer inception_4d/1x1
I0217 13:06:05.860258  6798 net.cpp:459] inception_4d/1x1 <- inception_4c/output_inception_4c/output_0_split_0
I0217 13:06:05.860265  6798 net.cpp:415] inception_4d/1x1 -> inception_4d/1x1
I0217 13:06:05.860273  6798 net.cpp:160] Setting up inception_4d/1x1
I0217 13:06:05.860666  6798 net.cpp:167] Top shape: 216 96 14 14 (4064256)
I0217 13:06:05.860676  6798 layer_factory.hpp:74] Creating layer inception_4d/1x1_bn
I0217 13:06:05.860680  6798 layer_factory.cpp:177] Layer inception_4d/1x1_bn is using CAFFE engine.
I0217 13:06:05.860687  6798 net.cpp:96] Creating Layer inception_4d/1x1_bn
I0217 13:06:05.860692  6798 net.cpp:459] inception_4d/1x1_bn <- inception_4d/1x1
I0217 13:06:05.860700  6798 net.cpp:415] inception_4d/1x1_bn -> inception_4d/1x1_bn
I0217 13:06:05.860708  6798 net.cpp:160] Setting up inception_4d/1x1_bn
I0217 13:06:05.860724  6798 net.cpp:167] Top shape: 216 96 14 14 (4064256)
I0217 13:06:05.860733  6798 layer_factory.hpp:74] Creating layer inception_4d/relu_1x1
I0217 13:06:05.860740  6798 net.cpp:96] Creating Layer inception_4d/relu_1x1
I0217 13:06:05.860745  6798 net.cpp:459] inception_4d/relu_1x1 <- inception_4d/1x1_bn
I0217 13:06:05.860751  6798 net.cpp:404] inception_4d/relu_1x1 -> inception_4d/1x1_bn (in-place)
I0217 13:06:05.860757  6798 net.cpp:160] Setting up inception_4d/relu_1x1
I0217 13:06:05.860764  6798 net.cpp:167] Top shape: 216 96 14 14 (4064256)
I0217 13:06:05.860767  6798 layer_factory.hpp:74] Creating layer inception_4d/3x3_reduce
I0217 13:06:05.860775  6798 net.cpp:96] Creating Layer inception_4d/3x3_reduce
I0217 13:06:05.860780  6798 net.cpp:459] inception_4d/3x3_reduce <- inception_4c/output_inception_4c/output_0_split_1
I0217 13:06:05.860788  6798 net.cpp:415] inception_4d/3x3_reduce -> inception_4d/3x3_reduce
I0217 13:06:05.860795  6798 net.cpp:160] Setting up inception_4d/3x3_reduce
I0217 13:06:05.861311  6798 net.cpp:167] Top shape: 216 128 14 14 (5419008)
I0217 13:06:05.861327  6798 layer_factory.hpp:74] Creating layer inception_4d/3x3_reduce_bn
I0217 13:06:05.861333  6798 layer_factory.cpp:177] Layer inception_4d/3x3_reduce_bn is using CAFFE engine.
I0217 13:06:05.861342  6798 net.cpp:96] Creating Layer inception_4d/3x3_reduce_bn
I0217 13:06:05.861347  6798 net.cpp:459] inception_4d/3x3_reduce_bn <- inception_4d/3x3_reduce
I0217 13:06:05.861356  6798 net.cpp:415] inception_4d/3x3_reduce_bn -> inception_4d/3x3_reduce_bn
I0217 13:06:05.861364  6798 net.cpp:160] Setting up inception_4d/3x3_reduce_bn
I0217 13:06:05.861384  6798 net.cpp:167] Top shape: 216 128 14 14 (5419008)
I0217 13:06:05.861394  6798 layer_factory.hpp:74] Creating layer inception_4d/relu_3x3_reduce
I0217 13:06:05.861402  6798 net.cpp:96] Creating Layer inception_4d/relu_3x3_reduce
I0217 13:06:05.861408  6798 net.cpp:459] inception_4d/relu_3x3_reduce <- inception_4d/3x3_reduce_bn
I0217 13:06:05.861415  6798 net.cpp:404] inception_4d/relu_3x3_reduce -> inception_4d/3x3_reduce_bn (in-place)
I0217 13:06:05.861423  6798 net.cpp:160] Setting up inception_4d/relu_3x3_reduce
I0217 13:06:05.861429  6798 net.cpp:167] Top shape: 216 128 14 14 (5419008)
I0217 13:06:05.861434  6798 layer_factory.hpp:74] Creating layer inception_4d/3x3
I0217 13:06:05.861443  6798 net.cpp:96] Creating Layer inception_4d/3x3
I0217 13:06:05.861449  6798 net.cpp:459] inception_4d/3x3 <- inception_4d/3x3_reduce_bn
I0217 13:06:05.861457  6798 net.cpp:415] inception_4d/3x3 -> inception_4d/3x3
I0217 13:06:05.861464  6798 net.cpp:160] Setting up inception_4d/3x3
I0217 13:06:05.862905  6798 net.cpp:167] Top shape: 216 192 14 14 (8128512)
I0217 13:06:05.862924  6798 layer_factory.hpp:74] Creating layer inception_4d/3x3_bn
I0217 13:06:05.862931  6798 layer_factory.cpp:177] Layer inception_4d/3x3_bn is using CAFFE engine.
I0217 13:06:05.862941  6798 net.cpp:96] Creating Layer inception_4d/3x3_bn
I0217 13:06:05.862946  6798 net.cpp:459] inception_4d/3x3_bn <- inception_4d/3x3
I0217 13:06:05.862954  6798 net.cpp:415] inception_4d/3x3_bn -> inception_4d/3x3_bn
I0217 13:06:05.862963  6798 net.cpp:160] Setting up inception_4d/3x3_bn
I0217 13:06:05.862980  6798 net.cpp:167] Top shape: 216 192 14 14 (8128512)
I0217 13:06:05.862993  6798 layer_factory.hpp:74] Creating layer inception_4d/relu_3x3
I0217 13:06:05.862999  6798 net.cpp:96] Creating Layer inception_4d/relu_3x3
I0217 13:06:05.863004  6798 net.cpp:459] inception_4d/relu_3x3 <- inception_4d/3x3_bn
I0217 13:06:05.863013  6798 net.cpp:404] inception_4d/relu_3x3 -> inception_4d/3x3_bn (in-place)
I0217 13:06:05.863019  6798 net.cpp:160] Setting up inception_4d/relu_3x3
I0217 13:06:05.863025  6798 net.cpp:167] Top shape: 216 192 14 14 (8128512)
I0217 13:06:05.863029  6798 layer_factory.hpp:74] Creating layer inception_4d/double_3x3_reduce
I0217 13:06:05.863036  6798 net.cpp:96] Creating Layer inception_4d/double_3x3_reduce
I0217 13:06:05.863041  6798 net.cpp:459] inception_4d/double_3x3_reduce <- inception_4c/output_inception_4c/output_0_split_2
I0217 13:06:05.863050  6798 net.cpp:415] inception_4d/double_3x3_reduce -> inception_4d/double_3x3_reduce
I0217 13:06:05.863057  6798 net.cpp:160] Setting up inception_4d/double_3x3_reduce
I0217 13:06:05.863701  6798 net.cpp:167] Top shape: 216 160 14 14 (6773760)
I0217 13:06:05.863710  6798 layer_factory.hpp:74] Creating layer inception_4d/double_3x3_reduce_bn
I0217 13:06:05.863715  6798 layer_factory.cpp:177] Layer inception_4d/double_3x3_reduce_bn is using CAFFE engine.
I0217 13:06:05.863723  6798 net.cpp:96] Creating Layer inception_4d/double_3x3_reduce_bn
I0217 13:06:05.863729  6798 net.cpp:459] inception_4d/double_3x3_reduce_bn <- inception_4d/double_3x3_reduce
I0217 13:06:05.863735  6798 net.cpp:415] inception_4d/double_3x3_reduce_bn -> inception_4d/double_3x3_reduce_bn
I0217 13:06:05.863742  6798 net.cpp:160] Setting up inception_4d/double_3x3_reduce_bn
I0217 13:06:05.863759  6798 net.cpp:167] Top shape: 216 160 14 14 (6773760)
I0217 13:06:05.863767  6798 layer_factory.hpp:74] Creating layer inception_4d/relu_double_3x3_reduce
I0217 13:06:05.863775  6798 net.cpp:96] Creating Layer inception_4d/relu_double_3x3_reduce
I0217 13:06:05.863788  6798 net.cpp:459] inception_4d/relu_double_3x3_reduce <- inception_4d/double_3x3_reduce_bn
I0217 13:06:05.863795  6798 net.cpp:404] inception_4d/relu_double_3x3_reduce -> inception_4d/double_3x3_reduce_bn (in-place)
I0217 13:06:05.863801  6798 net.cpp:160] Setting up inception_4d/relu_double_3x3_reduce
I0217 13:06:05.863807  6798 net.cpp:167] Top shape: 216 160 14 14 (6773760)
I0217 13:06:05.863812  6798 layer_factory.hpp:74] Creating layer inception_4d/double_3x3_1
I0217 13:06:05.863819  6798 net.cpp:96] Creating Layer inception_4d/double_3x3_1
F0217 13:06:05.863819  6802 data_transformer.cpp:139] Check failed: mean_values_.size() == 1 || mean_values_.size() == datum_channels Specify either 1 mean_value or as many as channels: 27
I0217 13:06:05.863829  6798 net.cpp:459] inception_4d/double_3x3_1 <- inception_4d/double_3x3_reduce_bn
*** Check failure stack trace: ***
I0217 13:06:05.864547  6798 net.cpp:415] inception_4d/double_3x3_1 -> inception_4d/double_3x3_1
I0217 13:06:05.864559  6798 net.cpp:160] Setting up inception_4d/double_3x3_1
    @     0x7fbed3adddaa  (unknown)
    @     0x7fbed3addce4  (unknown)
I0217 13:06:05.866444  6798 net.cpp:167] Top shape: 216 192 14 14 (8128512)
I0217 13:06:05.866458  6798 layer_factory.hpp:74] Creating layer inception_4d/double_3x3_1_bn
I0217 13:06:05.866464  6798 layer_factory.cpp:177] Layer inception_4d/double_3x3_1_bn is using CAFFE engine.
I0217 13:06:05.866472  6798 net.cpp:96] Creating Layer inception_4d/double_3x3_1_bn
I0217 13:06:05.866477  6798 net.cpp:459] inception_4d/double_3x3_1_bn <- inception_4d/double_3x3_1
I0217 13:06:05.866485  6798 net.cpp:415] inception_4d/double_3x3_1_bn -> inception_4d/double_3x3_1_bn
I0217 13:06:05.866493  6798 net.cpp:160] Setting up inception_4d/double_3x3_1_bn
I0217 13:06:05.866508  6798 net.cpp:167] Top shape: 216 192 14 14 (8128512)
I0217 13:06:05.866518  6798 layer_factory.hpp:74] Creating layer inception_4d/relu_double_3x3_1
I0217 13:06:05.866524  6798 net.cpp:96] Creating Layer inception_4d/relu_double_3x3_1
I0217 13:06:05.866529  6798 net.cpp:459] inception_4d/relu_double_3x3_1 <- inception_4d/double_3x3_1_bn
I0217 13:06:05.866539  6798 net.cpp:404] inception_4d/relu_double_3x3_1 -> inception_4d/double_3x3_1_bn (in-place)
I0217 13:06:05.866546  6798 net.cpp:160] Setting up inception_4d/relu_double_3x3_1
I0217 13:06:05.866552  6798 net.cpp:167] Top shape: 216 192 14 14 (8128512)
I0217 13:06:05.866557  6798 layer_factory.hpp:74] Creating layer inception_4d/double_3x3_2
I0217 13:06:05.866566  6798 net.cpp:96] Creating Layer inception_4d/double_3x3_2
I0217 13:06:05.866571  6798 net.cpp:459] inception_4d/double_3x3_2 <- inception_4d/double_3x3_1_bn
I0217 13:06:05.866578  6798 net.cpp:415] inception_4d/double_3x3_2 -> inception_4d/double_3x3_2
I0217 13:06:05.866585  6798 net.cpp:160] Setting up inception_4d/double_3x3_2
    @     0x7fbed3add6e6  (unknown)
    @     0x7fbed3ae0687  (unknown)
    @     0x7fbed3f63c72  caffe::DataTransformer<>::Transform()
I0217 13:06:05.868849  6798 net.cpp:167] Top shape: 216 192 14 14 (8128512)
I0217 13:06:05.868860  6798 layer_factory.hpp:74] Creating layer inception_4d/double_3x3_2_bn
I0217 13:06:05.868866  6798 layer_factory.cpp:177] Layer inception_4d/double_3x3_2_bn is using CAFFE engine.
I0217 13:06:05.868875  6798 net.cpp:96] Creating Layer inception_4d/double_3x3_2_bn
I0217 13:06:05.868880  6798 net.cpp:459] inception_4d/double_3x3_2_bn <- inception_4d/double_3x3_2
I0217 13:06:05.868886  6798 net.cpp:415] inception_4d/double_3x3_2_bn -> inception_4d/double_3x3_2_bn
I0217 13:06:05.868894  6798 net.cpp:160] Setting up inception_4d/double_3x3_2_bn
I0217 13:06:05.868911  6798 net.cpp:167] Top shape: 216 192 14 14 (8128512)
I0217 13:06:05.868921  6798 layer_factory.hpp:74] Creating layer inception_4d/relu_double_3x3_2
I0217 13:06:05.868927  6798 net.cpp:96] Creating Layer inception_4d/relu_double_3x3_2
I0217 13:06:05.868932  6798 net.cpp:459] inception_4d/relu_double_3x3_2 <- inception_4d/double_3x3_2_bn
I0217 13:06:05.868937  6798 net.cpp:404] inception_4d/relu_double_3x3_2 -> inception_4d/double_3x3_2_bn (in-place)
I0217 13:06:05.868944  6798 net.cpp:160] Setting up inception_4d/relu_double_3x3_2
I0217 13:06:05.868950  6798 net.cpp:167] Top shape: 216 192 14 14 (8128512)
I0217 13:06:05.868954  6798 layer_factory.hpp:74] Creating layer inception_4d/pool
I0217 13:06:05.868963  6798 net.cpp:96] Creating Layer inception_4d/pool
I0217 13:06:05.868968  6798 net.cpp:459] inception_4d/pool <- inception_4c/output_inception_4c/output_0_split_3
I0217 13:06:05.868975  6798 net.cpp:415] inception_4d/pool -> inception_4d/pool
I0217 13:06:05.868983  6798 net.cpp:160] Setting up inception_4d/pool
I0217 13:06:05.868990  6798 net.cpp:167] Top shape: 216 608 14 14 (25740288)
I0217 13:06:05.868995  6798 layer_factory.hpp:74] Creating layer inception_4d/pool_proj
I0217 13:06:05.869004  6798 net.cpp:96] Creating Layer inception_4d/pool_proj
I0217 13:06:05.869009  6798 net.cpp:459] inception_4d/pool_proj <- inception_4d/pool
I0217 13:06:05.869015  6798 net.cpp:415] inception_4d/pool_proj -> inception_4d/pool_proj
I0217 13:06:05.869029  6798 net.cpp:160] Setting up inception_4d/pool_proj
    @     0x7fbed3f6625c  caffe::DataTransformer<>::Transform()
I0217 13:06:05.869572  6798 net.cpp:167] Top shape: 216 128 14 14 (5419008)
I0217 13:06:05.869585  6798 layer_factory.hpp:74] Creating layer inception_4d/pool_proj_bn
I0217 13:06:05.869590  6798 layer_factory.cpp:177] Layer inception_4d/pool_proj_bn is using CAFFE engine.
I0217 13:06:05.869597  6798 net.cpp:96] Creating Layer inception_4d/pool_proj_bn
I0217 13:06:05.869602  6798 net.cpp:459] inception_4d/pool_proj_bn <- inception_4d/pool_proj
I0217 13:06:05.869609  6798 net.cpp:415] inception_4d/pool_proj_bn -> inception_4d/pool_proj_bn
I0217 13:06:05.869617  6798 net.cpp:160] Setting up inception_4d/pool_proj_bn
I0217 13:06:05.869633  6798 net.cpp:167] Top shape: 216 128 14 14 (5419008)
I0217 13:06:05.869642  6798 layer_factory.hpp:74] Creating layer inception_4d/relu_pool_proj
I0217 13:06:05.869648  6798 net.cpp:96] Creating Layer inception_4d/relu_pool_proj
I0217 13:06:05.869653  6798 net.cpp:459] inception_4d/relu_pool_proj <- inception_4d/pool_proj_bn
I0217 13:06:05.869663  6798 net.cpp:404] inception_4d/relu_pool_proj -> inception_4d/pool_proj_bn (in-place)
I0217 13:06:05.869669  6798 net.cpp:160] Setting up inception_4d/relu_pool_proj
I0217 13:06:05.869675  6798 net.cpp:167] Top shape: 216 128 14 14 (5419008)
I0217 13:06:05.869680  6798 layer_factory.hpp:74] Creating layer inception_4d/output
I0217 13:06:05.869688  6798 net.cpp:96] Creating Layer inception_4d/output
I0217 13:06:05.869693  6798 net.cpp:459] inception_4d/output <- inception_4d/1x1_bn
I0217 13:06:05.869698  6798 net.cpp:459] inception_4d/output <- inception_4d/3x3_bn
I0217 13:06:05.869704  6798 net.cpp:459] inception_4d/output <- inception_4d/double_3x3_2_bn
I0217 13:06:05.869709  6798 net.cpp:459] inception_4d/output <- inception_4d/pool_proj_bn
I0217 13:06:05.869715  6798 net.cpp:415] inception_4d/output -> inception_4d/output
I0217 13:06:05.869721  6798 net.cpp:160] Setting up inception_4d/output
I0217 13:06:05.869729  6798 net.cpp:167] Top shape: 216 608 14 14 (25740288)
I0217 13:06:05.869735  6798 layer_factory.hpp:74] Creating layer inception_4d/output_inception_4d/output_0_split
I0217 13:06:05.869741  6798 net.cpp:96] Creating Layer inception_4d/output_inception_4d/output_0_split
I0217 13:06:05.869746  6798 net.cpp:459] inception_4d/output_inception_4d/output_0_split <- inception_4d/output
I0217 13:06:05.869752  6798 net.cpp:415] inception_4d/output_inception_4d/output_0_split -> inception_4d/output_inception_4d/output_0_split_0
I0217 13:06:05.869760  6798 net.cpp:415] inception_4d/output_inception_4d/output_0_split -> inception_4d/output_inception_4d/output_0_split_1
I0217 13:06:05.869767  6798 net.cpp:415] inception_4d/output_inception_4d/output_0_split -> inception_4d/output_inception_4d/output_0_split_2
I0217 13:06:05.869774  6798 net.cpp:160] Setting up inception_4d/output_inception_4d/output_0_split
I0217 13:06:05.869781  6798 net.cpp:167] Top shape: 216 608 14 14 (25740288)
I0217 13:06:05.869786  6798 net.cpp:167] Top shape: 216 608 14 14 (25740288)
I0217 13:06:05.869792  6798 net.cpp:167] Top shape: 216 608 14 14 (25740288)
I0217 13:06:05.869797  6798 layer_factory.hpp:74] Creating layer inception_4e/3x3_reduce
I0217 13:06:05.869807  6798 net.cpp:96] Creating Layer inception_4e/3x3_reduce
I0217 13:06:05.869812  6798 net.cpp:459] inception_4e/3x3_reduce <- inception_4d/output_inception_4d/output_0_split_0
I0217 13:06:05.869819  6798 net.cpp:415] inception_4e/3x3_reduce -> inception_4e/3x3_reduce
I0217 13:06:05.869827  6798 net.cpp:160] Setting up inception_4e/3x3_reduce
    @     0x7fbed3eb04ee  caffe::PiVideoDataLayer<>::InternalThreadEntry()
I0217 13:06:05.870380  6798 net.cpp:167] Top shape: 216 128 14 14 (5419008)
I0217 13:06:05.870393  6798 layer_factory.hpp:74] Creating layer inception_4e/3x3_reduce_bn
I0217 13:06:05.870398  6798 layer_factory.cpp:177] Layer inception_4e/3x3_reduce_bn is using CAFFE engine.
I0217 13:06:05.870406  6798 net.cpp:96] Creating Layer inception_4e/3x3_reduce_bn
I0217 13:06:05.870411  6798 net.cpp:459] inception_4e/3x3_reduce_bn <- inception_4e/3x3_reduce
I0217 13:06:05.870419  6798 net.cpp:415] inception_4e/3x3_reduce_bn -> inception_4e/3x3_reduce_bn
I0217 13:06:05.870432  6798 net.cpp:160] Setting up inception_4e/3x3_reduce_bn
I0217 13:06:05.870450  6798 net.cpp:167] Top shape: 216 128 14 14 (5419008)
I0217 13:06:05.870458  6798 layer_factory.hpp:74] Creating layer inception_4e/relu_3x3_reduce
I0217 13:06:05.870465  6798 net.cpp:96] Creating Layer inception_4e/relu_3x3_reduce
I0217 13:06:05.870471  6798 net.cpp:459] inception_4e/relu_3x3_reduce <- inception_4e/3x3_reduce_bn
I0217 13:06:05.870476  6798 net.cpp:404] inception_4e/relu_3x3_reduce -> inception_4e/3x3_reduce_bn (in-place)
I0217 13:06:05.870482  6798 net.cpp:160] Setting up inception_4e/relu_3x3_reduce
I0217 13:06:05.870488  6798 net.cpp:167] Top shape: 216 128 14 14 (5419008)
I0217 13:06:05.870493  6798 layer_factory.hpp:74] Creating layer inception_4e/3x3
I0217 13:06:05.870501  6798 net.cpp:96] Creating Layer inception_4e/3x3
I0217 13:06:05.870506  6798 net.cpp:459] inception_4e/3x3 <- inception_4e/3x3_reduce_bn
I0217 13:06:05.870514  6798 net.cpp:415] inception_4e/3x3 -> inception_4e/3x3
I0217 13:06:05.870522  6798 net.cpp:160] Setting up inception_4e/3x3
    @     0x7fbecb29aa4a  (unknown)
    @     0x7fbeca905184  start_thread
    @     0x7fbed2b6437d  (unknown)
I0217 13:06:05.872042  6798 net.cpp:167] Top shape: 216 192 7 7 (2032128)
I0217 13:06:05.872054  6798 layer_factory.hpp:74] Creating layer inception_4e/3x3_bn
I0217 13:06:05.872059  6798 layer_factory.cpp:177] Layer inception_4e/3x3_bn is using CAFFE engine.
I0217 13:06:05.872068  6798 net.cpp:96] Creating Layer inception_4e/3x3_bn
I0217 13:06:05.872073  6798 net.cpp:459] inception_4e/3x3_bn <- inception_4e/3x3
I0217 13:06:05.872081  6798 net.cpp:415] inception_4e/3x3_bn -> inception_4e/3x3_bn
I0217 13:06:05.872088  6798 net.cpp:160] Setting up inception_4e/3x3_bn
I0217 13:06:05.872105  6798 net.cpp:167] Top shape: 216 192 7 7 (2032128)
I0217 13:06:05.872114  6798 layer_factory.hpp:74] Creating layer inception_4e/relu_3x3
I0217 13:06:05.872120  6798 net.cpp:96] Creating Layer inception_4e/relu_3x3
I0217 13:06:05.872125  6798 net.cpp:459] inception_4e/relu_3x3 <- inception_4e/3x3_bn
I0217 13:06:05.872131  6798 net.cpp:404] inception_4e/relu_3x3 -> inception_4e/3x3_bn (in-place)
I0217 13:06:05.872138  6798 net.cpp:160] Setting up inception_4e/relu_3x3
I0217 13:06:05.872144  6798 net.cpp:167] Top shape: 216 192 7 7 (2032128)
I0217 13:06:05.872149  6798 layer_factory.hpp:74] Creating layer inception_4e/double_3x3_reduce
I0217 13:06:05.872156  6798 net.cpp:96] Creating Layer inception_4e/double_3x3_reduce
I0217 13:06:05.872164  6798 net.cpp:459] inception_4e/double_3x3_reduce <- inception_4d/output_inception_4d/output_0_split_1
I0217 13:06:05.872170  6798 net.cpp:415] inception_4e/double_3x3_reduce -> inception_4e/double_3x3_reduce
…
