…
    mean_value: 123
    mean_value: 104
    mean_value: 117
    mean_value: 123
    mean_value: 104
    mean_value: 117
    mean_value: 123
    fix_crop: true
    multi_scale: true
    scale_ratios: 1
    scale_ratios: 0.875
    scale_ratios: 0.75
    scale_ratios: 0.66
    max_distort: 1
    is_flow: false
    more_fix_crop: true
  }
  video_data_param {
    source: "/home/hadoop/whx/dataset/ucf101/train_rgb_split1.txt"
    batch_size: 24
    shuffle: true
    new_length: 1
    num_segments: 3
    modality: RGB
    name_pattern: "frame%06d.jpg"
  }
}
layer {
  name: "reshape_data"
  type: "Reshape"
  bottom: "data"
  top: "reshape_data"
  reshape_param {
    shape {
      dim: -1
      dim: 3
      dim: 224
      dim: 224
    }
  }
}
layer {
  name: "conv1/7x7_s2"
  type: "Convolution"
  bottom: "reshape_data"
  top: "conv1/7x7_s2"
  param {
    lr_mult: 1
    decay_mult: 1
  }
  param {
    lr_mult: 2
    decay_mult: 0
  }
  convolution_param {
    num_output: 64
    pad: 3
    kernel_size: 7
    stride: 2
    weight_filler {
      type: "xavier"
    }
    bias_filler {
      type: "constant"
      value: 0.2
    }
  }
}
layer {
  name: "conv1/7x7_s2_bn"
  type: "BN"
  bottom: "conv1/7x7_s2"
  top: "conv1/7x7_s2_bn"
  param {
    lr_mult: 1
    decay_mult: 0
  }
  param {
    lr_mult: 1
    decay_mult: 0
  }
  bn_param {
    slope_filler {
      type: "constant"
      value: 1
    }
    bias_filler {
      type: "constant"
      value: 0
    }
    frozen: false
  }
}
layer {
  name: "conv1/relu_7x7"
  type: "ReLU"
  bottom: "conv1/7x7_s2_bn"
  top: "conv1/7x7_s2_bn"
}
layer {
  name: "pool1/3x3_s2"
  type: "Pooling"
  bottom: "conv1/7x7_s2_bn"
  top: "pool1/3x3_s2"
  pooling_param {
    pool: MAX
    kernel_size: 3
    stride: 2
  }
}
layer {
  name: "conv2/3x3_reduce"
  type: "Convolution"
  bottom: "pool1/3x3_s2"
  top: "conv2/3x3_reduce"
  param {
    lr_mult: 1
    decay_mult: 1
  }
  param {
    lr_mult: 2
    decay_mult: 0
  }
  convolution_param {
    num_output: 64
    kernel_size: 1
    weight_filler {
      type: "xavier"
    }
    bias_filler {
      type: "constant"
      value: 0.2
    }
  }
}
layer {
  name: "conv2/3x3_reduce_bn"
  type: "BN"
  bottom: "conv2/3x3_reduce"
  top: "conv2/3x3_reduce_bn"
  param {
    lr_mult: 1
    decay_mult: 0
  }
  param {
    lr_mult: 1
    decay_mult: 0
  }
  bn_param {
    slope_filler {
      type: "constant"
      value: 1
    }
    bias_filler {
      type: "constant"
      value: 0
    }
    frozen: true
  }
}
layer {
  name: "conv2/relu_3x3_reduce"
  type: "ReLU"
  bottom: "conv2/3x3_reduce_bn"
  top: "conv2/3x3_reduce_bn"
}
layer {
  name: "conv2/3x3"
  type: "Convolution"
  bottom: "conv2/3x3_reduce_bn"
  top: "conv2/3x3"
  param {
    lr_mult: 1
    decay_mult: 1
  }
  param {
    lr_mult: 2
    decay_mult: 0
  }
  convolution_param {
    num_output: 192
    pad: 1
    kernel_size: 3
    weight_filler {
      type: "xavier"
    }
    bias_filler {
      type: "constant"
      value: 0.2
    }
  }
}
layer {
  name: "conv2/3x3_bn"
  type: "BN"
  bottom: "conv2/3x3"
  top: "conv2/3x3_bn"
  param {
    lr_mult: 1
    decay_mult: 0
  }
  param {
    lr_mult: 1
    decay_mult: 0
  }
  bn_param {
    slope_filler {
      type: "constant"
      value: 1
    }
    bias_filler {
      type: "constant"
      value: 0
    }
    frozen: true
  }
}
layer {
  name: "conv2/relu_3x3"
  type: "ReLU"
  bottom: "conv2/3x3_bn"
  top: "conv2/3x3_bn"
}
layer {
  name: "pool2/3x3_s2"
  type: "Pooling"
  bottom: "conv2/3x3_bn"
  top: "pool2/3x3_s2"
  pooling_param {
    pool: MAX
    kernel_size: 3
    stride: 2
  }
}
layer {
  name: "inception_3a/1x1"
  type: "Convolution"
  bottom: "pool2/3x3_s2"
  top: "inception_3a/1x1"
  param {
    lr_mult: 1
    decay_mult: 1
  }
  param {
    lr_mult: 2
    decay_mult: 0
  }
  convolution_param {
    num_output: 64
    kernel_size: 1
    weight_filler {
      type: "xavier"
    }
    bias_filler {
      type: "constant"
      value: 0.2
    }
  }
}
layer {
  name: "inception_3a/1x1_bn"
  type: "BN"
  bottom: "inception_3a/1x1"
  top: "inception_3a/1x1_bn"
  param {
    lr_mult: 1
    decay_mult: 0
  }
  param {
    lr_mult: 1
    decay_mult: 0
  }
  bn_param {
    slope_filler {
      type: "constant"
      value: 1
    }
    bias_filler {
      type: "constant"
      value: 0
    }
    frozen: true
  }
}
layer {
  name: "inception_3a/relu_1x1"
  type: "ReLU"
  bottom: "inception_3a/1x1_bn"
  top: "inception_3a/1x1_bn"
}
layer {
  name: "inception_3a/3x3_reduce"
  type: "Convolution"
  bottom: "pool2/3x3_s2"
  top: "inception_3a/3x3_reduce"
  param {
    lr_mult: 1
    decay_mult: 1
  }
  param {
    lr_mult: 2
    decay_mult: 0
  }
  convolution_param {
    num_output: 64
    kernel_size: 1
    weight_filler {
      type: "xavier"
    }
    bias_filler {
      type: "constant"
      value: 0.2
    }
  }
}
layer {
  name: "inception_3a/3x3_reduce_bn"
  type: "BN"
  bottom: "inception_3a/3x3_reduce"
  top: "inception_3a/3x3_reduce_bn"
  param {
    lr_mult: 1
    decay_mult: 0
  }
  param {
    lr_mult: 1
    decay_mult: 0
  }
  bn_param {
    slope_filler {
      type: "constant"
      value: 1
    }
    bias_filler {
      type: "constant"
      value: 0
    }
    frozen: true
  }
}
layer {
  name: "inception_3a/relu_3x3_reduce"
  type: "ReLU"
  bottom: "inception_3a/3x3_reduce_bn"
  top: "inception_3a/3x3_reduce_bn"
}
layer {
  name: "inception_3a/3x3"
  type: "Convolution"
  bottom: "inception_3a/3x3_reduce_bn"
  top: "inception_3a/3x3"
  param {
    lr_mult: 1
    decay_mult: 1
  }
  param {
    lr_mult: 2
    decay_mult: 0
  }
  convolution_param {
    num_output: 64
    pad: 1
    kernel_size: 3
    weight_filler {
      type: "xavier"
    }
    bias_filler {
      type: "constant"
      value: 0.2
    }
  }
}
layer {
  name: "inception_3a/3x3_bn"
  type: "BN"
  bottom: "inception_3a/3x3"
  top: "inception_3a/3x3_bn"
  param {
    lr_mult: 1
    decay_mult: 0
  }
  param {
    lr_mult: 1
    decay_mult: 0
  }
  bn_param {
    slope_filler {
      type: "constant"
      value: 1
    }
    bias_filler {
      type: "constant"
      value: 0
    }
    frozen: true
  }
}
layer {
  name: "inception_3a/relu_3x3"
  type: "ReLU"
  bottom: "inception_3a/3x3_bn"
  top: "inception_3a/3x3_bn"
}
layer {
  name: "inception_3a/double_3x3_reduce"
  type: "Convolution"
  bottom: "pool2/3x3_s2"
  top: "inception_3a/double_3x3_reduce"
  param {
    lr_mult: 1
    decay_mult: 1
  }
  param {
    lr_mult: 2
    decay_mult: 0
  }
  convolution_param {
    num_output: 64
    kernel_size: 1
    weight_filler {
      type: "xavier"
    }
    bias_filler {
      type: "constant"
      value: 0.2
    }
  }
}
layer {
  name: "inception_3a/double_3x3_reduce_bn"
  type: "BN"
  bottom: "inception_3a/double_3x3_reduce"
  top: "inception_3a/double_3x3_reduce_bn"
  param {
    lr_mult: 1
    decay_mult: 0
  }
  param {
    lr_mult: 1
    decay_mult: 0
  }
  bn_param {
    slope_filler {
      type: "constant"
      value: 1
    }
    bias_filler {
      type: "constant"
      value: 0
    }
    frozen: true
  }
}
layer {
  name: "inception_3a/relu_double_3x3_reduce"
  type: "ReLU"
  bottom: "inception_3a/double_3x3_reduce_bn"
  top: "inception_3a/double_3x3_reduce_bn"
}
layer {
  name: "inception_3a/double_3x3_1"
  type: "Convolution"
  bottom: "inception_3a/double_3x3_reduce_bn"
  top: "inception_3a/double_3x3_1"
  param {
    lr_mult: 1
    decay_mult: 1
  }
  param {
    lr_mult: 2
    decay_mult: 0
  }
  convolution_param {
    num_output: 96
    pad: 1
    kernel_size: 3
    weight_filler {
      type: "xavier"
    }
    bias_filler {
      type: "constant"
      value: 0.2
    }
  }
}
layer {
  name: "inception_3a/double_3x3_1_bn"
  type: "BN"
  bottom: "inception_3a/double_3x3_1"
  top: "inception_3a/double_3x3_1_bn"
  param {
    lr_mult: 1
    decay_mult: 0
  }
  param {
    lr_mult: 1
    decay_mult: 0
  }
  bn_param {
    slope_filler {
      type: "constant"
      value: 1
    }
    bias_filler {
      type: "constant"
      value: 0
    }
    frozen: true
  }
}
layer {
  name: "inception_3a/relu_double_3x3_1"
  type: "ReLU"
  bottom: "inception_3a/double_3x3_1_bn"
  top: "inception_3a/double_3x3_1_bn"
}
layer {
  name: "inception_3a/double_3x3_2"
  type: "Convolution"
  bottom: "inception_3a/double_3x3_1_bn"
  top: "inception_3a/double_3x3_2"
  param {
    lr_mult: 1
    decay_mult: 1
  }
  param {
    lr_mult: 2
    decay_mult: 0
  }
  convolution_param {
    num_output: 96
    pad: 1
    kernel_size: 3
    weight_filler {
      type: "xavier"
    }
    bias_filler {
      type: "constant"
      value: 0.2
    }
  }
}
layer {
  name: "inception_3a/double_3x3_2_bn"
  type: "BN"
  bottom: "inception_3a/double_3x3_2"
  top: "inception_3a/double_3x3_2_bn"
  param {
    lr_mult: 1
    decay_mult: 0
  }
  param {
    lr_mult: 1
    decay_mult: 0
  }
  bn_param {
    slope_filler {
      type: "constant"
      value: 1
    }
    bias_filler {
      type: "constant"
      value: 0
    }
    frozen: true
  }
}
layer {
  name: "inception_3a/relu_double_3x3_2"
  type: "ReLU"
  bottom: "inception_3a/double_3x3_2_bn"
  top: "inception_3a/double_3x3_2_bn"
}
layer {
  name: "inception_3a/pool"
  type: "Pooling"
  bottom: "pool2/3x3_s2"
  top: "inception_3a/pool"
  pooling_param {
    pool: AVE
    kernel_size: 3
    stride: 1
    pad: 1
  }
}
layer {
  name: "inception_3a/pool_proj"
  type: "Convolution"
  bottom: "inception_3a/pool"
  top: "inception_3a/pool_proj"
  param {
    lr_mult: 1
    decay_mult: 1
  }
  param {
    lr_mult: 2
    decay_mult: 0
  }
  convolution_param {
    num_output: 32
    kernel_size: 1
    weight_filler {
      type: "xavier"
    }
    bias_filler {
      type: "constant"
      value: 0.2
    }
  }
}
layer {
  name: "inception_3a/pool_proj_bn"
  type: "BN"
  bottom: "inception_3a/pool_proj"
  top: "inception_3a/pool_proj_bn"
  param {
    lr_mult: 1
    decay_mult: 0
  }
  param {
    lr_mult: 1
    decay_mult: 0
  }
  bn_param {
    slope_filler {
      type: "constant"
      value: 1
    }
    bias_filler {
      type: "constant"
      value: 0
    }
    frozen: true
  }
}
layer {
  name: "inception_3a/relu_pool_proj"
  type: "ReLU"
  bottom: "inception_3a/pool_proj_bn"
  top: "inception_3a/pool_proj_bn"
}
layer {
  name: "inception_3a/output"
  type: "Concat"
  bottom: "inception_3a/1x1_bn"
  bottom: "inception_3a/3x3_bn"
  bottom: "inception_3a/double_3x3_2_bn"
  bottom: "inception_3a/pool_proj_bn"
  top: "inception_3a/output"
}
layer {
  name: "inception_3b/1x1"
  type: "Convolution"
  bottom: "inception_3a/output"
  top: "inception_3b/1x1"
  param {
    lr_mult: 1
    decay_mult: 1
  }
  param {
    lr_mult: 2
    decay_mult: 0
  }
  convolution_param {
    num_output: 64
    kernel_size: 1
    weight_filler {
      type: "xavier"
    }
    bias_filler {
      type: "constant"
      value: 0.2
    }
  }
}
layer {
  name: "inception_3b/1x1_bn"
  type: "BN"
  bottom: "inception_3b/1x1"
  top: "inception_3b/1x1_bn"
  param {
    lr_mult: 1
    decay_mult: 0
  }
  param {
    lr_mult: 1
    decay_mult: 0
  }
  bn_param {
    slope_filler {
      type: "constant"
      value: 1
    }
    bias_filler {
      type: "constant"
      value: 0
    }
    frozen: true
  }
}
layer {
  name: "inception_3b/relu_1x1"
  type: "ReLU"
  bottom: "inception_3b/1x1_bn"
  top: "inception_3b/1x1_bn"
}
layer {
  name: "inception_3b/3x3_reduce"
  type: "Convolution"
  bottom: "inception_3a/output"
  top: "inception_3b/3x3_reduce"
  param {
    lr_mult: 1
    decay_mult: 1
  }
  param {
    lr_mult: 2
    decay_mult: 0
  }
  convolution_param {
    num_output: 64
    kernel_size: 1
    weight_filler {
      type: "xavier"
    }
    bias_filler {
      type: "constant"
      value: 0.2
    }
  }
}
layer {
  name: "inception_3b/3x3_reduce_bn"
  type: "BN"
  bottom: "inception_3b/3x3_reduce"
  top: "inception_3b/3x3_reduce_bn"
  param {
    lr_mult: 1
    decay_mult: 0
  }
  param {
    lr_mult: 1
    decay_mult: 0
  }
  bn_param {
    slope_filler {
      type: "constant"
      value: 1
    }
    bias_filler {
      type: "constant"
      value: 0
    }
    frozen: true
  }
}
layer {
  name: "inception_3b/relu_3x3_reduce"
  type: "ReLU"
  bottom: "inception_3b/3x3_reduce_bn"
  top: "inception_3b/3x3_reduce_bn"
}
layer {
  name: "inception_3b/3x3"
  type: "Convolution"
  bottom: "inception_3b/3x3_reduce_bn"
  top: "inception_3b/3x3"
  param {
    lr_mult: 1
    decay_mult: 1
  }
  param {
    lr_mult: 2
    decay_mult: 0
  }
  convolution_param {
    num_output: 96
    pad: 1
    kernel_size: 3
    weight_filler {
      type: "xavier"
    }
    bias_filler {
      type: "constant"
      value: 0.2
    }
  }
}
layer {
  name: "inception_3b/3x3_bn"
  type: "BN"
  bottom: "inception_3b/3x3"
  top: "inception_3b/3x3_bn"
  param {
    lr_mult: 1
    decay_mult: 0
  }
  param {
    lr_mult: 1
    decay_mult: 0
  }
  bn_param {
    slope_filler {
      type: "constant"
      value: 1
    }
    bias_filler {
      type: "constant"
      value: 0
    }
    frozen: true
  }
}
layer {
  name: "inception_3b/relu_3x3"
  type: "ReLU"
  bottom: "inception_3b/3x3_bn"
  top: "inception_3b/3x3_bn"
}
layer {
  name: "inception_3b/double_3x3_reduce"
  type: "Convolution"
  bottom: "inception_3a/output"
  top: "inception_3b/double_3x3_reduce"
  param {
    lr_mult: 1
    decay_mult: 1
  }
  param {
    lr_mult: 2
    decay_mult: 0
  }
  convolution_param {
    num_output: 64
    kernel_size: 1
    weight_filler {
      type: "xavier"
    }
    bias_filler {
      type: "constant"
      value: 0.2
    }
  }
}
layer {
  name: "inception_3b/double_3x3_reduce_bn"
  type: "BN"
  bottom: "inception_3b/double_3x3_reduce"
  top: "inception_3b/double_3x3_reduce_bn"
  param {
    lr_mult: 1
    decay_mult: 0
  }
  param {
    lr_mult: 1
    decay_mult: 0
  }
  bn_param {
    slope_filler {
      type: "constant"
      value: 1
    }
    bias_filler {
      type: "constant"
      value: 0
    }
    frozen: true
  }
}
layer {
  name: "inception_3b/relu_double_3x3_reduce"
  type: "ReLU"
  bottom: "inception_3b/double_3x3_reduce_bn"
  top: "inception_3b/double_3x3_reduce_bn"
}
layer {
  name: "inception_3b/double_3x3_1"
  type: "Convolution"
  bottom: "inception_3b/double_3x3_reduce_bn"
  top: "inception_3b/double_3x3_1"
  param {
    lr_mult: 1
    decay_mult: 1
  }
  param {
    lr_mult: 2
    decay_mult: 0
  }
  convolution_param {
    num_output: 96
    pad: 1
    kernel_size: 3
    weight_filler {
      type: "xavier"
    }
    bias_filler {
      type: "constant"
      value: 0.2
    }
  }
}
layer {
  name: "inception_3b/double_3x3_1_bn"
  type: "BN"
  bottom: "inception_3b/double_3x3_1"
  top: "inception_3b/double_3x3_1_bn"
  param {
    lr_mult: 1
    decay_mult: 0
  }
  param {
    lr_mult: 1
    decay_mult: 0
  }
  bn_param {
    slope_filler {
      type: "constant"
      value: 1
    }
    bias_filler {
      type: "constant"
      value: 0
    }
    frozen: true
  }
}
layer {
  name: "inception_3b/relu_double_3x3_1"
  type: "ReLU"
  bottom: "inception_3b/double_3x3_1_bn"
  top: "inception_3b/double_3x3_1_bn"
}
layer {
  name: "inception_3b/double_3x3_2"
  type: "Convolution"
  bottom: "inception_3b/double_3x3_1_bn"
  top: "inception_3b/double_3x3_2"
  param {
    lr_mult: 1
    decay_mult: 1
  }
  param {
    lr_mult: 2
    decay_mult: 0
  }
  convolution_param {
    num_output: 96
    pad: 1
    kernel_size: 3
    weight_filler {
      type: "xavier"
    }
    bias_filler {
      type: "constant"
      value: 0.2
    }
  }
}
layer {
  name: "inception_3b/double_3x3_2_bn"
  type: "BN"
  bottom: "inception_3b/double_3x3_2"
  top: "inception_3b/double_3x3_2_bn"
  param {
    lr_mult: 1
    decay_mult: 0
  }
  param {
    lr_mult: 1
    decay_mult: 0
  }
  bn_param {
    slope_filler {
      type: "constant"
      value: 1
    }
    bias_filler {
      type: "constant"
      value: 0
    }
    frozen: true
  }
}
layer {
  name: "inception_3b/relu_double_3x3_2"
  type: "ReLU"
  bottom: "inception_3b/double_3x3_2_bn"
  top: "inception_3b/double_3x3_2_bn"
}
layer {
  name: "inception_3b/pool"
  type: "Pooling"
  bottom: "inception_3a/output"
  top: "inception_3b/pool"
  pooling_param {
    pool: AVE
    kernel_size: 3
    stride: 1
    pad: 1
  }
}
layer {
  name: "inception_3b/pool_proj"
  type: "Convolution"
  bottom: "inception_3b/pool"
  top: "inception_3b/pool_proj"
  param {
    lr_mult: 1
    decay_mult: 1
  }
  param {
    lr_mult: 2
    decay_mult: 0
  }
  convolution_param {
    num_output: 64
    kernel_size: 1
    weight_filler {
      type: "xavier"
    }
    bias_filler {
      type: "constant"
      value: 0.2
    }
  }
}
layer {
  name: "inception_3b/pool_proj_bn"
  type: "BN"
  bottom: "inception_3b/pool_proj"
  top: "inception_3b/pool_proj_bn"
  param {
    lr_mult: 1
    decay_mult: 0
  }
  param {
    lr_mult: 1
    decay_mult: 0
  }
  bn_param {
    slope_filler {
      type: "constant"
      value: 1
    }
    bias_filler {
      type: "constant"
      value: 0
    }
    frozen: true
  }
}
layer {
  name: "inception_3b/relu_pool_proj"
  type: "ReLU"
  bottom: "inception_3b/pool_proj_bn"
  top: "inception_3b/pool_proj_bn"
}
layer {
  name: "inception_3b/output"
  type: "Concat"
  bottom: "inception_3b/1x1_bn"
  bottom: "inception_3b/3x3_bn"
  bottom: "inception_3b/double_3x3_2_bn"
  bottom: "inception_3b/pool_proj_bn"
  top: "inception_3b/output"
}
layer {
  name: "inception_3c/3x3_reduce"
  type: "Convolution"
  bottom: "inception_3b/output"
  top: "inception_3c/3x3_reduce"
  param {
    lr_mult: 1
    decay_mult: 1
  }
  param {
    lr_mult: 2
    decay_mult: 0
  }
  convolution_param {
    num_output: 128
    kernel_size: 1
    weight_filler {
      type: "xavier"
    }
    bias_filler {
      type: "constant"
      value: 0.2
    }
  }
}
layer {
  name: "inception_3c/3x3_reduce_bn"
  type: "BN"
  bottom: "inception_3c/3x3_reduce"
  top: "inception_3c/3x3_reduce_bn"
  param {
    lr_mult: 1
    decay_mult: 0
  }
  param {
    lr_mult: 1
    decay_mult: 0
  }
  bn_param {
    slope_filler {
      type: "constant"
      value: 1
    }
    bias_filler {
      type: "constant"
      value: 0
    }
    frozen: true
  }
}
layer {
  name: "inception_3c/relu_3x3_reduce"
  type: "ReLU"
  bottom: "inception_3c/3x3_reduce_bn"
  top: "inception_3c/3x3_reduce_bn"
}
layer {
  name: "inception_3c/3x3"
  type: "Convolution"
  bottom: "inception_3c/3x3_reduce_bn"
  top: "inception_3c/3x3"
  param {
    lr_mult: 1
    decay_mult: 1
  }
  param {
    lr_mult: 2
    decay_mult: 0
  }
  convolution_param {
    num_output: 160
    pad: 1
    kernel_size: 3
    stride: 2
    weight_filler {
      type: "xavier"
    }
    bias_filler {
      type: "constant"
      value: 0.2
    }
  }
}
layer {
  name: "inception_3c/3x3_bn"
  type: "BN"
  bottom: "inception_3c/3x3"
  top: "inception_3c/3x3_bn"
  param {
    lr_mult: 1
    decay_mult: 0
  }
  param {
    lr_mult: 1
    decay_mult: 0
  }
  bn_param {
    slope_filler {
      type: "constant"
      value: 1
    }
    bias_filler {
      type: "constant"
      value: 0
    }
    frozen: true
  }
}
layer {
  name: "inception_3c/relu_3x3"
  type: "ReLU"
  bottom: "inception_3c/3x3_bn"
  top: "inception_3c/3x3_bn"
}
layer {
  name: "inception_3c/double_3x3_reduce"
  type: "Convolution"
  bottom: "inception_3b/output"
  top: "inception_3c/double_3x3_reduce"
  param {
    lr_mult: 1
    decay_mult: 1
  }
  param {
    lr_mult: 2
    decay_mult: 0
  }
  convolution_param {
    num_output: 64
    kernel_size: 1
    weight_filler {
      type: "xavier"
    }
    bias_filler {
      type: "constant"
      value: 0.2
    }
  }
}
layer {
  name: "inception_3c/double_3x3_reduce_bn"
  type: "BN"
  bottom: "inception_3c/double_3x3_reduce"
  top: "inception_3c/double_3x3_reduce_bn"
  param {
    lr_mult: 1
    decay_mult: 0
  }
  param {
    lr_mult: 1
    decay_mult: 0
  }
  bn_param {
    slope_filler {
      type: "constant"
      value: 1
    }
    bias_filler {
      type: "constant"
      value: 0
    }
    frozen: true
  }
}
layer {
  name: "inception_3c/relu_double_3x3_reduce"
  type: "ReLU"
  bottom: "inception_3c/double_3x3_reduce_bn"
  top: "inception_3c/double_3x3_reduce_bn"
}
layer {
  name: "inception_3c/double_3x3_1"
  type: "Convolution"
  bottom: "inception_3c/double_3x3_reduce_bn"
  top: "inception_3c/double_3x3_1"
  param {
    lr_mult: 1
    decay_mult: 1
  }
  param {
    lr_mult: 2
    decay_mult: 0
  }
  convolution_param {
    num_output: 96
    pad: 1
    kernel_size: 3
    weight_filler {
      type: "xavier"
    }
    bias_filler {
      type: "constant"
      value: 0.2
    }
  }
}
layer {
  name: "inception_3c/double_3x3_1_bn"
  type: "BN"
  bottom: "inception_3c/double_3x3_1"
  top: "inception_3c/double_3x3_1_bn"
  param {
    lr_mult: 1
    decay_mult: 0
  }
  param {
    lr_mult: 1
    decay_mult: 0
  }
  bn_param {
    slope_filler {
      type: "constant"
      value: 1
    }
    bias_filler {
      type: "constant"
      value: 0
    }
    frozen: true
  }
}
layer {
  name: "inception_3c/relu_double_3x3_1"
  type: "ReLU"
  bottom: "inception_3c/double_3x3_1_bn"
  top: "inception_3c/double_3x3_1_bn"
}
layer {
  name: "inception_3c/double_3x3_2"
  type: "Convolution"
  bottom: "inception_3c/double_3x3_1_bn"
  top: "inception_3c/double_3x3_2"
  param {
    lr_mult: 1
    decay_mult: 1
  }
  param {
    lr_mult: 2
    decay_mult: 0
  }
  convolution_param {
    num_output: 96
    pad: 1
    kernel_size: 3
    stride: 2
    weight_filler {
      type: "xavier"
    }
    bias_filler {
      type: "constant"
      value: 0.2
    }
  }
}
layer {
  name: "inception_3c/double_3x3_2_bn"
  type: "BN"
  bottom: "inception_3c/double_3x3_2"
  top: "inception_3c/double_3x3_2_bn"
  param {
    lr_mult: 1
    decay_mult: 0
  }
  param {
    lr_mult: 1
    decay_mult: 0
  }
  bn_param {
    slope_filler {
      type: "constant"
      value: 1
    }
    bias_filler {
      type: "constant"
      value: 0
    }
    frozen: true
  }
}
layer {
  name: "inception_3c/relu_double_3x3_2"
  type: "ReLU"
  bottom: "inception_3c/double_3x3_2_bn"
  top: "inception_3c/double_3x3_2_bn"
}
layer {
  name: "inception_3c/pool"
  type: "Pooling"
  bottom: "inception_3b/output"
  top: "inception_3c/pool"
  pooling_param {
    pool: MAX
    kernel_size: 3
    stride: 2
  }
}
layer {
  name: "inception_3c/output"
  type: "Concat"
  bottom: "inception_3c/3x3_bn"
  bottom: "inception_3c/double_3x3_2_bn"
  bottom: "inception_3c/pool"
  top: "inception_3c/output"
}
layer {
  name: "inception_4a/1x1"
  type: "Convolution"
  bottom: "inception_3c/output"
  top: "inception_4a/1x1"
  param {
    lr_mult: 1
    decay_mult: 1
  }
  param {
    lr_mult: 2
    decay_mult: 0
  }
  convolution_param {
    num_output: 224
    kernel_size: 1
    weight_filler {
      type: "xavier"
    }
    bias_filler {
      type: "constant"
      value: 0.2
    }
  }
}
layer {
  name: "inception_4a/1x1_bn"
  type: "BN"
  bottom: "inception_4a/1x1"
  top: "inception_4a/1x1_bn"
  param {
    lr_mult: 1
    decay_mult: 0
  }
  param {
    lr_mult: 1
    decay_mult: 0
  }
  bn_param {
    slope_filler {
      type: "constant"
      value: 1
    }
    bias_filler {
      type: "constant"
      value: 0
    }
    frozen: true
  }
}
layer {
  name: "inception_4a/relu_1x1"
  type: "ReLU"
  bottom: "inception_4a/1x1_bn"
  top: "inception_4a/1x1_bn"
}
layer {
  name: "inception_4a/3x3_reduce"
  type: "Convolution"
  bottom: "inception_3c/output"
  top: "inception_4a/3x3_reduce"
  param {
    lr_mult: 1
    decay_mult: 1
  }
  param {
    lr_mult: 2
    decay_mult: 0
  }
  convolution_param {
    num_output: 64
    kernel_size: 1
    weight_filler {
      type: "xavier"
    }
    bias_filler {
      type: "constant"
      value: 0.2
    }
  }
}
layer {
  name: "inception_4a/3x3_reduce_bn"
  type: "BN"
  bottom: "inception_4a/3x3_reduce"
  top: "inception_4a/3x3_reduce_bn"
  param {
    lr_mult: 1
    decay_mult: 0
  }
  param {
    lr_mult: 1
    decay_mult: 0
  }
  bn_param {
    slope_filler {
      type: "constant"
      value: 1
    }
    bias_filler {
      type: "constant"
      value: 0
    }
    frozen: true
  }
}
layer {
  name: "inception_4a/relu_3x3_reduce"
  type: "ReLU"
  bottom: "inception_4a/3x3_reduce_bn"
  top: "inception_4a/3x3_reduce_bn"
}
layer {
  name: "inception_4a/3x3"
  type: "Convolution"
  bottom: "inception_4a/3x3_reduce_bn"
  top: "inception_4a/3x3"
  param {
    lr_mult: 1
    decay_mult: 1
  }
  param {
    lr_mult: 2
    decay_mult: 0
  }
  convolution_param {
    num_output: 96
    pad: 1
    kernel_size: 3
    weight_filler {
      type: "xavier"
    }
    bias_filler {
      type: "constant"
      value: 0.2
    }
  }
}
layer {
  name: "inception_4a/3x3_bn"
  type: "BN"
  bottom: "inception_4a/3x3"
  top: "inception_4a/3x3_bn"
  param {
    lr_mult: 1
    decay_mult: 0
  }
  param {
    lr_mult: 1
    decay_mult: 0
  }
  bn_param {
    slope_filler {
      type: "constant"
      value: 1
    }
    bias_filler {
      type: "constant"
      value: 0
    }
    frozen: true
  }
}
layer {
  name: "inception_4a/relu_3x3"
  type: "ReLU"
  bottom: "inception_4a/3x3_bn"
  top: "inception_4a/3x3_bn"
}
layer {
  name: "inception_4a/double_3x3_reduce"
  type: "Convolution"
  bottom: "inception_3c/output"
  top: "inception_4a/double_3x3_reduce"
  param {
    lr_mult: 1
    decay_mult: 1
  }
  param {
    lr_mult: 2
    decay_mult: 0
  }
  convolution_param {
    num_output: 96
    kernel_size: 1
    weight_filler {
      type: "xavier"
    }
    bias_filler {
      type: "constant"
      value: 0.2
    }
  }
}
layer {
  name: "inception_4a/double_3x3_reduce_bn"
  type: "BN"
  bottom: "inception_4a/double_3x3_reduce"
  top: "inception_4a/double_3x3_reduce_bn"
  param {
    lr_mult: 1
    decay_mult: 0
  }
  param {
    lr_mult: 1
    decay_mult: 0
  }
  bn_param {
    slope_filler {
      type: "constant"
      value: 1
    }
    bias_filler {
      type: "constant"
      value: 0
    }
    frozen: true
  }
}
layer {
  name: "inception_4a/relu_double_3x3_reduce"
  type: "ReLU"
  bottom: "inception_4a/double_3x3_reduce_bn"
  top: "inception_4a/double_3x3_reduce_bn"
}
layer {
  name: "inception_4a/double_3x3_1"
  type: "Convolution"
  bottom: "inception_4a/double_3x3_reduce_bn"
  top: "inception_4a/double_3x3_1"
  param {
    lr_mult: 1
    decay_mult: 1
  }
  param {
    lr_mult: 2
    decay_mult: 0
  }
  convolution_param {
    num_output: 128
    pad: 1
    kernel_size: 3
    weight_filler {
      type: "xavier"
    }
    bias_filler {
      type: "constant"
      value: 0.2
    }
  }
}
layer {
  name: "inception_4a/double_3x3_1_bn"
  type: "BN"
  bottom: "inception_4a/double_3x3_1"
  top: "inception_4a/double_3x3_1_bn"
  param {
    lr_mult: 1
    decay_mult: 0
  }
  param {
    lr_mult: 1
    decay_mult: 0
  }
  bn_param {
    slope_filler {
      type: "constant"
      value: 1
    }
    bias_filler {
      type: "constant"
      value: 0
    }
    frozen: true
  }
}
layer {
  name: "inception_4a/relu_double_3x3_1"
  type: "ReLU"
  bottom: "inception_4a/double_3x3_1_bn"
  top: "inception_4a/double_3x3_1_bn"
}
layer {
  name: "inception_4a/double_3x3_2"
  type: "Convolution"
  bottom: "inception_4a/double_3x3_1_bn"
  top: "inception_4a/double_3x3_2"
  param {
    lr_mult: 1
    decay_mult: 1
  }
  param {
    lr_mult: 2
    decay_mult: 0
  }
  convolution_param {
    num_output: 128
    pad: 1
    kernel_size: 3
    weight_filler {
      type: "xavier"
    }
    bias_filler {
      type: "constant"
      value: 0.2
    }
  }
}
layer {
  name: "inception_4a/double_3x3_2_bn"
  type: "BN"
  bottom: "inception_4a/double_3x3_2"
  top: "inception_4a/double_3x3_2_bn"
  param {
    lr_mult: 1
    decay_mult: 0
  }
  param {
    lr_mult: 1
    decay_mult: 0
  }
  bn_param {
    slope_filler {
      type: "constant"
      value: 1
    }
    bias_filler {
      type: "constant"
      value: 0
    }
    frozen: true
  }
}
layer {
  name: "inception_4a/relu_double_3x3_2"
  type: "ReLU"
  bottom: "inception_4a/double_3x3_2_bn"
  top: "inception_4a/double_3x3_2_bn"
}
layer {
  name: "inception_4a/pool"
  type: "Pooling"
  bottom: "inception_3c/output"
  top: "inception_4a/pool"
  pooling_param {
    pool: AVE
    kernel_size: 3
    stride: 1
    pad: 1
  }
}
layer {
  name: "inception_4a/pool_proj"
  type: "Convolution"
  bottom: "inception_4a/pool"
  top: "inception_4a/pool_proj"
  param {
    lr_mult: 1
    decay_mult: 1
  }
  param {
    lr_mult: 2
    decay_mult: 0
  }
  convolution_param {
    num_output: 128
    kernel_size: 1
    weight_filler {
      type: "xavier"
    }
    bias_filler {
      type: "constant"
      value: 0.2
    }
  }
}
layer {
  name: "inception_4a/pool_proj_bn"
  type: "BN"
  bottom: "inception_4a/pool_proj"
  top: "inception_4a/pool_proj_bn"
  param {
    lr_mult: 1
    decay_mult: 0
  }
  param {
    lr_mult: 1
    decay_mult: 0
  }
  bn_param {
    slope_filler {
      type: "constant"
      value: 1
    }
    bias_filler {
      type: "constant"
      value: 0
    }
    frozen: true
  }
}
layer {
  name: "inception_4a/relu_pool_proj"
  type: "ReLU"
  bottom: "inception_4a/pool_proj_bn"
  top: "inception_4a/pool_proj_bn"
}
layer {
  name: "inception_4a/output"
  type: "Concat"
  bottom: "inception_4a/1x1_bn"
  bottom: "inception_4a/3x3_bn"
  bottom: "inception_4a/double_3x3_2_bn"
  bottom: "inception_4a/pool_proj_bn"
  top: "inception_4a/output"
}
layer {
  name: "inception_4b/1x1"
  type: "Convolution"
  bottom: "inception_4a/output"
  top: "inception_4b/1x1"
  param {
    lr_mult: 1
    decay_mult: 1
  }
  param {
    lr_mult: 2
    decay_mul
I0105 10:52:03.733896 13351 layer_factory.hpp:74] Creating layer data
I0105 10:52:03.733913 13351 net.cpp:96] Creating Layer data
I0105 10:52:03.733918 13351 net.cpp:415] data -> data
I0105 10:52:03.733935 13351 net.cpp:415] data -> label
I0105 10:52:03.733943 13351 net.cpp:160] Setting up data
I0105 10:52:03.734241 13351 video_data_layer.cpp:34] Opening file: /home/hadoop/whx/dataset/ucf101/train_rgb_split1.txt
I0105 10:52:03.738438 13351 video_data_layer.cpp:50] A total of 9537 videos.
I0105 10:52:03.755815 13351 video_data_layer.cpp:89] output data size: 24,9,224,224
I0105 10:52:03.829535 13351 net.cpp:167] Top shape: 24 9 224 224 (10838016)
I0105 10:52:03.829562 13351 net.cpp:167] Top shape: 24 1 1 1 (24)
I0105 10:52:03.829571 13351 layer_factory.hpp:74] Creating layer reshape_data
I0105 10:52:03.829586 13351 net.cpp:96] Creating Layer reshape_data
I0105 10:52:03.829591 13351 net.cpp:459] reshape_data <- data
I0105 10:52:03.829601 13351 net.cpp:415] reshape_data -> reshape_data
I0105 10:52:03.829614 13351 net.cpp:160] Setting up reshape_data
I0105 10:52:03.829624 13351 net.cpp:167] Top shape: 72 3 224 224 (10838016)
I0105 10:52:03.829629 13351 layer_factory.hpp:74] Creating layer conv1/7x7_s2
I0105 10:52:03.829638 13351 net.cpp:96] Creating Layer conv1/7x7_s2
I0105 10:52:03.829641 13351 net.cpp:459] conv1/7x7_s2 <- reshape_data
I0105 10:52:03.829646 13351 net.cpp:415] conv1/7x7_s2 -> conv1/7x7_s2
I0105 10:52:03.829654 13351 net.cpp:160] Setting up conv1/7x7_s2
I0105 10:52:03.829718 13351 net.cpp:167] Top shape: 72 64 112 112 (57802752)
I0105 10:52:03.829727 13351 layer_factory.hpp:74] Creating layer conv1/7x7_s2_bn
I0105 10:52:03.829743 13351 layer_factory.cpp:177] Layer conv1/7x7_s2_bn is using CAFFE engine.
I0105 10:52:03.829749 13351 net.cpp:96] Creating Layer conv1/7x7_s2_bn
I0105 10:52:03.829753 13351 net.cpp:459] conv1/7x7_s2_bn <- conv1/7x7_s2
I0105 10:52:03.829758 13351 net.cpp:415] conv1/7x7_s2_bn -> conv1/7x7_s2_bn
I0105 10:52:03.829764 13351 net.cpp:160] Setting up conv1/7x7_s2_bn
I0105 10:52:03.829782 13351 net.cpp:167] Top shape: 72 64 112 112 (57802752)
I0105 10:52:03.829790 13351 layer_factory.hpp:74] Creating layer conv1/relu_7x7
I0105 10:52:03.829797 13351 net.cpp:96] Creating Layer conv1/relu_7x7
I0105 10:52:03.829800 13351 net.cpp:459] conv1/relu_7x7 <- conv1/7x7_s2_bn
I0105 10:52:03.829804 13351 net.cpp:404] conv1/relu_7x7 -> conv1/7x7_s2_bn (in-place)
I0105 10:52:03.829808 13351 net.cpp:160] Setting up conv1/relu_7x7
I0105 10:52:03.829813 13351 net.cpp:167] Top shape: 72 64 112 112 (57802752)
I0105 10:52:03.829816 13351 layer_factory.hpp:74] Creating layer pool1/3x3_s2
I0105 10:52:03.829821 13351 net.cpp:96] Creating Layer pool1/3x3_s2
I0105 10:52:03.829824 13351 net.cpp:459] pool1/3x3_s2 <- conv1/7x7_s2_bn
I0105 10:52:03.829828 13351 net.cpp:415] pool1/3x3_s2 -> pool1/3x3_s2
I0105 10:52:03.829846 13351 net.cpp:160] Setting up pool1/3x3_s2
I0105 10:52:03.829864 13351 net.cpp:167] Top shape: 72 64 56 56 (14450688)
I0105 10:52:03.829869 13351 layer_factory.hpp:74] Creating layer conv2/3x3_reduce
I0105 10:52:03.829877 13351 net.cpp:96] Creating Layer conv2/3x3_reduce
I0105 10:52:03.829881 13351 net.cpp:459] conv2/3x3_reduce <- pool1/3x3_s2
I0105 10:52:03.829887 13351 net.cpp:415] conv2/3x3_reduce -> conv2/3x3_reduce
I0105 10:52:03.829895 13351 net.cpp:160] Setting up conv2/3x3_reduce
I0105 10:52:03.829934 13351 net.cpp:167] Top shape: 72 64 56 56 (14450688)
I0105 10:52:03.829942 13351 layer_factory.hpp:74] Creating layer conv2/3x3_reduce_bn
I0105 10:52:03.829947 13351 layer_factory.cpp:177] Layer conv2/3x3_reduce_bn is using CAFFE engine.
I0105 10:52:03.829954 13351 net.cpp:96] Creating Layer conv2/3x3_reduce_bn
I0105 10:52:03.829958 13351 net.cpp:459] conv2/3x3_reduce_bn <- conv2/3x3_reduce
I0105 10:52:03.829964 13351 net.cpp:415] conv2/3x3_reduce_bn -> conv2/3x3_reduce_bn
I0105 10:52:03.829972 13351 net.cpp:160] Setting up conv2/3x3_reduce_bn
I0105 10:52:03.829988 13351 net.cpp:167] Top shape: 72 64 56 56 (14450688)
I0105 10:52:03.829998 13351 layer_factory.hpp:74] Creating layer conv2/relu_3x3_reduce
I0105 10:52:03.830004 13351 net.cpp:96] Creating Layer conv2/relu_3x3_reduce
I0105 10:52:03.830009 13351 net.cpp:459] conv2/relu_3x3_reduce <- conv2/3x3_reduce_bn
I0105 10:52:03.830014 13351 net.cpp:404] conv2/relu_3x3_reduce -> conv2/3x3_reduce_bn (in-place)
I0105 10:52:03.830019 13351 net.cpp:160] Setting up conv2/relu_3x3_reduce
I0105 10:52:03.830025 13351 net.cpp:167] Top shape: 72 64 56 56 (14450688)
I0105 10:52:03.830029 13351 layer_factory.hpp:74] Creating layer conv2/3x3
I0105 10:52:03.830036 13351 net.cpp:96] Creating Layer conv2/3x3
I0105 10:52:03.830040 13351 net.cpp:459] conv2/3x3 <- conv2/3x3_reduce_bn
I0105 10:52:03.830046 13351 net.cpp:415] conv2/3x3 -> conv2/3x3
I0105 10:52:03.830054 13351 net.cpp:160] Setting up conv2/3x3
I0105 10:52:03.830508 13351 net.cpp:167] Top shape: 72 192 56 56 (43352064)
I0105 10:52:03.830515 13351 layer_factory.hpp:74] Creating layer conv2/3x3_bn
I0105 10:52:03.830518 13351 layer_factory.cpp:177] Layer conv2/3x3_bn is using CAFFE engine.
I0105 10:52:03.830523 13351 net.cpp:96] Creating Layer conv2/3x3_bn
I0105 10:52:03.830526 13351 net.cpp:459] conv2/3x3_bn <- conv2/3x3
I0105 10:52:03.830530 13351 net.cpp:415] conv2/3x3_bn -> conv2/3x3_bn
I0105 10:52:03.830535 13351 net.cpp:160] Setting up conv2/3x3_bn
I0105 10:52:03.830546 13351 net.cpp:167] Top shape: 72 192 56 56 (43352064)
I0105 10:52:03.830554 13351 layer_factory.hpp:74] Creating layer conv2/relu_3x3
I0105 10:52:03.830559 13351 net.cpp:96] Creating Layer conv2/relu_3x3
I0105 10:52:03.830561 13351 net.cpp:459] conv2/relu_3x3 <- conv2/3x3_bn
I0105 10:52:03.830565 13351 net.cpp:404] conv2/relu_3x3 -> conv2/3x3_bn (in-place)
I0105 10:52:03.830577 13351 net.cpp:160] Setting up conv2/relu_3x3
I0105 10:52:03.830581 13351 net.cpp:167] Top shape: 72 192 56 56 (43352064)
I0105 10:52:03.830585 13351 layer_factory.hpp:74] Creating layer pool2/3x3_s2
I0105 10:52:03.830590 13351 net.cpp:96] Creating Layer pool2/3x3_s2
I0105 10:52:03.830592 13351 net.cpp:459] pool2/3x3_s2 <- conv2/3x3_bn
I0105 10:52:03.830596 13351 net.cpp:415] pool2/3x3_s2 -> pool2/3x3_s2
I0105 10:52:03.830600 13351 net.cpp:160] Setting up pool2/3x3_s2
I0105 10:52:03.830606 13351 net.cpp:167] Top shape: 72 192 28 28 (10838016)
I0105 10:52:03.830610 13351 layer_factory.hpp:74] Creating layer pool2/3x3_s2_pool2/3x3_s2_0_split
I0105 10:52:03.830615 13351 net.cpp:96] Creating Layer pool2/3x3_s2_pool2/3x3_s2_0_split
I0105 10:52:03.830616 13351 net.cpp:459] pool2/3x3_s2_pool2/3x3_s2_0_split <- pool2/3x3_s2
I0105 10:52:03.830621 13351 net.cpp:415] pool2/3x3_s2_pool2/3x3_s2_0_split -> pool2/3x3_s2_pool2/3x3_s2_0_split_0
I0105 10:52:03.830626 13351 net.cpp:415] pool2/3x3_s2_pool2/3x3_s2_0_split -> pool2/3x3_s2_pool2/3x3_s2_0_split_1
I0105 10:52:03.830631 13351 net.cpp:415] pool2/3x3_s2_pool2/3x3_s2_0_split -> pool2/3x3_s2_pool2/3x3_s2_0_split_2
I0105 10:52:03.830636 13351 net.cpp:415] pool2/3x3_s2_pool2/3x3_s2_0_split -> pool2/3x3_s2_pool2/3x3_s2_0_split_3
I0105 10:52:03.830639 13351 net.cpp:160] Setting up pool2/3x3_s2_pool2/3x3_s2_0_split
I0105 10:52:03.830644 13351 net.cpp:167] Top shape: 72 192 28 28 (10838016)
I0105 10:52:03.830647 13351 net.cpp:167] Top shape: 72 192 28 28 (10838016)
I0105 10:52:03.830651 13351 net.cpp:167] Top shape: 72 192 28 28 (10838016)
I0105 10:52:03.830653 13351 net.cpp:167] Top shape: 72 192 28 28 (10838016)
I0105 10:52:03.830657 13351 layer_factory.hpp:74] Creating layer inception_3a/1x1
I0105 10:52:03.830662 13351 net.cpp:96] Creating Layer inception_3a/1x1
I0105 10:52:03.830665 13351 net.cpp:459] inception_3a/1x1 <- pool2/3x3_s2_pool2/3x3_s2_0_split_0
I0105 10:52:03.830669 13351 net.cpp:415] inception_3a/1x1 -> inception_3a/1x1
I0105 10:52:03.830673 13351 net.cpp:160] Setting up inception_3a/1x1
I0105 10:52:03.830729 13351 net.cpp:167] Top shape: 72 64 28 28 (3612672)
I0105 10:52:03.830734 13351 layer_factory.hpp:74] Creating layer inception_3a/1x1_bn
I0105 10:52:03.830739 13351 layer_factory.cpp:177] Layer inception_3a/1x1_bn is using CAFFE engine.
I0105 10:52:03.830742 13351 net.cpp:96] Creating Layer inception_3a/1x1_bn
I0105 10:52:03.830745 13351 net.cpp:459] inception_3a/1x1_bn <- inception_3a/1x1
I0105 10:52:03.830749 13351 net.cpp:415] inception_3a/1x1_bn -> inception_3a/1x1_bn
I0105 10:52:03.830755 13351 net.cpp:160] Setting up inception_3a/1x1_bn
I0105 10:52:03.830765 13351 net.cpp:167] Top shape: 72 64 28 28 (3612672)
I0105 10:52:03.830770 13351 layer_factory.hpp:74] Creating layer inception_3a/relu_1x1
I0105 10:52:03.830775 13351 net.cpp:96] Creating Layer inception_3a/relu_1x1
I0105 10:52:03.830778 13351 net.cpp:459] inception_3a/relu_1x1 <- inception_3a/1x1_bn
I0105 10:52:03.830782 13351 net.cpp:404] inception_3a/relu_1x1 -> inception_3a/1x1_bn (in-place)
I0105 10:52:03.830786 13351 net.cpp:160] Setting up inception_3a/relu_1x1
I0105 10:52:03.830790 13351 net.cpp:167] Top shape: 72 64 28 28 (3612672)
I0105 10:52:03.830793 13351 layer_factory.hpp:74] Creating layer inception_3a/3x3_reduce
I0105 10:52:03.830798 13351 net.cpp:96] Creating Layer inception_3a/3x3_reduce
I0105 10:52:03.830801 13351 net.cpp:459] inception_3a/3x3_reduce <- pool2/3x3_s2_pool2/3x3_s2_0_split_1
I0105 10:52:03.830806 13351 net.cpp:415] inception_3a/3x3_reduce -> inception_3a/3x3_reduce
I0105 10:52:03.830811 13351 net.cpp:160] Setting up inception_3a/3x3_reduce
I0105 10:52:03.830866 13351 net.cpp:167] Top shape: 72 64 28 28 (3612672)
I0105 10:52:03.830871 13351 layer_factory.hpp:74] Creating layer inception_3a/3x3_reduce_bn
I0105 10:52:03.830874 13351 layer_factory.cpp:177] Layer inception_3a/3x3_reduce_bn is using CAFFE engine.
I0105 10:52:03.830879 13351 net.cpp:96] Creating Layer inception_3a/3x3_reduce_bn
I0105 10:52:03.830886 13351 net.cpp:459] inception_3a/3x3_reduce_bn <- inception_3a/3x3_reduce
I0105 10:52:03.830894 13351 net.cpp:415] inception_3a/3x3_reduce_bn -> inception_3a/3x3_reduce_bn
I0105 10:52:03.830899 13351 net.cpp:160] Setting up inception_3a/3x3_reduce_bn
I0105 10:52:03.830909 13351 net.cpp:167] Top shape: 72 64 28 28 (3612672)
I0105 10:52:03.830914 13351 layer_factory.hpp:74] Creating layer inception_3a/relu_3x3_reduce
I0105 10:52:03.830919 13351 net.cpp:96] Creating Layer inception_3a/relu_3x3_reduce
I0105 10:52:03.830921 13351 net.cpp:459] inception_3a/relu_3x3_reduce <- inception_3a/3x3_reduce_bn
I0105 10:52:03.830925 13351 net.cpp:404] inception_3a/relu_3x3_reduce -> inception_3a/3x3_reduce_bn (in-place)
I0105 10:52:03.830929 13351 net.cpp:160] Setting up inception_3a/relu_3x3_reduce
I0105 10:52:03.830934 13351 net.cpp:167] Top shape: 72 64 28 28 (3612672)
I0105 10:52:03.830936 13351 layer_factory.hpp:74] Creating layer inception_3a/3x3
I0105 10:52:03.830940 13351 net.cpp:96] Creating Layer inception_3a/3x3
I0105 10:52:03.830943 13351 net.cpp:459] inception_3a/3x3 <- inception_3a/3x3_reduce_bn
I0105 10:52:03.830947 13351 net.cpp:415] inception_3a/3x3 -> inception_3a/3x3
I0105 10:52:03.830952 13351 net.cpp:160] Setting up inception_3a/3x3
I0105 10:52:03.831099 13351 net.cpp:167] Top shape: 72 64 28 28 (3612672)
I0105 10:52:03.831104 13351 layer_factory.hpp:74] Creating layer inception_3a/3x3_bn
I0105 10:52:03.831107 13351 layer_factory.cpp:177] Layer inception_3a/3x3_bn is using CAFFE engine.
I0105 10:52:03.831111 13351 net.cpp:96] Creating Layer inception_3a/3x3_bn
I0105 10:52:03.831115 13351 net.cpp:459] inception_3a/3x3_bn <- inception_3a/3x3
I0105 10:52:03.831120 13351 net.cpp:415] inception_3a/3x3_bn -> inception_3a/3x3_bn
I0105 10:52:03.831123 13351 net.cpp:160] Setting up inception_3a/3x3_bn
I0105 10:52:03.831132 13351 net.cpp:167] Top shape: 72 64 28 28 (3612672)
I0105 10:52:03.831140 13351 layer_factory.hpp:74] Creating layer inception_3a/relu_3x3
I0105 10:52:03.831145 13351 net.cpp:96] Creating Layer inception_3a/relu_3x3
I0105 10:52:03.831147 13351 net.cpp:459] inception_3a/relu_3x3 <- inception_3a/3x3_bn
I0105 10:52:03.831151 13351 net.cpp:404] inception_3a/relu_3x3 -> inception_3a/3x3_bn (in-place)
I0105 10:52:03.831156 13351 net.cpp:160] Setting up inception_3a/relu_3x3
I0105 10:52:03.831158 13351 net.cpp:167] Top shape: 72 64 28 28 (3612672)
I0105 10:52:03.831161 13351 layer_factory.hpp:74] Creating layer inception_3a/double_3x3_reduce
I0105 10:52:03.831166 13351 net.cpp:96] Creating Layer inception_3a/double_3x3_reduce
I0105 10:52:03.831169 13351 net.cpp:459] inception_3a/double_3x3_reduce <- pool2/3x3_s2_pool2/3x3_s2_0_split_2
I0105 10:52:03.831174 13351 net.cpp:415] inception_3a/double_3x3_reduce -> inception_3a/double_3x3_reduce
I0105 10:52:03.831179 13351 net.cpp:160] Setting up inception_3a/double_3x3_reduce
I0105 10:52:03.831233 13351 net.cpp:167] Top shape: 72 64 28 28 (3612672)
I0105 10:52:03.831238 13351 layer_factory.hpp:74] Creating layer inception_3a/double_3x3_reduce_bn
I0105 10:52:03.831243 13351 layer_factory.cpp:177] Layer inception_3a/double_3x3_reduce_bn is using CAFFE engine.
I0105 10:52:03.831246 13351 net.cpp:96] Creating Layer inception_3a/double_3x3_reduce_bn
I0105 10:52:03.831249 13351 net.cpp:459] inception_3a/double_3x3_reduce_bn <- inception_3a/double_3x3_reduce
I0105 10:52:03.831254 13351 net.cpp:415] inception_3a/double_3x3_reduce_bn -> inception_3a/double_3x3_reduce_bn
I0105 10:52:03.831259 13351 net.cpp:160] Setting up inception_3a/double_3x3_reduce_bn
I0105 10:52:03.831266 13351 net.cpp:167] Top shape: 72 64 28 28 (3612672)
I0105 10:52:03.831272 13351 layer_factory.hpp:74] Creating layer inception_3a/relu_double_3x3_reduce
I0105 10:52:03.831276 13351 net.cpp:96] Creating Layer inception_3a/relu_double_3x3_reduce
I0105 10:52:03.831279 13351 net.cpp:459] inception_3a/relu_double_3x3_reduce <- inception_3a/double_3x3_reduce_bn
I0105 10:52:03.831282 13351 net.cpp:404] inception_3a/relu_double_3x3_reduce -> inception_3a/double_3x3_reduce_bn (in-place)
I0105 10:52:03.831286 13351 net.cpp:160] Setting up inception_3a/relu_double_3x3_reduce
I0105 10:52:03.831295 13351 net.cpp:167] Top shape: 72 64 28 28 (3612672)
I0105 10:52:03.831298 13351 layer_factory.hpp:74] Creating layer inception_3a/double_3x3_1
I0105 10:52:03.831303 13351 net.cpp:96] Creating Layer inception_3a/double_3x3_1
I0105 10:52:03.831306 13351 net.cpp:459] inception_3a/double_3x3_1 <- inception_3a/double_3x3_reduce_bn
I0105 10:52:03.831310 13351 net.cpp:415] inception_3a/double_3x3_1 -> inception_3a/double_3x3_1
I0105 10:52:03.831315 13351 net.cpp:160] Setting up inception_3a/double_3x3_1
I0105 10:52:03.831532 13351 net.cpp:167] Top shape: 72 96 28 28 (5419008)
I0105 10:52:03.831537 13351 layer_factory.hpp:74] Creating layer inception_3a/double_3x3_1_bn
I0105 10:52:03.831539 13351 layer_factory.cpp:177] Layer inception_3a/double_3x3_1_bn is using CAFFE engine.
I0105 10:52:03.831544 13351 net.cpp:96] Creating Layer inception_3a/double_3x3_1_bn
I0105 10:52:03.831547 13351 net.cpp:459] inception_3a/double_3x3_1_bn <- inception_3a/double_3x3_1
I0105 10:52:03.831552 13351 net.cpp:415] inception_3a/double_3x3_1_bn -> inception_3a/double_3x3_1_bn
I0105 10:52:03.831555 13351 net.cpp:160] Setting up inception_3a/double_3x3_1_bn
I0105 10:52:03.831564 13351 net.cpp:167] Top shape: 72 96 28 28 (5419008)
I0105 10:52:03.831570 13351 layer_factory.hpp:74] Creating layer inception_3a/relu_double_3x3_1
I0105 10:52:03.831574 13351 net.cpp:96] Creating Layer inception_3a/relu_double_3x3_1
I0105 10:52:03.831578 13351 net.cpp:459] inception_3a/relu_double_3x3_1 <- inception_3a/double_3x3_1_bn
I0105 10:52:03.831581 13351 net.cpp:404] inception_3a/relu_double_3x3_1 -> inception_3a/double_3x3_1_bn (in-place)
I0105 10:52:03.831584 13351 net.cpp:160] Setting up inception_3a/relu_double_3x3_1
I0105 10:52:03.831588 13351 net.cpp:167] Top shape: 72 96 28 28 (5419008)
I0105 10:52:03.831591 13351 layer_factory.hpp:74] Creating layer inception_3a/double_3x3_2
I0105 10:52:03.831595 13351 net.cpp:96] Creating Layer inception_3a/double_3x3_2
I0105 10:52:03.831598 13351 net.cpp:459] inception_3a/double_3x3_2 <- inception_3a/double_3x3_1_bn
I0105 10:52:03.831603 13351 net.cpp:415] inception_3a/double_3x3_2 -> inception_3a/double_3x3_2
I0105 10:52:03.831607 13351 net.cpp:160] Setting up inception_3a/double_3x3_2
I0105 10:52:03.831928 13351 net.cpp:167] Top shape: 72 96 28 28 (5419008)
I0105 10:52:03.831933 13351 layer_factory.hpp:74] Creating layer inception_3a/double_3x3_2_bn
I0105 10:52:03.831936 13351 layer_factory.cpp:177] Layer inception_3a/double_3x3_2_bn is using CAFFE engine.
I0105 10:52:03.831940 13351 net.cpp:96] Creating Layer inception_3a/double_3x3_2_bn
I0105 10:52:03.831943 13351 net.cpp:459] inception_3a/double_3x3_2_bn <- inception_3a/double_3x3_2
I0105 10:52:03.831948 13351 net.cpp:415] inception_3a/double_3x3_2_bn -> inception_3a/double_3x3_2_bn
I0105 10:52:03.831953 13351 net.cpp:160] Setting up inception_3a/double_3x3_2_bn
I0105 10:52:03.831961 13351 net.cpp:167] Top shape: 72 96 28 28 (5419008)
I0105 10:52:03.831967 13351 layer_factory.hpp:74] Creating layer inception_3a/relu_double_3x3_2
I0105 10:52:03.831971 13351 net.cpp:96] Creating Layer inception_3a/relu_double_3x3_2
I0105 10:52:03.831974 13351 net.cpp:459] inception_3a/relu_double_3x3_2 <- inception_3a/double_3x3_2_bn
I0105 10:52:03.831979 13351 net.cpp:404] inception_3a/relu_double_3x3_2 -> inception_3a/double_3x3_2_bn (in-place)
I0105 10:52:03.831982 13351 net.cpp:160] Setting up inception_3a/relu_double_3x3_2
I0105 10:52:03.831986 13351 net.cpp:167] Top shape: 72 96 28 28 (5419008)
I0105 10:52:03.831990 13351 layer_factory.hpp:74] Creating layer inception_3a/pool
I0105 10:52:03.831995 13351 net.cpp:96] Creating Layer inception_3a/pool
I0105 10:52:03.831998 13351 net.cpp:459] inception_3a/pool <- pool2/3x3_s2_pool2/3x3_s2_0_split_3
I0105 10:52:03.832002 13351 net.cpp:415] inception_3a/pool -> inception_3a/pool
I0105 10:52:03.832007 13351 net.cpp:160] Setting up inception_3a/pool
I0105 10:52:03.832011 13351 net.cpp:167] Top shape: 72 192 28 28 (10838016)
I0105 10:52:03.832015 13351 layer_factory.hpp:74] Creating layer inception_3a/pool_proj
I0105 10:52:03.832025 13351 net.cpp:96] Creating Layer inception_3a/pool_proj
I0105 10:52:03.832027 13351 net.cpp:459] inception_3a/pool_proj <- inception_3a/pool
I0105 10:52:03.832032 13351 net.cpp:415] inception_3a/pool_proj -> inception_3a/pool_proj
I0105 10:52:03.832036 13351 net.cpp:160] Setting up inception_3a/pool_proj
I0105 10:52:03.832068 13351 net.cpp:167] Top shape: 72 32 28 28 (1806336)
I0105 10:52:03.832073 13351 layer_factory.hpp:74] Creating layer inception_3a/pool_proj_bn
I0105 10:52:03.832077 13351 layer_factory.cpp:177] Layer inception_3a/pool_proj_bn is using CAFFE engine.
I0105 10:52:03.832080 13351 net.cpp:96] Creating Layer inception_3a/pool_proj_bn
I0105 10:52:03.832083 13351 net.cpp:459] inception_3a/pool_proj_bn <- inception_3a/pool_proj
I0105 10:52:03.832087 13351 net.cpp:415] inception_3a/pool_proj_bn -> inception_3a/pool_proj_bn
I0105 10:52:03.832093 13351 net.cpp:160] Setting up inception_3a/pool_proj_bn
I0105 10:52:03.832101 13351 net.cpp:167] Top shape: 72 32 28 28 (1806336)
I0105 10:52:03.832110 13351 layer_factory.hpp:74] Creating layer inception_3a/relu_pool_proj
I0105 10:52:03.832118 13351 net.cpp:96] Creating Layer inception_3a/relu_pool_proj
I0105 10:52:03.832123 13351 net.cpp:459] inception_3a/relu_pool_proj <- inception_3a/pool_proj_bn
I0105 10:52:03.832129 13351 net.cpp:404] inception_3a/relu_pool_proj -> inception_3a/pool_proj_bn (in-place)
I0105 10:52:03.832136 13351 net.cpp:160] Setting up inception_3a/relu_pool_proj
I0105 10:52:03.832144 13351 net.cpp:167] Top shape: 72 32 28 28 (1806336)
I0105 10:52:03.832149 13351 layer_factory.hpp:74] Creating layer inception_3a/output
I0105 10:52:03.832156 13351 net.cpp:96] Creating Layer inception_3a/output
I0105 10:52:03.832162 13351 net.cpp:459] inception_3a/output <- inception_3a/1x1_bn
I0105 10:52:03.832168 13351 net.cpp:459] inception_3a/output <- inception_3a/3x3_bn
I0105 10:52:03.832175 13351 net.cpp:459] inception_3a/output <- inception_3a/double_3x3_2_bn
I0105 10:52:03.832180 13351 net.cpp:459] inception_3a/output <- inception_3a/pool_proj_bn
I0105 10:52:03.832186 13351 net.cpp:415] inception_3a/output -> inception_3a/output
I0105 10:52:03.832193 13351 net.cpp:160] Setting up inception_3a/output
I0105 10:52:03.832201 13351 net.cpp:167] Top shape: 72 256 28 28 (14450688)
I0105 10:52:03.832206 13351 layer_factory.hpp:74] Creating layer inception_3a/output_inception_3a/output_0_split
I0105 10:52:03.832214 13351 net.cpp:96] Creating Layer inception_3a/output_inception_3a/output_0_split
I0105 10:52:03.832219 13351 net.cpp:459] inception_3a/output_inception_3a/output_0_split <- inception_3a/output
I0105 10:52:03.832226 13351 net.cpp:415] inception_3a/output_inception_3a/output_0_split -> inception_3a/output_inception_3a/output_0_split_0
I0105 10:52:03.832233 13351 net.cpp:415] inception_3a/output_inception_3a/output_0_split -> inception_3a/output_inception_3a/output_0_split_1
I0105 10:52:03.832242 13351 net.cpp:415] inception_3a/output_inception_3a/output_0_split -> inception_3a/output_inception_3a/output_0_split_2
I0105 10:52:03.832252 13351 net.cpp:415] inception_3a/output_inception_3a/output_0_split -> inception_3a/output_inception_3a/output_0_split_3
I0105 10:52:03.832257 13351 net.cpp:160] Setting up inception_3a/output_inception_3a/output_0_split
I0105 10:52:03.832265 13351 net.cpp:167] Top shape: 72 256 28 28 (14450688)
I0105 10:52:03.832271 13351 net.cpp:167] Top shape: 72 256 28 28 (14450688)
I0105 10:52:03.832278 13351 net.cpp:167] Top shape: 72 256 28 28 (14450688)
I0105 10:52:03.832283 13351 net.cpp:167] Top shape: 72 256 28 28 (14450688)
I0105 10:52:03.832288 13351 layer_factory.hpp:74] Creating layer inception_3b/1x1
I0105 10:52:03.832295 13351 net.cpp:96] Creating Layer inception_3b/1x1
I0105 10:52:03.832300 13351 net.cpp:459] inception_3b/1x1 <- inception_3a/output_inception_3a/output_0_split_0
I0105 10:52:03.832309 13351 net.cpp:415] inception_3b/1x1 -> inception_3b/1x1
I0105 10:52:03.832315 13351 net.cpp:160] Setting up inception_3b/1x1
I0105 10:52:03.832445 13351 net.cpp:167] Top shape: 72 64 28 28 (3612672)
I0105 10:52:03.832461 13351 layer_factory.hpp:74] Creating layer inception_3b/1x1_bn
I0105 10:52:03.832468 13351 layer_factory.cpp:177] Layer inception_3b/1x1_bn is using CAFFE engine.
I0105 10:52:03.832474 13351 net.cpp:96] Creating Layer inception_3b/1x1_bn
I0105 10:52:03.832479 13351 net.cpp:459] inception_3b/1x1_bn <- inception_3b/1x1
I0105 10:52:03.832486 13351 net.cpp:415] inception_3b/1x1_bn -> inception_3b/1x1_bn
I0105 10:52:03.832494 13351 net.cpp:160] Setting up inception_3b/1x1_bn
I0105 10:52:03.832510 13351 net.cpp:167] Top shape: 72 64 28 28 (3612672)
I0105 10:52:03.832523 13351 layer_factory.hpp:74] Creating layer inception_3b/relu_1x1
I0105 10:52:03.832530 13351 net.cpp:96] Creating Layer inception_3b/relu_1x1
I0105 10:52:03.832535 13351 net.cpp:459] inception_3b/relu_1x1 <- inception_3b/1x1_bn
I0105 10:52:03.832541 13351 net.cpp:404] inception_3b/relu_1x1 -> inception_3b/1x1_bn (in-place)
I0105 10:52:03.832548 13351 net.cpp:160] Setting up inception_3b/relu_1x1
I0105 10:52:03.832554 13351 net.cpp:167] Top shape: 72 64 28 28 (3612672)
I0105 10:52:03.832558 13351 layer_factory.hpp:74] Creating layer inception_3b/3x3_reduce
I0105 10:52:03.832566 13351 net.cpp:96] Creating Layer inception_3b/3x3_reduce
I0105 10:52:03.832571 13351 net.cpp:459] inception_3b/3x3_reduce <- inception_3a/output_inception_3a/output_0_split_1
I0105 10:52:03.832578 13351 net.cpp:415] inception_3b/3x3_reduce -> inception_3b/3x3_reduce
I0105 10:52:03.832587 13351 net.cpp:160] Setting up inception_3b/3x3_reduce
I0105 10:52:03.832716 13351 net.cpp:167] Top shape: 72 64 28 28 (3612672)
I0105 10:52:03.832725 13351 layer_factory.hpp:74] Creating layer inception_3b/3x3_reduce_bn
I0105 10:52:03.832729 13351 layer_factory.cpp:177] Layer inception_3b/3x3_reduce_bn is using CAFFE engine.
I0105 10:52:03.832736 13351 net.cpp:96] Creating Layer inception_3b/3x3_reduce_bn
I0105 10:52:03.832741 13351 net.cpp:459] inception_3b/3x3_reduce_bn <- inception_3b/3x3_reduce
I0105 10:52:03.832748 13351 net.cpp:415] inception_3b/3x3_reduce_bn -> inception_3b/3x3_reduce_bn
I0105 10:52:03.832756 13351 net.cpp:160] Setting up inception_3b/3x3_reduce_bn
I0105 10:52:03.832772 13351 net.cpp:167] Top shape: 72 64 28 28 (3612672)
I0105 10:52:03.832780 13351 layer_factory.hpp:74] Creating layer inception_3b/relu_3x3_reduce
I0105 10:52:03.832787 13351 net.cpp:96] Creating Layer inception_3b/relu_3x3_reduce
I0105 10:52:03.832792 13351 net.cpp:459] inception_3b/relu_3x3_reduce <- inception_3b/3x3_reduce_bn
I0105 10:52:03.832798 13351 net.cpp:404] inception_3b/relu_3x3_reduce -> inception_3b/3x3_reduce_bn (in-place)
I0105 10:52:03.832804 13351 net.cpp:160] Setting up inception_3b/relu_3x3_reduce
I0105 10:52:03.832810 13351 net.cpp:167] Top shape: 72 64 28 28 (3612672)
I0105 10:52:03.832818 13351 layer_factory.hpp:74] Creating layer inception_3b/3x3
I0105 10:52:03.832824 13351 net.cpp:96] Creating Layer inception_3b/3x3
I0105 10:52:03.832830 13351 net.cpp:459] inception_3b/3x3 <- inception_3b/3x3_reduce_bn
I0105 10:52:03.832837 13351 net.cpp:415] inception_3b/3x3 -> inception_3b/3x3
I0105 10:52:03.832845 13351 net.cpp:160] Setting up inception_3b/3x3
I0105 10:52:03.833253 13351 net.cpp:167] Top shape: 72 96 28 28 (5419008)
I0105 10:52:03.833262 13351 layer_factory.hpp:74] Creating layer inception_3b/3x3_bn
I0105 10:52:03.833267 13351 layer_factory.cpp:177] Layer inception_3b/3x3_bn is using CAFFE engine.
I0105 10:52:03.833276 13351 net.cpp:96] Creating Layer inception_3b/3x3_bn
I0105 10:52:03.833281 13351 net.cpp:459] inception_3b/3x3_bn <- inception_3b/3x3
I0105 10:52:03.833288 13351 net.cpp:415] inception_3b/3x3_bn -> inception_3b/3x3_bn
I0105 10:52:03.833302 13351 net.cpp:160] Setting up inception_3b/3x3_bn
I0105 10:52:03.833317 13351 net.cpp:167] Top shape: 72 96 28 28 (5419008)
I0105 10:52:03.833329 13351 layer_factory.hpp:74] Creating layer inception_3b/relu_3x3
I0105 10:52:03.833335 13351 net.cpp:96] Creating Layer inception_3b/relu_3x3
I0105 10:52:03.833343 13351 net.cpp:459] inception_3b/relu_3x3 <- inception_3b/3x3_bn
I0105 10:52:03.833351 13351 net.cpp:404] inception_3b/relu_3x3 -> inception_3b/3x3_bn (in-place)
I0105 10:52:03.833364 13351 net.cpp:160] Setting up inception_3b/relu_3x3
I0105 10:52:03.833374 13351 net.cpp:167] Top shape: 72 96 28 28 (5419008)
I0105 10:52:03.833379 13351 layer_factory.hpp:74] Creating layer inception_3b/double_3x3_reduce
I0105 10:52:03.833389 13351 net.cpp:96] Creating Layer inception_3b/double_3x3_reduce
I0105 10:52:03.833395 13351 net.cpp:459] inception_3b/double_3x3_reduce <- inception_3a/output_inception_3a/output_0_split_2
I0105 10:52:03.833401 13351 net.cpp:415] inception_3b/double_3x3_reduce -> inception_3b/double_3x3_reduce
I0105 10:52:03.833412 13351 net.cpp:160] Setting up inception_3b/double_3x3_reduce
I0105 10:52:03.833551 13351 net.cpp:167] Top shape: 72 64 28 28 (3612672)
I0105 10:52:03.833560 13351 layer_factory.hpp:74] Creating layer inception_3b/double_3x3_reduce_bn
I0105 10:52:03.833570 13351 layer_factory.cpp:177] Layer inception_3b/double_3x3_reduce_bn is using CAFFE engine.
I0105 10:52:03.833580 13351 net.cpp:96] Creating Layer inception_3b/double_3x3_reduce_bn
I0105 10:52:03.833585 13351 net.cpp:459] inception_3b/double_3x3_reduce_bn <- inception_3b/double_3x3_reduce
I0105 10:52:03.833592 13351 net.cpp:415] inception_3b/double_3x3_reduce_bn -> inception_3b/double_3x3_reduce_bn
I0105 10:52:03.833600 13351 net.cpp:160] Setting up inception_3b/double_3x3_reduce_bn
I0105 10:52:03.833617 13351 net.cpp:167] Top shape: 72 64 28 28 (3612672)
I0105 10:52:03.833631 13351 layer_factory.hpp:74] Creating layer inception_3b/relu_double_3x3_reduce
I0105 10:52:03.833639 13351 net.cpp:96] Creating Layer inception_3b/relu_double_3x3_reduce
I0105 10:52:03.833644 13351 net.cpp:459] inception_3b/relu_double_3x3_reduce <- inception_3b/double_3x3_reduce_bn
I0105 10:52:03.833652 13351 net.cpp:404] inception_3b/relu_double_3x3_reduce -> inception_3b/double_3x3_reduce_bn (in-place)
I0105 10:52:03.833663 13351 net.cpp:160] Setting up inception_3b/relu_double_3x3_reduce
I0105 10:52:03.833669 13351 net.cpp:167] Top shape: 72 64 28 28 (3612672)
I0105 10:52:03.833674 13351 layer_factory.hpp:74] Creating layer inception_3b/double_3x3_1
I0105 10:52:03.833683 13351 net.cpp:96] Creating Layer inception_3b/double_3x3_1
I0105 10:52:03.833690 13351 net.cpp:459] inception_3b/double_3x3_1 <- inception_3b/double_3x3_reduce_bn
I0105 10:52:03.833696 13351 net.cpp:415] inception_3b/double_3x3_1 -> inception_3b/double_3x3_1
I0105 10:52:03.833705 13351 net.cpp:160] Setting up inception_3b/double_3x3_1
I0105 10:52:03.834143 13351 net.cpp:167] Top shape: 72 96 28 28 (5419008)
I0105 10:52:03.834157 13351 layer_factory.hpp:74] Creating layer inception_3b/double_3x3_1_bn
I0105 10:52:03.834163 13351 layer_factory.cpp:177] Layer inception_3b/double_3x3_1_bn is using CAFFE engine.
I0105 10:52:03.834170 13351 net.cpp:96] Creating Layer inception_3b/double_3x3_1_bn
I0105 10:52:03.834175 13351 net.cpp:459] inception_3b/double_3x3_1_bn <- inception_3b/double_3x3_1
I0105 10:52:03.834183 13351 net.cpp:415] inception_3b/double_3x3_1_bn -> inception_3b/double_3x3_1_bn
I0105 10:52:03.834192 13351 net.cpp:160] Setting up inception_3b/double_3x3_1_bn
I0105 10:52:03.834209 13351 net.cpp:167] Top shape: 72 96 28 28 (5419008)
I0105 10:52:03.834218 13351 layer_factory.hpp:74] Creating layer inception_3b/relu_double_3x3_1
I0105 10:52:03.834226 13351 net.cpp:96] Creating Layer inception_3b/relu_double_3x3_1
I0105 10:52:03.834231 13351 net.cpp:459] inception_3b/relu_double_3x3_1 <- inception_3b/double_3x3_1_bn
I0105 10:52:03.834236 13351 net.cpp:404] inception_3b/relu_double_3x3_1 -> inception_3b/double_3x3_1_bn (in-place)
I0105 10:52:03.834242 13351 net.cpp:160] Setting up inception_3b/relu_double_3x3_1
I0105 10:52:03.834249 13351 net.cpp:167] Top shape: 72 96 28 28 (5419008)
I0105 10:52:03.834254 13351 layer_factory.hpp:74] Creating layer inception_3b/double_3x3_2
I0105 10:52:03.834261 13351 net.cpp:96] Creating Layer inception_3b/double_3x3_2
I0105 10:52:03.834266 13351 net.cpp:459] inception_3b/double_3x3_2 <- inception_3b/double_3x3_1_bn
I0105 10:52:03.834276 13351 net.cpp:415] inception_3b/double_3x3_2 -> inception_3b/double_3x3_2
I0105 10:52:03.834288 13351 net.cpp:160] Setting up inception_3b/double_3x3_2
I0105 10:52:03.834954 13351 net.cpp:167] Top shape: 72 96 28 28 (5419008)
I0105 10:52:03.834966 13351 layer_factory.hpp:74] Creating layer inception_3b/double_3x3_2_bn
I0105 10:52:03.834971 13351 layer_factory.cpp:177] Layer inception_3b/double_3x3_2_bn is using CAFFE engine.
I0105 10:52:03.834980 13351 net.cpp:96] Creating Layer inception_3b/double_3x3_2_bn
I0105 10:52:03.834985 13351 net.cpp:459] inception_3b/double_3x3_2_bn <- inception_3b/double_3x3_2
I0105 10:52:03.834995 13351 net.cpp:415] inception_3b/double_3x3_2_bn -> inception_3b/double_3x3_2_bn
I0105 10:52:03.835002 13351 net.cpp:160] Setting up inception_3b/double_3x3_2_bn
I0105 10:52:03.835021 13351 net.cpp:167] Top shape: 72 96 28 28 (5419008)
I0105 10:52:03.835031 13351 layer_factory.hpp:74] Creating layer inception_3b/relu_double_3x3_2
I0105 10:52:03.835038 13351 net.cpp:96] Creating Layer inception_3b/relu_double_3x3_2
I0105 10:52:03.835044 13351 net.cpp:459] inception_3b/relu_double_3x3_2 <- inception_3b/double_3x3_2_bn
I0105 10:52:03.835052 13351 net.cpp:404] inception_3b/relu_double_3x3_2 -> inception_3b/double_3x3_2_bn (in-place)
I0105 10:52:03.835058 13351 net.cpp:160] Setting up inception_3b/relu_double_3x3_2
I0105 10:52:03.835065 13351 net.cpp:167] Top shape: 72 96 28 28 (5419008)
I0105 10:52:03.835072 13351 layer_factory.hpp:74] Creating layer inception_3b/pool
I0105 10:52:03.835079 13351 net.cpp:96] Creating Layer inception_3b/pool
I0105 10:52:03.835085 13351 net.cpp:459] inception_3b/pool <- inception_3a/output_inception_3a/output_0_split_3
I0105 10:52:03.835095 13351 net.cpp:415] inception_3b/pool -> inception_3b/pool
I0105 10:52:03.835103 13351 net.cpp:160] Setting up inception_3b/pool
I0105 10:52:03.835113 13351 net.cpp:167] Top shape: 72 256 28 28 (14450688)
I0105 10:52:03.835119 13351 layer_factory.hpp:74] Creating layer inception_3b/pool_proj
I0105 10:52:03.835129 13351 net.cpp:96] Creating Layer inception_3b/pool_proj
I0105 10:52:03.835135 13351 net.cpp:459] inception_3b/pool_proj <- inception_3b/pool
I0105 10:52:03.835144 13351 net.cpp:415] inception_3b/pool_proj -> inception_3b/pool_proj
I0105 10:52:03.835152 13351 net.cpp:160] Setting up inception_3b/pool_proj
I0105 10:52:03.835289 13351 net.cpp:167] Top shape: 72 64 28 28 (3612672)
I0105 10:52:03.835299 13351 layer_factory.hpp:74] Creating layer inception_3b/pool_proj_bn
I0105 10:52:03.835304 13351 layer_factory.cpp:177] Layer inception_3b/pool_proj_bn is using CAFFE engine.
I0105 10:52:03.835314 13351 net.cpp:96] Creating Layer inception_3b/pool_proj_bn
I0105 10:52:03.835319 13351 net.cpp:459] inception_3b/pool_proj_bn <- inception_3b/pool_proj
I0105 10:52:03.835328 13351 net.cpp:415] inception_3b/pool_proj_bn -> inception_3b/pool_proj_bn
I0105 10:52:03.835336 13351 net.cpp:160] Setting up inception_3b/pool_proj_bn
I0105 10:52:03.835355 13351 net.cpp:167] Top shape: 72 64 28 28 (3612672)
I0105 10:52:03.835364 13351 layer_factory.hpp:74] Creating layer inception_3b/relu_pool_proj
I0105 10:52:03.835371 13351 net.cpp:96] Creating Layer inception_3b/relu_pool_proj
I0105 10:52:03.835377 13351 net.cpp:459] inception_3b/relu_pool_proj <- inception_3b/pool_proj_bn
I0105 10:52:03.835384 13351 net.cpp:404] inception_3b/relu_pool_proj -> inception_3b/pool_proj_bn (in-place)
I0105 10:52:03.835391 13351 net.cpp:160] Setting up inception_3b/relu_pool_proj
I0105 10:52:03.835397 13351 net.cpp:167] Top shape: 72 64 28 28 (3612672)
I0105 10:52:03.835402 13351 layer_factory.hpp:74] Creating layer inception_3b/output
I0105 10:52:03.835409 13351 net.cpp:96] Creating Layer inception_3b/output
I0105 10:52:03.835414 13351 net.cpp:459] inception_3b/output <- inception_3b/1x1_bn
I0105 10:52:03.835420 13351 net.cpp:459] inception_3b/output <- inception_3b/3x3_bn
I0105 10:52:03.835427 13351 net.cpp:459] inception_3b/output <- inception_3b/double_3x3_2_bn
I0105 10:52:03.835433 13351 net.cpp:459] inception_3b/output <- inception_3b/pool_proj_bn
I0105 10:52:03.835443 13351 net.cpp:415] inception_3b/output -> inception_3b/output
I0105 10:52:03.835454 13351 net.cpp:160] Setting up inception_3b/output
I0105 10:52:03.835464 13351 net.cpp:167] Top shape: 72 320 28 28 (18063360)
I0105 10:52:03.835469 13351 layer_factory.hpp:74] Creating layer inception_3b/output_inception_3b/output_0_split
I0105 10:52:03.835485 13351 net.cpp:96] Creating Layer inception_3b/output_inception_3b/output_0_split
I0105 10:52:03.835492 13351 net.cpp:459] inception_3b/output_inception_3b/output_0_split <- inception_3b/output
I0105 10:52:03.835500 13351 net.cpp:415] inception_3b/output_inception_3b/output_0_split -> inception_3b/output_inception_3b/output_0_split_0
I0105 10:52:03.835507 13351 net.cpp:415] inception_3b/output_inception_3b/output_0_split -> inception_3b/output_inception_3b/output_0_split_1
I0105 10:52:03.835515 13351 net.cpp:415] inception_3b/output_inception_3b/output_0_split -> inception_3b/output_inception_3b/output_0_split_2
I0105 10:52:03.835522 13351 net.cpp:160] Setting up inception_3b/output_inception_3b/output_0_split
I0105 10:52:03.835531 13351 net.cpp:167] Top shape: 72 320 28 28 (18063360)
I0105 10:52:03.835537 13351 net.cpp:167] Top shape: 72 320 28 28 (18063360)
I0105 10:52:03.835543 13351 net.cpp:167] Top shape: 72 320 28 28 (18063360)
I0105 10:52:03.835548 13351 layer_factory.hpp:74] Creating layer inception_3c/3x3_reduce
I0105 10:52:03.835557 13351 net.cpp:96] Creating Layer inception_3c/3x3_reduce
I0105 10:52:03.835564 13351 net.cpp:459] inception_3c/3x3_reduce <- inception_3b/output_inception_3b/output_0_split_0
I0105 10:52:03.835574 13351 net.cpp:415] inception_3c/3x3_reduce -> inception_3c/3x3_reduce
I0105 10:52:03.835583 13351 net.cpp:160] Setting up inception_3c/3x3_reduce
I0105 10:52:03.835919 13351 net.cpp:167] Top shape: 72 128 28 28 (7225344)
I0105 10:52:03.835933 13351 layer_factory.hpp:74] Creating layer inception_3c/3x3_reduce_bn
I0105 10:52:03.835938 13351 layer_factory.cpp:177] Layer inception_3c/3x3_reduce_bn is using CAFFE engine.
I0105 10:52:03.835947 13351 net.cpp:96] Creating Layer inception_3c/3x3_reduce_bn
I0105 10:52:03.835953 13351 net.cpp:459] inception_3c/3x3_reduce_bn <- inception_3c/3x3_reduce
I0105 10:52:03.835960 13351 net.cpp:415] inception_3c/3x3_reduce_bn -> inception_3c/3x3_reduce_bn
I0105 10:52:03.835969 13351 net.cpp:160] Setting up inception_3c/3x3_reduce_bn
I0105 10:52:03.835991 13351 net.cpp:167] Top shape: 72 128 28 28 (7225344)
I0105 10:52:03.836002 13351 layer_factory.hpp:74] Creating layer inception_3c/relu_3x3_reduce
I0105 10:52:03.836015 13351 net.cpp:96] Creating Layer inception_3c/relu_3x3_reduce
I0105 10:52:03.836021 13351 net.cpp:459] inception_3c/relu_3x3_reduce <- inception_3c/3x3_reduce_bn
I0105 10:52:03.836028 13351 net.cpp:404] inception_3c/relu_3x3_reduce -> inception_3c/3x3_reduce_bn (in-place)
I0105 10:52:03.836035 13351 net.cpp:160] Setting up inception_3c/relu_3x3_reduce
I0105 10:52:03.836042 13351 net.cpp:167] Top shape: 72 128 28 28 (7225344)
I0105 10:52:03.836048 13351 layer_factory.hpp:74] Creating layer inception_3c/3x3
I0105 10:52:03.836056 13351 net.cpp:96] Creating Layer inception_3c/3x3
I0105 10:52:03.836061 13351 net.cpp:459] inception_3c/3x3 <- inception_3c/3x3_reduce_bn
I0105 10:52:03.836072 13351 net.cpp:415] inception_3c/3x3 -> inception_3c/3x3
I0105 10:52:03.836081 13351 net.cpp:160] Setting up inception_3c/3x3
I0105 10:52:03.837476 13351 net.cpp:167] Top shape: 72 160 14 14 (2257920)
I0105 10:52:03.837488 13351 layer_factory.hpp:74] Creating layer inception_3c/3x3_bn
I0105 10:52:03.837496 13351 layer_factory.cpp:177] Layer inception_3c/3x3_bn is using CAFFE engine.
I0105 10:52:03.837505 13351 net.cpp:96] Creating Layer inception_3c/3x3_bn
I0105 10:52:03.837510 13351 net.cpp:459] inception_3c/3x3_bn <- inception_3c/3x3
I0105 10:52:03.837517 13351 net.cpp:415] inception_3c/3x3_bn -> inception_3c/3x3_bn
I0105 10:52:03.837527 13351 net.cpp:160] Setting up inception_3c/3x3_bn
I0105 10:52:03.837545 13351 net.cpp:167] Top shape: 72 160 14 14 (2257920)
I0105 10:52:03.837556 13351 layer_factory.hpp:74] Creating layer inception_3c/relu_3x3
I0105 10:52:03.837594 13351 net.cpp:96] Creating Layer inception_3c/relu_3x3
I0105 10:52:03.837605 13351 net.cpp:459] inception_3c/relu_3x3 <- inception_3c/3x3_bn
I0105 10:52:03.837613 13351 net.cpp:404] inception_3c/relu_3x3 -> inception_3c/3x3_bn (in-place)
I0105 10:52:03.837621 13351 net.cpp:160] Setting up inception_3c/relu_3x3
I0105 10:52:03.837628 13351 net.cpp:167] Top shape: 72 160 14 14 (2257920)
I0105 10:52:03.837633 13351 layer_factory.hpp:74] Creating layer inception_3c/double_3x3_reduce
I0105 10:52:03.837643 13351 net.cpp:96] Creating Layer inception_3c/double_3x3_reduce
I0105 10:52:03.837649 13351 net.cpp:459] inception_3c/double_3x3_reduce <- inception_3b/output_inception_3b/output_0_split_1
I0105 10:52:03.837656 13351 net.cpp:415] inception_3c/double_3x3_reduce -> inception_3c/double_3x3_reduce
I0105 10:52:03.837666 13351 net.cpp:160] Setting up inception_3c/double_3x3_reduce
I0105 10:52:03.837858 13351 net.cpp:167] Top shape: 72 64 28 28 (3612672)
I0105 10:52:03.837872 13351 layer_factory.hpp:74] Creating layer inception_3c/double_3x3_reduce_bn
I0105 10:52:03.837877 13351 layer_factory.cpp:177] Layer inception_3c/double_3x3_reduce_bn is using CAFFE engine.
I0105 10:52:03.837888 13351 net.cpp:96] Creating Layer inception_3c/double_3x3_reduce_bn
I0105 10:52:03.837893 13351 net.cpp:459] inception_3c/double_3x3_reduce_bn <- inception_3c/double_3x3_reduce
I0105 10:52:03.837903 13351 net.cpp:415] inception_3c/double_3x3_reduce_bn -> inception_3c/double_3x3_reduce_bn
I0105 10:52:03.837911 13351 net.cpp:160] Setting up inception_3c/double_3x3_reduce_bn
I0105 10:52:03.837929 13351 net.cpp:167] Top shape: 72 64 28 28 (3612672)
I0105 10:52:03.837939 13351 layer_factory.hpp:74] Creating layer inception_3c/relu_double_3x3_reduce
I0105 10:52:03.837947 13351 net.cpp:96] Creating Layer inception_3c/relu_double_3x3_reduce
I0105 10:52:03.837952 13351 net.cpp:459] inception_3c/relu_double_3x3_reduce <- inception_3c/double_3x3_reduce_bn
I0105 10:52:03.837959 13351 net.cpp:404] inception_3c/relu_double_3x3_reduce -> inception_3c/double_3x3_reduce_bn (in-place)
I0105 10:52:03.837965 13351 net.cpp:160] Setting up inception_3c/relu_double_3x3_reduce
I0105 10:52:03.837971 13351 net.cpp:167] Top shape: 72 64 28 28 (3612672)
I0105 10:52:03.837976 13351 layer_factory.hpp:74] Creating layer inception_3c/double_3x3_1
I0105 10:52:03.837985 13351 net.cpp:96] Creating Layer inception_3c/double_3x3_1
I0105 10:52:03.837990 13351 net.cpp:459] inception_3c/double_3x3_1 <- inception_3c/double_3x3_reduce_bn
I0105 10:52:03.837997 13351 net.cpp:415] inception_3c/double_3x3_1 -> inception_3c/double_3x3_1
I0105 10:52:03.838006 13351 net.cpp:160] Setting up inception_3c/double_3x3_1
I0105 10:52:03.838449 13351 net.cpp:167] Top shape: 72 96 28 28 (5419008)
I0105 10:52:03.838459 13351 layer_factory.hpp:74] Creating layer inception_3c/double_3x3_1_bn
I0105 10:52:03.838464 13351 layer_factory.cpp:177] Layer inception_3c/double_3x3_1_bn is using CAFFE engine.
I0105 10:52:03.838472 13351 net.cpp:96] Creating Layer inception_3c/double_3x3_1_bn
I0105 10:52:03.838479 13351 net.cpp:459] inception_3c/double_3x3_1_bn <- inception_3c/double_3x3_1
I0105 10:52:03.838485 13351 net.cpp:415] inception_3c/double_3x3_1_bn -> inception_3c/double_3x3_1_bn
I0105 10:52:03.838492 13351 net.cpp:160] Setting up inception_3c/double_3x3_1_bn
I0105 10:52:03.838511 13351 net.cpp:167] Top shape: 72 96 28 28 (5419008)
I0105 10:52:03.838521 13351 layer_factory.hpp:74] Creating layer inception_3c/relu_double_3x3_1
I0105 10:52:03.838527 13351 net.cpp:96] Creating Layer inception_3c/relu_double_3x3_1
I0105 10:52:03.838532 13351 net.cpp:459] inception_3c/relu_double_3x3_1 <- inception_3c/double_3x3_1_bn
I0105 10:52:03.838541 13351 net.cpp:404] inception_3c/relu_double_3x3_1 -> inception_3c/double_3x3_1_bn (in-place)
I0105 10:52:03.838546 13351 net.cpp:160] Setting up inception_3c/relu_double_3x3_1
I0105 10:52:03.838552 13351 net.cpp:167] Top shape: 72 96 28 28 (5419008)
I0105 10:52:03.838557 13351 layer_factory.hpp:74] Creating layer inception_3c/double_3x3_2
I0105 10:52:03.838570 13351 net.cpp:96] Creating Layer inception_3c/double_3x3_2
I0105 10:52:03.838580 13351 net.cpp:459] inception_3c/double_3x3_2 <- inception_3c/double_3x3_1_bn
I0105 10:52:03.838589 13351 net.cpp:415] inception_3c/double_3x3_2 -> inception_3c/double_3x3_2
I0105 10:52:03.838598 13351 net.cpp:160] Setting up inception_3c/double_3x3_2
I0105 10:52:03.839265 13351 net.cpp:167] Top shape: 72 96 14 14 (1354752)
I0105 10:52:03.839275 13351 layer_factory.hpp:74] Creating layer inception_3c/double_3x3_2_bn
I0105 10:52:03.839280 13351 layer_factory.cpp:177] Layer inception_3c/double_3x3_2_bn is using CAFFE engine.
I0105 10:52:03.839287 13351 net.cpp:96] Creating Layer inception_3c/double_3x3_2_bn
I0105 10:52:03.839293 13351 net.cpp:459] inception_3c/double_3x3_2_bn <- inception_3c/double_3x3_2
I0105 10:52:03.839299 13351 net.cpp:415] inception_3c/double_3x3_2_bn -> inception_3c/double_3x3_2_bn
I0105 10:52:03.839306 13351 net.cpp:160] Setting up inception_3c/double_3x3_2_bn
I0105 10:52:03.839323 13351 net.cpp:167] Top shape: 72 96 14 14 (1354752)
I0105 10:52:03.839345 13351 layer_factory.hpp:74] Creating layer inception_3c/relu_double_3x3_2
I0105 10:52:03.839352 13351 net.cpp:96] Creating Layer inception_3c/relu_double_3x3_2
I0105 10:52:03.839357 13351 net.cpp:459] inception_3c/relu_double_3x3_2 <- inception_3c/double_3x3_2_bn
I0105 10:52:03.839362 13351 net.cpp:404] inception_3c/relu_double_3x3_2 -> inception_3c/double_3x3_2_bn (in-place)
I0105 10:52:03.839368 13351 net.cpp:160] Setting up inception_3c/relu_double_3x3_2
I0105 10:52:03.839375 13351 net.cpp:167] Top shape: 72 96 14 14 (1354752)
I0105 10:52:03.839380 13351 layer_factory.hpp:74] Creating layer inception_3c/pool
I0105 10:52:03.839385 13351 net.cpp:96] Creating Layer inception_3c/pool
I0105 10:52:03.839390 13351 net.cpp:459] inception_3c/pool <- inception_3b/output_inception_3b/output_0_split_2
I0105 10:52:03.839396 13351 net.cpp:415] inception_3c/pool -> inception_3c/pool
I0105 10:52:03.839409 13351 net.cpp:160] Setting up inception_3c/pool
I0105 10:52:03.839418 13351 net.cpp:167] Top shape: 72 320 14 14 (4515840)
I0105 10:52:03.839423 13351 layer_factory.hpp:74] Creating layer inception_3c/output
I0105 10:52:03.839431 13351 net.cpp:96] Creating Layer inception_3c/output
I0105 10:52:03.839435 13351 net.cpp:459] inception_3c/output <- inception_3c/3x3_bn
I0105 10:52:03.839442 13351 net.cpp:459] inception_3c/output <- inception_3c/double_3x3_2_bn
I0105 10:52:03.839447 13351 net.cpp:459] inception_3c/output <- inception_3c/pool
I0105 10:52:03.839453 13351 net.cpp:415] inception_3c/output -> inception_3c/output
I0105 10:52:03.839460 13351 net.cpp:160] Setting up inception_3c/output
I0105 10:52:03.839468 13351 net.cpp:167] Top shape: 72 576 14 14 (8128512)
I0105 10:52:03.839473 13351 layer_factory.hpp:74] Creating layer inception_3c/output_inception_3c/output_0_split
I0105 10:52:03.839480 13351 net.cpp:96] Creating Layer inception_3c/output_inception_3c/output_0_split
I0105 10:52:03.839485 13351 net.cpp:459] inception_3c/output_inception_3c/output_0_split <- inception_3c/output
I0105 10:52:03.839493 13351 net.cpp:415] inception_3c/output_inception_3c/output_0_split -> inception_3c/output_inception_3c/output_0_split_0
I0105 10:52:03.839501 13351 net.cpp:415] inception_3c/output_inception_3c/output_0_split -> inception_3c/output_inception_3c/output_0_split_1
I0105 10:52:03.839509 13351 net.cpp:415] inception_3c/output_inception_3c/output_0_split -> inception_3c/output_inception_3c/output_0_split_2
I0105 10:52:03.839516 13351 net.cpp:415] inception_3c/output_inception_3c/output_0_split -> inception_3c/output_inception_3c/output_0_split_3
I0105 10:52:03.839524 13351 net.cpp:160] Setting up inception_3c/output_inception_3c/output_0_split
I0105 10:52:03.839531 13351 net.cpp:167] Top shape: 72 576 14 14 (8128512)
I0105 10:52:03.839537 13351 net.cpp:167] Top shape: 72 576 14 14 (8128512)
I0105 10:52:03.839542 13351 net.cpp:167] Top shape: 72 576 14 14 (8128512)
I0105 10:52:03.839548 13351 net.cpp:167] Top shape: 72 576 14 14 (8128512)
I0105 10:52:03.839556 13351 layer_factory.hpp:74] Creating layer inception_4a/1x1
I0105 10:52:03.839570 13351 net.cpp:96] Creating Layer inception_4a/1x1
I0105 10:52:03.839574 13351 net.cpp:459] inception_4a/1x1 <- inception_3c/output_inception_3c/output_0_split_0
I0105 10:52:03.839583 13351 net.cpp:415] inception_4a/1x1 -> inception_4a/1x1
I0105 10:52:03.839591 13351 net.cpp:160] Setting up inception_4a/1x1
I0105 10:52:03.840620 13351 net.cpp:167] Top shape: 72 224 14 14 (3161088)
I0105 10:52:03.840631 13351 layer_factory.hpp:74] Creating layer inception_4a/1x1_bn
I0105 10:52:03.840636 13351 layer_factory.cpp:177] Layer inception_4a/1x1_bn is using CAFFE engine.
I0105 10:52:03.840643 13351 net.cpp:96] Creating Layer inception_4a/1x1_bn
I0105 10:52:03.840648 13351 net.cpp:459] inception_4a/1x1_bn <- inception_4a/1x1
I0105 10:52:03.840656 13351 net.cpp:415] inception_4a/1x1_bn -> inception_4a/1x1_bn
I0105 10:52:03.840664 13351 net.cpp:160] Setting up inception_4a/1x1_bn
I0105 10:52:03.840682 13351 net.cpp:167] Top shape: 72 224 14 14 (3161088)
I0105 10:52:03.840690 13351 layer_factory.hpp:74] Creating layer inception_4a/relu_1x1
I0105 10:52:03.840698 13351 net.cpp:96] Creating Layer inception_4a/relu_1x1
I0105 10:52:03.840701 13351 net.cpp:459] inception_4a/relu_1x1 <- inception_4a/1x1_bn
I0105 10:52:03.840708 13351 net.cpp:404] inception_4a/relu_1x1 -> inception_4a/1x1_bn (in-place)
I0105 10:52:03.840713 13351 net.cpp:160] Setting up inception_4a/relu_1x1
I0105 10:52:03.840718 13351 net.cpp:167] Top shape: 72 224 14 14 (3161088)
I0105 10:52:03.840723 13351 layer_factory.hpp:74] Creating layer inception_4a/3x3_reduce
I0105 10:52:03.840729 13351 net.cpp:96] Creating Layer inception_4a/3x3_reduce
I0105 10:52:03.840734 13351 net.cpp:459] inception_4a/3x3_reduce <- inception_3c/output_inception_3c/output_0_split_1
I0105 10:52:03.840744 13351 net.cpp:415] inception_4a/3x3_reduce -> inception_4a/3x3_reduce
I0105 10:52:03.840751 13351 net.cpp:160] Setting up inception_4a/3x3_reduce
I0105 10:52:03.841053 13351 net.cpp:167] Top shape: 72 64 14 14 (903168)
I0105 10:52:03.841063 13351 layer_factory.hpp:74] Creating layer inception_4a/3x3_reduce_bn
I0105 10:52:03.841068 13351 layer_factory.cpp:177] Layer inception_4a/3x3_reduce_bn is using CAFFE engine.
I0105 10:52:03.841075 13351 net.cpp:96] Creating Layer inception_4a/3x3_reduce_bn
I0105 10:52:03.841081 13351 net.cpp:459] inception_4a/3x3_reduce_bn <- inception_4a/3x3_reduce
I0105 10:52:03.841089 13351 net.cpp:415] inception_4a/3x3_reduce_bn -> inception_4a/3x3_reduce_bn
I0105 10:52:03.841096 13351 net.cpp:160] Setting up inception_4a/3x3_reduce_bn
I0105 10:52:03.841114 13351 net.cpp:167] Top shape: 72 64 14 14 (903168)
I0105 10:52:03.841123 13351 layer_factory.hpp:74] Creating layer inception_4a/relu_3x3_reduce
I0105 10:52:03.841130 13351 net.cpp:96] Creating Layer inception_4a/relu_3x3_reduce
I0105 10:52:03.841135 13351 net.cpp:459] inception_4a/relu_3x3_reduce <- inception_4a/3x3_reduce_bn
I0105 10:52:03.841140 13351 net.cpp:404] inception_4a/relu_3x3_reduce -> inception_4a/3x3_reduce_bn (in-place)
I0105 10:52:03.841147 13351 net.cpp:160] Setting up inception_4a/relu_3x3_reduce
I0105 10:52:03.841153 13351 net.cpp:167] Top shape: 72 64 14 14 (903168)
I0105 10:52:03.841158 13351 layer_factory.hpp:74] Creating layer inception_4a/3x3
I0105 10:52:03.841166 13351 net.cpp:96] Creating Layer inception_4a/3x3
I0105 10:52:03.841171 13351 net.cpp:459] inception_4a/3x3 <- inception_4a/3x3_reduce_bn
I0105 10:52:03.841179 13351 net.cpp:415] inception_4a/3x3 -> inception_4a/3x3
I0105 10:52:03.841187 13351 net.cpp:160] Setting up inception_4a/3x3
I0105 10:52:03.841634 13351 net.cpp:167] Top shape: 72 96 14 14 (1354752)
I0105 10:52:03.841642 13351 layer_factory.hpp:74] Creating layer inception_4a/3x3_bn
I0105 10:52:03.841648 13351 layer_factory.cpp:177] Layer inception_4a/3x3_bn is using CAFFE engine.
I0105 10:52:03.841658 13351 net.cpp:96] Creating Layer inception_4a/3x3_bn
I0105 10:52:03.841663 13351 net.cpp:459] inception_4a/3x3_bn <- inception_4a/3x3
I0105 10:52:03.841671 13351 net.cpp:415] inception_4a/3x3_bn -> inception_4a/3x3_bn
I0105 10:52:03.841682 13351 net.cpp:160] Setting up inception_4a/3x3_bn
I0105 10:52:03.841704 13351 net.cpp:167] Top shape: 72 96 14 14 (1354752)
I0105 10:52:03.841712 13351 layer_factory.hpp:74] Creating layer inception_4a/relu_3x3
I0105 10:52:03.841719 13351 net.cpp:96] Creating Layer inception_4a/relu_3x3
I0105 10:52:03.841724 13351 net.cpp:459] inception_4a/relu_3x3 <- inception_4a/3x3_bn
I0105 10:52:03.841730 13351 net.cpp:404] inception_4a/relu_3x3 -> inception_4a/3x3_bn (in-place)
I0105 10:52:03.841737 13351 net.cpp:160] Setting up inception_4a/relu_3x3
I0105 10:52:03.841742 13351 net.cpp:167] Top shape: 72 96 14 14 (1354752)
I0105 10:52:03.841747 13351 layer_factory.hpp:74] Creating layer inception_4a/double_3x3_reduce
I0105 10:52:03.841754 13351 net.cpp:96] Creating Layer inception_4a/double_3x3_reduce
I0105 10:52:03.841758 13351 net.cpp:459] inception_4a/double_3x3_reduce <- inception_3c/output_inception_3c/output_0_split_2
I0105 10:52:03.841764 13351 net.cpp:415] inception_4a/double_3x3_reduce -> inception_4a/double_3x3_reduce
I0105 10:52:03.841771 13351 net.cpp:160] Setting up inception_4a/double_3x3_reduce
I0105 10:52:03.842222 13351 net.cpp:167] Top shape: 72 96 14 14 (1354752)
I0105 10:52:03.842236 13351 layer_factory.hpp:74] Creating layer inception_4a/double_3x3_reduce_bn
I0105 10:52:03.842242 13351 layer_factory.cpp:177] Layer inception_4a/double_3x3_reduce_bn is using CAFFE engine.
I0105 10:52:03.842248 13351 net.cpp:96] Creating Layer inception_4a/double_3x3_reduce_bn
I0105 10:52:03.842253 13351 net.cpp:459] inception_4a/double_3x3_reduce_bn <- inception_4a/double_3x3_reduce
I0105 10:52:03.842262 13351 net.cpp:415] inception_4a/double_3x3_reduce_bn -> inception_4a/double_3x3_reduce_bn
I0105 10:52:03.842269 13351 net.cpp:160] Setting up inception_4a/double_3x3_reduce_bn
I0105 10:52:03.842283 13351 net.cpp:167] Top shape: 72 96 14 14 (1354752)
I0105 10:52:03.842290 13351 layer_factory.hpp:74] Creating layer inception_4a/relu_double_3x3_reduce
I0105 10:52:03.842295 13351 net.cpp:96] Creating Layer inception_4a/relu_double_3x3_reduce
I0105 10:52:03.842298 13351 net.cpp:459] inception_4a/relu_double_3x3_reduce <- inception_4a/double_3x3_reduce_bn
I0105 10:52:03.842303 13351 net.cpp:404] inception_4a/relu_double_3x3_reduce -> inception_4a/double_3x3_reduce_bn (in-place)
I0105 10:52:03.842306 13351 net.cpp:160] Setting up inception_4a/relu_double_3x3_reduce
I0105 10:52:03.842310 13351 net.cpp:167] Top shape: 72 96 14 14 (1354752)
I0105 10:52:03.842314 13351 layer_factory.hpp:74] Creating layer inception_4a/double_3x3_1
I0105 10:52:03.842319 13351 net.cpp:96] Creating Layer inception_4a/double_3x3_1
I0105 10:52:03.842321 13351 net.cpp:459] inception_4a/double_3x3_1 <- inception_4a/double_3x3_reduce_bn
I0105 10:52:03.842326 13351 net.cpp:415] inception_4a/double_3x3_1 -> inception_4a/double_3x3_1
I0105 10:52:03.842331 13351 net.cpp:160] Setting up inception_4a/double_3x3_1
I0105 10:52:03.842819 13351 net.cpp:167] Top shape: 72 128 14 14 (1806336)
I0105 10:52:03.842825 13351 layer_factory.hpp:74] Creating layer inception_4a/double_3x3_1_bn
I0105 10:52:03.842828 13351 layer_factory.cpp:177] Layer inception_4a/double_3x3_1_bn is using CAFFE engine.
I0105 10:52:03.842833 13351 net.cpp:96] Creating Layer inception_4a/double_3x3_1_bn
I0105 10:52:03.842838 13351 net.cpp:459] inception_4a/double_3x3_1_bn <- inception_4a/double_3x3_1
I0105 10:52:03.842842 13351 net.cpp:415] inception_4a/double_3x3_1_bn -> inception_4a/double_3x3_1_bn
I0105 10:52:03.842847 13351 net.cpp:160] Setting up inception_4a/double_3x3_1_bn
I0105 10:52:03.842857 13351 net.cpp:167] Top shape: 72 128 14 14 (1806336)
I0105 10:52:03.842864 13351 layer_factory.hpp:74] Creating layer inception_4a/relu_double_3x3_1
I0105 10:52:03.842869 13351 net.cpp:96] Creating Layer inception_4a/relu_double_3x3_1
I0105 10:52:03.842871 13351 net.cpp:459] inception_4a/relu_double_3x3_1 <- inception_4a/double_3x3_1_bn
I0105 10:52:03.842875 13351 net.cpp:404] inception_4a/relu_double_3x3_1 -> inception_4a/double_3x3_1_bn (in-place)
I0105 10:52:03.842882 13351 net.cpp:160] Setting up inception_4a/relu_double_3x3_1
I0105 10:52:03.842890 13351 net.cpp:167] Top shape: 72 128 14 14 (1806336)
I0105 10:52:03.842893 13351 layer_factory.hpp:74] Creating layer inception_4a/double_3x3_2
I0105 10:52:03.842900 13351 net.cpp:96] Creating Layer inception_4a/double_3x3_2
I0105 10:52:03.842902 13351 net.cpp:459] inception_4a/double_3x3_2 <- inception_4a/double_3x3_1_bn
I0105 10:52:03.842906 13351 net.cpp:415] inception_4a/double_3x3_2 -> inception_4a/double_3x3_2
I0105 10:52:03.842911 13351 net.cpp:160] Setting up inception_4a/double_3x3_2
I0105 10:52:03.843551 13351 net.cpp:167] Top shape: 72 128 14 14 (1806336)
I0105 10:52:03.843557 13351 layer_factory.hpp:74] Creating layer inception_4a/double_3x3_2_bn
I0105 10:52:03.843561 13351 layer_factory.cpp:177] Layer inception_4a/double_3x3_2_bn is using CAFFE engine.
I0105 10:52:03.843566 13351 net.cpp:96] Creating Layer inception_4a/double_3x3_2_bn
I0105 10:52:03.843569 13351 net.cpp:459] inception_4a/double_3x3_2_bn <- inception_4a/double_3x3_2
I0105 10:52:03.843574 13351 net.cpp:415] inception_4a/double_3x3_2_bn -> inception_4a/double_3x3_2_bn
I0105 10:52:03.843578 13351 net.cpp:160] Setting up inception_4a/double_3x3_2_bn
I0105 10:52:03.843588 13351 net.cpp:167] Top shape: 72 128 14 14 (1806336)
I0105 10:52:03.843593 13351 layer_factory.hpp:74] Creating layer inception_4a/relu_double_3x3_2
I0105 10:52:03.843598 13351 net.cpp:96] Creating Layer inception_4a/relu_double_3x3_2
I0105 10:52:03.843602 13351 net.cpp:459] inception_4a/relu_double_3x3_2 <- inception_4a/double_3x3_2_bn
I0105 10:52:03.843605 13351 net.cpp:404] inception_4a/relu_double_3x3_2 -> inception_4a/double_3x3_2_bn (in-place)
I0105 10:52:03.843610 13351 net.cpp:160] Setting up inception_4a/relu_double_3x3_2
I0105 10:52:03.843613 13351 net.cpp:167] Top shape: 72 128 14 14 (1806336)
I0105 10:52:03.843616 13351 layer_factory.hpp:74] Creating layer inception_4a/pool
I0105 10:52:03.843621 13351 net.cpp:96] Creating Layer inception_4a/pool
I0105 10:52:03.843623 13351 net.cpp:459] inception_4a/pool <- inception_3c/output_inception_3c/output_0_split_3
I0105 10:52:03.843628 13351 net.cpp:415] inception_4a/pool -> inception_4a/pool
I0105 10:52:03.843632 13351 net.cpp:160] Setting up inception_4a/pool
I0105 10:52:03.843637 13351 net.cpp:167] Top shape: 72 576 14 14 (8128512)
I0105 10:52:03.843641 13351 layer_factory.hpp:74] Creating layer inception_4a/pool_proj
I0105 10:52:03.843646 13351 net.cpp:96] Creating Layer inception_4a/pool_proj
I0105 10:52:03.843648 13351 net.cpp:459] inception_4a/pool_proj <- inception_4a/pool
I0105 10:52:03.843653 13351 net.cpp:415] inception_4a/pool_proj -> inception_4a/pool_proj
I0105 10:52:03.843658 13351 net.cpp:160] Setting up inception_4a/pool_proj
I0105 10:52:03.843983 13351 net.cpp:167] Top shape: 72 128 14 14 (1806336)
I0105 10:52:03.843989 13351 layer_factory.hpp:74] Creating layer inception_4a/pool_proj_bn
I0105 10:52:03.843992 13351 layer_factory.cpp:177] Layer inception_4a/pool_proj_bn is using CAFFE engine.
I0105 10:52:03.843997 13351 net.cpp:96] Creating Layer inception_4a/pool_proj_bn
I0105 10:52:03.844002 13351 net.cpp:459] inception_4a/pool_proj_bn <- inception_4a/pool_proj
I0105 10:52:03.844005 13351 net.cpp:415] inception_4a/pool_proj_bn -> inception_4a/pool_proj_bn
I0105 10:52:03.844009 13351 net.cpp:160] Setting up inception_4a/pool_proj_bn
I0105 10:52:03.844019 13351 net.cpp:167] Top shape: 72 128 14 14 (1806336)
I0105 10:52:03.844025 13351 layer_factory.hpp:74] Creating layer inception_4a/relu_pool_proj
I0105 10:52:03.844030 13351 net.cpp:96] Creating Layer inception_4a/relu_pool_proj
I0105 10:52:03.844033 13351 net.cpp:459] inception_4a/relu_pool_proj <- inception_4a/pool_proj_bn
I0105 10:52:03.844038 13351 net.cpp:404] inception_4a/relu_pool_proj -> inception_4a/pool_proj_bn (in-place)
I0105 10:52:03.844040 13351 net.cpp:160] Setting up inception_4a/relu_pool_proj
I0105 10:52:03.844044 13351 net.cpp:167] Top shape: 72 128 14 14 (1806336)
I0105 10:52:03.844048 13351 layer_factory.hpp:74] Creating layer inception_4a/output
I0105 10:52:03.844056 13351 net.cpp:96] Creating Layer inception_4a/output
I0105 10:52:03.844063 13351 net.cpp:459] inception_4a/output <- inception_4a/1x1_bn
I0105 10:52:03.844066 13351 net.cpp:459] inception_4a/output <- inception_4a/3x3_bn
I0105 10:52:03.844070 13351 net.cpp:459] inception_4a/output <- inception_4a/double_3x3_2_bn
I0105 10:52:03.844074 13351 net.cpp:459] inception_4a/output <- inception_4a/pool_proj_bn
I0105 10:52:03.844077 13351 net.cpp:415] inception_4a/output -> inception_4a/output
I0105 10:52:03.844081 13351 net.cpp:160] Setting up inception_4a/output
I0105 10:52:03.844086 13351 net.cpp:167] Top shape: 72 576 14 14 (8128512)
I0105 10:52:03.844089 13351 layer_factory.hpp:74] Creating layer inception_4a/output_inception_4a/output_0_split
I0105 10:52:03.844094 13351 net.cpp:96] Creating Layer inception_4a/output_inception_4a/output_0_split
I0105 10:52:03.844097 13351 net.cpp:459] inception_4a/output_inception_4a/output_0_split <- inception_4a/output
I0105 10:52:03.844101 13351 net.cpp:415] inception_4a/output_inception_4a/output_0_split -> inception_4a/output_inception_4a/output_0_split_0
I0105 10:52:03.844106 13351 net.cpp:415] inception_4a/output_inception_4a/output_0_split -> inception_4a/output_inception_4a/output_0_split_1
I0105 10:52:03.844111 13351 net.cpp:415] inception_4a/output_inception_4a/output_0_split -> inception_4a/output_inception_4a/output_0_split_2
I0105 10:52:03.844116 13351 net.cpp:415] inception_4a/output_inception_4a/output_0_split -> inception_4a/output_inception_4a/output_0_split_3
I0105 10:52:03.844120 13351 net.cpp:160] Setting up inception_4a/output_inception_4a/output_0_split
I0105 10:52:03.844125 13351 net.cpp:167] Top shape: 72 576 14 14 (8128512)
I0105 10:52:03.844128 13351 net.cpp:167] Top shape: 72 576 14 14 (8128512)
I0105 10:52:03.844131 13351 net.cpp:167] Top shape: 72 576 14 14 (8128512)
I0105 10:52:03.844135 13351 net.cpp:167] Top shape: 72 576 14 14 (8128512)
I0105 10:52:03.844137 13351 layer_factory.hpp:74] Creating layer inception_4b/1x1
I0105 10:52:03.844142 13351 net.cpp:96] Creating Layer inception_4b/1x1
I0105 10:52:03.844146 13351 net.cpp:459] inception_4b/1x1 <- inception_4a/output_inception_4a/output_0_split_0
I0105 10:52:03.844151 13351 net.cpp:415] inception_4b/1x1 -> inception_4b/1x1
I0105 10:52:03.844156 13351 net.cpp:160] Setting up inception_4b/1x1
I0105 10:52:03.844638 13351 net.cpp:167] Top shape: 72 192 14 14 (2709504)
I0105 10:52:03.844645 13351 layer_factory.hpp:74] Creating layer inception_4b/1x1_bn
I0105 10:52:03.844648 13351 layer_factory.cpp:177] Layer inception_4b/1x1_bn is using CAFFE engine.
I0105 10:52:03.844653 13351 net.cpp:96] Creating Layer inception_4b/1x1_bn
I0105 10:52:03.844656 13351 net.cpp:459] inception_4b/1x1_bn <- inception_4b/1x1
I0105 10:52:03.844663 13351 net.cpp:415] inception_4b/1x1_bn -> inception_4b/1x1_bn
I0105 10:52:03.844668 13351 net.cpp:160] Setting up inception_4b/1x1_bn
I0105 10:52:03.844678 13351 net.cpp:167] Top shape: 72 192 14 14 (2709504)
I0105 10:52:03.844684 13351 layer_factory.hpp:74] Creating layer inception_4b/relu_1x1
I0105 10:52:03.844688 13351 net.cpp:96] Creating Layer inception_4b/relu_1x1
I0105 10:52:03.844692 13351 net.cpp:459] inception_4b/relu_1x1 <- inception_4b/1x1_bn
I0105 10:52:03.844696 13351 net.cpp:404] inception_4b/relu_1x1 -> inception_4b/1x1_bn (in-place)
I0105 10:52:03.844701 13351 net.cpp:160] Setting up inception_4b/relu_1x1
I0105 10:52:03.844703 13351 net.cpp:167] Top shape: 72 192 14 14 (2709504)
I0105 10:52:03.844707 13351 layer_factory.hpp:74] Creating layer inception_4b/3x3_reduce
I0105 10:52:03.844712 13351 net.cpp:96] Creating Layer inception_4b/3x3_reduce
I0105 10:52:03.844714 13351 net.cpp:459] inception_4b/3x3_reduce <- inception_4a/output_inception_4a/output_0_split_1
I0105 10:52:03.844719 13351 net.cpp:415] inception_4b/3x3_reduce -> inception_4b/3x3_reduce
I0105 10:52:03.844724 13351 net.cpp:160] Setting up inception_4b/3x3_reduce
I0105 10:52:03.844967 13351 net.cpp:167] Top shape: 72 96 14 14 (1354752)
I0105 10:52:03.844974 13351 layer_factory.hpp:74] Creating layer inception_4b/3x3_reduce_bn
I0105 10:52:03.844981 13351 layer_factory.cpp:177] Layer inception_4b/3x3_reduce_bn is using CAFFE engine.
I0105 10:52:03.844986 13351 net.cpp:96] Creating Layer inception_4b/3x3_reduce_bn
I0105 10:52:03.844990 13351 net.cpp:459] inception_4b/3x3_reduce_bn <- inception_4b/3x3_reduce
I0105 10:52:03.844995 13351 net.cpp:415] inception_4b/3x3_reduce_bn -> inception_4b/3x3_reduce_bn
I0105 10:52:03.845000 13351 net.cpp:160] Setting up inception_4b/3x3_reduce_bn
I0105 10:52:03.845011 13351 net.cpp:167] Top shape: 72 96 14 14 (1354752)
I0105 10:52:03.845016 13351 layer_factory.hpp:74] Creating layer inception_4b/relu_3x3_reduce
I0105 10:52:03.845021 13351 net.cpp:96] Creating Layer inception_4b/relu_3x3_reduce
I0105 10:52:03.845024 13351 net.cpp:459] inception_4b/relu_3x3_reduce <- inception_4b/3x3_reduce_bn
I0105 10:52:03.845027 13351 net.cpp:404] inception_4b/relu_3x3_reduce -> inception_4b/3x3_reduce_bn (in-place)
I0105 10:52:03.845031 13351 net.cpp:160] Setting up inception_4b/relu_3x3_reduce
I0105 10:52:03.845036 13351 net.cpp:167] Top shape: 72 96 14 14 (1354752)
I0105 10:52:03.845038 13351 layer_factory.hpp:74] Creating layer inception_4b/3x3
I0105 10:52:03.845044 13351 net.cpp:96] Creating Layer inception_4b/3x3
I0105 10:52:03.845047 13351 net.cpp:459] inception_4b/3x3 <- inception_4b/3x3_reduce_bn
I0105 10:52:03.845052 13351 net.cpp:415] inception_4b/3x3 -> inception_4b/3x3
I0105 10:52:03.845057 13351 net.cpp:160] Setting up inception_4b/3x3
I0105 10:52:03.845535 13351 net.cpp:167] Top shape: 72 128 14 14 (1806336)
I0105 10:52:03.845541 13351 layer_factory.hpp:74] Creating layer inception_4b/3x3_bn
I0105 10:52:03.845544 13351 layer_factory.cpp:177] Layer inception_4b/3x3_bn is using CAFFE engine.
I0105 10:52:03.845549 13351 net.cpp:96] Creating Layer inception_4b/3x3_bn
I0105 10:52:03.845552 13351 net.cpp:459] inception_4b/3x3_bn <- inception_4b/3x3
I0105 10:52:03.845557 13351 net.cpp:415] inception_4b/3x3_bn -> inception_4b/3x3_bn
I0105 10:52:03.845562 13351 net.cpp:160] Setting up inception_4b/3x3_bn
I0105 10:52:03.845572 13351 net.cpp:167] Top shape: 72 128 14 14 (1806336)
I0105 10:52:03.845578 13351 layer_factory.hpp:74] Creating layer inception_4b/relu_3x3
I0105 10:52:03.845582 13351 net.cpp:96] Creating Layer inception_4b/relu_3x3
I0105 10:52:03.845585 13351 net.cpp:459] inception_4b/relu_3x3 <- inception_4b/3x3_bn
I0105 10:52:03.845590 13351 net.cpp:404] inception_4b/relu_3x3 -> inception_4b/3x3_bn (in-place)
I0105 10:52:03.845594 13351 net.cpp:160] Setting up inception_4b/relu_3x3
I0105 10:52:03.845598 13351 net.cpp:167] Top shape: 72 128 14 14 (1806336)
I0105 10:52:03.845602 13351 layer_factory.hpp:74] Creating layer inception_4b/double_3x3_reduce
I0105 10:52:03.845605 13351 net.cpp:96] Creating Layer inception_4b/double_3x3_reduce
I0105 10:52:03.845609 13351 net.cpp:459] inception_4b/double_3x3_reduce <- inception_4a/output_inception_4a/output_0_split_2
I0105 10:52:03.845614 13351 net.cpp:415] inception_4b/double_3x3_reduce -> inception_4b/double_3x3_reduce
I0105 10:52:03.845618 13351 net.cpp:160] Setting up inception_4b/double_3x3_reduce
I0105 10:52:03.845870 13351 net.cpp:167] Top shape: 72 96 14 14 (1354752)
I0105 10:52:03.845877 13351 layer_factory.hpp:74] Creating layer inception_4b/double_3x3_reduce_bn
I0105 10:52:03.845881 13351 layer_factory.cpp:177] Layer inception_4b/double_3x3_reduce_bn is using CAFFE engine.
I0105 10:52:03.845885 13351 net.cpp:96] Creating Layer inception_4b/double_3x3_reduce_bn
I0105 10:52:03.845888 13351 net.cpp:459] inception_4b/double_3x3_reduce_bn <- inception_4b/double_3x3_reduce
I0105 10:52:03.845895 13351 net.cpp:415] inception_4b/double_3x3_reduce_bn -> inception_4b/double_3x3_reduce_bn
I0105 10:52:03.845899 13351 net.cpp:160] Setting up inception_4b/double_3x3_reduce_bn
I0105 10:52:03.845911 13351 net.cpp:167] Top shape: 72 96 14 14 (1354752)
I0105 10:52:03.845916 13351 layer_factory.hpp:74] Creating layer inception_4b/relu_double_3x3_reduce
I0105 10:52:03.845921 13351 net.cpp:96] Creating Layer inception_4b/relu_double_3x3_reduce
I0105 10:52:03.845926 13351 net.cpp:459] inception_4b/relu_double_3x3_reduce <- inception_4b/double_3x3_reduce_bn
I0105 10:52:03.845933 13351 net.cpp:404] inception_4b/relu_double_3x3_reduce -> inception_4b/double_3x3_reduce_bn (in-place)
I0105 10:52:03.845937 13351 net.cpp:160] Setting up inception_4b/relu_double_3x3_reduce
I0105 10:52:03.845942 13351 net.cpp:167] Top shape: 72 96 14 14 (1354752)
I0105 10:52:03.845944 13351 layer_factory.hpp:74] Creating layer inception_4b/double_3x3_1
I0105 10:52:03.845950 13351 net.cpp:96] Creating Layer inception_4b/double_3x3_1
I0105 10:52:03.845953 13351 net.cpp:459] inception_4b/double_3x3_1 <- inception_4b/double_3x3_reduce_bn
I0105 10:52:03.845957 13351 net.cpp:415] inception_4b/double_3x3_1 -> inception_4b/double_3x3_1
I0105 10:52:03.845962 13351 net.cpp:160] Setting up inception_4b/double_3x3_1
I0105 10:52:03.846444 13351 net.cpp:167] Top shape: 72 128 14 14 (1806336)
I0105 10:52:03.846451 13351 layer_factory.hpp:74] Creating layer inception_4b/double_3x3_1_bn
I0105 10:52:03.846453 13351 layer_factory.cpp:177] Layer inception_4b/double_3x3_1_bn is using CAFFE engine.
I0105 10:52:03.846459 13351 net.cpp:96] Creating Layer inception_4b/double_3x3_1_bn
I0105 10:52:03.846462 13351 net.cpp:459] inception_4b/double_3x3_1_bn <- inception_4b/double_3x3_1
I0105 10:52:03.846467 13351 net.cpp:415] inception_4b/double_3x3_1_bn -> inception_4b/double_3x3_1_bn
I0105 10:52:03.846472 13351 net.cpp:160] Setting up inception_4b/double_3x3_1_bn
I0105 10:52:03.846482 13351 net.cpp:167] Top shape: 72 128 14 14 (1806336)
I0105 10:52:03.846488 13351 layer_factory.hpp:74] Creating layer inception_4b/relu_double_3x3_1
I0105 10:52:03.846493 13351 net.cpp:96] Creating Layer inception_4b/relu_double_3x3_1
I0105 10:52:03.846495 13351 net.cpp:459] inception_4b/relu_double_3x3_1 <- inception_4b/double_3x3_1_bn
I0105 10:52:03.846499 13351 net.cpp:404] inception_4b/relu_double_3x3_1 -> inception_4b/double_3x3_1_bn (in-place)
I0105 10:52:03.846503 13351 net.cpp:160] Setting up inception_4b/relu_double_3x3_1
I0105 10:52:03.846508 13351 net.cpp:167] Top shape: 72 128 14 14 (1806336)
I0105 10:52:03.846509 13351 layer_factory.hpp:74] Creating layer inception_4b/double_3x3_2
I0105 10:52:03.846515 13351 net.cpp:96] Creating Layer inception_4b/double_3x3_2
I0105 10:52:03.846518 13351 net.cpp:459] inception_4b/double_3x3_2 <- inception_4b/double_3x3_1_bn
I0105 10:52:03.846523 13351 net.cpp:415] inception_4b/double_3x3_2 -> inception_4b/double_3x3_2
I0105 10:52:03.846526 13351 net.cpp:160] Setting up inception_4b/double_3x3_2
I0105 10:52:03.847163 13351 net.cpp:167] Top shape: 72 128 14 14 (1806336)
I0105 10:52:03.847169 13351 layer_factory.hpp:74] Creating layer inception_4b/double_3x3_2_bn
I0105 10:52:03.847172 13351 layer_factory.cpp:177] Layer inception_4b/double_3x3_2_bn is using CAFFE engine.
I0105 10:52:03.847177 13351 net.cpp:96] Creating Layer inception_4b/double_3x3_2_bn
I0105 10:52:03.847179 13351 net.cpp:459] inception_4b/double_3x3_2_bn <- inception_4b/double_3x3_2
I0105 10:52:03.847184 13351 net.cpp:415] inception_4b/double_3x3_2_bn -> inception_4b/double_3x3_2_bn
I0105 10:52:03.847189 13351 net.cpp:160] Setting up inception_4b/double_3x3_2_bn
I0105 10:52:03.847199 13351 net.cpp:167] Top shape: 72 128 14 14 (1806336)
I0105 10:52:03.847205 13351 layer_factory.hpp:74] Creating layer inception_4b/relu_double_3x3_2
I0105 10:52:03.847209 13351 net.cpp:96] Creating Layer inception_4b/relu_double_3x3_2
I0105 10:52:03.847213 13351 net.cpp:459] inception_4b/relu_double_3x3_2 <- inception_4b/double_3x3_2_bn
I0105 10:52:03.847216 13351 net.cpp:404] inception_4b/relu_double_3x3_2 -> inception_4b/double_3x3_2_bn (in-place)
I0105 10:52:03.847220 13351 net.cpp:160] Setting up inception_4b/relu_double_3x3_2
I0105 10:52:03.847223 13351 net.cpp:167] Top shape: 72 128 14 14 (1806336)
I0105 10:52:03.847226 13351 layer_factory.hpp:74] Creating layer inception_4b/pool
I0105 10:52:03.847230 13351 net.cpp:96] Creating Layer inception_4b/pool
I0105 10:52:03.847234 13351 net.cpp:459] inception_4b/pool <- inception_4a/output_inception_4a/output_0_split_3
I0105 10:52:03.847244 13351 net.cpp:415] inception_4b/pool -> inception_4b/pool
I0105 10:52:03.847252 13351 net.cpp:160] Setting up inception_4b/pool
I0105 10:52:03.847256 13351 net.cpp:167] Top shape: 72 576 14 14 (8128512)
I0105 10:52:03.847260 13351 layer_factory.hpp:74] Creating layer inception_4b/pool_proj
I0105 10:52:03.847265 13351 net.cpp:96] Creating Layer inception_4b/pool_proj
I0105 10:52:03.847270 13351 net.cpp:459] inception_4b/pool_proj <- inception_4b/pool
I0105 10:52:03.847273 13351 net.cpp:415] inception_4b/pool_proj -> inception_4b/pool_proj
I0105 10:52:03.847277 13351 net.cpp:160] Setting up inception_4b/pool_proj
I0105 10:52:03.847602 13351 net.cpp:167] Top shape: 72 128 14 14 (1806336)
I0105 10:52:03.847609 13351 layer_factory.hpp:74] Creating layer inception_4b/pool_proj_bn
I0105 10:52:03.847611 13351 layer_factory.cpp:177] Layer inception_4b/pool_proj_bn is using CAFFE engine.
I0105 10:52:03.847615 13351 net.cpp:96] Creating Layer inception_4b/pool_proj_bn
I0105 10:52:03.847620 13351 net.cpp:459] inception_4b/pool_proj_bn <- inception_4b/pool_proj
I0105 10:52:03.847625 13351 net.cpp:415] inception_4b/pool_proj_bn -> inception_4b/pool_proj_bn
I0105 10:52:03.847628 13351 net.cpp:160] Setting up inception_4b/pool_proj_bn
I0105 10:52:03.847640 13351 net.cpp:167] Top shape: 72 128 14 14 (1806336)
I0105 10:52:03.847645 13351 layer_factory.hpp:74] Creating layer inception_4b/relu_pool_proj
I0105 10:52:03.847650 13351 net.cpp:96] Creating Layer inception_4b/relu_pool_proj
I0105 10:52:03.847652 13351 net.cpp:459] inception_4b/relu_pool_proj <- inception_4b/pool_proj_bn
I0105 10:52:03.847656 13351 net.cpp:404] inception_4b/relu_pool_proj -> inception_4b/pool_proj_bn (in-place)
I0105 10:52:03.847659 13351 net.cpp:160] Setting up inception_4b/relu_pool_proj
I0105 10:52:03.847663 13351 net.cpp:167] Top shape: 72 128 14 14 (1806336)
I0105 10:52:03.847666 13351 layer_factory.hpp:74] Creating layer inception_4b/output
I0105 10:52:03.847671 13351 net.cpp:96] Creating Layer inception_4b/output
I0105 10:52:03.847673 13351 net.cpp:459] inception_4b/output <- inception_4b/1x1_bn
I0105 10:52:03.847677 13351 net.cpp:459] inception_4b/output <- inception_4b/3x3_bn
I0105 10:52:03.847681 13351 net.cpp:459] inception_4b/output <- inception_4b/double_3x3_2_bn
I0105 10:52:03.847684 13351 net.cpp:459] inception_4b/output <- inception_4b/pool_proj_bn
I0105 10:52:03.847688 13351 net.cpp:415] inception_4b/output -> inception_4b/output
I0105 10:52:03.847692 13351 net.cpp:160] Setting up inception_4b/output
I0105 10:52:03.847697 13351 net.cpp:167] Top shape: 72 576 14 14 (8128512)
I0105 10:52:03.847700 13351 layer_factory.hpp:74] Creating layer inception_4b/output_inception_4b/output_0_split
I0105 10:52:03.847705 13351 net.cpp:96] Creating Layer inception_4b/output_inception_4b/output_0_split
I0105 10:52:03.847708 13351 net.cpp:459] inception_4b/output_inception_4b/output_0_split <- inception_4b/output
I0105 10:52:03.847712 13351 net.cpp:415] inception_4b/output_inception_4b/output_0_split -> inception_4b/output_inception_4b/output_0_split_0
I0105 10:52:03.847718 13351 net.cpp:415] inception_4b/output_inception_4b/output_0_split -> inception_4b/output_inception_4b/output_0_split_1
I0105 10:52:03.847723 13351 net.cpp:415] inception_4b/output_inception_4b/output_0_split -> inception_4b/output_inception_4b/output_0_split_2
I0105 10:52:03.847726 13351 net.cpp:415] inception_4b/output_inception_4b/output_0_split -> inception_4b/output_inception_4b/output_0_split_3
I0105 10:52:03.847730 13351 net.cpp:160] Setting up inception_4b/output_inception_4b/output_0_split
I0105 10:52:03.847735 13351 net.cpp:167] Top shape: 72 576 14 14 (8128512)
I0105 10:52:03.847738 13351 net.cpp:167] Top shape: 72 576 14 14 (8128512)
I0105 10:52:03.847743 13351 net.cpp:167] Top shape: 72 576 14 14 (8128512)
I0105 10:52:03.847745 13351 net.cpp:167] Top shape: 72 576 14 14 (8128512)
I0105 10:52:03.847748 13351 layer_factory.hpp:74] Creating layer inception_4c/1x1
I0105 10:52:03.847761 13351 net.cpp:96] Creating Layer inception_4c/1x1
I0105 10:52:03.847767 13351 net.cpp:459] inception_4c/1x1 <- inception_4b/output_inception_4b/output_0_split_0
I0105 10:52:03.847777 13351 net.cpp:415] inception_4c/1x1 -> inception_4c/1x1
I0105 10:52:03.847782 13351 net.cpp:160] Setting up inception_4c/1x1
I0105 10:52:03.848186 13351 net.cpp:167] Top shape: 72 160 14 14 (2257920)
I0105 10:52:03.848191 13351 layer_factory.hpp:74] Creating layer inception_4c/1x1_bn
I0105 10:52:03.848196 13351 layer_factory.cpp:177] Layer inception_4c/1x1_bn is using CAFFE engine.
I0105 10:52:03.848201 13351 net.cpp:96] Creating Layer inception_4c/1x1_bn
I0105 10:52:03.848203 13351 net.cpp:459] inception_4c/1x1_bn <- inception_4c/1x1
I0105 10:52:03.848207 13351 net.cpp:415] inception_4c/1x1_bn -> inception_4c/1x1_bn
I0105 10:52:03.848213 13351 net.cpp:160] Setting up inception_4c/1x1_bn
I0105 10:52:03.848223 13351 net.cpp:167] Top shape: 72 160 14 14 (2257920)
I0105 10:52:03.848229 13351 layer_factory.hpp:74] Creating layer inception_4c/relu_1x1
I0105 10:52:03.848234 13351 net.cpp:96] Creating Layer inception_4c/relu_1x1
I0105 10:52:03.848237 13351 net.cpp:459] inception_4c/relu_1x1 <- inception_4c/1x1_bn
I0105 10:52:03.848242 13351 net.cpp:404] inception_4c/relu_1x1 -> inception_4c/1x1_bn (in-place)
I0105 10:52:03.848245 13351 net.cpp:160] Setting up inception_4c/relu_1x1
I0105 10:52:03.848249 13351 net.cpp:167] Top shape: 72 160 14 14 (2257920)
I0105 10:52:03.848253 13351 layer_factory.hpp:74] Creating layer inception_4c/3x3_reduce
I0105 10:52:03.848258 13351 net.cpp:96] Creating Layer inception_4c/3x3_reduce
I0105 10:52:03.848260 13351 net.cpp:459] inception_4c/3x3_reduce <- inception_4b/output_inception_4b/output_0_split_1
I0105 10:52:03.848264 13351 net.cpp:415] inception_4c/3x3_reduce -> inception_4c/3x3_reduce
I0105 10:52:03.848269 13351 net.cpp:160] Setting up inception_4c/3x3_reduce
I0105 10:52:03.848593 13351 net.cpp:167] Top shape: 72 128 14 14 (1806336)
I0105 10:52:03.848599 13351 layer_factory.hpp:74] Creating layer inception_4c/3x3_reduce_bn
I0105 10:52:03.848603 13351 layer_factory.cpp:177] Layer inception_4c/3x3_reduce_bn is using CAFFE engine.
I0105 10:52:03.848608 13351 net.cpp:96] Creating Layer inception_4c/3x3_reduce_bn
I0105 10:52:03.848610 13351 net.cpp:459] inception_4c/3x3_reduce_bn <- inception_4c/3x3_reduce
I0105 10:52:03.848615 13351 net.cpp:415] inception_4c/3x3_reduce_bn -> inception_4c/3x3_reduce_bn
I0105 10:52:03.848620 13351 net.cpp:160] Setting up inception_4c/3x3_reduce_bn
I0105 10:52:03.848631 13351 net.cpp:167] Top shape: 72 128 14 14 (1806336)
I0105 10:52:03.848636 13351 layer_factory.hpp:74] Creating layer inception_4c/relu_3x3_reduce
I0105 10:52:03.848641 13351 net.cpp:96] Creating Layer inception_4c/relu_3x3_reduce
I0105 10:52:03.848644 13351 net.cpp:459] inception_4c/relu_3x3_reduce <- inception_4c/3x3_reduce_bn
I0105 10:52:03.848649 13351 net.cpp:404] inception_4c/relu_3x3_reduce -> inception_4c/3x3_reduce_bn (in-place)
I0105 10:52:03.848652 13351 net.cpp:160] Setting up inception_4c/relu_3x3_reduce
I0105 10:52:03.848655 13351 net.cpp:167] Top shape: 72 128 14 14 (1806336)
I0105 10:52:03.848659 13351 layer_factory.hpp:74] Creating layer inception_4c/3x3
I0105 10:52:03.848664 13351 net.cpp:96] Creating Layer inception_4c/3x3
I0105 10:52:03.848667 13351 net.cpp:459] inception_4c/3x3 <- inception_4c/3x3_reduce_bn
I0105 10:52:03.848672 13351 net.cpp:415] inception_4c/3x3 -> inception_4c/3x3
I0105 10:52:03.848676 13351 net.cpp:160] Setting up inception_4c/3x3
I0105 10:52:03.849474 13351 net.cpp:167] Top shape: 72 160 14 14 (2257920)
I0105 10:52:03.849480 13351 layer_factory.hpp:74] Creating layer inception_4c/3x3_bn
I0105 10:52:03.849483 13351 layer_factory.cpp:177] Layer inception_4c/3x3_bn is using CAFFE engine.
I0105 10:52:03.849490 13351 net.cpp:96] Creating Layer inception_4c/3x3_bn
I0105 10:52:03.849493 13351 net.cpp:459] inception_4c/3x3_bn <- inception_4c/3x3
I0105 10:52:03.849499 13351 net.cpp:415] inception_4c/3x3_bn -> inception_4c/3x3_bn
I0105 10:52:03.849504 13351 net.cpp:160] Setting up inception_4c/3x3_bn
I0105 10:52:03.849514 13351 net.cpp:167] Top shape: 72 160 14 14 (2257920)
I0105 10:52:03.849522 13351 layer_factory.hpp:74] Creating layer inception_4c/relu_3x3
I0105 10:52:03.849529 13351 net.cpp:96] Creating Layer inception_4c/relu_3x3
I0105 10:52:03.849534 13351 net.cpp:459] inception_4c/relu_3x3 <- inception_4c/3x3_bn
I0105 10:52:03.849537 13351 net.cpp:404] inception_4c/relu_3x3 -> inception_4c/3x3_bn (in-place)
I0105 10:52:03.849541 13351 net.cpp:160] Setting up inception_4c/relu_3x3
I0105 10:52:03.849545 13351 net.cpp:167] Top shape: 72 160 14 14 (2257920)
I0105 10:52:03.849548 13351 layer_factory.hpp:74] Creating layer inception_4c/double_3x3_reduce
I0105 10:52:03.849552 13351 net.cpp:96] Creating Layer inception_4c/double_3x3_reduce
I0105 10:52:03.849555 13351 net.cpp:459] inception_4c/double_3x3_reduce <- inception_4b/output_inception_4b/output_0_split_2
I0105 10:52:03.849560 13351 net.cpp:415] inception_4c/double_3x3_reduce -> inception_4c/double_3x3_reduce
I0105 10:52:03.849565 13351 net.cpp:160] Setting up inception_4c/double_3x3_reduce
I0105 10:52:03.849900 13351 net.cpp:167] Top shape: 72 128 14 14 (1806336)
I0105 10:52:03.849906 13351 layer_factory.hpp:74] Creating layer inception_4c/double_3x3_reduce_bn
I0105 10:52:03.849910 13351 layer_factory.cpp:177] Layer inception_4c/double_3x3_reduce_bn is using CAFFE engine.
I0105 10:52:03.849915 13351 net.cpp:96] Creating Layer inception_4c/double_3x3_reduce_bn
I0105 10:52:03.849917 13351 net.cpp:459] inception_4c/double_3x3_reduce_bn <- inception_4c/double_3x3_reduce
I0105 10:52:03.849922 13351 net.cpp:415] inception_4c/double_3x3_reduce_bn -> inception_4c/double_3x3_reduce_bn
I0105 10:52:03.849927 13351 net.cpp:160] Setting up inception_4c/double_3x3_reduce_bn
I0105 10:52:03.849938 13351 net.cpp:167] Top shape: 72 128 14 14 (1806336)
I0105 10:52:03.849944 13351 layer_factory.hpp:74] Creating layer inception_4c/relu_double_3x3_reduce
I0105 10:52:03.849948 13351 net.cpp:96] Creating Layer inception_4c/relu_double_3x3_reduce
I0105 10:52:03.849951 13351 net.cpp:459] inception_4c/relu_double_3x3_reduce <- inception_4c/double_3x3_reduce_bn
I0105 10:52:03.849956 13351 net.cpp:404] inception_4c/relu_double_3x3_reduce -> inception_4c/double_3x3_reduce_bn (in-place)
I0105 10:52:03.849959 13351 net.cpp:160] Setting up inception_4c/relu_double_3x3_reduce
I0105 10:52:03.849963 13351 net.cpp:167] Top shape: 72 128 14 14 (1806336)
I0105 10:52:03.849967 13351 layer_factory.hpp:74] Creating layer inception_4c/double_3x3_1
I0105 10:52:03.849972 13351 net.cpp:96] Creating Layer inception_4c/double_3x3_1
I0105 10:52:03.849974 13351 net.cpp:459] inception_4c/double_3x3_1 <- inception_4c/double_3x3_reduce_bn
I0105 10:52:03.849978 13351 net.cpp:415] inception_4c/double_3x3_1 -> inception_4c/double_3x3_1
I0105 10:52:03.849983 13351 net.cpp:160] Setting up inception_4c/double_3x3_1
I0105 10:52:03.850785 13351 net.cpp:167] Top shape: 72 160 14 14 (2257920)
I0105 10:52:03.850791 13351 layer_factory.hpp:74] Creating layer inception_4c/double_3x3_1_bn
I0105 10:52:03.850795 13351 layer_factory.cpp:177] Layer inception_4c/double_3x3_1_bn is using CAFFE engine.
I0105 10:52:03.850800 13351 net.cpp:96] Creating Layer inception_4c/double_3x3_1_bn
I0105 10:52:03.850802 13351 net.cpp:459] inception_4c/double_3x3_1_bn <- inception_4c/double_3x3_1
I0105 10:52:03.850806 13351 net.cpp:415] inception_4c/double_3x3_1_bn -> inception_4c/double_3x3_1_bn
I0105 10:52:03.850811 13351 net.cpp:160] Setting up inception_4c/double_3x3_1_bn
I0105 10:52:03.850821 13351 net.cpp:167] Top shape: 72 160 14 14 (2257920)
I0105 10:52:03.850826 13351 layer_factory.hpp:74] Creating layer inception_4c/relu_double_3x3_1
I0105 10:52:03.850832 13351 net.cpp:96] Creating Layer inception_4c/relu_double_3x3_1
I0105 10:52:03.850836 13351 net.cpp:459] inception_4c/relu_double_3x3_1 <- inception_4c/double_3x3_1_bn
I0105 10:52:03.850839 13351 net.cpp:404] inception_4c/relu_double_3x3_1 -> inception_4c/double_3x3_1_bn (in-place)
I0105 10:52:03.850843 13351 net.cpp:160] Setting up inception_4c/relu_double_3x3_1
I0105 10:52:03.850847 13351 net.cpp:167] Top shape: 72 160 14 14 (2257920)
I0105 10:52:03.850852 13351 layer_factory.hpp:74] Creating layer inception_4c/double_3x3_2
I0105 10:52:03.850862 13351 net.cpp:96] Creating Layer inception_4c/double_3x3_2
I0105 10:52:03.850864 13351 net.cpp:459] inception_4c/double_3x3_2 <- inception_4c/double_3x3_1_bn
I0105 10:52:03.850869 13351 net.cpp:415] inception_4c/double_3x3_2 -> inception_4c/double_3x3_2
I0105 10:52:03.850873 13351 net.cpp:160] Setting up inception_4c/double_3x3_2
I0105 10:52:03.851869 13351 net.cpp:167] Top shape: 72 160 14 14 (2257920)
I0105 10:52:03.851876 13351 layer_factory.hpp:74] Creating layer inception_4c/double_3x3_2_bn
I0105 10:52:03.851879 13351 layer_factory.cpp:177] Layer inception_4c/double_3x3_2_bn is using CAFFE engine.
I0105 10:52:03.851886 13351 net.cpp:96] Creating Layer inception_4c/double_3x3_2_bn
I0105 10:52:03.851889 13351 net.cpp:459] inception_4c/double_3x3_2_bn <- inception_4c/double_3x3_2
I0105 10:52:03.851894 13351 net.cpp:415] inception_4c/double_3x3_2_bn -> inception_4c/double_3x3_2_bn
I0105 10:52:03.851899 13351 net.cpp:160] Setting up inception_4c/double_3x3_2_bn
I0105 10:52:03.851909 13351 net.cpp:167] Top shape: 72 160 14 14 (2257920)
I0105 10:52:03.851914 13351 layer_factory.hpp:74] Creating layer inception_4c/relu_double_3x3_2
I0105 10:52:03.851919 13351 net.cpp:96] Creating Layer inception_4c/relu_double_3x3_2
I0105 10:52:03.851922 13351 net.cpp:459] inception_4c/relu_double_3x3_2 <- inception_4c/double_3x3_2_bn
I0105 10:52:03.851927 13351 net.cpp:404] inception_4c/relu_double_3x3_2 -> inception_4c/double_3x3_2_bn (in-place)
I0105 10:52:03.851932 13351 net.cpp:160] Setting up inception_4c/relu_double_3x3_2
I0105 10:52:03.851934 13351 net.cpp:167] Top shape: 72 160 14 14 (2257920)
I0105 10:52:03.851938 13351 layer_factory.hpp:74] Creating layer inception_4c/pool
I0105 10:52:03.851941 13351 net.cpp:96] Creating Layer inception_4c/pool
I0105 10:52:03.851944 13351 net.cpp:459] inception_4c/pool <- inception_4b/output_inception_4b/output_0_split_3
I0105 10:52:03.851948 13351 net.cpp:415] inception_4c/pool -> inception_4c/pool
I0105 10:52:03.851953 13351 net.cpp:160] Setting up inception_4c/pool
I0105 10:52:03.851958 13351 net.cpp:167] Top shape: 72 576 14 14 (8128512)
I0105 10:52:03.851960 13351 layer_factory.hpp:74] Creating layer inception_4c/pool_proj
I0105 10:52:03.851966 13351 net.cpp:96] Creating Layer inception_4c/pool_proj
I0105 10:52:03.851969 13351 net.cpp:459] inception_4c/pool_proj <- inception_4c/pool
I0105 10:52:03.851974 13351 net.cpp:415] inception_4c/pool_proj -> inception_4c/pool_proj
I0105 10:52:03.851979 13351 net.cpp:160] Setting up inception_4c/pool_proj
I0105 10:52:03.852300 13351 net.cpp:167] Top shape: 72 128 14 14 (1806336)
I0105 10:52:03.852306 13351 layer_factory.hpp:74] Creating layer inception_4c/pool_proj_bn
I0105 10:52:03.852310 13351 layer_factory.cpp:177] Layer inception_4c/pool_proj_bn is using CAFFE engine.
I0105 10:52:03.852315 13351 net.cpp:96] Creating Layer inception_4c/pool_proj_bn
I0105 10:52:03.852319 13351 net.cpp:459] inception_4c/pool_proj_bn <- inception_4c/pool_proj
I0105 10:52:03.852324 13351 net.cpp:415] inception_4c/pool_proj_bn -> inception_4c/pool_proj_bn
I0105 10:52:03.852329 13351 net.cpp:160] Setting up inception_4c/pool_proj_bn
I0105 10:52:03.852339 13351 net.cpp:167] Top shape: 72 128 14 14 (1806336)
I0105 10:52:03.852361 13351 layer_factory.hpp:74] Creating layer inception_4c/relu_pool_proj
I0105 10:52:03.852366 13351 net.cpp:96] Creating Layer inception_4c/relu_pool_proj
I0105 10:52:03.852370 13351 net.cpp:459] inception_4c/relu_pool_proj <- inception_4c/pool_proj_bn
I0105 10:52:03.852373 13351 net.cpp:404] inception_4c/relu_pool_proj -> inception_4c/pool_proj_bn (in-place)
I0105 10:52:03.852377 13351 net.cpp:160] Setting up inception_4c/relu_pool_proj
I0105 10:52:03.852381 13351 net.cpp:167] Top shape: 72 128 14 14 (1806336)
I0105 10:52:03.852385 13351 layer_factory.hpp:74] Creating layer inception_4c/output
I0105 10:52:03.852390 13351 net.cpp:96] Creating Layer inception_4c/output
I0105 10:52:03.852392 13351 net.cpp:459] inception_4c/output <- inception_4c/1x1_bn
I0105 10:52:03.852398 13351 net.cpp:459] inception_4c/output <- inception_4c/3x3_bn
I0105 10:52:03.852404 13351 net.cpp:459] inception_4c/output <- inception_4c/double_3x3_2_bn
I0105 10:52:03.852408 13351 net.cpp:459] inception_4c/output <- inception_4c/pool_proj_bn
I0105 10:52:03.852413 13351 net.cpp:415] inception_4c/output -> inception_4c/output
I0105 10:52:03.852418 13351 net.cpp:160] Setting up inception_4c/output
I0105 10:52:03.852423 13351 net.cpp:167] Top shape: 72 608 14 14 (8580096)
I0105 10:52:03.852427 13351 layer_factory.hpp:74] Creating layer inception_4c/output_inception_4c/output_0_split
I0105 10:52:03.852430 13351 net.cpp:96] Creating Layer inception_4c/output_inception_4c/output_0_split
I0105 10:52:03.852433 13351 net.cpp:459] inception_4c/output_inception_4c/output_0_split <- inception_4c/output
I0105 10:52:03.852437 13351 net.cpp:415] inception_4c/output_inception_4c/output_0_split -> inception_4c/output_inception_4c/output_0_split_0
I0105 10:52:03.852442 13351 net.cpp:415] inception_4c/output_inception_4c/output_0_split -> inception_4c/output_inception_4c/output_0_split_1
I0105 10:52:03.852447 13351 net.cpp:415] inception_4c/output_inception_4c/output_0_split -> inception_4c/output_inception_4c/output_0_split_2
I0105 10:52:03.852460 13351 net.cpp:415] inception_4c/output_inception_4c/output_0_split -> inception_4c/output_inception_4c/output_0_split_3
I0105 10:52:03.852464 13351 net.cpp:160] Setting up inception_4c/output_inception_4c/output_0_split
I0105 10:52:03.852469 13351 net.cpp:167] Top shape: 72 608 14 14 (8580096)
I0105 10:52:03.852473 13351 net.cpp:167] Top shape: 72 608 14 14 (8580096)
I0105 10:52:03.852476 13351 net.cpp:167] Top shape: 72 608 14 14 (8580096)
I0105 10:52:03.852480 13351 net.cpp:167] Top shape: 72 608 14 14 (8580096)
I0105 10:52:03.852483 13351 layer_factory.hpp:74] Creating layer inception_4d/1x1
I0105 10:52:03.852488 13351 net.cpp:96] Creating Layer inception_4d/1x1
I0105 10:52:03.852491 13351 net.cpp:459] inception_4d/1x1 <- inception_4c/output_inception_4c/output_0_split_0
I0105 10:52:03.852496 13351 net.cpp:415] inception_4d/1x1 -> inception_4d/1x1
I0105 10:52:03.852501 13351 net.cpp:160] Setting up inception_4d/1x1
I0105 10:52:03.852761 13351 net.cpp:167] Top shape: 72 96 14 14 (1354752)
I0105 10:52:03.852766 13351 layer_factory.hpp:74] Creating layer inception_4d/1x1_bn
I0105 10:52:03.852771 13351 layer_factory.cpp:177] Layer inception_4d/1x1_bn is using CAFFE engine.
I0105 10:52:03.852776 13351 net.cpp:96] Creating Layer inception_4d/1x1_bn
I0105 10:52:03.852778 13351 net.cpp:459] inception_4d/1x1_bn <- inception_4d/1x1
I0105 10:52:03.852783 13351 net.cpp:415] inception_4d/1x1_bn -> inception_4d/1x1_bn
I0105 10:52:03.852788 13351 net.cpp:160] Setting up inception_4d/1x1_bn
I0105 10:52:03.852799 13351 net.cpp:167] Top shape: 72 96 14 14 (1354752)
I0105 10:52:03.852804 13351 layer_factory.hpp:74] Creating layer inception_4d/relu_1x1
I0105 10:52:03.852808 13351 net.cpp:96] Creating Layer inception_4d/relu_1x1
I0105 10:52:03.852812 13351 net.cpp:459] inception_4d/relu_1x1 <- inception_4d/1x1_bn
I0105 10:52:03.852816 13351 net.cpp:404] inception_4d/relu_1x1 -> inception_4d/1x1_bn (in-place)
I0105 10:52:03.852820 13351 net.cpp:160] Setting up inception_4d/relu_1x1
I0105 10:52:03.852824 13351 net.cpp:167] Top shape: 72 96 14 14 (1354752)
I0105 10:52:03.852828 13351 layer_factory.hpp:74] Creating layer inception_4d/3x3_reduce
I0105 10:52:03.852833 13351 net.cpp:96] Creating Layer inception_4d/3x3_reduce
I0105 10:52:03.852835 13351 net.cpp:459] inception_4d/3x3_reduce <- inception_4c/output_inception_4c/output_0_split_1
I0105 10:52:03.852840 13351 net.cpp:415] inception_4d/3x3_reduce -> inception_4d/3x3_reduce
I0105 10:52:03.852845 13351 net.cpp:160] Setting up inception_4d/3x3_reduce
I0105 10:52:03.853188 13351 net.cpp:167] Top shape: 72 128 14 14 (1806336)
I0105 10:52:03.853193 13351 layer_factory.hpp:74] Creating layer inception_4d/3x3_reduce_bn
I0105 10:52:03.853198 13351 layer_factory.cpp:177] Layer inception_4d/3x3_reduce_bn is using CAFFE engine.
I0105 10:52:03.853204 13351 net.cpp:96] Creating Layer inception_4d/3x3_reduce_bn
I0105 10:52:03.853211 13351 net.cpp:459] inception_4d/3x3_reduce_bn <- inception_4d/3x3_reduce
I0105 10:52:03.853215 13351 net.cpp:415] inception_4d/3x3_reduce_bn -> inception_4d/3x3_reduce_bn
I0105 10:52:03.853220 13351 net.cpp:160] Setting up inception_4d/3x3_reduce_bn
I0105 10:52:03.853230 13351 net.cpp:167] Top shape: 72 128 14 14 (1806336)
I0105 10:52:03.853236 13351 layer_factory.hpp:74] Creating layer inception_4d/relu_3x3_reduce
I0105 10:52:03.853241 13351 net.cpp:96] Creating Layer inception_4d/relu_3x3_reduce
I0105 10:52:03.853245 13351 net.cpp:459] inception_4d/relu_3x3_reduce <- inception_4d/3x3_reduce_bn
I0105 10:52:03.853248 13351 net.cpp:404] inception_4d/relu_3x3_reduce -> inception_4d/3x3_reduce_bn (in-place)
I0105 10:52:03.853252 13351 net.cpp:160] Setting up inception_4d/relu_3x3_reduce
I0105 10:52:03.853256 13351 net.cpp:167] Top shape: 72 128 14 14 (1806336)
I0105 10:52:03.853260 13351 layer_factory.hpp:74] Creating layer inception_4d/3x3
I0105 10:52:03.853263 13351 net.cpp:96] Creating Layer inception_4d/3x3
I0105 10:52:03.853266 13351 net.cpp:459] inception_4d/3x3 <- inception_4d/3x3_reduce_bn
I0105 10:52:03.853271 13351 net.cpp:415] inception_4d/3x3 -> inception_4d/3x3
I0105 10:52:03.853276 13351 net.cpp:160] Setting up inception_4d/3x3
I0105 10:52:03.854246 13351 net.cpp:167] Top shape: 72 192 14 14 (2709504)
I0105 10:52:03.854254 13351 layer_factory.hpp:74] Creating layer inception_4d/3x3_bn
I0105 10:52:03.854257 13351 layer_factory.cpp:177] Layer inception_4d/3x3_bn is using CAFFE engine.
I0105 10:52:03.854262 13351 net.cpp:96] Creating Layer inception_4d/3x3_bn
I0105 10:52:03.854266 13351 net.cpp:459] inception_4d/3x3_bn <- inception_4d/3x3
I0105 10:52:03.854271 13351 net.cpp:415] inception_4d/3x3_bn -> inception_4d/3x3_bn
I0105 10:52:03.854276 13351 net.cpp:160] Setting up inception_4d/3x3_bn
I0105 10:52:03.854287 13351 net.cpp:167] Top shape: 72 192 14 14 (2709504)
I0105 10:52:03.854292 13351 layer_factory.hpp:74] Creating layer inception_4d/relu_3x3
I0105 10:52:03.854296 13351 net.cpp:96] Creating Layer inception_4d/relu_3x3
I0105 10:52:03.854300 13351 net.cpp:459] inception_4d/relu_3x3 <- inception_4d/3x3_bn
I0105 10:52:03.854305 13351 net.cpp:404] inception_4d/relu_3x3 -> inception_4d/3x3_bn (in-place)
I0105 10:52:03.854308 13351 net.cpp:160] Setting up inception_4d/relu_3x3
I0105 10:52:03.854312 13351 net.cpp:167] Top shape: 72 192 14 14 (2709504)
I0105 10:52:03.854315 13351 layer_factory.hpp:74] Creating layer inception_4d/double_3x3_reduce
I0105 10:52:03.854321 13351 net.cpp:96] Creating Layer inception_4d/double_3x3_reduce
I0105 10:52:03.854323 13351 net.cpp:459] inception_4d/double_3x3_reduce <- inception_4c/output_inception_4c/output_0_split_2
I0105 10:52:03.854328 13351 net.cpp:415] inception_4d/double_3x3_reduce -> inception_4d/double_3x3_reduce
I0105 10:52:03.854332 13351 net.cpp:160] Setting up inception_4d/double_3x3_reduce
I0105 10:52:03.854758 13351 net.cpp:167] Top shape: 72 160 14 14 (2257920)
I0105 10:52:03.854764 13351 layer_factory.hpp:74] Creating layer inception_4d/double_3x3_reduce_bn
I0105 10:52:03.854768 13351 layer_factory.cpp:177] Layer inception_4d/double_3x3_reduce_bn is using CAFFE engine.
I0105 10:52:03.854773 13351 net.cpp:96] Creating Layer inception_4d/double_3x3_reduce_bn
I0105 10:52:03.854775 13351 net.cpp:459] inception_4d/double_3x3_reduce_bn <- inception_4d/double_3x3_reduce
I0105 10:52:03.854780 13351 net.cpp:415] inception_4d/double_3x3_reduce_bn -> inception_4d/double_3x3_reduce_bn
I0105 10:52:03.854785 13351 net.cpp:160] Setting up inception_4d/double_3x3_reduce_bn
I0105 10:52:03.854796 13351 net.cpp:167] Top shape: 72 160 14 14 (2257920)
I0105 10:52:03.854801 13351 layer_factory.hpp:74] Creating layer inception_4d/relu_double_3x3_reduce
I0105 10:52:03.854806 13351 net.cpp:96] Creating Layer inception_4d/relu_double_3x3_reduce
I0105 10:52:03.854810 13351 net.cpp:459] inception_4d/relu_double_3x3_reduce <- inception_4d/double_3x3_reduce_bn
I0105 10:52:03.854813 13351 net.cpp:404] inception_4d/relu_double_3x3_reduce -> inception_4d/double_3x3_reduce_bn (in-place)
I0105 10:52:03.854823 13351 net.cpp:160] Setting up inception_4d/relu_double_3x3_reduce
I0105 10:52:03.854827 13351 net.cpp:167] Top shape: 72 160 14 14 (2257920)
I0105 10:52:03.854830 13351 layer_factory.hpp:74] Creating layer inception_4d/double_3x3_1
I0105 10:52:03.854835 13351 net.cpp:96] Creating Layer inception_4d/double_3x3_1
I0105 10:52:03.854838 13351 net.cpp:459] inception_4d/double_3x3_1 <- inception_4d/double_3x3_reduce_bn
I0105 10:52:03.854843 13351 net.cpp:415] inception_4d/double_3x3_1 -> inception_4d/double_3x3_1
I0105 10:52:03.854848 13351 net.cpp:160] Setting up inception_4d/double_3x3_1
I0105 10:52:03.856042 13351 net.cpp:167] Top shape: 72 192 14 14 (2709504)
I0105 10:52:03.856048 13351 layer_factory.hpp:74] Creating layer inception_4d/double_3x3_1_bn
I0105 10:52:03.856051 13351 layer_factory.cpp:177] Layer inception_4d/double_3x3_1_bn is using CAFFE engine.
I0105 10:52:03.856057 13351 net.cpp:96] Creating Layer inception_4d/double_3x3_1_bn
I0105 10:52:03.856060 13351 net.cpp:459] inception_4d/double_3x3_1_bn <- inception_4d/double_3x3_1
I0105 10:52:03.856065 13351 net.cpp:415] inception_4d/double_3x3_1_bn -> inception_4d/double_3x3_1_bn
I0105 10:52:03.856070 13351 net.cpp:160] Setting up inception_4d/double_3x3_1_bn
I0105 10:52:03.856081 13351 net.cpp:167] Top shape: 72 192 14 14 (2709504)
I0105 10:52:03.856086 13351 layer_factory.hpp:74] Creating layer inception_4d/relu_double_3x3_1
I0105 10:52:03.856091 13351 net.cpp:96] Creating Layer inception_4d/relu_double_3x3_1
I0105 10:52:03.856093 13351 net.cpp:459] inception_4d/relu_double_3x3_1 <- inception_4d/double_3x3_1_bn
I0105 10:52:03.856097 13351 net.cpp:404] inception_4d/relu_double_3x3_1 -> inception_4d/double_3x3_1_bn (in-place)
I0105 10:52:03.856101 13351 net.cpp:160] Setting up inception_4d/relu_double_3x3_1
I0105 10:52:03.856106 13351 net.cpp:167] Top shape: 72 192 14 14 (2709504)
I0105 10:52:03.856108 13351 layer_factory.hpp:74] Creating layer inception_4d/double_3x3_2
I0105 10:52:03.856112 13351 net.cpp:96] Creating Layer inception_4d/double_3x3_2
I0105 10:52:03.856115 13351 net.cpp:459] inception_4d/double_3x3_2 <- inception_4d/double_3x3_1_bn
I0105 10:52:03.856120 13351 net.cpp:415] inception_4d/double_3x3_2 -> inception_4d/double_3x3_2
I0105 10:52:03.856125 13351 net.cpp:160] Setting up inception_4d/double_3x3_2
I0105 10:52:03.857558 13351 net.cpp:167] Top shape: 72 192 14 14 (2709504)
I0105 10:52:03.857564 13351 layer_factory.hpp:74] Creating layer inception_4d/double_3x3_2_bn
I0105 10:52:03.857568 13351 layer_factory.cpp:177] Layer inception_4d/double_3x3_2_bn is using CAFFE engine.
I0105 10:52:03.857574 13351 net.cpp:96] Creating Layer inception_4d/double_3x3_2_bn
I0105 10:52:03.857579 13351 net.cpp:459] inception_4d/double_3x3_2_bn <- inception_4d/double_3x3_2
I0105 10:52:03.857586 13351 net.cpp:415] inception_4d/double_3x3_2_bn -> inception_4d/double_3x3_2_bn
I0105 10:52:03.857594 13351 net.cpp:160] Setting up inception_4d/double_3x3_2_bn
I0105 10:52:03.857650 13351 net.cpp:167] Top shape: 72 192 14 14 (2709504)
I0105 10:52:03.857668 13351 layer_factory.hpp:74] Creating layer inception_4d/relu_double_3x3_2
I0105 10:52:03.857676 13351 net.cpp:96] Creating Layer inception_4d/relu_double_3x3_2
I0105 10:52:03.857681 13351 net.cpp:459] inception_4d/relu_double_3x3_2 <- inception_4d/double_3x3_2_bn
I0105 10:52:03.857684 13351 net.cpp:404] inception_4d/relu_double_3x3_2 -> inception_4d/double_3x3_2_bn (in-place)
I0105 10:52:03.857691 13351 net.cpp:160] Setting up inception_4d/relu_double_3x3_2
I0105 10:52:03.857694 13351 net.cpp:167] Top shape: 72 192 14 14 (2709504)
I0105 10:52:03.857697 13351 layer_factory.hpp:74] Creating layer inception_4d/pool
I0105 10:52:03.857702 13351 net.cpp:96] Creating Layer inception_4d/pool
I0105 10:52:03.857707 13351 net.cpp:459] inception_4d/pool <- inception_4c/output_inception_4c/output_0_split_3
I0105 10:52:03.857712 13351 net.cpp:415] inception_4d/pool -> inception_4d/pool
I0105 10:52:03.857717 13351 net.cpp:160] Setting up inception_4d/pool
I0105 10:52:03.857725 13351 net.cpp:167] Top shape: 72 608 14 14 (8580096)
I0105 10:52:03.857733 13351 layer_factory.hpp:74] Creating layer inception_4d/pool_proj
I0105 10:52:03.857740 13351 net.cpp:96] Creating Layer inception_4d/pool_proj
I0105 10:52:03.857743 13351 net.cpp:459] inception_4d/pool_proj <- inception_4d/pool
I0105 10:52:03.857748 13351 net.cpp:415] inception_4d/pool_proj -> inception_4d/pool_proj
I0105 10:52:03.857753 13351 net.cpp:160] Setting up inception_4d/pool_proj
I0105 10:52:03.858113 13351 net.cpp:167] Top shape: 72 128 14 14 (1806336)
I0105 10:52:03.858119 13351 layer_factory.hpp:74] Creating layer inception_4d/pool_proj_bn
I0105 10:52:03.858124 13351 layer_factory.cpp:177] Layer inception_4d/pool_proj_bn is using CAFFE engine.
I0105 10:52:03.858129 13351 net.cpp:96] Creating Layer inception_4d/pool_proj_bn
I0105 10:52:03.858132 13351 net.cpp:459] inception_4d/pool_proj_bn <- inception_4d/pool_proj
I0105 10:52:03.858137 13351 net.cpp:415] inception_4d/pool_proj_bn -> inception_4d/pool_proj_bn
I0105 10:52:03.858144 13351 net.cpp:160] Setting up inception_4d/pool_proj_bn
I0105 10:52:03.858155 13351 net.cpp:167] Top shape: 72 128 14 14 (1806336)
I0105 10:52:03.858161 13351 layer_factory.hpp:74] Creating layer inception_4d/relu_pool_proj
I0105 10:52:03.858165 13351 net.cpp:96] Creating Layer inception_4d/relu_pool_proj
I0105 10:52:03.858168 13351 net.cpp:459] inception_4d/relu_pool_proj <- inception_4d/pool_proj_bn
I0105 10:52:03.858172 13351 net.cpp:404] inception_4d/relu_pool_proj -> inception_4d/pool_proj_bn (in-place)
I0105 10:52:03.858176 13351 net.cpp:160] Setting up inception_4d/relu_pool_proj
I0105 10:52:03.858180 13351 net.cpp:167] Top shape: 72 128 14 14 (1806336)
I0105 10:52:03.858183 13351 layer_factory.hpp:74] Creating layer inception_4d/output
I0105 10:52:03.858188 13351 net.cpp:96] Creating Layer inception_4d/output
I0105 10:52:03.858191 13351 net.cpp:459] inception_4d/output <- inception_4d/1x1_bn
I0105 10:52:03.858196 13351 net.cpp:459] inception_4d/output <- inception_4d/3x3_bn
I0105 10:52:03.858198 13351 net.cpp:459] inception_4d/output <- inception_4d/double_3x3_2_bn
I0105 10:52:03.858202 13351 net.cpp:459] inception_4d/output <- inception_4d/pool_proj_bn
I0105 10:52:03.858207 13351 net.cpp:415] inception_4d/output -> inception_4d/output
I0105 10:52:03.858212 13351 net.cpp:160] Setting up inception_4d/output
I0105 10:52:03.858217 13351 net.cpp:167] Top shape: 72 608 14 14 (8580096)
I0105 10:52:03.858220 13351 layer_factory.hpp:74] Creating layer inception_4d/output_inception_4d/output_0_split
I0105 10:52:03.858224 13351 net.cpp:96] Creating Layer inception_4d/output_inception_4d/output_0_split
I0105 10:52:03.858227 13351 net.cpp:459] inception_4d/output_inception_4d/output_0_split <- inception_4d/output
I0105 10:52:03.858232 13351 net.cpp:415] inception_4d/output_inception_4d/output_0_split -> inception_4d/output_inception_4d/output_0_split_0
I0105 10:52:03.858237 13351 net.cpp:415] inception_4d/output_inception_4d/output_0_split -> inception_4d/output_inception_4d/output_0_split_1
I0105 10:52:03.858242 13351 net.cpp:415] inception_4d/output_inception_4d/output_0_split -> inception_4d/output_inception_4d/output_0_split_2
I0105 10:52:03.858247 13351 net.cpp:160] Setting up inception_4d/output_inception_4d/output_0_split
I0105 10:52:03.858252 13351 net.cpp:167] Top shape: 72 608 14 14 (8580096)
I0105 10:52:03.858254 13351 net.cpp:167] Top shape: 72 608 14 14 (8580096)
I0105 10:52:03.858258 13351 net.cpp:167] Top shape: 72 608 14 14 (8580096)
I0105 10:52:03.858260 13351 layer_factory.hpp:74] Creating layer inception_4e/3x3_reduce
I0105 10:52:03.858266 13351 net.cpp:96] Creating Layer inception_4e/3x3_reduce
I0105 10:52:03.858269 13351 net.cpp:459] inception_4e/3x3_reduce <- inception_4d/output_inception_4d/output_0_split_0
I0105 10:52:03.858274 13351 net.cpp:415] inception_4e/3x3_reduce -> inception_4e/3x3_reduce
I0105 10:52:03.858279 13351 net.cpp:160] Setting up inception_4e/3x3_reduce
I0105 10:52:03.858631 13351 net.cpp:167] Top shape: 72 128 14 14 (1806336)
I0105 10:52:03.858640 13351 layer_factory.hpp:74] Creating layer inception_4e/3x3_reduce_bn
I0105 10:52:03.858649 13351 layer_factory.cpp:177] Layer inception_4e/3x3_reduce_bn is using CAFFE engine.
I0105 10:52:03.858654 13351 net.cpp:96] Creating Layer inception_4e/3x3_reduce_bn
I0105 10:52:03.858657 13351 net.cpp:459] inception_4e/3x3_reduce_bn <- inception_4e/3x3_reduce
I0105 10:52:03.858662 13351 net.cpp:415] inception_4e/3x3_reduce_bn -> inception_4e/3x3_reduce_bn
I0105 10:52:03.858669 13351 net.cpp:160] Setting up inception_4e/3x3_reduce_bn
I0105 10:52:03.858678 13351 net.cpp:167] Top shape: 72 128 14 14 (1806336)
I0105 10:52:03.858685 13351 layer_factory.hpp:74] Creating layer inception_4e/relu_3x3_reduce
I0105 10:52:03.858690 13351 net.cpp:96] Creating Layer inception_4e/relu_3x3_reduce
I0105 10:52:03.858692 13351 net.cpp:459] inception_4e/relu_3x3_reduce <- inception_4e/3x3_reduce_bn
I0105 10:52:03.858696 13351 net.cpp:404] inception_4e/relu_3x3_reduce -> inception_4e/3x3_reduce_bn (in-place)
I0105 10:52:03.858700 13351 net.cpp:160] Setting up inception_4e/relu_3x3_reduce
I0105 10:52:03.858705 13351 net.cpp:167] Top shape: 72 128 14 14 (1806336)
I0105 10:52:03.858707 13351 layer_factory.hpp:74] Creating layer inception_4e/3x3
I0105 10:52:03.858714 13351 net.cpp:96] Creating Layer inception_4e/3x3
I0105 10:52:03.858717 13351 net.cpp:459] inception_4e/3x3 <- inception_4e/3x3_reduce_bn
I0105 10:52:03.858721 13351 net.cpp:415] inception_4e/3x3 -> inception_4e/3x3
I0105 10:52:03.858726 13351 net.cpp:160] Setting up inception_4e/3x3
I0105 10:52:03.859689 13351 net.cpp:167] Top shape: 72 192 7 7 (677376)
I0105 10:52:03.859696 13351 layer_factory.hpp:74] Creating layer inception_4e/3x3_bn
I0105 10:52:03.859699 13351 layer_factory.cpp:177] Layer inception_4e/3x3_bn is using CAFFE engine.
I0105 10:52:03.859704 13351 net.cpp:96] Creating Layer inception_4e/3x3_bn
I0105 10:52:03.859709 13351 net.cpp:459] inception_4e/3x3_bn <- inception_4e/3x3
I0105 10:52:03.859712 13351 net.cpp:415] inception_4e/3x3_bn -> inception_4e/3x3_bn
I0105 10:52:03.859717 13351 net.cpp:160] Setting up inception_4e/3x3_bn
I0105 10:52:03.859729 13351 net.cpp:167] Top shape: 72 192 7 7 (677376)
I0105 10:52:03.859735 13351 layer_factory.hpp:74] Creating layer inception_4e/relu_3x3
I0105 10:52:03.859740 13351 net.cpp:96] Creating Layer inception_4e/relu_3x3
I0105 10:52:03.859742 13351 net.cpp:459] inception_4e/relu_3x3 <- inception_4e/3x3_bn
I0105 10:52:03.859746 13351 net.cpp:404] inception_4e/relu_3x3 -> inception_4e/3x3_bn (in-place)
I0105 10:52:03.859750 13351 net.cpp:160] Setting up inception_4e/relu_3x3
I0105 10:52:03.859753 13351 net.cpp:167] Top shape: 72 192 7 7 (677376)
I0105 10:52:03.859756 13351 layer_factory.hpp:74] Creating layer inception_4e/double_3x3_reduce
I0105 10:52:03.859762 13351 net.cpp:96] Creating Layer inception_4e/double_3x3_reduce
I0105 10:52:03.859766 13351 net.cpp:459] inception_4e/double_3x3_reduce <- inception_4d/output_inception_4d/output_0_split_1
I0105 10:52:03.859769 13351 net.cpp:415] inception_4e/double_3x3_reduce -> inception_4e/double_3x3_reduce
I0105 10:52:03.859774 13351 net.cpp:160] Setting up inception_4e/double_3x3_reduce
I0105 10:52:03.860287 13351 net.cpp:167] Top shape: 72 192 14 14 (2709504)
I0105 10:52:03.860293 13351 layer_factory.hpp:74] Creating layer inception_4e/double_3x3_reduce_bn
I0105 10:52:03.860296 13351 layer_factory.cpp:177] Layer inception_4e/double_3x3_reduce_bn is using CAFFE engine.
I0105 10:52:03.860302 13351 net.cpp:96] Creating Layer inception_4e/double_3x3_reduce_bn
I0105 10:52:03.860306 13351 net.cpp:459] inception_4e/double_3x3_reduce_bn <- inception_4e/double_3x3_reduce
I0105 10:52:03.860311 13351 net.cpp:415] inception_4e/double_3x3_reduce_bn -> inception_4e/double_3x3_reduce_bn
I0105 10:52:03.860316 13351 net.cpp:160] Setting up inception_4e/double_3x3_reduce_bn
I0105 10:52:03.860327 13351 net.cpp:167] Top shape: 72 192 14 14 (2709504)
I0105 10:52:03.860332 13351 layer_factory.hpp:74] Creating layer inception_4e/relu_double_3x3_reduce
I0105 10:52:03.860337 13351 net.cpp:96] Creating Layer inception_4e/relu_double_3x3_reduce
I0105 10:52:03.860345 13351 net.cpp:459] inception_4e/relu_double_3x3_reduce <- inception_4e/double_3x3_reduce_bn
I0105 10:52:03.860349 13351 net.cpp:404] inception_4e/relu_double_3x3_reduce -> inception_4e/double_3x3_reduce_bn (in-place)
I0105 10:52:03.860353 13351 net.cpp:160] Setting up inception_4e/relu_double_3x3_reduce
I0105 10:52:03.860357 13351 net.cpp:167] Top shape: 72 192 14 14 (2709504)
I0105 10:52:03.860360 13351 layer_factory.hpp:74] Creating layer inception_4e/double_3x3_1
I0105 10:52:03.860365 13351 net.cpp:96] Creating Layer inception_4e/double_3x3_1
I0105 10:52:03.860368 13351 net.cpp:459] inception_4e/double_3x3_1 <- inception_4e/double_3x3_reduce_bn
I0105 10:52:03.860373 13351 net.cpp:415] inception_4e/double_3x3_1 -> inception_4e/double_3x3_1
I0105 10:52:03.860378 13351 net.cpp:160] Setting up inception_4e/double_3x3_1
I0105 10:52:03.862298 13351 net.cpp:167] Top shape: 72 256 14 14 (3612672)
I0105 10:52:03.862306 13351 layer_factory.hpp:74] Creating layer inception_4e/double_3x3_1_bn
I0105 10:52:03.862310 13351 layer_factory.cpp:177] Layer inception_4e/double_3x3_1_bn is using CAFFE engine.
I0105 10:52:03.862315 13351 net.cpp:96] Creating Layer inception_4e/double_3x3_1_bn
I0105 10:52:03.862318 13351 net.cpp:459] inception_4e/double_3x3_1_bn <- inception_4e/double_3x3_1
I0105 10:52:03.862324 13351 net.cpp:415] inception_4e/double_3x3_1_bn -> inception_4e/double_3x3_1_bn
I0105 10:52:03.862329 13351 net.cpp:160] Setting up inception_4e/double_3x3_1_bn
I0105 10:52:03.862340 13351 net.cpp:167] Top shape: 72 256 14 14 (3612672)
I0105 10:52:03.862346 13351 layer_factory.hpp:74] Creating layer inception_4e/relu_double_3x3_1
I0105 10:52:03.862350 13351 net.cpp:96] Creating Layer inception_4e/relu_double_3x3_1
I0105 10:52:03.862354 13351 net.cpp:459] inception_4e/relu_double_3x3_1 <- inception_4e/double_3x3_1_bn
I0105 10:52:03.862357 13351 net.cpp:404] inception_4e/relu_double_3x3_1 -> inception_4e/double_3x3_1_bn (in-place)
I0105 10:52:03.862361 13351 net.cpp:160] Setting up inception_4e/relu_double_3x3_1
I0105 10:52:03.862365 13351 net.cpp:167] Top shape: 72 256 14 14 (3612672)
I0105 10:52:03.862367 13351 layer_factory.hpp:74] Creating layer inception_4e/double_3x3_2
I0105 10:52:03.862373 13351 net.cpp:96] Creating Layer inception_4e/double_3x3_2
I0105 10:52:03.862376 13351 net.cpp:459] inception_4e/double_3x3_2 <- inception_4e/double_3x3_1_bn
I0105 10:52:03.862380 13351 net.cpp:415] inception_4e/double_3x3_2 -> inception_4e/double_3x3_2
I0105 10:52:03.862385 13351 net.cpp:160] Setting up inception_4e/double_3x3_2
I0105 10:52:03.864928 13351 net.cpp:167] Top shape: 72 256 7 7 (903168)
I0105 10:52:03.864933 13351 layer_factory.hpp:74] Creating layer inception_4e/double_3x3_2_bn
I0105 10:52:03.864936 13351 layer_factory.cpp:177] Layer inception_4e/double_3x3_2_bn is using CAFFE engine.
I0105 10:52:03.864943 13351 net.cpp:96] Creating Layer inception_4e/double_3x3_2_bn
I0105 10:52:03.864945 13351 net.cpp:459] inception_4e/double_3x3_2_bn <- inception_4e/double_3x3_2
I0105 10:52:03.864950 13351 net.cpp:415] inception_4e/double_3x3_2_bn -> inception_4e/double_3x3_2_bn
I0105 10:52:03.864955 13351 net.cpp:160] Setting up inception_4e/double_3x3_2_bn
I0105 10:52:03.864965 13351 net.cpp:167] Top shape: 72 256 7 7 (903168)
I0105 10:52:03.864971 13351 layer_factory.hpp:74] Creating layer inception_4e/relu_double_3x3_2
I0105 10:52:03.864976 13351 net.cpp:96] Creating Layer inception_4e/relu_double_3x3_2
I0105 10:52:03.864979 13351 net.cpp:459] inception_4e/relu_double_3x3_2 <- inception_4e/double_3x3_2_bn
I0105 10:52:03.864982 13351 net.cpp:404] inception_4e/relu_double_3x3_2 -> inception_4e/double_3x3_2_bn (in-place)
I0105 10:52:03.864986 13351 net.cpp:160] Setting up inception_4e/relu_double_3x3_2
I0105 10:52:03.864990 13351 net.cpp:167] Top shape: 72 256 7 7 (903168)
I0105 10:52:03.864994 13351 layer_factory.hpp:74] Creating layer inception_4e/pool
I0105 10:52:03.864998 13351 net.cpp:96] Creating Layer inception_4e/pool
I0105 10:52:03.865001 13351 net.cpp:459] inception_4e/pool <- inception_4d/output_inception_4d/output_0_split_2
I0105 10:52:03.865011 13351 net.cpp:415] inception_4e/pool -> inception_4e/pool
I0105 10:52:03.865016 13351 net.cpp:160] Setting up inception_4e/pool
I0105 10:52:03.865023 13351 net.cpp:167] Top shape: 72 608 7 7 (2145024)
I0105 10:52:03.865027 13351 layer_factory.hpp:74] Creating layer inception_4e/output
I0105 10:52:03.865031 13351 net.cpp:96] Creating Layer inception_4e/output
I0105 10:52:03.865034 13351 net.cpp:459] inception_4e/output <- inception_4e/3x3_bn
I0105 10:52:03.865038 13351 net.cpp:459] inception_4e/output <- inception_4e/double_3x3_2_bn
I0105 10:52:03.865041 13351 net.cpp:459] inception_4e/output <- inception_4e/pool
I0105 10:52:03.865046 13351 net.cpp:415] inception_4e/output -> inception_4e/output
I0105 10:52:03.865051 13351 net.cpp:160] Setting up inception_4e/output
I0105 10:52:03.865056 13351 net.cpp:167] Top shape: 72 1056 7 7 (3725568)
I0105 10:52:03.865058 13351 layer_factory.hpp:74] Creating layer inception_4e/output_inception_4e/output_0_split
I0105 10:52:03.865063 13351 net.cpp:96] Creating Layer inception_4e/output_inception_4e/output_0_split
I0105 10:52:03.865067 13351 net.cpp:459] inception_4e/output_inception_4e/output_0_split <- inception_4e/output
I0105 10:52:03.865070 13351 net.cpp:415] inception_4e/output_inception_4e/output_0_split -> inception_4e/output_inception_4e/output_0_split_0
I0105 10:52:03.865074 13351 net.cpp:415] inception_4e/output_inception_4e/output_0_split -> inception_4e/output_inception_4e/output_0_split_1
I0105 10:52:03.865079 13351 net.cpp:415] inception_4e/output_inception_4e/output_0_split -> inception_4e/output_inception_4e/output_0_split_2
I0105 10:52:03.865084 13351 net.cpp:415] inception_4e/output_inception_4e/output_0_split -> inception_4e/output_inception_4e/output_0_split_3
I0105 10:52:03.865088 13351 net.cpp:160] Setting up inception_4e/output_inception_4e/output_0_split
I0105 10:52:03.865093 13351 net.cpp:167] Top shape: 72 1056 7 7 (3725568)
I0105 10:52:03.865097 13351 net.cpp:167] Top shape: 72 1056 7 7 (3725568)
I0105 10:52:03.865100 13351 net.cpp:167] Top shape: 72 1056 7 7 (3725568)
I0105 10:52:03.865103 13351 net.cpp:167] Top shape: 72 1056 7 7 (3725568)
I0105 10:52:03.865106 13351 layer_factory.hpp:74] Creating layer inception_5a/1x1
I0105 10:52:03.865111 13351 net.cpp:96] Creating Layer inception_5a/1x1
I0105 10:52:03.865114 13351 net.cpp:459] inception_5a/1x1 <- inception_4e/output_inception_4e/output_0_split_0
I0105 10:52:03.865120 13351 net.cpp:415] inception_5a/1x1 -> inception_5a/1x1
I0105 10:52:03.865124 13351 net.cpp:160] Setting up inception_5a/1x1
I0105 10:52:03.866742 13351 net.cpp:167] Top shape: 72 352 7 7 (1241856)
I0105 10:52:03.866751 13351 layer_factory.hpp:74] Creating layer inception_5a/1x1_bn
I0105 10:52:03.866755 13351 layer_factory.cpp:177] Layer inception_5a/1x1_bn is using CAFFE engine.
I0105 10:52:03.866760 13351 net.cpp:96] Creating Layer inception_5a/1x1_bn
I0105 10:52:03.866763 13351 net.cpp:459] inception_5a/1x1_bn <- inception_5a/1x1
I0105 10:52:03.866768 13351 net.cpp:415] inception_5a/1x1_bn -> inception_5a/1x1_bn
I0105 10:52:03.866773 13351 net.cpp:160] Setting up inception_5a/1x1_bn
I0105 10:52:03.866786 13351 net.cpp:167] Top shape: 72 352 7 7 (1241856)
I0105 10:52:03.866791 13351 layer_factory.hpp:74] Creating layer inception_5a/relu_1x1
I0105 10:52:03.866796 13351 net.cpp:96] Creating Layer inception_5a/relu_1x1
I0105 10:52:03.866798 13351 net.cpp:459] inception_5a/relu_1x1 <- inception_5a/1x1_bn
I0105 10:52:03.866803 13351 net.cpp:404] inception_5a/relu_1x1 -> inception_5a/1x1_bn (in-place)
I0105 10:52:03.866807 13351 net.cpp:160] Setting up inception_5a/relu_1x1
I0105 10:52:03.866811 13351 net.cpp:167] Top shape: 72 352 7 7 (1241856)
I0105 10:52:03.866814 13351 layer_factory.hpp:74] Creating layer inception_5a/3x3_reduce
I0105 10:52:03.866818 13351 net.cpp:96] Creating Layer inception_5a/3x3_reduce
I0105 10:52:03.866822 13351 net.cpp:459] inception_5a/3x3_reduce <- inception_4e/output_inception_4e/output_0_split_1
I0105 10:52:03.866827 13351 net.cpp:415] inception_5a/3x3_reduce -> inception_5a/3x3_reduce
I0105 10:52:03.866839 13351 net.cpp:160] Setting up inception_5a/3x3_reduce
I0105 10:52:03.867724 13351 net.cpp:167] Top shape: 72 192 7 7 (677376)
I0105 10:52:03.867730 13351 layer_factory.hpp:74] Creating layer inception_5a/3x3_reduce_bn
I0105 10:52:03.867734 13351 layer_factory.cpp:177] Layer inception_5a/3x3_reduce_bn is using CAFFE engine.
I0105 10:52:03.867738 13351 net.cpp:96] Creating Layer inception_5a/3x3_reduce_bn
I0105 10:52:03.867741 13351 net.cpp:459] inception_5a/3x3_reduce_bn <- inception_5a/3x3_reduce
I0105 10:52:03.867746 13351 net.cpp:415] inception_5a/3x3_reduce_bn -> inception_5a/3x3_reduce_bn
I0105 10:52:03.867753 13351 net.cpp:160] Setting up inception_5a/3x3_reduce_bn
I0105 10:52:03.867763 13351 net.cpp:167] Top shape: 72 192 7 7 (677376)
I0105 10:52:03.867769 13351 layer_factory.hpp:74] Creating layer inception_5a/relu_3x3_reduce
I0105 10:52:03.867772 13351 net.cpp:96] Creating Layer inception_5a/relu_3x3_reduce
I0105 10:52:03.867775 13351 net.cpp:459] inception_5a/relu_3x3_reduce <- inception_5a/3x3_reduce_bn
I0105 10:52:03.867780 13351 net.cpp:404] inception_5a/relu_3x3_reduce -> inception_5a/3x3_reduce_bn (in-place)
I0105 10:52:03.867784 13351 net.cpp:160] Setting up inception_5a/relu_3x3_reduce
I0105 10:52:03.867789 13351 net.cpp:167] Top shape: 72 192 7 7 (677376)
I0105 10:52:03.867791 13351 layer_factory.hpp:74] Creating layer inception_5a/3x3
I0105 10:52:03.867795 13351 net.cpp:96] Creating Layer inception_5a/3x3
I0105 10:52:03.867799 13351 net.cpp:459] inception_5a/3x3 <- inception_5a/3x3_reduce_bn
I0105 10:52:03.867804 13351 net.cpp:415] inception_5a/3x3 -> inception_5a/3x3
I0105 10:52:03.867808 13351 net.cpp:160] Setting up inception_5a/3x3
I0105 10:52:03.870234 13351 net.cpp:167] Top shape: 72 320 7 7 (1128960)
I0105 10:52:03.870247 13351 layer_factory.hpp:74] Creating layer inception_5a/3x3_bn
I0105 10:52:03.870251 13351 layer_factory.cpp:177] Layer inception_5a/3x3_bn is using CAFFE engine.
I0105 10:52:03.870257 13351 net.cpp:96] Creating Layer inception_5a/3x3_bn
I0105 10:52:03.870261 13351 net.cpp:459] inception_5a/3x3_bn <- inception_5a/3x3
I0105 10:52:03.870266 13351 net.cpp:415] inception_5a/3x3_bn -> inception_5a/3x3_bn
I0105 10:52:03.870272 13351 net.cpp:160] Setting up inception_5a/3x3_bn
I0105 10:52:03.870285 13351 net.cpp:167] Top shape: 72 320 7 7 (1128960)
I0105 10:52:03.870290 13351 layer_factory.hpp:74] Creating layer inception_5a/relu_3x3
I0105 10:52:03.870296 13351 net.cpp:96] Creating Layer inception_5a/relu_3x3
I0105 10:52:03.870299 13351 net.cpp:459] inception_5a/relu_3x3 <- inception_5a/3x3_bn
I0105 10:52:03.870303 13351 net.cpp:404] inception_5a/relu_3x3 -> inception_5a/3x3_bn (in-place)
I0105 10:52:03.870307 13351 net.cpp:160] Setting up inception_5a/relu_3x3
I0105 10:52:03.870311 13351 net.cpp:167] Top shape: 72 320 7 7 (1128960)
I0105 10:52:03.870314 13351 layer_factory.hpp:74] Creating layer inception_5a/double_3x3_reduce
I0105 10:52:03.870319 13351 net.cpp:96] Creating Layer inception_5a/double_3x3_reduce
I0105 10:52:03.870323 13351 net.cpp:459] inception_5a/double_3x3_reduce <- inception_4e/output_inception_4e/output_0_split_2
I0105 10:52:03.870327 13351 net.cpp:415] inception_5a/double_3x3_reduce -> inception_5a/double_3x3_reduce
I0105 10:52:03.870332 13351 net.cpp:160] Setting up inception_5a/double_3x3_reduce
I0105 10:52:03.871073 13351 net.cpp:167] Top shape: 72 160 7 7 (564480)
I0105 10:52:03.871078 13351 layer_factory.hpp:74] Creating layer inception_5a/double_3x3_reduce_bn
I0105 10:52:03.871083 13351 layer_factory.cpp:177] Layer inception_5a/double_3x3_reduce_bn is using CAFFE engine.
I0105 10:52:03.871088 13351 net.cpp:96] Creating Layer inception_5a/double_3x3_reduce_bn
I0105 10:52:03.871090 13351 net.cpp:459] inception_5a/double_3x3_reduce_bn <- inception_5a/double_3x3_reduce
I0105 10:52:03.871095 13351 net.cpp:415] inception_5a/double_3x3_reduce_bn -> inception_5a/double_3x3_reduce_bn
…
I0306 11:50:18.877835  4895 layer_factory.hpp:74] Creating layer inception_5a/relu_double_3x3_2
I0306 11:50:18.877838  4895 net.cpp:96] Creating Layer inception_5a/relu_double_3x3_2
I0306 11:50:18.877841  4895 net.cpp:459] inception_5a/relu_double_3x3_2 <- inception_5a/double_3x3_2_bn
I0306 11:50:18.877846  4895 net.cpp:404] inception_5a/relu_double_3x3_2 -> inception_5a/double_3x3_2_bn (in-place)
I0306 11:50:18.877849  4895 net.cpp:160] Setting up inception_5a/relu_double_3x3_2
I0306 11:50:18.877853  4895 net.cpp:167] Top shape: 72 224 7 7 (790272)
I0306 11:50:18.877856  4895 layer_factory.hpp:74] Creating layer inception_5a/pool
I0306 11:50:18.877861  4895 net.cpp:96] Creating Layer inception_5a/pool
I0306 11:50:18.877869  4895 net.cpp:459] inception_5a/pool <- inception_4e/output_inception_4e/output_0_split_3
I0306 11:50:18.877874  4895 net.cpp:415] inception_5a/pool -> inception_5a/pool
I0306 11:50:18.877878  4895 net.cpp:160] Setting up inception_5a/pool
I0306 11:50:18.877884  4895 net.cpp:167] Top shape: 72 1056 7 7 (3725568)
I0306 11:50:18.877887  4895 layer_factory.hpp:74] Creating layer inception_5a/pool_proj
I0306 11:50:18.877894  4895 net.cpp:96] Creating Layer inception_5a/pool_proj
I0306 11:50:18.877897  4895 net.cpp:459] inception_5a/pool_proj <- inception_5a/pool
I0306 11:50:18.877902  4895 net.cpp:415] inception_5a/pool_proj -> inception_5a/pool_proj
I0306 11:50:18.877907  4895 net.cpp:160] Setting up inception_5a/pool_proj
I0306 11:50:18.878572  4895 net.cpp:167] Top shape: 72 128 7 7 (451584)
I0306 11:50:18.878579  4895 layer_factory.hpp:74] Creating layer inception_5a/pool_proj_bn
I0306 11:50:18.878583  4895 layer_factory.cpp:177] Layer inception_5a/pool_proj_bn is using CAFFE engine.
I0306 11:50:18.878588  4895 net.cpp:96] Creating Layer inception_5a/pool_proj_bn
I0306 11:50:18.878592  4895 net.cpp:459] inception_5a/pool_proj_bn <- inception_5a/pool_proj
I0306 11:50:18.878597  4895 net.cpp:415] inception_5a/pool_proj_bn -> inception_5a/pool_proj_bn
I0306 11:50:18.878602  4895 net.cpp:160] Setting up inception_5a/pool_proj_bn
I0306 11:50:18.878612  4895 net.cpp:167] Top shape: 72 128 7 7 (451584)
I0306 11:50:18.878618  4895 layer_factory.hpp:74] Creating layer inception_5a/relu_pool_proj
I0306 11:50:18.878623  4895 net.cpp:96] Creating Layer inception_5a/relu_pool_proj
I0306 11:50:18.878626  4895 net.cpp:459] inception_5a/relu_pool_proj <- inception_5a/pool_proj_bn
I0306 11:50:18.878630  4895 net.cpp:404] inception_5a/relu_pool_proj -> inception_5a/pool_proj_bn (in-place)
I0306 11:50:18.878634  4895 net.cpp:160] Setting up inception_5a/relu_pool_proj
I0306 11:50:18.878638  4895 net.cpp:167] Top shape: 72 128 7 7 (451584)
I0306 11:50:18.878643  4895 layer_factory.hpp:74] Creating layer inception_5a/output
I0306 11:50:18.878648  4895 net.cpp:96] Creating Layer inception_5a/output
I0306 11:50:18.878653  4895 net.cpp:459] inception_5a/output <- inception_5a/1x1_bn
I0306 11:50:18.878655  4895 net.cpp:459] inception_5a/output <- inception_5a/3x3_bn
I0306 11:50:18.878659  4895 net.cpp:459] inception_5a/output <- inception_5a/double_3x3_2_bn
I0306 11:50:18.878664  4895 net.cpp:459] inception_5a/output <- inception_5a/pool_proj_bn
I0306 11:50:18.878667  4895 net.cpp:415] inception_5a/output -> inception_5a/output
I0306 11:50:18.878671  4895 net.cpp:160] Setting up inception_5a/output
I0306 11:50:18.878676  4895 net.cpp:167] Top shape: 72 1024 7 7 (3612672)
I0306 11:50:18.878680  4895 layer_factory.hpp:74] Creating layer inception_5a/output_inception_5a/output_0_split
I0306 11:50:18.878685  4895 net.cpp:96] Creating Layer inception_5a/output_inception_5a/output_0_split
I0306 11:50:18.878689  4895 net.cpp:459] inception_5a/output_inception_5a/output_0_split <- inception_5a/output
I0306 11:50:18.878692  4895 net.cpp:415] inception_5a/output_inception_5a/output_0_split -> inception_5a/output_inception_5a/output_0_split_0
I0306 11:50:18.878697  4895 net.cpp:415] inception_5a/output_inception_5a/output_0_split -> inception_5a/output_inception_5a/output_0_split_1
I0306 11:50:18.878702  4895 net.cpp:415] inception_5a/output_inception_5a/output_0_split -> inception_5a/output_inception_5a/output_0_split_2
I0306 11:50:18.878707  4895 net.cpp:415] inception_5a/output_inception_5a/output_0_split -> inception_5a/output_inception_5a/output_0_split_3
I0306 11:50:18.878711  4895 net.cpp:160] Setting up inception_5a/output_inception_5a/output_0_split
I0306 11:50:18.878717  4895 net.cpp:167] Top shape: 72 1024 7 7 (3612672)
I0306 11:50:18.878720  4895 net.cpp:167] Top shape: 72 1024 7 7 (3612672)
I0306 11:50:18.878724  4895 net.cpp:167] Top shape: 72 1024 7 7 (3612672)
I0306 11:50:18.878727  4895 net.cpp:167] Top shape: 72 1024 7 7 (3612672)
I0306 11:50:18.878731  4895 layer_factory.hpp:74] Creating layer inception_5b/1x1
I0306 11:50:18.878739  4895 net.cpp:96] Creating Layer inception_5b/1x1
I0306 11:50:18.878743  4895 net.cpp:459] inception_5b/1x1 <- inception_5a/output_inception_5a/output_0_split_0
I0306 11:50:18.878748  4895 net.cpp:415] inception_5b/1x1 -> inception_5b/1x1
I0306 11:50:18.878753  4895 net.cpp:160] Setting up inception_5b/1x1
I0306 11:50:18.880501  4895 net.cpp:167] Top shape: 72 352 7 7 (1241856)
I0306 11:50:18.880509  4895 layer_factory.hpp:74] Creating layer inception_5b/1x1_bn
I0306 11:50:18.880512  4895 layer_factory.cpp:177] Layer inception_5b/1x1_bn is using CAFFE engine.
I0306 11:50:18.880517  4895 net.cpp:96] Creating Layer inception_5b/1x1_bn
I0306 11:50:18.880522  4895 net.cpp:459] inception_5b/1x1_bn <- inception_5b/1x1
I0306 11:50:18.880527  4895 net.cpp:415] inception_5b/1x1_bn -> inception_5b/1x1_bn
I0306 11:50:18.880532  4895 net.cpp:160] Setting up inception_5b/1x1_bn
I0306 11:50:18.880542  4895 net.cpp:167] Top shape: 72 352 7 7 (1241856)
I0306 11:50:18.880548  4895 layer_factory.hpp:74] Creating layer inception_5b/relu_1x1
I0306 11:50:18.880553  4895 net.cpp:96] Creating Layer inception_5b/relu_1x1
I0306 11:50:18.880556  4895 net.cpp:459] inception_5b/relu_1x1 <- inception_5b/1x1_bn
I0306 11:50:18.880560  4895 net.cpp:404] inception_5b/relu_1x1 -> inception_5b/1x1_bn (in-place)
I0306 11:50:18.880564  4895 net.cpp:160] Setting up inception_5b/relu_1x1
I0306 11:50:18.880568  4895 net.cpp:167] Top shape: 72 352 7 7 (1241856)
I0306 11:50:18.880571  4895 layer_factory.hpp:74] Creating layer inception_5b/3x3_reduce
I0306 11:50:18.880576  4895 net.cpp:96] Creating Layer inception_5b/3x3_reduce
I0306 11:50:18.880580  4895 net.cpp:459] inception_5b/3x3_reduce <- inception_5a/output_inception_5a/output_0_split_1
I0306 11:50:18.880584  4895 net.cpp:415] inception_5b/3x3_reduce -> inception_5b/3x3_reduce
I0306 11:50:18.880589  4895 net.cpp:160] Setting up inception_5b/3x3_reduce
I0306 11:50:18.881546  4895 net.cpp:167] Top shape: 72 192 7 7 (677376)
I0306 11:50:18.881553  4895 layer_factory.hpp:74] Creating layer inception_5b/3x3_reduce_bn
I0306 11:50:18.881557  4895 layer_factory.cpp:177] Layer inception_5b/3x3_reduce_bn is using CAFFE engine.
I0306 11:50:18.881562  4895 net.cpp:96] Creating Layer inception_5b/3x3_reduce_bn
I0306 11:50:18.881567  4895 net.cpp:459] inception_5b/3x3_reduce_bn <- inception_5b/3x3_reduce
I0306 11:50:18.881572  4895 net.cpp:415] inception_5b/3x3_reduce_bn -> inception_5b/3x3_reduce_bn
I0306 11:50:18.881577  4895 net.cpp:160] Setting up inception_5b/3x3_reduce_bn
I0306 11:50:18.881587  4895 net.cpp:167] Top shape: 72 192 7 7 (677376)
I0306 11:50:18.881592  4895 layer_factory.hpp:74] Creating layer inception_5b/relu_3x3_reduce
I0306 11:50:18.881597  4895 net.cpp:96] Creating Layer inception_5b/relu_3x3_reduce
I0306 11:50:18.881602  4895 net.cpp:459] inception_5b/relu_3x3_reduce <- inception_5b/3x3_reduce_bn
I0306 11:50:18.881605  4895 net.cpp:404] inception_5b/relu_3x3_reduce -> inception_5b/3x3_reduce_bn (in-place)
I0306 11:50:18.881609  4895 net.cpp:160] Setting up inception_5b/relu_3x3_reduce
I0306 11:50:18.881613  4895 net.cpp:167] Top shape: 72 192 7 7 (677376)
I0306 11:50:18.881616  4895 layer_factory.hpp:74] Creating layer inception_5b/3x3
I0306 11:50:18.881621  4895 net.cpp:96] Creating Layer inception_5b/3x3
I0306 11:50:18.881624  4895 net.cpp:459] inception_5b/3x3 <- inception_5b/3x3_reduce_bn
I0306 11:50:18.881628  4895 net.cpp:415] inception_5b/3x3 -> inception_5b/3x3
I0306 11:50:18.881633  4895 net.cpp:160] Setting up inception_5b/3x3
I0306 11:50:18.884316  4895 net.cpp:167] Top shape: 72 320 7 7 (1128960)
I0306 11:50:18.884325  4895 layer_factory.hpp:74] Creating layer inception_5b/3x3_bn
I0306 11:50:18.884328  4895 layer_factory.cpp:177] Layer inception_5b/3x3_bn is using CAFFE engine.
I0306 11:50:18.884333  4895 net.cpp:96] Creating Layer inception_5b/3x3_bn
I0306 11:50:18.884336  4895 net.cpp:459] inception_5b/3x3_bn <- inception_5b/3x3
I0306 11:50:18.884342  4895 net.cpp:415] inception_5b/3x3_bn -> inception_5b/3x3_bn
I0306 11:50:18.884347  4895 net.cpp:160] Setting up inception_5b/3x3_bn
I0306 11:50:18.884363  4895 net.cpp:167] Top shape: 72 320 7 7 (1128960)
I0306 11:50:18.884369  4895 layer_factory.hpp:74] Creating layer inception_5b/relu_3x3
I0306 11:50:18.884373  4895 net.cpp:96] Creating Layer inception_5b/relu_3x3
I0306 11:50:18.884377  4895 net.cpp:459] inception_5b/relu_3x3 <- inception_5b/3x3_bn
I0306 11:50:18.884382  4895 net.cpp:404] inception_5b/relu_3x3 -> inception_5b/3x3_bn (in-place)
I0306 11:50:18.884387  4895 net.cpp:160] Setting up inception_5b/relu_3x3
I0306 11:50:18.884389  4895 net.cpp:167] Top shape: 72 320 7 7 (1128960)
I0306 11:50:18.884392  4895 layer_factory.hpp:74] Creating layer inception_5b/double_3x3_reduce
I0306 11:50:18.884397  4895 net.cpp:96] Creating Layer inception_5b/double_3x3_reduce
I0306 11:50:18.884402  4895 net.cpp:459] inception_5b/double_3x3_reduce <- inception_5a/output_inception_5a/output_0_split_2
I0306 11:50:18.884407  4895 net.cpp:415] inception_5b/double_3x3_reduce -> inception_5b/double_3x3_reduce
I0306 11:50:18.884410  4895 net.cpp:160] Setting up inception_5b/double_3x3_reduce
I0306 11:50:18.885371  4895 net.cpp:167] Top shape: 72 192 7 7 (677376)
I0306 11:50:18.885377  4895 layer_factory.hpp:74] Creating layer inception_5b/double_3x3_reduce_bn
I0306 11:50:18.885381  4895 layer_factory.cpp:177] Layer inception_5b/double_3x3_reduce_bn is using CAFFE engine.
I0306 11:50:18.885386  4895 net.cpp:96] Creating Layer inception_5b/double_3x3_reduce_bn
I0306 11:50:18.885390  4895 net.cpp:459] inception_5b/double_3x3_reduce_bn <- inception_5b/double_3x3_reduce
I0306 11:50:18.885395  4895 net.cpp:415] inception_5b/double_3x3_reduce_bn -> inception_5b/double_3x3_reduce_bn
I0306 11:50:18.885399  4895 net.cpp:160] Setting up inception_5b/double_3x3_reduce_bn
I0306 11:50:18.885411  4895 net.cpp:167] Top shape: 72 192 7 7 (677376)
I0306 11:50:18.885416  4895 layer_factory.hpp:74] Creating layer inception_5b/relu_double_3x3_reduce
I0306 11:50:18.885419  4895 net.cpp:96] Creating Layer inception_5b/relu_double_3x3_reduce
I0306 11:50:18.885424  4895 net.cpp:459] inception_5b/relu_double_3x3_reduce <- inception_5b/double_3x3_reduce_bn
I0306 11:50:18.885431  4895 net.cpp:404] inception_5b/relu_double_3x3_reduce -> inception_5b/double_3x3_reduce_bn (in-place)
I0306 11:50:18.885434  4895 net.cpp:160] Setting up inception_5b/relu_double_3x3_reduce
I0306 11:50:18.885438  4895 net.cpp:167] Top shape: 72 192 7 7 (677376)
I0306 11:50:18.885442  4895 layer_factory.hpp:74] Creating layer inception_5b/double_3x3_1
I0306 11:50:18.885447  4895 net.cpp:96] Creating Layer inception_5b/double_3x3_1
I0306 11:50:18.885449  4895 net.cpp:459] inception_5b/double_3x3_1 <- inception_5b/double_3x3_reduce_bn
I0306 11:50:18.885454  4895 net.cpp:415] inception_5b/double_3x3_1 -> inception_5b/double_3x3_1
I0306 11:50:18.885459  4895 net.cpp:160] Setting up inception_5b/double_3x3_1
I0306 11:50:18.887406  4895 net.cpp:167] Top shape: 72 224 7 7 (790272)
I0306 11:50:18.887421  4895 layer_factory.hpp:74] Creating layer inception_5b/double_3x3_1_bn
I0306 11:50:18.887428  4895 layer_factory.cpp:177] Layer inception_5b/double_3x3_1_bn is using CAFFE engine.
I0306 11:50:18.887435  4895 net.cpp:96] Creating Layer inception_5b/double_3x3_1_bn
I0306 11:50:18.887441  4895 net.cpp:459] inception_5b/double_3x3_1_bn <- inception_5b/double_3x3_1
I0306 11:50:18.887449  4895 net.cpp:415] inception_5b/double_3x3_1_bn -> inception_5b/double_3x3_1_bn
I0306 11:50:18.887456  4895 net.cpp:160] Setting up inception_5b/double_3x3_1_bn
I0306 11:50:18.887472  4895 net.cpp:167] Top shape: 72 224 7 7 (790272)
I0306 11:50:18.887482  4895 layer_factory.hpp:74] Creating layer inception_5b/relu_double_3x3_1
I0306 11:50:18.887488  4895 net.cpp:96] Creating Layer inception_5b/relu_double_3x3_1
I0306 11:50:18.887493  4895 net.cpp:459] inception_5b/relu_double_3x3_1 <- inception_5b/double_3x3_1_bn
I0306 11:50:18.887500  4895 net.cpp:404] inception_5b/relu_double_3x3_1 -> inception_5b/double_3x3_1_bn (in-place)
I0306 11:50:18.887507  4895 net.cpp:160] Setting up inception_5b/relu_double_3x3_1
I0306 11:50:18.887518  4895 net.cpp:167] Top shape: 72 224 7 7 (790272)
I0306 11:50:18.887524  4895 layer_factory.hpp:74] Creating layer inception_5b/double_3x3_2
I0306 11:50:18.887533  4895 net.cpp:96] Creating Layer inception_5b/double_3x3_2
I0306 11:50:18.887539  4895 net.cpp:459] inception_5b/double_3x3_2 <- inception_5b/double_3x3_1_bn
I0306 11:50:18.887547  4895 net.cpp:415] inception_5b/double_3x3_2 -> inception_5b/double_3x3_2
I0306 11:50:18.887555  4895 net.cpp:160] Setting up inception_5b/double_3x3_2
I0306 11:50:18.890528  4895 net.cpp:167] Top shape: 72 224 7 7 (790272)
I0306 11:50:18.890548  4895 layer_factory.hpp:74] Creating layer inception_5b/double_3x3_2_bn
I0306 11:50:18.890554  4895 layer_factory.cpp:177] Layer inception_5b/double_3x3_2_bn is using CAFFE engine.
I0306 11:50:18.890563  4895 net.cpp:96] Creating Layer inception_5b/double_3x3_2_bn
I0306 11:50:18.890569  4895 net.cpp:459] inception_5b/double_3x3_2_bn <- inception_5b/double_3x3_2
I0306 11:50:18.890579  4895 net.cpp:415] inception_5b/double_3x3_2_bn -> inception_5b/double_3x3_2_bn
I0306 11:50:18.890588  4895 net.cpp:160] Setting up inception_5b/double_3x3_2_bn
I0306 11:50:18.890604  4895 net.cpp:167] Top shape: 72 224 7 7 (790272)
I0306 11:50:18.890614  4895 layer_factory.hpp:74] Creating layer inception_5b/relu_double_3x3_2
I0306 11:50:18.890619  4895 net.cpp:96] Creating Layer inception_5b/relu_double_3x3_2
I0306 11:50:18.890625  4895 net.cpp:459] inception_5b/relu_double_3x3_2 <- inception_5b/double_3x3_2_bn
I0306 11:50:18.890631  4895 net.cpp:404] inception_5b/relu_double_3x3_2 -> inception_5b/double_3x3_2_bn (in-place)
I0306 11:50:18.890637  4895 net.cpp:160] Setting up inception_5b/relu_double_3x3_2
I0306 11:50:18.890643  4895 net.cpp:167] Top shape: 72 224 7 7 (790272)
I0306 11:50:18.890647  4895 layer_factory.hpp:74] Creating layer inception_5b/pool
I0306 11:50:18.890655  4895 net.cpp:96] Creating Layer inception_5b/pool
I0306 11:50:18.890660  4895 net.cpp:459] inception_5b/pool <- inception_5a/output_inception_5a/output_0_split_3
I0306 11:50:18.890671  4895 net.cpp:415] inception_5b/pool -> inception_5b/pool
I0306 11:50:18.890677  4895 net.cpp:160] Setting up inception_5b/pool
I0306 11:50:18.890686  4895 net.cpp:167] Top shape: 72 1024 7 7 (3612672)
I0306 11:50:18.890691  4895 layer_factory.hpp:74] Creating layer inception_5b/pool_proj
I0306 11:50:18.890702  4895 net.cpp:96] Creating Layer inception_5b/pool_proj
I0306 11:50:18.890707  4895 net.cpp:459] inception_5b/pool_proj <- inception_5b/pool
I0306 11:50:18.890713  4895 net.cpp:415] inception_5b/pool_proj -> inception_5b/pool_proj
I0306 11:50:18.890722  4895 net.cpp:160] Setting up inception_5b/pool_proj
I0306 11:50:18.891608  4895 net.cpp:167] Top shape: 72 128 7 7 (451584)
I0306 11:50:18.891618  4895 layer_factory.hpp:74] Creating layer inception_5b/pool_proj_bn
I0306 11:50:18.891623  4895 layer_factory.cpp:177] Layer inception_5b/pool_proj_bn is using CAFFE engine.
I0306 11:50:18.891630  4895 net.cpp:96] Creating Layer inception_5b/pool_proj_bn
I0306 11:50:18.891635  4895 net.cpp:459] inception_5b/pool_proj_bn <- inception_5b/pool_proj
I0306 11:50:18.891643  4895 net.cpp:415] inception_5b/pool_proj_bn -> inception_5b/pool_proj_bn
I0306 11:50:18.891649  4895 net.cpp:160] Setting up inception_5b/pool_proj_bn
I0306 11:50:18.891665  4895 net.cpp:167] Top shape: 72 128 7 7 (451584)
I0306 11:50:18.891674  4895 layer_factory.hpp:74] Creating layer inception_5b/relu_pool_proj
I0306 11:50:18.891681  4895 net.cpp:96] Creating Layer inception_5b/relu_pool_proj
I0306 11:50:18.891686  4895 net.cpp:459] inception_5b/relu_pool_proj <- inception_5b/pool_proj_bn
I0306 11:50:18.891692  4895 net.cpp:404] inception_5b/relu_pool_proj -> inception_5b/pool_proj_bn (in-place)
I0306 11:50:18.891698  4895 net.cpp:160] Setting up inception_5b/relu_pool_proj
I0306 11:50:18.891705  4895 net.cpp:167] Top shape: 72 128 7 7 (451584)
I0306 11:50:18.891708  4895 layer_factory.hpp:74] Creating layer inception_5b/output
I0306 11:50:18.891716  4895 net.cpp:96] Creating Layer inception_5b/output
I0306 11:50:18.891721  4895 net.cpp:459] inception_5b/output <- inception_5b/1x1_bn
I0306 11:50:18.891732  4895 net.cpp:459] inception_5b/output <- inception_5b/3x3_bn
I0306 11:50:18.891738  4895 net.cpp:459] inception_5b/output <- inception_5b/double_3x3_2_bn
I0306 11:50:18.891744  4895 net.cpp:459] inception_5b/output <- inception_5b/pool_proj_bn
I0306 11:50:18.891752  4895 net.cpp:415] inception_5b/output -> inception_5b/output
I0306 11:50:18.891757  4895 net.cpp:160] Setting up inception_5b/output
I0306 11:50:18.891765  4895 net.cpp:167] Top shape: 72 1024 7 7 (3612672)
I0306 11:50:18.891770  4895 layer_factory.hpp:74] Creating layer global_pool
I0306 11:50:18.891777  4895 net.cpp:96] Creating Layer global_pool
I0306 11:50:18.891782  4895 net.cpp:459] global_pool <- inception_5b/output
I0306 11:50:18.891789  4895 net.cpp:415] global_pool -> global_pool
I0306 11:50:18.891796  4895 net.cpp:160] Setting up global_pool
I0306 11:50:18.891804  4895 net.cpp:167] Top shape: 72 1024 1 1 (73728)
I0306 11:50:18.891809  4895 layer_factory.hpp:74] Creating layer dropout
I0306 11:50:18.892019  4895 net.cpp:96] Creating Layer dropout
I0306 11:50:18.892029  4895 net.cpp:459] dropout <- global_pool
I0306 11:50:18.892035  4895 net.cpp:404] dropout -> global_pool (in-place)
I0306 11:50:18.892043  4895 net.cpp:160] Setting up dropout
I0306 11:50:18.892055  4895 net.cpp:167] Top shape: 72 1024 1 1 (73728)
I0306 11:50:18.892060  4895 layer_factory.hpp:74] Creating layer fc-action
I0306 11:50:18.892069  4895 net.cpp:96] Creating Layer fc-action
I0306 11:50:18.892074  4895 net.cpp:459] fc-action <- global_pool
I0306 11:50:18.892081  4895 net.cpp:415] fc-action -> fc
I0306 11:50:18.892091  4895 net.cpp:160] Setting up fc-action
I0306 11:50:18.895040  4895 net.cpp:167] Top shape: 72 101 (7272)
I0306 11:50:18.895051  4895 layer_factory.hpp:74] Creating layer reshape_fc
I0306 11:50:18.895061  4895 net.cpp:96] Creating Layer reshape_fc
I0306 11:50:18.895067  4895 net.cpp:459] reshape_fc <- fc
I0306 11:50:18.895076  4895 net.cpp:415] reshape_fc -> reshape_fc
I0306 11:50:18.895087  4895 net.cpp:160] Setting up reshape_fc
I0306 11:50:18.895097  4895 net.cpp:167] Top shape: 8 1 9 101 (7272)
I0306 11:50:18.895102  4895 layer_factory.hpp:74] Creating layer segment_consensus
I0306 11:50:18.895110  4895 net.cpp:96] Creating Layer segment_consensus
I0306 11:50:18.895115  4895 net.cpp:459] segment_consensus <- reshape_fc
I0306 11:50:18.895122  4895 net.cpp:415] segment_consensus -> pool_fusion
I0306 11:50:18.895128  4895 net.cpp:160] Setting up segment_consensus
I0306 11:50:18.895136  4895 net.cpp:167] Top shape: 8 1 1 101 (808)
I0306 11:50:18.895141  4895 layer_factory.hpp:74] Creating layer loss
I0306 11:50:18.895151  4895 net.cpp:96] Creating Layer loss
I0306 11:50:18.895157  4895 net.cpp:459] loss <- pool_fusion
I0306 11:50:18.895162  4895 net.cpp:459] loss <- label
I0306 11:50:18.895170  4895 net.cpp:415] loss -> loss
I0306 11:50:18.895179  4895 net.cpp:160] Setting up loss
I0306 11:50:18.895189  4895 layer_factory.hpp:74] Creating layer loss
…
    mean_value: 117
    mean_value: 123
    mean_value: 104
    mean_value: 117
    mean_value: 123
    mean_value: 104
    mean_value: 117
    mean_value: 123
    mean_value: 104
    mean_value: 117
    mean_value: 123
    mean_value: 104
    mean_value: 117
    mean_value: 123
    mean_value: 104
    mean_value: 117
    mean_value: 123
  }
  pi_video_data_param {
    source: "/home/hadoop/whx/dataset/ucf101/val_rgb_split1.txt"
    batch_size: 1
    new_length: 1
    num_segments: 3
    num_segments: 6
    modality: RGB
    name_pattern: "frame%06d.jpg"
  }
}
layer {
  name: "reshape_data"
  type: "Reshape"
  bottom: "data"
  top: "reshape_data"
  reshape_param {
    shape {
      dim: -1
      dim: 3
      dim: 224
      dim: 224
    }
  }
}
layer {
  name: "conv1/7x7_s2"
  type: "Convolution"
  bottom: "reshape_data"
  top: "conv1/7x7_s2"
  param {
    lr_mult: 1
    decay_mult: 1
  }
  param {
    lr_mult: 2
    decay_mult: 0
  }
  convolution_param {
    num_output: 64
    pad: 3
    kernel_size: 7
    stride: 2
    weight_filler {
      type: "xavier"
    }
    bias_filler {
      type: "constant"
      value: 0.2
    }
  }
}
layer {
  name: "conv1/7x7_s2_bn"
  type: "BN"
  bottom: "conv1/7x7_s2"
  top: "conv1/7x7_s2_bn"
  param {
    lr_mult: 1
    decay_mult: 0
  }
  param {
    lr_mult: 1
    decay_mult: 0
  }
  bn_param {
    slope_filler {
      type: "constant"
      value: 1
    }
    bias_filler {
      type: "constant"
      value: 0
    }
    frozen: false
  }
}
layer {
  name: "conv1/relu_7x7"
  type: "ReLU"
  bottom: "conv1/7x7_s2_bn"
  top: "conv1/7x7_s2_bn"
}
layer {
  name: "pool1/3x3_s2"
  type: "Pooling"
  bottom: "conv1/7x7_s2_bn"
  top: "pool1/3x3_s2"
  pooling_param {
    pool: MAX
    kernel_size: 3
    stride: 2
  }
}
layer {
  name: "conv2/3x3_reduce"
  type: "Convolution"
  bottom: "pool1/3x3_s2"
  top: "conv2/3x3_reduce"
  param {
    lr_mult: 1
    decay_mult: 1
  }
  param {
    lr_mult: 2
    decay_mult: 0
  }
  convolution_param {
    num_output: 64
    kernel_size: 1
    weight_filler {
      type: "xavier"
    }
    bias_filler {
      type: "constant"
      value: 0.2
    }
  }
}
layer {
  name: "conv2/3x3_reduce_bn"
  type: "BN"
  bottom: "conv2/3x3_reduce"
  top: "conv2/3x3_reduce_bn"
  param {
    lr_mult: 1
    decay_mult: 0
  }
  param {
    lr_mult: 1
    decay_mult: 0
  }
  bn_param {
    slope_filler {
      type: "constant"
      value: 1
    }
    bias_filler {
      type: "constant"
      value: 0
    }
    frozen: true
  }
}
layer {
  name: "conv2/relu_3x3_reduce"
  type: "ReLU"
  bottom: "conv2/3x3_reduce_bn"
  top: "conv2/3x3_reduce_bn"
}
layer {
  name: "conv2/3x3"
  type: "Convolution"
  bottom: "conv2/3x3_reduce_bn"
  top: "conv2/3x3"
  param {
    lr_mult: 1
    decay_mult: 1
  }
  param {
    lr_mult: 2
    decay_mult: 0
  }
  convolution_param {
    num_output: 192
    pad: 1
    kernel_size: 3
    weight_filler {
      type: "xavier"
    }
    bias_filler {
      type: "constant"
      value: 0.2
    }
  }
}
layer {
  name: "conv2/3x3_bn"
  type: "BN"
  bottom: "conv2/3x3"
  top: "conv2/3x3_bn"
  param {
    lr_mult: 1
    decay_mult: 0
  }
  param {
    lr_mult: 1
    decay_mult: 0
  }
  bn_param {
    slope_filler {
      type: "constant"
      value: 1
    }
    bias_filler {
      type: "constant"
      value: 0
    }
    frozen: true
  }
}
layer {
  name: "conv2/relu_3x3"
  type: "ReLU"
  bottom: "conv2/3x3_bn"
  top: "conv2/3x3_bn"
}
layer {
  name: "pool2/3x3_s2"
  type: "Pooling"
  bottom: "conv2/3x3_bn"
  top: "pool2/3x3_s2"
  pooling_param {
    pool: MAX
    kernel_size: 3
    stride: 2
  }
}
layer {
  name: "inception_3a/1x1"
  type: "Convolution"
  bottom: "pool2/3x3_s2"
  top: "inception_3a/1x1"
  param {
    lr_mult: 1
    decay_mult: 1
  }
  param {
    lr_mult: 2
    decay_mult: 0
  }
  convolution_param {
    num_output: 64
    kernel_size: 1
    weight_filler {
      type: "xavier"
    }
    bias_filler {
      type: "constant"
      value: 0.2
    }
  }
}
layer {
  name: "inception_3a/1x1_bn"
  type: "BN"
  bottom: "inception_3a/1x1"
  top: "inception_3a/1x1_bn"
  param {
    lr_mult: 1
    decay_mult: 0
  }
  param {
    lr_mult: 1
    decay_mult: 0
  }
  bn_param {
    slope_filler {
      type: "constant"
      value: 1
    }
    bias_filler {
      type: "constant"
      value: 0
    }
    frozen: true
  }
}
layer {
  name: "inception_3a/relu_1x1"
  type: "ReLU"
  bottom: "inception_3a/1x1_bn"
  top: "inception_3a/1x1_bn"
}
layer {
  name: "inception_3a/3x3_reduce"
  type: "Convolution"
  bottom: "pool2/3x3_s2"
  top: "inception_3a/3x3_reduce"
  param {
    lr_mult: 1
    decay_mult: 1
  }
  param {
    lr_mult: 2
    decay_mult: 0
  }
  convolution_param {
    num_output: 64
    kernel_size: 1
    weight_filler {
      type: "xavier"
    }
    bias_filler {
      type: "constant"
      value: 0.2
    }
  }
}
layer {
  name: "inception_3a/3x3_reduce_bn"
  type: "BN"
  bottom: "inception_3a/3x3_reduce"
  top: "inception_3a/3x3_reduce_bn"
  param {
    lr_mult: 1
    decay_mult: 0
  }
  param {
    lr_mult: 1
    decay_mult: 0
  }
  bn_param {
    slope_filler {
      type: "constant"
      value: 1
    }
    bias_filler {
      type: "constant"
      value: 0
    }
    frozen: true
  }
}
layer {
  name: "inception_3a/relu_3x3_reduce"
  type: "ReLU"
  bottom: "inception_3a/3x3_reduce_bn"
  top: "inception_3a/3x3_reduce_bn"
}
layer {
  name: "inception_3a/3x3"
  type: "Convolution"
  bottom: "inception_3a/3x3_reduce_bn"
  top: "inception_3a/3x3"
  param {
    lr_mult: 1
    decay_mult: 1
  }
  param {
    lr_mult: 2
    decay_mult: 0
  }
  convolution_param {
    num_output: 64
    pad: 1
    kernel_size: 3
    weight_filler {
      type: "xavier"
    }
    bias_filler {
      type: "constant"
      value: 0.2
    }
  }
}
layer {
  name: "inception_3a/3x3_bn"
  type: "BN"
  bottom: "inception_3a/3x3"
  top: "inception_3a/3x3_bn"
  param {
    lr_mult: 1
    decay_mult: 0
  }
  param {
    lr_mult: 1
    decay_mult: 0
  }
  bn_param {
    slope_filler {
      type: "constant"
      value: 1
    }
    bias_filler {
      type: "constant"
      value: 0
    }
    frozen: true
  }
}
layer {
  name: "inception_3a/relu_3x3"
  type: "ReLU"
  bottom: "inception_3a/3x3_bn"
  top: "inception_3a/3x3_bn"
}
layer {
  name: "inception_3a/double_3x3_reduce"
  type: "Convolution"
  bottom: "pool2/3x3_s2"
  top: "inception_3a/double_3x3_reduce"
  param {
    lr_mult: 1
    decay_mult: 1
  }
  param {
    lr_mult: 2
    decay_mult: 0
  }
  convolution_param {
    num_output: 64
    kernel_size: 1
    weight_filler {
      type: "xavier"
    }
    bias_filler {
      type: "constant"
      value: 0.2
    }
  }
}
layer {
  name: "inception_3a/double_3x3_reduce_bn"
  type: "BN"
  bottom: "inception_3a/double_3x3_reduce"
  top: "inception_3a/double_3x3_reduce_bn"
  param {
    lr_mult: 1
    decay_mult: 0
  }
  param {
    lr_mult: 1
    decay_mult: 0
  }
  bn_param {
    slope_filler {
      type: "constant"
      value: 1
    }
    bias_filler {
      type: "constant"
      value: 0
    }
    frozen: true
  }
}
layer {
  name: "inception_3a/relu_double_3x3_reduce"
  type: "ReLU"
  bottom: "inception_3a/double_3x3_reduce_bn"
  top: "inception_3a/double_3x3_reduce_bn"
}
layer {
  name: "inception_3a/double_3x3_1"
  type: "Convolution"
  bottom: "inception_3a/double_3x3_reduce_bn"
  top: "inception_3a/double_3x3_1"
  param {
    lr_mult: 1
    decay_mult: 1
  }
  param {
    lr_mult: 2
    decay_mult: 0
  }
  convolution_param {
    num_output: 96
    pad: 1
    kernel_size: 3
    weight_filler {
      type: "xavier"
    }
    bias_filler {
      type: "constant"
      value: 0.2
    }
  }
}
layer {
  name: "inception_3a/double_3x3_1_bn"
  type: "BN"
  bottom: "inception_3a/double_3x3_1"
  top: "inception_3a/double_3x3_1_bn"
  param {
    lr_mult: 1
    decay_mult: 0
  }
  param {
    lr_mult: 1
    decay_mult: 0
  }
  bn_param {
    slope_filler {
      type: "constant"
      value: 1
    }
    bias_filler {
      type: "constant"
      value: 0
    }
    frozen: true
  }
}
layer {
  name: "inception_3a/relu_double_3x3_1"
  type: "ReLU"
  bottom: "inception_3a/double_3x3_1_bn"
  top: "inception_3a/double_3x3_1_bn"
}
layer {
  name: "inception_3a/double_3x3_2"
  type: "Convolution"
  bottom: "inception_3a/double_3x3_1_bn"
  top: "inception_3a/double_3x3_2"
  param {
    lr_mult: 1
    decay_mult: 1
  }
  param {
    lr_mult: 2
    decay_mult: 0
  }
  convolution_param {
    num_output: 96
    pad: 1
    kernel_size: 3
    weight_filler {
      type: "xavier"
    }
    bias_filler {
      type: "constant"
      value: 0.2
    }
  }
}
layer {
  name: "inception_3a/double_3x3_2_bn"
  type: "BN"
  bottom: "inception_3a/double_3x3_2"
  top: "inception_3a/double_3x3_2_bn"
  param {
    lr_mult: 1
    decay_mult: 0
  }
  param {
    lr_mult: 1
    decay_mult: 0
  }
  bn_param {
    slope_filler {
      type: "constant"
      value: 1
    }
    bias_filler {
      type: "constant"
      value: 0
    }
    frozen: true
  }
}
layer {
  name: "inception_3a/relu_double_3x3_2"
  type: "ReLU"
  bottom: "inception_3a/double_3x3_2_bn"
  top: "inception_3a/double_3x3_2_bn"
}
layer {
  name: "inception_3a/pool"
  type: "Pooling"
  bottom: "pool2/3x3_s2"
  top: "inception_3a/pool"
  pooling_param {
    pool: AVE
    kernel_size: 3
    stride: 1
    pad: 1
  }
}
layer {
  name: "inception_3a/pool_proj"
  type: "Convolution"
  bottom: "inception_3a/pool"
  top: "inception_3a/pool_proj"
  param {
    lr_mult: 1
    decay_mult: 1
  }
  param {
    lr_mult: 2
    decay_mult: 0
  }
  convolution_param {
    num_output: 32
    kernel_size: 1
    weight_filler {
      type: "xavier"
    }
    bias_filler {
      type: "constant"
      value: 0.2
    }
  }
}
layer {
  name: "inception_3a/pool_proj_bn"
  type: "BN"
  bottom: "inception_3a/pool_proj"
  top: "inception_3a/pool_proj_bn"
  param {
    lr_mult: 1
    decay_mult: 0
  }
  param {
    lr_mult: 1
    decay_mult: 0
  }
  bn_param {
    slope_filler {
      type: "constant"
      value: 1
    }
    bias_filler {
      type: "constant"
      value: 0
    }
    frozen: true
  }
}
layer {
  name: "inception_3a/relu_pool_proj"
  type: "ReLU"
  bottom: "inception_3a/pool_proj_bn"
  top: "inception_3a/pool_proj_bn"
}
layer {
  name: "inception_3a/output"
  type: "Concat"
  bottom: "inception_3a/1x1_bn"
  bottom: "inception_3a/3x3_bn"
  bottom: "inception_3a/double_3x3_2_bn"
  bottom: "inception_3a/pool_proj_bn"
  top: "inception_3a/output"
}
layer {
  name: "inception_3b/1x1"
  type: "Convolution"
  bottom: "inception_3a/output"
  top: "inception_3b/1x1"
  param {
    lr_mult: 1
    decay_mult: 1
  }
  param {
    lr_mult: 2
    decay_mult: 0
  }
  convolution_param {
    num_output: 64
    kernel_size: 1
    weight_filler {
      type: "xavier"
    }
    bias_filler {
      type: "constant"
      value: 0.2
    }
  }
}
layer {
  name: "inception_3b/1x1_bn"
  type: "BN"
  bottom: "inception_3b/1x1"
  top: "inception_3b/1x1_bn"
  param {
    lr_mult: 1
    decay_mult: 0
  }
  param {
    lr_mult: 1
    decay_mult: 0
  }
  bn_param {
    slope_filler {
      type: "constant"
      value: 1
    }
    bias_filler {
      type: "constant"
      value: 0
    }
    frozen: true
  }
}
layer {
  name: "inception_3b/relu_1x1"
  type: "ReLU"
  bottom: "inception_3b/1x1_bn"
  top: "inception_3b/1x1_bn"
}
layer {
  name: "inception_3b/3x3_reduce"
  type: "Convolution"
  bottom: "inception_3a/output"
  top: "inception_3b/3x3_reduce"
  param {
    lr_mult: 1
    decay_mult: 1
  }
  param {
    lr_mult: 2
    decay_mult: 0
  }
  convolution_param {
    num_output: 64
    kernel_size: 1
    weight_filler {
      type: "xavier"
    }
    bias_filler {
      type: "constant"
      value: 0.2
    }
  }
}
layer {
  name: "inception_3b/3x3_reduce_bn"
  type: "BN"
  bottom: "inception_3b/3x3_reduce"
  top: "inception_3b/3x3_reduce_bn"
  param {
    lr_mult: 1
    decay_mult: 0
  }
  param {
    lr_mult: 1
    decay_mult: 0
  }
  bn_param {
    slope_filler {
      type: "constant"
      value: 1
    }
    bias_filler {
      type: "constant"
      value: 0
    }
    frozen: true
  }
}
layer {
  name: "inception_3b/relu_3x3_reduce"
  type: "ReLU"
  bottom: "inception_3b/3x3_reduce_bn"
  top: "inception_3b/3x3_reduce_bn"
}
layer {
  name: "inception_3b/3x3"
  type: "Convolution"
  bottom: "inception_3b/3x3_reduce_bn"
  top: "inception_3b/3x3"
  param {
    lr_mult: 1
    decay_mult: 1
  }
  param {
    lr_mult: 2
    decay_mult: 0
  }
  convolution_param {
    num_output: 96
    pad: 1
    kernel_size: 3
    weight_filler {
      type: "xavier"
    }
    bias_filler {
      type: "constant"
      value: 0.2
    }
  }
}
layer {
  name: "inception_3b/3x3_bn"
  type: "BN"
  bottom: "inception_3b/3x3"
  top: "inception_3b/3x3_bn"
  param {
    lr_mult: 1
    decay_mult: 0
  }
  param {
    lr_mult: 1
    decay_mult: 0
  }
  bn_param {
    slope_filler {
      type: "constant"
      value: 1
    }
    bias_filler {
      type: "constant"
      value: 0
    }
    frozen: true
  }
}
layer {
  name: "inception_3b/relu_3x3"
  type: "ReLU"
  bottom: "inception_3b/3x3_bn"
  top: "inception_3b/3x3_bn"
}
layer {
  name: "inception_3b/double_3x3_reduce"
  type: "Convolution"
  bottom: "inception_3a/output"
  top: "inception_3b/double_3x3_reduce"
  param {
    lr_mult: 1
    decay_mult: 1
  }
  param {
    lr_mult: 2
    decay_mult: 0
  }
  convolution_param {
    num_output: 64
    kernel_size: 1
    weight_filler {
      type: "xavier"
    }
    bias_filler {
      type: "constant"
      value: 0.2
    }
  }
}
layer {
  name: "inception_3b/double_3x3_reduce_bn"
  type: "BN"
  bottom: "inception_3b/double_3x3_reduce"
  top: "inception_3b/double_3x3_reduce_bn"
  param {
    lr_mult: 1
    decay_mult: 0
  }
  param {
    lr_mult: 1
    decay_mult: 0
  }
  bn_param {
    slope_filler {
      type: "constant"
      value: 1
    }
    bias_filler {
      type: "constant"
      value: 0
    }
    frozen: true
  }
}
layer {
  name: "inception_3b/relu_double_3x3_reduce"
  type: "ReLU"
  bottom: "inception_3b/double_3x3_reduce_bn"
  top: "inception_3b/double_3x3_reduce_bn"
}
layer {
  name: "inception_3b/double_3x3_1"
  type: "Convolution"
  bottom: "inception_3b/double_3x3_reduce_bn"
  top: "inception_3b/double_3x3_1"
  param {
    lr_mult: 1
    decay_mult: 1
  }
  param {
    lr_mult: 2
    decay_mult: 0
  }
  convolution_param {
    num_output: 96
    pad: 1
    kernel_size: 3
    weight_filler {
      type: "xavier"
    }
    bias_filler {
      type: "constant"
      value: 0.2
    }
  }
}
layer {
  name: "inception_3b/double_3x3_1_bn"
  type: "BN"
  bottom: "inception_3b/double_3x3_1"
  top: "inception_3b/double_3x3_1_bn"
  param {
    lr_mult: 1
    decay_mult: 0
  }
  param {
    lr_mult: 1
    decay_mult: 0
  }
  bn_param {
    slope_filler {
      type: "constant"
      value: 1
    }
    bias_filler {
      type: "constant"
      value: 0
    }
    frozen: true
  }
}
layer {
  name: "inception_3b/relu_double_3x3_1"
  type: "ReLU"
  bottom: "inception_3b/double_3x3_1_bn"
  top: "inception_3b/double_3x3_1_bn"
}
layer {
  name: "inception_3b/double_3x3_2"
  type: "Convolution"
  bottom: "inception_3b/double_3x3_1_bn"
  top: "inception_3b/double_3x3_2"
  param {
    lr_mult: 1
    decay_mult: 1
  }
  param {
    lr_mult: 2
    decay_mult: 0
  }
  convolution_param {
    num_output: 96
    pad: 1
    kernel_size: 3
    weight_filler {
      type: "xavier"
    }
    bias_filler {
      type: "constant"
      value: 0.2
    }
  }
}
layer {
  name: "inception_3b/double_3x3_2_bn"
  type: "BN"
  bottom: "inception_3b/double_3x3_2"
  top: "inception_3b/double_3x3_2_bn"
  param {
    lr_mult: 1
    decay_mult: 0
  }
  param {
    lr_mult: 1
    decay_mult: 0
  }
  bn_param {
    slope_filler {
      type: "constant"
      value: 1
    }
    bias_filler {
      type: "constant"
      value: 0
    }
    frozen: true
  }
}
layer {
  name: "inception_3b/relu_double_3x3_2"
  type: "ReLU"
  bottom: "inception_3b/double_3x3_2_bn"
  top: "inception_3b/double_3x3_2_bn"
}
layer {
  name: "inception_3b/pool"
  type: "Pooling"
  bottom: "inception_3a/output"
  top: "inception_3b/pool"
  pooling_param {
    pool: AVE
    kernel_size: 3
    stride: 1
    pad: 1
  }
}
layer {
  name: "inception_3b/pool_proj"
  type: "Convolution"
  bottom: "inception_3b/pool"
  top: "inception_3b/pool_proj"
  param {
    lr_mult: 1
    decay_mult: 1
  }
  param {
    lr_mult: 2
    decay_mult: 0
  }
  convolution_param {
    num_output: 64
    kernel_size: 1
    weight_filler {
      type: "xavier"
    }
    bias_filler {
      type: "constant"
      value: 0.2
    }
  }
}
layer {
  name: "inception_3b/pool_proj_bn"
  type: "BN"
  bottom: "inception_3b/pool_proj"
  top: "inception_3b/pool_proj_bn"
  param {
    lr_mult: 1
    decay_mult: 0
  }
  param {
    lr_mult: 1
    decay_mult: 0
  }
  bn_param {
    slope_filler {
      type: "constant"
      value: 1
    }
    bias_filler {
      type: "constant"
      value: 0
    }
    frozen: true
  }
}
layer {
  name: "inception_3b/relu_pool_proj"
  type: "ReLU"
  bottom: "inception_3b/pool_proj_bn"
  top: "inception_3b/pool_proj_bn"
}
layer {
  name: "inception_3b/output"
  type: "Concat"
  bottom: "inception_3b/1x1_bn"
  bottom: "inception_3b/3x3_bn"
  bottom: "inception_3b/double_3x3_2_bn"
  bottom: "inception_3b/pool_proj_bn"
  top: "inception_3b/output"
}
layer {
  name: "inception_3c/3x3_reduce"
  type: "Convolution"
  bottom: "inception_3b/output"
  top: "inception_3c/3x3_reduce"
  param {
    lr_mult: 1
    decay_mult: 1
  }
  param {
    lr_mult: 2
    decay_mult: 0
  }
  convolution_param {
    num_output: 128
    kernel_size: 1
    weight_filler {
      type: "xavier"
    }
    bias_filler {
      type: "constant"
      value: 0.2
    }
  }
}
layer {
  name: "inception_3c/3x3_reduce_bn"
  type: "BN"
  bottom: "inception_3c/3x3_reduce"
  top: "inception_3c/3x3_reduce_bn"
  param {
    lr_mult: 1
    decay_mult: 0
  }
  param {
    lr_mult: 1
    decay_mult: 0
  }
  bn_param {
    slope_filler {
      type: "constant"
      value: 1
    }
    bias_filler {
      type: "constant"
      value: 0
    }
    frozen: true
  }
}
layer {
  name: "inception_3c/relu_3x3_reduce"
  type: "ReLU"
  bottom: "inception_3c/3x3_reduce_bn"
  top: "inception_3c/3x3_reduce_bn"
}
layer {
  name: "inception_3c/3x3"
  type: "Convolution"
  bottom: "inception_3c/3x3_reduce_bn"
  top: "inception_3c/3x3"
  param {
    lr_mult: 1
    decay_mult: 1
  }
  param {
    lr_mult: 2
    decay_mult: 0
  }
  convolution_param {
    num_output: 160
    pad: 1
    kernel_size: 3
    stride: 2
    weight_filler {
      type: "xavier"
    }
    bias_filler {
      type: "constant"
      value: 0.2
    }
  }
}
layer {
  name: "inception_3c/3x3_bn"
  type: "BN"
  bottom: "inception_3c/3x3"
  top: "inception_3c/3x3_bn"
  param {
    lr_mult: 1
    decay_mult: 0
  }
  param {
    lr_mult: 1
    decay_mult: 0
  }
  bn_param {
    slope_filler {
      type: "constant"
      value: 1
    }
    bias_filler {
      type: "constant"
      value: 0
    }
    frozen: true
  }
}
layer {
  name: "inception_3c/relu_3x3"
  type: "ReLU"
  bottom: "inception_3c/3x3_bn"
  top: "inception_3c/3x3_bn"
}
layer {
  name: "inception_3c/double_3x3_reduce"
  type: "Convolution"
  bottom: "inception_3b/output"
  top: "inception_3c/double_3x3_reduce"
  param {
    lr_mult: 1
    decay_mult: 1
  }
  param {
    lr_mult: 2
    decay_mult: 0
  }
  convolution_param {
    num_output: 64
    kernel_size: 1
    weight_filler {
      type: "xavier"
    }
    bias_filler {
      type: "constant"
      value: 0.2
    }
  }
}
layer {
  name: "inception_3c/double_3x3_reduce_bn"
  type: "BN"
  bottom: "inception_3c/double_3x3_reduce"
  top: "inception_3c/double_3x3_reduce_bn"
  param {
    lr_mult: 1
    decay_mult: 0
  }
  param {
    lr_mult: 1
    decay_mult: 0
  }
  bn_param {
    slope_filler {
      type: "constant"
      value: 1
    }
    bias_filler {
      type: "constant"
      value: 0
    }
    frozen: true
  }
}
layer {
  name: "inception_3c/relu_double_3x3_reduce"
  type: "ReLU"
  bottom: "inception_3c/double_3x3_reduce_bn"
  top: "inception_3c/double_3x3_reduce_bn"
}
layer {
  name: "inception_3c/double_3x3_1"
  type: "Convolution"
  bottom: "inception_3c/double_3x3_reduce_bn"
  top: "inception_3c/double_3x3_1"
  param {
    lr_mult: 1
    decay_mult: 1
  }
  param {
    lr_mult: 2
    decay_mult: 0
  }
  convolution_param {
    num_output: 96
    pad: 1
    kernel_size: 3
    weight_filler {
      type: "xavier"
    }
    bias_filler {
      type: "constant"
      value: 0.2
    }
  }
}
layer {
  name: "inception_3c/double_3x3_1_bn"
  type: "BN"
  bottom: "inception_3c/double_3x3_1"
  top: "inception_3c/double_3x3_1_bn"
  param {
    lr_mult: 1
    decay_mult: 0
  }
  param {
    lr_mult: 1
    decay_mult: 0
  }
  bn_param {
    slope_filler {
      type: "constant"
      value: 1
    }
    bias_filler {
      type: "constant"
      value: 0
    }
    frozen: true
  }
}
layer {
  name: "inception_3c/relu_double_3x3_1"
  type: "ReLU"
  bottom: "inception_3c/double_3x3_1_bn"
  top: "inception_3c/double_3x3_1_bn"
}
layer {
  name: "inception_3c/double_3x3_2"
  type: "Convolution"
  bottom: "inception_3c/double_3x3_1_bn"
  top: "inception_3c/double_3x3_2"
  param {
    lr_mult: 1
    decay_mult: 1
  }
  param {
    lr_mult: 2
    decay_mult: 0
  }
  convolution_param {
    num_output: 96
    pad: 1
    kernel_size: 3
    stride: 2
    weight_filler {
      type: "xavier"
    }
    bias_filler {
      type: "constant"
      value: 0.2
    }
  }
}
layer {
  name: "inception_3c/double_3x3_2_bn"
  type: "BN"
  bottom: "inception_3c/double_3x3_2"
  top: "inception_3c/double_3x3_2_bn"
  param {
    lr_mult: 1
    decay_mult: 0
  }
  param {
    lr_mult: 1
    decay_mult: 0
  }
  bn_param {
    slope_filler {
      type: "constant"
      value: 1
    }
    bias_filler {
      type: "constant"
      value: 0
    }
    frozen: true
  }
}
layer {
  name: "inception_3c/relu_double_3x3_2"
  type: "ReLU"
  bottom: "inception_3c/double_3x3_2_bn"
  top: "inception_3c/double_3x3_2_bn"
}
layer {
  name: "inception_3c/pool"
  type: "Pooling"
  bottom: "inception_3b/output"
  top: "inception_3c/pool"
  pooling_param {
    pool: MAX
    kernel_size: 3
    stride: 2
  }
}
layer {
  name: "inception_3c/output"
  type: "Concat"
  bottom: "inception_3c/3x3_bn"
  bottom: "inception_3c/double_3x3_2_bn"
  bottom: "inception_3c/pool"
  top: "inception_3c/output"
}
layer {
  name: "inception_4a/1x1"
  type: "Convolution"
  bottom: "inception_3c/output"
  top: "inception_4a/1x1"
  param {
    lr_mult: 1
    decay_mult: 1
  }
  param {
    lr_mult: 2
    decay_mult: 0
  }
  convolution_param {
    num_output: 224
    kernel_size: 1
    weight_filler {
      type: "xavier"
    }
    bias_filler {
      type: "constant"
      value: 0.2
    }
  }
}
layer {
  name: "inception_4a/1x1_bn"
  type: "BN"
  bottom: "inception_4a/1x1"
  top: "inception_4a/1x1_bn"
  param {
    lr_mult: 1
    decay_mult: 0
  }
  param {
    lr_mult: 1
    decay_mult: 0
  }
  bn_param {
    slope_filler {
      type: "constant"
      value: 1
    }
    bias_filler {
      type: "constant"
      value: 0
    }
    frozen: true
  }
}
layer {
  name: "inception_4a/relu_1x1"
  type: "ReLU"
  bottom: "inception_4a/1x1_bn"
  top: "inception_4a/1x1_bn"
}
layer {
  name: "inception_4a/3x3_reduce"
  type: "Convolution"
  bottom: "inception_3c/output"
  top: "inception_4a/3x3_reduce"
  param {
    lr_mult: 1
    decay_mult: 1
  }
  param {
    lr_mult: 2
    decay_mult: 0
  }
  convolution_param {
    num_output: 64
    kernel_size: 1
    weight_filler {
      type: "xavier"
    }
    bias_filler {
      type: "constant"
      value: 0.2
    }
  }
}
layer {
  name: "inception_4a/3x3_reduce_bn"
  type: "BN"
  bottom: "inception_4a/3x3_reduce"
  top: "inception_4a/3x3_reduce_bn"
  param {
    lr_mult: 1
    decay_mult: 0
  }
  param {
    lr_mult: 1
    decay_mult: 0
  }
  bn_param {
    slope_filler {
      type: "constant"
      value: 1
    }
    bias_filler {
      type: "constant"
      value: 0
    }
    frozen: true
  }
}
layer {
  name: "inception_4a/relu_3x3_reduce"
  type: "ReLU"
  bottom: "inception_4a/3x3_reduce_bn"
  top: "inception_4a/3x3_reduce_bn"
}
layer {
  name: "inception_4a/3x3"
  type: "Convolution"
  bottom: "inception_4a/3x3_reduce_bn"
  top: "inception_4a/3x3"
  param {
    lr_mult: 1
    decay_mult: 1
  }
  param {
    lr_mult: 2
    decay_mult: 0
  }
  convolution_param {
    num_output: 96
    pad: 1
    kernel_size: 3
    weight_filler {
      type: "xavier"
    }
    bias_filler {
      type: "constant"
      value: 0.2
    }
  }
}
layer {
  name: "inception_4a/3x3_bn"
  type: "BN"
  bottom: "inception_4a/3x3"
  top: "inception_4a/3x3_bn"
  param {
    lr_mult: 1
    decay_mult: 0
  }
  param {
    lr_mult: 1
    decay_mult: 0
  }
  bn_param {
    slope_filler {
      type: "constant"
      value: 1
    }
    bias_filler {
      type: "constant"
      value: 0
    }
    frozen: true
  }
}
layer {
  name: "inception_4a/relu_3x3"
  type: "ReLU"
  bottom: "inception_4a/3x3_bn"
  top: "inception_4a/3x3_bn"
}
layer {
  name: "inception_4a/double_3x3_reduce"
  type: "Convolution"
  bottom: "inception_3c/output"
  top: "inception_4a/double_3x3_reduce"
  param {
    lr_mult: 1
    decay_mult: 1
  }
  param {
    lr_mult: 2
    decay_mult: 0
  }
  convolution_param {
    num_output: 96
    kernel_size: 1
    weight_filler {
      type: "xavier"
    }
    bias_filler {
      type: "constant"
      value: 0.2
    }
  }
}
layer {
  name: "inception_4a/double_3x3_reduce_bn"
  type: "BN"
  bottom: "inception_4a/double_3x3_reduce"
  top: "inception_4a/double_3x3_reduce_bn"
  param {
    lr_mult: 1
    decay_mult: 0
  }
  param {
    lr_mult: 1
    decay_mult: 0
  }
  bn_param {
    slope_filler {
      type: "constant"
      value: 1
    }
    bias_filler {
      type: "constant"
      value: 0
    }
    frozen: true
  }
}
layer {
  name: "inception_4a/relu_double_3x3_reduce"
  type: "ReLU"
  bottom: "inception_4a/double_3x3_reduce_bn"
  top: "inception_4a/double_3x3_reduce_bn"
}
layer {
  name: "inception_4a/double_3x3_1"
  type: "Convolution"
  bottom: "inception_4a/double_3x3_reduce_bn"
  top: "inception_4a/double_3x3_1"
  param {
    lr_mult: 1
    decay_mult: 1
  }
  param {
    lr_mult: 2
    decay_mult: 0
  }
  convolution_param {
    num_output: 128
    pad: 1
    kernel_size: 3
    weight_filler {
      type: "xavier"
    }
    bias_filler {
      type: "constant"
      value: 0.2
    }
  }
}
layer {
  name: "inception_4a/double_3x3_1_bn"
  type: "BN"
  bottom: "inception_4a/double_3x3_1"
  top: "inception_4a/double_3x3_1_bn"
  param {
    lr_mult: 1
    decay_mult: 0
  }
  param {
    lr_mult: 1
    decay_mult: 0
  }
  bn_param {
    slope_filler {
      type: "constant"
      value: 1
    }
    bias_filler {
      type: "constant"
      value: 0
    }
    frozen: true
  }
}
layer {
  name: "inception_4a/relu_double_3x3_1"
  type: "ReLU"
  bottom: "inception_4a/double_3x3_1_bn"
  top: "inception_4a/double_3x3_1_bn"
}
layer {
  name: "inception_4a/double_3x3_2"
  type: "Convolution"
  bottom: "inception_4a/double_3x3_1_bn"
  top: "inception_4a/double_3x3_2"
  param {
    lr_mult: 1
    decay_mult: 1
  }
  param {
    lr_mult: 2
    decay_mult: 0
  }
  convolution_param {
    num_output: 128
    pad: 1
    kernel_size: 3
    weight_filler {
      type: "xavier"
    }
    bias_filler {
      type: "constant"
      value: 0.2
    }
  }
}
layer {
  name: "inception_4a/double_3x3_2_bn"
  type: "BN"
  bottom: "inception_4a/double_3x3_2"
  top: "inception_4a/double_3x3_2_bn"
  param {
    lr_mult: 1
    decay_mult: 0
  }
  param {
    lr_mult: 1
    decay_mult: 0
  }
  bn_param {
    slope_filler {
      type: "constant"
      value: 1
    }
    bias_filler {
      type: "constant"
      value: 0
    }
    frozen: true
  }
}
layer {
  name: "inception_4a/relu_double_3x3_2"
  type: "ReLU"
  bottom: "inception_4a/double_3x3_2_bn"
  top: "inception_4a/double_3x3_2_bn"
}
layer {
  name: "inception_4a/pool"
  type: "Pooling"
  bottom: "inception_3c/output"
  top: "inception_4a/pool"
  pooling_param {
    pool: AVE
    kernel_size: 3
    stride: 1
    pad: 1
  }
}
layer {
  name: "inception_4a/pool_proj"
  type: "Convolution"
  bottom: "inception_4a/pool"
  top: "inception_4a/pool_proj"
  param {
    lr_mult: 1
    decay_mult: 1
  }
  param {
    lr_mult: 2
    decay_mult: 0
  }
  convolution_param {
    num_output: 128
    kernel_size: 1
    weight_filler {
      type: "xavier"
    }
    bias_filler {
      type: "constant"
      value: 0.2
    }
  }
}
layer {
  name: "inception_4a/pool_proj_bn"
  type: "BN"
  bottom: "inception_4a/pool_proj"
  top: "inception_4a/pool_proj_bn"
  param {
    lr_mult: 1
    decay_mult: 0
  }
  param {
    lr_mult: 1
    decay_mult: 0
  }
  bn_param {
    slope_filler {
      type: "constant"
      value: 1
    }
    bias_filler {
      type: "constant"
      value: 0
    }
    frozen: true
  }
}
layer {
  name: "inception_4a/relu_pool_proj"
  type: "ReLU"
  bottom: "inception_4a/pool_proj_bn"
  top: "inception_4a/pool_proj_bn"
}
layer {
  name: "inception_4a/output"
  type: "Concat"
  bottom: "inception_4a/1x1_bn"
  bottom: "inception_4a/3x3_bn"
  bottom: "inception_4a/double_3x3_2_bn"
  bottom: "inception_4a/pool_proj_bn"
  top: "inception_4a/output"
}
layer {
  name: "inception_4b/
I0306 11:50:18.905436  4895 layer_factory.hpp:74] Creating layer data
I0306 11:50:18.905447  4895 net.cpp:96] Creating Layer data
I0306 11:50:18.905452  4895 net.cpp:415] data -> data
I0306 11:50:18.905458  4895 net.cpp:415] data -> label
I0306 11:50:18.905468  4895 net.cpp:160] Setting up data
I0306 11:50:18.905473  4895 pi_video_data_layer.cpp:34] Opening file: /home/hadoop/whx/dataset/ucf101/val_rgb_split1.txt
…
