…
  type: "VideoData"
  top: "data"
  top: "label"
  include {
    phase: TRAIN
  }
  transform_param {
    mirror: true
    crop_size: 224
    mean_value: 128
    fix_crop: true
    multi_scale: true
    scale_ratios: 1
    scale_ratios: 0.875
    scale_ratios: 0.75
    max_distort: 1
    is_flow: true
    more_fix_crop: true
  }
  video_data_param {
    source: "/home/hadoop/whx/dataset/ucf101/train_flow_split1.txt"
    batch_size: 24
    shuffle: true
    new_length: 5
    num_segments: 3
    modality: FLOW
    name_pattern: "flow_%c_%04d.jpg"
  }
}
layer {
  name: "data_reshape"
  type: "Reshape"
  bottom: "data"
  top: "data_reshape"
  reshape_param {
    shape {
      dim: -1
      dim: 10
      dim: 224
      dim: 224
    }
  }
}
layer {
  name: "conv1/7x7_s2"
  type: "Convolution"
  bottom: "data_reshape"
  top: "conv1/7x7_s2"
  param {
    lr_mult: 5
    decay_mult: 1
  }
  param {
    lr_mult: 10
    decay_mult: 0
  }
  convolution_param {
    num_output: 64
    pad: 3
    kernel_size: 7
    stride: 2
    weight_filler {
      type: "xavier"
    }
    bias_filler {
      type: "constant"
      value: 0.2
    }
  }
}
layer {
  name: "conv1/7x7_s2_bn"
  type: "BN"
  bottom: "conv1/7x7_s2"
  top: "conv1/7x7_s2_bn"
  param {
    lr_mult: 1
    decay_mult: 0
  }
  param {
    lr_mult: 1
    decay_mult: 0
  }
  bn_param {
    slope_filler {
      type: "constant"
      value: 1
    }
    bias_filler {
      type: "constant"
      value: 0
    }
    frozen: false
    engine: CAFFE
  }
}
layer {
  name: "conv1/relu_7x7"
  type: "ReLU"
  bottom: "conv1/7x7_s2_bn"
  top: "conv1/7x7_s2_bn"
}
layer {
  name: "pool1/3x3_s2"
  type: "Pooling"
  bottom: "conv1/7x7_s2_bn"
  top: "pool1/3x3_s2"
  pooling_param {
    pool: MAX
    kernel_size: 3
    stride: 2
  }
}
layer {
  name: "conv2/3x3_reduce"
  type: "Convolution"
  bottom: "pool1/3x3_s2"
  top: "conv2/3x3_reduce"
  param {
    lr_mult: 1
    decay_mult: 1
  }
  param {
    lr_mult: 2
    decay_mult: 0
  }
  convolution_param {
    num_output: 64
    kernel_size: 1
    weight_filler {
      type: "xavier"
    }
    bias_filler {
      type: "constant"
      value: 0.2
    }
  }
}
layer {
  name: "conv2/3x3_reduce_bn"
  type: "BN"
  bottom: "conv2/3x3_reduce"
  top: "conv2/3x3_reduce_bn"
  param {
    lr_mult: 1
    decay_mult: 0
  }
  param {
    lr_mult: 1
    decay_mult: 0
  }
  bn_param {
    slope_filler {
      type: "constant"
      value: 1
    }
    bias_filler {
      type: "constant"
      value: 0
    }
    frozen: true
    engine: CAFFE
  }
}
layer {
  name: "conv2/relu_3x3_reduce"
  type: "ReLU"
  bottom: "conv2/3x3_reduce_bn"
  top: "conv2/3x3_reduce_bn"
}
layer {
  name: "conv2/3x3"
  type: "Convolution"
  bottom: "conv2/3x3_reduce_bn"
  top: "conv2/3x3"
  param {
    lr_mult: 1
    decay_mult: 1
  }
  param {
    lr_mult: 2
    decay_mult: 0
  }
  convolution_param {
    num_output: 192
    pad: 1
    kernel_size: 3
    weight_filler {
      type: "xavier"
    }
    bias_filler {
      type: "constant"
      value: 0.2
    }
  }
}
layer {
  name: "conv2/3x3_bn"
  type: "BN"
  bottom: "conv2/3x3"
  top: "conv2/3x3_bn"
  param {
    lr_mult: 1
    decay_mult: 0
  }
  param {
    lr_mult: 1
    decay_mult: 0
  }
  bn_param {
    slope_filler {
      type: "constant"
      value: 1
    }
    bias_filler {
      type: "constant"
      value: 0
    }
    frozen: true
    engine: CAFFE
  }
}
layer {
  name: "conv2/relu_3x3"
  type: "ReLU"
  bottom: "conv2/3x3_bn"
  top: "conv2/3x3_bn"
}
layer {
  name: "pool2/3x3_s2"
  type: "Pooling"
  bottom: "conv2/3x3_bn"
  top: "pool2/3x3_s2"
  pooling_param {
    pool: MAX
    kernel_size: 3
    stride: 2
  }
}
layer {
  name: "inception_3a/1x1"
  type: "Convolution"
  bottom: "pool2/3x3_s2"
  top: "inception_3a/1x1"
  param {
    lr_mult: 1
    decay_mult: 1
  }
  param {
    lr_mult: 2
    decay_mult: 0
  }
  convolution_param {
    num_output: 64
    kernel_size: 1
    weight_filler {
      type: "xavier"
    }
    bias_filler {
      type: "constant"
      value: 0.2
    }
  }
}
layer {
  name: "inception_3a/1x1_bn"
  type: "BN"
  bottom: "inception_3a/1x1"
  top: "inception_3a/1x1_bn"
  param {
    lr_mult: 1
    decay_mult: 0
  }
  param {
    lr_mult: 1
    decay_mult: 0
  }
  bn_param {
    slope_filler {
      type: "constant"
      value: 1
    }
    bias_filler {
      type: "constant"
      value: 0
    }
    frozen: true
    engine: CAFFE
  }
}
layer {
  name: "inception_3a/relu_1x1"
  type: "ReLU"
  bottom: "inception_3a/1x1_bn"
  top: "inception_3a/1x1_bn"
}
layer {
  name: "inception_3a/3x3_reduce"
  type: "Convolution"
  bottom: "pool2/3x3_s2"
  top: "inception_3a/3x3_reduce"
  param {
    lr_mult: 1
    decay_mult: 1
  }
  param {
    lr_mult: 2
    decay_mult: 0
  }
  convolution_param {
    num_output: 64
    kernel_size: 1
    weight_filler {
      type: "xavier"
    }
    bias_filler {
      type: "constant"
      value: 0.2
    }
  }
}
layer {
  name: "inception_3a/3x3_reduce_bn"
  type: "BN"
  bottom: "inception_3a/3x3_reduce"
  top: "inception_3a/3x3_reduce_bn"
  param {
    lr_mult: 1
    decay_mult: 0
  }
  param {
    lr_mult: 1
    decay_mult: 0
  }
  bn_param {
    slope_filler {
      type: "constant"
      value: 1
    }
    bias_filler {
      type: "constant"
      value: 0
    }
    frozen: true
    engine: CAFFE
  }
}
layer {
  name: "inception_3a/relu_3x3_reduce"
  type: "ReLU"
  bottom: "inception_3a/3x3_reduce_bn"
  top: "inception_3a/3x3_reduce_bn"
}
layer {
  name: "inception_3a/3x3"
  type: "Convolution"
  bottom: "inception_3a/3x3_reduce_bn"
  top: "inception_3a/3x3"
  param {
    lr_mult: 1
    decay_mult: 1
  }
  param {
    lr_mult: 2
    decay_mult: 0
  }
  convolution_param {
    num_output: 64
    pad: 1
    kernel_size: 3
    weight_filler {
      type: "xavier"
    }
    bias_filler {
      type: "constant"
      value: 0.2
    }
  }
}
layer {
  name: "inception_3a/3x3_bn"
  type: "BN"
  bottom: "inception_3a/3x3"
  top: "inception_3a/3x3_bn"
  param {
    lr_mult: 1
    decay_mult: 0
  }
  param {
    lr_mult: 1
    decay_mult: 0
  }
  bn_param {
    slope_filler {
      type: "constant"
      value: 1
    }
    bias_filler {
      type: "constant"
      value: 0
    }
    frozen: true
    engine: CAFFE
  }
}
layer {
  name: "inception_3a/relu_3x3"
  type: "ReLU"
  bottom: "inception_3a/3x3_bn"
  top: "inception_3a/3x3_bn"
}
layer {
  name: "inception_3a/double_3x3_reduce"
  type: "Convolution"
  bottom: "pool2/3x3_s2"
  top: "inception_3a/double_3x3_reduce"
  param {
    lr_mult: 1
    decay_mult: 1
  }
  param {
    lr_mult: 2
    decay_mult: 0
  }
  convolution_param {
    num_output: 64
    kernel_size: 1
    weight_filler {
      type: "xavier"
    }
    bias_filler {
      type: "constant"
      value: 0.2
    }
  }
}
layer {
  name: "inception_3a/double_3x3_reduce_bn"
  type: "BN"
  bottom: "inception_3a/double_3x3_reduce"
  top: "inception_3a/double_3x3_reduce_bn"
  param {
    lr_mult: 1
    decay_mult: 0
  }
  param {
    lr_mult: 1
    decay_mult: 0
  }
  bn_param {
    slope_filler {
      type: "constant"
      value: 1
    }
    bias_filler {
      type: "constant"
      value: 0
    }
    frozen: true
    engine: CAFFE
  }
}
layer {
  name: "inception_3a/relu_double_3x3_reduce"
  type: "ReLU"
  bottom: "inception_3a/double_3x3_reduce_bn"
  top: "inception_3a/double_3x3_reduce_bn"
}
layer {
  name: "inception_3a/double_3x3_1"
  type: "Convolution"
  bottom: "inception_3a/double_3x3_reduce_bn"
  top: "inception_3a/double_3x3_1"
  param {
    lr_mult: 1
    decay_mult: 1
  }
  param {
    lr_mult: 2
    decay_mult: 0
  }
  convolution_param {
    num_output: 96
    pad: 1
    kernel_size: 3
    weight_filler {
      type: "xavier"
    }
    bias_filler {
      type: "constant"
      value: 0.2
    }
  }
}
layer {
  name: "inception_3a/double_3x3_1_bn"
  type: "BN"
  bottom: "inception_3a/double_3x3_1"
  top: "inception_3a/double_3x3_1_bn"
  param {
    lr_mult: 1
    decay_mult: 0
  }
  param {
    lr_mult: 1
    decay_mult: 0
  }
  bn_param {
    slope_filler {
      type: "constant"
      value: 1
    }
    bias_filler {
      type: "constant"
      value: 0
    }
    frozen: true
    engine: CAFFE
  }
}
layer {
  name: "inception_3a/relu_double_3x3_1"
  type: "ReLU"
  bottom: "inception_3a/double_3x3_1_bn"
  top: "inception_3a/double_3x3_1_bn"
}
layer {
  name: "inception_3a/double_3x3_2"
  type: "Convolution"
  bottom: "inception_3a/double_3x3_1_bn"
  top: "inception_3a/double_3x3_2"
  param {
    lr_mult: 1
    decay_mult: 1
  }
  param {
    lr_mult: 2
    decay_mult: 0
  }
  convolution_param {
    num_output: 96
    pad: 1
    kernel_size: 3
    weight_filler {
      type: "xavier"
    }
    bias_filler {
      type: "constant"
      value: 0.2
    }
  }
}
layer {
  name: "inception_3a/double_3x3_2_bn"
  type: "BN"
  bottom: "inception_3a/double_3x3_2"
  top: "inception_3a/double_3x3_2_bn"
  param {
    lr_mult: 1
    decay_mult: 0
  }
  param {
    lr_mult: 1
    decay_mult: 0
  }
  bn_param {
    slope_filler {
      type: "constant"
      value: 1
    }
    bias_filler {
      type: "constant"
      value: 0
    }
    frozen: true
    engine: CAFFE
  }
}
layer {
  name: "inception_3a/relu_double_3x3_2"
  type: "ReLU"
  bottom: "inception_3a/double_3x3_2_bn"
  top: "inception_3a/double_3x3_2_bn"
}
layer {
  name: "inception_3a/pool"
  type: "Pooling"
  bottom: "pool2/3x3_s2"
  top: "inception_3a/pool"
  pooling_param {
    pool: AVE
    kernel_size: 3
    stride: 1
    pad: 1
  }
}
layer {
  name: "inception_3a/pool_proj"
  type: "Convolution"
  bottom: "inception_3a/pool"
  top: "inception_3a/pool_proj"
  param {
    lr_mult: 1
    decay_mult: 1
  }
  param {
    lr_mult: 2
    decay_mult: 0
  }
  convolution_param {
    num_output: 32
    kernel_size: 1
    weight_filler {
      type: "xavier"
    }
    bias_filler {
      type: "constant"
      value: 0.2
    }
  }
}
layer {
  name: "inception_3a/pool_proj_bn"
  type: "BN"
  bottom: "inception_3a/pool_proj"
  top: "inception_3a/pool_proj_bn"
  param {
    lr_mult: 1
    decay_mult: 0
  }
  param {
    lr_mult: 1
    decay_mult: 0
  }
  bn_param {
    slope_filler {
      type: "constant"
      value: 1
    }
    bias_filler {
      type: "constant"
      value: 0
    }
    frozen: true
    engine: CAFFE
  }
}
layer {
  name: "inception_3a/relu_pool_proj"
  type: "ReLU"
  bottom: "inception_3a/pool_proj_bn"
  top: "inception_3a/pool_proj_bn"
}
layer {
  name: "inception_3a/output"
  type: "Concat"
  bottom: "inception_3a/1x1_bn"
  bottom: "inception_3a/3x3_bn"
  bottom: "inception_3a/double_3x3_2_bn"
  bottom: "inception_3a/pool_proj_bn"
  top: "inception_3a/output"
}
layer {
  name: "inception_3b/1x1"
  type: "Convolution"
  bottom: "inception_3a/output"
  top: "inception_3b/1x1"
  param {
    lr_mult: 1
    decay_mult: 1
  }
  param {
    lr_mult: 2
    decay_mult: 0
  }
  convolution_param {
    num_output: 64
    kernel_size: 1
    weight_filler {
      type: "xavier"
    }
    bias_filler {
      type: "constant"
      value: 0.2
    }
  }
}
layer {
  name: "inception_3b/1x1_bn"
  type: "BN"
  bottom: "inception_3b/1x1"
  top: "inception_3b/1x1_bn"
  param {
    lr_mult: 1
    decay_mult: 0
  }
  param {
    lr_mult: 1
    decay_mult: 0
  }
  bn_param {
    slope_filler {
      type: "constant"
      value: 1
    }
    bias_filler {
      type: "constant"
      value: 0
    }
    frozen: true
    engine: CAFFE
  }
}
layer {
  name: "inception_3b/relu_1x1"
  type: "ReLU"
  bottom: "inception_3b/1x1_bn"
  top: "inception_3b/1x1_bn"
}
layer {
  name: "inception_3b/3x3_reduce"
  type: "Convolution"
  bottom: "inception_3a/output"
  top: "inception_3b/3x3_reduce"
  param {
    lr_mult: 1
    decay_mult: 1
  }
  param {
    lr_mult: 2
    decay_mult: 0
  }
  convolution_param {
    num_output: 64
    kernel_size: 1
    weight_filler {
      type: "xavier"
    }
    bias_filler {
      type: "constant"
      value: 0.2
    }
  }
}
layer {
  name: "inception_3b/3x3_reduce_bn"
  type: "BN"
  bottom: "inception_3b/3x3_reduce"
  top: "inception_3b/3x3_reduce_bn"
  param {
    lr_mult: 1
    decay_mult: 0
  }
  param {
    lr_mult: 1
    decay_mult: 0
  }
  bn_param {
    slope_filler {
      type: "constant"
      value: 1
    }
    bias_filler {
      type: "constant"
      value: 0
    }
    frozen: true
    engine: CAFFE
  }
}
layer {
  name: "inception_3b/relu_3x3_reduce"
  type: "ReLU"
  bottom: "inception_3b/3x3_reduce_bn"
  top: "inception_3b/3x3_reduce_bn"
}
layer {
  name: "inception_3b/3x3"
  type: "Convolution"
  bottom: "inception_3b/3x3_reduce_bn"
  top: "inception_3b/3x3"
  param {
    lr_mult: 1
    decay_mult: 1
  }
  param {
    lr_mult: 2
    decay_mult: 0
  }
  convolution_param {
    num_output: 96
    pad: 1
    kernel_size: 3
    weight_filler {
      type: "xavier"
    }
    bias_filler {
      type: "constant"
      value: 0.2
    }
  }
}
layer {
  name: "inception_3b/3x3_bn"
  type: "BN"
  bottom: "inception_3b/3x3"
  top: "inception_3b/3x3_bn"
  param {
    lr_mult: 1
    decay_mult: 0
  }
  param {
    lr_mult: 1
    decay_mult: 0
  }
  bn_param {
    slope_filler {
      type: "constant"
      value: 1
    }
    bias_filler {
      type: "constant"
      value: 0
    }
    frozen: true
    engine: CAFFE
  }
}
layer {
  name: "inception_3b/relu_3x3"
  type: "ReLU"
  bottom: "inception_3b/3x3_bn"
  top: "inception_3b/3x3_bn"
}
layer {
  name: "inception_3b/double_3x3_reduce"
  type: "Convolution"
  bottom: "inception_3a/output"
  top: "inception_3b/double_3x3_reduce"
  param {
    lr_mult: 1
    decay_mult: 1
  }
  param {
    lr_mult: 2
    decay_mult: 0
  }
  convolution_param {
    num_output: 64
    kernel_size: 1
    weight_filler {
      type: "xavier"
    }
    bias_filler {
      type: "constant"
      value: 0.2
    }
  }
}
layer {
  name: "inception_3b/double_3x3_reduce_bn"
  type: "BN"
  bottom: "inception_3b/double_3x3_reduce"
  top: "inception_3b/double_3x3_reduce_bn"
  param {
    lr_mult: 1
    decay_mult: 0
  }
  param {
    lr_mult: 1
    decay_mult: 0
  }
  bn_param {
    slope_filler {
      type: "constant"
      value: 1
    }
    bias_filler {
      type: "constant"
      value: 0
    }
    frozen: true
    engine: CAFFE
  }
}
layer {
  name: "inception_3b/relu_double_3x3_reduce"
  type: "ReLU"
  bottom: "inception_3b/double_3x3_reduce_bn"
  top: "inception_3b/double_3x3_reduce_bn"
}
layer {
  name: "inception_3b/double_3x3_1"
  type: "Convolution"
  bottom: "inception_3b/double_3x3_reduce_bn"
  top: "inception_3b/double_3x3_1"
  param {
    lr_mult: 1
    decay_mult: 1
  }
  param {
    lr_mult: 2
    decay_mult: 0
  }
  convolution_param {
    num_output: 96
    pad: 1
    kernel_size: 3
    weight_filler {
      type: "xavier"
    }
    bias_filler {
      type: "constant"
      value: 0.2
    }
  }
}
layer {
  name: "inception_3b/double_3x3_1_bn"
  type: "BN"
  bottom: "inception_3b/double_3x3_1"
  top: "inception_3b/double_3x3_1_bn"
  param {
    lr_mult: 1
    decay_mult: 0
  }
  param {
    lr_mult: 1
    decay_mult: 0
  }
  bn_param {
    slope_filler {
      type: "constant"
      value: 1
    }
    bias_filler {
      type: "constant"
      value: 0
    }
    frozen: true
    engine: CAFFE
  }
}
layer {
  name: "inception_3b/relu_double_3x3_1"
  type: "ReLU"
  bottom: "inception_3b/double_3x3_1_bn"
  top: "inception_3b/double_3x3_1_bn"
}
layer {
  name: "inception_3b/double_3x3_2"
  type: "Convolution"
  bottom: "inception_3b/double_3x3_1_bn"
  top: "inception_3b/double_3x3_2"
  param {
    lr_mult: 1
    decay_mult: 1
  }
  param {
    lr_mult: 2
    decay_mult: 0
  }
  convolution_param {
    num_output: 96
    pad: 1
    kernel_size: 3
    weight_filler {
      type: "xavier"
    }
    bias_filler {
      type: "constant"
      value: 0.2
    }
  }
}
layer {
  name: "inception_3b/double_3x3_2_bn"
  type: "BN"
  bottom: "inception_3b/double_3x3_2"
  top: "inception_3b/double_3x3_2_bn"
  param {
    lr_mult: 1
    decay_mult: 0
  }
  param {
    lr_mult: 1
    decay_mult: 0
  }
  bn_param {
    slope_filler {
      type: "constant"
      value: 1
    }
    bias_filler {
      type: "constant"
      value: 0
    }
    frozen: true
    engine: CAFFE
  }
}
layer {
  name: "inception_3b/relu_double_3x3_2"
  type: "ReLU"
  bottom: "inception_3b/double_3x3_2_bn"
  top: "inception_3b/double_3x3_2_bn"
}
layer {
  name: "inception_3b/pool"
  type: "Pooling"
  bottom: "inception_3a/output"
  top: "inception_3b/pool"
  pooling_param {
    pool: AVE
    kernel_size: 3
    stride: 1
    pad: 1
  }
}
layer {
  name: "inception_3b/pool_proj"
  type: "Convolution"
  bottom: "inception_3b/pool"
  top: "inception_3b/pool_proj"
  param {
    lr_mult: 1
    decay_mult: 1
  }
  param {
    lr_mult: 2
    decay_mult: 0
  }
  convolution_param {
    num_output: 64
    kernel_size: 1
    weight_filler {
      type: "xavier"
    }
    bias_filler {
      type: "constant"
      value: 0.2
    }
  }
}
layer {
  name: "inception_3b/pool_proj_bn"
  type: "BN"
  bottom: "inception_3b/pool_proj"
  top: "inception_3b/pool_proj_bn"
  param {
    lr_mult: 1
    decay_mult: 0
  }
  param {
    lr_mult: 1
    decay_mult: 0
  }
  bn_param {
    slope_filler {
      type: "constant"
      value: 1
    }
    bias_filler {
      type: "constant"
      value: 0
    }
    frozen: true
    engine: CAFFE
  }
}
layer {
  name: "inception_3b/relu_pool_proj"
  type: "ReLU"
  bottom: "inception_3b/pool_proj_bn"
  top: "inception_3b/pool_proj_bn"
}
layer {
  name: "inception_3b/output"
  type: "Concat"
  bottom: "inception_3b/1x1_bn"
  bottom: "inception_3b/3x3_bn"
  bottom: "inception_3b/double_3x3_2_bn"
  bottom: "inception_3b/pool_proj_bn"
  top: "inception_3b/output"
}
layer {
  name: "inception_3c/3x3_reduce"
  type: "Convolution"
  bottom: "inception_3b/output"
  top: "inception_3c/3x3_reduce"
  param {
    lr_mult: 1
    decay_mult: 1
  }
  param {
    lr_mult: 2
    decay_mult: 0
  }
  convolution_param {
    num_output: 128
    kernel_size: 1
    weight_filler {
      type: "xavier"
    }
    bias_filler {
      type: "constant"
      value: 0.2
    }
  }
}
layer {
  name: "inception_3c/3x3_reduce_bn"
  type: "BN"
  bottom: "inception_3c/3x3_reduce"
  top: "inception_3c/3x3_reduce_bn"
  param {
    lr_mult: 1
    decay_mult: 0
  }
  param {
    lr_mult: 1
    decay_mult: 0
  }
  bn_param {
    slope_filler {
      type: "constant"
      value: 1
    }
    bias_filler {
      type: "constant"
      value: 0
    }
    frozen: true
    engine: CAFFE
  }
}
layer {
  name: "inception_3c/relu_3x3_reduce"
  type: "ReLU"
  bottom: "inception_3c/3x3_reduce_bn"
  top: "inception_3c/3x3_reduce_bn"
}
layer {
  name: "inception_3c/3x3"
  type: "Convolution"
  bottom: "inception_3c/3x3_reduce_bn"
  top: "inception_3c/3x3"
  param {
    lr_mult: 1
    decay_mult: 1
  }
  param {
    lr_mult: 2
    decay_mult: 0
  }
  convolution_param {
    num_output: 160
    pad: 1
    kernel_size: 3
    stride: 2
    weight_filler {
      type: "xavier"
    }
    bias_filler {
      type: "constant"
      value: 0.2
    }
  }
}
layer {
  name: "inception_3c/3x3_bn"
  type: "BN"
  bottom: "inception_3c/3x3"
  top: "inception_3c/3x3_bn"
  param {
    lr_mult: 1
    decay_mult: 0
  }
  param {
    lr_mult: 1
    decay_mult: 0
  }
  bn_param {
    slope_filler {
      type: "constant"
      value: 1
    }
    bias_filler {
      type: "constant"
      value: 0
    }
    frozen: true
    engine: CAFFE
  }
}
layer {
  name: "inception_3c/relu_3x3"
  type: "ReLU"
  bottom: "inception_3c/3x3_bn"
  top: "inception_3c/3x3_bn"
}
layer {
  name: "inception_3c/double_3x3_reduce"
  type: "Convolution"
  bottom: "inception_3b/output"
  top: "inception_3c/double_3x3_reduce"
  param {
    lr_mult: 1
    decay_mult: 1
  }
  param {
    lr_mult: 2
    decay_mult: 0
  }
  convolution_param {
    num_output: 64
    kernel_size: 1
    weight_filler {
      type: "xavier"
    }
    bias_filler {
      type: "constant"
      value: 0.2
    }
  }
}
layer {
  name: "inception_3c/double_3x3_reduce_bn"
  type: "BN"
  bottom: "inception_3c/double_3x3_reduce"
  top: "inception_3c/double_3x3_reduce_bn"
  param {
    lr_mult: 1
    decay_mult: 0
  }
  param {
    lr_mult: 1
    decay_mult: 0
  }
  bn_param {
    slope_filler {
      type: "constant"
      value: 1
    }
    bias_filler {
      type: "constant"
      value: 0
    }
    frozen: true
    engine: CAFFE
  }
}
layer {
  name: "inception_3c/relu_double_3x3_reduce"
  type: "ReLU"
  bottom: "inception_3c/double_3x3_reduce_bn"
  top: "inception_3c/double_3x3_reduce_bn"
}
layer {
  name: "inception_3c/double_3x3_1"
  type: "Convolution"
  bottom: "inception_3c/double_3x3_reduce_bn"
  top: "inception_3c/double_3x3_1"
  param {
    lr_mult: 1
    decay_mult: 1
  }
  param {
    lr_mult: 2
    decay_mult: 0
  }
  convolution_param {
    num_output: 96
    pad: 1
    kernel_size: 3
    weight_filler {
      type: "xavier"
    }
    bias_filler {
      type: "constant"
      value: 0.2
    }
  }
}
layer {
  name: "inception_3c/double_3x3_1_bn"
  type: "BN"
  bottom: "inception_3c/double_3x3_1"
  top: "inception_3c/double_3x3_1_bn"
  param {
    lr_mult: 1
    decay_mult: 0
  }
  param {
    lr_mult: 1
    decay_mult: 0
  }
  bn_param {
    slope_filler {
      type: "constant"
      value: 1
    }
    bias_filler {
      type: "constant"
      value: 0
    }
    frozen: true
    engine: CAFFE
  }
}
layer {
  name: "inception_3c/relu_double_3x3_1"
  type: "ReLU"
  bottom: "inception_3c/double_3x3_1_bn"
  top: "inception_3c/double_3x3_1_bn"
}
layer {
  name: "inception_3c/double_3x3_2"
  type: "Convolution"
  bottom: "inception_3c/double_3x3_1_bn"
  top: "inception_3c/double_3x3_2"
  param {
    lr_mult: 1
    decay_mult: 1
  }
  param {
    lr_mult: 2
    decay_mult: 0
  }
  convolution_param {
    num_output: 96
    pad: 1
    kernel_size: 3
    stride: 2
    weight_filler {
      type: "xavier"
    }
    bias_filler {
      type: "constant"
      value: 0.2
    }
  }
}
layer {
  name: "inception_3c/double_3x3_2_bn"
  type: "BN"
  bottom: "inception_3c/double_3x3_2"
  top: "inception_3c/double_3x3_2_bn"
  param {
    lr_mult: 1
    decay_mult: 0
  }
  param {
    lr_mult: 1
    decay_mult: 0
  }
  bn_param {
    slope_filler {
      type: "constant"
      value: 1
    }
    bias_filler {
      type: "constant"
      value: 0
    }
    frozen: true
    engine: CAFFE
  }
}
layer {
  name: "inception_3c/relu_double_3x3_2"
  type: "ReLU"
  bottom: "inception_3c/double_3x3_2_bn"
  top: "inception_3c/double_3x3_2_bn"
}
layer {
  name: "inception_3c/pool"
  type: "Pooling"
  bottom: "inception_3b/output"
  top: "inception_3c/pool"
  pooling_param {
    pool: MAX
    kernel_size: 3
    stride: 2
  }
}
layer {
  name: "inception_3c/output"
  type: "Concat"
  bottom: "inception_3c/3x3_bn"
  bottom: "inception_3c/double_3x3_2_bn"
  bottom: "inception_3c/pool"
  top: "inception_3c/output"
}
layer {
  name: "inception_4a/1x1"
  type: "Convolution"
  bottom: "inception_3c/output"
  top: "inception_4a/1x1"
  param {
    lr_mult: 1
    decay_mult: 1
  }
  param {
    lr_mult: 2
    decay_mult: 0
  }
  convolution_param {
    num_output: 224
    kernel_size: 1
    weight_filler {
      type: "xavier"
    }
    bias_filler {
      type: "constant"
      value: 0.2
    }
  }
}
layer {
  name: "inception_4a/1x1_bn"
  type: "BN"
  bottom: "inception_4a/1x1"
  top: "inception_4a/1x1_bn"
  param {
    lr_mult: 1
    decay_mult: 0
  }
  param {
    lr_mult: 1
    decay_mult: 0
  }
  bn_param {
    slope_filler {
      type: "constant"
      value: 1
    }
    bias_filler {
      type: "constant"
      value: 0
    }
    frozen: true
    engine: CAFFE
  }
}
layer {
  name: "inception_4a/relu_1x1"
  type: "ReLU"
  bottom: "inception_4a/1x1_bn"
  top: "inception_4a/1x1_bn"
}
layer {
  name: "inception_4a/3x3_reduce"
  type: "Convolution"
  bottom: "inception_3c/output"
  top: "inception_4a/3x3_reduce"
  param {
    lr_mult: 1
    decay_mult: 1
  }
  param {
    lr_mult: 2
    decay_mult: 0
  }
  convolution_param {
    num_output: 64
    kernel_size: 1
    weight_filler {
      type: "xavier"
    }
    bias_filler {
      type: "constant"
      value: 0.2
    }
  }
}
layer {
  name: "inception_4a/3x3_reduce_bn"
  type: "BN"
  bottom: "inception_4a/3x3_reduce"
  top: "inception_4a/3x3_reduce_bn"
  param {
    lr_mult: 1
    decay_mult: 0
  }
  param {
    lr_mult: 1
    decay_mult: 0
  }
  bn_param {
    slope_filler {
      type: "constant"
      value: 1
    }
    bias_filler {
      type: "constant"
      value: 0
    }
    frozen: true
    engine: CAFFE
  }
}
layer {
  name: "inception_4a/relu_3x3_reduce"
  type: "ReLU"
  bottom: "inception_4a/3x3_reduce_bn"
  top: "inception_4a/3x3_reduce_bn"
}
layer {
  name: "inception_4a/3x3"
  type: "Convolution"
  bottom: "inception_4a/3x3_reduce_bn"
  top: "inception_4a/3x3"
  param {
    lr_mult: 1
    decay_mult: 1
  }
  param {
    lr_mult: 2
    decay_mult: 0
  }
  convolution_param {
    num_output: 96
    pad: 1
    kernel_size: 3
    weight_filler {
      type: "xavier"
    }
    bias_filler {
      type: "constant"
      value: 0.2
    }
  }
}
layer {
  name: "inception_4a/3x3_bn"
  type: "BN"
  bottom: "inception_4a/3x3"
  top: "inception_4a/3x3_bn"
  param {
    lr_mult: 1
    decay_mult: 0
  }
  param {
    lr_mult: 1
    decay_mult: 0
  }
  bn_param {
    slope_filler {
      type: "constant"
      value: 1
    }
    bias_filler {
      type: "constant"
      value: 0
    }
    frozen: true
    engine: CAFFE
  }
}
layer {
  name: "inception_4a/relu_3x3"
  type: "ReLU"
  bottom: "inception_4a/3x3_bn"
  top: "inception_4a/3x3_bn"
}
layer {
  name: "inception_4a/double_3x3_reduce"
  type: "Convolution"
  bottom: "inception_3c/output"
  top: "inception_4a/double_3x3_reduce"
  param {
    lr_mult: 1
    decay_mult: 1
  }
  param {
    lr_mult: 2
    decay_mult: 0
  }
  convolution_param {
    num_output: 96
    kernel_size: 1
    weight_filler {
      type: "xavier"
    }
    bias_filler {
      type: "constant"
      value: 0.2
    }
  }
}
layer {
  name: "inception_4a/double_3x3_reduce_bn"
  type: "BN"
  bottom: "inception_4a/double_3x3_reduce"
  top: "inception_4a/double_3x3_reduce_bn"
  param {
    lr_mult: 1
    decay_mult: 0
  }
  param {
    lr_mult: 1
    decay_mult: 0
  }
  bn_param {
    slope_filler {
      type: "constant"
      value: 1
    }
    bias_filler {
      type: "constant"
      value: 0
    }
    frozen: true
    engine: CAFFE
  }
}
layer {
  name: "inception_4a/relu_double_3x3_reduce"
  type: "ReLU"
  bottom: "inception_4a/double_3x3_reduce_bn"
  top: "inception_4a/double_3x3_reduce_bn"
}
layer {
  name: "inception_4a/double_3x3_1"
  type: "Convolution"
  bottom: "inception_4a/double_3x3_reduce_bn"
  top: "inception_4a/double_3x3_1"
  param {
    lr_mult: 1
    decay_mult: 1
  }
  param {
    lr_mult: 2
    decay_mult: 0
  }
  convolution_param {
    num_output: 128
    pad: 1
    kernel_size: 3
    weight_filler {
      type: "xavier"
    }
    bias_filler {
      type: "constant"
      value: 0.2
    }
  }
}
layer {
  name: "inception_4a/double_3x3_1_bn"
  type: "BN"
  bottom: "inception_4a/double_3x3_1"
  top: "inception_4a/double_3x3_1_bn"
  param {
    lr_mult: 1
    decay_mult: 0
  }
  param {
    lr_mult: 1
    decay_mult: 0
  }
  bn_param {
    slope_filler {
      type: "constant"
      value: 1
    }
    bias_filler {
      type: "constant"
      value: 0
    }
    frozen: true
    engine: CAFFE
  }
}
layer {
  name: "inception_4a/relu_double_3x3_1"
  type: "ReLU"
  bottom: "inception_4a/double_3x3_1_bn"
  top: "inception_4a/double_3x3_1_bn"
}
layer {
  name: "inception_4a/double_3x3_2"
  type: "Convolution"
  bottom: "inception_4a/double_3x3_1_bn"
  top: "inception_4a/double_3x3_2"
  param {
    lr_mult: 1
    decay_mult: 1
  }
  param {
    lr_mult: 2
    decay_mult: 0
  }
  convolution_param {
    num_output: 128
    pad: 1
    kernel_size: 3
    weight_filler {
      type: "xavier"
    }
    bias_filler {
      type: "constant"
      value: 0.2
    }
  }
}
layer {
  name: "inception_4a/double_3x3_2_bn"
  type: "BN"
  bottom: "inception_4a/double_3x3_2"
  top: "inception_4a/double_3x3_2_bn"
  param {
    lr_mult: 1
    decay_mult: 0
  }
  param {
    lr_mult: 1
    decay_mult: 0
  }
  bn_param {
    slope_filler {
      type: "constant"
      value: 1
    }
    bias_filler {
      type: "constant"
      value: 0
    }
    frozen: true
    engine: CAFFE
  }
}
layer {
  name: "inception_4a/relu_double_3x3_2"
  type: "ReLU"
  bottom: "inception_4a/double_3x3_2_bn"
  top: "inception_4a/double_3x3_2_bn"
}
layer {
  name: "inception_4a/pool"
  type: "Pooling"
  bottom: "inception_3c/output"
  top: "inception_4a/pool"
  pooling_param {
    pool: AVE
    kernel_size: 3
    stride: 1
    pad: 1
  }
}
layer {
  name: "inception_4a/pool_proj"
  type: "Convolution"
  bottom: "inception_4a/pool"
  top: "inception_4a/pool_proj"
  param {
    lr_mult: 1
    decay_mult: 1
  }
  param {
    lr_mult: 2
    decay_mult: 0
  }
  convolution_param {
    num_output: 128
    kernel_size: 1
    weight_filler {
      type: "xavier"
    }
    bias_filler {
      type: "constant"
      value: 0.2
    }
  }
}
layer {
  name: "inception_4a/pool_proj_bn"
  type: "BN"
  bottom: "inception_4a/pool_proj"
  top: "inception_4a/pool_proj_bn"
  param {
    lr_mult: 1
    decay_mult: 0
  }
  param {
    lr_mult: 1
    decay_mult: 0
  }
  bn_param {
    slope_filler {
      type: "constant"
      value: 1
    }
    bias_filler {
      type: "constant"
      value: 0
    }
    frozen: true
    engine: CAFFE
  }
}
layer {
  name: "inception_4a/relu_pool_proj"
  type: "ReLU"
  bottom: "inception_4a/pool_proj_bn"
  top: "inception_4a/pool_proj_bn"
}
layer {
  name: "inception_4a/output"
  type: "Concat"
  bottom: "inception_4a/1x1_b
I1222 20:50:59.275805 14696 layer_factory.hpp:74] Creating layer data
I1222 20:50:59.275820 14696 net.cpp:96] Creating Layer data
I1222 20:50:59.275826 14696 net.cpp:415] data -> data
I1222 20:50:59.275841 14696 net.cpp:415] data -> label
I1222 20:50:59.275849 14696 net.cpp:160] Setting up data
I1222 20:50:59.276145 14696 video_data_layer.cpp:34] Opening file: /home/hadoop/whx/dataset/ucf101/train_flow_split1.txt
I1222 20:50:59.280164 14696 video_data_layer.cpp:50] A total of 9537 videos.
I1222 20:50:59.307154 14696 video_data_layer.cpp:89] output data size: 24,30,224,224
I1222 20:50:59.319188 14696 net.cpp:167] Top shape: 24 30 224 224 (36126720)
I1222 20:50:59.319214 14696 net.cpp:167] Top shape: 24 1 1 1 (24)
I1222 20:50:59.319221 14696 layer_factory.hpp:74] Creating layer data_reshape
I1222 20:50:59.319232 14696 net.cpp:96] Creating Layer data_reshape
I1222 20:50:59.319238 14696 net.cpp:459] data_reshape <- data
I1222 20:50:59.319247 14696 net.cpp:415] data_reshape -> data_reshape
I1222 20:50:59.319257 14696 net.cpp:160] Setting up data_reshape
I1222 20:50:59.319267 14696 net.cpp:167] Top shape: 72 10 224 224 (36126720)
I1222 20:50:59.319272 14696 layer_factory.hpp:74] Creating layer conv1/7x7_s2
I1222 20:50:59.319279 14696 net.cpp:96] Creating Layer conv1/7x7_s2
I1222 20:50:59.319283 14696 net.cpp:459] conv1/7x7_s2 <- data_reshape
I1222 20:50:59.319288 14696 net.cpp:415] conv1/7x7_s2 -> conv1/7x7_s2
I1222 20:50:59.319294 14696 net.cpp:160] Setting up conv1/7x7_s2
I1222 20:50:59.319440 14696 net.cpp:167] Top shape: 72 64 112 112 (57802752)
I1222 20:50:59.319454 14696 layer_factory.hpp:74] Creating layer conv1/7x7_s2_bn
I1222 20:50:59.319465 14696 layer_factory.cpp:177] Layer conv1/7x7_s2_bn is using CAFFE engine.
I1222 20:50:59.319471 14696 net.cpp:96] Creating Layer conv1/7x7_s2_bn
I1222 20:50:59.319474 14696 net.cpp:459] conv1/7x7_s2_bn <- conv1/7x7_s2
I1222 20:50:59.319478 14696 net.cpp:415] conv1/7x7_s2_bn -> conv1/7x7_s2_bn
I1222 20:50:59.319485 14696 net.cpp:160] Setting up conv1/7x7_s2_bn
I1222 20:50:59.319504 14696 net.cpp:167] Top shape: 72 64 112 112 (57802752)
I1222 20:50:59.319511 14696 layer_factory.hpp:74] Creating layer conv1/relu_7x7
I1222 20:50:59.319516 14696 net.cpp:96] Creating Layer conv1/relu_7x7
I1222 20:50:59.319519 14696 net.cpp:459] conv1/relu_7x7 <- conv1/7x7_s2_bn
I1222 20:50:59.319524 14696 net.cpp:404] conv1/relu_7x7 -> conv1/7x7_s2_bn (in-place)
I1222 20:50:59.319527 14696 net.cpp:160] Setting up conv1/relu_7x7
I1222 20:50:59.319530 14696 net.cpp:167] Top shape: 72 64 112 112 (57802752)
I1222 20:50:59.319533 14696 layer_factory.hpp:74] Creating layer pool1/3x3_s2
I1222 20:50:59.319538 14696 net.cpp:96] Creating Layer pool1/3x3_s2
I1222 20:50:59.319541 14696 net.cpp:459] pool1/3x3_s2 <- conv1/7x7_s2_bn
I1222 20:50:59.319545 14696 net.cpp:415] pool1/3x3_s2 -> pool1/3x3_s2
I1222 20:50:59.319550 14696 net.cpp:160] Setting up pool1/3x3_s2
I1222 20:50:59.319560 14696 net.cpp:167] Top shape: 72 64 56 56 (14450688)
I1222 20:50:59.319562 14696 layer_factory.hpp:74] Creating layer conv2/3x3_reduce
I1222 20:50:59.319567 14696 net.cpp:96] Creating Layer conv2/3x3_reduce
I1222 20:50:59.319571 14696 net.cpp:459] conv2/3x3_reduce <- pool1/3x3_s2
I1222 20:50:59.319576 14696 net.cpp:415] conv2/3x3_reduce -> conv2/3x3_reduce
I1222 20:50:59.319579 14696 net.cpp:160] Setting up conv2/3x3_reduce
I1222 20:50:59.319604 14696 net.cpp:167] Top shape: 72 64 56 56 (14450688)
I1222 20:50:59.319609 14696 layer_factory.hpp:74] Creating layer conv2/3x3_reduce_bn
I1222 20:50:59.319612 14696 layer_factory.cpp:177] Layer conv2/3x3_reduce_bn is using CAFFE engine.
I1222 20:50:59.319617 14696 net.cpp:96] Creating Layer conv2/3x3_reduce_bn
I1222 20:50:59.319619 14696 net.cpp:459] conv2/3x3_reduce_bn <- conv2/3x3_reduce
I1222 20:50:59.319624 14696 net.cpp:415] conv2/3x3_reduce_bn -> conv2/3x3_reduce_bn
I1222 20:50:59.319628 14696 net.cpp:160] Setting up conv2/3x3_reduce_bn
I1222 20:50:59.319639 14696 net.cpp:167] Top shape: 72 64 56 56 (14450688)
I1222 20:50:59.319645 14696 layer_factory.hpp:74] Creating layer conv2/relu_3x3_reduce
I1222 20:50:59.319650 14696 net.cpp:96] Creating Layer conv2/relu_3x3_reduce
I1222 20:50:59.319653 14696 net.cpp:459] conv2/relu_3x3_reduce <- conv2/3x3_reduce_bn
I1222 20:50:59.319656 14696 net.cpp:404] conv2/relu_3x3_reduce -> conv2/3x3_reduce_bn (in-place)
I1222 20:50:59.319660 14696 net.cpp:160] Setting up conv2/relu_3x3_reduce
I1222 20:50:59.319664 14696 net.cpp:167] Top shape: 72 64 56 56 (14450688)
I1222 20:50:59.319667 14696 layer_factory.hpp:74] Creating layer conv2/3x3
I1222 20:50:59.319671 14696 net.cpp:96] Creating Layer conv2/3x3
I1222 20:50:59.319674 14696 net.cpp:459] conv2/3x3 <- conv2/3x3_reduce_bn
I1222 20:50:59.319679 14696 net.cpp:415] conv2/3x3 -> conv2/3x3
I1222 20:50:59.319684 14696 net.cpp:160] Setting up conv2/3x3
I1222 20:50:59.320116 14696 net.cpp:167] Top shape: 72 192 56 56 (43352064)
I1222 20:50:59.320121 14696 layer_factory.hpp:74] Creating layer conv2/3x3_bn
I1222 20:50:59.320123 14696 layer_factory.cpp:177] Layer conv2/3x3_bn is using CAFFE engine.
I1222 20:50:59.320128 14696 net.cpp:96] Creating Layer conv2/3x3_bn
I1222 20:50:59.320132 14696 net.cpp:459] conv2/3x3_bn <- conv2/3x3
I1222 20:50:59.320135 14696 net.cpp:415] conv2/3x3_bn -> conv2/3x3_bn
I1222 20:50:59.320140 14696 net.cpp:160] Setting up conv2/3x3_bn
I1222 20:50:59.320150 14696 net.cpp:167] Top shape: 72 192 56 56 (43352064)
I1222 20:50:59.320158 14696 layer_factory.hpp:74] Creating layer conv2/relu_3x3
I1222 20:50:59.320161 14696 net.cpp:96] Creating Layer conv2/relu_3x3
I1222 20:50:59.320164 14696 net.cpp:459] conv2/relu_3x3 <- conv2/3x3_bn
I1222 20:50:59.320173 14696 net.cpp:404] conv2/relu_3x3 -> conv2/3x3_bn (in-place)
I1222 20:50:59.320181 14696 net.cpp:160] Setting up conv2/relu_3x3
I1222 20:50:59.320185 14696 net.cpp:167] Top shape: 72 192 56 56 (43352064)
I1222 20:50:59.320188 14696 layer_factory.hpp:74] Creating layer pool2/3x3_s2
I1222 20:50:59.320192 14696 net.cpp:96] Creating Layer pool2/3x3_s2
I1222 20:50:59.320195 14696 net.cpp:459] pool2/3x3_s2 <- conv2/3x3_bn
I1222 20:50:59.320199 14696 net.cpp:415] pool2/3x3_s2 -> pool2/3x3_s2
I1222 20:50:59.320204 14696 net.cpp:160] Setting up pool2/3x3_s2
I1222 20:50:59.320209 14696 net.cpp:167] Top shape: 72 192 28 28 (10838016)
I1222 20:50:59.320211 14696 layer_factory.hpp:74] Creating layer pool2/3x3_s2_pool2/3x3_s2_0_split
I1222 20:50:59.320215 14696 net.cpp:96] Creating Layer pool2/3x3_s2_pool2/3x3_s2_0_split
I1222 20:50:59.320219 14696 net.cpp:459] pool2/3x3_s2_pool2/3x3_s2_0_split <- pool2/3x3_s2
I1222 20:50:59.320222 14696 net.cpp:415] pool2/3x3_s2_pool2/3x3_s2_0_split -> pool2/3x3_s2_pool2/3x3_s2_0_split_0
I1222 20:50:59.320227 14696 net.cpp:415] pool2/3x3_s2_pool2/3x3_s2_0_split -> pool2/3x3_s2_pool2/3x3_s2_0_split_1
I1222 20:50:59.320231 14696 net.cpp:415] pool2/3x3_s2_pool2/3x3_s2_0_split -> pool2/3x3_s2_pool2/3x3_s2_0_split_2
I1222 20:50:59.320235 14696 net.cpp:415] pool2/3x3_s2_pool2/3x3_s2_0_split -> pool2/3x3_s2_pool2/3x3_s2_0_split_3
I1222 20:50:59.320240 14696 net.cpp:160] Setting up pool2/3x3_s2_pool2/3x3_s2_0_split
I1222 20:50:59.320245 14696 net.cpp:167] Top shape: 72 192 28 28 (10838016)
I1222 20:50:59.320247 14696 net.cpp:167] Top shape: 72 192 28 28 (10838016)
I1222 20:50:59.320250 14696 net.cpp:167] Top shape: 72 192 28 28 (10838016)
I1222 20:50:59.320253 14696 net.cpp:167] Top shape: 72 192 28 28 (10838016)
I1222 20:50:59.320256 14696 layer_factory.hpp:74] Creating layer inception_3a/1x1
I1222 20:50:59.320261 14696 net.cpp:96] Creating Layer inception_3a/1x1
I1222 20:50:59.320264 14696 net.cpp:459] inception_3a/1x1 <- pool2/3x3_s2_pool2/3x3_s2_0_split_0
I1222 20:50:59.320268 14696 net.cpp:415] inception_3a/1x1 -> inception_3a/1x1
I1222 20:50:59.320273 14696 net.cpp:160] Setting up inception_3a/1x1
I1222 20:50:59.320327 14696 net.cpp:167] Top shape: 72 64 28 28 (3612672)
I1222 20:50:59.320333 14696 layer_factory.hpp:74] Creating layer inception_3a/1x1_bn
I1222 20:50:59.320335 14696 layer_factory.cpp:177] Layer inception_3a/1x1_bn is using CAFFE engine.
I1222 20:50:59.320339 14696 net.cpp:96] Creating Layer inception_3a/1x1_bn
I1222 20:50:59.320343 14696 net.cpp:459] inception_3a/1x1_bn <- inception_3a/1x1
I1222 20:50:59.320346 14696 net.cpp:415] inception_3a/1x1_bn -> inception_3a/1x1_bn
I1222 20:50:59.320353 14696 net.cpp:160] Setting up inception_3a/1x1_bn
I1222 20:50:59.320361 14696 net.cpp:167] Top shape: 72 64 28 28 (3612672)
I1222 20:50:59.320366 14696 layer_factory.hpp:74] Creating layer inception_3a/relu_1x1
I1222 20:50:59.320371 14696 net.cpp:96] Creating Layer inception_3a/relu_1x1
I1222 20:50:59.320374 14696 net.cpp:459] inception_3a/relu_1x1 <- inception_3a/1x1_bn
I1222 20:50:59.320379 14696 net.cpp:404] inception_3a/relu_1x1 -> inception_3a/1x1_bn (in-place)
I1222 20:50:59.320382 14696 net.cpp:160] Setting up inception_3a/relu_1x1
I1222 20:50:59.320385 14696 net.cpp:167] Top shape: 72 64 28 28 (3612672)
I1222 20:50:59.320389 14696 layer_factory.hpp:74] Creating layer inception_3a/3x3_reduce
I1222 20:50:59.320394 14696 net.cpp:96] Creating Layer inception_3a/3x3_reduce
I1222 20:50:59.320396 14696 net.cpp:459] inception_3a/3x3_reduce <- pool2/3x3_s2_pool2/3x3_s2_0_split_1
I1222 20:50:59.320400 14696 net.cpp:415] inception_3a/3x3_reduce -> inception_3a/3x3_reduce
I1222 20:50:59.320405 14696 net.cpp:160] Setting up inception_3a/3x3_reduce
I1222 20:50:59.320459 14696 net.cpp:167] Top shape: 72 64 28 28 (3612672)
I1222 20:50:59.320464 14696 layer_factory.hpp:74] Creating layer inception_3a/3x3_reduce_bn
I1222 20:50:59.320467 14696 layer_factory.cpp:177] Layer inception_3a/3x3_reduce_bn is using CAFFE engine.
I1222 20:50:59.320472 14696 net.cpp:96] Creating Layer inception_3a/3x3_reduce_bn
I1222 20:50:59.320478 14696 net.cpp:459] inception_3a/3x3_reduce_bn <- inception_3a/3x3_reduce
I1222 20:50:59.320485 14696 net.cpp:415] inception_3a/3x3_reduce_bn -> inception_3a/3x3_reduce_bn
I1222 20:50:59.320489 14696 net.cpp:160] Setting up inception_3a/3x3_reduce_bn
I1222 20:50:59.320498 14696 net.cpp:167] Top shape: 72 64 28 28 (3612672)
I1222 20:50:59.320504 14696 layer_factory.hpp:74] Creating layer inception_3a/relu_3x3_reduce
I1222 20:50:59.320508 14696 net.cpp:96] Creating Layer inception_3a/relu_3x3_reduce
I1222 20:50:59.320511 14696 net.cpp:459] inception_3a/relu_3x3_reduce <- inception_3a/3x3_reduce_bn
I1222 20:50:59.320515 14696 net.cpp:404] inception_3a/relu_3x3_reduce -> inception_3a/3x3_reduce_bn (in-place)
I1222 20:50:59.320519 14696 net.cpp:160] Setting up inception_3a/relu_3x3_reduce
I1222 20:50:59.320523 14696 net.cpp:167] Top shape: 72 64 28 28 (3612672)
I1222 20:50:59.320525 14696 layer_factory.hpp:74] Creating layer inception_3a/3x3
I1222 20:50:59.320530 14696 net.cpp:96] Creating Layer inception_3a/3x3
I1222 20:50:59.320533 14696 net.cpp:459] inception_3a/3x3 <- inception_3a/3x3_reduce_bn
I1222 20:50:59.320538 14696 net.cpp:415] inception_3a/3x3 -> inception_3a/3x3
I1222 20:50:59.320541 14696 net.cpp:160] Setting up inception_3a/3x3
I1222 20:50:59.320689 14696 net.cpp:167] Top shape: 72 64 28 28 (3612672)
I1222 20:50:59.320694 14696 layer_factory.hpp:74] Creating layer inception_3a/3x3_bn
I1222 20:50:59.320698 14696 layer_factory.cpp:177] Layer inception_3a/3x3_bn is using CAFFE engine.
I1222 20:50:59.320703 14696 net.cpp:96] Creating Layer inception_3a/3x3_bn
I1222 20:50:59.320705 14696 net.cpp:459] inception_3a/3x3_bn <- inception_3a/3x3
I1222 20:50:59.320709 14696 net.cpp:415] inception_3a/3x3_bn -> inception_3a/3x3_bn
I1222 20:50:59.320713 14696 net.cpp:160] Setting up inception_3a/3x3_bn
I1222 20:50:59.320722 14696 net.cpp:167] Top shape: 72 64 28 28 (3612672)
I1222 20:50:59.320729 14696 layer_factory.hpp:74] Creating layer inception_3a/relu_3x3
I1222 20:50:59.320734 14696 net.cpp:96] Creating Layer inception_3a/relu_3x3
I1222 20:50:59.320736 14696 net.cpp:459] inception_3a/relu_3x3 <- inception_3a/3x3_bn
I1222 20:50:59.320740 14696 net.cpp:404] inception_3a/relu_3x3 -> inception_3a/3x3_bn (in-place)
I1222 20:50:59.320744 14696 net.cpp:160] Setting up inception_3a/relu_3x3
I1222 20:50:59.320747 14696 net.cpp:167] Top shape: 72 64 28 28 (3612672)
I1222 20:50:59.320750 14696 layer_factory.hpp:74] Creating layer inception_3a/double_3x3_reduce
I1222 20:50:59.320755 14696 net.cpp:96] Creating Layer inception_3a/double_3x3_reduce
I1222 20:50:59.320758 14696 net.cpp:459] inception_3a/double_3x3_reduce <- pool2/3x3_s2_pool2/3x3_s2_0_split_2
I1222 20:50:59.320762 14696 net.cpp:415] inception_3a/double_3x3_reduce -> inception_3a/double_3x3_reduce
I1222 20:50:59.320766 14696 net.cpp:160] Setting up inception_3a/double_3x3_reduce
I1222 20:50:59.320822 14696 net.cpp:167] Top shape: 72 64 28 28 (3612672)
I1222 20:50:59.320827 14696 layer_factory.hpp:74] Creating layer inception_3a/double_3x3_reduce_bn
I1222 20:50:59.320829 14696 layer_factory.cpp:177] Layer inception_3a/double_3x3_reduce_bn is using CAFFE engine.
I1222 20:50:59.320834 14696 net.cpp:96] Creating Layer inception_3a/double_3x3_reduce_bn
I1222 20:50:59.320837 14696 net.cpp:459] inception_3a/double_3x3_reduce_bn <- inception_3a/double_3x3_reduce
I1222 20:50:59.320842 14696 net.cpp:415] inception_3a/double_3x3_reduce_bn -> inception_3a/double_3x3_reduce_bn
I1222 20:50:59.320845 14696 net.cpp:160] Setting up inception_3a/double_3x3_reduce_bn
I1222 20:50:59.320854 14696 net.cpp:167] Top shape: 72 64 28 28 (3612672)
I1222 20:50:59.320859 14696 layer_factory.hpp:74] Creating layer inception_3a/relu_double_3x3_reduce
I1222 20:50:59.320863 14696 net.cpp:96] Creating Layer inception_3a/relu_double_3x3_reduce
I1222 20:50:59.320866 14696 net.cpp:459] inception_3a/relu_double_3x3_reduce <- inception_3a/double_3x3_reduce_bn
I1222 20:50:59.320869 14696 net.cpp:404] inception_3a/relu_double_3x3_reduce -> inception_3a/double_3x3_reduce_bn (in-place)
I1222 20:50:59.320875 14696 net.cpp:160] Setting up inception_3a/relu_double_3x3_reduce
I1222 20:50:59.320883 14696 net.cpp:167] Top shape: 72 64 28 28 (3612672)
I1222 20:50:59.320885 14696 layer_factory.hpp:74] Creating layer inception_3a/double_3x3_1
I1222 20:50:59.320890 14696 net.cpp:96] Creating Layer inception_3a/double_3x3_1
I1222 20:50:59.320894 14696 net.cpp:459] inception_3a/double_3x3_1 <- inception_3a/double_3x3_reduce_bn
I1222 20:50:59.320897 14696 net.cpp:415] inception_3a/double_3x3_1 -> inception_3a/double_3x3_1
I1222 20:50:59.320901 14696 net.cpp:160] Setting up inception_3a/double_3x3_1
I1222 20:50:59.321118 14696 net.cpp:167] Top shape: 72 96 28 28 (5419008)
I1222 20:50:59.321125 14696 layer_factory.hpp:74] Creating layer inception_3a/double_3x3_1_bn
I1222 20:50:59.321127 14696 layer_factory.cpp:177] Layer inception_3a/double_3x3_1_bn is using CAFFE engine.
I1222 20:50:59.321132 14696 net.cpp:96] Creating Layer inception_3a/double_3x3_1_bn
I1222 20:50:59.321135 14696 net.cpp:459] inception_3a/double_3x3_1_bn <- inception_3a/double_3x3_1
I1222 20:50:59.321140 14696 net.cpp:415] inception_3a/double_3x3_1_bn -> inception_3a/double_3x3_1_bn
I1222 20:50:59.321143 14696 net.cpp:160] Setting up inception_3a/double_3x3_1_bn
I1222 20:50:59.321152 14696 net.cpp:167] Top shape: 72 96 28 28 (5419008)
I1222 20:50:59.321157 14696 layer_factory.hpp:74] Creating layer inception_3a/relu_double_3x3_1
I1222 20:50:59.321161 14696 net.cpp:96] Creating Layer inception_3a/relu_double_3x3_1
I1222 20:50:59.321164 14696 net.cpp:459] inception_3a/relu_double_3x3_1 <- inception_3a/double_3x3_1_bn
I1222 20:50:59.321167 14696 net.cpp:404] inception_3a/relu_double_3x3_1 -> inception_3a/double_3x3_1_bn (in-place)
I1222 20:50:59.321171 14696 net.cpp:160] Setting up inception_3a/relu_double_3x3_1
I1222 20:50:59.321176 14696 net.cpp:167] Top shape: 72 96 28 28 (5419008)
I1222 20:50:59.321177 14696 layer_factory.hpp:74] Creating layer inception_3a/double_3x3_2
I1222 20:50:59.321182 14696 net.cpp:96] Creating Layer inception_3a/double_3x3_2
I1222 20:50:59.321185 14696 net.cpp:459] inception_3a/double_3x3_2 <- inception_3a/double_3x3_1_bn
I1222 20:50:59.321189 14696 net.cpp:415] inception_3a/double_3x3_2 -> inception_3a/double_3x3_2
I1222 20:50:59.321193 14696 net.cpp:160] Setting up inception_3a/double_3x3_2
I1222 20:50:59.321517 14696 net.cpp:167] Top shape: 72 96 28 28 (5419008)
I1222 20:50:59.321523 14696 layer_factory.hpp:74] Creating layer inception_3a/double_3x3_2_bn
I1222 20:50:59.321527 14696 layer_factory.cpp:177] Layer inception_3a/double_3x3_2_bn is using CAFFE engine.
I1222 20:50:59.321532 14696 net.cpp:96] Creating Layer inception_3a/double_3x3_2_bn
I1222 20:50:59.321534 14696 net.cpp:459] inception_3a/double_3x3_2_bn <- inception_3a/double_3x3_2
I1222 20:50:59.321538 14696 net.cpp:415] inception_3a/double_3x3_2_bn -> inception_3a/double_3x3_2_bn
I1222 20:50:59.321542 14696 net.cpp:160] Setting up inception_3a/double_3x3_2_bn
I1222 20:50:59.321552 14696 net.cpp:167] Top shape: 72 96 28 28 (5419008)
I1222 20:50:59.321557 14696 layer_factory.hpp:74] Creating layer inception_3a/relu_double_3x3_2
I1222 20:50:59.321560 14696 net.cpp:96] Creating Layer inception_3a/relu_double_3x3_2
I1222 20:50:59.321563 14696 net.cpp:459] inception_3a/relu_double_3x3_2 <- inception_3a/double_3x3_2_bn
I1222 20:50:59.321568 14696 net.cpp:404] inception_3a/relu_double_3x3_2 -> inception_3a/double_3x3_2_bn (in-place)
I1222 20:50:59.321570 14696 net.cpp:160] Setting up inception_3a/relu_double_3x3_2
I1222 20:50:59.321574 14696 net.cpp:167] Top shape: 72 96 28 28 (5419008)
I1222 20:50:59.321578 14696 layer_factory.hpp:74] Creating layer inception_3a/pool
I1222 20:50:59.321583 14696 net.cpp:96] Creating Layer inception_3a/pool
I1222 20:50:59.321586 14696 net.cpp:459] inception_3a/pool <- pool2/3x3_s2_pool2/3x3_s2_0_split_3
I1222 20:50:59.321590 14696 net.cpp:415] inception_3a/pool -> inception_3a/pool
I1222 20:50:59.321594 14696 net.cpp:160] Setting up inception_3a/pool
I1222 20:50:59.321599 14696 net.cpp:167] Top shape: 72 192 28 28 (10838016)
I1222 20:50:59.321604 14696 layer_factory.hpp:74] Creating layer inception_3a/pool_proj
I1222 20:50:59.321612 14696 net.cpp:96] Creating Layer inception_3a/pool_proj
I1222 20:50:59.321615 14696 net.cpp:459] inception_3a/pool_proj <- inception_3a/pool
I1222 20:50:59.321619 14696 net.cpp:415] inception_3a/pool_proj -> inception_3a/pool_proj
I1222 20:50:59.321624 14696 net.cpp:160] Setting up inception_3a/pool_proj
I1222 20:50:59.321655 14696 net.cpp:167] Top shape: 72 32 28 28 (1806336)
I1222 20:50:59.321660 14696 layer_factory.hpp:74] Creating layer inception_3a/pool_proj_bn
I1222 20:50:59.321663 14696 layer_factory.cpp:177] Layer inception_3a/pool_proj_bn is using CAFFE engine.
I1222 20:50:59.321667 14696 net.cpp:96] Creating Layer inception_3a/pool_proj_bn
I1222 20:50:59.321671 14696 net.cpp:459] inception_3a/pool_proj_bn <- inception_3a/pool_proj
I1222 20:50:59.321674 14696 net.cpp:415] inception_3a/pool_proj_bn -> inception_3a/pool_proj_bn
I1222 20:50:59.321678 14696 net.cpp:160] Setting up inception_3a/pool_proj_bn
I1222 20:50:59.321687 14696 net.cpp:167] Top shape: 72 32 28 28 (1806336)
I1222 20:50:59.321692 14696 layer_factory.hpp:74] Creating layer inception_3a/relu_pool_proj
I1222 20:50:59.321696 14696 net.cpp:96] Creating Layer inception_3a/relu_pool_proj
I1222 20:50:59.321699 14696 net.cpp:459] inception_3a/relu_pool_proj <- inception_3a/pool_proj_bn
I1222 20:50:59.321703 14696 net.cpp:404] inception_3a/relu_pool_proj -> inception_3a/pool_proj_bn (in-place)
I1222 20:50:59.321707 14696 net.cpp:160] Setting up inception_3a/relu_pool_proj
I1222 20:50:59.321710 14696 net.cpp:167] Top shape: 72 32 28 28 (1806336)
I1222 20:50:59.321713 14696 layer_factory.hpp:74] Creating layer inception_3a/output
I1222 20:50:59.321718 14696 net.cpp:96] Creating Layer inception_3a/output
I1222 20:50:59.321722 14696 net.cpp:459] inception_3a/output <- inception_3a/1x1_bn
I1222 20:50:59.321724 14696 net.cpp:459] inception_3a/output <- inception_3a/3x3_bn
I1222 20:50:59.321728 14696 net.cpp:459] inception_3a/output <- inception_3a/double_3x3_2_bn
I1222 20:50:59.321732 14696 net.cpp:459] inception_3a/output <- inception_3a/pool_proj_bn
I1222 20:50:59.321735 14696 net.cpp:415] inception_3a/output -> inception_3a/output
I1222 20:50:59.321739 14696 net.cpp:160] Setting up inception_3a/output
I1222 20:50:59.321744 14696 net.cpp:167] Top shape: 72 256 28 28 (14450688)
I1222 20:50:59.321748 14696 layer_factory.hpp:74] Creating layer inception_3a/output_inception_3a/output_0_split
I1222 20:50:59.321751 14696 net.cpp:96] Creating Layer inception_3a/output_inception_3a/output_0_split
I1222 20:50:59.321754 14696 net.cpp:459] inception_3a/output_inception_3a/output_0_split <- inception_3a/output
I1222 20:50:59.321758 14696 net.cpp:415] inception_3a/output_inception_3a/output_0_split -> inception_3a/output_inception_3a/output_0_split_0
I1222 20:50:59.321763 14696 net.cpp:415] inception_3a/output_inception_3a/output_0_split -> inception_3a/output_inception_3a/output_0_split_1
I1222 20:50:59.321769 14696 net.cpp:415] inception_3a/output_inception_3a/output_0_split -> inception_3a/output_inception_3a/output_0_split_2
I1222 20:50:59.321774 14696 net.cpp:415] inception_3a/output_inception_3a/output_0_split -> inception_3a/output_inception_3a/output_0_split_3
I1222 20:50:59.321779 14696 net.cpp:160] Setting up inception_3a/output_inception_3a/output_0_split
I1222 20:50:59.321782 14696 net.cpp:167] Top shape: 72 256 28 28 (14450688)
I1222 20:50:59.321786 14696 net.cpp:167] Top shape: 72 256 28 28 (14450688)
I1222 20:50:59.321789 14696 net.cpp:167] Top shape: 72 256 28 28 (14450688)
I1222 20:50:59.321792 14696 net.cpp:167] Top shape: 72 256 28 28 (14450688)
I1222 20:50:59.321795 14696 layer_factory.hpp:74] Creating layer inception_3b/1x1
I1222 20:50:59.321800 14696 net.cpp:96] Creating Layer inception_3b/1x1
I1222 20:50:59.321804 14696 net.cpp:459] inception_3b/1x1 <- inception_3a/output_inception_3a/output_0_split_0
I1222 20:50:59.321807 14696 net.cpp:415] inception_3b/1x1 -> inception_3b/1x1
I1222 20:50:59.321812 14696 net.cpp:160] Setting up inception_3b/1x1
I1222 20:50:59.321903 14696 net.cpp:167] Top shape: 72 64 28 28 (3612672)
I1222 20:50:59.321915 14696 layer_factory.hpp:74] Creating layer inception_3b/1x1_bn
I1222 20:50:59.321918 14696 layer_factory.cpp:177] Layer inception_3b/1x1_bn is using CAFFE engine.
I1222 20:50:59.321923 14696 net.cpp:96] Creating Layer inception_3b/1x1_bn
I1222 20:50:59.321926 14696 net.cpp:459] inception_3b/1x1_bn <- inception_3b/1x1
I1222 20:50:59.321931 14696 net.cpp:415] inception_3b/1x1_bn -> inception_3b/1x1_bn
I1222 20:50:59.321936 14696 net.cpp:160] Setting up inception_3b/1x1_bn
I1222 20:50:59.321945 14696 net.cpp:167] Top shape: 72 64 28 28 (3612672)
I1222 20:50:59.321954 14696 layer_factory.hpp:74] Creating layer inception_3b/relu_1x1
I1222 20:50:59.321959 14696 net.cpp:96] Creating Layer inception_3b/relu_1x1
I1222 20:50:59.321961 14696 net.cpp:459] inception_3b/relu_1x1 <- inception_3b/1x1_bn
I1222 20:50:59.321965 14696 net.cpp:404] inception_3b/relu_1x1 -> inception_3b/1x1_bn (in-place)
I1222 20:50:59.321969 14696 net.cpp:160] Setting up inception_3b/relu_1x1
I1222 20:50:59.321974 14696 net.cpp:167] Top shape: 72 64 28 28 (3612672)
I1222 20:50:59.321976 14696 layer_factory.hpp:74] Creating layer inception_3b/3x3_reduce
I1222 20:50:59.321981 14696 net.cpp:96] Creating Layer inception_3b/3x3_reduce
I1222 20:50:59.321985 14696 net.cpp:459] inception_3b/3x3_reduce <- inception_3a/output_inception_3a/output_0_split_1
I1222 20:50:59.321988 14696 net.cpp:415] inception_3b/3x3_reduce -> inception_3b/3x3_reduce
I1222 20:50:59.321993 14696 net.cpp:160] Setting up inception_3b/3x3_reduce
I1222 20:50:59.322065 14696 net.cpp:167] Top shape: 72 64 28 28 (3612672)
I1222 20:50:59.322070 14696 layer_factory.hpp:74] Creating layer inception_3b/3x3_reduce_bn
I1222 20:50:59.322073 14696 layer_factory.cpp:177] Layer inception_3b/3x3_reduce_bn is using CAFFE engine.
I1222 20:50:59.322078 14696 net.cpp:96] Creating Layer inception_3b/3x3_reduce_bn
I1222 20:50:59.322082 14696 net.cpp:459] inception_3b/3x3_reduce_bn <- inception_3b/3x3_reduce
I1222 20:50:59.322085 14696 net.cpp:415] inception_3b/3x3_reduce_bn -> inception_3b/3x3_reduce_bn
I1222 20:50:59.322090 14696 net.cpp:160] Setting up inception_3b/3x3_reduce_bn
I1222 20:50:59.322098 14696 net.cpp:167] Top shape: 72 64 28 28 (3612672)
I1222 20:50:59.322103 14696 layer_factory.hpp:74] Creating layer inception_3b/relu_3x3_reduce
I1222 20:50:59.322108 14696 net.cpp:96] Creating Layer inception_3b/relu_3x3_reduce
I1222 20:50:59.322111 14696 net.cpp:459] inception_3b/relu_3x3_reduce <- inception_3b/3x3_reduce_bn
I1222 20:50:59.322114 14696 net.cpp:404] inception_3b/relu_3x3_reduce -> inception_3b/3x3_reduce_bn (in-place)
I1222 20:50:59.322118 14696 net.cpp:160] Setting up inception_3b/relu_3x3_reduce
I1222 20:50:59.322123 14696 net.cpp:167] Top shape: 72 64 28 28 (3612672)
I1222 20:50:59.322124 14696 layer_factory.hpp:74] Creating layer inception_3b/3x3
I1222 20:50:59.322129 14696 net.cpp:96] Creating Layer inception_3b/3x3
I1222 20:50:59.322132 14696 net.cpp:459] inception_3b/3x3 <- inception_3b/3x3_reduce_bn
I1222 20:50:59.322136 14696 net.cpp:415] inception_3b/3x3 -> inception_3b/3x3
I1222 20:50:59.322141 14696 net.cpp:160] Setting up inception_3b/3x3
I1222 20:50:59.322360 14696 net.cpp:167] Top shape: 72 96 28 28 (5419008)
I1222 20:50:59.322365 14696 layer_factory.hpp:74] Creating layer inception_3b/3x3_bn
I1222 20:50:59.322367 14696 layer_factory.cpp:177] Layer inception_3b/3x3_bn is using CAFFE engine.
I1222 20:50:59.322371 14696 net.cpp:96] Creating Layer inception_3b/3x3_bn
I1222 20:50:59.322376 14696 net.cpp:459] inception_3b/3x3_bn <- inception_3b/3x3
I1222 20:50:59.322379 14696 net.cpp:415] inception_3b/3x3_bn -> inception_3b/3x3_bn
I1222 20:50:59.322383 14696 net.cpp:160] Setting up inception_3b/3x3_bn
I1222 20:50:59.322392 14696 net.cpp:167] Top shape: 72 96 28 28 (5419008)
I1222 20:50:59.322397 14696 layer_factory.hpp:74] Creating layer inception_3b/relu_3x3
I1222 20:50:59.322402 14696 net.cpp:96] Creating Layer inception_3b/relu_3x3
I1222 20:50:59.322404 14696 net.cpp:459] inception_3b/relu_3x3 <- inception_3b/3x3_bn
I1222 20:50:59.322412 14696 net.cpp:404] inception_3b/relu_3x3 -> inception_3b/3x3_bn (in-place)
I1222 20:50:59.322418 14696 net.cpp:160] Setting up inception_3b/relu_3x3
I1222 20:50:59.322422 14696 net.cpp:167] Top shape: 72 96 28 28 (5419008)
I1222 20:50:59.322424 14696 layer_factory.hpp:74] Creating layer inception_3b/double_3x3_reduce
I1222 20:50:59.322429 14696 net.cpp:96] Creating Layer inception_3b/double_3x3_reduce
I1222 20:50:59.322432 14696 net.cpp:459] inception_3b/double_3x3_reduce <- inception_3a/output_inception_3a/output_0_split_2
I1222 20:50:59.322437 14696 net.cpp:415] inception_3b/double_3x3_reduce -> inception_3b/double_3x3_reduce
I1222 20:50:59.322440 14696 net.cpp:160] Setting up inception_3b/double_3x3_reduce
I1222 20:50:59.322511 14696 net.cpp:167] Top shape: 72 64 28 28 (3612672)
I1222 20:50:59.322515 14696 layer_factory.hpp:74] Creating layer inception_3b/double_3x3_reduce_bn
I1222 20:50:59.322518 14696 layer_factory.cpp:177] Layer inception_3b/double_3x3_reduce_bn is using CAFFE engine.
I1222 20:50:59.322523 14696 net.cpp:96] Creating Layer inception_3b/double_3x3_reduce_bn
I1222 20:50:59.322526 14696 net.cpp:459] inception_3b/double_3x3_reduce_bn <- inception_3b/double_3x3_reduce
I1222 20:50:59.322530 14696 net.cpp:415] inception_3b/double_3x3_reduce_bn -> inception_3b/double_3x3_reduce_bn
I1222 20:50:59.322535 14696 net.cpp:160] Setting up inception_3b/double_3x3_reduce_bn
I1222 20:50:59.322543 14696 net.cpp:167] Top shape: 72 64 28 28 (3612672)
I1222 20:50:59.322548 14696 layer_factory.hpp:74] Creating layer inception_3b/relu_double_3x3_reduce
I1222 20:50:59.322552 14696 net.cpp:96] Creating Layer inception_3b/relu_double_3x3_reduce
I1222 20:50:59.322556 14696 net.cpp:459] inception_3b/relu_double_3x3_reduce <- inception_3b/double_3x3_reduce_bn
I1222 20:50:59.322559 14696 net.cpp:404] inception_3b/relu_double_3x3_reduce -> inception_3b/double_3x3_reduce_bn (in-place)
I1222 20:50:59.322563 14696 net.cpp:160] Setting up inception_3b/relu_double_3x3_reduce
I1222 20:50:59.322566 14696 net.cpp:167] Top shape: 72 64 28 28 (3612672)
I1222 20:50:59.322569 14696 layer_factory.hpp:74] Creating layer inception_3b/double_3x3_1
I1222 20:50:59.322574 14696 net.cpp:96] Creating Layer inception_3b/double_3x3_1
I1222 20:50:59.322577 14696 net.cpp:459] inception_3b/double_3x3_1 <- inception_3b/double_3x3_reduce_bn
I1222 20:50:59.322582 14696 net.cpp:415] inception_3b/double_3x3_1 -> inception_3b/double_3x3_1
I1222 20:50:59.322585 14696 net.cpp:160] Setting up inception_3b/double_3x3_1
I1222 20:50:59.322804 14696 net.cpp:167] Top shape: 72 96 28 28 (5419008)
I1222 20:50:59.322809 14696 layer_factory.hpp:74] Creating layer inception_3b/double_3x3_1_bn
I1222 20:50:59.322813 14696 layer_factory.cpp:177] Layer inception_3b/double_3x3_1_bn is using CAFFE engine.
I1222 20:50:59.322818 14696 net.cpp:96] Creating Layer inception_3b/double_3x3_1_bn
I1222 20:50:59.322820 14696 net.cpp:459] inception_3b/double_3x3_1_bn <- inception_3b/double_3x3_1
I1222 20:50:59.322824 14696 net.cpp:415] inception_3b/double_3x3_1_bn -> inception_3b/double_3x3_1_bn
I1222 20:50:59.322829 14696 net.cpp:160] Setting up inception_3b/double_3x3_1_bn
I1222 20:50:59.322837 14696 net.cpp:167] Top shape: 72 96 28 28 (5419008)
I1222 20:50:59.322842 14696 layer_factory.hpp:74] Creating layer inception_3b/relu_double_3x3_1
I1222 20:50:59.322846 14696 net.cpp:96] Creating Layer inception_3b/relu_double_3x3_1
I1222 20:50:59.322849 14696 net.cpp:459] inception_3b/relu_double_3x3_1 <- inception_3b/double_3x3_1_bn
I1222 20:50:59.322854 14696 net.cpp:404] inception_3b/relu_double_3x3_1 -> inception_3b/double_3x3_1_bn (in-place)
I1222 20:50:59.322856 14696 net.cpp:160] Setting up inception_3b/relu_double_3x3_1
I1222 20:50:59.322860 14696 net.cpp:167] Top shape: 72 96 28 28 (5419008)
I1222 20:50:59.322863 14696 layer_factory.hpp:74] Creating layer inception_3b/double_3x3_2
I1222 20:50:59.322867 14696 net.cpp:96] Creating Layer inception_3b/double_3x3_2
I1222 20:50:59.322870 14696 net.cpp:459] inception_3b/double_3x3_2 <- inception_3b/double_3x3_1_bn
I1222 20:50:59.322876 14696 net.cpp:415] inception_3b/double_3x3_2 -> inception_3b/double_3x3_2
I1222 20:50:59.322885 14696 net.cpp:160] Setting up inception_3b/double_3x3_2
I1222 20:50:59.323206 14696 net.cpp:167] Top shape: 72 96 28 28 (5419008)
I1222 20:50:59.323211 14696 layer_factory.hpp:74] Creating layer inception_3b/double_3x3_2_bn
I1222 20:50:59.323215 14696 layer_factory.cpp:177] Layer inception_3b/double_3x3_2_bn is using CAFFE engine.
I1222 20:50:59.323218 14696 net.cpp:96] Creating Layer inception_3b/double_3x3_2_bn
I1222 20:50:59.323221 14696 net.cpp:459] inception_3b/double_3x3_2_bn <- inception_3b/double_3x3_2
I1222 20:50:59.323225 14696 net.cpp:415] inception_3b/double_3x3_2_bn -> inception_3b/double_3x3_2_bn
I1222 20:50:59.323230 14696 net.cpp:160] Setting up inception_3b/double_3x3_2_bn
I1222 20:50:59.323238 14696 net.cpp:167] Top shape: 72 96 28 28 (5419008)
I1222 20:50:59.323245 14696 layer_factory.hpp:74] Creating layer inception_3b/relu_double_3x3_2
I1222 20:50:59.323248 14696 net.cpp:96] Creating Layer inception_3b/relu_double_3x3_2
I1222 20:50:59.323251 14696 net.cpp:459] inception_3b/relu_double_3x3_2 <- inception_3b/double_3x3_2_bn
I1222 20:50:59.323254 14696 net.cpp:404] inception_3b/relu_double_3x3_2 -> inception_3b/double_3x3_2_bn (in-place)
I1222 20:50:59.323258 14696 net.cpp:160] Setting up inception_3b/relu_double_3x3_2
I1222 20:50:59.323261 14696 net.cpp:167] Top shape: 72 96 28 28 (5419008)
I1222 20:50:59.323264 14696 layer_factory.hpp:74] Creating layer inception_3b/pool
I1222 20:50:59.323269 14696 net.cpp:96] Creating Layer inception_3b/pool
I1222 20:50:59.323272 14696 net.cpp:459] inception_3b/pool <- inception_3a/output_inception_3a/output_0_split_3
I1222 20:50:59.323276 14696 net.cpp:415] inception_3b/pool -> inception_3b/pool
I1222 20:50:59.323281 14696 net.cpp:160] Setting up inception_3b/pool
I1222 20:50:59.323284 14696 net.cpp:167] Top shape: 72 256 28 28 (14450688)
I1222 20:50:59.323288 14696 layer_factory.hpp:74] Creating layer inception_3b/pool_proj
I1222 20:50:59.323292 14696 net.cpp:96] Creating Layer inception_3b/pool_proj
I1222 20:50:59.323295 14696 net.cpp:459] inception_3b/pool_proj <- inception_3b/pool
I1222 20:50:59.323299 14696 net.cpp:415] inception_3b/pool_proj -> inception_3b/pool_proj
I1222 20:50:59.323304 14696 net.cpp:160] Setting up inception_3b/pool_proj
I1222 20:50:59.323374 14696 net.cpp:167] Top shape: 72 64 28 28 (3612672)
I1222 20:50:59.323379 14696 layer_factory.hpp:74] Creating layer inception_3b/pool_proj_bn
I1222 20:50:59.323381 14696 layer_factory.cpp:177] Layer inception_3b/pool_proj_bn is using CAFFE engine.
I1222 20:50:59.323386 14696 net.cpp:96] Creating Layer inception_3b/pool_proj_bn
I1222 20:50:59.323390 14696 net.cpp:459] inception_3b/pool_proj_bn <- inception_3b/pool_proj
I1222 20:50:59.323393 14696 net.cpp:415] inception_3b/pool_proj_bn -> inception_3b/pool_proj_bn
I1222 20:50:59.323397 14696 net.cpp:160] Setting up inception_3b/pool_proj_bn
I1222 20:50:59.323406 14696 net.cpp:167] Top shape: 72 64 28 28 (3612672)
I1222 20:50:59.323411 14696 layer_factory.hpp:74] Creating layer inception_3b/relu_pool_proj
I1222 20:50:59.323415 14696 net.cpp:96] Creating Layer inception_3b/relu_pool_proj
I1222 20:50:59.323418 14696 net.cpp:459] inception_3b/relu_pool_proj <- inception_3b/pool_proj_bn
I1222 20:50:59.323422 14696 net.cpp:404] inception_3b/relu_pool_proj -> inception_3b/pool_proj_bn (in-place)
I1222 20:50:59.323426 14696 net.cpp:160] Setting up inception_3b/relu_pool_proj
I1222 20:50:59.323429 14696 net.cpp:167] Top shape: 72 64 28 28 (3612672)
I1222 20:50:59.323432 14696 layer_factory.hpp:74] Creating layer inception_3b/output
I1222 20:50:59.323436 14696 net.cpp:96] Creating Layer inception_3b/output
I1222 20:50:59.323439 14696 net.cpp:459] inception_3b/output <- inception_3b/1x1_bn
I1222 20:50:59.323442 14696 net.cpp:459] inception_3b/output <- inception_3b/3x3_bn
I1222 20:50:59.323446 14696 net.cpp:459] inception_3b/output <- inception_3b/double_3x3_2_bn
I1222 20:50:59.323449 14696 net.cpp:459] inception_3b/output <- inception_3b/pool_proj_bn
I1222 20:50:59.323457 14696 net.cpp:415] inception_3b/output -> inception_3b/output
I1222 20:50:59.323463 14696 net.cpp:160] Setting up inception_3b/output
I1222 20:50:59.323468 14696 net.cpp:167] Top shape: 72 320 28 28 (18063360)
I1222 20:50:59.323472 14696 layer_factory.hpp:74] Creating layer inception_3b/output_inception_3b/output_0_split
I1222 20:50:59.323475 14696 net.cpp:96] Creating Layer inception_3b/output_inception_3b/output_0_split
I1222 20:50:59.323478 14696 net.cpp:459] inception_3b/output_inception_3b/output_0_split <- inception_3b/output
I1222 20:50:59.323482 14696 net.cpp:415] inception_3b/output_inception_3b/output_0_split -> inception_3b/output_inception_3b/output_0_split_0
I1222 20:50:59.323487 14696 net.cpp:415] inception_3b/output_inception_3b/output_0_split -> inception_3b/output_inception_3b/output_0_split_1
I1222 20:50:59.323493 14696 net.cpp:415] inception_3b/output_inception_3b/output_0_split -> inception_3b/output_inception_3b/output_0_split_2
I1222 20:50:59.323498 14696 net.cpp:160] Setting up inception_3b/output_inception_3b/output_0_split
I1222 20:50:59.323501 14696 net.cpp:167] Top shape: 72 320 28 28 (18063360)
I1222 20:50:59.323504 14696 net.cpp:167] Top shape: 72 320 28 28 (18063360)
I1222 20:50:59.323508 14696 net.cpp:167] Top shape: 72 320 28 28 (18063360)
I1222 20:50:59.323511 14696 layer_factory.hpp:74] Creating layer inception_3c/3x3_reduce
I1222 20:50:59.323516 14696 net.cpp:96] Creating Layer inception_3c/3x3_reduce
I1222 20:50:59.323519 14696 net.cpp:459] inception_3c/3x3_reduce <- inception_3b/output_inception_3b/output_0_split_0
I1222 20:50:59.323523 14696 net.cpp:415] inception_3c/3x3_reduce -> inception_3c/3x3_reduce
I1222 20:50:59.323528 14696 net.cpp:160] Setting up inception_3c/3x3_reduce
I1222 20:50:59.323693 14696 net.cpp:167] Top shape: 72 128 28 28 (7225344)
I1222 20:50:59.323698 14696 layer_factory.hpp:74] Creating layer inception_3c/3x3_reduce_bn
I1222 20:50:59.323701 14696 layer_factory.cpp:177] Layer inception_3c/3x3_reduce_bn is using CAFFE engine.
I1222 20:50:59.323705 14696 net.cpp:96] Creating Layer inception_3c/3x3_reduce_bn
I1222 20:50:59.323709 14696 net.cpp:459] inception_3c/3x3_reduce_bn <- inception_3c/3x3_reduce
I1222 20:50:59.323712 14696 net.cpp:415] inception_3c/3x3_reduce_bn -> inception_3c/3x3_reduce_bn
I1222 20:50:59.323717 14696 net.cpp:160] Setting up inception_3c/3x3_reduce_bn
I1222 20:50:59.323725 14696 net.cpp:167] Top shape: 72 128 28 28 (7225344)
I1222 20:50:59.323731 14696 layer_factory.hpp:74] Creating layer inception_3c/relu_3x3_reduce
I1222 20:50:59.323737 14696 net.cpp:96] Creating Layer inception_3c/relu_3x3_reduce
I1222 20:50:59.323740 14696 net.cpp:459] inception_3c/relu_3x3_reduce <- inception_3c/3x3_reduce_bn
I1222 20:50:59.323745 14696 net.cpp:404] inception_3c/relu_3x3_reduce -> inception_3c/3x3_reduce_bn (in-place)
I1222 20:50:59.323748 14696 net.cpp:160] Setting up inception_3c/relu_3x3_reduce
I1222 20:50:59.323751 14696 net.cpp:167] Top shape: 72 128 28 28 (7225344)
I1222 20:50:59.323755 14696 layer_factory.hpp:74] Creating layer inception_3c/3x3
I1222 20:50:59.323760 14696 net.cpp:96] Creating Layer inception_3c/3x3
I1222 20:50:59.323762 14696 net.cpp:459] inception_3c/3x3 <- inception_3c/3x3_reduce_bn
I1222 20:50:59.323766 14696 net.cpp:415] inception_3c/3x3 -> inception_3c/3x3
I1222 20:50:59.323771 14696 net.cpp:160] Setting up inception_3c/3x3
I1222 20:50:59.324476 14696 net.cpp:167] Top shape: 72 160 14 14 (2257920)
I1222 20:50:59.324481 14696 layer_factory.hpp:74] Creating layer inception_3c/3x3_bn
I1222 20:50:59.324484 14696 layer_factory.cpp:177] Layer inception_3c/3x3_bn is using CAFFE engine.
I1222 20:50:59.324489 14696 net.cpp:96] Creating Layer inception_3c/3x3_bn
I1222 20:50:59.324492 14696 net.cpp:459] inception_3c/3x3_bn <- inception_3c/3x3
I1222 20:50:59.324496 14696 net.cpp:415] inception_3c/3x3_bn -> inception_3c/3x3_bn
I1222 20:50:59.324501 14696 net.cpp:160] Setting up inception_3c/3x3_bn
I1222 20:50:59.324509 14696 net.cpp:167] Top shape: 72 160 14 14 (2257920)
I1222 20:50:59.324517 14696 layer_factory.hpp:74] Creating layer inception_3c/relu_3x3
I1222 20:50:59.324525 14696 net.cpp:96] Creating Layer inception_3c/relu_3x3
I1222 20:50:59.324528 14696 net.cpp:459] inception_3c/relu_3x3 <- inception_3c/3x3_bn
I1222 20:50:59.324532 14696 net.cpp:404] inception_3c/relu_3x3 -> inception_3c/3x3_bn (in-place)
I1222 20:50:59.324535 14696 net.cpp:160] Setting up inception_3c/relu_3x3
I1222 20:50:59.324539 14696 net.cpp:167] Top shape: 72 160 14 14 (2257920)
I1222 20:50:59.324542 14696 layer_factory.hpp:74] Creating layer inception_3c/double_3x3_reduce
I1222 20:50:59.324546 14696 net.cpp:96] Creating Layer inception_3c/double_3x3_reduce
I1222 20:50:59.324550 14696 net.cpp:459] inception_3c/double_3x3_reduce <- inception_3b/output_inception_3b/output_0_split_1
I1222 20:50:59.324554 14696 net.cpp:415] inception_3c/double_3x3_reduce -> inception_3c/double_3x3_reduce
I1222 20:50:59.324558 14696 net.cpp:160] Setting up inception_3c/double_3x3_reduce
I1222 20:50:59.324643 14696 net.cpp:167] Top shape: 72 64 28 28 (3612672)
I1222 20:50:59.324648 14696 layer_factory.hpp:74] Creating layer inception_3c/double_3x3_reduce_bn
I1222 20:50:59.324652 14696 layer_factory.cpp:177] Layer inception_3c/double_3x3_reduce_bn is using CAFFE engine.
I1222 20:50:59.324656 14696 net.cpp:96] Creating Layer inception_3c/double_3x3_reduce_bn
I1222 20:50:59.324659 14696 net.cpp:459] inception_3c/double_3x3_reduce_bn <- inception_3c/double_3x3_reduce
I1222 20:50:59.324663 14696 net.cpp:415] inception_3c/double_3x3_reduce_bn -> inception_3c/double_3x3_reduce_bn
I1222 20:50:59.324668 14696 net.cpp:160] Setting up inception_3c/double_3x3_reduce_bn
I1222 20:50:59.324676 14696 net.cpp:167] Top shape: 72 64 28 28 (3612672)
I1222 20:50:59.324682 14696 layer_factory.hpp:74] Creating layer inception_3c/relu_double_3x3_reduce
I1222 20:50:59.324687 14696 net.cpp:96] Creating Layer inception_3c/relu_double_3x3_reduce
I1222 20:50:59.324689 14696 net.cpp:459] inception_3c/relu_double_3x3_reduce <- inception_3c/double_3x3_reduce_bn
I1222 20:50:59.324692 14696 net.cpp:404] inception_3c/relu_double_3x3_reduce -> inception_3c/double_3x3_reduce_bn (in-place)
I1222 20:50:59.324697 14696 net.cpp:160] Setting up inception_3c/relu_double_3x3_reduce
I1222 20:50:59.324699 14696 net.cpp:167] Top shape: 72 64 28 28 (3612672)
I1222 20:50:59.324702 14696 layer_factory.hpp:74] Creating layer inception_3c/double_3x3_1
I1222 20:50:59.324707 14696 net.cpp:96] Creating Layer inception_3c/double_3x3_1
I1222 20:50:59.324710 14696 net.cpp:459] inception_3c/double_3x3_1 <- inception_3c/double_3x3_reduce_bn
I1222 20:50:59.324714 14696 net.cpp:415] inception_3c/double_3x3_1 -> inception_3c/double_3x3_1
I1222 20:50:59.324719 14696 net.cpp:160] Setting up inception_3c/double_3x3_1
I1222 20:50:59.324936 14696 net.cpp:167] Top shape: 72 96 28 28 (5419008)
I1222 20:50:59.324942 14696 layer_factory.hpp:74] Creating layer inception_3c/double_3x3_1_bn
I1222 20:50:59.324945 14696 layer_factory.cpp:177] Layer inception_3c/double_3x3_1_bn is using CAFFE engine.
I1222 20:50:59.324949 14696 net.cpp:96] Creating Layer inception_3c/double_3x3_1_bn
I1222 20:50:59.324952 14696 net.cpp:459] inception_3c/double_3x3_1_bn <- inception_3c/double_3x3_1
I1222 20:50:59.324957 14696 net.cpp:415] inception_3c/double_3x3_1_bn -> inception_3c/double_3x3_1_bn
I1222 20:50:59.324961 14696 net.cpp:160] Setting up inception_3c/double_3x3_1_bn
I1222 20:50:59.324970 14696 net.cpp:167] Top shape: 72 96 28 28 (5419008)
I1222 20:50:59.324975 14696 layer_factory.hpp:74] Creating layer inception_3c/relu_double_3x3_1
I1222 20:50:59.324980 14696 net.cpp:96] Creating Layer inception_3c/relu_double_3x3_1
I1222 20:50:59.324982 14696 net.cpp:459] inception_3c/relu_double_3x3_1 <- inception_3c/double_3x3_1_bn
I1222 20:50:59.324986 14696 net.cpp:404] inception_3c/relu_double_3x3_1 -> inception_3c/double_3x3_1_bn (in-place)
I1222 20:50:59.324990 14696 net.cpp:160] Setting up inception_3c/relu_double_3x3_1
I1222 20:50:59.324993 14696 net.cpp:167] Top shape: 72 96 28 28 (5419008)
I1222 20:50:59.324996 14696 layer_factory.hpp:74] Creating layer inception_3c/double_3x3_2
I1222 20:50:59.325006 14696 net.cpp:96] Creating Layer inception_3c/double_3x3_2
I1222 20:50:59.325008 14696 net.cpp:459] inception_3c/double_3x3_2 <- inception_3c/double_3x3_1_bn
I1222 20:50:59.325012 14696 net.cpp:415] inception_3c/double_3x3_2 -> inception_3c/double_3x3_2
I1222 20:50:59.325017 14696 net.cpp:160] Setting up inception_3c/double_3x3_2
I1222 20:50:59.325376 14696 net.cpp:167] Top shape: 72 96 14 14 (1354752)
I1222 20:50:59.325381 14696 layer_factory.hpp:74] Creating layer inception_3c/double_3x3_2_bn
I1222 20:50:59.325386 14696 layer_factory.cpp:177] Layer inception_3c/double_3x3_2_bn is using CAFFE engine.
I1222 20:50:59.325390 14696 net.cpp:96] Creating Layer inception_3c/double_3x3_2_bn
I1222 20:50:59.325394 14696 net.cpp:459] inception_3c/double_3x3_2_bn <- inception_3c/double_3x3_2
I1222 20:50:59.325399 14696 net.cpp:415] inception_3c/double_3x3_2_bn -> inception_3c/double_3x3_2_bn
I1222 20:50:59.325404 14696 net.cpp:160] Setting up inception_3c/double_3x3_2_bn
I1222 20:50:59.325414 14696 net.cpp:167] Top shape: 72 96 14 14 (1354752)
I1222 20:50:59.325426 14696 layer_factory.hpp:74] Creating layer inception_3c/relu_double_3x3_2
I1222 20:50:59.325431 14696 net.cpp:96] Creating Layer inception_3c/relu_double_3x3_2
I1222 20:50:59.325434 14696 net.cpp:459] inception_3c/relu_double_3x3_2 <- inception_3c/double_3x3_2_bn
I1222 20:50:59.325438 14696 net.cpp:404] inception_3c/relu_double_3x3_2 -> inception_3c/double_3x3_2_bn (in-place)
I1222 20:50:59.325443 14696 net.cpp:160] Setting up inception_3c/relu_double_3x3_2
I1222 20:50:59.325446 14696 net.cpp:167] Top shape: 72 96 14 14 (1354752)
I1222 20:50:59.325449 14696 layer_factory.hpp:74] Creating layer inception_3c/pool
I1222 20:50:59.325455 14696 net.cpp:96] Creating Layer inception_3c/pool
I1222 20:50:59.325459 14696 net.cpp:459] inception_3c/pool <- inception_3b/output_inception_3b/output_0_split_2
I1222 20:50:59.325462 14696 net.cpp:415] inception_3c/pool -> inception_3c/pool
I1222 20:50:59.325470 14696 net.cpp:160] Setting up inception_3c/pool
I1222 20:50:59.325476 14696 net.cpp:167] Top shape: 72 320 14 14 (4515840)
I1222 20:50:59.325479 14696 layer_factory.hpp:74] Creating layer inception_3c/output
I1222 20:50:59.325484 14696 net.cpp:96] Creating Layer inception_3c/output
I1222 20:50:59.325487 14696 net.cpp:459] inception_3c/output <- inception_3c/3x3_bn
I1222 20:50:59.325491 14696 net.cpp:459] inception_3c/output <- inception_3c/double_3x3_2_bn
I1222 20:50:59.325495 14696 net.cpp:459] inception_3c/output <- inception_3c/pool
I1222 20:50:59.325498 14696 net.cpp:415] inception_3c/output -> inception_3c/output
I1222 20:50:59.325502 14696 net.cpp:160] Setting up inception_3c/output
I1222 20:50:59.325507 14696 net.cpp:167] Top shape: 72 576 14 14 (8128512)
I1222 20:50:59.325510 14696 layer_factory.hpp:74] Creating layer inception_3c/output_inception_3c/output_0_split
I1222 20:50:59.325515 14696 net.cpp:96] Creating Layer inception_3c/output_inception_3c/output_0_split
I1222 20:50:59.325517 14696 net.cpp:459] inception_3c/output_inception_3c/output_0_split <- inception_3c/output
I1222 20:50:59.325521 14696 net.cpp:415] inception_3c/output_inception_3c/output_0_split -> inception_3c/output_inception_3c/output_0_split_0
I1222 20:50:59.325525 14696 net.cpp:415] inception_3c/output_inception_3c/output_0_split -> inception_3c/output_inception_3c/output_0_split_1
I1222 20:50:59.325531 14696 net.cpp:415] inception_3c/output_inception_3c/output_0_split -> inception_3c/output_inception_3c/output_0_split_2
I1222 20:50:59.325536 14696 net.cpp:415] inception_3c/output_inception_3c/output_0_split -> inception_3c/output_inception_3c/output_0_split_3
I1222 20:50:59.325539 14696 net.cpp:160] Setting up inception_3c/output_inception_3c/output_0_split
I1222 20:50:59.325544 14696 net.cpp:167] Top shape: 72 576 14 14 (8128512)
I1222 20:50:59.325547 14696 net.cpp:167] Top shape: 72 576 14 14 (8128512)
I1222 20:50:59.325551 14696 net.cpp:167] Top shape: 72 576 14 14 (8128512)
I1222 20:50:59.325554 14696 net.cpp:167] Top shape: 72 576 14 14 (8128512)
I1222 20:50:59.325559 14696 layer_factory.hpp:74] Creating layer inception_4a/1x1
I1222 20:50:59.325568 14696 net.cpp:96] Creating Layer inception_4a/1x1
I1222 20:50:59.325572 14696 net.cpp:459] inception_4a/1x1 <- inception_3c/output_inception_3c/output_0_split_0
I1222 20:50:59.325575 14696 net.cpp:415] inception_4a/1x1 -> inception_4a/1x1
I1222 20:50:59.325580 14696 net.cpp:160] Setting up inception_4a/1x1
I1222 20:50:59.326159 14696 net.cpp:167] Top shape: 72 224 14 14 (3161088)
I1222 20:50:59.326166 14696 layer_factory.hpp:74] Creating layer inception_4a/1x1_bn
I1222 20:50:59.326169 14696 layer_factory.cpp:177] Layer inception_4a/1x1_bn is using CAFFE engine.
I1222 20:50:59.326174 14696 net.cpp:96] Creating Layer inception_4a/1x1_bn
I1222 20:50:59.326177 14696 net.cpp:459] inception_4a/1x1_bn <- inception_4a/1x1
I1222 20:50:59.326184 14696 net.cpp:415] inception_4a/1x1_bn -> inception_4a/1x1_bn
I1222 20:50:59.326189 14696 net.cpp:160] Setting up inception_4a/1x1_bn
I1222 20:50:59.326200 14696 net.cpp:167] Top shape: 72 224 14 14 (3161088)
I1222 20:50:59.326205 14696 layer_factory.hpp:74] Creating layer inception_4a/relu_1x1
I1222 20:50:59.326210 14696 net.cpp:96] Creating Layer inception_4a/relu_1x1
I1222 20:50:59.326213 14696 net.cpp:459] inception_4a/relu_1x1 <- inception_4a/1x1_bn
I1222 20:50:59.326216 14696 net.cpp:404] inception_4a/relu_1x1 -> inception_4a/1x1_bn (in-place)
I1222 20:50:59.326220 14696 net.cpp:160] Setting up inception_4a/relu_1x1
I1222 20:50:59.326225 14696 net.cpp:167] Top shape: 72 224 14 14 (3161088)
I1222 20:50:59.326227 14696 layer_factory.hpp:74] Creating layer inception_4a/3x3_reduce
I1222 20:50:59.326233 14696 net.cpp:96] Creating Layer inception_4a/3x3_reduce
I1222 20:50:59.326236 14696 net.cpp:459] inception_4a/3x3_reduce <- inception_3c/output_inception_3c/output_0_split_1
I1222 20:50:59.326241 14696 net.cpp:415] inception_4a/3x3_reduce -> inception_4a/3x3_reduce
I1222 20:50:59.326244 14696 net.cpp:160] Setting up inception_4a/3x3_reduce
I1222 20:50:59.326411 14696 net.cpp:167] Top shape: 72 64 14 14 (903168)
I1222 20:50:59.326416 14696 layer_factory.hpp:74] Creating layer inception_4a/3x3_reduce_bn
I1222 20:50:59.326419 14696 layer_factory.cpp:177] Layer inception_4a/3x3_reduce_bn is using CAFFE engine.
I1222 20:50:59.326424 14696 net.cpp:96] Creating Layer inception_4a/3x3_reduce_bn
I1222 20:50:59.326428 14696 net.cpp:459] inception_4a/3x3_reduce_bn <- inception_4a/3x3_reduce
I1222 20:50:59.326432 14696 net.cpp:415] inception_4a/3x3_reduce_bn -> inception_4a/3x3_reduce_bn
I1222 20:50:59.326436 14696 net.cpp:160] Setting up inception_4a/3x3_reduce_bn
I1222 20:50:59.326447 14696 net.cpp:167] Top shape: 72 64 14 14 (903168)
I1222 20:50:59.326452 14696 layer_factory.hpp:74] Creating layer inception_4a/relu_3x3_reduce
I1222 20:50:59.326455 14696 net.cpp:96] Creating Layer inception_4a/relu_3x3_reduce
I1222 20:50:59.326458 14696 net.cpp:459] inception_4a/relu_3x3_reduce <- inception_4a/3x3_reduce_bn
I1222 20:50:59.326463 14696 net.cpp:404] inception_4a/relu_3x3_reduce -> inception_4a/3x3_reduce_bn (in-place)
I1222 20:50:59.326467 14696 net.cpp:160] Setting up inception_4a/relu_3x3_reduce
I1222 20:50:59.326472 14696 net.cpp:167] Top shape: 72 64 14 14 (903168)
I1222 20:50:59.326473 14696 layer_factory.hpp:74] Creating layer inception_4a/3x3
I1222 20:50:59.326478 14696 net.cpp:96] Creating Layer inception_4a/3x3
I1222 20:50:59.326481 14696 net.cpp:459] inception_4a/3x3 <- inception_4a/3x3_reduce_bn
I1222 20:50:59.326486 14696 net.cpp:415] inception_4a/3x3 -> inception_4a/3x3
I1222 20:50:59.326490 14696 net.cpp:160] Setting up inception_4a/3x3
I1222 20:50:59.326751 14696 net.cpp:167] Top shape: 72 96 14 14 (1354752)
I1222 20:50:59.326757 14696 layer_factory.hpp:74] Creating layer inception_4a/3x3_bn
I1222 20:50:59.326761 14696 layer_factory.cpp:177] Layer inception_4a/3x3_bn is using CAFFE engine.
I1222 20:50:59.326766 14696 net.cpp:96] Creating Layer inception_4a/3x3_bn
I1222 20:50:59.326768 14696 net.cpp:459] inception_4a/3x3_bn <- inception_4a/3x3
I1222 20:50:59.326774 14696 net.cpp:415] inception_4a/3x3_bn -> inception_4a/3x3_bn
I1222 20:50:59.326786 14696 net.cpp:160] Setting up inception_4a/3x3_bn
I1222 20:50:59.326797 14696 net.cpp:167] Top shape: 72 96 14 14 (1354752)
I1222 20:50:59.326802 14696 layer_factory.hpp:74] Creating layer inception_4a/relu_3x3
I1222 20:50:59.326807 14696 net.cpp:96] Creating Layer inception_4a/relu_3x3
I1222 20:50:59.326810 14696 net.cpp:459] inception_4a/relu_3x3 <- inception_4a/3x3_bn
I1222 20:50:59.326813 14696 net.cpp:404] inception_4a/relu_3x3 -> inception_4a/3x3_bn (in-place)
I1222 20:50:59.326817 14696 net.cpp:160] Setting up inception_4a/relu_3x3
I1222 20:50:59.326822 14696 net.cpp:167] Top shape: 72 96 14 14 (1354752)
I1222 20:50:59.326823 14696 layer_factory.hpp:74] Creating layer inception_4a/double_3x3_reduce
I1222 20:50:59.326829 14696 net.cpp:96] Creating Layer inception_4a/double_3x3_reduce
I1222 20:50:59.326833 14696 net.cpp:459] inception_4a/double_3x3_reduce <- inception_3c/output_inception_3c/output_0_split_2
I1222 20:50:59.326838 14696 net.cpp:415] inception_4a/double_3x3_reduce -> inception_4a/double_3x3_reduce
I1222 20:50:59.326843 14696 net.cpp:160] Setting up inception_4a/double_3x3_reduce
I1222 20:50:59.327087 14696 net.cpp:167] Top shape: 72 96 14 14 (1354752)
I1222 20:50:59.327093 14696 layer_factory.hpp:74] Creating layer inception_4a/double_3x3_reduce_bn
I1222 20:50:59.327096 14696 layer_factory.cpp:177] Layer inception_4a/double_3x3_reduce_bn is using CAFFE engine.
I1222 20:50:59.327101 14696 net.cpp:96] Creating Layer inception_4a/double_3x3_reduce_bn
I1222 20:50:59.327105 14696 net.cpp:459] inception_4a/double_3x3_reduce_bn <- inception_4a/double_3x3_reduce
I1222 20:50:59.327111 14696 net.cpp:415] inception_4a/double_3x3_reduce_bn -> inception_4a/double_3x3_reduce_bn
I1222 20:50:59.327114 14696 net.cpp:160] Setting up inception_4a/double_3x3_reduce_bn
I1222 20:50:59.327126 14696 net.cpp:167] Top shape: 72 96 14 14 (1354752)
I1222 20:50:59.327131 14696 layer_factory.hpp:74] Creating layer inception_4a/relu_double_3x3_reduce
I1222 20:50:59.327136 14696 net.cpp:96] Creating Layer inception_4a/relu_double_3x3_reduce
I1222 20:50:59.327138 14696 net.cpp:459] inception_4a/relu_double_3x3_reduce <- inception_4a/double_3x3_reduce_bn
I1222 20:50:59.327142 14696 net.cpp:404] inception_4a/relu_double_3x3_reduce -> inception_4a/double_3x3_reduce_bn (in-place)
I1222 20:50:59.327145 14696 net.cpp:160] Setting up inception_4a/relu_double_3x3_reduce
I1222 20:50:59.327149 14696 net.cpp:167] Top shape: 72 96 14 14 (1354752)
I1222 20:50:59.327152 14696 layer_factory.hpp:74] Creating layer inception_4a/double_3x3_1
I1222 20:50:59.327157 14696 net.cpp:96] Creating Layer inception_4a/double_3x3_1
I1222 20:50:59.327160 14696 net.cpp:459] inception_4a/double_3x3_1 <- inception_4a/double_3x3_reduce_bn
I1222 20:50:59.327164 14696 net.cpp:415] inception_4a/double_3x3_1 -> inception_4a/double_3x3_1
I1222 20:50:59.327169 14696 net.cpp:160] Setting up inception_4a/double_3x3_1
I1222 20:50:59.327659 14696 net.cpp:167] Top shape: 72 128 14 14 (1806336)
I1222 20:50:59.327666 14696 layer_factory.hpp:74] Creating layer inception_4a/double_3x3_1_bn
I1222 20:50:59.327669 14696 layer_factory.cpp:177] Layer inception_4a/double_3x3_1_bn is using CAFFE engine.
I1222 20:50:59.327675 14696 net.cpp:96] Creating Layer inception_4a/double_3x3_1_bn
I1222 20:50:59.327678 14696 net.cpp:459] inception_4a/double_3x3_1_bn <- inception_4a/double_3x3_1
I1222 20:50:59.327683 14696 net.cpp:415] inception_4a/double_3x3_1_bn -> inception_4a/double_3x3_1_bn
I1222 20:50:59.327688 14696 net.cpp:160] Setting up inception_4a/double_3x3_1_bn
I1222 20:50:59.327700 14696 net.cpp:167] Top shape: 72 128 14 14 (1806336)
I1222 20:50:59.327705 14696 layer_factory.hpp:74] Creating layer inception_4a/relu_double_3x3_1
I1222 20:50:59.327709 14696 net.cpp:96] Creating Layer inception_4a/relu_double_3x3_1
I1222 20:50:59.327713 14696 net.cpp:459] inception_4a/relu_double_3x3_1 <- inception_4a/double_3x3_1_bn
I1222 20:50:59.327715 14696 net.cpp:404] inception_4a/relu_double_3x3_1 -> inception_4a/double_3x3_1_bn (in-place)
I1222 20:50:59.327723 14696 net.cpp:160] Setting up inception_4a/relu_double_3x3_1
I1222 20:50:59.327729 14696 net.cpp:167] Top shape: 72 128 14 14 (1806336)
I1222 20:50:59.327733 14696 layer_factory.hpp:74] Creating layer inception_4a/double_3x3_2
I1222 20:50:59.327738 14696 net.cpp:96] Creating Layer inception_4a/double_3x3_2
I1222 20:50:59.327741 14696 net.cpp:459] inception_4a/double_3x3_2 <- inception_4a/double_3x3_1_bn
I1222 20:50:59.327745 14696 net.cpp:415] inception_4a/double_3x3_2 -> inception_4a/double_3x3_2
I1222 20:50:59.327749 14696 net.cpp:160] Setting up inception_4a/double_3x3_2
I1222 20:50:59.328419 14696 net.cpp:167] Top shape: 72 128 14 14 (1806336)
I1222 20:50:59.328426 14696 layer_factory.hpp:74] Creating layer inception_4a/double_3x3_2_bn
I1222 20:50:59.328429 14696 layer_factory.cpp:177] Layer inception_4a/double_3x3_2_bn is using CAFFE engine.
I1222 20:50:59.328435 14696 net.cpp:96] Creating Layer inception_4a/double_3x3_2_bn
I1222 20:50:59.328438 14696 net.cpp:459] inception_4a/double_3x3_2_bn <- inception_4a/double_3x3_2
I1222 20:50:59.328444 14696 net.cpp:415] inception_4a/double_3x3_2_bn -> inception_4a/double_3x3_2_bn
I1222 20:50:59.328449 14696 net.cpp:160] Setting up inception_4a/double_3x3_2_bn
I1222 20:50:59.328459 14696 net.cpp:167] Top shape: 72 128 14 14 (1806336)
I1222 20:50:59.328464 14696 layer_factory.hpp:74] Creating layer inception_4a/relu_double_3x3_2
I1222 20:50:59.328469 14696 net.cpp:96] Creating Layer inception_4a/relu_double_3x3_2
I1222 20:50:59.328471 14696 net.cpp:459] inception_4a/relu_double_3x3_2 <- inception_4a/double_3x3_2_bn
I1222 20:50:59.328475 14696 net.cpp:404] inception_4a/relu_double_3x3_2 -> inception_4a/double_3x3_2_bn (in-place)
I1222 20:50:59.328480 14696 net.cpp:160] Setting up inception_4a/relu_double_3x3_2
I1222 20:50:59.328482 14696 net.cpp:167] Top shape: 72 128 14 14 (1806336)
I1222 20:50:59.328485 14696 layer_factory.hpp:74] Creating layer inception_4a/pool
I1222 20:50:59.328490 14696 net.cpp:96] Creating Layer inception_4a/pool
I1222 20:50:59.328495 14696 net.cpp:459] inception_4a/pool <- inception_3c/output_inception_3c/output_0_split_3
I1222 20:50:59.328498 14696 net.cpp:415] inception_4a/pool -> inception_4a/pool
I1222 20:50:59.328502 14696 net.cpp:160] Setting up inception_4a/pool
I1222 20:50:59.328507 14696 net.cpp:167] Top shape: 72 576 14 14 (8128512)
I1222 20:50:59.328510 14696 layer_factory.hpp:74] Creating layer inception_4a/pool_proj
I1222 20:50:59.328516 14696 net.cpp:96] Creating Layer inception_4a/pool_proj
I1222 20:50:59.328518 14696 net.cpp:459] inception_4a/pool_proj <- inception_4a/pool
I1222 20:50:59.328523 14696 net.cpp:415] inception_4a/pool_proj -> inception_4a/pool_proj
I1222 20:50:59.328528 14696 net.cpp:160] Setting up inception_4a/pool_proj
I1222 20:50:59.328855 14696 net.cpp:167] Top shape: 72 128 14 14 (1806336)
I1222 20:50:59.328861 14696 layer_factory.hpp:74] Creating layer inception_4a/pool_proj_bn
I1222 20:50:59.328865 14696 layer_factory.cpp:177] Layer inception_4a/pool_proj_bn is using CAFFE engine.
I1222 20:50:59.328871 14696 net.cpp:96] Creating Layer inception_4a/pool_proj_bn
I1222 20:50:59.328873 14696 net.cpp:459] inception_4a/pool_proj_bn <- inception_4a/pool_proj
I1222 20:50:59.328878 14696 net.cpp:415] inception_4a/pool_proj_bn -> inception_4a/pool_proj_bn
I1222 20:50:59.328883 14696 net.cpp:160] Setting up inception_4a/pool_proj_bn
I1222 20:50:59.328892 14696 net.cpp:167] Top shape: 72 128 14 14 (1806336)
I1222 20:50:59.328897 14696 layer_factory.hpp:74] Creating layer inception_4a/relu_pool_proj
I1222 20:50:59.328902 14696 net.cpp:96] Creating Layer inception_4a/relu_pool_proj
I1222 20:50:59.328905 14696 net.cpp:459] inception_4a/relu_pool_proj <- inception_4a/pool_proj_bn
I1222 20:50:59.328909 14696 net.cpp:404] inception_4a/relu_pool_proj -> inception_4a/pool_proj_bn (in-place)
I1222 20:50:59.328913 14696 net.cpp:160] Setting up inception_4a/relu_pool_proj
I1222 20:50:59.328917 14696 net.cpp:167] Top shape: 72 128 14 14 (1806336)
I1222 20:50:59.328919 14696 layer_factory.hpp:74] Creating layer inception_4a/output
I1222 20:50:59.328927 14696 net.cpp:96] Creating Layer inception_4a/output
I1222 20:50:59.328933 14696 net.cpp:459] inception_4a/output <- inception_4a/1x1_bn
I1222 20:50:59.328936 14696 net.cpp:459] inception_4a/output <- inception_4a/3x3_bn
I1222 20:50:59.328939 14696 net.cpp:459] inception_4a/output <- inception_4a/double_3x3_2_bn
I1222 20:50:59.328943 14696 net.cpp:459] inception_4a/output <- inception_4a/pool_proj_bn
I1222 20:50:59.328948 14696 net.cpp:415] inception_4a/output -> inception_4a/output
I1222 20:50:59.328951 14696 net.cpp:160] Setting up inception_4a/output
I1222 20:50:59.328956 14696 net.cpp:167] Top shape: 72 576 14 14 (8128512)
I1222 20:50:59.328959 14696 layer_factory.hpp:74] Creating layer inception_4a/output_inception_4a/output_0_split
I1222 20:50:59.328964 14696 net.cpp:96] Creating Layer inception_4a/output_inception_4a/output_0_split
I1222 20:50:59.328968 14696 net.cpp:459] inception_4a/output_inception_4a/output_0_split <- inception_4a/output
I1222 20:50:59.328970 14696 net.cpp:415] inception_4a/output_inception_4a/output_0_split -> inception_4a/output_inception_4a/output_0_split_0
I1222 20:50:59.328975 14696 net.cpp:415] inception_4a/output_inception_4a/output_0_split -> inception_4a/output_inception_4a/output_0_split_1
I1222 20:50:59.328981 14696 net.cpp:415] inception_4a/output_inception_4a/output_0_split -> inception_4a/output_inception_4a/output_0_split_2
I1222 20:50:59.328985 14696 net.cpp:415] inception_4a/output_inception_4a/output_0_split -> inception_4a/output_inception_4a/output_0_split_3
I1222 20:50:59.328989 14696 net.cpp:160] Setting up inception_4a/output_inception_4a/output_0_split
I1222 20:50:59.328994 14696 net.cpp:167] Top shape: 72 576 14 14 (8128512)
I1222 20:50:59.328997 14696 net.cpp:167] Top shape: 72 576 14 14 (8128512)
I1222 20:50:59.329001 14696 net.cpp:167] Top shape: 72 576 14 14 (8128512)
I1222 20:50:59.329005 14696 net.cpp:167] Top shape: 72 576 14 14 (8128512)
I1222 20:50:59.329007 14696 layer_factory.hpp:74] Creating layer inception_4b/1x1
I1222 20:50:59.329012 14696 net.cpp:96] Creating Layer inception_4b/1x1
I1222 20:50:59.329015 14696 net.cpp:459] inception_4b/1x1 <- inception_4a/output_inception_4a/output_0_split_0
I1222 20:50:59.329020 14696 net.cpp:415] inception_4b/1x1 -> inception_4b/1x1
I1222 20:50:59.329025 14696 net.cpp:160] Setting up inception_4b/1x1
I1222 20:50:59.329867 14696 net.cpp:167] Top shape: 72 192 14 14 (2709504)
I1222 20:50:59.329882 14696 layer_factory.hpp:74] Creating layer inception_4b/1x1_bn
I1222 20:50:59.329888 14696 layer_factory.cpp:177] Layer inception_4b/1x1_bn is using CAFFE engine.
I1222 20:50:59.329896 14696 net.cpp:96] Creating Layer inception_4b/1x1_bn
I1222 20:50:59.329901 14696 net.cpp:459] inception_4b/1x1_bn <- inception_4b/1x1
I1222 20:50:59.329910 14696 net.cpp:415] inception_4b/1x1_bn -> inception_4b/1x1_bn
I1222 20:50:59.329918 14696 net.cpp:160] Setting up inception_4b/1x1_bn
I1222 20:50:59.329936 14696 net.cpp:167] Top shape: 72 192 14 14 (2709504)
I1222 20:50:59.329944 14696 layer_factory.hpp:74] Creating layer inception_4b/relu_1x1
I1222 20:50:59.329951 14696 net.cpp:96] Creating Layer inception_4b/relu_1x1
I1222 20:50:59.329955 14696 net.cpp:459] inception_4b/relu_1x1 <- inception_4b/1x1_bn
I1222 20:50:59.329962 14696 net.cpp:404] inception_4b/relu_1x1 -> inception_4b/1x1_bn (in-place)
I1222 20:50:59.329968 14696 net.cpp:160] Setting up inception_4b/relu_1x1
I1222 20:50:59.329973 14696 net.cpp:167] Top shape: 72 192 14 14 (2709504)
I1222 20:50:59.329978 14696 layer_factory.hpp:74] Creating layer inception_4b/3x3_reduce
I1222 20:50:59.329985 14696 net.cpp:96] Creating Layer inception_4b/3x3_reduce
I1222 20:50:59.329990 14696 net.cpp:459] inception_4b/3x3_reduce <- inception_4a/output_inception_4a/output_0_split_1
I1222 20:50:59.329998 14696 net.cpp:415] inception_4b/3x3_reduce -> inception_4b/3x3_reduce
I1222 20:50:59.330005 14696 net.cpp:160] Setting up inception_4b/3x3_reduce
I1222 20:50:59.330438 14696 net.cpp:167] Top shape: 72 96 14 14 (1354752)
I1222 20:50:59.330451 14696 layer_factory.hpp:74] Creating layer inception_4b/3x3_reduce_bn
I1222 20:50:59.330466 14696 layer_factory.cpp:177] Layer inception_4b/3x3_reduce_bn is using CAFFE engine.
I1222 20:50:59.330473 14696 net.cpp:96] Creating Layer inception_4b/3x3_reduce_bn
I1222 20:50:59.330478 14696 net.cpp:459] inception_4b/3x3_reduce_bn <- inception_4b/3x3_reduce
I1222 20:50:59.330485 14696 net.cpp:415] inception_4b/3x3_reduce_bn -> inception_4b/3x3_reduce_bn
I1222 20:50:59.330493 14696 net.cpp:160] Setting up inception_4b/3x3_reduce_bn
I1222 20:50:59.330509 14696 net.cpp:167] Top shape: 72 96 14 14 (1354752)
I1222 20:50:59.330518 14696 layer_factory.hpp:74] Creating layer inception_4b/relu_3x3_reduce
I1222 20:50:59.330524 14696 net.cpp:96] Creating Layer inception_4b/relu_3x3_reduce
I1222 20:50:59.330529 14696 net.cpp:459] inception_4b/relu_3x3_reduce <- inception_4b/3x3_reduce_bn
I1222 20:50:59.330535 14696 net.cpp:404] inception_4b/relu_3x3_reduce -> inception_4b/3x3_reduce_bn (in-place)
I1222 20:50:59.330543 14696 net.cpp:160] Setting up inception_4b/relu_3x3_reduce
I1222 20:50:59.330548 14696 net.cpp:167] Top shape: 72 96 14 14 (1354752)
I1222 20:50:59.330551 14696 layer_factory.hpp:74] Creating layer inception_4b/3x3
I1222 20:50:59.330559 14696 net.cpp:96] Creating Layer inception_4b/3x3
I1222 20:50:59.330564 14696 net.cpp:459] inception_4b/3x3 <- inception_4b/3x3_reduce_bn
I1222 20:50:59.330571 14696 net.cpp:415] inception_4b/3x3 -> inception_4b/3x3
I1222 20:50:59.330579 14696 net.cpp:160] Setting up inception_4b/3x3
I1222 20:50:59.331444 14696 net.cpp:167] Top shape: 72 128 14 14 (1806336)
I1222 20:50:59.331457 14696 layer_factory.hpp:74] Creating layer inception_4b/3x3_bn
I1222 20:50:59.331465 14696 layer_factory.cpp:177] Layer inception_4b/3x3_bn is using CAFFE engine.
I1222 20:50:59.331473 14696 net.cpp:96] Creating Layer inception_4b/3x3_bn
I1222 20:50:59.331480 14696 net.cpp:459] inception_4b/3x3_bn <- inception_4b/3x3
I1222 20:50:59.331491 14696 net.cpp:415] inception_4b/3x3_bn -> inception_4b/3x3_bn
I1222 20:50:59.331502 14696 net.cpp:160] Setting up inception_4b/3x3_bn
I1222 20:50:59.331526 14696 net.cpp:167] Top shape: 72 128 14 14 (1806336)
I1222 20:50:59.331537 14696 layer_factory.hpp:74] Creating layer inception_4b/relu_3x3
I1222 20:50:59.331545 14696 net.cpp:96] Creating Layer inception_4b/relu_3x3
I1222 20:50:59.331552 14696 net.cpp:459] inception_4b/relu_3x3 <- inception_4b/3x3_bn
I1222 20:50:59.331562 14696 net.cpp:404] inception_4b/relu_3x3 -> inception_4b/3x3_bn (in-place)
I1222 20:50:59.331570 14696 net.cpp:160] Setting up inception_4b/relu_3x3
I1222 20:50:59.331578 14696 net.cpp:167] Top shape: 72 128 14 14 (1806336)
I1222 20:50:59.331583 14696 layer_factory.hpp:74] Creating layer inception_4b/double_3x3_reduce
I1222 20:50:59.331593 14696 net.cpp:96] Creating Layer inception_4b/double_3x3_reduce
I1222 20:50:59.331599 14696 net.cpp:459] inception_4b/double_3x3_reduce <- inception_4a/output_inception_4a/output_0_split_2
I1222 20:50:59.331610 14696 net.cpp:415] inception_4b/double_3x3_reduce -> inception_4b/double_3x3_reduce
I1222 20:50:59.331619 14696 net.cpp:160] Setting up inception_4b/double_3x3_reduce
I1222 20:50:59.332065 14696 net.cpp:167] Top shape: 72 96 14 14 (1354752)
I1222 20:50:59.332080 14696 layer_factory.hpp:74] Creating layer inception_4b/double_3x3_reduce_bn
I1222 20:50:59.332087 14696 layer_factory.cpp:177] Layer inception_4b/double_3x3_reduce_bn is using CAFFE engine.
I1222 20:50:59.332096 14696 net.cpp:96] Creating Layer inception_4b/double_3x3_reduce_bn
I1222 20:50:59.332103 14696 net.cpp:459] inception_4b/double_3x3_reduce_bn <- inception_4b/double_3x3_reduce
I1222 20:50:59.332111 14696 net.cpp:415] inception_4b/double_3x3_reduce_bn -> inception_4b/double_3x3_reduce_bn
I1222 20:50:59.332119 14696 net.cpp:160] Setting up inception_4b/double_3x3_reduce_bn
I1222 20:50:59.332150 14696 net.cpp:167] Top shape: 72 96 14 14 (1354752)
I1222 20:50:59.332165 14696 layer_factory.hpp:74] Creating layer inception_4b/relu_double_3x3_reduce
I1222 20:50:59.332175 14696 net.cpp:96] Creating Layer inception_4b/relu_double_3x3_reduce
I1222 20:50:59.332185 14696 net.cpp:459] inception_4b/relu_double_3x3_reduce <- inception_4b/double_3x3_reduce_bn
I1222 20:50:59.332197 14696 net.cpp:404] inception_4b/relu_double_3x3_reduce -> inception_4b/double_3x3_reduce_bn (in-place)
I1222 20:50:59.332204 14696 net.cpp:160] Setting up inception_4b/relu_double_3x3_reduce
I1222 20:50:59.332211 14696 net.cpp:167] Top shape: 72 96 14 14 (1354752)
I1222 20:50:59.332216 14696 layer_factory.hpp:74] Creating layer inception_4b/double_3x3_1
I1222 20:50:59.332226 14696 net.cpp:96] Creating Layer inception_4b/double_3x3_1
I1222 20:50:59.332231 14696 net.cpp:459] inception_4b/double_3x3_1 <- inception_4b/double_3x3_reduce_bn
I1222 20:50:59.332238 14696 net.cpp:415] inception_4b/double_3x3_1 -> inception_4b/double_3x3_1
I1222 20:50:59.332247 14696 net.cpp:160] Setting up inception_4b/double_3x3_1
I1222 20:50:59.333133 14696 net.cpp:167] Top shape: 72 128 14 14 (1806336)
I1222 20:50:59.333145 14696 layer_factory.hpp:74] Creating layer inception_4b/double_3x3_1_bn
I1222 20:50:59.333150 14696 layer_factory.cpp:177] Layer inception_4b/double_3x3_1_bn is using CAFFE engine.
I1222 20:50:59.333158 14696 net.cpp:96] Creating Layer inception_4b/double_3x3_1_bn
I1222 20:50:59.333163 14696 net.cpp:459] inception_4b/double_3x3_1_bn <- inception_4b/double_3x3_1
I1222 20:50:59.333171 14696 net.cpp:415] inception_4b/double_3x3_1_bn -> inception_4b/double_3x3_1_bn
I1222 20:50:59.333179 14696 net.cpp:160] Setting up inception_4b/double_3x3_1_bn
I1222 20:50:59.333195 14696 net.cpp:167] Top shape: 72 128 14 14 (1806336)
I1222 20:50:59.333204 14696 layer_factory.hpp:74] Creating layer inception_4b/relu_double_3x3_1
I1222 20:50:59.333209 14696 net.cpp:96] Creating Layer inception_4b/relu_double_3x3_1
I1222 20:50:59.333214 14696 net.cpp:459] inception_4b/relu_double_3x3_1 <- inception_4b/double_3x3_1_bn
I1222 20:50:59.333220 14696 net.cpp:404] inception_4b/relu_double_3x3_1 -> inception_4b/double_3x3_1_bn (in-place)
I1222 20:50:59.333225 14696 net.cpp:160] Setting up inception_4b/relu_double_3x3_1
I1222 20:50:59.333231 14696 net.cpp:167] Top shape: 72 128 14 14 (1806336)
I1222 20:50:59.333235 14696 layer_factory.hpp:74] Creating layer inception_4b/double_3x3_2
I1222 20:50:59.333243 14696 net.cpp:96] Creating Layer inception_4b/double_3x3_2
I1222 20:50:59.333247 14696 net.cpp:459] inception_4b/double_3x3_2 <- inception_4b/double_3x3_1_bn
I1222 20:50:59.333254 14696 net.cpp:415] inception_4b/double_3x3_2 -> inception_4b/double_3x3_2
I1222 20:50:59.333261 14696 net.cpp:160] Setting up inception_4b/double_3x3_2
I1222 20:50:59.334444 14696 net.cpp:167] Top shape: 72 128 14 14 (1806336)
I1222 20:50:59.334455 14696 layer_factory.hpp:74] Creating layer inception_4b/double_3x3_2_bn
I1222 20:50:59.334460 14696 layer_factory.cpp:177] Layer inception_4b/double_3x3_2_bn is using CAFFE engine.
I1222 20:50:59.334467 14696 net.cpp:96] Creating Layer inception_4b/double_3x3_2_bn
I1222 20:50:59.334472 14696 net.cpp:459] inception_4b/double_3x3_2_bn <- inception_4b/double_3x3_2
I1222 20:50:59.334481 14696 net.cpp:415] inception_4b/double_3x3_2_bn -> inception_4b/double_3x3_2_bn
I1222 20:50:59.334488 14696 net.cpp:160] Setting up inception_4b/double_3x3_2_bn
I1222 20:50:59.334506 14696 net.cpp:167] Top shape: 72 128 14 14 (1806336)
I1222 20:50:59.334516 14696 layer_factory.hpp:74] Creating layer inception_4b/relu_double_3x3_2
I1222 20:50:59.334522 14696 net.cpp:96] Creating Layer inception_4b/relu_double_3x3_2
I1222 20:50:59.334527 14696 net.cpp:459] inception_4b/relu_double_3x3_2 <- inception_4b/double_3x3_2_bn
I1222 20:50:59.334533 14696 net.cpp:404] inception_4b/relu_double_3x3_2 -> inception_4b/double_3x3_2_bn (in-place)
I1222 20:50:59.334540 14696 net.cpp:160] Setting up inception_4b/relu_double_3x3_2
I1222 20:50:59.334545 14696 net.cpp:167] Top shape: 72 128 14 14 (1806336)
I1222 20:50:59.334550 14696 layer_factory.hpp:74] Creating layer inception_4b/pool
I1222 20:50:59.334558 14696 net.cpp:96] Creating Layer inception_4b/pool
I1222 20:50:59.334563 14696 net.cpp:459] inception_4b/pool <- inception_4a/output_inception_4a/output_0_split_3
I1222 20:50:59.334578 14696 net.cpp:415] inception_4b/pool -> inception_4b/pool
I1222 20:50:59.334585 14696 net.cpp:160] Setting up inception_4b/pool
I1222 20:50:59.334594 14696 net.cpp:167] Top shape: 72 576 14 14 (8128512)
I1222 20:50:59.334599 14696 layer_factory.hpp:74] Creating layer inception_4b/pool_proj
I1222 20:50:59.334607 14696 net.cpp:96] Creating Layer inception_4b/pool_proj
I1222 20:50:59.334612 14696 net.cpp:459] inception_4b/pool_proj <- inception_4b/pool
I1222 20:50:59.334620 14696 net.cpp:415] inception_4b/pool_proj -> inception_4b/pool_proj
I1222 20:50:59.334628 14696 net.cpp:160] Setting up inception_4b/pool_proj
I1222 20:50:59.335222 14696 net.cpp:167] Top shape: 72 128 14 14 (1806336)
I1222 20:50:59.335230 14696 layer_factory.hpp:74] Creating layer inception_4b/pool_proj_bn
I1222 20:50:59.335235 14696 layer_factory.cpp:177] Layer inception_4b/pool_proj_bn is using CAFFE engine.
I1222 20:50:59.335242 14696 net.cpp:96] Creating Layer inception_4b/pool_proj_bn
I1222 20:50:59.335247 14696 net.cpp:459] inception_4b/pool_proj_bn <- inception_4b/pool_proj
I1222 20:50:59.335254 14696 net.cpp:415] inception_4b/pool_proj_bn -> inception_4b/pool_proj_bn
I1222 20:50:59.335261 14696 net.cpp:160] Setting up inception_4b/pool_proj_bn
I1222 20:50:59.335276 14696 net.cpp:167] Top shape: 72 128 14 14 (1806336)
I1222 20:50:59.335284 14696 layer_factory.hpp:74] Creating layer inception_4b/relu_pool_proj
I1222 20:50:59.335291 14696 net.cpp:96] Creating Layer inception_4b/relu_pool_proj
I1222 20:50:59.335296 14696 net.cpp:459] inception_4b/relu_pool_proj <- inception_4b/pool_proj_bn
I1222 20:50:59.335302 14696 net.cpp:404] inception_4b/relu_pool_proj -> inception_4b/pool_proj_bn (in-place)
I1222 20:50:59.335309 14696 net.cpp:160] Setting up inception_4b/relu_pool_proj
I1222 20:50:59.335314 14696 net.cpp:167] Top shape: 72 128 14 14 (1806336)
I1222 20:50:59.335319 14696 layer_factory.hpp:74] Creating layer inception_4b/output
I1222 20:50:59.335325 14696 net.cpp:96] Creating Layer inception_4b/output
I1222 20:50:59.335330 14696 net.cpp:459] inception_4b/output <- inception_4b/1x1_bn
I1222 20:50:59.335335 14696 net.cpp:459] inception_4b/output <- inception_4b/3x3_bn
I1222 20:50:59.335340 14696 net.cpp:459] inception_4b/output <- inception_4b/double_3x3_2_bn
I1222 20:50:59.335345 14696 net.cpp:459] inception_4b/output <- inception_4b/pool_proj_bn
I1222 20:50:59.335350 14696 net.cpp:415] inception_4b/output -> inception_4b/output
I1222 20:50:59.335356 14696 net.cpp:160] Setting up inception_4b/output
I1222 20:50:59.335363 14696 net.cpp:167] Top shape: 72 576 14 14 (8128512)
I1222 20:50:59.335368 14696 layer_factory.hpp:74] Creating layer inception_4b/output_inception_4b/output_0_split
I1222 20:50:59.335374 14696 net.cpp:96] Creating Layer inception_4b/output_inception_4b/output_0_split
I1222 20:50:59.335379 14696 net.cpp:459] inception_4b/output_inception_4b/output_0_split <- inception_4b/output
I1222 20:50:59.335386 14696 net.cpp:415] inception_4b/output_inception_4b/output_0_split -> inception_4b/output_inception_4b/output_0_split_0
I1222 20:50:59.335393 14696 net.cpp:415] inception_4b/output_inception_4b/output_0_split -> inception_4b/output_inception_4b/output_0_split_1
I1222 20:50:59.335400 14696 net.cpp:415] inception_4b/output_inception_4b/output_0_split -> inception_4b/output_inception_4b/output_0_split_2
I1222 20:50:59.335407 14696 net.cpp:415] inception_4b/output_inception_4b/output_0_split -> inception_4b/output_inception_4b/output_0_split_3
I1222 20:50:59.335413 14696 net.cpp:160] Setting up inception_4b/output_inception_4b/output_0_split
I1222 20:50:59.335420 14696 net.cpp:167] Top shape: 72 576 14 14 (8128512)
I1222 20:50:59.335425 14696 net.cpp:167] Top shape: 72 576 14 14 (8128512)
I1222 20:50:59.335431 14696 net.cpp:167] Top shape: 72 576 14 14 (8128512)
I1222 20:50:59.335436 14696 net.cpp:167] Top shape: 72 576 14 14 (8128512)
I1222 20:50:59.335440 14696 layer_factory.hpp:74] Creating layer inception_4c/1x1
I1222 20:50:59.335463 14696 net.cpp:96] Creating Layer inception_4c/1x1
I1222 20:50:59.335471 14696 net.cpp:459] inception_4c/1x1 <- inception_4b/output_inception_4b/output_0_split_0
I1222 20:50:59.335484 14696 net.cpp:415] inception_4c/1x1 -> inception_4c/1x1
I1222 20:50:59.335491 14696 net.cpp:160] Setting up inception_4c/1x1
I1222 20:50:59.336226 14696 net.cpp:167] Top shape: 72 160 14 14 (2257920)
I1222 20:50:59.336236 14696 layer_factory.hpp:74] Creating layer inception_4c/1x1_bn
I1222 20:50:59.336242 14696 layer_factory.cpp:177] Layer inception_4c/1x1_bn is using CAFFE engine.
I1222 20:50:59.336249 14696 net.cpp:96] Creating Layer inception_4c/1x1_bn
I1222 20:50:59.336254 14696 net.cpp:459] inception_4c/1x1_bn <- inception_4c/1x1
I1222 20:50:59.336261 14696 net.cpp:415] inception_4c/1x1_bn -> inception_4c/1x1_bn
I1222 20:50:59.336267 14696 net.cpp:160] Setting up inception_4c/1x1_bn
I1222 20:50:59.336287 14696 net.cpp:167] Top shape: 72 160 14 14 (2257920)
I1222 20:50:59.336294 14696 layer_factory.hpp:74] Creating layer inception_4c/relu_1x1
I1222 20:50:59.336300 14696 net.cpp:96] Creating Layer inception_4c/relu_1x1
I1222 20:50:59.336305 14696 net.cpp:459] inception_4c/relu_1x1 <- inception_4c/1x1_bn
I1222 20:50:59.336310 14696 net.cpp:404] inception_4c/relu_1x1 -> inception_4c/1x1_bn (in-place)
I1222 20:50:59.336316 14696 net.cpp:160] Setting up inception_4c/relu_1x1
I1222 20:50:59.336321 14696 net.cpp:167] Top shape: 72 160 14 14 (2257920)
I1222 20:50:59.336325 14696 layer_factory.hpp:74] Creating layer inception_4c/3x3_reduce
I1222 20:50:59.336333 14696 net.cpp:96] Creating Layer inception_4c/3x3_reduce
I1222 20:50:59.336338 14696 net.cpp:459] inception_4c/3x3_reduce <- inception_4b/output_inception_4b/output_0_split_1
I1222 20:50:59.336345 14696 net.cpp:415] inception_4c/3x3_reduce -> inception_4c/3x3_reduce
I1222 20:50:59.336352 14696 net.cpp:160] Setting up inception_4c/3x3_reduce
I1222 20:50:59.336942 14696 net.cpp:167] Top shape: 72 128 14 14 (1806336)
I1222 20:50:59.336951 14696 layer_factory.hpp:74] Creating layer inception_4c/3x3_reduce_bn
I1222 20:50:59.336956 14696 layer_factory.cpp:177] Layer inception_4c/3x3_reduce_bn is using CAFFE engine.
I1222 20:50:59.336963 14696 net.cpp:96] Creating Layer inception_4c/3x3_reduce_bn
I1222 20:50:59.336968 14696 net.cpp:459] inception_4c/3x3_reduce_bn <- inception_4c/3x3_reduce
I1222 20:50:59.336977 14696 net.cpp:415] inception_4c/3x3_reduce_bn -> inception_4c/3x3_reduce_bn
I1222 20:50:59.336983 14696 net.cpp:160] Setting up inception_4c/3x3_reduce_bn
I1222 20:50:59.336998 14696 net.cpp:167] Top shape: 72 128 14 14 (1806336)
I1222 20:50:59.337007 14696 layer_factory.hpp:74] Creating layer inception_4c/relu_3x3_reduce
I1222 20:50:59.337013 14696 net.cpp:96] Creating Layer inception_4c/relu_3x3_reduce
I1222 20:50:59.337018 14696 net.cpp:459] inception_4c/relu_3x3_reduce <- inception_4c/3x3_reduce_bn
I1222 20:50:59.337026 14696 net.cpp:404] inception_4c/relu_3x3_reduce -> inception_4c/3x3_reduce_bn (in-place)
I1222 20:50:59.337033 14696 net.cpp:160] Setting up inception_4c/relu_3x3_reduce
I1222 20:50:59.337039 14696 net.cpp:167] Top shape: 72 128 14 14 (1806336)
I1222 20:50:59.337044 14696 layer_factory.hpp:74] Creating layer inception_4c/3x3
I1222 20:50:59.337051 14696 net.cpp:96] Creating Layer inception_4c/3x3
I1222 20:50:59.337055 14696 net.cpp:459] inception_4c/3x3 <- inception_4c/3x3_reduce_bn
I1222 20:50:59.337062 14696 net.cpp:415] inception_4c/3x3 -> inception_4c/3x3
I1222 20:50:59.337069 14696 net.cpp:160] Setting up inception_4c/3x3
I1222 20:50:59.338542 14696 net.cpp:167] Top shape: 72 160 14 14 (2257920)
I1222 20:50:59.338553 14696 layer_factory.hpp:74] Creating layer inception_4c/3x3_bn
I1222 20:50:59.338558 14696 layer_factory.cpp:177] Layer inception_4c/3x3_bn is using CAFFE engine.
I1222 20:50:59.338565 14696 net.cpp:96] Creating Layer inception_4c/3x3_bn
I1222 20:50:59.338572 14696 net.cpp:459] inception_4c/3x3_bn <- inception_4c/3x3
I1222 20:50:59.338579 14696 net.cpp:415] inception_4c/3x3_bn -> inception_4c/3x3_bn
I1222 20:50:59.338587 14696 net.cpp:160] Setting up inception_4c/3x3_bn
I1222 20:50:59.338608 14696 net.cpp:167] Top shape: 72 160 14 14 (2257920)
I1222 20:50:59.338623 14696 layer_factory.hpp:74] Creating layer inception_4c/relu_3x3
I1222 20:50:59.338629 14696 net.cpp:96] Creating Layer inception_4c/relu_3x3
I1222 20:50:59.338634 14696 net.cpp:459] inception_4c/relu_3x3 <- inception_4c/3x3_bn
I1222 20:50:59.338641 14696 net.cpp:404] inception_4c/relu_3x3 -> inception_4c/3x3_bn (in-place)
I1222 20:50:59.338649 14696 net.cpp:160] Setting up inception_4c/relu_3x3
I1222 20:50:59.338654 14696 net.cpp:167] Top shape: 72 160 14 14 (2257920)
I1222 20:50:59.338659 14696 layer_factory.hpp:74] Creating layer inception_4c/double_3x3_reduce
I1222 20:50:59.338666 14696 net.cpp:96] Creating Layer inception_4c/double_3x3_reduce
I1222 20:50:59.338671 14696 net.cpp:459] inception_4c/double_3x3_reduce <- inception_4b/output_inception_4b/output_0_split_2
I1222 20:50:59.338680 14696 net.cpp:415] inception_4c/double_3x3_reduce -> inception_4c/double_3x3_reduce
I1222 20:50:59.338686 14696 net.cpp:160] Setting up inception_4c/double_3x3_reduce
I1222 20:50:59.339277 14696 net.cpp:167] Top shape: 72 128 14 14 (1806336)
I1222 20:50:59.339287 14696 layer_factory.hpp:74] Creating layer inception_4c/double_3x3_reduce_bn
I1222 20:50:59.339293 14696 layer_factory.cpp:177] Layer inception_4c/double_3x3_reduce_bn is using CAFFE engine.
I1222 20:50:59.339299 14696 net.cpp:96] Creating Layer inception_4c/double_3x3_reduce_bn
I1222 20:50:59.339304 14696 net.cpp:459] inception_4c/double_3x3_reduce_bn <- inception_4c/double_3x3_reduce
I1222 20:50:59.339310 14696 net.cpp:415] inception_4c/double_3x3_reduce_bn -> inception_4c/double_3x3_reduce_bn
I1222 20:50:59.339318 14696 net.cpp:160] Setting up inception_4c/double_3x3_reduce_bn
I1222 20:50:59.339332 14696 net.cpp:167] Top shape: 72 128 14 14 (1806336)
I1222 20:50:59.339339 14696 layer_factory.hpp:74] Creating layer inception_4c/relu_double_3x3_reduce
I1222 20:50:59.339349 14696 net.cpp:96] Creating Layer inception_4c/relu_double_3x3_reduce
I1222 20:50:59.339354 14696 net.cpp:459] inception_4c/relu_double_3x3_reduce <- inception_4c/double_3x3_reduce_bn
I1222 20:50:59.339359 14696 net.cpp:404] inception_4c/relu_double_3x3_reduce -> inception_4c/double_3x3_reduce_bn (in-place)
I1222 20:50:59.339365 14696 net.cpp:160] Setting up inception_4c/relu_double_3x3_reduce
I1222 20:50:59.339370 14696 net.cpp:167] Top shape: 72 128 14 14 (1806336)
I1222 20:50:59.339373 14696 layer_factory.hpp:74] Creating layer inception_4c/double_3x3_1
I1222 20:50:59.339380 14696 net.cpp:96] Creating Layer inception_4c/double_3x3_1
I1222 20:50:59.339385 14696 net.cpp:459] inception_4c/double_3x3_1 <- inception_4c/double_3x3_reduce_bn
I1222 20:50:59.339391 14696 net.cpp:415] inception_4c/double_3x3_1 -> inception_4c/double_3x3_1
I1222 20:50:59.339398 14696 net.cpp:160] Setting up inception_4c/double_3x3_1
I1222 20:50:59.340857 14696 net.cpp:167] Top shape: 72 160 14 14 (2257920)
I1222 20:50:59.340867 14696 layer_factory.hpp:74] Creating layer inception_4c/double_3x3_1_bn
I1222 20:50:59.340870 14696 layer_factory.cpp:177] Layer inception_4c/double_3x3_1_bn is using CAFFE engine.
I1222 20:50:59.340878 14696 net.cpp:96] Creating Layer inception_4c/double_3x3_1_bn
I1222 20:50:59.340883 14696 net.cpp:459] inception_4c/double_3x3_1_bn <- inception_4c/double_3x3_1
I1222 20:50:59.340889 14696 net.cpp:415] inception_4c/double_3x3_1_bn -> inception_4c/double_3x3_1_bn
I1222 20:50:59.340896 14696 net.cpp:160] Setting up inception_4c/double_3x3_1_bn
I1222 20:50:59.340911 14696 net.cpp:167] Top shape: 72 160 14 14 (2257920)
I1222 20:50:59.340919 14696 layer_factory.hpp:74] Creating layer inception_4c/relu_double_3x3_1
I1222 20:50:59.340929 14696 net.cpp:96] Creating Layer inception_4c/relu_double_3x3_1
I1222 20:50:59.340934 14696 net.cpp:459] inception_4c/relu_double_3x3_1 <- inception_4c/double_3x3_1_bn
I1222 20:50:59.340939 14696 net.cpp:404] inception_4c/relu_double_3x3_1 -> inception_4c/double_3x3_1_bn (in-place)
I1222 20:50:59.340945 14696 net.cpp:160] Setting up inception_4c/relu_double_3x3_1
I1222 20:50:59.340950 14696 net.cpp:167] Top shape: 72 160 14 14 (2257920)
I1222 20:50:59.340961 14696 layer_factory.hpp:74] Creating layer inception_4c/double_3x3_2
I1222 20:50:59.340970 14696 net.cpp:96] Creating Layer inception_4c/double_3x3_2
I1222 20:50:59.340975 14696 net.cpp:459] inception_4c/double_3x3_2 <- inception_4c/double_3x3_1_bn
I1222 20:50:59.340981 14696 net.cpp:415] inception_4c/double_3x3_2 -> inception_4c/double_3x3_2
I1222 20:50:59.340987 14696 net.cpp:160] Setting up inception_4c/double_3x3_2
I1222 20:50:59.342818 14696 net.cpp:167] Top shape: 72 160 14 14 (2257920)
I1222 20:50:59.342828 14696 layer_factory.hpp:74] Creating layer inception_4c/double_3x3_2_bn
I1222 20:50:59.342833 14696 layer_factory.cpp:177] Layer inception_4c/double_3x3_2_bn is using CAFFE engine.
I1222 20:50:59.342840 14696 net.cpp:96] Creating Layer inception_4c/double_3x3_2_bn
I1222 20:50:59.342845 14696 net.cpp:459] inception_4c/double_3x3_2_bn <- inception_4c/double_3x3_2
I1222 20:50:59.342854 14696 net.cpp:415] inception_4c/double_3x3_2_bn -> inception_4c/double_3x3_2_bn
I1222 20:50:59.342861 14696 net.cpp:160] Setting up inception_4c/double_3x3_2_bn
I1222 20:50:59.342876 14696 net.cpp:167] Top shape: 72 160 14 14 (2257920)
I1222 20:50:59.342885 14696 layer_factory.hpp:74] Creating layer inception_4c/relu_double_3x3_2
I1222 20:50:59.342890 14696 net.cpp:96] Creating Layer inception_4c/relu_double_3x3_2
I1222 20:50:59.342895 14696 net.cpp:459] inception_4c/relu_double_3x3_2 <- inception_4c/double_3x3_2_bn
I1222 20:50:59.342900 14696 net.cpp:404] inception_4c/relu_double_3x3_2 -> inception_4c/double_3x3_2_bn (in-place)
I1222 20:50:59.342905 14696 net.cpp:160] Setting up inception_4c/relu_double_3x3_2
I1222 20:50:59.342911 14696 net.cpp:167] Top shape: 72 160 14 14 (2257920)
I1222 20:50:59.342916 14696 layer_factory.hpp:74] Creating layer inception_4c/pool
I1222 20:50:59.342922 14696 net.cpp:96] Creating Layer inception_4c/pool
I1222 20:50:59.342927 14696 net.cpp:459] inception_4c/pool <- inception_4b/output_inception_4b/output_0_split_3
I1222 20:50:59.342932 14696 net.cpp:415] inception_4c/pool -> inception_4c/pool
I1222 20:50:59.342938 14696 net.cpp:160] Setting up inception_4c/pool
I1222 20:50:59.342945 14696 net.cpp:167] Top shape: 72 576 14 14 (8128512)
I1222 20:50:59.342950 14696 layer_factory.hpp:74] Creating layer inception_4c/pool_proj
I1222 20:50:59.342958 14696 net.cpp:96] Creating Layer inception_4c/pool_proj
I1222 20:50:59.342962 14696 net.cpp:459] inception_4c/pool_proj <- inception_4c/pool
I1222 20:50:59.342968 14696 net.cpp:415] inception_4c/pool_proj -> inception_4c/pool_proj
I1222 20:50:59.342975 14696 net.cpp:160] Setting up inception_4c/pool_proj
I1222 20:50:59.343564 14696 net.cpp:167] Top shape: 72 128 14 14 (1806336)
I1222 20:50:59.343574 14696 layer_factory.hpp:74] Creating layer inception_4c/pool_proj_bn
I1222 20:50:59.343577 14696 layer_factory.cpp:177] Layer inception_4c/pool_proj_bn is using CAFFE engine.
I1222 20:50:59.343585 14696 net.cpp:96] Creating Layer inception_4c/pool_proj_bn
I1222 20:50:59.343588 14696 net.cpp:459] inception_4c/pool_proj_bn <- inception_4c/pool_proj
I1222 20:50:59.343596 14696 net.cpp:415] inception_4c/pool_proj_bn -> inception_4c/pool_proj_bn
I1222 20:50:59.343603 14696 net.cpp:160] Setting up inception_4c/pool_proj_bn
I1222 20:50:59.343621 14696 net.cpp:167] Top shape: 72 128 14 14 (1806336)
I1222 20:50:59.343655 14696 layer_factory.hpp:74] Creating layer inception_4c/relu_pool_proj
I1222 20:50:59.343663 14696 net.cpp:96] Creating Layer inception_4c/relu_pool_proj
I1222 20:50:59.343668 14696 net.cpp:459] inception_4c/relu_pool_proj <- inception_4c/pool_proj_bn
I1222 20:50:59.343674 14696 net.cpp:404] inception_4c/relu_pool_proj -> inception_4c/pool_proj_bn (in-place)
I1222 20:50:59.343682 14696 net.cpp:160] Setting up inception_4c/relu_pool_proj
I1222 20:50:59.343688 14696 net.cpp:167] Top shape: 72 128 14 14 (1806336)
I1222 20:50:59.343693 14696 layer_factory.hpp:74] Creating layer inception_4c/output
I1222 20:50:59.343699 14696 net.cpp:96] Creating Layer inception_4c/output
I1222 20:50:59.343704 14696 net.cpp:459] inception_4c/output <- inception_4c/1x1_bn
I1222 20:50:59.343718 14696 net.cpp:459] inception_4c/output <- inception_4c/3x3_bn
I1222 20:50:59.343724 14696 net.cpp:459] inception_4c/output <- inception_4c/double_3x3_2_bn
I1222 20:50:59.343729 14696 net.cpp:459] inception_4c/output <- inception_4c/pool_proj_bn
I1222 20:50:59.343735 14696 net.cpp:415] inception_4c/output -> inception_4c/output
I1222 20:50:59.343742 14696 net.cpp:160] Setting up inception_4c/output
I1222 20:50:59.343750 14696 net.cpp:167] Top shape: 72 608 14 14 (8580096)
I1222 20:50:59.343755 14696 layer_factory.hpp:74] Creating layer inception_4c/output_inception_4c/output_0_split
I1222 20:50:59.343762 14696 net.cpp:96] Creating Layer inception_4c/output_inception_4c/output_0_split
I1222 20:50:59.343767 14696 net.cpp:459] inception_4c/output_inception_4c/output_0_split <- inception_4c/output
I1222 20:50:59.343773 14696 net.cpp:415] inception_4c/output_inception_4c/output_0_split -> inception_4c/output_inception_4c/output_0_split_0
I1222 20:50:59.343781 14696 net.cpp:415] inception_4c/output_inception_4c/output_0_split -> inception_4c/output_inception_4c/output_0_split_1
I1222 20:50:59.343789 14696 net.cpp:415] inception_4c/output_inception_4c/output_0_split -> inception_4c/output_inception_4c/output_0_split_2
I1222 20:50:59.343809 14696 net.cpp:415] inception_4c/output_inception_4c/output_0_split -> inception_4c/output_inception_4c/output_0_split_3
I1222 20:50:59.343816 14696 net.cpp:160] Setting up inception_4c/output_inception_4c/output_0_split
I1222 20:50:59.343824 14696 net.cpp:167] Top shape: 72 608 14 14 (8580096)
I1222 20:50:59.343830 14696 net.cpp:167] Top shape: 72 608 14 14 (8580096)
I1222 20:50:59.343837 14696 net.cpp:167] Top shape: 72 608 14 14 (8580096)
I1222 20:50:59.343842 14696 net.cpp:167] Top shape: 72 608 14 14 (8580096)
I1222 20:50:59.343847 14696 layer_factory.hpp:74] Creating layer inception_4d/1x1
I1222 20:50:59.343854 14696 net.cpp:96] Creating Layer inception_4d/1x1
I1222 20:50:59.343859 14696 net.cpp:459] inception_4d/1x1 <- inception_4c/output_inception_4c/output_0_split_0
I1222 20:50:59.343866 14696 net.cpp:415] inception_4d/1x1 -> inception_4d/1x1
I1222 20:50:59.343873 14696 net.cpp:160] Setting up inception_4d/1x1
I1222 20:50:59.344350 14696 net.cpp:167] Top shape: 72 96 14 14 (1354752)
I1222 20:50:59.344360 14696 layer_factory.hpp:74] Creating layer inception_4d/1x1_bn
I1222 20:50:59.344365 14696 layer_factory.cpp:177] Layer inception_4d/1x1_bn is using CAFFE engine.
I1222 20:50:59.344372 14696 net.cpp:96] Creating Layer inception_4d/1x1_bn
I1222 20:50:59.344377 14696 net.cpp:459] inception_4d/1x1_bn <- inception_4d/1x1
I1222 20:50:59.344385 14696 net.cpp:415] inception_4d/1x1_bn -> inception_4d/1x1_bn
I1222 20:50:59.344393 14696 net.cpp:160] Setting up inception_4d/1x1_bn
I1222 20:50:59.344406 14696 net.cpp:167] Top shape: 72 96 14 14 (1354752)
I1222 20:50:59.344415 14696 layer_factory.hpp:74] Creating layer inception_4d/relu_1x1
I1222 20:50:59.344421 14696 net.cpp:96] Creating Layer inception_4d/relu_1x1
I1222 20:50:59.344426 14696 net.cpp:459] inception_4d/relu_1x1 <- inception_4d/1x1_bn
I1222 20:50:59.344431 14696 net.cpp:404] inception_4d/relu_1x1 -> inception_4d/1x1_bn (in-place)
I1222 20:50:59.344437 14696 net.cpp:160] Setting up inception_4d/relu_1x1
I1222 20:50:59.344442 14696 net.cpp:167] Top shape: 72 96 14 14 (1354752)
I1222 20:50:59.344446 14696 layer_factory.hpp:74] Creating layer inception_4d/3x3_reduce
I1222 20:50:59.344454 14696 net.cpp:96] Creating Layer inception_4d/3x3_reduce
I1222 20:50:59.344458 14696 net.cpp:459] inception_4d/3x3_reduce <- inception_4c/output_inception_4c/output_0_split_1
I1222 20:50:59.344465 14696 net.cpp:415] inception_4d/3x3_reduce -> inception_4d/3x3_reduce
I1222 20:50:59.344472 14696 net.cpp:160] Setting up inception_4d/3x3_reduce
I1222 20:50:59.345091 14696 net.cpp:167] Top shape: 72 128 14 14 (1806336)
I1222 20:50:59.345100 14696 layer_factory.hpp:74] Creating layer inception_4d/3x3_reduce_bn
I1222 20:50:59.345105 14696 layer_factory.cpp:177] Layer inception_4d/3x3_reduce_bn is using CAFFE engine.
I1222 20:50:59.345115 14696 net.cpp:96] Creating Layer inception_4d/3x3_reduce_bn
I1222 20:50:59.345124 14696 net.cpp:459] inception_4d/3x3_reduce_bn <- inception_4d/3x3_reduce
I1222 20:50:59.345132 14696 net.cpp:415] inception_4d/3x3_reduce_bn -> inception_4d/3x3_reduce_bn
I1222 20:50:59.345139 14696 net.cpp:160] Setting up inception_4d/3x3_reduce_bn
I1222 20:50:59.345155 14696 net.cpp:167] Top shape: 72 128 14 14 (1806336)
I1222 20:50:59.345163 14696 layer_factory.hpp:74] Creating layer inception_4d/relu_3x3_reduce
I1222 20:50:59.345170 14696 net.cpp:96] Creating Layer inception_4d/relu_3x3_reduce
I1222 20:50:59.345175 14696 net.cpp:459] inception_4d/relu_3x3_reduce <- inception_4d/3x3_reduce_bn
I1222 20:50:59.345181 14696 net.cpp:404] inception_4d/relu_3x3_reduce -> inception_4d/3x3_reduce_bn (in-place)
I1222 20:50:59.345187 14696 net.cpp:160] Setting up inception_4d/relu_3x3_reduce
I1222 20:50:59.345193 14696 net.cpp:167] Top shape: 72 128 14 14 (1806336)
I1222 20:50:59.345198 14696 layer_factory.hpp:74] Creating layer inception_4d/3x3
I1222 20:50:59.345206 14696 net.cpp:96] Creating Layer inception_4d/3x3
I1222 20:50:59.345211 14696 net.cpp:459] inception_4d/3x3 <- inception_4d/3x3_reduce_bn
I1222 20:50:59.345218 14696 net.cpp:415] inception_4d/3x3 -> inception_4d/3x3
I1222 20:50:59.345226 14696 net.cpp:160] Setting up inception_4d/3x3
I1222 20:50:59.346983 14696 net.cpp:167] Top shape: 72 192 14 14 (2709504)
I1222 20:50:59.346994 14696 layer_factory.hpp:74] Creating layer inception_4d/3x3_bn
I1222 20:50:59.346999 14696 layer_factory.cpp:177] Layer inception_4d/3x3_bn is using CAFFE engine.
I1222 20:50:59.347007 14696 net.cpp:96] Creating Layer inception_4d/3x3_bn
I1222 20:50:59.347010 14696 net.cpp:459] inception_4d/3x3_bn <- inception_4d/3x3
I1222 20:50:59.347018 14696 net.cpp:415] inception_4d/3x3_bn -> inception_4d/3x3_bn
I1222 20:50:59.347025 14696 net.cpp:160] Setting up inception_4d/3x3_bn
I1222 20:50:59.347041 14696 net.cpp:167] Top shape: 72 192 14 14 (2709504)
I1222 20:50:59.347050 14696 layer_factory.hpp:74] Creating layer inception_4d/relu_3x3
I1222 20:50:59.347055 14696 net.cpp:96] Creating Layer inception_4d/relu_3x3
I1222 20:50:59.347060 14696 net.cpp:459] inception_4d/relu_3x3 <- inception_4d/3x3_bn
I1222 20:50:59.347066 14696 net.cpp:404] inception_4d/relu_3x3 -> inception_4d/3x3_bn (in-place)
I1222 20:50:59.347072 14696 net.cpp:160] Setting up inception_4d/relu_3x3
I1222 20:50:59.347077 14696 net.cpp:167] Top shape: 72 192 14 14 (2709504)
I1222 20:50:59.347081 14696 layer_factory.hpp:74] Creating layer inception_4d/double_3x3_reduce
I1222 20:50:59.347088 14696 net.cpp:96] Creating Layer inception_4d/double_3x3_reduce
I1222 20:50:59.347093 14696 net.cpp:459] inception_4d/double_3x3_reduce <- inception_4c/output_inception_4c/output_0_split_2
I1222 20:50:59.347101 14696 net.cpp:415] inception_4d/double_3x3_reduce -> inception_4d/double_3x3_reduce
I1222 20:50:59.347108 14696 net.cpp:160] Setting up inception_4d/double_3x3_reduce
I1222 20:50:59.347872 14696 net.cpp:167] Top shape: 72 160 14 14 (2257920)
I1222 20:50:59.347889 14696 layer_factory.hpp:74] Creating layer inception_4d/double_3x3_reduce_bn
I1222 20:50:59.347895 14696 layer_factory.cpp:177] Layer inception_4d/double_3x3_reduce_bn is using CAFFE engine.
I1222 20:50:59.347904 14696 net.cpp:96] Creating Layer inception_4d/double_3x3_reduce_bn
I1222 20:50:59.347910 14696 net.cpp:459] inception_4d/double_3x3_reduce_bn <- inception_4d/double_3x3_reduce
I1222 20:50:59.347918 14696 net.cpp:415] inception_4d/double_3x3_reduce_bn -> inception_4d/double_3x3_reduce_bn
I1222 20:50:59.347926 14696 net.cpp:160] Setting up inception_4d/double_3x3_reduce_bn
I1222 20:50:59.347944 14696 net.cpp:167] Top shape: 72 160 14 14 (2257920)
I1222 20:50:59.347954 14696 layer_factory.hpp:74] Creating layer inception_4d/relu_double_3x3_reduce
I1222 20:50:59.347960 14696 net.cpp:96] Creating Layer inception_4d/relu_double_3x3_reduce
I1222 20:50:59.347965 14696 net.cpp:459] inception_4d/relu_double_3x3_reduce <- inception_4d/double_3x3_reduce_bn
I1222 20:50:59.347975 14696 net.cpp:404] inception_4d/relu_double_3x3_reduce -> inception_4d/double_3x3_reduce_bn (in-place)
I1222 20:50:59.347986 14696 net.cpp:160] Setting up inception_4d/relu_double_3x3_reduce
I1222 20:50:59.347992 14696 net.cpp:167] Top shape: 72 160 14 14 (2257920)
I1222 20:50:59.347997 14696 layer_factory.hpp:74] Creating layer inception_4d/double_3x3_1
I1222 20:50:59.348004 14696 net.cpp:96] Creating Layer inception_4d/double_3x3_1
I1222 20:50:59.348009 14696 net.cpp:459] inception_4d/double_3x3_1 <- inception_4d/double_3x3_reduce_bn
I1222 20:50:59.348017 14696 net.cpp:415] inception_4d/double_3x3_1 -> inception_4d/double_3x3_1
I1222 20:50:59.348024 14696 net.cpp:160] Setting up inception_4d/double_3x3_1
I1222 20:50:59.349839 14696 net.cpp:167] Top shape: 72 192 14 14 (2709504)
I1222 20:50:59.349850 14696 layer_factory.hpp:74] Creating layer inception_4d/double_3x3_1_bn
I1222 20:50:59.349854 14696 layer_factory.cpp:177] Layer inception_4d/double_3x3_1_bn is using CAFFE engine.
I1222 20:50:59.349862 14696 net.cpp:96] Creating Layer inception_4d/double_3x3_1_bn
I1222 20:50:59.349866 14696 net.cpp:459] inception_4d/double_3x3_1_bn <- inception_4d/double_3x3_1
I1222 20:50:59.349874 14696 net.cpp:415] inception_4d/double_3x3_1_bn -> inception_4d/double_3x3_1_bn
I1222 20:50:59.349880 14696 net.cpp:160] Setting up inception_4d/double_3x3_1_bn
I1222 20:50:59.349891 14696 net.cpp:167] Top shape: 72 192 14 14 (2709504)
I1222 20:50:59.349897 14696 layer_factory.hpp:74] Creating layer inception_4d/relu_double_3x3_1
I1222 20:50:59.349902 14696 net.cpp:96] Creating Layer inception_4d/relu_double_3x3_1
I1222 20:50:59.349906 14696 net.cpp:459] inception_4d/relu_double_3x3_1 <- inception_4d/double_3x3_1_bn
I1222 20:50:59.349910 14696 net.cpp:404] inception_4d/relu_double_3x3_1 -> inception_4d/double_3x3_1_bn (in-place)
I1222 20:50:59.349915 14696 net.cpp:160] Setting up inception_4d/relu_double_3x3_1
I1222 20:50:59.349917 14696 net.cpp:167] Top shape: 72 192 14 14 (2709504)
I1222 20:50:59.349920 14696 layer_factory.hpp:74] Creating layer inception_4d/double_3x3_2
I1222 20:50:59.349925 14696 net.cpp:96] Creating Layer inception_4d/double_3x3_2
I1222 20:50:59.349928 14696 net.cpp:459] inception_4d/double_3x3_2 <- inception_4d/double_3x3_1_bn
I1222 20:50:59.349933 14696 net.cpp:415] inception_4d/double_3x3_2 -> inception_4d/double_3x3_2
I1222 20:50:59.349938 14696 net.cpp:160] Setting up inception_4d/double_3x3_2
I1222 20:50:59.351397 14696 net.cpp:167] Top shape: 72 192 14 14 (2709504)
I1222 20:50:59.351405 14696 layer_factory.hpp:74] Creating layer inception_4d/double_3x3_2_bn
I1222 20:50:59.351408 14696 layer_factory.cpp:177] Layer inception_4d/double_3x3_2_bn is using CAFFE engine.
I1222 20:50:59.351414 14696 net.cpp:96] Creating Layer inception_4d/double_3x3_2_bn
I1222 20:50:59.351418 14696 net.cpp:459] inception_4d/double_3x3_2_bn <- inception_4d/double_3x3_2
I1222 20:50:59.351423 14696 net.cpp:415] inception_4d/double_3x3_2_bn -> inception_4d/double_3x3_2_bn
I1222 20:50:59.351428 14696 net.cpp:160] Setting up inception_4d/double_3x3_2_bn
I1222 20:50:59.351440 14696 net.cpp:167] Top shape: 72 192 14 14 (2709504)
I1222 20:50:59.351445 14696 layer_factory.hpp:74] Creating layer inception_4d/relu_double_3x3_2
I1222 20:50:59.351451 14696 net.cpp:96] Creating Layer inception_4d/relu_double_3x3_2
I1222 20:50:59.351454 14696 net.cpp:459] inception_4d/relu_double_3x3_2 <- inception_4d/double_3x3_2_bn
I1222 20:50:59.351459 14696 net.cpp:404] inception_4d/relu_double_3x3_2 -> inception_4d/double_3x3_2_bn (in-place)
I1222 20:50:59.351462 14696 net.cpp:160] Setting up inception_4d/relu_double_3x3_2
I1222 20:50:59.351466 14696 net.cpp:167] Top shape: 72 192 14 14 (2709504)
I1222 20:50:59.351469 14696 layer_factory.hpp:74] Creating layer inception_4d/pool
I1222 20:50:59.351474 14696 net.cpp:96] Creating Layer inception_4d/pool
I1222 20:50:59.351477 14696 net.cpp:459] inception_4d/pool <- inception_4c/output_inception_4c/output_0_split_3
I1222 20:50:59.351481 14696 net.cpp:415] inception_4d/pool -> inception_4d/pool
I1222 20:50:59.351488 14696 net.cpp:160] Setting up inception_4d/pool
I1222 20:50:59.351497 14696 net.cpp:167] Top shape: 72 608 14 14 (8580096)
I1222 20:50:59.351500 14696 layer_factory.hpp:74] Creating layer inception_4d/pool_proj
I1222 20:50:59.351507 14696 net.cpp:96] Creating Layer inception_4d/pool_proj
I1222 20:50:59.351511 14696 net.cpp:459] inception_4d/pool_proj <- inception_4d/pool
I1222 20:50:59.351514 14696 net.cpp:415] inception_4d/pool_proj -> inception_4d/pool_proj
I1222 20:50:59.351519 14696 net.cpp:160] Setting up inception_4d/pool_proj
I1222 20:50:59.351867 14696 net.cpp:167] Top shape: 72 128 14 14 (1806336)
I1222 20:50:59.351873 14696 layer_factory.hpp:74] Creating layer inception_4d/pool_proj_bn
I1222 20:50:59.351876 14696 layer_factory.cpp:177] Layer inception_4d/pool_proj_bn is using CAFFE engine.
I1222 20:50:59.351882 14696 net.cpp:96] Creating Layer inception_4d/pool_proj_bn
I1222 20:50:59.351886 14696 net.cpp:459] inception_4d/pool_proj_bn <- inception_4d/pool_proj
I1222 20:50:59.351891 14696 net.cpp:415] inception_4d/pool_proj_bn -> inception_4d/pool_proj_bn
I1222 20:50:59.351896 14696 net.cpp:160] Setting up inception_4d/pool_proj_bn
I1222 20:50:59.351905 14696 net.cpp:167] Top shape: 72 128 14 14 (1806336)
I1222 20:50:59.351910 14696 layer_factory.hpp:74] Creating layer inception_4d/relu_pool_proj
I1222 20:50:59.351917 14696 net.cpp:96] Creating Layer inception_4d/relu_pool_proj
I1222 20:50:59.351919 14696 net.cpp:459] inception_4d/relu_pool_proj <- inception_4d/pool_proj_bn
I1222 20:50:59.351923 14696 net.cpp:404] inception_4d/relu_pool_proj -> inception_4d/pool_proj_bn (in-place)
I1222 20:50:59.351927 14696 net.cpp:160] Setting up inception_4d/relu_pool_proj
I1222 20:50:59.351930 14696 net.cpp:167] Top shape: 72 128 14 14 (1806336)
I1222 20:50:59.351933 14696 layer_factory.hpp:74] Creating layer inception_4d/output
I1222 20:50:59.351938 14696 net.cpp:96] Creating Layer inception_4d/output
I1222 20:50:59.351943 14696 net.cpp:459] inception_4d/output <- inception_4d/1x1_bn
I1222 20:50:59.351945 14696 net.cpp:459] inception_4d/output <- inception_4d/3x3_bn
I1222 20:50:59.351949 14696 net.cpp:459] inception_4d/output <- inception_4d/double_3x3_2_bn
I1222 20:50:59.351953 14696 net.cpp:459] inception_4d/output <- inception_4d/pool_proj_bn
I1222 20:50:59.351956 14696 net.cpp:415] inception_4d/output -> inception_4d/output
I1222 20:50:59.351960 14696 net.cpp:160] Setting up inception_4d/output
I1222 20:50:59.351965 14696 net.cpp:167] Top shape: 72 608 14 14 (8580096)
I1222 20:50:59.351969 14696 layer_factory.hpp:74] Creating layer inception_4d/output_inception_4d/output_0_split
I1222 20:50:59.351972 14696 net.cpp:96] Creating Layer inception_4d/output_inception_4d/output_0_split
I1222 20:50:59.351975 14696 net.cpp:459] inception_4d/output_inception_4d/output_0_split <- inception_4d/output
I1222 20:50:59.351980 14696 net.cpp:415] inception_4d/output_inception_4d/output_0_split -> inception_4d/output_inception_4d/output_0_split_0
I1222 20:50:59.351985 14696 net.cpp:415] inception_4d/output_inception_4d/output_0_split -> inception_4d/output_inception_4d/output_0_split_1
I1222 20:50:59.351989 14696 net.cpp:415] inception_4d/output_inception_4d/output_0_split -> inception_4d/output_inception_4d/output_0_split_2
I1222 20:50:59.351994 14696 net.cpp:160] Setting up inception_4d/output_inception_4d/output_0_split
I1222 20:50:59.351999 14696 net.cpp:167] Top shape: 72 608 14 14 (8580096)
I1222 20:50:59.352002 14696 net.cpp:167] Top shape: 72 608 14 14 (8580096)
I1222 20:50:59.352005 14696 net.cpp:167] Top shape: 72 608 14 14 (8580096)
I1222 20:50:59.352008 14696 layer_factory.hpp:74] Creating layer inception_4e/3x3_reduce
I1222 20:50:59.352015 14696 net.cpp:96] Creating Layer inception_4e/3x3_reduce
I1222 20:50:59.352017 14696 net.cpp:459] inception_4e/3x3_reduce <- inception_4d/output_inception_4d/output_0_split_0
I1222 20:50:59.352022 14696 net.cpp:415] inception_4e/3x3_reduce -> inception_4e/3x3_reduce
I1222 20:50:59.352026 14696 net.cpp:160] Setting up inception_4e/3x3_reduce
I1222 20:50:59.352370 14696 net.cpp:167] Top shape: 72 128 14 14 (1806336)
I1222 20:50:59.352380 14696 layer_factory.hpp:74] Creating layer inception_4e/3x3_reduce_bn
I1222 20:50:59.352385 14696 layer_factory.cpp:177] Layer inception_4e/3x3_reduce_bn is using CAFFE engine.
I1222 20:50:59.352388 14696 net.cpp:96] Creating Layer inception_4e/3x3_reduce_bn
I1222 20:50:59.352392 14696 net.cpp:459] inception_4e/3x3_reduce_bn <- inception_4e/3x3_reduce
I1222 20:50:59.352399 14696 net.cpp:415] inception_4e/3x3_reduce_bn -> inception_4e/3x3_reduce_bn
I1222 20:50:59.352404 14696 net.cpp:160] Setting up inception_4e/3x3_reduce_bn
I1222 20:50:59.352416 14696 net.cpp:167] Top shape: 72 128 14 14 (1806336)
I1222 20:50:59.352421 14696 layer_factory.hpp:74] Creating layer inception_4e/relu_3x3_reduce
I1222 20:50:59.352426 14696 net.cpp:96] Creating Layer inception_4e/relu_3x3_reduce
I1222 20:50:59.352428 14696 net.cpp:459] inception_4e/relu_3x3_reduce <- inception_4e/3x3_reduce_bn
I1222 20:50:59.352432 14696 net.cpp:404] inception_4e/relu_3x3_reduce -> inception_4e/3x3_reduce_bn (in-place)
I1222 20:50:59.352437 14696 net.cpp:160] Setting up inception_4e/relu_3x3_reduce
I1222 20:50:59.352439 14696 net.cpp:167] Top shape: 72 128 14 14 (1806336)
I1222 20:50:59.352442 14696 layer_factory.hpp:74] Creating layer inception_4e/3x3
I1222 20:50:59.352448 14696 net.cpp:96] Creating Layer inception_4e/3x3
I1222 20:50:59.352452 14696 net.cpp:459] inception_4e/3x3 <- inception_4e/3x3_reduce_bn
I1222 20:50:59.352457 14696 net.cpp:415] inception_4e/3x3 -> inception_4e/3x3
I1222 20:50:59.352460 14696 net.cpp:160] Setting up inception_4e/3x3
I1222 20:50:59.353415 14696 net.cpp:167] Top shape: 72 192 7 7 (677376)
I1222 20:50:59.353421 14696 layer_factory.hpp:74] Creating layer inception_4e/3x3_bn
I1222 20:50:59.353425 14696 layer_factory.cpp:177] Layer inception_4e/3x3_bn is using CAFFE engine.
I1222 20:50:59.353430 14696 net.cpp:96] Creating Layer inception_4e/3x3_bn
I1222 20:50:59.353435 14696 net.cpp:459] inception_4e/3x3_bn <- inception_4e/3x3
I1222 20:50:59.353440 14696 net.cpp:415] inception_4e/3x3_bn -> inception_4e/3x3_bn
I1222 20:50:59.353444 14696 net.cpp:160] Setting up inception_4e/3x3_bn
I1222 20:50:59.353454 14696 net.cpp:167] Top shape: 72 192 7 7 (677376)
I1222 20:50:59.353459 14696 layer_factory.hpp:74] Creating layer inception_4e/relu_3x3
I1222 20:50:59.353466 14696 net.cpp:96] Creating Layer inception_4e/relu_3x3
I1222 20:50:59.353468 14696 net.cpp:459] inception_4e/relu_3x3 <- inception_4e/3x3_bn
I1222 20:50:59.353472 14696 net.cpp:404] inception_4e/relu_3x3 -> inception_4e/3x3_bn (in-place)
I1222 20:50:59.353477 14696 net.cpp:160] Setting up inception_4e/relu_3x3
I1222 20:50:59.353480 14696 net.cpp:167] Top shape: 72 192 7 7 (677376)
I1222 20:50:59.353483 14696 layer_factory.hpp:74] Creating layer inception_4e/double_3x3_reduce
I1222 20:50:59.353488 14696 net.cpp:96] Creating Layer inception_4e/double_3x3_reduce
I1222 20:50:59.353492 14696 net.cpp:459] inception_4e/double_3x3_reduce <- inception_4d/output_inception_4d/output_0_split_1
I1222 20:50:59.353495 14696 net.cpp:415] inception_4e/double_3x3_reduce -> inception_4e/double_3x3_reduce
I1222 20:50:59.353499 14696 net.cpp:160] Setting up inception_4e/double_3x3_reduce
I1222 20:50:59.354017 14696 net.cpp:167] Top shape: 72 192 14 14 (2709504)
I1222 20:50:59.354023 14696 layer_factory.hpp:74] Creating layer inception_4e/double_3x3_reduce_bn
I1222 20:50:59.354027 14696 layer_factory.cpp:177] Layer inception_4e/double_3x3_reduce_bn is using CAFFE engine.
I1222 20:50:59.354032 14696 net.cpp:96] Creating Layer inception_4e/double_3x3_reduce_bn
I1222 20:50:59.354035 14696 net.cpp:459] inception_4e/double_3x3_reduce_bn <- inception_4e/double_3x3_reduce
I1222 20:50:59.354040 14696 net.cpp:415] inception_4e/double_3x3_reduce_bn -> inception_4e/double_3x3_reduce_bn
I1222 20:50:59.354045 14696 net.cpp:160] Setting up inception_4e/double_3x3_reduce_bn
I1222 20:50:59.354058 14696 net.cpp:167] Top shape: 72 192 14 14 (2709504)
I1222 20:50:59.354064 14696 layer_factory.hpp:74] Creating layer inception_4e/relu_double_3x3_reduce
I1222 20:50:59.354073 14696 net.cpp:96] Creating Layer inception_4e/relu_double_3x3_reduce
I1222 20:50:59.354079 14696 net.cpp:459] inception_4e/relu_double_3x3_reduce <- inception_4e/double_3x3_reduce_bn
I1222 20:50:59.354082 14696 net.cpp:404] inception_4e/relu_double_3x3_reduce -> inception_4e/double_3x3_reduce_bn (in-place)
I1222 20:50:59.354086 14696 net.cpp:160] Setting up inception_4e/relu_double_3x3_reduce
I1222 20:50:59.354090 14696 net.cpp:167] Top shape: 72 192 14 14 (2709504)
I1222 20:50:59.354094 14696 layer_factory.hpp:74] Creating layer inception_4e/double_3x3_1
I1222 20:50:59.354099 14696 net.cpp:96] Creating Layer inception_4e/double_3x3_1
I1222 20:50:59.354102 14696 net.cpp:459] inception_4e/double_3x3_1 <- inception_4e/double_3x3_reduce_bn
I1222 20:50:59.354106 14696 net.cpp:415] inception_4e/double_3x3_1 -> inception_4e/double_3x3_1
I1222 20:50:59.354110 14696 net.cpp:160] Setting up inception_4e/double_3x3_1
I1222 20:50:59.356169 14696 net.cpp:167] Top shape: 72 256 14 14 (3612672)
I1222 20:50:59.356179 14696 layer_factory.hpp:74] Creating layer inception_4e/double_3x3_1_bn
I1222 20:50:59.356184 14696 layer_factory.cpp:177] Layer inception_4e/double_3x3_1_bn is using CAFFE engine.
I1222 20:50:59.356189 14696 net.cpp:96] Creating Layer inception_4e/double_3x3_1_bn
I1222 20:50:59.356191 14696 net.cpp:459] inception_4e/double_3x3_1_bn <- inception_4e/double_3x3_1
I1222 20:50:59.356197 14696 net.cpp:415] inception_4e/double_3x3_1_bn -> inception_4e/double_3x3_1_bn
I1222 20:50:59.356204 14696 net.cpp:160] Setting up inception_4e/double_3x3_1_bn
I1222 20:50:59.356215 14696 net.cpp:167] Top shape: 72 256 14 14 (3612672)
I1222 20:50:59.356221 14696 layer_factory.hpp:74] Creating layer inception_4e/relu_double_3x3_1
I1222 20:50:59.356226 14696 net.cpp:96] Creating Layer inception_4e/relu_double_3x3_1
I1222 20:50:59.356230 14696 net.cpp:459] inception_4e/relu_double_3x3_1 <- inception_4e/double_3x3_1_bn
I1222 20:50:59.356233 14696 net.cpp:404] inception_4e/relu_double_3x3_1 -> inception_4e/double_3x3_1_bn (in-place)
I1222 20:50:59.356238 14696 net.cpp:160] Setting up inception_4e/relu_double_3x3_1
I1222 20:50:59.356242 14696 net.cpp:167] Top shape: 72 256 14 14 (3612672)
I1222 20:50:59.356245 14696 layer_factory.hpp:74] Creating layer inception_4e/double_3x3_2
I1222 20:50:59.356251 14696 net.cpp:96] Creating Layer inception_4e/double_3x3_2
I1222 20:50:59.356253 14696 net.cpp:459] inception_4e/double_3x3_2 <- inception_4e/double_3x3_1_bn
I1222 20:50:59.356257 14696 net.cpp:415] inception_4e/double_3x3_2 -> inception_4e/double_3x3_2
I1222 20:50:59.356261 14696 net.cpp:160] Setting up inception_4e/double_3x3_2
I1222 20:50:59.358810 14696 net.cpp:167] Top shape: 72 256 7 7 (903168)
I1222 20:50:59.358819 14696 layer_factory.hpp:74] Creating layer inception_4e/double_3x3_2_bn
I1222 20:50:59.358822 14696 layer_factory.cpp:177] Layer inception_4e/double_3x3_2_bn is using CAFFE engine.
I1222 20:50:59.358827 14696 net.cpp:96] Creating Layer inception_4e/double_3x3_2_bn
I1222 20:50:59.358830 14696 net.cpp:459] inception_4e/double_3x3_2_bn <- inception_4e/double_3x3_2
I1222 20:50:59.358835 14696 net.cpp:415] inception_4e/double_3x3_2_bn -> inception_4e/double_3x3_2_bn
I1222 20:50:59.358840 14696 net.cpp:160] Setting up inception_4e/double_3x3_2_bn
I1222 20:50:59.358852 14696 net.cpp:167] Top shape: 72 256 7 7 (903168)
I1222 20:50:59.358857 14696 layer_factory.hpp:74] Creating layer inception_4e/relu_double_3x3_2
I1222 20:50:59.358863 14696 net.cpp:96] Creating Layer inception_4e/relu_double_3x3_2
I1222 20:50:59.358866 14696 net.cpp:459] inception_4e/relu_double_3x3_2 <- inception_4e/double_3x3_2_bn
I1222 20:50:59.358870 14696 net.cpp:404] inception_4e/relu_double_3x3_2 -> inception_4e/double_3x3_2_bn (in-place)
I1222 20:50:59.358875 14696 net.cpp:160] Setting up inception_4e/relu_double_3x3_2
I1222 20:50:59.358877 14696 net.cpp:167] Top shape: 72 256 7 7 (903168)
I1222 20:50:59.358880 14696 layer_factory.hpp:74] Creating layer inception_4e/pool
I1222 20:50:59.358886 14696 net.cpp:96] Creating Layer inception_4e/pool
I1222 20:50:59.358891 14696 net.cpp:459] inception_4e/pool <- inception_4d/output_inception_4d/output_0_split_2
I1222 20:50:59.358901 14696 net.cpp:415] inception_4e/pool -> inception_4e/pool
I1222 20:50:59.358906 14696 net.cpp:160] Setting up inception_4e/pool
I1222 20:50:59.358911 14696 net.cpp:167] Top shape: 72 608 7 7 (2145024)
I1222 20:50:59.358914 14696 layer_factory.hpp:74] Creating layer inception_4e/output
I1222 20:50:59.358919 14696 net.cpp:96] Creating Layer inception_4e/output
I1222 20:50:59.358922 14696 net.cpp:459] inception_4e/output <- inception_4e/3x3_bn
I1222 20:50:59.358925 14696 net.cpp:459] inception_4e/output <- inception_4e/double_3x3_2_bn
I1222 20:50:59.358928 14696 net.cpp:459] inception_4e/output <- inception_4e/pool
I1222 20:50:59.358932 14696 net.cpp:415] inception_4e/output -> inception_4e/output
I1222 20:50:59.358937 14696 net.cpp:160] Setting up inception_4e/output
I1222 20:50:59.358942 14696 net.cpp:167] Top shape: 72 1056 7 7 (3725568)
I1222 20:50:59.358944 14696 layer_factory.hpp:74] Creating layer inception_4e/output_inception_4e/output_0_split
I1222 20:50:59.358949 14696 net.cpp:96] Creating Layer inception_4e/output_inception_4e/output_0_split
I1222 20:50:59.358953 14696 net.cpp:459] inception_4e/output_inception_4e/output_0_split <- inception_4e/output
I1222 20:50:59.358958 14696 net.cpp:415] inception_4e/output_inception_4e/output_0_split -> inception_4e/output_inception_4e/output_0_split_0
I1222 20:50:59.358963 14696 net.cpp:415] inception_4e/output_inception_4e/output_0_split -> inception_4e/output_inception_4e/output_0_split_1
I1222 20:50:59.358968 14696 net.cpp:415] inception_4e/output_inception_4e/output_0_split -> inception_4e/output_inception_4e/output_0_split_2
I1222 20:50:59.358971 14696 net.cpp:415] inception_4e/output_inception_4e/output_0_split -> inception_4e/output_inception_4e/output_0_split_3
I1222 20:50:59.358975 14696 net.cpp:160] Setting up inception_4e/output_inception_4e/output_0_split
I1222 20:50:59.358980 14696 net.cpp:167] Top shape: 72 1056 7 7 (3725568)
I1222 20:50:59.358983 14696 net.cpp:167] Top shape: 72 1056 7 7 (3725568)
I1222 20:50:59.358986 14696 net.cpp:167] Top shape: 72 1056 7 7 (3725568)
I1222 20:50:59.358989 14696 net.cpp:167] Top shape: 72 1056 7 7 (3725568)
I1222 20:50:59.358992 14696 layer_factory.hpp:74] Creating layer inception_5a/1x1
I1222 20:50:59.358997 14696 net.cpp:96] Creating Layer inception_5a/1x1
I1222 20:50:59.359000 14696 net.cpp:459] inception_5a/1x1 <- inception_4e/output_inception_4e/output_0_split_0
I1222 20:50:59.359005 14696 net.cpp:415] inception_5a/1x1 -> inception_5a/1x1
I1222 20:50:59.359010 14696 net.cpp:160] Setting up inception_5a/1x1
I1222 20:50:59.360610 14696 net.cpp:167] Top shape: 72 352 7 7 (1241856)
I1222 20:50:59.360617 14696 layer_factory.hpp:74] Creating layer inception_5a/1x1_bn
I1222 20:50:59.360620 14696 layer_factory.cpp:177] Layer inception_5a/1x1_bn is using CAFFE engine.
I1222 20:50:59.360626 14696 net.cpp:96] Creating Layer inception_5a/1x1_bn
I1222 20:50:59.360630 14696 net.cpp:459] inception_5a/1x1_bn <- inception_5a/1x1
I1222 20:50:59.360635 14696 net.cpp:415] inception_5a/1x1_bn -> inception_5a/1x1_bn
I1222 20:50:59.360640 14696 net.cpp:160] Setting up inception_5a/1x1_bn
I1222 20:50:59.360651 14696 net.cpp:167] Top shape: 72 352 7 7 (1241856)
I1222 20:50:59.360657 14696 layer_factory.hpp:74] Creating layer inception_5a/relu_1x1
I1222 20:50:59.360661 14696 net.cpp:96] Creating Layer inception_5a/relu_1x1
I1222 20:50:59.360664 14696 net.cpp:459] inception_5a/relu_1x1 <- inception_5a/1x1_bn
I1222 20:50:59.360669 14696 net.cpp:404] inception_5a/relu_1x1 -> inception_5a/1x1_bn (in-place)
I1222 20:50:59.360673 14696 net.cpp:160] Setting up inception_5a/relu_1x1
I1222 20:50:59.360677 14696 net.cpp:167] Top shape: 72 352 7 7 (1241856)
I1222 20:50:59.360679 14696 layer_factory.hpp:74] Creating layer inception_5a/3x3_reduce
I1222 20:50:59.360684 14696 net.cpp:96] Creating Layer inception_5a/3x3_reduce
I1222 20:50:59.360687 14696 net.cpp:459] inception_5a/3x3_reduce <- inception_4e/output_inception_4e/output_0_split_1
I1222 20:50:59.360694 14696 net.cpp:415] inception_5a/3x3_reduce -> inception_5a/3x3_reduce
I1222 20:50:59.360702 14696 net.cpp:160] Setting up inception_5a/3x3_reduce
I1222 20:50:59.361582 14696 net.cpp:167] Top shape: 72 192 7 7 (677376)
I1222 20:50:59.361588 14696 layer_factory.hpp:74] Creating layer inception_5a/3x3_reduce_bn
I1222 20:50:59.361591 14696 layer_factory.cpp:177] Layer inception_5a/3x3_reduce_bn is using CAFFE engine.
I1222 20:50:59.361598 14696 net.cpp:96] Creating Layer inception_5a/3x3_reduce_bn
I1222 20:50:59.361600 14696 net.cpp:459] inception_5a/3x3_reduce_bn <- inception_5a/3x3_reduce
I1222 20:50:59.361604 14696 net.cpp:415] inception_5a/3x3_reduce_bn -> inception_5a/3x3_reduce_bn
I1222 20:50:59.361609 14696 net.cpp:160] Setting up inception_5a/3x3_reduce_bn
I1222 20:50:59.361619 14696 net.cpp:167] Top shape: 72 192 7 7 (677376)
I1222 20:50:59.361625 14696 layer_factory.hpp:74] Creating layer inception_5a/relu_3x3_reduce
I1222 20:50:59.361630 14696 net.cpp:96] Creating Layer inception_5a/relu_3x3_reduce
I1222 20:50:59.361634 14696 net.cpp:459] inception_5a/relu_3x3_reduce <- inception_5a/3x3_reduce_bn
I1222 20:50:59.361637 14696 net.cpp:404] inception_5a/relu_3x3_reduce -> inception_5a/3x3_reduce_bn (in-place)
I1222 20:50:59.361640 14696 net.cpp:160] Setting up inception_5a/relu_3x3_reduce
I1222 20:50:59.361644 14696 net.cpp:167] Top shape: 72 192 7 7 (677376)
I1222 20:50:59.361647 14696 layer_factory.hpp:74] Creating layer inception_5a/3x3
I1222 20:50:59.361652 14696 net.cpp:96] Creating Layer inception_5a/3x3
I1222 20:50:59.361655 14696 net.cpp:459] inception_5a/3x3 <- inception_5a/3x3_reduce_bn
I1222 20:50:59.361660 14696 net.cpp:415] inception_5a/3x3 -> inception_5a/3x3
I1222 20:50:59.361665 14696 net.cpp:160] Setting up inception_5a/3x3
I1222 20:50:59.364441 14696 net.cpp:167] Top shape: 72 320 7 7 (1128960)
I1222 20:50:59.364455 14696 layer_factory.hpp:74] Creating layer inception_5a/3x3_bn
I1222 20:50:59.364462 14696 layer_factory.cpp:177] Layer inception_5a/3x3_bn is using CAFFE engine.
I1222 20:50:59.364472 14696 net.cpp:96] Creating Layer inception_5a/3x3_bn
I1222 20:50:59.364478 14696 net.cpp:459] inception_5a/3x3_bn <- inception_5a/3x3
I1222 20:50:59.364487 14696 net.cpp:415] inception_5a/3x3_bn -> inception_5a/3x3_bn
I1222 20:50:59.364496 14696 net.cpp:160] Setting up inception_5a/3x3_bn
I1222 20:50:59.364512 14696 net.cpp:167] Top shape: 72 320 7 7 (1128960)
I1222 20:50:59.364518 14696 layer_factory.hpp:74] Creating layer inception_5a/relu_3x3
I1222 20:50:59.364523 14696 net.cpp:96] Creating Layer inception_5a/relu_3x3
I1222 20:50:59.364526 14696 net.cpp:459] inception_5a/relu_3x3 <- inception_5a/3x3_bn
I1222 20:50:59.364531 14696 net.cpp:404] inception_5a/relu_3x3 -> inception_5a/3x3_bn (in-place)
I1222 20:50:59.364534 14696 net.cpp:160] Setting up inception_5a/relu_3x3
I1222 20:50:59.364538 14696 net.cpp:167] Top shape: 72 320 7 7 (1128960)
I1222 20:50:59.364542 14696 layer_factory.hpp:74] Creating layer inception_5a/double_3x3_reduce
I1222 20:50:59.364547 14696 net.cpp:96] Creating Layer inception_5a/double_3x3_reduce
I1222 20:50:59.364550 14696 net.cpp:459] inception_5a/double_3x3_reduce <- inception_4e/output_inception_4e/output_0_split_2
I1222 20:50:59.364554 14696 net.cpp:415] inception_5a/double_3x3_reduce -> inception_5a/double_3x3_reduce
I1222 20:50:59.364559 14696 net.cpp:160] Setting up inception_5a/double_3x3_reduce
I1222 20:50:59.365772 14696 net.cpp:167] Top shape: 72 160 7 7 (564480)
I1222 20:50:59.365784 14696 layer_factory.hpp:74] Creating layer inception_5a/double_3x3_reduce_bn
I1222 20:50:59.365792 14696 layer_factory.cpp:177] Layer inception_5a/double_3x3_reduce_bn is using CAFFE engine.
I1222 20:50:59.365802 14696 net.cpp:96] Creating Layer inception_5a/double_3x3_reduce_bn
…
I1222 20:50:59.801965 14696 net.cpp:459] inception_4d/double_3x3_reduce <- inception_4c/output_inception_4c/output_0_split_2
I1222 20:50:59.801971 14696 net.cpp:415] inception_4d/double_3x3_reduce -> inception_4d/double_3x3_reduce
I1222 20:50:59.801975 14696 net.cpp:160] Setting up inception_4d/double_3x3_reduce
I1222 20:50:59.802393 14696 net.cpp:167] Top shape: 3 160 14 14 (94080)
I1222 20:50:59.802399 14696 layer_factory.hpp:74] Creating layer inception_4d/double_3x3_reduce_bn
I1222 20:50:59.802402 14696 layer_factory.cpp:177] Layer inception_4d/double_3x3_reduce_bn is using CAFFE engine.
I1222 20:50:59.802407 14696 net.cpp:96] Creating Layer inception_4d/double_3x3_reduce_bn
I1222 20:50:59.802410 14696 net.cpp:459] inception_4d/double_3x3_reduce_bn <- inception_4d/double_3x3_reduce
I1222 20:50:59.802415 14696 net.cpp:415] inception_4d/double_3x3_reduce_bn -> inception_4d/double_3x3_reduce_bn
I1222 20:50:59.802420 14696 net.cpp:160] Setting up inception_4d/double_3x3_reduce_bn
I1222 20:50:59.802430 14696 net.cpp:167] Top shape: 3 160 14 14 (94080)
I1222 20:50:59.802435 14696 layer_factory.hpp:74] Creating layer inception_4d/relu_double_3x3_reduce
I1222 20:50:59.802439 14696 net.cpp:96] Creating Layer inception_4d/relu_double_3x3_reduce
I1222 20:50:59.802443 14696 net.cpp:459] inception_4d/relu_double_3x3_reduce <- inception_4d/double_3x3_reduce_bn
I1222 20:50:59.802448 14696 net.cpp:404] inception_4d/relu_double_3x3_reduce -> inception_4d/double_3x3_reduce_bn (in-place)
I1222 20:50:59.802451 14696 net.cpp:160] Setting up inception_4d/relu_double_3x3_reduce
I1222 20:50:59.802454 14696 net.cpp:167] Top shape: 3 160 14 14 (94080)
I1222 20:50:59.802458 14696 layer_factory.hpp:74] Creating layer inception_4d/double_3x3_1
I1222 20:50:59.802461 14696 net.cpp:96] Creating Layer inception_4d/double_3x3_1
I1222 20:50:59.802464 14696 net.cpp:459] inception_4d/double_3x3_1 <- inception_4d/double_3x3_reduce_bn
I1222 20:50:59.802469 14696 net.cpp:415] inception_4d/double_3x3_1 -> inception_4d/double_3x3_1
I1222 20:50:59.802474 14696 net.cpp:160] Setting up inception_4d/double_3x3_1
I1222 20:50:59.804026 14696 net.cpp:167] Top shape: 3 192 14 14 (112896)
I1222 20:50:59.804036 14696 layer_factory.hpp:74] Creating layer inception_4d/double_3x3_1_bn
I1222 20:50:59.804040 14696 layer_factory.cpp:177] Layer inception_4d/double_3x3_1_bn is using CAFFE engine.
I1222 20:50:59.804046 14696 net.cpp:96] Creating Layer inception_4d/double_3x3_1_bn
I1222 20:50:59.804049 14696 net.cpp:459] inception_4d/double_3x3_1_bn <- inception_4d/double_3x3_1
I1222 20:50:59.804054 14696 net.cpp:415] inception_4d/double_3x3_1_bn -> inception_4d/double_3x3_1_bn
I1222 20:50:59.804060 14696 net.cpp:160] Setting up inception_4d/double_3x3_1_bn
I1222 20:50:59.804071 14696 net.cpp:167] Top shape: 3 192 14 14 (112896)
I1222 20:50:59.804077 14696 layer_factory.hpp:74] Creating layer inception_4d/relu_double_3x3_1
I1222 20:50:59.804082 14696 net.cpp:96] Creating Layer inception_4d/relu_double_3x3_1
I1222 20:50:59.804085 14696 net.cpp:459] inception_4d/relu_double_3x3_1 <- inception_4d/double_3x3_1_bn
I1222 20:50:59.804090 14696 net.cpp:404] inception_4d/relu_double_3x3_1 -> inception_4d/double_3x3_1_bn (in-place)
I1222 20:50:59.804093 14696 net.cpp:160] Setting up inception_4d/relu_double_3x3_1
I1222 20:50:59.804097 14696 net.cpp:167] Top shape: 3 192 14 14 (112896)
I1222 20:50:59.804100 14696 layer_factory.hpp:74] Creating layer inception_4d/double_3x3_2
I1222 20:50:59.804105 14696 net.cpp:96] Creating Layer inception_4d/double_3x3_2
I1222 20:50:59.804108 14696 net.cpp:459] inception_4d/double_3x3_2 <- inception_4d/double_3x3_1_bn
I1222 20:50:59.804113 14696 net.cpp:415] inception_4d/double_3x3_2 -> inception_4d/double_3x3_2
I1222 20:50:59.804118 14696 net.cpp:160] Setting up inception_4d/double_3x3_2
I1222 20:50:59.805513 14696 net.cpp:167] Top shape: 3 192 14 14 (112896)
I1222 20:50:59.805526 14696 layer_factory.hpp:74] Creating layer inception_4d/double_3x3_2_bn
I1222 20:50:59.805531 14696 layer_factory.cpp:177] Layer inception_4d/double_3x3_2_bn is using CAFFE engine.
I1222 20:50:59.805536 14696 net.cpp:96] Creating Layer inception_4d/double_3x3_2_bn
I1222 20:50:59.805541 14696 net.cpp:459] inception_4d/double_3x3_2_bn <- inception_4d/double_3x3_2
I1222 20:50:59.805546 14696 net.cpp:415] inception_4d/double_3x3_2_bn -> inception_4d/double_3x3_2_bn
I1222 20:50:59.805551 14696 net.cpp:160] Setting up inception_4d/double_3x3_2_bn
I1222 20:50:59.805560 14696 net.cpp:167] Top shape: 3 192 14 14 (112896)
I1222 20:50:59.805565 14696 layer_factory.hpp:74] Creating layer inception_4d/relu_double_3x3_2
I1222 20:50:59.805570 14696 net.cpp:96] Creating Layer inception_4d/relu_double_3x3_2
I1222 20:50:59.805573 14696 net.cpp:459] inception_4d/relu_double_3x3_2 <- inception_4d/double_3x3_2_bn
I1222 20:50:59.805577 14696 net.cpp:404] inception_4d/relu_double_3x3_2 -> inception_4d/double_3x3_2_bn (in-place)
I1222 20:50:59.805582 14696 net.cpp:160] Setting up inception_4d/relu_double_3x3_2
I1222 20:50:59.805584 14696 net.cpp:167] Top shape: 3 192 14 14 (112896)
I1222 20:50:59.805588 14696 layer_factory.hpp:74] Creating layer inception_4d/pool
I1222 20:50:59.805591 14696 net.cpp:96] Creating Layer inception_4d/pool
I1222 20:50:59.805594 14696 net.cpp:459] inception_4d/pool <- inception_4c/output_inception_4c/output_0_split_3
I1222 20:50:59.805599 14696 net.cpp:415] inception_4d/pool -> inception_4d/pool
I1222 20:50:59.805604 14696 net.cpp:160] Setting up inception_4d/pool
I1222 20:50:59.805608 14696 net.cpp:167] Top shape: 3 608 14 14 (357504)
I1222 20:50:59.805611 14696 layer_factory.hpp:74] Creating layer inception_4d/pool_proj
I1222 20:50:59.805616 14696 net.cpp:96] Creating Layer inception_4d/pool_proj
I1222 20:50:59.805619 14696 net.cpp:459] inception_4d/pool_proj <- inception_4d/pool
I1222 20:50:59.805624 14696 net.cpp:415] inception_4d/pool_proj -> inception_4d/pool_proj
I1222 20:50:59.805629 14696 net.cpp:160] Setting up inception_4d/pool_proj
I1222 20:50:59.805971 14696 net.cpp:167] Top shape: 3 128 14 14 (75264)
I1222 20:50:59.805980 14696 layer_factory.hpp:74] Creating layer inception_4d/pool_proj_bn
I1222 20:50:59.805984 14696 layer_factory.cpp:177] Layer inception_4d/pool_proj_bn is using CAFFE engine.
I1222 20:50:59.805989 14696 net.cpp:96] Creating Layer inception_4d/pool_proj_bn
I1222 20:50:59.805992 14696 net.cpp:459] inception_4d/pool_proj_bn <- inception_4d/pool_proj
I1222 20:50:59.805996 14696 net.cpp:415] inception_4d/pool_proj_bn -> inception_4d/pool_proj_bn
I1222 20:50:59.806001 14696 net.cpp:160] Setting up inception_4d/pool_proj_bn
I1222 20:50:59.806011 14696 net.cpp:167] Top shape: 3 128 14 14 (75264)
I1222 20:50:59.806017 14696 layer_factory.hpp:74] Creating layer inception_4d/relu_pool_proj
I1222 20:50:59.806021 14696 net.cpp:96] Creating Layer inception_4d/relu_pool_proj
I1222 20:50:59.806025 14696 net.cpp:459] inception_4d/relu_pool_proj <- inception_4d/pool_proj_bn
I1222 20:50:59.806028 14696 net.cpp:404] inception_4d/relu_pool_proj -> inception_4d/pool_proj_bn (in-place)
I1222 20:50:59.806032 14696 net.cpp:160] Setting up inception_4d/relu_pool_proj
I1222 20:50:59.806036 14696 net.cpp:167] Top shape: 3 128 14 14 (75264)
I1222 20:50:59.806040 14696 layer_factory.hpp:74] Creating layer inception_4d/output
I1222 20:50:59.806043 14696 net.cpp:96] Creating Layer inception_4d/output
I1222 20:50:59.806046 14696 net.cpp:459] inception_4d/output <- inception_4d/1x1_bn
I1222 20:50:59.806051 14696 net.cpp:459] inception_4d/output <- inception_4d/3x3_bn
I1222 20:50:59.806054 14696 net.cpp:459] inception_4d/output <- inception_4d/double_3x3_2_bn
I1222 20:50:59.806057 14696 net.cpp:459] inception_4d/output <- inception_4d/pool_proj_bn
I1222 20:50:59.806061 14696 net.cpp:415] inception_4d/output -> inception_4d/output
I1222 20:50:59.806066 14696 net.cpp:160] Setting up inception_4d/output
I1222 20:50:59.806069 14696 net.cpp:167] Top shape: 3 608 14 14 (357504)
I1222 20:50:59.806076 14696 layer_factory.hpp:74] Creating layer inception_4d/output_inception_4d/output_0_split
I1222 20:50:59.806083 14696 net.cpp:96] Creating Layer inception_4d/output_inception_4d/output_0_split
I1222 20:50:59.806087 14696 net.cpp:459] inception_4d/output_inception_4d/output_0_split <- inception_4d/output
I1222 20:50:59.806092 14696 net.cpp:415] inception_4d/output_inception_4d/output_0_split -> inception_4d/output_inception_4d/output_0_split_0
I1222 20:50:59.806097 14696 net.cpp:415] inception_4d/output_inception_4d/output_0_split -> inception_4d/output_inception_4d/output_0_split_1
I1222 20:50:59.806100 14696 net.cpp:415] inception_4d/output_inception_4d/output_0_split -> inception_4d/output_inception_4d/output_0_split_2
I1222 20:50:59.806104 14696 net.cpp:160] Setting up inception_4d/output_inception_4d/output_0_split
I1222 20:50:59.806110 14696 net.cpp:167] Top shape: 3 608 14 14 (357504)
I1222 20:50:59.806114 14696 net.cpp:167] Top shape: 3 608 14 14 (357504)
I1222 20:50:59.806118 14696 net.cpp:167] Top shape: 3 608 14 14 (357504)
I1222 20:50:59.806120 14696 layer_factory.hpp:74] Creating layer inception_4e/3x3_reduce
I1222 20:50:59.806125 14696 net.cpp:96] Creating Layer inception_4e/3x3_reduce
I1222 20:50:59.806128 14696 net.cpp:459] inception_4e/3x3_reduce <- inception_4d/output_inception_4d/output_0_split_0
I1222 20:50:59.806133 14696 net.cpp:415] inception_4e/3x3_reduce -> inception_4e/3x3_reduce
I1222 20:50:59.806138 14696 net.cpp:160] Setting up inception_4e/3x3_reduce
I1222 20:50:59.806474 14696 net.cpp:167] Top shape: 3 128 14 14 (75264)
I1222 20:50:59.806479 14696 layer_factory.hpp:74] Creating layer inception_4e/3x3_reduce_bn
I1222 20:50:59.806483 14696 layer_factory.cpp:177] Layer inception_4e/3x3_reduce_bn is using CAFFE engine.
I1222 20:50:59.806488 14696 net.cpp:96] Creating Layer inception_4e/3x3_reduce_bn
I1222 20:50:59.806490 14696 net.cpp:459] inception_4e/3x3_reduce_bn <- inception_4e/3x3_reduce
I1222 20:50:59.806495 14696 net.cpp:415] inception_4e/3x3_reduce_bn -> inception_4e/3x3_reduce_bn
I1222 20:50:59.806500 14696 net.cpp:160] Setting up inception_4e/3x3_reduce_bn
I1222 20:50:59.806511 14696 net.cpp:167] Top shape: 3 128 14 14 (75264)
I1222 20:50:59.806516 14696 layer_factory.hpp:74] Creating layer inception_4e/relu_3x3_reduce
I1222 20:50:59.806520 14696 net.cpp:96] Creating Layer inception_4e/relu_3x3_reduce
I1222 20:50:59.806524 14696 net.cpp:459] inception_4e/relu_3x3_reduce <- inception_4e/3x3_reduce_bn
I1222 20:50:59.806527 14696 net.cpp:404] inception_4e/relu_3x3_reduce -> inception_4e/3x3_reduce_bn (in-place)
I1222 20:50:59.806531 14696 net.cpp:160] Setting up inception_4e/relu_3x3_reduce
I1222 20:50:59.806535 14696 net.cpp:167] Top shape: 3 128 14 14 (75264)
I1222 20:50:59.806537 14696 layer_factory.hpp:74] Creating layer inception_4e/3x3
I1222 20:50:59.806543 14696 net.cpp:96] Creating Layer inception_4e/3x3
I1222 20:50:59.806546 14696 net.cpp:459] inception_4e/3x3 <- inception_4e/3x3_reduce_bn
I1222 20:50:59.806550 14696 net.cpp:415] inception_4e/3x3 -> inception_4e/3x3
I1222 20:50:59.806555 14696 net.cpp:160] Setting up inception_4e/3x3
I1222 20:50:59.807965 14696 net.cpp:167] Top shape: 3 192 7 7 (28224)
I1222 20:50:59.807974 14696 layer_factory.hpp:74] Creating layer inception_4e/3x3_bn
I1222 20:50:59.807978 14696 layer_factory.cpp:177] Layer inception_4e/3x3_bn is using CAFFE engine.
I1222 20:50:59.807984 14696 net.cpp:96] Creating Layer inception_4e/3x3_bn
I1222 20:50:59.807988 14696 net.cpp:459] inception_4e/3x3_bn <- inception_4e/3x3
I1222 20:50:59.807994 14696 net.cpp:415] inception_4e/3x3_bn -> inception_4e/3x3_bn
I1222 20:50:59.807999 14696 net.cpp:160] Setting up inception_4e/3x3_bn
I1222 20:50:59.808010 14696 net.cpp:167] Top shape: 3 192 7 7 (28224)
I1222 20:50:59.808017 14696 layer_factory.hpp:74] Creating layer inception_4e/relu_3x3
I1222 20:50:59.808022 14696 net.cpp:96] Creating Layer inception_4e/relu_3x3
I1222 20:50:59.808025 14696 net.cpp:459] inception_4e/relu_3x3 <- inception_4e/3x3_bn
I1222 20:50:59.808029 14696 net.cpp:404] inception_4e/relu_3x3 -> inception_4e/3x3_bn (in-place)
I1222 20:50:59.808039 14696 net.cpp:160] Setting up inception_4e/relu_3x3
I1222 20:50:59.808043 14696 net.cpp:167] Top shape: 3 192 7 7 (28224)
I1222 20:50:59.808046 14696 layer_factory.hpp:74] Creating layer inception_4e/double_3x3_reduce
I1222 20:50:59.808051 14696 net.cpp:96] Creating Layer inception_4e/double_3x3_reduce
I1222 20:50:59.808054 14696 net.cpp:459] inception_4e/double_3x3_reduce <- inception_4d/output_inception_4d/output_0_split_1
I1222 20:50:59.808059 14696 net.cpp:415] inception_4e/double_3x3_reduce -> inception_4e/double_3x3_reduce
I1222 20:50:59.808063 14696 net.cpp:160] Setting up inception_4e/double_3x3_reduce
I1222 20:50:59.808562 14696 net.cpp:167] Top shape: 3 192 14 14 (112896)
I1222 20:50:59.808568 14696 layer_factory.hpp:74] Creating layer inception_4e/double_3x3_reduce_bn
I1222 20:50:59.808571 14696 layer_factory.cpp:177] Layer inception_4e/double_3x3_reduce_bn is using CAFFE engine.
I1222 20:50:59.808576 14696 net.cpp:96] Creating Layer inception_4e/double_3x3_reduce_bn
I1222 20:50:59.808580 14696 net.cpp:459] inception_4e/double_3x3_reduce_bn <- inception_4e/double_3x3_reduce
I1222 20:50:59.808585 14696 net.cpp:415] inception_4e/double_3x3_reduce_bn -> inception_4e/double_3x3_reduce_bn
I1222 20:50:59.808589 14696 net.cpp:160] Setting up inception_4e/double_3x3_reduce_bn
I1222 20:50:59.808600 14696 net.cpp:167] Top shape: 3 192 14 14 (112896)
I1222 20:50:59.808606 14696 layer_factory.hpp:74] Creating layer inception_4e/relu_double_3x3_reduce
I1222 20:50:59.808611 14696 net.cpp:96] Creating Layer inception_4e/relu_double_3x3_reduce
I1222 20:50:59.808614 14696 net.cpp:459] inception_4e/relu_double_3x3_reduce <- inception_4e/double_3x3_reduce_bn
I1222 20:50:59.808619 14696 net.cpp:404] inception_4e/relu_double_3x3_reduce -> inception_4e/double_3x3_reduce_bn (in-place)
I1222 20:50:59.808622 14696 net.cpp:160] Setting up inception_4e/relu_double_3x3_reduce
I1222 20:50:59.808625 14696 net.cpp:167] Top shape: 3 192 14 14 (112896)
I1222 20:50:59.808629 14696 layer_factory.hpp:74] Creating layer inception_4e/double_3x3_1
I1222 20:50:59.808634 14696 net.cpp:96] Creating Layer inception_4e/double_3x3_1
I1222 20:50:59.808637 14696 net.cpp:459] inception_4e/double_3x3_1 <- inception_4e/double_3x3_reduce_bn
I1222 20:50:59.808641 14696 net.cpp:415] inception_4e/double_3x3_1 -> inception_4e/double_3x3_1
I1222 20:50:59.808645 14696 net.cpp:160] Setting up inception_4e/double_3x3_1
I1222 20:50:59.811009 14696 net.cpp:167] Top shape: 3 256 14 14 (150528)
I1222 20:50:59.811020 14696 layer_factory.hpp:74] Creating layer inception_4e/double_3x3_1_bn
I1222 20:50:59.811024 14696 layer_factory.cpp:177] Layer inception_4e/double_3x3_1_bn is using CAFFE engine.
I1222 20:50:59.811029 14696 net.cpp:96] Creating Layer inception_4e/double_3x3_1_bn
I1222 20:50:59.811033 14696 net.cpp:459] inception_4e/double_3x3_1_bn <- inception_4e/double_3x3_1
I1222 20:50:59.811038 14696 net.cpp:415] inception_4e/double_3x3_1_bn -> inception_4e/double_3x3_1_bn
I1222 20:50:59.811044 14696 net.cpp:160] Setting up inception_4e/double_3x3_1_bn
I1222 20:50:59.811056 14696 net.cpp:167] Top shape: 3 256 14 14 (150528)
I1222 20:50:59.811063 14696 layer_factory.hpp:74] Creating layer inception_4e/relu_double_3x3_1
I1222 20:50:59.811067 14696 net.cpp:96] Creating Layer inception_4e/relu_double_3x3_1
I1222 20:50:59.811070 14696 net.cpp:459] inception_4e/relu_double_3x3_1 <- inception_4e/double_3x3_1_bn
I1222 20:50:59.811074 14696 net.cpp:404] inception_4e/relu_double_3x3_1 -> inception_4e/double_3x3_1_bn (in-place)
I1222 20:50:59.811079 14696 net.cpp:160] Setting up inception_4e/relu_double_3x3_1
I1222 20:50:59.811082 14696 net.cpp:167] Top shape: 3 256 14 14 (150528)
I1222 20:50:59.811085 14696 layer_factory.hpp:74] Creating layer inception_4e/double_3x3_2
I1222 20:50:59.811090 14696 net.cpp:96] Creating Layer inception_4e/double_3x3_2
I1222 20:50:59.811094 14696 net.cpp:459] inception_4e/double_3x3_2 <- inception_4e/double_3x3_1_bn
I1222 20:50:59.811098 14696 net.cpp:415] inception_4e/double_3x3_2 -> inception_4e/double_3x3_2
I1222 20:50:59.811106 14696 net.cpp:160] Setting up inception_4e/double_3x3_2
I1222 20:50:59.815039 14696 net.cpp:167] Top shape: 3 256 7 7 (37632)
I1222 20:50:59.815053 14696 layer_factory.hpp:74] Creating layer inception_4e/double_3x3_2_bn
I1222 20:50:59.815057 14696 layer_factory.cpp:177] Layer inception_4e/double_3x3_2_bn is using CAFFE engine.
I1222 20:50:59.815062 14696 net.cpp:96] Creating Layer inception_4e/double_3x3_2_bn
I1222 20:50:59.815066 14696 net.cpp:459] inception_4e/double_3x3_2_bn <- inception_4e/double_3x3_2
I1222 20:50:59.815073 14696 net.cpp:415] inception_4e/double_3x3_2_bn -> inception_4e/double_3x3_2_bn
I1222 20:50:59.815079 14696 net.cpp:160] Setting up inception_4e/double_3x3_2_bn
I1222 20:50:59.815109 14696 net.cpp:167] Top shape: 3 256 7 7 (37632)
I1222 20:50:59.815122 14696 layer_factory.hpp:74] Creating layer inception_4e/relu_double_3x3_2
I1222 20:50:59.815130 14696 net.cpp:96] Creating Layer inception_4e/relu_double_3x3_2
I1222 20:50:59.815136 14696 net.cpp:459] inception_4e/relu_double_3x3_2 <- inception_4e/double_3x3_2_bn
I1222 20:50:59.815145 14696 net.cpp:404] inception_4e/relu_double_3x3_2 -> inception_4e/double_3x3_2_bn (in-place)
I1222 20:50:59.815151 14696 net.cpp:160] Setting up inception_4e/relu_double_3x3_2
I1222 20:50:59.815157 14696 net.cpp:167] Top shape: 3 256 7 7 (37632)
I1222 20:50:59.815162 14696 layer_factory.hpp:74] Creating layer inception_4e/pool
I1222 20:50:59.815171 14696 net.cpp:96] Creating Layer inception_4e/pool
I1222 20:50:59.815176 14696 net.cpp:459] inception_4e/pool <- inception_4d/output_inception_4d/output_0_split_2
I1222 20:50:59.815183 14696 net.cpp:415] inception_4e/pool -> inception_4e/pool
I1222 20:50:59.815191 14696 net.cpp:160] Setting up inception_4e/pool
I1222 20:50:59.815201 14696 net.cpp:167] Top shape: 3 608 7 7 (89376)
I1222 20:50:59.815207 14696 layer_factory.hpp:74] Creating layer inception_4e/output
I1222 20:50:59.815213 14696 net.cpp:96] Creating Layer inception_4e/output
I1222 20:50:59.815218 14696 net.cpp:459] inception_4e/output <- inception_4e/3x3_bn
I1222 20:50:59.815224 14696 net.cpp:459] inception_4e/output <- inception_4e/double_3x3_2_bn
I1222 20:50:59.815230 14696 net.cpp:459] inception_4e/output <- inception_4e/pool
I1222 20:50:59.815237 14696 net.cpp:415] inception_4e/output -> inception_4e/output
I1222 20:50:59.815244 14696 net.cpp:160] Setting up inception_4e/output
I1222 20:50:59.815251 14696 net.cpp:167] Top shape: 3 1056 7 7 (155232)
I1222 20:50:59.815256 14696 layer_factory.hpp:74] Creating layer inception_4e/output_inception_4e/output_0_split
I1222 20:50:59.815265 14696 net.cpp:96] Creating Layer inception_4e/output_inception_4e/output_0_split
I1222 20:50:59.815270 14696 net.cpp:459] inception_4e/output_inception_4e/output_0_split <- inception_4e/output
I1222 20:50:59.815277 14696 net.cpp:415] inception_4e/output_inception_4e/output_0_split -> inception_4e/output_inception_4e/output_0_split_0
I1222 20:50:59.815285 14696 net.cpp:415] inception_4e/output_inception_4e/output_0_split -> inception_4e/output_inception_4e/output_0_split_1
I1222 20:50:59.815294 14696 net.cpp:415] inception_4e/output_inception_4e/output_0_split -> inception_4e/output_inception_4e/output_0_split_2
I1222 20:50:59.815302 14696 net.cpp:415] inception_4e/output_inception_4e/output_0_split -> inception_4e/output_inception_4e/output_0_split_3
I1222 20:50:59.815310 14696 net.cpp:160] Setting up inception_4e/output_inception_4e/output_0_split
I1222 20:50:59.815318 14696 net.cpp:167] Top shape: 3 1056 7 7 (155232)
I1222 20:50:59.815325 14696 net.cpp:167] Top shape: 3 1056 7 7 (155232)
I1222 20:50:59.815330 14696 net.cpp:167] Top shape: 3 1056 7 7 (155232)
I1222 20:50:59.815335 14696 net.cpp:167] Top shape: 3 1056 7 7 (155232)
I1222 20:50:59.815338 14696 layer_factory.hpp:74] Creating layer inception_5a/1x1
I1222 20:50:59.815343 14696 net.cpp:96] Creating Layer inception_5a/1x1
I1222 20:50:59.815347 14696 net.cpp:459] inception_5a/1x1 <- inception_4e/output_inception_4e/output_0_split_0
I1222 20:50:59.815353 14696 net.cpp:415] inception_5a/1x1 -> inception_5a/1x1
I1222 20:50:59.815366 14696 net.cpp:160] Setting up inception_5a/1x1
I1222 20:50:59.817332 14696 net.cpp:167] Top shape: 3 352 7 7 (51744)
I1222 20:50:59.817342 14696 layer_factory.hpp:74] Creating layer inception_5a/1x1_bn
I1222 20:50:59.817347 14696 layer_factory.cpp:177] Layer inception_5a/1x1_bn is using CAFFE engine.
I1222 20:50:59.817353 14696 net.cpp:96] Creating Layer inception_5a/1x1_bn
I1222 20:50:59.817356 14696 net.cpp:459] inception_5a/1x1_bn <- inception_5a/1x1
I1222 20:50:59.817361 14696 net.cpp:415] inception_5a/1x1_bn -> inception_5a/1x1_bn
I1222 20:50:59.817368 14696 net.cpp:160] Setting up inception_5a/1x1_bn
I1222 20:50:59.817379 14696 net.cpp:167] Top shape: 3 352 7 7 (51744)
I1222 20:50:59.817385 14696 layer_factory.hpp:74] Creating layer inception_5a/relu_1x1
I1222 20:50:59.817390 14696 net.cpp:96] Creating Layer inception_5a/relu_1x1
I1222 20:50:59.817394 14696 net.cpp:459] inception_5a/relu_1x1 <- inception_5a/1x1_bn
I1222 20:50:59.817397 14696 net.cpp:404] inception_5a/relu_1x1 -> inception_5a/1x1_bn (in-place)
I1222 20:50:59.817401 14696 net.cpp:160] Setting up inception_5a/relu_1x1
I1222 20:50:59.817404 14696 net.cpp:167] Top shape: 3 352 7 7 (51744)
I1222 20:50:59.817407 14696 layer_factory.hpp:74] Creating layer inception_5a/3x3_reduce
I1222 20:50:59.817414 14696 net.cpp:96] Creating Layer inception_5a/3x3_reduce
I1222 20:50:59.817416 14696 net.cpp:459] inception_5a/3x3_reduce <- inception_4e/output_inception_4e/output_0_split_1
I1222 20:50:59.817421 14696 net.cpp:415] inception_5a/3x3_reduce -> inception_5a/3x3_reduce
I1222 20:50:59.817426 14696 net.cpp:160] Setting up inception_5a/3x3_reduce
I1222 20:50:59.818294 14696 net.cpp:167] Top shape: 3 192 7 7 (28224)
I1222 20:50:59.818302 14696 layer_factory.hpp:74] Creating layer inception_5a/3x3_reduce_bn
I1222 20:50:59.818305 14696 layer_factory.cpp:177] Layer inception_5a/3x3_reduce_bn is using CAFFE engine.
I1222 20:50:59.818311 14696 net.cpp:96] Creating Layer inception_5a/3x3_reduce_bn
I1222 20:50:59.818315 14696 net.cpp:459] inception_5a/3x3_reduce_bn <- inception_5a/3x3_reduce
I1222 20:50:59.818320 14696 net.cpp:415] inception_5a/3x3_reduce_bn -> inception_5a/3x3_reduce_bn
I1222 20:50:59.818325 14696 net.cpp:160] Setting up inception_5a/3x3_reduce_bn
I1222 20:50:59.818336 14696 net.cpp:167] Top shape: 3 192 7 7 (28224)
I1222 20:50:59.818341 14696 layer_factory.hpp:74] Creating layer inception_5a/relu_3x3_reduce
I1222 20:50:59.818346 14696 net.cpp:96] Creating Layer inception_5a/relu_3x3_reduce
I1222 20:50:59.818349 14696 net.cpp:459] inception_5a/relu_3x3_reduce <- inception_5a/3x3_reduce_bn
I1222 20:50:59.818353 14696 net.cpp:404] inception_5a/relu_3x3_reduce -> inception_5a/3x3_reduce_bn (in-place)
I1222 20:50:59.818357 14696 net.cpp:160] Setting up inception_5a/relu_3x3_reduce
I1222 20:50:59.818361 14696 net.cpp:167] Top shape: 3 192 7 7 (28224)
I1222 20:50:59.818363 14696 layer_factory.hpp:74] Creating layer inception_5a/3x3
I1222 20:50:59.818369 14696 net.cpp:96] Creating Layer inception_5a/3x3
I1222 20:50:59.818372 14696 net.cpp:459] inception_5a/3x3 <- inception_5a/3x3_reduce_bn
I1222 20:50:59.818377 14696 net.cpp:415] inception_5a/3x3 -> inception_5a/3x3
I1222 20:50:59.818382 14696 net.cpp:160] Setting up inception_5a/3x3
I1222 20:50:59.820694 14696 net.cpp:167] Top shape: 3 320 7 7 (47040)
I1222 20:50:59.820700 14696 layer_factory.hpp:74] Creating layer inception_5a/3x3_bn
I1222 20:50:59.820703 14696 layer_factory.cpp:177] Layer inception_5a/3x3_bn is using CAFFE engine.
I1222 20:50:59.820708 14696 net.cpp:96] Creating Layer inception_5a/3x3_bn
I1222 20:50:59.820711 14696 net.cpp:459] inception_5a/3x3_bn <- inception_5a/3x3
I1222 20:50:59.820716 14696 net.cpp:415] inception_5a/3x3_bn -> inception_5a/3x3_bn
I1222 20:50:59.820721 14696 net.cpp:160] Setting up inception_5a/3x3_bn
I1222 20:50:59.820732 14696 net.cpp:167] Top shape: 3 320 7 7 (47040)
I1222 20:50:59.820737 14696 layer_factory.hpp:74] Creating layer inception_5a/relu_3x3
I1222 20:50:59.820741 14696 net.cpp:96] Creating Layer inception_5a/relu_3x3
I1222 20:50:59.820749 14696 net.cpp:459] inception_5a/relu_3x3 <- inception_5a/3x3_bn
I1222 20:50:59.820757 14696 net.cpp:404] inception_5a/relu_3x3 -> inception_5a/3x3_bn (in-place)
I1222 20:50:59.820762 14696 net.cpp:160] Setting up inception_5a/relu_3x3
I1222 20:50:59.820766 14696 net.cpp:167] Top shape: 3 320 7 7 (47040)
I1222 20:50:59.820768 14696 layer_factory.hpp:74] Creating layer inception_5a/double_3x3_reduce
I1222 20:50:59.820773 14696 net.cpp:96] Creating Layer inception_5a/double_3x3_reduce
I1222 20:50:59.820776 14696 net.cpp:459] inception_5a/double_3x3_reduce <- inception_4e/output_inception_4e/output_0_split_2
I1222 20:50:59.820781 14696 net.cpp:415] inception_5a/double_3x3_reduce -> inception_5a/double_3x3_reduce
I1222 20:50:59.820786 14696 net.cpp:160] Setting up inception_5a/double_3x3_reduce
I1222 20:50:59.821889 14696 net.cpp:167] Top shape: 3 160 7 7 (23520)
I1222 20:50:59.821899 14696 layer_factory.hpp:74] Creating layer inception_5a/double_3x3_reduce_bn
I1222 20:50:59.821903 14696 layer_factory.cpp:177] Layer inception_5a/double_3x3_reduce_bn is using CAFFE engine.
I1222 20:50:59.821908 14696 net.cpp:96] Creating Layer inception_5a/double_3x3_reduce_bn
I1222 20:50:59.821912 14696 net.cpp:459] inception_5a/double_3x3_reduce_bn <- inception_5a/double_3x3_reduce
I1222 20:50:59.821918 14696 net.cpp:415] inception_5a/double_3x3_reduce_bn -> inception_5a/double_3x3_reduce_bn
I1222 20:50:59.821923 14696 net.cpp:160] Setting up inception_5a/double_3x3_reduce_bn
I1222 20:50:59.821934 14696 net.cpp:167] Top shape: 3 160 7 7 (23520)
I1222 20:50:59.821943 14696 layer_factory.hpp:74] Creating layer inception_5a/relu_double_3x3_reduce
I1222 20:50:59.821949 14696 net.cpp:96] Creating Layer inception_5a/relu_double_3x3_reduce
I1222 20:50:59.821956 14696 net.cpp:459] inception_5a/relu_double_3x3_reduce <- inception_5a/double_3x3_reduce_bn
I1222 20:50:59.821964 14696 net.cpp:404] inception_5a/relu_double_3x3_reduce -> inception_5a/double_3x3_reduce_bn (in-place)
I1222 20:50:59.821971 14696 net.cpp:160] Setting up inception_5a/relu_double_3x3_reduce
I1222 20:50:59.821979 14696 net.cpp:167] Top shape: 3 160 7 7 (23520)
I1222 20:50:59.821983 14696 layer_factory.hpp:74] Creating layer inception_5a/double_3x3_1
I1222 20:50:59.821995 14696 net.cpp:96] Creating Layer inception_5a/double_3x3_1
I1222 20:50:59.822000 14696 net.cpp:459] inception_5a/double_3x3_1 <- inception_5a/double_3x3_reduce_bn
I1222 20:50:59.822007 14696 net.cpp:415] inception_5a/double_3x3_1 -> inception_5a/double_3x3_1
I1222 20:50:59.822016 14696 net.cpp:160] Setting up inception_5a/double_3x3_1
I1222 20:50:59.824344 14696 net.cpp:167] Top shape: 3 224 7 7 (32928)
I1222 20:50:59.824358 14696 layer_factory.hpp:74] Creating layer inception_5a/double_3x3_1_bn
I1222 20:50:59.824364 14696 layer_factory.cpp:177] Layer inception_5a/double_3x3_1_bn is using CAFFE engine.
I1222 20:50:59.824374 14696 net.cpp:96] Creating Layer inception_5a/double_3x3_1_bn
I1222 20:50:59.824380 14696 net.cpp:459] inception_5a/double_3x3_1_bn <- inception_5a/double_3x3_1
I1222 20:50:59.824389 14696 net.cpp:415] inception_5a/double_3x3_1_bn -> inception_5a/double_3x3_1_bn
I1222 20:50:59.824398 14696 net.cpp:160] Setting up inception_5a/double_3x3_1_bn
I1222 20:50:59.824416 14696 net.cpp:167] Top shape: 3 224 7 7 (32928)
I1222 20:50:59.824426 14696 layer_factory.hpp:74] Creating layer inception_5a/relu_double_3x3_1
I1222 20:50:59.824434 14696 net.cpp:96] Creating Layer inception_5a/relu_double_3x3_1
I1222 20:50:59.824440 14696 net.cpp:459] inception_5a/relu_double_3x3_1 <- inception_5a/double_3x3_1_bn
I1222 20:50:59.824447 14696 net.cpp:404] inception_5a/relu_double_3x3_1 -> inception_5a/double_3x3_1_bn (in-place)
I1222 20:50:59.824452 14696 net.cpp:160] Setting up inception_5a/relu_double_3x3_1
I1222 20:50:59.824456 14696 net.cpp:167] Top shape: 3 224 7 7 (32928)
I1222 20:50:59.824460 14696 layer_factory.hpp:74] Creating layer inception_5a/double_3x3_2
I1222 20:50:59.824465 14696 net.cpp:96] Creating Layer inception_5a/double_3x3_2
I1222 20:50:59.824467 14696 net.cpp:459] inception_5a/double_3x3_2 <- inception_5a/double_3x3_1_bn
I1222 20:50:59.824481 14696 net.cpp:415] inception_5a/double_3x3_2 -> inception_5a/double_3x3_2
I1222 20:50:59.824486 14696 net.cpp:160] Setting up inception_5a/double_3x3_2
I1222 20:50:59.827620 14696 net.cpp:167] Top shape: 3 224 7 7 (32928)
I1222 20:50:59.827635 14696 layer_factory.hpp:74] Creating layer inception_5a/double_3x3_2_bn
I1222 20:50:59.827641 14696 layer_factory.cpp:177] Layer inception_5a/double_3x3_2_bn is using CAFFE engine.
I1222 20:50:59.827651 14696 net.cpp:96] Creating Layer inception_5a/double_3x3_2_bn
I1222 20:50:59.827656 14696 net.cpp:459] inception_5a/double_3x3_2_bn <- inception_5a/double_3x3_2
I1222 20:50:59.827666 14696 net.cpp:415] inception_5a/double_3x3_2_bn -> inception_5a/double_3x3_2_bn
I1222 20:50:59.827674 14696 net.cpp:160] Setting up inception_5a/double_3x3_2_bn
I1222 20:50:59.827694 14696 net.cpp:167] Top shape: 3 224 7 7 (32928)
I1222 20:50:59.827704 14696 layer_factory.hpp:74] Creating layer inception_5a/relu_double_3x3_2
I1222 20:50:59.827711 14696 net.cpp:96] Creating Layer inception_5a/relu_double_3x3_2
I1222 20:50:59.827716 14696 net.cpp:459] inception_5a/relu_double_3x3_2 <- inception_5a/double_3x3_2_bn
I1222 20:50:59.827723 14696 net.cpp:404] inception_5a/relu_double_3x3_2 -> inception_5a/double_3x3_2_bn (in-place)
I1222 20:50:59.827730 14696 net.cpp:160] Setting up inception_5a/relu_double_3x3_2
I1222 20:50:59.827738 14696 net.cpp:167] Top shape: 3 224 7 7 (32928)
I1222 20:50:59.827741 14696 layer_factory.hpp:74] Creating layer inception_5a/pool
I1222 20:50:59.827749 14696 net.cpp:96] Creating Layer inception_5a/pool
I1222 20:50:59.827754 14696 net.cpp:459] inception_5a/pool <- inception_4e/output_inception_4e/output_0_split_3
I1222 20:50:59.827762 14696 net.cpp:415] inception_5a/pool -> inception_5a/pool
I1222 20:50:59.827769 14696 net.cpp:160] Setting up inception_5a/pool
I1222 20:50:59.827777 14696 net.cpp:167] Top shape: 3 1056 7 7 (155232)
I1222 20:50:59.827782 14696 layer_factory.hpp:74] Creating layer inception_5a/pool_proj
I1222 20:50:59.827790 14696 net.cpp:96] Creating Layer inception_5a/pool_proj
I1222 20:50:59.827795 14696 net.cpp:459] inception_5a/pool_proj <- inception_5a/pool
I1222 20:50:59.827803 14696 net.cpp:415] inception_5a/pool_proj -> inception_5a/pool_proj
I1222 20:50:59.827811 14696 net.cpp:160] Setting up inception_5a/pool_proj
I1222 20:50:59.828785 14696 net.cpp:167] Top shape: 3 128 7 7 (18816)
I1222 20:50:59.828799 14696 layer_factory.hpp:74] Creating layer inception_5a/pool_proj_bn
I1222 20:50:59.828806 14696 layer_factory.cpp:177] Layer inception_5a/pool_proj_bn is using CAFFE engine.
I1222 20:50:59.828814 14696 net.cpp:96] Creating Layer inception_5a/pool_proj_bn
I1222 20:50:59.828819 14696 net.cpp:459] inception_5a/pool_proj_bn <- inception_5a/pool_proj
I1222 20:50:59.828829 14696 net.cpp:415] inception_5a/pool_proj_bn -> inception_5a/pool_proj_bn
I1222 20:50:59.828837 14696 net.cpp:160] Setting up inception_5a/pool_proj_bn
I1222 20:50:59.828855 14696 net.cpp:167] Top shape: 3 128 7 7 (18816)
I1222 20:50:59.828866 14696 layer_factory.hpp:74] Creating layer inception_5a/relu_pool_proj
I1222 20:50:59.828872 14696 net.cpp:96] Creating Layer inception_5a/relu_pool_proj
I1222 20:50:59.828878 14696 net.cpp:459] inception_5a/relu_pool_proj <- inception_5a/pool_proj_bn
I1222 20:50:59.828884 14696 net.cpp:404] inception_5a/relu_pool_proj -> inception_5a/pool_proj_bn (in-place)
I1222 20:50:59.828891 14696 net.cpp:160] Setting up inception_5a/relu_pool_proj
I1222 20:50:59.828897 14696 net.cpp:167] Top shape: 3 128 7 7 (18816)
I1222 20:50:59.828902 14696 layer_factory.hpp:74] Creating layer inception_5a/output
I1222 20:50:59.828909 14696 net.cpp:96] Creating Layer inception_5a/output
I1222 20:50:59.828914 14696 net.cpp:459] inception_5a/output <- inception_5a/1x1_bn
I1222 20:50:59.828920 14696 net.cpp:459] inception_5a/output <- inception_5a/3x3_bn
I1222 20:50:59.828925 14696 net.cpp:459] inception_5a/output <- inception_5a/double_3x3_2_bn
I1222 20:50:59.828932 14696 net.cpp:459] inception_5a/output <- inception_5a/pool_proj_bn
I1222 20:50:59.828946 14696 net.cpp:415] inception_5a/output -> inception_5a/output
I1222 20:50:59.828954 14696 net.cpp:160] Setting up inception_5a/output
I1222 20:50:59.828963 14696 net.cpp:167] Top shape: 3 1024 7 7 (150528)
I1222 20:50:59.828968 14696 layer_factory.hpp:74] Creating layer inception_5a/output_inception_5a/output_0_split
I1222 20:50:59.828976 14696 net.cpp:96] Creating Layer inception_5a/output_inception_5a/output_0_split
I1222 20:50:59.828982 14696 net.cpp:459] inception_5a/output_inception_5a/output_0_split <- inception_5a/output
I1222 20:50:59.828989 14696 net.cpp:415] inception_5a/output_inception_5a/output_0_split -> inception_5a/output_inception_5a/output_0_split_0
I1222 20:50:59.828996 14696 net.cpp:415] inception_5a/output_inception_5a/output_0_split -> inception_5a/output_inception_5a/output_0_split_1
I1222 20:50:59.829005 14696 net.cpp:415] inception_5a/output_inception_5a/output_0_split -> inception_5a/output_inception_5a/output_0_split_2
I1222 20:50:59.829015 14696 net.cpp:415] inception_5a/output_inception_5a/output_0_split -> inception_5a/output_inception_5a/output_0_split_3
I1222 20:50:59.829021 14696 net.cpp:160] Setting up inception_5a/output_inception_5a/output_0_split
I1222 20:50:59.829030 14696 net.cpp:167] Top shape: 3 1024 7 7 (150528)
I1222 20:50:59.829035 14696 net.cpp:167] Top shape: 3 1024 7 7 (150528)
I1222 20:50:59.829037 14696 net.cpp:167] Top shape: 3 1024 7 7 (150528)
I1222 20:50:59.829041 14696 net.cpp:167] Top shape: 3 1024 7 7 (150528)
I1222 20:50:59.829044 14696 layer_factory.hpp:74] Creating layer inception_5b/1x1
I1222 20:50:59.829049 14696 net.cpp:96] Creating Layer inception_5b/1x1
I1222 20:50:59.829052 14696 net.cpp:459] inception_5b/1x1 <- inception_5a/output_inception_5a/output_0_split_0
I1222 20:50:59.829058 14696 net.cpp:415] inception_5b/1x1 -> inception_5b/1x1
I1222 20:50:59.829064 14696 net.cpp:160] Setting up inception_5b/1x1
I1222 20:50:59.831888 14696 net.cpp:167] Top shape: 3 352 7 7 (51744)
I1222 20:50:59.831903 14696 layer_factory.hpp:74] Creating layer inception_5b/1x1_bn
I1222 20:50:59.831909 14696 layer_factory.cpp:177] Layer inception_5b/1x1_bn is using CAFFE engine.
I1222 20:50:59.831918 14696 net.cpp:96] Creating Layer inception_5b/1x1_bn
I1222 20:50:59.831923 14696 net.cpp:459] inception_5b/1x1_bn <- inception_5b/1x1
I1222 20:50:59.831931 14696 net.cpp:415] inception_5b/1x1_bn -> inception_5b/1x1_bn
I1222 20:50:59.831940 14696 net.cpp:160] Setting up inception_5b/1x1_bn
I1222 20:50:59.831959 14696 net.cpp:167] Top shape: 3 352 7 7 (51744)
I1222 20:50:59.831969 14696 layer_factory.hpp:74] Creating layer inception_5b/relu_1x1
I1222 20:50:59.831975 14696 net.cpp:96] Creating Layer inception_5b/relu_1x1
I1222 20:50:59.831980 14696 net.cpp:459] inception_5b/relu_1x1 <- inception_5b/1x1_bn
I1222 20:50:59.831987 14696 net.cpp:404] inception_5b/relu_1x1 -> inception_5b/1x1_bn (in-place)
I1222 20:50:59.831995 14696 net.cpp:160] Setting up inception_5b/relu_1x1
I1222 20:50:59.832000 14696 net.cpp:167] Top shape: 3 352 7 7 (51744)
I1222 20:50:59.832005 14696 layer_factory.hpp:74] Creating layer inception_5b/3x3_reduce
I1222 20:50:59.832012 14696 net.cpp:96] Creating Layer inception_5b/3x3_reduce
I1222 20:50:59.832017 14696 net.cpp:459] inception_5b/3x3_reduce <- inception_5a/output_inception_5a/output_0_split_1
I1222 20:50:59.832026 14696 net.cpp:415] inception_5b/3x3_reduce -> inception_5b/3x3_reduce
I1222 20:50:59.832033 14696 net.cpp:160] Setting up inception_5b/3x3_reduce
I1222 20:50:59.833571 14696 net.cpp:167] Top shape: 3 192 7 7 (28224)
I1222 20:50:59.833581 14696 layer_factory.hpp:74] Creating layer inception_5b/3x3_reduce_bn
I1222 20:50:59.833586 14696 layer_factory.cpp:177] Layer inception_5b/3x3_reduce_bn is using CAFFE engine.
I1222 20:50:59.833595 14696 net.cpp:96] Creating Layer inception_5b/3x3_reduce_bn
I1222 20:50:59.833600 14696 net.cpp:459] inception_5b/3x3_reduce_bn <- inception_5b/3x3_reduce
I1222 20:50:59.833608 14696 net.cpp:415] inception_5b/3x3_reduce_bn -> inception_5b/3x3_reduce_bn
I1222 20:50:59.833621 14696 net.cpp:160] Setting up inception_5b/3x3_reduce_bn
I1222 20:50:59.833643 14696 net.cpp:167] Top shape: 3 192 7 7 (28224)
I1222 20:50:59.833653 14696 layer_factory.hpp:74] Creating layer inception_5b/relu_3x3_reduce
I1222 20:50:59.833659 14696 net.cpp:96] Creating Layer inception_5b/relu_3x3_reduce
I1222 20:50:59.833664 14696 net.cpp:459] inception_5b/relu_3x3_reduce <- inception_5b/3x3_reduce_bn
I1222 20:50:59.833672 14696 net.cpp:404] inception_5b/relu_3x3_reduce -> inception_5b/3x3_reduce_bn (in-place)
I1222 20:50:59.833678 14696 net.cpp:160] Setting up inception_5b/relu_3x3_reduce
I1222 20:50:59.833684 14696 net.cpp:167] Top shape: 3 192 7 7 (28224)
I1222 20:50:59.833689 14696 layer_factory.hpp:74] Creating layer inception_5b/3x3
I1222 20:50:59.833696 14696 net.cpp:96] Creating Layer inception_5b/3x3
I1222 20:50:59.833700 14696 net.cpp:459] inception_5b/3x3 <- inception_5b/3x3_reduce_bn
I1222 20:50:59.833709 14696 net.cpp:415] inception_5b/3x3 -> inception_5b/3x3
I1222 20:50:59.833715 14696 net.cpp:160] Setting up inception_5b/3x3
I1222 20:50:59.838021 14696 net.cpp:167] Top shape: 3 320 7 7 (47040)
I1222 20:50:59.838033 14696 layer_factory.hpp:74] Creating layer inception_5b/3x3_bn
I1222 20:50:59.838039 14696 layer_factory.cpp:177] Layer inception_5b/3x3_bn is using CAFFE engine.
I1222 20:50:59.838047 14696 net.cpp:96] Creating Layer inception_5b/3x3_bn
I1222 20:50:59.838052 14696 net.cpp:459] inception_5b/3x3_bn <- inception_5b/3x3
I1222 20:50:59.838059 14696 net.cpp:415] inception_5b/3x3_bn -> inception_5b/3x3_bn
I1222 20:50:59.838068 14696 net.cpp:160] Setting up inception_5b/3x3_bn
I1222 20:50:59.838084 14696 net.cpp:167] Top shape: 3 320 7 7 (47040)
I1222 20:50:59.838093 14696 layer_factory.hpp:74] Creating layer inception_5b/relu_3x3
I1222 20:50:59.838099 14696 net.cpp:96] Creating Layer inception_5b/relu_3x3
I1222 20:50:59.838104 14696 net.cpp:459] inception_5b/relu_3x3 <- inception_5b/3x3_bn
I1222 20:50:59.838109 14696 net.cpp:404] inception_5b/relu_3x3 -> inception_5b/3x3_bn (in-place)
I1222 20:50:59.838115 14696 net.cpp:160] Setting up inception_5b/relu_3x3
I1222 20:50:59.838120 14696 net.cpp:167] Top shape: 3 320 7 7 (47040)
I1222 20:50:59.838125 14696 layer_factory.hpp:74] Creating layer inception_5b/double_3x3_reduce
I1222 20:50:59.838132 14696 net.cpp:96] Creating Layer inception_5b/double_3x3_reduce
I1222 20:50:59.838136 14696 net.cpp:459] inception_5b/double_3x3_reduce <- inception_5a/output_inception_5a/output_0_split_2
I1222 20:50:59.838145 14696 net.cpp:415] inception_5b/double_3x3_reduce -> inception_5b/double_3x3_reduce
I1222 20:50:59.838151 14696 net.cpp:160] Setting up inception_5b/double_3x3_reduce
I1222 20:50:59.839686 14696 net.cpp:167] Top shape: 3 192 7 7 (28224)
I1222 20:50:59.839694 14696 layer_factory.hpp:74] Creating layer inception_5b/double_3x3_reduce_bn
I1222 20:50:59.839699 14696 layer_factory.cpp:177] Layer inception_5b/double_3x3_reduce_bn is using CAFFE engine.
I1222 20:50:59.839706 14696 net.cpp:96] Creating Layer inception_5b/double_3x3_reduce_bn
I1222 20:50:59.839711 14696 net.cpp:459] inception_5b/double_3x3_reduce_bn <- inception_5b/double_3x3_reduce
I1222 20:50:59.839718 14696 net.cpp:415] inception_5b/double_3x3_reduce_bn -> inception_5b/double_3x3_reduce_bn
I1222 20:50:59.839725 14696 net.cpp:160] Setting up inception_5b/double_3x3_reduce_bn
I1222 20:50:59.839741 14696 net.cpp:167] Top shape: 3 192 7 7 (28224)
I1222 20:50:59.839750 14696 layer_factory.hpp:74] Creating layer inception_5b/relu_double_3x3_reduce
I1222 20:50:59.839756 14696 net.cpp:96] Creating Layer inception_5b/relu_double_3x3_reduce
I1222 20:50:59.839759 14696 net.cpp:459] inception_5b/relu_double_3x3_reduce <- inception_5b/double_3x3_reduce_bn
I1222 20:50:59.839766 14696 net.cpp:404] inception_5b/relu_double_3x3_reduce -> inception_5b/double_3x3_reduce_bn (in-place)
I1222 20:50:59.839771 14696 net.cpp:160] Setting up inception_5b/relu_double_3x3_reduce
I1222 20:50:59.839776 14696 net.cpp:167] Top shape: 3 192 7 7 (28224)
I1222 20:50:59.839781 14696 layer_factory.hpp:74] Creating layer inception_5b/double_3x3_1
I1222 20:50:59.839792 14696 net.cpp:96] Creating Layer inception_5b/double_3x3_1
I1222 20:50:59.839802 14696 net.cpp:459] inception_5b/double_3x3_1 <- inception_5b/double_3x3_reduce_bn
I1222 20:50:59.839810 14696 net.cpp:415] inception_5b/double_3x3_1 -> inception_5b/double_3x3_1
I1222 20:50:59.839818 14696 net.cpp:160] Setting up inception_5b/double_3x3_1
I1222 20:50:59.842833 14696 net.cpp:167] Top shape: 3 224 7 7 (32928)
I1222 20:50:59.842846 14696 layer_factory.hpp:74] Creating layer inception_5b/double_3x3_1_bn
I1222 20:50:59.842851 14696 layer_factory.cpp:177] Layer inception_5b/double_3x3_1_bn is using CAFFE engine.
I1222 20:50:59.842859 14696 net.cpp:96] Creating Layer inception_5b/double_3x3_1_bn
I1222 20:50:59.842865 14696 net.cpp:459] inception_5b/double_3x3_1_bn <- inception_5b/double_3x3_1
I1222 20:50:59.842872 14696 net.cpp:415] inception_5b/double_3x3_1_bn -> inception_5b/double_3x3_1_bn
I1222 20:50:59.842880 14696 net.cpp:160] Setting up inception_5b/double_3x3_1_bn
I1222 20:50:59.842896 14696 net.cpp:167] Top shape: 3 224 7 7 (32928)
I1222 20:50:59.842905 14696 layer_factory.hpp:74] Creating layer inception_5b/relu_double_3x3_1
I1222 20:50:59.842912 14696 net.cpp:96] Creating Layer inception_5b/relu_double_3x3_1
I1222 20:50:59.842916 14696 net.cpp:459] inception_5b/relu_double_3x3_1 <- inception_5b/double_3x3_1_bn
I1222 20:50:59.842922 14696 net.cpp:404] inception_5b/relu_double_3x3_1 -> inception_5b/double_3x3_1_bn (in-place)
I1222 20:50:59.842927 14696 net.cpp:160] Setting up inception_5b/relu_double_3x3_1
I1222 20:50:59.842933 14696 net.cpp:167] Top shape: 3 224 7 7 (32928)
I1222 20:50:59.842937 14696 layer_factory.hpp:74] Creating layer inception_5b/double_3x3_2
I1222 20:50:59.842944 14696 net.cpp:96] Creating Layer inception_5b/double_3x3_2
I1222 20:50:59.842948 14696 net.cpp:459] inception_5b/double_3x3_2 <- inception_5b/double_3x3_1_bn
I1222 20:50:59.842955 14696 net.cpp:415] inception_5b/double_3x3_2 -> inception_5b/double_3x3_2
I1222 20:50:59.842962 14696 net.cpp:160] Setting up inception_5b/double_3x3_2
I1222 20:50:59.846472 14696 net.cpp:167] Top shape: 3 224 7 7 (32928)
I1222 20:50:59.846488 14696 layer_factory.hpp:74] Creating layer inception_5b/double_3x3_2_bn
I1222 20:50:59.846494 14696 layer_factory.cpp:177] Layer inception_5b/double_3x3_2_bn is using CAFFE engine.
I1222 20:50:59.846503 14696 net.cpp:96] Creating Layer inception_5b/double_3x3_2_bn
I1222 20:50:59.846510 14696 net.cpp:459] inception_5b/double_3x3_2_bn <- inception_5b/double_3x3_2
I1222 20:50:59.846524 14696 net.cpp:415] inception_5b/double_3x3_2_bn -> inception_5b/double_3x3_2_bn
I1222 20:50:59.846535 14696 net.cpp:160] Setting up inception_5b/double_3x3_2_bn
I1222 20:50:59.846556 14696 net.cpp:167] Top shape: 3 224 7 7 (32928)
I1222 20:50:59.846566 14696 layer_factory.hpp:74] Creating layer inception_5b/relu_double_3x3_2
I1222 20:50:59.846575 14696 net.cpp:96] Creating Layer inception_5b/relu_double_3x3_2
I1222 20:50:59.846580 14696 net.cpp:459] inception_5b/relu_double_3x3_2 <- inception_5b/double_3x3_2_bn
I1222 20:50:59.846586 14696 net.cpp:404] inception_5b/relu_double_3x3_2 -> inception_5b/double_3x3_2_bn (in-place)
I1222 20:50:59.846595 14696 net.cpp:160] Setting up inception_5b/relu_double_3x3_2
I1222 20:50:59.846601 14696 net.cpp:167] Top shape: 3 224 7 7 (32928)
I1222 20:50:59.846606 14696 layer_factory.hpp:74] Creating layer inception_5b/pool
I1222 20:50:59.846612 14696 net.cpp:96] Creating Layer inception_5b/pool
I1222 20:50:59.846618 14696 net.cpp:459] inception_5b/pool <- inception_5a/output_inception_5a/output_0_split_3
I1222 20:50:59.846626 14696 net.cpp:415] inception_5b/pool -> inception_5b/pool
I1222 20:50:59.846632 14696 net.cpp:160] Setting up inception_5b/pool
I1222 20:50:59.846642 14696 net.cpp:167] Top shape: 3 1024 7 7 (150528)
I1222 20:50:59.846647 14696 layer_factory.hpp:74] Creating layer inception_5b/pool_proj
I1222 20:50:59.846655 14696 net.cpp:96] Creating Layer inception_5b/pool_proj
I1222 20:50:59.846662 14696 net.cpp:459] inception_5b/pool_proj <- inception_5b/pool
I1222 20:50:59.846674 14696 net.cpp:415] inception_5b/pool_proj -> inception_5b/pool_proj
I1222 20:50:59.846691 14696 net.cpp:160] Setting up inception_5b/pool_proj
I1222 20:50:59.847730 14696 net.cpp:167] Top shape: 3 128 7 7 (18816)
I1222 20:50:59.847743 14696 layer_factory.hpp:74] Creating layer inception_5b/pool_proj_bn
I1222 20:50:59.847749 14696 layer_factory.cpp:177] Layer inception_5b/pool_proj_bn is using CAFFE engine.
I1222 20:50:59.847759 14696 net.cpp:96] Creating Layer inception_5b/pool_proj_bn
I1222 20:50:59.847765 14696 net.cpp:459] inception_5b/pool_proj_bn <- inception_5b/pool_proj
I1222 20:50:59.847774 14696 net.cpp:415] inception_5b/pool_proj_bn -> inception_5b/pool_proj_bn
I1222 20:50:59.847782 14696 net.cpp:160] Setting up inception_5b/pool_proj_bn
I1222 20:50:59.847800 14696 net.cpp:167] Top shape: 3 128 7 7 (18816)
I1222 20:50:59.847810 14696 layer_factory.hpp:74] Creating layer inception_5b/relu_pool_proj
I1222 20:50:59.847816 14696 net.cpp:96] Creating Layer inception_5b/relu_pool_proj
I1222 20:50:59.847821 14696 net.cpp:459] inception_5b/relu_pool_proj <- inception_5b/pool_proj_bn
I1222 20:50:59.847833 14696 net.cpp:404] inception_5b/relu_pool_proj -> inception_5b/pool_proj_bn (in-place)
I1222 20:50:59.847841 14696 net.cpp:160] Setting up inception_5b/relu_pool_proj
I1222 20:50:59.847847 14696 net.cpp:167] Top shape: 3 128 7 7 (18816)
I1222 20:50:59.847852 14696 layer_factory.hpp:74] Creating layer inception_5b/output
I1222 20:50:59.847859 14696 net.cpp:96] Creating Layer inception_5b/output
I1222 20:50:59.847863 14696 net.cpp:459] inception_5b/output <- inception_5b/1x1_bn
I1222 20:50:59.847869 14696 net.cpp:459] inception_5b/output <- inception_5b/3x3_bn
I1222 20:50:59.847874 14696 net.cpp:459] inception_5b/output <- inception_5b/double_3x3_2_bn
I1222 20:50:59.847879 14696 net.cpp:459] inception_5b/output <- inception_5b/pool_proj_bn
I1222 20:50:59.847885 14696 net.cpp:415] inception_5b/output -> inception_5b/output
I1222 20:50:59.847892 14696 net.cpp:160] Setting up inception_5b/output
I1222 20:50:59.847898 14696 net.cpp:167] Top shape: 3 1024 7 7 (150528)
I1222 20:50:59.847903 14696 layer_factory.hpp:74] Creating layer global_pool
I1222 20:50:59.847911 14696 net.cpp:96] Creating Layer global_pool
I1222 20:50:59.847915 14696 net.cpp:459] global_pool <- inception_5b/output
I1222 20:50:59.847923 14696 net.cpp:415] global_pool -> global_pool
I1222 20:50:59.847929 14696 net.cpp:160] Setting up global_pool
I1222 20:50:59.847934 14696 net.cpp:167] Top shape: 3 1024 1 1 (3072)
I1222 20:50:59.847939 14696 layer_factory.hpp:74] Creating layer dropout
I1222 20:50:59.847945 14696 net.cpp:96] Creating Layer dropout
I1222 20:50:59.847950 14696 net.cpp:459] dropout <- global_pool
I1222 20:50:59.847956 14696 net.cpp:404] dropout -> global_pool (in-place)
I1222 20:50:59.847962 14696 net.cpp:160] Setting up dropout
I1222 20:50:59.847970 14696 net.cpp:167] Top shape: 3 1024 1 1 (3072)
I1222 20:50:59.847973 14696 layer_factory.hpp:74] Creating layer fc-action
I1222 20:50:59.847981 14696 net.cpp:96] Creating Layer fc-action
I1222 20:50:59.847985 14696 net.cpp:459] fc-action <- global_pool
I1222 20:50:59.847992 14696 net.cpp:415] fc-action -> fc
I1222 20:50:59.848000 14696 net.cpp:160] Setting up fc-action
I1222 20:50:59.850899 14696 net.cpp:167] Top shape: 3 101 (303)
I1222 20:50:59.850914 14696 layer_factory.hpp:74] Creating layer reshape_fc
I1222 20:50:59.850924 14696 net.cpp:96] Creating Layer reshape_fc
I1222 20:50:59.850929 14696 net.cpp:459] reshape_fc <- fc
I1222 20:50:59.850936 14696 net.cpp:415] reshape_fc -> reshape_fc
I1222 20:50:59.850944 14696 net.cpp:160] Setting up reshape_fc
I1222 20:50:59.850952 14696 net.cpp:167] Top shape: 1 1 3 101 (303)
I1222 20:50:59.850956 14696 layer_factory.hpp:74] Creating layer pool_fusion
I1222 20:50:59.850963 14696 net.cpp:96] Creating Layer pool_fusion
I1222 20:50:59.850968 14696 net.cpp:459] pool_fusion <- reshape_fc
I1222 20:50:59.850975 14696 net.cpp:415] pool_fusion -> pool_fc
I1222 20:50:59.850980 14696 net.cpp:160] Setting up pool_fusion
I1222 20:50:59.850991 14696 net.cpp:167] Top shape: 1 1 1 101 (101)
I1222 20:50:59.851001 14696 layer_factory.hpp:74] Creating layer pool_fc_pool_fusion_0_split
I1222 20:50:59.851006 14696 net.cpp:96] Creating Layer pool_fc_pool_fusion_0_split
I1222 20:50:59.851011 14696 net.cpp:459] pool_fc_pool_fusion_0_split <- pool_fc
I1222 20:50:59.851019 14696 net.cpp:415] pool_fc_pool_fusion_0_split -> pool_fc_pool_fusion_0_split_0
I1222 20:50:59.851027 14696 net.cpp:415] pool_fc_pool_fusion_0_split -> pool_fc_pool_fusion_0_split_1
I1222 20:50:59.851032 14696 net.cpp:160] Setting up pool_fc_pool_fusion_0_split
I1222 20:50:59.851039 14696 net.cpp:167] Top shape: 1 1 1 101 (101)
I1222 20:50:59.851044 14696 net.cpp:167] Top shape: 1 1 1 101 (101)
I1222 20:50:59.851048 14696 layer_factory.hpp:74] Creating layer loss
I1222 20:50:59.851055 14696 net.cpp:96] Creating Layer loss
I1222 20:50:59.851060 14696 net.cpp:459] loss <- pool_fc_pool_fusion_0_split_0
I1222 20:50:59.851065 14696 net.cpp:459] loss <- label_data_1_split_0
I1222 20:50:59.851073 14696 net.cpp:415] loss -> loss
I1222 20:50:59.851079 14696 net.cpp:160] Setting up loss
…
